restsyn/tabsyn/vae/ckpt/blobs_aaai/decoder.pt (torch, 21363 bytes, 33 tensors)

VAE_Decoder.layers.0.attention.W_q.weight f4 [4, 4]
-0.40107265 0.01632728 -0.2673543 -0.035609968 -0.41538495 0.02416091 0.22125418 -0.39578304
-0.4583097 0.20900294 0.12840946 0.52443475 -0.51691705 -0.14402165 0.0344226 -0.415366
00000000: 6559 cdbe cac0 853c aae2 88be c2db 11bd
00000010: 56ad d4be 1aed c53c 7590 623e 13a4 cabe
00000020: 92a7 eabe de04 563e c57d 033e 5b41 063f
00000030: ad54 04bf 697a 13be b6fe 0c3d daaa d4be

VAE_Decoder.layers.0.attention.W_q.bias f4 [4]
0.0169024 -0.06568659 -0.09393524 0.02613211
00000000: e776 8a3c b186 86bd 1e61 c0bd 0213 d63c

VAE_Decoder.layers.0.attention.W_k.weight f4 [4, 4]
0.015655976 0.08881241 0.42855874 -0.3536682 -0.34308988 -0.38549218 -0.1716663 0.27966306
-0.5484523 -0.09011051 -0.11916315 -0.18976079 -0.03667142 0.38847148 -0.4935223 0.18408233
00000000: f640 803c 48e3 b53d 0d6c db3e 0014 b5be
00000010: 7aa9 afbe 3b5f c5be 4ac9 2fbe ff2f 8f3e
00000020: 5f67 0cbf dc8b b8bd cf0b f4bd a750 42be
00000030: c534 16bd bce5 c63e f4ae fcbe 1480 3c3e

VAE_Decoder.layers.0.attention.W_k.bias f4 [4]
-0.00015701877 0.00018396109 -4.0786872e-05 1.1194083e-05
00000000: 68a5 24b9 aee5 4039 9212 2bb8 38ce 3b37

VAE_Decoder.layers.0.attention.W_v.weight f4 [4, 4]
0.20560585 -0.3795688 0.11305921 -0.2466544 0.24279387 -0.032468785 0.51973885 -0.26288003
0.13635829 0.2726791 -0.21181495 -0.05363148 -0.01024234 -0.047620416 0.13369301 -0.01953286
00000000: 578a 523e d756 c2be 968b e73d f992 7cbe
00000010: f59e 783e fdfd 04bd 9b0d 053f 3698 86be
00000020: 82a1 0b3e 989c 8b3e 05e6 58be afac 5bbd
00000030: 7dcf 27bc a00d 43bd d2e6 083e 6003 a0bc

VAE_Decoder.layers.0.attention.W_v.bias f4 [4]
0.0002367666 0.03245532 -0.015151528 -0.012351212
00000000: 8d44 7839 dfef 043d 1d3e 78bc bd5c 4abc

VAE_Decoder.layers.0.linear0.weight f4 [128, 4]
0.19725446 0.34745783 0.42747387 -0.0055624717 0.47415838 -0.14534284 -0.26201424 0.13895498
0.08558048 0.4083401 0.26815748 0.32241407 0.13762085 -0.0058218404 -0.47294754 -0.31441623
-0.10835448 0.06985943 -0.3044849 -0.43040004 -0.20127307 0.29695353 0.305406 0.29101223
-0.009698686 -0.33061075 0.11067028 -0.0041089365 0.3592147 -0.3814359 0.5049028 0.053996164
-0.2622938 0.35200354 -0.39283592 0.4475486 0.13846341 -0.112966135 0.2135695 0.04320209
-0.39214265 0.16955899 0.18143046 -0.24909092 -0.42522728 0.36247402 -0.074285984 0.4342137
-0.009698118 0.1556647 0.462841 0.10148741 -0.30018765 0.22284873 0.2469624 0.24060158
-0.31651413 -0.02583519 0.52922237 0.2834348 -0.23443758 -0.06664525 -0.24292043 -0.35415784
-0.30590856 0.05829954 0.22429536 -0.3926587 0.29162276 0.3694597 -0.34412822 0.45402378
-0.3418188 -0.07627108 -0.35949603 -0.35186937 -0.036112092 -0.029225403 -0.15319315 -0.08413375
-0.3313369 -0.24197632 -0.14662075 -0.10129712 0.10477053 0.39007726 0.0035030274 0.3160521
-0.4490629 0.52232313 0.016655566 0.3525177 -0.18535759 -0.39682066 -0.057009377 -0.14687136
0.34841037 0.0457499 -0.43751067 -0.26139766 0.41309455 -0.31966054 -0.29318935 0.062813915
-0.29584378 -0.41298813 -0.17731293 0.46097443 -0.28982896 0.29097745 0.12205729 -0.34000418
-0.08159173 -0.47287297 -0.10260344 0.46712092 -0.0041755545 -0.4537147 -0.08460514 0.2568263
0.36888704 0.24474727 -0.11058973 -0.15830687 -0.05785098 -0.24724825 -0.3940452 -0.005623389
0.35224742 -0.17174305 -0.3109901 0.18382533 0.24746968 -0.41556057 -0.17061612 -0.43942273
-0.21793623 -0.4367615 -0.26051015 0.055992037 0.055789433 -0.42124084 -0.068450175 0.36932313
-0.36161804 -0.40206912 -0.11235397 0.24636969 0.120854765 0.33055532 0.42748025 -0.48192582
0.13705164 -0.17906922 0.31226847 0.2944956 0.46073303 -0.46725798 -0.07625033 0.21233368
-0.28426176 0.4874551 -0.011738592 -0.213579 -0.42718115 0.42079687 0.21826187 0.51270473
0.59289855 0.33016688 -0.105062015 -0.13879156 0.3149165 0.11610182 -0.30108288 0.3181048
-0.18314639 0.36234346 -0.20408931 0.31396157 0.19163178 0.07579648 -0.05240417 -0.38414696
0.16050452 0.04500655 -0.21340805 -0.12543552 0.32915413 0.20882381 -0.14622538 0.3416587
0.03270893 -0.050213233 0.29924294 -0.08381552 0.4615224 0.4600283 -0.4155198 0.34637627
-0.016474959 0.4995313 -0.035087075 0.15335728 0.41890004 -0.02723159 -0.30002055 0.17278622
0.058132138 0.08243437 0.036693733 0.2723638 0.046862286 -0.4707074 0.20714512 -0.38473797
0.30102614 0.22469106 -0.19628018 0.21024345 0.48921907 -0.031240616 0.3568656 -0.1485141
-0.12489977 0.14912507 -0.40956947 0.06652836 0.3825409 0.44818357 -0.61400783 0.12819797
0.13458769 0.2757044 0.18369235 -0.41807342 -0.24621652 -0.21964134 -0.2671211 0.2663663
0.45909604 0.21508254 0.30765122 0.0012212577 -0.12229881 0.24853724 0.090049766 0.7996196
-0.05516669 0.33657905 -0.0257031 -0.38661805 0.3866103 -0.22598724 -0.26916385 0.19266252
00000000: 13fd 493e fee5 b13e dbdd da3e 6545 b6bb
00000010: e3c4 f23e c1d4 14be bb26 86be 374a 0e3e
00000020: d244 af3d f411 d13e f04b 893e 7513 a53e
00000030: 7bec 0c3e 23c5 bebb 2e26 f2be 2afb a0be
00000040: f4e8 ddbd 7612 8f3d 72e5 9bbe 655d dcbe
00000050: 871a 4ebe 4b0a 983e 2d5e 9c3e 8eff 943e
00000060: 3de7 1ebc d045 a9be 1aa7 e23d 42a4 86bb
00000070: fdea b73e 914b c3be 4f41 013f 152b 5d3d
00000080: 5f4b 86be cf39 b43e ca21 c9be 1725 e53e
00000090: 5ac9 0d3e ca5a e7bd f7b1 5a3e adf4 303d
000000a0: ecc6 c8be dfa0 2d3e e8c8 393e b111 7fbe
000000b0: 64b7 d9be 3296 b93e 4023 98bd 4251 de3e
000000c0: dbe4 1ebc 9166 1f3e 7ff9 ec3e a2d8 cf3d
000000d0: 32b2 99be 7532 643e b6e3 7c3e 4360 763e
000000e0: 240e a2be 52a4 d3bc 1e7b 073f 5e1e 913e
000000f0: 6810 70be 4e7d 88bd 22c0 78be 2d54 b5be
00000100: 0ca0 9cbe 80cb 6e3d afad 653e 900a c9be
00000110: 944f 953e d229 bd3e 9331 b0be ce75 e83e
00000120: e002 afbe 0334 9cbd dd0f b8be 3928 b4be
00000130: 46ea 13bd 1d6a efbc aade 1cbe 514e acbd
00000140: fda4 a9be a4c8 77be c023 16be dd74 cfbd
00000150: ee91 d63d 35b8 c73e 0c93 653b 95d1 a13e
00000160: 93eb e5be f8b6 053f 4171 883c 337d b43e
00000170: 61ce 3dbe 142c cbbe aa82 69bd 7265 16be
00000180: d862 b23e 3f64 3b3d 6601 e0be ead5 85be
00000190: 2181 d33e 8caa a3be ea1c 96be 95a4 803d
000001a0: d678 97be 2e73 d3be 8591 35be d704 ec3e
000001b0: 7664 94be fffa 943e 2cf9 f93d 0715 aebe
000001c0: 9119 a7bd 681c f2be c121 d2bd 792a ef3e
000001d0: 17d3 88bb 4b4d e8be 7645 adbd bd7e 833e
000001e0: c3de bc3e 079f 7a3e de7c e2bd 321b 22be
000001f0: 26f5 6cbd a52e 7dbe 4bc0 c9be 6844 b8bb
00000200: c659 b43e 69dd 2fbe 183a 9fbe b53c 3c3e
00000210: b168 7d3e 5bc4 d4be feb5 2ebe 04fc e0be
00000220: ad2a 5fbe 349f dfbe 9661 85be e857 653d
00000230: 7683 643d e1ac d7be 9b2f 8cbd ec17 bd3e
00000240: 0026 b9be 01dc cdbe d719 e6bd 5648 7c3e
00000250: b482 f73d 8c3e a93e b1de da3e fbbe f6be
00000260: 4457 0c3e ec5d 37be a7e1 9f3e 21c8 963e
00000270: 33e5 eb3e 703c efbe 2229 9cbd 006e 593e
00000280: c28a 91be b793 f93e 3953 40bc 74b4 5abe
00000290: 7db7 dabe b072 d73e 0a80 5f3e 9e40 033f
000002a0: 33c8 173f a20b a93e c12a d7bd 601f 0ebe
000002b0: bc3c a13e cac6 ed3d 8927 9abe a2de a23e
000002c0: ba8a 3bbe 1585 b93e cafc 50be 92bf a03e
000002d0: 1f3b 443e 2f3b 9b3d c1a5 56bd e9ae c4be
000002e0: 4c5b 243e ca58 383d a487 5abe 2b72 00be
000002f0: e486 a83e e9d5 553e 1bbc 15be e4ed ae3e
00000300: cdf9 053d 64ac 4dbd 5f36 993e 79a7 abbd
00000310: aa4c ec3e d488 eb3e 03bf d4be 3b58 b13e
00000320: 7ef6 86bc 91c2 ff3e 77b7 0fbd b109 1d3e
00000330: 117a d63e c914 dfbc 4b9c 99be dfee 303e
00000340: f71b 6e3d 5ad3 a83d 2b4c 163d 4573 8b3e
00000350: abf2 3f3d 8f00 f1be da1d 543e 60fc c4be
00000360: 1920 9a3e 6a15 663e acfd 48be 0f4a 573e
00000370: ec7a fa3e 52ec ffbc 17b7 b63e 1514 18be
00000380: 73cb ffbd 3eb4 183e 17b3 d1be 0540 883d
00000390: 67dc c33e 5178 e53e 9e2f 1dbf 5446 033e
000003a0: 5bd1 093e 2129 8d3e d919 3c3e b80d d6be
000003b0: 2f20 7cbe a9e9 60be 19c4 88be 2a61 883e
000003c0: a30e eb3e 993e 5c3e 7684 9d3e 9c12 a03a
000003d0: cc77 fabd 8c80 7e3e 036c b83d dfb3 4c3f
000003e0: 78f6 61bd 1754 ac3e 4f8f d2bc cdf2 c5be
000003f0: c9f1 c53e 3369 67be d8cf 89be 5349 453e

VAE_Decoder.layers.0.linear0.bias f4 [128]
0.23112503 -0.3996353 0.09407686 0.20377399 -0.01809953 0.15967664 -0.019006575 -0.38362458
0.22044522 0.38401356 -0.37359777 -0.5244099 -0.08998612 0.14596783 -0.14669341 0.38237768
-0.019977123 -0.2644006 0.047996107 0.009203734 0.15581378 0.19039203 0.030025925 -0.25004977
-0.105958425 0.16338493 0.1284353 0.047592454 -0.201365 -0.16497277 0.0138469115 0.4957732
-0.0661551 -0.0070009977 0.1323869 0.22099741 0.028000655 -0.2644381 -0.45857692 0.14894666
0.025665391 -0.3805188 -0.17529756 0.486206 -0.08635221 0.5014222 0.17517921 0.1414679
-0.038513504 -0.38360515 -0.26717728 0.32341453 -0.27428293 -0.4872994 -0.23084168 -0.3210801
-0.43032193 0.4033355 -0.042667065 -0.27030763 0.019151416 -0.3835098 -0.011881525 -0.17789198
0.27175567 -0.3178995 -0.3285494 -0.3459683 -0.03800109 0.028250264 -0.17491435 0.42741546
0.47201157 -0.053275473 0.3856456 -0.48592135 0.21220216 -0.2255675 -0.09176555 0.11943084
-0.23272161 0.5056572 -0.07991957 0.25151467 -0.29043087 -0.45321792 0.04423906 0.4106408
0.41918588 -0.20662078 0.37789643 0.47713608 0.3069428 0.2004613 -0.10799189 0.31298706
-0.04744719 0.35415515 0.11809564 -0.45004743 0.034809586 0.044540897 0.20144065 0.27714276
-0.5112955 -0.2594594 -0.09168303 -0.22962908 -0.20100628 -0.2896237 0.44978225 -0.13533549
-0.450277 0.25444692 -0.38652015 -0.328521 -0.25054798 0.27961692 -0.09970389 0.3047164
-0.35321862 0.3628318 -0.13957499 -0.37823856 0.098049805 0.13504606 0.41166428 -0.26937592
00000000: 0aac 6c3e ff9c ccbe 5eab c03d 21aa 503e
00000010: 7745 94bc 4682 233e adb3 9bbc 716a c4be
00000020: 64bc 613e 6d9d c43e 3548 bfbe ba3f 06bf
00000030: a54a b8bd 9778 153e cc36 16be 02c7 c33e
00000040: 10a7 a3bc 845f 87be 9197 443d 42cb 163c
00000050: a68d 1f3e 21f6 423e eef8 f53c 8606 80be
00000060: bb00 d9bd 614e 273e 8b84 033e 4ef0 423d
00000070: a032 4ebe 9fee 28be 28de 623c fcd5 fd3e
00000080: 537c 87bd a068 e5bb 6e90 073e 254d 623e
00000090: a161 e53c 6e64 87be 98ca eabe 7985 183e
000000a0: 3a40 d23c 5cd3 c2be 3481 33be feef f83e
000000b0: 6dd9 b0bd 355d 003f 2e62 333e f6dc 103e
000000c0: 56c0 1dbd e567 c4be 76cb 88be 9796 a53e
000000d0: d06e 8cbe 4f7f f9be c361 6cbe 9c64 a4be
000000e0: 2853 dcbe fe81 ce3e a9c3 2ebd c365 8abe
000000f0: 6ee3 9c3c 665b c4be baaa 42bc 5129 36be
00000100: 8f23 8b3e b9c3 a2be a137 a8be c222 b1be
00000110: 08a7 1bbd 196d e73c bf1c 33be 33d6 da3e
00000120: 80ab f13e 6237 5abd 5773 c53e afca f8be
00000130: 864b 593e 2bfb 66be 94ef bbbd 2898 f43d
00000140: 934e 6ebe c072 013f dfac a3bd 88c6 803e
00000150: 5bb3 94be 2e0c e8be 0434 353d 833f d23e
00000160: 889f d63e 6694 53be a47b c13e 2e4b f43e
00000170: 9b27 9d3e ba45 4d3e da2a ddbd d73f a03e
00000180: fc57 42bd d353 b53e 20dc f13d 9e6c e6be
00000190: 7f94 0e3d 8470 363d 7546 4e3e a8e5 8d3e
000001a0: 43e4 02bf ddd7 84be 50c4 bbbd e323 6bbe
000001b0: 97d4 4dbe 8f49 94be dc49 e63e 6395 0abe
000001c0: b58a e6be de46 823e f8e5 c5be e833 a8be
000001d0: d347 80be f329 8f3e 8e31 ccbd ca03 9c3e
000001e0: 12d9 b4be 17c5 b93e bfec 0ebe 7ca8 c1be
000001f0: 56ce c83d 8449 0a3e a9c5 d23e a4eb 89be

VAE_Decoder.layers.0.linear1.weight f4 [4, 128]
0.040472336 0.07571064 0.03586586 0.00022994819 -0.025430148 0.039438654 0.03511201 -0.05272033
-0.07782591 0.10480822 0.105500706 -0.027172806 0.06617412 -0.024115773 0.0533578 -0.028183214
0.0002523931 0.0061980407 -0.07731073 -0.050983 -0.080918305 0.035030775 0.04834676 0.0885926
-0.027080772 -0.029768713 0.024542615 -0.035957154 0.04657305 0.005855611 0.03746349 -0.040520933
-0.023026118 0.012926038 0.053523116 0.06725809 -0.048469044 -0.110217445 0.029244177 0.022015024
0.040185325 0.026027761 -0.3470008 -0.042222764 -0.04343226 -0.029574215 -0.040497392 -0.019096568
-0.055884127 -0.009851711 -0.109118156 0.029064776 0.04140545 0.008576705 -0.0794357 0.0308665
0.07184991 -0.09519935 -0.05638847 0.048442796 -0.089005135 -0.056144174 0.06980832 -0.02772078
0.0038954092 -0.01245185 0.05222836 -0.056350224 0.08418708 -0.09271227 0.08075357 0.05225609
-0.09959235 0.013475066 0.022587012 -0.00654159 0.09616034 -0.01852298 -0.07804782 0.0387574
-0.042155 0.054888524 -0.11412284 -0.073074244 -0.05749905 0.006173004 -0.006677706 -0.059233163
0.048051804 -0.031952336 0.055608585 0.028757822 -0.056291297 0.021166734 0.023695854 0.015472637
0.048703514 0.10458374 0.06785371 -0.0036053045 -0.049626004 0.031428102 0.03070525 0.024542991
0.023834512 -0.009489636 -0.032905657 0.02878658 0.1177874 0.067423396 -0.043915458 -0.103765756
-0.04338679 0.029190553 0.092119694 0.051325336 0.031703174 0.052953303 -0.002504854 -0.033087336
0.018858708 -0.057767894 -0.10388114 -0.025611263 -0.07089813 -0.023799922 -0.009354155 0.045916304
0.0031715233 0.0716672 -0.06511984 0.03221372 0.04359849 -0.03634953 0.09950632 0.10481906
-0.10910578 0.07671301 0.008701272 -0.03834828 0.025359899 -0.012053048 0.062074248 -0.0032027646
0.10037385 0.05573794 -0.062400825 0.035977934 0.051563736 0.032087933 -0.07591007 0.10086267
0.044949464 -0.0021705762 0.07738063 0.1316438 -0.047188472 0.026470307 -0.044430573 0.048952356
-0.0076477514 0.029374857 0.04713989 -0.00316335 0.08561709 0.34749475 0.053913355 -0.0011112617
0.06880213 -0.09152149 -0.47020194 -0.04216261 -0.06089652 0.04289434 -0.0067903865 -0.082117714
0.057649706 0.072451666 0.0032349923 -0.014603015 -0.056193467 -0.027074222 -0.027109157 0.019570982
0.0121258525 -0.057993464 0.12728404 -0.07236166 0.116311766 -0.033564035 0.0675793 -0.061151724
-0.044691093 0.028287787 -0.001230131 0.016890947 0.07011748 0.10829908 -0.023387449 -0.041610945
-0.004439103 0.08078357 -0.040272444 -0.014208841 -0.042285502 0.07828076 -0.04746108 -0.044085316
-0.060838975 0.06797959 -0.13060158 0.031148 0.023457991 -0.032919202 -0.072729915 -0.04405926
0.13195215 -0.0056470353 -0.041143067 0.033218294 -0.060487278 0.014805115 -0.0014739651 0.09245687
0.057687454 0.042764414 -0.012196415 -0.011694518 -0.06083186 -0.050861705 0.06421121 0.06690425
0.080370225 0.14189528 0.009933408 0.06063057 -0.008105108 0.08125097 -0.054478746 -0.040690444
-0.050581973 -0.043919466 0.047368973 -0.017667742 0.027657926 0.027891876 0.071461834 0.08685836
-0.010603095 -0.022576485 0.009606102 0.013960283 -0.10478486 -0.04199545 -0.0179449 0.12649442
00000000: 52c6 253d 2e0e 9b3d 14e8 123d 3f1e 7139
00000010: e352 d0bc 6d8a 213d 9cd1 0f3d 46f1 57bd
00000020: 3163 9fbd b1a5 d63d c110 d83d 8199 debc
00000030: 4c86 873d 718e c5bc b58d 5a3d 7ce0 e6bc
00000040: a153 8439 ef18 cb3b 1755 9ebd 8dd3 50bd
00000050: 7fb8 a5bd 6e7c 0f3d 4107 463d 0970 b53d
00000060: 7fd8 ddbc 84dd f3bc 980d c93c cf47 13bd
00000070: 62c3 3e3d 6de0 bf3b 5173 193d 47f9 25bd
00000080: 45a1 bcbc bcc7 533c 0e3b 5b3d 9cbe 893d
00000090: 7a87 46bd afb9 e1bd 7c91 ef3c da58 b43c
000000a0: 5e99 243d 2c38 d53c 17aa b1be c7f1 2cbd
000000b0: 07e6 31bd a045 f2bc 98e0 25bd 6870 9cbc
000000c0: c1e6 64bd 1269 21bc 5779 dfbd 4119 ee3c
000000d0: c398 293d 4f85 0c3c 2faf a2bd bedb fc3c
000000e0: 0c26 933d e0f7 c2bd 99f7 66bd f46b 463d
000000f0: 5348 b6bd 6ff7 65bd aaf7 8e3d b016 e3bc
00000100: 1f4a 7f3b d802 4cbc 68ed 553d 7ecf 66bd
00000110: 476a ac3d eedf bdbd 2162 a53d 7b0a 563d
00000120: 13f7 cbbd 86c6 5c3c 6608 b93c d65a d6bb
00000130: b6ef c43d 81bd 97bc 89d7 9fbd 14c0 1e3d
00000140: b9aa 2cbd cad2 603d 3cb9 e9bd f3a7 95bd
00000150: 2084 6bbd e946 ca3b a8d0 dabb 799e 72bd
00000160: f8d1 443d 74e0 02bd d4c5 633d 8695 eb3c
00000170: b491 66bd dc65 ad3c cf1d c23c f180 7d3c
00000180: 567d 473d 0030 d63d e3f6 8a3d f946 6cbb
00000190: a344 4bbd c1ba 003d 9489 fb3c 620e c93c
000001a0: 9840 c33c 6b7a 1bbc 15c8 06bd d5d1 eb3c
000001b0: 853a f13d 4715 8a3d b2e0 33bd 2483 d4bd
000001c0: 59b6 31bd 0721 ef3c 40a9 bc3d 843a 523d
000001d0: 30db 013d 90e5 583d 7a28 24bb 9686 07bd
000001e0: 947d 9a3c 079e 6cbd a3bf d4bd b6ce d1bc
000001f0: 0a33 91bd 0ef8 c2bc 2b42 19bc bc12 3c3d
00000200: 55d9 4f3b 41c6 923d 8d5d 85bd 89f2 033d
00000210: 5594 323d 3fe3 14bd f8c9 cb3d 60ab d63d
00000220: da72 dfbd b61b 9d3d c88f 0e3c 1613 1dbd
00000230: 90bf cf3c 267a 45bc 9141 7e3d 79e5 51bb
00000240: ce90 cd3d 774d 643d 0298 7fbd 995d 133d
00000250: 7f34 533d a36e 033d bd76 9bbd 1691 ce3d
00000260: ee1c 383d 3a40 0ebb bc79 9e3d a2cd 063e
00000270: b348 41bd 42d8 d83c d5fc 35bd 4482 483d
00000280: fd99 fabb 8aa3 f03c c215 413d 3550 4fbb
00000290: 0358 af3d d5ea b13e 40d4 5c3d c1a7 91ba
000002a0: 22e8 8c3d 9e6f bbbd 4fbe f0be b3b2 2cbd
000002b0: a16e 79bd fab1 2f3d e481 debb 552d a8bd
000002c0: 1922 6c3d 8a61 943d 2a02 543b 7c41 6fbc
000002d0: 1f2b 66bd c2ca ddbc 0614 debc 5353 a03c
000002e0: 83ab 463c 8e8a 6dbd bf56 023e 5a32 94bd
000002f0: dd34 ee3d 717a 09bd 0467 8a3d 3b7a 7abd
00000300: 020e 37bd cabb e73c 593c a1ba e25e 8a3c
00000310: c199 8f3d e8cb dd3d 0997 bfbc 3d70 2abd
00000320: e575 91bb db71 a53d b8f4 24bd 33cc 68bc
00000330: 9033 2dbd aa51 a03d 8d66 42bd ce92 34bd
00000340: 4a32 79bd e238 8b3d 6cbc 05be 172a ff3c
00000350: f92a c03c 49d6 06bd 6cf3 94bd 7c77 34bd
00000360: 771e 073e c40a b9bb a285 28bd e80f 083d
00000370: 82c1 77bd 2791 723c 1032 c1ba 075a bd3d
00000380: ae49 6c3d bd29 2f3d 79d3 47bc 5d9a 3fbc
00000390: d42a 79bd 5d54 50bd 2b81 833d 1805 893d
000003a0: 2599 a43d ff4c 113e bcbf 223c c357 783d
000003b0: 49cb 04bc e966 a63d 1b25 5fbd 06ab 26bd
000003c0: 0b2f 4fbd e6e4 33bd f805 423d f1bb 90bc
000003d0: e092 e23c 817d e43c 955a 923d cce2 b13d
000003e0: 9bb8 2dbc 52f2 b8bc e962 1d3c acb9 643c
000003f0: 7299 d6bd 6c03 2cbd 2f01 93bc c187 013e

VAE_Decoder.layers.0.linear1.bias f4 [4]
0.03404113 -0.027151283 0.07267947 -0.095530115
00000000: b66e 0b3d 5e6c debc f9d8 943d 4ba5 c3bd

VAE_Decoder.layers.0.norm1.weight f4 [4]
0.99025476 1.0546732 1.1840014 1.133042
00000000: 5681 7d3f 88ff 863f 5c8d 973f 8507 913f

VAE_Decoder.layers.0.norm1.bias f4 [4]
-0.012155616 0.0229169 0.01975727 -0.036907658
00000000: 5928 47bc 39bc bb3c 00da a13c 7c2c 17bd

VAE_Decoder.layers.1.attention.W_q.weight f4 [4, 4]
-0.20436724 -0.28171182 -0.37147027 0.39385182 -0.42979342 0.14535087 -0.21888079 -0.15562902
-0.10475745 -0.3266093 0.39866006 -0.15076242 0.49547058 -0.29823402 0.3588411 0.4466681
00000000: a545 51be 883c 90be 5a31 bebe f2a6 c93e
00000010: e20d dcbe dcd6 143e 4922 60be 375d 1fbe
00000020: 138b d6bd 5639 a7be 2c1d cc3e 7761 1abe
00000030: 52ae fd3e 21b2 98be 05ba b73e aeb1 e43e

VAE_Decoder.layers.1.attention.W_q.bias f4 [4]
-0.0940657 0.0097115105 -0.018248975 0.0031156144
00000000: 85a5 c0bd 071d 1f3c e07e 95bc 562f 4c3b

VAE_Decoder.layers.1.attention.W_k.weight f4 [4, 4]
-0.0822924 -0.34399685 -0.19064152 0.5951596 -0.39189377 0.16913624 -0.21445327 0.16811764
0.060295973 -0.008045704 0.09415628 0.11720254 0.17260352 0.320984 -0.12169081 0.3786937
00000000: eb88 a8bd 5b20 b0be 8837 43be 615c 183f
00000010: 4da6 c8be 0d32 2d3e a399 5bbe 0827 2c3e
00000020: e9f8 763d 21d2 03bc 02d5 c03d e307 f03d
00000030: fabe 303e 0458 a43e 0839 f9bd 24e4 c13e

VAE_Decoder.layers.1.attention.W_k.bias f4 [4]
-3.918585e-05 2.5040308e-05 0.0001494939 -4.8543086e-05
00000000: 7c5b 24b8 a70d d237 77c1 1c39 be9a 4bb8

VAE_Decoder.layers.1.attention.W_v.weight f4 [4, 4]
0.12019264 0.48394865 0.21930547 0.26868898 -0.47547594 0.4665764 0.07729817 -0.30945474
-0.32258162 -0.33955076 0.15086696 0.1373293 0.040802233 -0.41320392 -0.12040332 -0.39878362
00000000: 8f27 f63d 1ec8 f73e 9d91 603e 9a91 893e
00000010: 9571 f3be 1ae3 ee3e 814e 9e3d da70 9ebe
00000020: 6b29 a5be 99d9 adbe de7c 1a3e 0da0 0c3e
00000030: 3e20 273d 778f d3be 0496 f6bd 5e2d ccbe

VAE_Decoder.layers.1.attention.W_v.bias f4 [4]
0.01052189 0.023474162 0.008485436 -0.010089188
00000000: 0164 2c3c e34c c03c 8006 0b3c 1f4d 25bc

VAE_Decoder.layers.1.linear0.weight f4 [128, 4]
-0.18494655 -0.39139277 0.33770975 -0.12010498 0.49968505 -0.34903756 -0.32134476 1.0021509
-0.026747363 -0.083369404 -0.099106565 -0.45097736 0.33628774 -0.28893116 -0.22954325 -0.3688349
0.25455877 0.38165438 -0.45785692 0.21189629 0.45040318 -0.07417748 -0.35667908 -0.25595
-0.027013082 0.43424737 -0.19230966 -0.18516591 -0.20579416 0.40947658 0.09981605 0.37203816
0.14857407 0.39728916 -0.38613933 0.0109281875 -0.14957452 0.5401579 0.40283954 0.029150462
0.34766886 -0.02157802 -0.33145657 -0.5118724 0.1734163 0.113816604 -0.073667586 -0.28661326
0.45272377 -0.45617843 -0.5419021 0.11965027 0.07667416 0.37594673 0.4717603 -0.12704846
0.4988318 -0.33484906 0.42403656 -0.2666641 0.080965 -0.11943268 -0.11626363 0.5095478
-0.45836762 -0.18406184 0.18315656 -0.15935461 -0.44057623 -0.23173924 -0.4263322 0.41457838
0.31386834 -0.27756658 0.19862467 -0.38152292 -0.06252005 0.30282578 -0.5098495 -0.25794768
0.3555391 0.021303512 0.12761258 0.47098285 0.3585881 -0.122900195 0.27425337 -0.37516567
0.27803546 -0.30356762 0.5717822 -0.32253262 0.3881075 -0.21651417 0.21152402 0.14014435
0.17907198 -0.44411793 0.09715273 -0.21827179 -0.20614798 0.1289139 -0.16237035 0.44314322
0.36994192 -0.04576118 0.14181353 -0.25346577 -0.36021042 -0.30815992 -0.40093198 0.1945202
0.07281835 0.2983317 0.3461927 0.41727024 -0.3390649 -0.08211292 0.28407297 -0.42581326
0.29334012 -0.30303413 0.06592945 -0.001808958 -0.16067976 -0.28934416 0.31036133 -0.09278722
-0.35676166 0.108265705 -0.3287989 0.34959272 0.44782758 -0.40872687 0.28551605 -0.006819673
-0.43869254 0.17703794 0.5432609 -0.06148256 0.4007213 -0.105700344 -0.19541427 -0.36797002
0.033147752 -0.0026285648 0.20373505 0.13763207 -0.1770019 0.438322 -0.17948735 -0.4757918
-0.26849473 -0.23195782 -0.27868247 0.10233096 0.030137666 0.124939434 0.1416048 -0.4711143
0.4867015 0.41832238 0.27580738 -0.5665593 0.44391173 -0.2690268 -0.07049251 -0.2606387
-0.09692538 -0.43917263 0.19166096 0.14006369 0.304829 -0.12727635 0.050330307 0.030847382
0.089293666 -0.4637486 -0.41929314 0.10977764 0.26442093 0.35296693 0.3755334 -0.33691874
-0.47209278 0.050431676 -0.3614879 -0.4646414 0.021977017 0.37681994 -0.0043075224 0.119687766
0.48635954 0.36794677 -0.341131 0.20219527 0.42132473 -0.44119075 -0.038577735 0.3854086
0.050782256 0.023570271 0.41461796 0.4544733 0.37284142 -0.19077478 -0.4519056 0.4403611
0.4909164 0.34398508 0.21052203 -0.45428923 -0.48985845 0.43776968 0.51092005 0.28816026
-0.38002703 0.18278265 -0.09724592 -0.3048713 0.2913449 0.38447472 0.40953544 0.18465509
-0.3783224 0.4683642 -0.54349065 0.21417035 -0.24759293 -0.17567664 -0.029010415 0.023172915
0.09474354 -0.17183906 -0.26208937 0.21610896 -0.29403335 0.55072755 -0.17334597 -0.4813675
0.4933365 0.017765123 -0.023388453 0.5321767 -0.26261914 0.1753358 0.04620755 0.20758173
-0.49481127 -0.22711565 -0.4342345 -0.010827642 -0.33690292 -0.125479 -0.28108308 0.33439523
00000000: a162 3dbe a264 c8be 4be8 ac3e 9af9 f5bd
00000010: b8d6 ff3e 0db5 b2be 4d87 a4be 7b46 803f
00000020: 491d dbbc 94bd aabd 62f8 cabd 81e6 e6be
00000030: e82d ac3e c9ee 93be 630d 6bbe eed7 bcbe
00000040: 8755 823e 3468 c33e 396c eabe 57fb 583e
00000050: 3f9b e63e 5dea 97bd a49e b6be e10b 83be
00000060: 8a4a ddbc ac55 de3e d3ec 44be 229c 3dbe
00000070: b4bb 52be eaa6 d13e 5b6c cc3d c97b be3e
00000080: cd23 183e 7c69 cb3e 0eb4 c5be 240c 333c
00000090: 102a 19be ca47 0a3f fc40 ce3e f3cc ee3c
000000a0: a701 b23e 63c4 b0bc adb4 a9be 120a 03bf
000000b0: 0b94 313e ae18 e93d 08df 96bd f9be 92be
000000c0: 69cb e73e 3890 e9be 19ba 0abf 330b f53d
000000d0: 5807 9d3d 177c c03e 918a f13e fe18 02be
000000e0: e266 ff3e 5671 abbe 521b d93e 3288 88be
000000f0: fad0 a53d 1f99 f4bd a01b eebd ba71 023f
00000100: 29af eabe b57a 3cbe 658d 3b3e db2d 23be
00000110: 3593 e1be 0d4d 6dbe 3748 dabe 9e43 d43e
00000120: 5ab3 a03e 351d 8ebe 4464 4b3e f956 c3be
00000130: 830a 80bd fb0b 9b3e 7f85 02bf b811 84be
00000140: 3909 b63e b484 ae3c dfac 023e aa24 f13e
00000150: dc98 b73e 19b3 fbbd f06a 8c3e b715 c0be
00000160: aa5a 8e3e 376d 9bbe 5160 123f ff22 a5be
00000170: 07b6 c63e e4b5 5dbe c199 583e 0082 0f3e
00000180: a55e 373e 6d63 e3be 03f8 c63d a482 5fbe
00000190: 7518 53be 0102 043e 6a44 26be abe3 e23e
000001a0: 0769 bd3e 1370 3bbd 9137 113e 44c6 81be
000001b0: 806d b8be 23c7 9dbe f546 cdbe 4e30 473e
000001c0: c921 953d efbe 983e 2b40 b13e 72a4 d53e
000001d0: ea99 adbe d22a a8bd 0372 913e 3204 dabe
000001e0: ad30 963e 4a27 9bbe 0506 873d 8f1a edba
000001f0: 3c89 24be eb24 94be aee7 9e3e 3a07 bebd
00000200: 77a9 b6be 69ba dd3d 5458 a8be d1fd b23e
00000210: a849 e53e a644 d1be 292f 923e 9077 dfbb
00000220: 4f9c e0be 6f49 353e 2513 0b3f 23d5 7bbd
00000230: 582b cd3e 6c79 d8bd ae1a 48be 9166 bcbe
00000240: f0c5 073d 0044 2cbb ec9f 503e 6cef 0c3e
00000250: fc3f 35be be6b e03e 88cb 37be fc9a f3be
00000260: 2478 89be 5a86 6dbe 78af 8ebe e592 d13d
00000270: 44e3 f63c 3fe0 ff3d d900 113e e535 f1be
00000280: f030 f93e 5a2e d63e a036 8d3e 080a 11bf
00000290: 6648 e33e e1bd 89be 615e 90bd 7072 85be
000002a0: d080 c6bd 3cdb e0be c542 443e db6c 0f3e
000002b0: 8c12 9c3e bb54 02be 2727 4e3d a6b3 fc3c
000002c0: 99df b63d 7570 edbe 97ad d6be 19d3 e03d
000002d0: 2e62 873e 15b8 b43e ea45 c03e 9d80 acbe
000002e0: 25b6 f1be 7291 4e3d f114 b9be 7ae5 edbe
000002f0: 2509 b43c 8bee c03e 1e26 8dbb dc1e f53d
00000300: 1e04 f93e 8563 bc3e b9a8 aebe 470c 4f3e
00000310: e0b7 d73e c1e3 e1be b003 1ebd 4754 c53e
00000320: 0e01 503d 7116 c13c ce48 d43e b9b0 e83e
00000330: 12e5 be3e 775a 43be 2c60 e7be 0377 e13e
00000340: 6559 fb3e d01e b03e 1693 573e 9998 e8be
00000350: bace fabe 5923 e03e a8cb 023f be89 933e
00000360: e792 c2be 602b 3b3e de28 c7bd 1718 9cbe
00000370: 292b 953e dfd9 c43e a1ae d13e 3916 3d3e
00000380: 79b3 c1be 6fcd ef3e 3422 0bbf 794f 5b3e
00000390: 0089 7dbe 94e4 33be 40a7 edbc 20d5 bd3c
000003a0: e708 c23d 94f6 2fbe 9430 86be ab4b 5d3e
000003b0: 8a8b 96be 7bfc 0c3f 9b81 31be cd75 f6be
000003c0: 9a96 fc3e 2a88 913c 2499 bfbc bb3c 083f
000003d0: 0476 86be 3a8b 333e 2144 3d3d 4e90 543e
000003e0: e757 fdbe 0191 68be fc53 debe 6c66 31bc
000003f0: 8a7e acbe 917d 00be 1fea 8fbe da35 ab3e

VAE_Decoder.layers.1.linear0.bias f4 [128]
-0.11869713 0.12208469 0.0769813 -0.44561678 -0.024141008 0.069701366 -0.13988128 0.15897971
-0.13042645 -0.18314981 0.4267599 -0.11011218 -0.154713 -0.04771655 0.312769 0.2712797
0.42365888 0.14931248 -0.351061 0.5349234 -0.14099121 -0.23104241 0.15213259 0.04812678
-0.4723784 0.12718594 -0.3100459 0.37363487 0.34365994 0.120371655 -0.08793061 -0.47078618
0.0055918293 -0.098129466 0.47763693 0.27114308 -0.46624106 0.22409156 0.10046145 0.22870976
0.13261032 -0.2402126 -0.45395604 0.40918356 -0.46251285 -0.26918527 -0.07413928 0.12593256
0.06633093 0.11416094 -0.20664486 -0.3428932 -0.31534645 -0.3220325 0.25571322 0.21093757
0.48433915 -0.4554879 0.120993204 0.03348202 -0.3836917 0.4357636 -0.062389243 -0.33942622
-0.37151164 -0.28572944 -0.3885547 -0.022138467 0.27696416 0.41577995 -0.11933925 -0.3970369
0.24472427 0.12931868 0.2745978 -0.27422723 -0.30178308 -0.2006662 0.24291135 -0.29600525
-0.12983042 0.08249867 -0.3371674 0.056338172 -0.36193517 -0.11644407 0.38558143 -0.44264778
0.45533144 0.15019794 0.34931117 -0.108895265 -0.110866286 -0.3847639 -0.22845446 0.05051166
0.14358184 -0.19419755 0.012191436 0.11400304 -0.3153282 0.38455194 -0.16356957 0.37076283
0.1557779 -0.5154347 -0.2572097 -0.29567698 0.020484786 -0.20021951 0.19183177 0.013131381
-0.0515234 0.42717063 -0.20247376 -0.384366 -0.2455461 0.3376237 0.011809629 -0.26990902
0.27414328 -0.15886761 0.32423773 -0.015688034 0.24304278 -0.21222965 0.19433463 -0.19659859
00000000: 7b17 f3bd 8a07 fa3d 5fa8 9d3d e227 e4be
00000010: 5dc3 c5bc 97bf 8e3d 0a3d 0fbe 94cb 223e
00000020: 838e 05be a08b 3bbe 4680 da3e 7f82 e1bd
00000030: 166d 1ebe 6e72 43bd 4223 a03e 2ce5 8a3e
00000040: d1e9 d83e 5fe5 183e 44be b3be bdf0 083f
00000050: 0060 10be 6296 6cbe a5c8 1b3e 9620 453d
00000060: 95db f1be 083d 023e 56be 9ebe 124d bf3e
00000070: 32f4 af3e 6a85 f63d f714 b4bd e30a f1be
00000080: aa3b b73b 1af8 c8bd d48c f43e 44d3 8a3e
00000090: 26b7 eebe 4278 653e bcbe cd3d e432 6a3e
000000a0: 00cb 073e 4bfa 75be ed6c e8be 8280 d13e
000000b0: 7cce ecbe a7d2 89be 56d6 97bd 77f4 003e
000000c0: 83d8 873d 36cd e93d b69a 53be b38f afbe
000000d0: 1775 a1be 72e1 a4be d8ec 823e 0500 583e
000000e0: 4dfb f73e b635 e9be 49cb f73d 7124 093d
000000f0: 3d73 c4be 681c df3e dd8b 7fbd 46c9 adbe
00000100: c636 bebe 214b 92be a4f0 c6be bb5b b5bc
00000110: 3fce 8d3e 1ce1 d43e 2368 f4bd 6c48 cbbe
00000120: 0099 7a3e 1e6c 043e 1598 8c3e 8367 8cbe
00000130: 5083 9abe 717b 4dbe c1bd 783e 008e 97be
00000140: 44f2 04be 10f5 a83d 35a1 acbe dbc2 663d
00000150: 914f b9be 3b7a eebd ee6a c53e bba2 e2be
00000160: 3421 e93e 7dcd 193e ead8 b23e 7b04 dfbd
00000170: dd0d e3bd c6ff c4be f7ef 69be 50e5 4e3d
00000180: 1e07 133e b9db 46be 97be 473c 6d7a e93d
00000190: b372 a1be fee3 c43e c87e 27be a0d4 bd3e
000001a0: 3e84 1f3e 87f3 03bf fdb0 83be f962 97be
000001b0: b6cf a73c 5806 4dbe 8c6f 443e 0125 573c
000001c0: 330a 53bd 1cb6 da3e 4855 4fbe 9fcb c4be
000001d0: 7070 7bbe 03dd ac3e 2d7d 413c 8431 8abe
000001e0: 825c 8c3e 31ae 22be 7d02 a63e 3184 80bc
000001f0: 35e0 783e bb52 59be a8ff 463e 2451 49be

VAE_Decoder.layers.1.linear1.weight f4 [4, 128]
0.042057294 0.018281078 0.004351901 0.010619236 -0.052057624 -0.07302698 -3.5605546e-05 -0.011153064
-0.0913691 0.05110363 0.07923644 0.055566996 -0.013610852 0.022692524 0.10540753 0.07050417
0.021898558 0.047279842 0.07968353 -0.016959488 0.08140561 0.06976301 0.060910735 0.064731754
0.03200469 -0.14922568 0.07015924 0.015540951 -0.054534312 0.061544172 0.04717952 -0.09526762
-0.15889476 0.036149636 0.09412386 0.06153994 -0.081158035 0.10456389 0.050838433 0.10746616
0.12624948 -0.046478055 -0.08605192 -0.04525324 0.108163446 0.14385836 0.07357087 0.039788466
-0.07828909 0.077997565 0.04456662 0.104485646 0.05520986 -0.033294663 -0.037721902 0.0329325
-0.05835029 0.058938205 0.0110185575 -0.020041537 0.010385533 -0.022864312 -0.07459801 0.055398714
-0.08999731 0.08507682 0.06240445 -0.033813253 -0.0719114 -0.053646192 -0.055119414 -0.14670864
0.008015738 -0.023451695 -0.05206525 -0.16862608 -0.08437331 -0.0144469 -0.025908262 -0.009987578
-0.03287373 0.053179894 -0.09214242 -0.0108643565 -0.006840653 -0.031627126 -0.041081924 0.06939593
-0.004149737 0.048355393 -0.05305329 0.09145662 -0.07009762 -0.16492802 0.04684631 -0.09631323
-0.007505383 0.10377648 -0.011301072 0.022292754 -0.01681452 0.07059121 -0.045817584 0.088409536
0.07946876 0.014055205 0.07078178 0.09307264 0.024736186 -0.050299127 0.0017487078 0.012624625
-0.015998311 0.12299713 0.09606488 -0.024944028 0.0023401126 0.019702254 -0.0460929 0.019837625
0.06899497 -0.058162715 0.07744189 0.05564531 -0.051076423 -0.03708905 0.05165824 -0.37353814
0.08721242 -0.33757058 0.098688684 -0.2746643 -0.17325386 0.019769976 0.06264245 0.011038907
-0.0068610217 0.17450576 0.088595346 -0.0056880875 -0.08233985 0.1591756 -0.010097545 0.06517871
-0.04301878 -0.08189968 -0.016079208 -0.04246184 -0.037731666 -0.019252306 0.048441637 0.02489818
0.017728286 -0.034856696 0.025968064 0.049597476 0.014639104 0.048721567 0.054116633 -0.05211556
0.049652725 0.07986134 0.08957878 0.017123362 -0.034344822 0.10039416 -0.08306688 0.043806843
0.0819895 -0.03724683 0.026636632 -0.026449276 -0.07289653 0.11301344 0.02005863 0.01361603
-0.063365206 -0.06645408 -0.014073275 -0.091274224 0.0037658112 0.083969116 0.1354661 0.056112844
-0.016759697 -0.067282826 -0.0927442 0.13482253 -0.082437254 0.050062783 0.021462826 -0.028211147
-0.07421425 1.0011601 0.0008048728 0.030420082 -0.054781258 -0.10938702 -0.059572663 -0.19359279
0.022744333 0.0033010126 0.015211471 -0.14904782 0.040132206 0.015309481 -0.029950388 -0.032283254
0.068516366 0.16389456 -0.19962613 -0.082936704 -0.11353979 -0.041001424 0.036379077 0.084776
-0.037164282 0.09171877 0.14918983 -0.039977416 -0.07723669 -0.23421064 0.025489109 -0.10154616
-0.05829634 0.03629843 -0.17303737 0.024992708 -0.053291634 0.06391547 -0.10523075 0.080582224
-0.033055395 -0.05223445 -0.057826392 -0.07009931 -0.05516055 0.09088801 0.020953223 0.03935722
0.05091273 -0.016988482 0.11789132 0.012327403 0.032103244 0.0283078 0.15566698 -0.13521126
0.082226075 -0.0899715 0.07177987 -0.02354634 0.04698444 -0.03757421 0.14948548 0.059633978
00000000: 4544 2c3d 33c2 953c 649a 8e3b 4efc 2d3c
00000010: 603a 55bd 2b8f 95bd 2a57 15b8 57bb 36bc
00000020: b91f bbbd 0a52 513d b746 a23d 389a 633d
00000030: 0d00 5fbc ace5 b93c e7df d73d 7e64 903d
00000040: 9b64 b33c 82a8 413d 1e31 a33d a0ee 8abc
00000050: fcb7 a63d e9df 8e3d 897d 793d 1592 843d
00000060: 5a17 033d 9ece 18be a6af 8f3d 799f 7e3c
00000070: 5f5f 5fbd be15 7c3d 503f 413d ac1b c3bd
00000080: 4fb5 22be a411 143d 03c4 c03d 4e11 7c3d
00000090: 2f36 a6bd 9825 d63d f63b 503d 3817 dc3d
000000a0: 8b47 013e c65f 3ebd fd3b b0bd 765b 39bd
000000b0: cc84 dd3d 9b4f 133e 53ac 963d 3bf9 223d
000000c0: 0856 a0bd 30bd 9f3d 7d8b 363d 92fc d53d
000000d0: bc23 623d fc5f 08bd 4882 1abd 3be4 063d
000000e0: b700 6fbd 3069 713d 2e87 343c 262e a4bc
000000f0: 1528 2a3c f04d bbbc d7c6 98bd c3e9 623d
00000100: 8250 b8bd c13c ae3d cf9b 7f3d c47f 0abd
00000110: 4946 93bd 1cbc 5bbd e5c4 61bd ca3a 16be
00000120: 7154 033c c51d c0bc 5f42 55bd 51ac 2cbe
00000130: eacb acbd b1b2 6cbc 903d d4bc f0a2 23bc
00000140: 9ba6 06bd 29d3 593d 2ab5 bcbd 6a00 32bc
00000150: 8e27 e0bb 728b 01bd 8545 28bd 741f 8e3d
00000160: 84fa 87bb 4e10 463d 684e 59bd 9c4d bb3d
00000170: 578f 8fbd e4e2 28be ebe1 3f3d df3f c5bd
00000180: b7ef f5bb c388 d43d 2228 39bc 4b9f b63c
00000190: 9bbe 89bc 2092 903d 38ab 3bbd 0f10 b53d
000001a0: 84c0 a23d cd47 663c 0af6 903d de9c be3d
000001b0: 8ba3 ca3c 7506 4ebd e634 e53a 84d7 4e3c
000001c0: e40e 83bc ebe5 fb3d aabd c43d 6b57 ccbc
000001d0: 935c 193b 9f66 a13c e9cb 3cbd 8482 a23c
000001e0: 3c4d 8d3d 073c 6ebd db99 9e3d 56ec 633d
000001f0: 8335 51bd b0ea 17bd 9797 533d 6440 bfbe
00000200: 6d9c b23d 0dd6 acbe 4b1d ca3d cda0 8cbe
00000210: 7669 31be a5f4 a13c af4a 803d 88dc 343c
00000220: 6cd2 e0bb a3b1 323e 7a71 b53d 2363 babb
00000230: cca1 a8bd eefe 223e 2c70 25bc 6a7c 853d
00000240: 7634 30bd 05bb a7bd 8bb8 83bc 77ec 2dbd
00000250: 858c 1abd 03b7 9dbc bd6a 463d 45f7 cb3c
00000260: e93a 913c e5c5 0ebd faba d43c b926 4b3d
00000270: dad8 6f3c 4490 473d 67a9 5d3d 2077 55bd
00000280: a860 4b3d 588e a33d 1475 b73d 4b46 8c3c
00000290: 28ad 0cbd 749b cd3d f81e aabd ce6e 333d
000002a0: 1cea a73d 2290 18bd 1135 da3c 27ac d8bc
000002b0: c74a 95bd 9773 e73d ff51 a43c c515 5f3c
000002c0: 9ec5 81bd 1419 88bd 9893 66bc fbed babd
000002d0: d4cb 763b 00f8 ab3d a0b7 0a3e 95d6 653d
000002e0: a24b 89bc 94cb 89bd acf0 bdbd eb0e 0a3e
000002f0: ddd4 a8bd a20e 4d3d cfd2 af3c 101b e7bc
00000300: a4fd 97bd 0426 803f 19fe 523a 8933 f93c
00000310: 5062 60bd 4d06 e0bd 7702 74bd 303d 46be
00000320: 5352 ba3c cd55 583b 8939 793c fe9f 18be
00000330: ab61 243d 9ed4 7a3c 845a f5bc 723b 04bd
00000340: 4f52 8c3d fad3 273e cb6a 4cbe b8da a9bd
00000350: 8d87 e8bd 1cf1 27bd 3a02 153d 0a9f ad3d
00000360: 9339 18bd 0dd7 bb3d 38c5 183e 5cbf 23bd
00000370: 452e 9ebd ead4 6fbe 89ce d03c 6ff7 cfbd
00000380: 25c8 6ebd aaad 143d b530 31be 82bd cc3c
00000390: 5448 5abd 1de6 823d 3883 d7bd 4b08 a53d
000003a0: 1865 07bd caf3 55bd 5edb 6cbd 3a90 8fbd
000003b0: 07f0 61bd 7e23 ba3d 18a6 ab3c 0935 213d
000003c0: de89 503d 6e2b 8bbc 0171 f13d e0f8 493c
000003d0: b17e 033d c2e5 e73c 2a67 1f3e d274 0abe
000003e0: 2566 a83d fa42 b8bd 5301 933d 41e4 c0bc
000003f0: c272 403d 6ae7 19bd b912 193e c242 743d

VAE_Decoder.layers.1.linear1.bias f4 [4]
0.000125062 0.10488035 0.0056239357 -0.026970701
00000000: 1323 0339 82cb d63d fe48 b83b a9f1 dcbc

VAE_Decoder.layers.1.norm1.weight f4 [4]
1.062749 1.0704682 1.053397 1.1280712
00000000: 2908 883f 1a05 893f b7d5 863f a364 903f

VAE_Decoder.layers.1.norm1.bias f4 [4]
0.02293402 0.08842081 0.06029248 -0.02164369
00000000: 20e0 bb3c f815 b53d 3ff5 763d 1c4e b1bc

VAE_Decoder.layers.1.norm0.weight f4 [4]
1.0183699 1.0104208 1.1095611 0.9554968
00000000: f259 823f 7855 813f 1906 8e3f 709b 743f

VAE_Decoder.layers.1.norm0.bias f4 [4]
-0.022176035 0.016252406 0.048642777 0.0115130935
00000000: 84aa b5bc c423 853c a63d 473d 6aa1 3c3c

VAE_Decoder.last_normalization.weight f4 [4]
1.0 1.0 1.0 1.0
00000000: 0000 803f 0000 803f 0000 803f 0000 803f

VAE_Decoder.last_normalization.bias f4 [4]
0.0 0.0 0.0 0.0
00000000: 0000 0000 0000 0000 0000 0000 0000 0000

VAE_Decoder.head.weight f4 [4, 4]
-0.14184666 0.0037029386 -0.19715929 -0.30923522 0.19546157 -0.1622724 0.1904298 -0.06951809
-0.28790545 -0.058575988 -0.3200804 0.12088466 0.25217217 -0.27707285 -0.22795391 0.15320182
00000000: 4040 11be 00ad 723b 20e4 49be 1454 9ebe
00000010: 1427 483e bc2a 26be 0800 433e 805f 8ebd
00000020: 5868 93be 60ed 6fbd 94e1 a3be 6092 f73d
00000030: b61c 813e 7edc 8dbe c06c 69be f0e0 1c3e

VAE_Decoder.head.bias f4 [4]
0.36587203 -0.21404928 0.3353855 -0.21700794
00000000: 9453 bb3e bc2f 5bbe a6b7 ab3e 5437 5ebe

Detokenizer.weight f4 [2, 4]
0.35702527 -0.115626715 0.52927834 0.20780553 -0.24895412 -0.24126258 0.014002989 -0.47250998
00000000: 04cc b63e b3cd ecbd c97e 073f f9ca 543e
00000010: d4ed 7ebe 8a0d 77be cb6c 653c d4ec f1be

Detokenizer.cat_recons.0.weight f4 [2, 4]
-0.13102686 0.19618307 -0.4029993 -0.6833563 -0.095340595 -0.77446216 -0.44377458 0.86950463
00000000: e82b 06be 37e4 483e ed55 cebe 70f0 2ebf
00000010: ee41 c3bd 2743 46bf 6c36 e3be db97 5e3f

Detokenizer.cat_recons.0.bias f4 [2]
0.09106349 0.30503893
00000000: 7f7f ba3d 102e 9c3e
