restsyn/tabsyn/vae/ckpt/heloc/decoder.pt (torch, 28233 bytes, 47 tensors)

VAE_Decoder.layers.0.attention.W_q.weight f4 [4, 4]
00000000: 3e8d 49be a0f2 c8be 9f55 b8bd 7c54 07bf
00000010: 4faa 853e 0d08 69be c551 1c3e de7f 203d
00000020: 889a 04bf f354 83be ef7b df3c 4e00 1abf
00000030: 1d70 66be abc8 d3bd 2b4e f6be 0bc6 a6bd
-0.19682786 -0.39247608 -0.09000706 -0.5286329 0.26106498 -0.22756977 0.15265568 0.039184444
-0.51798296 -0.2565075 0.027280776 -0.60156715 -0.22503705 -0.10341009 -0.48106512 -0.081432424

VAE_Decoder.layers.0.attention.W_q.bias f4 [4]
00000000: 359f 463d 0863 9bbd 120a ac3d f0f9 9f3c
0.048491675 -0.07587248 0.08400358 0.01952836

VAE_Decoder.layers.0.attention.W_k.weight f4 [4, 4]
00000000: b0dc 53bf 2a52 dd3e 9d1e aa3e 457a 11bc
00000010: 4d46 acbc f8fb 3cbe 47a0 5bbe 2a55 353e
00000020: 6fbf 39bf 7341 223e f424 ce3b cfa0 96be
00000030: 8c02 e9be da67 0c3f 4909 593e 22cd 293e
-0.8275862 0.4322675 0.3322648 -0.008879249 -0.021029616 -0.18455493 -0.2144786 0.17708269
-0.7255773 0.1584528 0.0062910262 -0.29419562 -0.45509756 0.54845965 0.21194948 0.16582158

VAE_Decoder.layers.0.attention.W_k.bias f4 [4]
00000000: 4a83 7d39 1d97 7939 6cd8 8bb8 7a2b 7939
0.00024176869 0.00023802785 -6.668348e-05 0.00023762687

VAE_Decoder.layers.0.attention.W_v.weight f4 [4, 4]
00000000: 6eef 093e 09d3 3abe af36 54be 3d3b 9dbe
00000010: 622f e1be ba49 a7bc 0a0a 1dbe c020 e4be
00000020: ff7d eb3e 8a7b 6dbe 649d 4dbe ffe1 27be
00000030: 960d bdbd 21c5 1abe aca8 42be 3516 bebe
0.13470241 -0.18244566 -0.20723985 -0.30709258 -0.43981463 -0.020420898 -0.15335861 -0.44556236
0.45994565 -0.23191658 -0.20079571 -0.16394804 -0.09231107 -0.15114261 -0.19009656 -0.37126318

VAE_Decoder.layers.0.attention.W_v.bias f4 [4]
00000000: f4e8 d33d 91f0 72bd 753b 1fbd 1416 babd
0.10347167 -0.059311453 -0.038875062 -0.09086242

VAE_Decoder.layers.0.linear0.weight f4 [128, 4]
00000000: 1476 413f aac4 f5be 49f1 cfbc 4788 8f3d
00000010: aca9 30bf 50d4 843e eb16 7dbd 719d 03bf
00000020: e5b7 253f 21dd e7bd ae99 73bb 6079 f03d
00000030: eb96 10bf 97c9 ab3e 0f14 953e 03a3 dc3e
00000040: 4ad8 f6bd 4309 9fbe 0b45 c83e 54a3 223e
00000050: 2372 643e 1bcb 2dbf 1023 8dbe 6d0b e13c
00000060: b9e5 15bf b842 16be 7358 8e3c f3b9 c53e
00000070: 1bd9 373f aad2 9dbe 2360 3fbf ee8e 4f3e
00000080: 3abb 2c3f 93d5 b9be ced0 2fbe 2a45 b13e
00000090: 409a 22bf a6dd 3c3f b2b1 44bd 3d5e 81be
000000a0: 586e 1b3e e795 dd3e 91b3 e23e 381d 23bf
000000b0: 509c b4be 8d0a 903e ec2c a73d 6d63 9cbc
000000c0: fc06 b23e 9bc2 17bf 06ce b0be 322a 4a3e
000000d0: fd9a c0be 2719 193f 41bf a73e 41fb 933d
000000e0: 52d5 aebe baa3 bb3e 1172 773f 8e33 ce3c
000000f0: a73d 2abe 1f61 14bf f9f9 143f 6e4b 8cbe
00000100: f5e9 083f 61c4 c93d e793 6dbd e73a 07be
00000110: bc3c 0bbf 8967 7b3e c254 723d 9c7c 66bd
00000120: 59d2 17bf 1522 e83e 4db2 1dbe 5a46 d13d
00000130: ab51 26bf 3c89 2abe f313 333e 366c 943d
00000140: a5b9 e2be 717b 093f 23dd cabe fcce c1be
00000150: ce57 463f c0fa f63c c496 7bbf b63b 7dbb
00000160: 1a91 1b3f fbf5 11be 11e4 47bd a485 1abf
00000170: ecc4 9ebe 9a46 213f 8388 0e3e 6bc5 953c
00000180: fc6e 383f d87d cebd cc62 b1bf dd08 e1bd
00000190: 6674 debe 86a5 113e 573c 8b3e 22d8 083f
000001a0: 8c62 2d3f f0fe d9be 782a 0d3e 0a74 27bf
000001b0: 1661 7fbe 519d 8b3e d541 b4bd 2177 e5be
000001c0: 360f 1d3f 7f48 39be 3843 8e3e 580d b0be
000001d0: 575c 173f 8577 16bf 924c b33e ac5a 9d3d
000001e0: e09e 863e 2415 23bf 7cd3 d93e e827 b6bd
000001f0: 4bcb c8be f842 573f f8cb f6bc 8dd8 c4be
00000200: 0505 06bf 8722 cabe df1f 763e 5cc3 c03e
00000210: bcb1 6b3e 46e2 76be de29 35bf 5737 9fbe
00000220: e461 19bf 79a6 003f c36a 8bbd 5a9e 3ebf
00000230: ae82 07bf d045 8a3e 922c 503e bb5d a43e
00000240: 9575 2fbf a44e 533f 7a10 eb3e 9f80 613d
00000250: 3ace 51bf 8fb6 fbbe b4b3 603e 0064 943e
00000260: ee56 97be 3a50 933e dc2e 90be 66d9 bc3e
00000270: dd12 4a3f 6fee 853e ebcb e9be 4969 23bf
00000280: 1bad dabe 8b08 363d 0fc1 423f 646c c8be
00000290: 9faa f4be 9120 d03e 76b9 fe3e 4b7f 093f
000002a0: 88b4 88bb e576 ff3e a4de e1bc e6a1 25bf
000002b0: 00e6 bdbc 8014 f53b f030 6cbd 0080 b537
000002c0: 9160 1abe 26cf ba3e f5f8 933e da8f d1be
000002d0: 8738 463e 1716 0fbf 4d53 27bf 93c0 29be
000002e0: 5b45 abbd 179e 0d3f 354f 533f 9688 f7be
000002f0: fda7 253f b29c 493e a01c d73e 8c19 29be
00000300: 2979 2c3f 82b1 5dbe bdec 3abf 430d cc3d
00000310: 8448 ac3e 074b 833e c166 053e 83cf 0dbf
00000320: ca6b b9be 91ae 86be 3e0a 2f3f 53eb aabe
00000330: 3f30 893e 4088 1fbf 1857 823e 880e 62be
00000340: 0332 f2be ccba debe 99b6 2a3e e23f e5be
00000350: dda2 103f e2d3 1f3e ae1f e0bc 7c61 36bf
00000360: f8d6 9f3e 5bc3 d5bd e78b 01bf 67b8 1b3f
00000370: cd3f bc3e 5f4c ccbe 275b 7b3e cf27 fb3d
00000380: 5202 b43e 2845 9f3e 26a7 32be 026a 54bf
00000390: 157d 853d 2abe fbbe 5c36 99be f0db 8a3e
000003a0: b412 02be f362 d63e e7cc 92bf 89c0 893f
000003b0: e038 43bf 7cee cebe ac03 873e 1597 5b3f
000003c0: d257 25bf f3ee 143f 9fba 1d3e 8cf3 32bf
000003d0: 350c bb3e 6954 43bf cd7a af3d 88cd 14be
000003e0: 7a82 0e3f 841e 833c f31a 95bc baf6 f9be
000003f0: 6a8c e23e 9b88 ee3e 919d 313e b878 4bbf
0.755708 -0.48001605 -0.025383608 0.07008415 -0.690089 0.25943232 -0.061789434 -0.5141211
0.64733726 -0.11321474 -0.0037170458 0.117419004 -0.5648028 0.33552238 0.29116866 0.43093118
-0.120529726 -0.31061754 0.39115176 0.15882617 0.22309165 -0.6788804 -0.27565813 0.027471269
-0.58553654 -0.14673889 0.01737616 0.3861843 0.7181565 -0.30824786 -0.7475607 0.20269367
0.67473185 -0.36295757 -0.17169496 0.3462308 -0.63516617 0.7377571 -0.048021026 -0.2526721
0.15178812 0.4327843 0.44277623 -0.6371646 -0.35275507 0.2813305 0.08162865 -0.019090379
0.34770954 -0.5928132 -0.34532183 0.19742659 -0.37618247 0.59804004 0.32763103 0.07225657
-0.34147125 0.3664835 0.96658427 0.025171068 -0.16625081 -0.57960695 0.5819393 -0.27401298
0.5348199 0.098519094 -0.05800238 -0.13206063 -0.5438955 0.24551214 0.059162863 -0.05627118
-0.5930534 0.45338503 -0.15400048 0.102184966 -0.64968365 -0.16653913 0.17488079 0.07247202
-0.4428226 0.5370398 -0.3962184 -0.3785323 0.7747773 0.030148864 -0.98276925 -0.0038640327
0.6076828 -0.1425399 -0.048801485 -0.6036017 -0.31009614 0.62998354 0.13919263 0.018282613
0.7204435 -0.100825965 -1.3858275 -0.10988019 -0.4344818 0.14223298 0.27194473 0.5345479
0.67728496 -0.42577314 0.13785732 -0.65411437 -0.24939379 0.2726846 -0.08801619 -0.4481745
0.61351335 -0.18094061 0.2778566 -0.3438518 0.59125274 -0.5877612 0.35019356 0.0768331
0.26293087 -0.63704133 0.42544162 -0.0889433 -0.392176 0.8408656 -0.030126557 -0.38446465
-0.5235141 -0.39479467 0.24035595 0.37649047 0.23017019 -0.24109754 -0.7076701 -0.31096908
-0.59914994 0.5025402 -0.068074726 -0.74460375 -0.52933776 0.27006388 0.20329502 0.3210276
-0.6853879 0.8254187 0.45911008 0.055054303 -0.819553 -0.4916272 0.21943551 0.28982544
-0.2955851 0.28772146 -0.2816075 0.36884612 0.78935033 0.26158473 -0.4566339 -0.6383253
-0.42710194 0.04444174 0.76075834 -0.39145195 -0.47786424 0.40649846 0.4975087 0.5370986
-0.0041719116 0.49895397 -0.027571984 -0.6470016 -0.023180962 0.0074792504 -0.057663858 2.1636486e-05
-0.150759 0.36486167 0.28900877 -0.40930063 0.19357501 -0.5589308 -0.6536148 -0.16577367
-0.08362838 0.5531935 0.82542735 -0.48346394 0.64709455 0.19688681 0.42014027 -0.16513652
0.67372376 -0.21649745 -0.73017484 0.09963467 0.33649075 0.2564318 0.13027479 -0.5539476
-0.3621505 -0.2630506 0.68375003 -0.33382663 0.2679462 -0.62317276 0.25457072 -0.22075856
-0.4730378 -0.4350189 0.16671218 -0.447753 0.5649851 0.1560817 -0.027358856 -0.712425
0.31218696 -0.10437652 -0.506041 0.6082825 0.36767426 -0.39902017 0.2454649 0.12263452
0.3515802 0.3110745 -0.17446575 -0.82974255 0.06517998 -0.4916852 -0.29924285 0.27120924
-0.12702447 0.41872367 -1.1468781 1.0761882 -0.7625866 -0.40416324 0.2636999 0.8577741
-0.6458713 0.5817711 0.15403222 -0.69902873 0.3653275 -0.76300675 0.08568344 -0.14531529
0.5566784 0.016005762 -0.018201327 -0.4882105 0.44247752 0.46588597 0.17345263 -0.7948108

VAE_Decoder.layers.0.linear0.bias f4 [128]
00000000: 4df3 ec3e f881 983e 9a98 0c3d 9b17 cbbe
00000010: 7438 bf3e d140 be3c 317f bf3e e2f7 c13e
00000020: e916 3fbe aeac 883d 328e cf3e 15a4 4e3e
00000030: b4e8 633e 89a4 093e a2b2 9ebe 4065 9c3e
00000040: 96a6 e5be 477b 0abc 9cd6 ac3d b602 8b3e
00000050: a612 5ebd 1afd 8abc 4f6a 703e 1d0d ce3e
00000060: adaa 67be d43d 1b3f 0f2f cbbc 0759 fcbe
00000070: 8f93 2f38 fca6 313f c473 843e 8e46 b6be
00000080: 48a8 5e3e b8b7 d4bd b199 d2bd 0369 d4be
00000090: e627 ec3e 6064 45bd f191 a7be 1ef1 98bd
000000a0: 7ac6 9dbd a129 a03e 0ded e0be 2e18 88be
000000b0: f92e 78be c8b8 813e b4c2 e23b 3098 13bf
000000c0: aa2d 243d 06c4 4cbe c9f1 823e d649 203f
000000d0: 9027 ce3d 4042 c93e f8c5 0f3f 096e 1b3f
000000e0: 4742 6abe 8ad4 2d3d ec98 4fbe 71a9 8ebd
000000f0: 73d0 1f3e 7da6 2d3f 657a c43e d6f1 1d3d
00000100: 63a6 863e c73b 443d 5e77 0b3f d4a2 c23e
00000110: 1475 51be 950b 033f aa35 41be 3df2 8f3e
00000120: a166 443e eedb 03be cb6e 0e3f 9ee9 873e
00000130: 10c6 b53e f67c 9bbe 9410 b03e ad79 1e3e
00000140: d203 eb3e 2c48 d53e 90be d4bd f484 013d
00000150: cec7 a33e 0cfd 6e3e b17e 0fbf d1d7 e53e
00000160: 6e04 f13e 92cf 15bc 830b 22bd b251 473d
00000170: 1f12 8f3e 1021 d93e 6c0d c53a 7d5d b33d
00000180: c874 223e 0a36 dc3d 0a2a 253e 33a0 d03e
00000190: 7188 cdbe 259d fdbd a83c b93e f9a9 d33d
000001a0: abf8 ec3e dcab 093f 1291 5fbe 7d31 a13d
000001b0: e9ee 023e ae36 e7be 07d3 28bd 1fce 3fbe
000001c0: 4e1f 87be ced5 343e 79dd fa3e c4f5 b93e
000001d0: cc07 363f 4caf 2e3e bc4e f53e f6d9 d93e
000001e0: e53b b73d b015 013f 41ab 893d db07 fb3d
000001f0: cfff 02be 7355 82be 5767 163e 2ad8 ee3e
0.46279374 0.29786658 0.03432522 -0.39666447 0.37347758 0.023224266 0.37401727 0.37884432
-0.18661083 0.06673561 0.40538174 0.2017978 0.22256738 0.13441671 -0.3099566 0.30545998
-0.44853657 -0.008452243 0.08439371 0.27150506 -0.054217003 -0.016966391 0.23478054 0.4024438
-0.22623701 0.6064122 -0.024802713 -0.49286672 4.1860676e-05 0.6939542 0.25869572 -0.35600704
0.21743882 -0.10386604 -0.102832206 -0.41486368 0.4612419 -0.04819143 -0.32728532 -0.074678645
-0.07703872 0.3128176 -0.43930855 -0.26580948 -0.24236669 0.2533629 0.006920183 -0.57654095
0.04008261 -0.19996652 0.25575092 0.62612665 0.1006614 0.39308357 0.5616145 0.60714775
-0.22876845 0.04243902 -0.20273179 -0.06965912 0.15606861 0.67832166 0.3837463 0.03856071
0.26298818 0.04790857 0.54479015 0.38014853 -0.20454818 0.5118955 -0.18868127 0.281145
0.19179775 -0.12876865 0.55637807 0.26545423 0.35502672 -0.30368775 0.34387648 0.15476103
0.45901352 0.41656625 -0.103879094 0.031620935 0.31988376 0.23338717 -0.5605269 0.44891217
0.47073692 -0.009143727 -0.03956176 0.048661895 0.27943513 0.42408037 0.0015033907 0.08758066
0.15864861 0.10752495 0.16129318 0.40747222 -0.4014316 -0.123834886 0.3617909 0.10335154
0.4628347 0.5377786 -0.21832684 0.07870767 0.1278645 -0.45158905 -0.041216876 -0.18730973
-0.2639107 0.17659685 0.48997095 0.36320317 0.7110565 0.17059058 0.47911632 0.42549103
0.08946971 0.5042372 0.06722117 0.12257358 -0.12792896 -0.25455818 0.14687859 0.46649295

VAE_Decoder.layers.0.linear1.weight f4 [4, 128]
00000000: 471a 9a3d a0ad a9bd 2df0 153e 7804 0fbf
00000010: 8ca7 1fbd ebd9 8abb bb64 9abe de0e c8bd
00000020: 5175 14be 7fa4 5ebc 0e6c f23d a9bc 3cbe
00000030: 0897 2abd 11f6 ccbd ae74 9bbd f96e f13d
00000040: 9f8e 873c 5aa4 66be 5577 10be b7ae 0cbe
00000050: 35b2 a33d 7ef6 eebd 4350 0e3e 3e96 c0bd
00000060: 6238 07bd 545f 62be c0d8 613e c49d 8f3c
00000070: 4260 083e 2309 ca3c f947 0a3e 4288 a33c
00000080: 88df a0bd a748 9d3d 98d0 9a3d 5afd 21bf
00000090: 502e 69be 2179 94bd fc3c 80be 9bf2 1cbd
000000a0: ba67 f0bd 67ca 93bd a37d 6a3e 0741 93bd
000000b0: d662 ab3d f735 9dbd 39a6 753d dc4d d13e
000000c0: 1d60 03be 33df 6a3e 850a debd 013f 493e
000000d0: 3a44 763d 46f3 653e d647 6abe 7f4d eb3c
000000e0: 1762 253c dbc3 743c bf33 53bf ca78 b4bd
000000f0: 0090 913d 43c4 103e e566 303e 7f17 a63d
00000100: d822 513e 00d5 163e c521 a3bd 1d7e 4d3a
00000110: 7fe2 d3be 8785 d2bd d5e1 efbc 058c a8be
00000120: 2086 2e3d f05c 253e e0d6 d83c a47a 8abe
00000130: 076f a43d 333a 46be 078b b43c ef09 58bd
00000140: 136d 93bd 72e7 4e3e 4cd7 243d 562a 2ebe
00000150: cb83 1bbe 01f4 72be 33d1 b83e 2a87 023d
00000160: e402 afbd 98aa 9d3d 74d3 283e 0b9d 3ebd
00000170: 6625 86be a90c 913d 0c12 e0bd 944a 88bd
00000180: dbba 4d3d 2f04 a4be d3a2 c43d 5788 74bc
00000190: 8e9f 603e 89e2 bebd ed56 963d 0c6f 0cbd
000001a0: 07d5 1bbe c3f2 67bd b9bc 46bd 3a25 aabd
000001b0: 2acb 77bb e435 debc b810 493e a175 fcbe
000001c0: b18e e63e 9679 ddbd bf28 67bd 45ba f83c
000001d0: 4a71 353e d98b 2bbd d7ac 2d3e 8e1c 8bba
000001e0: 1839 b7be c840 17bc e221 d23d 5ab8 023e
000001f0: b869 0fbd 6bc0 4cbd b42b 863c 6a9a 8cbe
00000200: 1b53 63be ed89 2e3e 2775 aabe 84b1 343e
00000210: 2cb1 f3bc b17d b9be 92f7 1d3e 193a d1bd
00000220: 5afd 95be 7f39 b53d c53f 2c3e 5691 9d3c
00000230: d183 a4be b837 303d 9866 553e c516 4e3c
00000240: 9c65 94bc ae31 753e 3c99 473d f587 363e
00000250: ccad f13d b86b 88be c339 80be e12b ef3d
00000260: e8d5 d7be ab52 2a3e eee7 76be e6d9 c83b
00000270: 2182 4dbe 5ffb 83be 9c9d 26be 6091 c83d
00000280: 5895 963d bec0 babd 8812 233d 5d3b 1f3e
00000290: b39f e13d ff4c 803e 86f9 df3d 020c ae3d
000002a0: b9ab 013e d5a7 2b3e 13dd 6a3e be38 03bc
000002b0: 184a 71bc 8de4 6bbe 0725 f63d c50a f3bc
000002c0: 77aa bcbe 341b 183e 5aff 3c3e a2ac 47be
000002d0: 393f 343e 8317 89bd 2c84 43be 9977 5bbe
000002e0: 775b bb3e ab8e 72be 8617 06bd 4cfa d53d
000002f0: 4b5d 233e 1c0f 0ebe 7ff4 7abe a427 ee3d
00000300: 8686 793d 9449 81bd 32bc 97be 9e29 8ebe
00000310: 7643 30bc 9f1b fc3d 70db 423e df47 1ebf
00000320: aa7b 99be d7f4 cf3c 6a07 2f3e 5c44 3b3d
00000330: 4c37 cb3d e811 6bbe 9e44 68be 4b03 66be
00000340: d50e 133e 2b5f 5fbe 27d6 d23b 8e85 f73d
00000350: 8e11 093e bdec 68bd 5a4f febd 6237 edba
00000360: 5b0f 5f3e 3500 893d 268f a53d 9fbd 9c3d
00000370: 7ee4 5a3e e882 b53d 3cb2 233e d52d a0be
00000380: 5f59 113e 81d7 03be 045b 2c3e a4fc 0cbe
00000390: 20ac 0d3e 48dd 143e d682 22be 4b0b 84be
000003a0: bb17 76bc 626e 433e f244 723e a90e 8d3d
000003b0: 51fe 0fbb 89ee 023e 5896 91be db8b ac3c
000003c0: cdd3 93be 71ba 663e 184f 913c 7949 82be
000003d0: afc5 80be 67ed a13d ae15 123d 851c b33d
000003e0: 7975 4fbe 8eec 443e 379c abbe f84d f53d
000003f0: 1bc7 92be 3376 c2be 4bd7 6c3e 9a06 1a3c
0.07524543 -0.082850695 0.14642401 -0.55866194 -0.038978145 -0.0042374036 -0.30154976 -0.09768461
-0.14497878 -0.013589024 0.11837016 -0.18431343 -0.04164794 -0.10007871 -0.07590614 0.117887445
0.0165475 -0.22523633 -0.14108022 -0.13738523 0.07992975 -0.116681084 0.13897805 -0.094036564
-0.033012755 -0.22106677 0.2205534 0.017531283 0.1331797 0.02466256 0.13504018 0.019962434
-0.07855135 0.07679873 0.07559317 -0.6327721 -0.22771573 -0.07249666 -0.25046527 -0.038317304
-0.11738534 -0.072163396 0.22899489 -0.07190137 0.08368461 -0.076763086 0.059972975 0.40879714
-0.12829633 0.22936706 -0.1084185 0.1965294 0.06012366 0.22456083 -0.22878966 0.028723476
0.010094187 0.014939274 -0.82500833 -0.08812101 0.07107544 0.14137368 0.17226751 0.0810995
0.20423448 0.1472969 -0.079654254 0.0007838922 -0.4138374 -0.102793746 -0.02928249 -0.32919326
0.04260838 0.16148734 0.026469648 -0.27046692 0.08028989 -0.19358139 0.02203895 -0.05274385
-0.07198539 0.20205477 0.040244386 -0.17008337 -0.15186994 -0.23725893 0.36097106 0.031867184
-0.08545473 0.07698554 0.16486913 -0.046536487 -0.26200408 0.07082493 -0.10940942 -0.0665485
0.050227027 -0.32034442 0.09601369 -0.014925084 0.21935865 -0.09320552 0.073407985 -0.03428559
-0.15217982 -0.056628 -0.048519824 -0.08307882 -0.0037810304 -0.027125306 0.19635284 -0.49308494
0.4503074 -0.10814206 -0.056435343 0.030362258 0.17718998 -0.041881416 0.16960464 -0.0010613368
-0.35785747 -0.009231754 0.10260369 0.12765637 -0.03501293 -0.04998819 0.016378261 -0.2746156
-0.22199671 0.17044802 -0.33292505 0.17645842 -0.029747568 -0.36228707 0.15426472 -0.102161594
-0.29294854 0.08848857 0.16821201 0.01923434 -0.32131818 0.043021888 0.20839918 0.012578671
-0.018114857 0.23944733 0.04873012 0.17825301 0.11800727 -0.26644683 -0.2504407 0.11678291
-0.42155385 0.16633098 -0.24111912 0.006129491 -0.20069171 -0.25777718 -0.1627106 0.09793353
0.07352704 -0.09118794 0.039812595 0.15549989 0.11016788 0.25058743 0.10936265 0.08498384
0.12663163 0.16763242 0.22935896 -0.008009134 -0.014727138 -0.23036404 0.12018781 -0.029668221
-0.36848804 0.14854127 0.18456784 -0.19499448 0.17602243 -0.06693938 -0.19093388 -0.21432342
0.3659322 -0.23687236 -0.032737277 0.10448131 0.15953557 -0.13872951 -0.2450733 0.116286546
0.060919307 -0.06312862 -0.2963577 -0.27766126 -0.010758271 0.12309956 0.19029021 -0.61828417
-0.2997716 0.025385303 0.17092672 0.04571949 0.099226564 -0.2295605 -0.22682425 -0.22462194
0.14361127 -0.21813647 0.0064342204 0.120860204 0.13385603 -0.056866396 -0.12417479 -0.001809817
0.21783201 0.066894926 0.08083944 0.07653355 0.21376225 0.08862859 0.1598596 -0.31284967
0.14194249 -0.12875177 0.16831595 -0.1376825 0.13835192 0.14537537 -0.15870222 -0.25789866
-0.015020306 0.19085076 0.23659113 0.06887562 -0.0021971653 0.12786306 -0.28435016 0.021062782
-0.2887253 0.22532059 0.01773791 -0.2544668 -0.2515082 0.07906609 0.035665207 0.08745674
-0.20259656 0.19230863 -0.3351762 0.11977762 -0.2866753 -0.37980804 0.23129003 0.009400988

VAE_Decoder.layers.0.linear1.bias f4 [4]
00000000: c71c aebd 8372 26bd fc26 8bbd 95ef 39bd
-0.085015826 -0.04063655 -0.06794545 -0.0453945

VAE_Decoder.layers.0.norm1.weight f4 [4]
00000000: cc08 c13f 3896 be3f 8932 cf3f 6f42 c63f
1.508081 1.4889593 1.6187297 1.5489024

VAE_Decoder.layers.0.norm1.bias f4 [4]
00000000: 6e0e ed3d ad74 43be 1317 dc3c a0c7 00be
0.11575018 -0.19087477 0.026866471 -0.12576151

VAE_Decoder.layers.1.attention.W_q.weight f4 [4, 4]
00000000: 4250 dabe 526d 163d 3c0c ab3d 7b75 f1ba
00000010: 3c0a c2be 297e 9ebd ced3 b8be 4f2d a23d
00000020: d0de cbbe 2948 6abe 2b42 c23e b62d 7abe
00000030: 9c31 0bbf 07c8 01be 8910 143f b31f cb3e
-0.42639357 0.03672535 0.08351943 -0.0018421853 -0.37898433 -0.07738907 -0.36099094 0.07918798
-0.3981843 -0.2287909 0.37941107 -0.244315 -0.5437257 -0.1267396 0.5783773 0.39672622

VAE_Decoder.layers.1.attention.W_q.bias f4 [4]
00000000: 6885 04bd cacc 35bd cd64 5f3e f249 1cbe
-0.03235379 -0.044384755 0.21815796 -0.15262583

VAE_Decoder.layers.1.attention.W_k.weight f4 [4, 4]
00000000: 7241 f63d ffb6 6dbe 9e9d 61be 64b2 e53e
00000010: 2215 f1be 02f9 51be cab1 163e fb12 c7bd
00000020: beb1 b6bd e7b0 0cbf f9e8 f4bd 62af 9cbe
00000030: b4aa b03b b6e2 60bd 9842 d0be 2fc4 2e3f
0.120242015 -0.23214339 -0.22032782 0.44862664 -0.47086436 -0.20505145 0.14716259 -0.09720417
-0.089206204 -0.5495743 -0.119584985 -0.30602556 0.005391443 -0.05490371 -0.40675807 0.682681

VAE_Decoder.layers.1.attention.W_k.bias f4 [4]
00000000: 15c7 ed38 083c 63b7 8c7b 3839 8a47 d138
0.000113381226 -1.35442315e-05 0.00017593632 9.979222e-05

VAE_Decoder.layers.1.attention.W_v.weight f4 [4, 4]
00000000: 9120 173e 8e61 34be 777c c63e 7349 c13e
00000010: 76c5 14be bad3 c5bd b881 8bbc 4ab8 433c
00000020: 61d8 073e 9b92 8ebe 1c9f 75be c4f8 a83d
00000030: 8dc1 79be bd84 e1be 4a7d ca3e 2618 783d
0.14758517 -0.17615339 0.38766834 0.3775135 -0.1452845 -0.09659524 -0.017029628 0.011945793
0.13266136 -0.27846226 -0.23986477 0.08250573 -0.2439024 -0.44046584 0.39548713 0.060569905

VAE_Decoder.layers.1.attention.W_v.bias f4 [4]
00000000: 4826 c7bb adb9 cfbc e2f7 b0bc fe76 3f3d
-0.0060775615 -0.025357092 -0.021602575 0.04674434

VAE_Decoder.layers.1.linear0.weight f4 [128, 4]
00000000: 00a8 093f bb31 143e 83e7 cbbf 494a 0ebe
00000010: 0c36 2d3f ade1 08bf d8a5 aebe f94a df3e
00000020: d04a fe3e cf09 7bbe a326 98be e286 153f
00000030: 4ded 1b3f 36bb 9cbe 490a 03be 3561 993e
00000040: 0c25 c2be 6c4a fabd e671 06bf 5124 033f
00000050: 509e 1fbe 6843 813f e7e3 8e3e a371 12bf
00000060: 9ce4 c4be 7928 ef3e 2e1d f13e 7ce9 2c3f
00000070: 0f4c 5f3d 2770 7a3e 5ed5 273f 004f 55bf
00000080: 40d5 083f 7aab d23e bf54 db3e 41ac 24bf
00000090: 177c 5e3f a5a5 28bb 2446 d1be 6678 3dbe
000000a0: 44ae 16bf 78d3 6e3e 4c93 7a3e 6e72 893e
000000b0: 052b 0bbf c827 043f e029 2dbe 1166 25bf
000000c0: 387d 0dbf 9a85 b53e 402a 9bbf 1d64 c03e
000000d0: 11bb f83e 5495 7bbe 95fe ba3e 479a e3be
000000e0: a37d 42bf 07c6 ac3d 6f06 95bf 4938 043f
000000f0: 10a1 2fbf 5c59 c73e ee6a c9be 0142 263f
00000100: 41b7 be3d 87d4 43bf 367b 3ebf 2f36 ed3e
00000110: 8d8b 163f 9905 0bbf 56ce e4be 8262 4f3f
00000120: f150 a7be f4c0 8abd 766f a83e 7506 3dbe
00000130: a342 26bf 9669 753d 1ca4 3d3d 1b8f 543e
00000140: 8a58 3e3f 168f ce3e d3d6 dfbd 2fb9 21bf
00000150: dfd2 abbe d11f 9b3e a01d 383e d437 273f
00000160: 9f0c 9cbd 6853 5a3f ad55 8e3e e50c 59be
00000170: c70f 22bf b75e 6f3e 041a d3be 417d d93e
00000180: 593d 02bf 93a2 b8be d745 1e3e 1377 933e
00000190: 72cc 8b3e d32e 07bf 9821 c53e 7009 04bf
000001a0: c3ff 0f3f b571 193e 2c0c 8dbe c7d4 00bf
000001b0: df5e fb3c 9722 b9be 0066 a1be e72a 15bf
000001c0: 6e90 aebb 2045 8f3d cb13 143f ea9d 30bf
000001d0: b63b 18bf 0566 473f a58d 97bd 9d9b 26bf
000001e0: 697a 193f 7d88 d0be 938d 873e fbff d8be
000001f0: 0d6f 2c3e 5340 563f c5e7 04bf 0b19 10bd
00000200: 7e9b 913e 022a 533f 2fc4 263f 8b60 86bf
00000210: 0cfb ae3d 0d14 2d3e 7e1a f63e 2a3a b9be
00000220: d3d3 34be b57f 2cbe 38fb 0dbf 6545 2f3e
00000230: 8c7d 34be 94a1 693f 359c 8cbe 0982 1dbf
00000240: 9e1d b83d 798a 11bf 3239 62bf f013 263f
00000250: 5414 bb3c 4579 183e ff8c 4a3c c64a f13e
00000260: 751f 41bf 2a78 b23e b1b0 163f eeb9 bfbd
00000270: e25d 233c 5b2c a23e 1368 19bf ace1 073f
00000280: b410 c33e fdfd 333f 1897 67be da36 46bf
00000290: 8743 1dbf f8c8 d5be 5df5 b7bd eefd 4c3e
000002a0: 9f0c 473e 778a 1cbf 2d73 b6be bd16 e23e
000002b0: 0dbb 37bf 5e15 87be 9e20 933e 815a 403f
000002c0: 7ff1 22bf 3ac3 1b3f c619 c83e 3c94 9ebb
000002d0: d419 6d3e e24e 44bf d477 34bf d3fd 213f
000002e0: b7c9 4abf 7962 43bd 2ecc 0a3f c737 603e
000002f0: 1da1 0ebd d7d0 3d3f ca7a 173f 681e 4fbf
00000300: dae5 093f 3899 dc3e 0f4c 0d3e 24d0 58bf
00000310: 5ffb 063f fb85 3fbe 873e 74bd 431a bdbe
00000320: 1bb8 8c3c 7d93 48be 49ff 0ebf 5425 443f
00000330: ad0a 3cbf 25a7 253f ae27 653e 8cd6 76be
00000340: 3516 363f 14fa f6bb af6f 293e 170b b4be
00000350: fc6b 163e fa8e 45bf fdd1 693e ae6f 0a3f
00000360: 42dc 59bf fb7c 1c3e 5b88 c13e 65d8 ea3e
00000370: d684 0e3f c20a 98bf f484 713f 4f73 5a3e
00000380: 0318 313f 7a38 9cbe a4e5 cabd d3f7 0cbf
00000390: 3a4b e8bd c390 62bf 1554 0a3f e8ce 4e3e
000003a0: b46c 183f 07d5 24bf cb69 de3e fe06 123f
000003b0: 0e0c 213f 493a c6bc 0b9d d6bc 5c04 12bf
000003c0: 40c3 263f ebad f3bc 2198 863d f110 f5be
000003d0: d1c0 9c3e ac1f 5d3f 748d f13e c9aa 62bf
000003e0: ca09 52bf 56e3 c0bd 087b 6dbd cc79 0e3e
000003f0: 5b6c 913e 48dd 15bf c0ae 92be 3b0e c03e
0.5377197 0.14472096 -1.5930027 -0.13895525 0.67660594 -0.53469354 -0.34110904 0.43611887
0.49666452 -0.2451546 -0.29716977 0.5840894 0.6090897 -0.3061158 -0.12796892 0.29956976
-0.3791889 -0.12221226 -0.52517545 0.5122729 -0.15587735 1.0098696 0.2790825 -0.57204646
-0.38455665 0.46710566 0.47092575 0.6754377 0.054515895 0.24456845 0.6555995 -0.8332367
0.53450394 0.4114645 0.42838094 -0.6432534 0.86908096 -0.0025733497 -0.40873826 -0.1850296
-0.5885966 0.23322856 0.24470252 0.26845115 -0.5436252 0.516232 -0.16910505 -0.64608866
-0.55269194 0.35453492 -1.2122269 0.3757638 0.4858022 -0.24568683 0.36522356 -0.44453642
-0.75972956 0.08436208 -1.1642588 0.51648384 -0.68605137 0.38935363 -0.39339393 0.64944464
0.09312297 -0.76496166 -0.74406755 0.463304 0.5880669 -0.54305416 -0.44688672 0.81009686
-0.3267894 -0.06775084 0.32897538 -0.18459494 -0.6494543 0.059915148 0.046299085 0.20757715
0.7435385 0.4034354 -0.10929646 -0.6317319 -0.3355932 0.30297711 0.17980051 0.6531956
-0.07619595 0.8528352 0.2779974 -0.21196325 -0.63305324 0.23375975 -0.41230786 0.42478374
-0.5087486 -0.36061534 0.1545633 0.28801784 0.27304417 -0.52805823 0.38502192 -0.515769
0.56249636 0.14984782 -0.2754835 -0.5032467 0.030684887 -0.36159202 -0.31523132 -0.5826859
-0.005327276 0.069956064 0.578427 -0.6899096 -0.5946611 0.77890044 -0.074000634 -0.650812
0.5995241 -0.40729132 0.264752 -0.42382798 0.16839238 0.836919 -0.5191615 -0.035180133
0.28438944 0.82485974 0.651431 -1.0498213 0.08543977 0.1690218 0.48067087 -0.36177188
-0.1765893 -0.16845591 -0.55461454 0.17116316 -0.17626017 0.91262174 -0.27462927 -0.6152654
0.08990024 -0.5685192 -0.88368523 0.6487417 0.022836842 0.1489001 0.012362718 0.4712736
-0.75438625 0.34857303 0.5886336 -0.09361635 0.009971114 0.31674466 -0.5992443 0.5307872
0.3809868 0.7030943 -0.22616231 -0.77427447 -0.61431164 -0.4175489 -0.08982346 0.20018741
0.19438408 -0.6114878 -0.35634747 0.44157973 -0.7176979 -0.2638349 0.28735822 0.751381
-0.63649744 0.6084477 0.39082164 -0.0048394483 0.23154384 -0.76682866 -0.70495343 0.6327793
-0.7921404 -0.047701333 0.54217803 0.21896277 -0.03482162 0.7414679 0.59171736 -0.8090577
0.5386635 0.43085647 0.13798545 -0.846926 0.5272731 -0.18703453 -0.059629943 -0.369341
0.017177632 -0.19587512 -0.55858284 0.7661946 -0.7345379 0.6470817 0.22378418 -0.2410528
0.71127635 -0.007537136 0.1654651 -0.3516471 0.1468963 -0.7717129 0.2283401 0.5407666
-0.8510171 0.15282051 0.37799343 0.4586822 0.5567144 -1.1878283 0.94343495 0.21333049
0.69177264 -0.30511838 -0.09907082 -0.5506565 -0.11342473 -0.8850214 0.5403455 0.20196116
0.5954087 -0.64387554 0.4344009 0.5704192 0.6290902 -0.024197714 -0.02619793 -0.570379
0.6514168 -0.029746016 0.06571985 -0.47864488 0.30615857 0.8637645 0.47178233 -0.8854185
-0.82046187 -0.09418361 -0.05797866 0.1391365 0.2840298 -0.58540773 -0.2864895 0.37510857

VAE_Decoder.layers.1.linear0.bias f4 [128]
00000000: 9033 82be 76ec a5bd cd87 de3e f579 c83e
00000010: 5c38 833e dc97 153f 03bc 203e ce8d 8c3d
00000020: 7fab 53be 620f 8ebe f49a 8b3e ebdd e83e
00000030: 8e71 7dbe 102e 143e b610 3f3e e2eb 123f
00000040: 11e3 b43e 1f46 633e 1dfd e43e b106 8c3e
00000050: a036 ac3e 50eb babd 06e9 f33e 3911 ee3e
00000060: 8b7c 0f3f 40ca ff3e c804 d63e 7744 293e
00000070: 0841 f73d 4ee5 073f 0312 ff3e dad6 d1be
00000080: 7263 703c 31e3 dfbe 7f7f 4abd 677b eabd
00000090: da53 9e3e fc29 103f 2834 e93d a3c1 a83e
000000a0: f0ae a03d edb3 933e b378 ed3e 6c08 563e
000000b0: be6c 1cbe 3744 8cbe 77db 2b3e b180 c63e
000000c0: b1d2 dabd 6f94 ad3e 4008 3f3f 9793 ea3e
000000d0: cb75 9d3e e1e8 b43d 8a04 2d3e 7f7c a53e
000000e0: d956 e53e d51d 043f 8de7 a23d 3199 8f3e
000000f0: 7a75 0a3f a9d2 03be e05b a53d 80ed dfbe
00000100: bafd 67be a207 99bd b6d6 9c3e b08b 1f3e
00000110: e4b4 ab3e 0546 ce3e e3cc 753e 2b80 3a3e
00000120: f485 cc3e 6fa0 8f3c 9ae2 72bd 724c 853e
00000130: df7d fd3d 7639 d2be 4328 603e 41b2 ccbe
00000140: 8dee 203f fe9d 4e3e 80f8 e73d 122b c6be
00000150: 5c52 31be e6a2 573d f0b5 173f 32de 033e
00000160: 121d 0c3f cf5d 5c3e 6cce 89ba eead b4be
00000170: e06d a3bb 3d3d c83e 75a3 ca3c 9658 f93e
00000180: 42f1 24be d476 a3bd 8bf9 ca3e 9c67 873d
00000190: bd07 0d3e 014c 803e c7d6 42be 8c58 42be
000001a0: a454 29be 9673 9dbd 846e 863e 3b32 c3be
000001b0: b50a ebbe 35d4 853d 2c29 9e3e c75a 813e
000001c0: df9b 593e 1f74 903e 08b8 8e3b da66 853e
000001d0: 9219 84be 79b7 f53c 68de c8be dd35 bfbd
000001e0: f2f1 8dbe de09 10be 8812 c03e 2e62 083f
000001f0: 2412 d43e 8879 aa3e 93e9 8f3e 7a96 0e3f
-0.25429964 -0.08101742 0.43462983 0.39155546 0.25628936 0.58434844 0.15696721 0.068629846
-0.2067089 -0.2774611 0.27266657 0.4548181 -0.24750349 0.14470696 0.18658718 0.5739118
0.35329488 0.22194718 0.4472436 0.27348855 0.33635426 -0.091269135 0.4763872 0.46497515
0.5604941 0.49958992 0.41800523 0.16530024 0.120729506 0.53084266 0.4981843 -0.4098423
0.014672147 -0.4372802 -0.049437996 -0.114493184 0.3092335 0.56314063 0.11386901 0.32960233
0.07845867 0.2884821 0.4638115 0.2090165 -0.15275857 -0.27395794 0.16782938 0.3877006
-0.106847174 0.33902308 0.74621964 0.45815727 0.3075393 0.088334806 0.16896263 0.32321545
0.44792822 0.5160802 0.07954321 0.28046563 0.54085505 -0.12873329 0.080741644 -0.43735886
-0.22655383 -0.07472159 0.3063256 0.1558063 0.33536446 0.40287796 0.2400394 0.18212955
0.39945948 0.017532555 -0.059298135 0.26034886 0.12377524 -0.41059464 0.21890359 -0.39979747
0.62864 0.20177457 0.113266945 -0.38704735 -0.17316574 0.052645586 0.5926199 0.1287773
0.5473186 0.2152016 -0.0010513789 -0.35288948 -0.0049874634 0.3910922 0.024736146 0.48700398
-0.16107658 -0.07981649 0.3964351 0.06611559 0.13772483 0.25057986 -0.19027244 -0.1897909
-0.16536194 -0.07688062 0.26256192 -0.3812426 -0.45906606 0.06534616 0.30890787 0.2526457
0.21250866 0.28213593 0.0043554343 0.26055032 -0.2580076 0.029994713 -0.39232183 -0.093364455
-0.27723652 -0.14066264 0.37514138 0.5327481 0.4142009 0.33295846 0.2810789 0.5569836

VAE_Decoder.layers.1.linear1.weight f4 [4, 128]
00000000: fe09 67bf 6de2 813d a306 fcbc 7ea9 993d
00000010: 8014 3bbe ce2c 57be 25b0 e0bd e5a2 f03d
00000020: c225 883e 8b29 c93e ba59 5fbd bc5a 76be
00000030: 83bc 89bc 8f5e ec3e 1084 b1be c3bd 22be
00000040: 2156 2bbd acfc 943c d276 adbd c6bc 61be
00000050: 8a1d 3e3e 045b 30be 1172 afbe 5c8c 35be
00000060: 1ed6 0dbe 2187 6e3e c02f 0c3e e089 813e
00000070: dc68 ea3d 4b6f 9fbe 6bf5 7c3e 15aa 07bf
00000080: 0c09 063e 8519 823d c90e 18be 2ffe dabd
00000090: b2b4 46bd 82e1 0bbc 0314 21be d117 08be
000000a0: 50f2 033e f3e4 57bd c916 2f3d 5b1e 92bd
000000b0: 652e b7be a375 1fbe 94fb fabd aee9 9fbd
000000c0: 999c a43e fd13 063f 0244 85bd 6782 8ebe
000000d0: 8137 603e f71c a0bd 3828 82bd 785f 0d3f
000000e0: cf0c 323e 25b5 f53d d083 e03d f4e8 d03d
000000f0: 4603 6f3e e4a2 943d 354a 26be d75e 24be
00000100: 3a5a 0f3d 9c26 b0bd 5fb0 03bd 2781 76bc
00000110: fc4e 9abd a9e4 5cbe b047 41bd 636f 973e
00000120: c0b7 523e 0c7e 063e 9800 603e a3b3 b0be
00000130: 9882 27be 1e05 c53d 2fc3 a1bd 784c 78be
00000140: 549f 30be a6dd 613e 3c57 3cbe 4a10 a53e
00000150: a6ca 343e 2706 92be 4960 89bd c970 4f3b
00000160: 7f65 8b3d 8e52 9abe 49ea babc 8ad1 cebd
00000170: 4cc8 813d 611d 403c be92 71bd 90c8 a0be
00000180: eda4 85be fd0f 57be 2a10 b83d 2b7e dcbe
00000190: d890 8d3e d077 79be ae60 7c3d 3b6b c5be
000001a0: 0507 47be 34e0 c2be 19a2 0abd c8c7 a83d
000001b0: 9b9a 9b3f 9530 44be bb25 e4bc 62c5 92be
000001c0: dde4 8ebd e05e 91bd cc9b 9bbd e6c0 a23e
000001d0: 4937 b8bc 1d34 543e 2604 7dbe 015f 883c
000001e0: 8838 383e 9391 6b3e b9b1 7abd a9af 5dbe
000001f0: 28e2 143e ba32 f4bd 720f b0bc 652b 983d
00000200: 5e59 22bf 128a a3be b987 66be db04 debd
00000210: e8e0 b0bd 2dfd 073e 3d21 9c3e 9a66 45bd
00000220: fc6d 27bc a4c9 a23e 1710 d03d 9dc5 353c
00000230: 757b 943d decf cbbd 96c1 e93d 7e93 8c3d
00000240: 3118 2ebe 38e0 8bbe f744 723d 1441 bb3e
00000250: 98ef 273d 189e 6c3e 0609 fc3d 155b 3e3e
00000260: 7504 85bd c1cb 97bd 83b1 c43d 1f71 c03d
00000270: 8d11 58bd 6179 433c de0d 1fbe d919 45bd
00000280: fc03 763d b99c 0cbe 00f0 36bd 5b75 273d
00000290: 7a9d 85be 7fa9 5abd aba2 933e d2e0 583d
000002a0: bf24 623d de50 0a3b 6ffa 98be db91 e33c
000002b0: 6471 0a3e 9e21 9abe 2e01 383e b499 10bd
000002c0: 8c7a 6d3e 841a 45be 5c00 eebd d709 463e
000002d0: b8e3 2cbd 1fbd 6fbe 6850 843e fc02 48bf
000002e0: feaf f4bd 824d 90be 9c17 bebe 4157 da3d
000002f0: e404 2d3d 6f2e 363e 66e9 763e 8245 3cbe
00000300: 59b9 b2bd bcef 20bb 6625 913e 2923 28be
00000310: 2604 17be e6d5 8a3e 374f eb3d b7ff 4a3e
00000320: b8cb 8cbe 8f82 e43b 7e1f 4ebe d9cf b93d
00000330: a9f2 313e 4d6d 9b3c 693d 023d bac5 bcbd
00000340: 1185 163e e56a 8ebe 3f6a 52bd bedd cb3e
00000350: f81f 34be c72d a83d 9420 823b 4b2f e1be
00000360: c9fb 39be 32d7 bf3c cf5b 7e3e 280f b73d
00000370: a9e6 b6be 79e5 80be 5c4d 183d 2797 0a3e
00000380: aa30 c23c 1ff4 bc3c f140 27be 54ed 1d3e
00000390: 25ba 093e f926 143e 018a bb3e 64ea cbb8
000003a0: 1230 573e f7a9 413c fddc b9bd 86ba fd3c
000003b0: 0298 a8be bf51 8e3e 6b0f e53c 453c 933d
000003c0: 16bf a4be ec35 973c a756 743e 60ff cebd
000003d0: af4c 8fbe 8bba ed3d 36cf 153e 5cb2 b4be
000003e0: d6a6 013e ccbf a73d ee36 b5bd 4724 033e
000003f0: 2c54 073e 16cb c43d 50b5 a03d 1e29 30be
-0.9024962 0.063420154 -0.030764883 0.07503031 -0.18269539 -0.21013185 -0.10971097 0.1174982
0.26591307 0.39289507 -0.05452893 -0.2405805 -0.016813522 0.46165892 -0.34671068 -0.15892701
-0.041830186 0.01818689 -0.08469929 -0.22044668 0.18565956 -0.1722222 -0.34266713 -0.17729324
-0.1385121 0.23293735 0.1369009 0.25300503 0.114457816 -0.31139597 0.24702995 -0.529939
0.13089389 0.06352524 -0.1484939 -0.10693013 -0.04851217 -0.008537652 -0.1573029 -0.13290335
0.12885404 -0.052708577 0.04274634 -0.07134696 -0.35777584 -0.15572219 -0.12255016 -0.07808243
0.32150725 0.5237425 -0.06507112 -0.27833864 0.21896173 -0.078180246 -0.06355327 0.552238
0.17387699 0.11997441 0.10962641 0.10200682 0.23341092 0.072576314 -0.16239245 -0.16051804
0.034998156 -0.08601114 -0.032150622 -0.015045441 -0.07534596 -0.21571602 -0.047187507 0.2957717
0.20577908 0.1313402 0.21875226 -0.34512052 -0.16358411 0.09620117 -0.078985564 -0.2424792
-0.17248279 0.22057208 -0.18392652 0.3223899 0.17655429 -0.2852032 -0.06707818 0.0031652919
0.06806468 -0.3014111 -0.022816794 -0.1009856 0.06337032 0.0117257545 -0.058977835 -0.31403017
-0.2610239 -0.21002193 0.08987458 -0.4306501 0.2764957 -0.24362111 0.06161564 -0.38558373
-0.19436271 -0.38061678 -0.033845995 0.0824123 1.2156557 -0.19159158 -0.027850023 -0.28666216
-0.06977246 -0.07098174 -0.07598075 0.31787795 -0.0224873 0.20723005 -0.24708614 0.016646864
0.17990315 0.23004751 -0.061204646 -0.2164904 0.14539397 -0.11923738 -0.02149174 0.07430152
-0.63417614 -0.31941277 -0.22512712 -0.1084077 -0.086366475 0.13280173 0.3049411 -0.04819355
-0.010219093 0.31794465 0.10159319 0.011094478 0.0725011 -0.09951757 0.11413877 0.068640694
-0.17001416 -0.27319503 0.0591478 0.36573088 0.04099998 0.23107183 0.123064086 0.18589433
-0.06494991 -0.0741191 0.0960417 0.09396576 -0.052751113 0.011930794 -0.15532634 -0.048120353
0.060062394 -0.1373166 -0.044662476 0.040883403 -0.26096708 -0.0533843 0.28835043 0.05294878
0.055210825 0.002110533 -0.29878566 0.02777951 0.13519818 -0.30103773 0.179692 -0.035302833
0.23191279 -0.19248396 -0.11621162 0.19339691 -0.042209357 -0.23411988 0.25842595 -0.78129554
-0.1194763 -0.28184134 -0.37127388 0.106611736 0.042240992 0.1779115 0.24112472 -0.1838589
-0.087267585 -0.0024556955 0.28348845 -0.16419663 -0.14747676 0.27116317 0.114897184 0.1982411
-0.27499175 0.0069735716 -0.20129201 0.09072847 0.17377724 0.018973017 0.031796847 -0.09217401
0.14699198 -0.2781593 -0.051370855 0.39817613 -0.1759032 0.08211856 0.003971169 -0.43981394
-0.18162455 0.023418043 0.2483971 0.08938438 -0.35722855 -0.25175074 0.03718315 0.13534223
0.023704845 0.023065625 -0.16333367 0.15422565 0.13449915 0.14467992 0.36628726 -9.723453e-05
0.21014431 0.011820308 -0.09075353 0.03097273 -0.32928473 0.27796742 0.027961453 0.0718923
-0.32177037 0.01845833 0.2386118 -0.10107303 -0.27988192 0.11607846 0.14629826 -0.35292327
0.12661299 0.08190879 -0.08848368 0.12806807 0.13215703 0.09609048 0.078470826 -0.17203185

VAE_Decoder.layers.1.linear1.bias f4 [4]
00000000: 5856 74bd 44d4 c73c 77d8 0abe cc0a de3d
-0.059652656 0.024393208 -0.13559137 0.10841903

VAE_Decoder.layers.1.norm1.weight f4 [4]
00000000: 73e0 c33f 44b0 e53f 947d e43f dddf cd3f
1.5302871 1.7944417 1.7850823 1.6083943

VAE_Decoder.layers.1.norm1.bias f4 [4]
00000000: cbb0 4cbd 16ce cabd 9c31 533c 1254 663e
-0.04997329 -0.09902589 0.012890246 0.22493008

VAE_Decoder.layers.1.norm0.weight f4 [4]
00000000: 8c7d 6b3f a4f9 7c3f 1ff5 843f 1aeb 6c3f
0.91988444 0.9881842 1.0387305 0.92546237

VAE_Decoder.layers.1.norm0.bias f4 [4]
00000000: 14c1 883c 9a4e a7bb ab4b 6b3c 3a2f fbbc
0.01669363 -0.0051058056 0.014361302 -0.030662168

VAE_Decoder.last_normalization.weight f4 [4]
00000000: 0000 803f 0000 803f 0000 803f 0000 803f
1.0 1.0 1.0 1.0

VAE_Decoder.last_normalization.bias f4 [4]
00000000: 0000 0000 0000 0000 0000 0000 0000 0000
0.0 0.0 0.0 0.0

VAE_Decoder.head.weight f4 [4, 4]
00000000: a493 c8be 5261 9f3e cc41 1dbe a467 54be
00000010: 3434 0b3e e0d8 acbc b447 8b3e 103a 7e3e
00000020: 0efd e63e 68c0 483e 2060 9f3e 08dd 80be
00000030: 067c ee3e 98c5 ccbe 9048 3f3d eca5 fc3e
-0.3917514 0.31128937 -0.15357131 -0.20742661 0.13594133 -0.021099508 0.27203143 0.24826837
0.4511494 0.19604647 0.31128025 -0.25168633 0.46578997 -0.39994502 0.04670006 0.49345338

VAE_Decoder.head.bias f4 [4]
00000000: ac45 c43e a01c e5bd a4e7 943e 1c44 42be
0.38334405 -0.111871004 0.29082978 -0.18971294

Detokenizer.weight f4 [16, 4]
00000000: fe6b 153b ea64 d63d 1a3d 1e3d bf26 b53d
00000010: 5ed8 87bd 84ef b9bd a5e3 a0bb bd41 54bd
00000020: 3b06 da3c e7d8 783e 884e f43b a04a 213e
00000030: d75b c53d c041 063e 5521 33be 3b34 fcbc
00000040: aa09 d53d 1542 b83d 1e5b 5cbe d1c2 ab3d
00000050: 908f 0bbe a4db 0abd 0364 7d3d 6fb0 293c
00000060: 070f 8d3d ccdf 9cbc 84ce c33d 963a 13be
00000070: 791b e0bc 862f d6bd d8b3 8abc 0efc 5639
00000080: 0435 1f3d b6b4 963e 4106 27bd 0bb9 193e
00000090: a57d aabd 34b7 3d3e 3376 bf3d 30d4 273e
000000a0: e627 92bd 108e 0d3d 5a31 b13b b257 ea3d
000000b0: ee99 e7bd 752e f8bd 7235 6f3e 6d14 b63d
000000c0: 7f42 89bd f653 8fbd 0fda 2d39 c7eb 5fbd
000000d0: 065e 28be 93c1 233e 0e69 183e 2d99 093e
000000e0: c3bf 11be e5d1 603d 54bd c33d 1a3f 823d
000000f0: 4e24 fa3d ff41 393c 6952 d8bc 4e5b 673c
0.0022799964 0.104684666 0.03863249 0.08845281 -0.06633066 -0.09078887 -0.00490995 -0.051820505
0.026614299 0.24301492 0.0074556507 0.15751123 0.09636658 0.13111019 -0.17493184 -0.030786624
0.10402234 0.08996979 -0.21519133 0.08386768 -0.13628983 -0.033900872 0.061862957 0.010357006
0.06887632 -0.019149683 0.09560874 -0.14377818 -0.02735685 -0.10458283 -0.01693146 0.00020502528
0.03886892 0.29434747 -0.04077745 0.15011995 -0.08324746 0.18526918 0.093487166 0.16389537
-0.07136516 0.03455931 0.0054074945 0.11442508 -0.11308657 -0.12118236 0.23360232 0.08890615
-0.06702136 -0.06998436 0.00016579799 -0.054668214 -0.16442117 0.15991811 0.14883825 0.13437338
-0.14233308 0.05488767 0.09557596 0.06359692 0.12213956 0.011307239 -0.026406484 0.01412089

Detokenizer.cat_recons.0.weight f4 [2, 4]
00000000: 9d44 4d3e 72d7 1dbe 2d84 fdbe adb2 2e3f
00000010: 8d0d f3be 61d2 8e3e 1658 aabe b61a debe
0.20045705 -0.15414217 -0.49514905 0.6824139 -0.47471276 0.2789488 -0.3327033 -0.43379754

Detokenizer.cat_recons.0.bias f4 [2]
00000000: ab6e cebe 44c9 343e
-0.40318808 0.17654902

Detokenizer.cat_recons.1.weight f4 [19, 4]
00000000: b96a 02bf 935a 0e3e 0186 b93e 1210 38bd
00000010: 781f de3d cd60 ecbe 1731 d8bd 095b b9be
00000020: fc2c d43e 146a bfbe 684e d43e 7576 683e
00000030: 079c 873d ffe4 a23e 4e0e 893e a5ef fc3e
00000040: 4251 e63e 25f8 093e 7c90 a73d 126f 24bf
00000050: 7ba8 71be a8ce b6be de77 96bd 5b70 663d
00000060: d1bf 77bd 943b 923e 7e37 2a3f 620b 72bd
00000070: e7d0 93be 7c64 efbd ab9d 10be f026 d5be
00000080: 883f 463f a3e0 89bc 5208 103e 2456 38be
00000090: 3f9f 2e3e fdd0 2cbe 4613 0f3f 9b42 033f
000000a0: 754e 5abd bf31 0a3e 5112 0abe 1d9f 953e
000000b0: 1805 e73e d57b fd3d 3356 04bf 9f19 a0be
000000c0: 4396 943d c3b3 50bc c791 a3bb e2b1 eb3e
000000d0: 6072 6ebe 999e 563d 57bf 43be 11a8 973b
000000e0: 8bd3 413e ae05 663e 4d4e d13e 5893 05bf
000000f0: 7e4e 6b3d de23 7cbe 62d8 d63d 6fda b63e
00000100: 59b7 85be ae28 2c3e c493 753e 6ab8 08bf
00000110: cf91 d7be 1fb5 823d 11ec 363d e2a1 b4be
00000120: 502a 83bd 0420 a3bd a6ef a6be d4e5 89bd
-0.50944096 0.13901739 0.3623505 -0.0449372 0.10845846 -0.46167603 -0.10556238 -0.36202267
0.4144057 -0.3738562 0.4146607 0.22701438 0.06621557 0.31815335 0.26768726 0.49401584
0.4498387 0.13473566 0.08181855 -0.6423198 -0.23599426 -0.3570454 -0.073470816 0.056259494
-0.060485665 0.2856108 0.66490924 -0.059092887 -0.28870317 -0.11689088 -0.14122646 -0.4163127
0.7744069 -0.016830748 0.14065674 -0.1800161 0.17052935 -0.16876598 0.55888784 0.51273507
-0.05329748 0.13495539 -0.1348355 0.29222956 0.45121074 0.12377135 -0.5169403 -0.31269547
0.07255223 -0.012738171 -0.0049917432 0.4603415 -0.23285818 0.052397344 -0.19115959 0.0046281894
0.18928353 0.22463104 0.4088005 -0.52177954 0.057447903 -0.24623057 0.104904905 0.35713527
-0.26116446 0.16812393 0.2398215 -0.53406394 -0.4210343 0.06382202 0.044658724 -0.35279757
-0.06404555 -0.07965091 -0.32604712 -0.06733289

Detokenizer.cat_recons.1.bias f4 [19]
00000000: f878 523e fccb 5ebe c64c a93d fa4e 063f
00000010: a9bd e4bc 1f4d df3d e43e bc3d 7f36 763e
00000020: 303a 26be 5e05 be3c f6b6 6e3e c9c0 fdbe
00000030: d1ac d2be 9552 22bf 69e6 8b3e 3e27 9f3d
00000040: e848 bdbc 8edd e5be 0e8e 20bf
0.20553958 -0.21757501 0.082665965 0.5246426 -0.027922468 0.109033816 0.09191683 0.24044226
-0.16233134 0.023195919 0.23311982 -0.49561146 -0.41147473 -0.6340726 0.27324226 0.07771157
-0.023106053 -0.44895595 -0.6271676

Detokenizer.cat_recons.2.weight f4 [17, 4]
00000000: 054c 2abe b8ba 913c 16b1 113f 04b1 573d
00000010: 70a7 bfbd 5e8d f2be d95d 763e 42c8 143e
00000020: f3a4 afbe 2920 053f dd2a f0be b7b7 253d
00000030: 7575 96be 875f 0cbe fffc 8e3e 92f2 10bf
00000040: 6b58 413e 6682 9ebe 25fb 38be 47d3 69be
00000050: 0d6c fbbe 93e9 cd3e e1af 513d 7861 323e
00000060: b990 9cbc 4d97 173f 8a4c 50be 3342 e93e
00000070: 2fe8 03be 2439 cdbd 04db 0ebe 45d8 f03e
00000080: 55d7 d63e ee04 8cbc 70b5 4a3e 779c 493e
00000090: 6fa5 913e d7c1 78bd f369 9a3d 8c00 a4be
000000a0: b62d 283e 2fed a73e 90bd 1cbf 1e87 d23e
000000b0: 4c1e d4be 6316 e8bd 63ca cdbe 8437 2abd
000000c0: df4b e9bd 7238 203e 4d45 5c3e 17f9 eb3e
000000d0: 5b70 d73e ad39 563e d669 bbbe 3e8a 93be
000000e0: 92c8 e7be d922 9b3e 29cd eb3d 0425 44be
000000f0: 1d33 eebc e8be a23e 6fd0 3fbf e7be 0ebe
00000100: 6ec8 90be 4b4f 23be d0e7 89be aa87 6f3e
-0.16630562 0.01778923 0.56910837 0.05265905 -0.09358108 -0.4737348 0.24059238 0.14529517
-0.34305534 0.520022 -0.46907702 0.040458407 -0.29386488 -0.13708316 0.27927396 -0.5662013
0.18881385 -0.3095886 -0.18064554 -0.22834502 -0.49105874 0.40217265 0.05119312 0.17419994
-0.019111978 0.5921524 -0.20341697 0.45558318 -0.1288154 -0.10020664 -0.13950735 0.4704
0.4196116 -0.017092194 0.19795775 0.19688593 0.28446528 -0.060731735 0.075397395 -0.32031667
0.16423687 0.32798144 -0.6122675 0.4111871 -0.41429365 -0.11332395 -0.4019347 -0.04155685
-0.113914244 0.15646532 0.21510811 0.46088478 0.42077908 0.20920439 -0.36604184 -0.28816408
-0.4527021 0.30300024 0.115137406 -0.19154745 -0.029077107 0.31786275 -0.7492742 -0.13940011
-0.28277916 -0.15948217 -0.2693467 0.23391595

Detokenizer.cat_recons.2.bias f4 [17]
00000000: d6e0 463e 7918 7f3d efd6 c4be 70d1 5dbe
00000010: 7838 99be 6ab8 07bd a6a3 c73d 0817 9c3e
00000020: 39f9 ef3d 3155 bfbe d1bd e9be c16a dbbe
00000030: 0443 c0bc 3878 a43e c579 efbc 8817 6cbd
00000040: e21e d1be
0.19421706 0.0622792 -0.3844523 -0.21661925 -0.29925895 -0.033134855 0.0974801 0.3048632
0.11717457 -0.37369683 -0.4565263 -0.42854884 -0.023469456 0.3212297 -0.029232869 -0.05763963
-0.40843874

Detokenizer.cat_recons.3.weight f4 [10, 4]
00000000: ea50 523e 4b73 f3be b04d 063f 2aa9 943d
00000010: d888 f5be c943 09be 9181 b6bd 9443 21be
00000020: e069 11bd 1585 0c3f 298c 313f 06c1 e23e
00000030: f108 49bd 0b5f 50bc 16a4 a13c d4f4 02bf
00000040: ca0c 01bf f9ff 813e 8fb1 b93e 6ea6 9d3e
00000050: eaf2 2d3f f64a 6e3e 968f abbd 5726 b9be
00000060: 5eb3 593e fd08 dd3e d78f b33e b8eb ebbe
00000070: eb3c a93e b8ce 2dbe fc98 debe 60cb 06be
00000080: 3781 b3bd 108e 85be 9b11 f1bc c3c5 b63e
00000090: 7d83 68be f178 c93e a007 263f dcd1 01be
0.20538679 -0.475489 0.5246229 0.07258828 -0.47955966 -0.13404764 -0.089114316 -0.15748435
-0.03550136 0.5489057 0.6935449 0.4428789 -0.049080793 -0.0127179725 0.019731563 -0.5115483
-0.5041014 0.25390604 0.3626828 0.30791038 0.6794878 0.23270783 -0.08376996 -0.36162063
0.2125983 0.4317092 0.3507068 -0.46078277 0.3305429 -0.16973388 -0.43476093 -0.13163519
-0.0876488 -0.26084948 -0.02942734 0.35697755 -0.22706409 0.39350083 0.64855385 -0.12677711

Detokenizer.cat_recons.3.bias f4 [10]
00000000: c9f4 febe d038 e4be be83 8c3e bea1 5c3e
00000010: 80cf 5bbe bfa0 5bbb 96ab 1a3d cf2c e8bd
00000020: c547 91bc 4e66 6cbe
-0.4979613 -0.44574594 0.2744426 0.21546075 -0.21465874 -0.003351256 0.037761293 -0.113366716
-0.017734418 -0.23085901

Detokenizer.cat_recons.4.weight f4 [8, 4]
00000000: fc81 32bf d324 68be a576 93be 6f28 d5bd
00000010: b5d1 1dbe a984 98be c53d 513d dd52 00bd
00000020: 3a85 07be 1e73 b73e f092 f93e 2faa db3d
00000030: 1d82 163e db48 a7bd a8ff 14bf 3601 3cbe
00000040: a93a 37be 6afe 443e 2174 a43e 55c0 05bf
00000050: 199f 233e 357a b93e 3654 93be d5a4 e93e
00000060: 6e1b 9a3e 0cc0 493b 4f8a 233d 6d3c 8ebe
00000070: a33e 523c 50a4 823e d4e8 11bf 0024 26bf
-0.6972959 -0.22670297 -0.28801456 -0.10408103 -0.15412028 -0.29788712 0.0510843 -0.031329025
-0.13234416 0.35830015 0.48744917 0.10725819 0.14698072 -0.08168193 -0.582026 -0.18359837
-0.17893471 0.19237676 0.3211985 -0.522466 0.1597866 0.3622605 -0.28775185 0.4563357
0.30099052 0.0030784635 0.039926823 -0.27780476 0.012832317 0.25515985 -0.5699589 -0.6489868

Detokenizer.cat_recons.4.bias f4 [8]
00000000: 5fd6 64be 4056 74be a74d babd 531f ccbe
00000010: cde1 fa3e 2dae 84bd 1234 6bbe b957 9b3e
-0.22347401 -0.23861027 -0.09096842 -0.39867648 0.49000397 -0.06478534 -0.22969082 0.30340365

Detokenizer.cat_recons.5.weight f4 [19, 4]
00000000: 8e94 c23e cd83 0bbf 58a9 1c3f f035 61be
00000010: dfeb e3be 4c92 ff3e 0d5b 1b3e c0f2 2a3d
00000020: 5004 883d 8420 033f e616 9fbe c2b9 c13e
00000030: d0be 56be 63f6 e93e e38e 223f 624b 2a3d
00000040: 8420 22be 6928 37bf a40c 8e3e 206b 7abd
00000050: 6760 1bbf 4657 c2be 9fe4 cebd d1f9 babe
00000060: 8f42 973e 425f 013e 656e c03e 4f11 193f
00000070: dc8e acbe 8e4f 01b9 62d3 993e 7219 0fbf
00000080: 4e68 673e f216 cebe 4245 65be d339 15be
00000090: 833e 853e 56ca 3fbe a598 6e3f b84a 723e
000000a0: d176 623d e292 373c 6657 8cbe bfb3 c53e
000000b0: 1c71 d8bb 3af2 89bd e742 a4be 1aea e8be
000000c0: c47b 273f 4cbe 82bd d794 543e eeff 3ebe
000000d0: f031 5bbe 7c6b a73e 2f8f aabe 2bc7 16bd
000000e0: 03fb b23e 849e c23e 7d50 40be 7b4a c4be
000000f0: ccd9 df3e 09ec 363c 5bf4 303f 2ffb 04be
00000100: 1a3d 0abe c41e b1be cce8 7ebe cc1a c53c
00000110: c07d c63e 2c94 c83e a68e 723e 2535 a3be
00000120: 05fd 70be 3eed c5be 3653 b73d 474e 4e3e
0.38003963 -0.5449799 0.611959 -0.21993232 -0.44515893 0.49916303 0.15171452 0.04173541
0.066414475 0.5122149 -0.31072158 0.37837034 -0.20971227 0.4569579 0.6349928 0.041575797
-0.15832716 -0.71546036 0.2774402 -0.06113732 -0.60693973 -0.3795721 -0.101022 -0.3651872
0.29542968 0.12633994 0.37584224 0.59792036 -0.33702743 -0.00012332035 0.30044085 -0.558982
0.22598383 -0.4025188 -0.22389701 -0.1457284 0.26024255 -0.18729529 0.9320167 0.23661315
0.055289093 0.011204453 -0.2741043 0.38613698 -0.0066052806 -0.06735654 -0.32082292 -0.45491105
0.65423226 -0.063839525 0.20759903 -0.18652317 -0.21405768 0.32699192 -0.33312365 -0.036811035
0.34957132 0.38011563 -0.18780704 -0.38338074 0.43720853 0.011164674 0.69122857 -0.12986444
-0.13499871 -0.34593785 -0.24893492 0.02406063 0.38767815 0.39175546 0.23687229 -0.31876484
-0.2353402 -0.38657564 0.08951418 0.20147048

Detokenizer.cat_recons.5.bias f4 [19]
00000000: 602b d73d 697f adbe c00d f3bd f207 6cbe
00000010: c301 a63d d176 b5be f024 43bd 1674 abbe
00000020: c2e7 40be 2852 15bf 6f75 85be d5a7 febe
00000030: e76a c13e 8559 06bf d112 d9bd e884 d53e
00000040: fc32 813e d999 ec3d 1082 5f3e
0.1050632 -0.3388627 -0.11867857 -0.23049906 0.08105805 -0.35442212 -0.04764265 -0.33487004
-0.18838409 -0.58328485 -0.26066157 -0.4973742 0.37776873 -0.52480346 -0.10599292 0.41702962
0.2523421 0.115527816 0.21826959

Detokenizer.cat_recons.6.weight f4 [19, 4]
00000000: a6d5 433f e304 d0be 603f d93c e178 d9be
00000010: 5f07 aa3d e66d bf3e 98e9 fbbe f8b9 d63e
00000020: 619d c7be e352 e13e 9920 64be f17a 41bc
00000030: 6c78 53be df09 583e 4efd cb3e 4909 9dbe
00000040: 3868 d5be f8ef 1bbe cdf2 cfbe 06c0 e9be
00000050: f5b1 3bbe 0ad6 06bf a875 973b b9c4 033d
00000060: b585 a13e b549 e4bc 3378 25bf 896e f0be
00000070: d349 933e 46fd b23d dc13 37bd 41cd 49bf
00000080: c6d7 9dbe 6a16 7dbd cbc5 02bf b922 a43c
00000090: b890 45be 510a 05be 760a 8bbe 71e1 bb3e
000000a0: f2a7 0dbd 8be5 e23e c9e3 663e c79b c83e
000000b0: 3c4f 213f 4799 c4be 1841 163f eadb 233e
000000c0: 6fd9 733e cd43 43bd edfa 613d faa5 003f
000000d0: d013 72be 57e1 1d3e bdc0 b7bd b23e 20bf
000000e0: 041e 9e3e 6c41 d33e 0aa0 21bf de80 17bf
000000f0: f39e 053f 9eea c33d 56b0 a93e 5a2b 00bf
00000100: deb1 2a3f 7c16 ef3d 4113 083f c050 e4bc
00000110: 6243 083f 838c e1be 7220 2a3e decf b23b
00000120: a51a d53c 18bf b1be 2b00 95be c300 c3be
0.76497877 -0.40628728 0.026519477 -0.42475036 0.08302187 0.37388533 -0.49201655 0.41938758
-0.38987258 0.4400855 -0.2227806 -0.011809097 -0.20651406 0.21097516 0.39841694 -0.30671147
-0.41681075 -0.1522826 -0.4061493 -0.45654315 -0.18329604 -0.5267035 0.00462218 0.03217003
0.31547323 -0.027867178 -0.64636534 -0.46959332 0.2876726 0.08739714 -0.044696674 -0.7882882
-0.30828685 -0.061788954 -0.5108306 0.020036088 -0.19293487 -0.12992217 -0.2715642 0.36695436
-0.034583993 0.44315752 0.2254783 0.3918135 0.6301153 -0.3839819 0.58693075 0.1600186
0.23813413 -0.04767208 0.055170942 0.5025326 -0.2364037 0.15417992 -0.08972309 -0.62595665
0.30882275 0.4126085 -0.63134825 -0.5918101 0.5219566 0.09566234 0.33142346 -0.5006615
0.66677654 0.116742104 0.5315438 -0.027870536 0.5322782 -0.44052514 0.1661394 0.0054569086
0.026013682 -0.34716105 -0.2910169 -0.3808652

Detokenizer.cat_recons.6.bias f4 [19]
00000000: 01df 973b 0722 48bc 8f78 09be 821d 903e
00000010: 6044 563e d6d5 c13d bd5a 5dbd 57c8 833e
00000020: 0a65 f4bc e2c9 a0be b215 c0be 524d f7be
00000030: 9205 d03d c6f5 4dbd df4b f4be 9c66 b0be
00000040: 4a44 09bf 3932 983d 0527 f03d
0.0046347384 -0.012215144 -0.13424896 0.28147513 0.2092452 0.09464614 -0.054041613 0.25738785
-0.029833335 -0.31404024 -0.37516552 -0.48301178 0.101573125 -0.050283216 -0.47714135 -0.34453285
-0.53619826 0.07431454 0.117261924

Detokenizer.cat_recons.7.weight f4 [19, 4]
00000000: 01a1 bfbe 081e bebe e705 75bc 07ac 1a3f
00000010: 9abe 1bbf f79d a73e bd2e 1f3e a36a 013f
00000020: e789 dd3e a940 f6bd 9cc5 1ebf a5a8 9cbd
00000030: 520f 9fbe 1cf5 d03d 3149 d43e 4045 b4be
00000040: cb6c 4d3e 285e c9be 6e29 d73e 3996 14bf
00000050: 8280 be3e 5537 0ebf 0f54 81bd ae55 b83d
00000060: 20a0 12bc e14c c53e 158c e2be 4bb0 12bf
00000070: c3eb 91be 3185 03be 6ad0 cabe 9e7e 803e
00000080: 1ada 043f 3304 863d 1a96 063f 2321 093f
00000090: 9aa2 353f 44f6 85be a673 9d3d 289e c9bd
000000a0: 7136 81be ca36 153f c489 dcbe 6036 9c3e
000000b0: 327d 523d 1b9a d13e b4dc e2be 6021 283f
000000c0: aaf5 483d ffca 12bf 5a65 a23e d41d c03e
000000d0: 54df 223f ce6d a1be 3d30 a23e d3b7 9a3e
000000e0: a0dc d83e 7e44 32be 69c0 403e 58ad 2c3f
000000f0: 7500 e6be a6fe 9d3e 536e 8dbe 57e1 4dbe
00000100: 6b92 163f 89b2 483e b77c 9fbe 729b 7ebe
00000110: 1dbe 063e 6180 113e 5763 ca3d 6d03 403f
00000120: 503a 5e3e 32da fc3e 56fa af3e 66a6 9a3e
-0.37427524 -0.37132287 -0.0149550205 0.6041874 -0.6083771 0.32737705 0.15545173 0.5055334
0.43269274 -0.12024052 -0.6202028 -0.07649354 -0.31066376 0.10203001 0.4146209 -0.35209084
0.20061032 -0.39329648 0.42023796 -0.5804172 0.3720742 -0.5555318 -0.06314861 0.09000717
-0.00894931 0.38535216 -0.442475 -0.5730025 -0.28500184 -0.12843777 -0.39612132 0.250966
0.51895297 0.0654377 0.52572787 0.5356619 0.70951235 -0.26164448 0.07688074 -0.09844619
-0.25236848 0.58286726 -0.43073857 0.30510235 0.051388927 0.40937886 -0.44309008 0.65675926
0.04906241 -0.57341 0.3171795 0.37522757 0.6362202 -0.31529087 0.31677428 0.30218372
0.42355824 -0.1740894 0.18823399 0.67452 -0.44922224 0.30858344 -0.27623233 -0.20105492
0.58817166 0.19599356 -0.31149837 -0.24863985 0.1315846 0.14209129 0.09882229 0.7500523
0.21701932 0.4938522 0.3437068 0.30205077

Detokenizer.cat_recons.7.bias f4 [19]
00000000: 64de c5be cc0e 833e bac6 e03e af10 b5be
00000010: 545d 99be 40d1 a2be e199 c93d 4e47 c93e
00000020: b8a2 e2be a307 85be 60bd ecbe a2ef 96be
00000030: 9bb6 f8be 07a9 f5be ce5b bcbe ea27 24be
00000040: 17bb 0fbe c3ba 9bbe 53dd 9cbe
-0.38646233 0.25597227 0.43901616 -0.3536429 -0.29954016 -0.3180027 0.09843803 0.39312214
-0.4426477 -0.2598239 -0.46238232 -0.294797 -0.48576817 -0.4798052 -0.3678879 -0.16030851
-0.14036213 -0.30415925 -0.30637607
