restsyn/tabsyn/vae/ckpt/heloc/model.pt (torch, 71086 bytes, 110 tensors)

VAE.Tokenizer.weight f4 [17, 4]
000000 77 c1 f3 3d ba 8a 0c bd 0d 26 11 3e ae 45 14 be
       0.11902135 -0.034311987 0.14174671 -0.14479706
000010 7c b0 78 be db 1f a3 3e 20 a3 ff 3c 69 19 8b 3e
       -0.24286073 0.3186024 0.031205714 0.27167824
000020 cb 3b 80 3b cf 0b ed 3d cc f5 06 bf dc 7d 2d 3e
       0.003913378 0.11574518 -0.52718806 0.16942543
000030 32 74 30 be 9b d3 7a 3e 76 d1 02 3e e4 4f 83 3e
       -0.17231825 0.24494784 0.12775216 0.2564689
000040 4a 03 86 3e 88 a9 9e bd 64 92 ae bc 72 11 6c be
       0.26174384 -0.07747179 -0.021310039 -0.2305353
000050 02 5b 9a 3c a4 bf df 3e a5 1e a3 be 75 1d 57 3e
       0.018842224 0.43700898 -0.31859317 0.2100733
000060 ad 1e b1 be ac 80 6e be 27 7a a3 3e 1b cd 0b 3d
       -0.34593716 -0.23291272 0.31929132 0.03413115
000070 98 10 01 3e b2 af f1 3d 03 ed aa 3d fd 25 1a 3d
       0.12603986 0.11801089 0.08345988 0.037633885
000080 d4 67 3c 3e cc 03 10 3e 67 0e fe bd 82 fe fe 3d
       0.18398982 0.14063948 -0.12405091 0.12450887
000090 f1 52 de be 8f f6 43 3d 7a cc 4d bd b9 28 53 3e
       -0.43422654 0.04784256 -0.050243832 0.20621003
0000a0 b7 e6 03 bf 83 29 1b bd 14 80 97 be 67 89 67 be
       -0.5152392 -0.037881386 -0.29589903 -0.22611009
0000b0 9d 02 33 be e5 ba b4 be 7a 1b ab 3e 40 eb 6f be
       -0.17481466 -0.3529884 0.334194 -0.23429585
0000c0 69 ef ea bc 9a 35 49 3d 54 fe 14 3e 61 47 98 3d
       -0.028678613 0.049123384 0.14550143 0.074354894
0000d0 b0 69 81 3c 8b 2b a4 3e 19 89 ec be a9 3f 79 3e
       0.015797466 0.3206447 -0.46198347 0.2434069
0000e0 99 a6 01 3e a8 d1 4b 3d 51 1b 29 3e d3 33 15 3e
       0.12661208 0.04976049 0.16514327 0.1457055
0000f0 af cf 19 bf 13 c8 98 bd 21 e5 9c be 29 d9 63 be
       -0.60082525 -0.07460036 -0.3064356 -0.22250809
000100 10 fb cf 3e 12 11 81 be bd 8f 77 3e 4c 8e 28 be
       0.40621233 -0.25208336 0.24175926 -0.16460532

VAE.Tokenizer.bias f4 [24, 4]
000000 1b d8 89 be 54 58 da bd ee ab 88 3e da 56 a4 3e
       -0.26922688 -0.106613785 0.26693672 0.32097512
000010 13 0b b0 bd 0f f1 e9 bd ff 36 65 3e 6a 93 85 3e
       -0.08595862 -0.114229314 0.2238426 0.2608903
000020 e8 f8 bf be 2a 90 00 3f a6 09 86 3e a2 4c fe be
       -0.37494588 0.50219977 0.26179236 -0.4966784
000030 75 d8 ce be 39 17 ab 3e d3 f8 19 be 4b 82 02 bf
       -0.4039952 0.33416155 -0.15036325 -0.5098006
000040 1e 7f 52 3e 72 8d 9b 3e ca 57 2a bf 15 41 22 3e
       0.20556304 0.30381352 -0.66540205 0.1584514
000050 81 15 11 3f 2d b1 16 bf 92 d5 d2 bd a1 3e bf bd
       0.5667344 -0.588641 -0.102946416 -0.093381174
000060 73 cf 3d 3e ca 92 b1 3e 88 5c 47 be 46 6a 3a 3e
       0.18536167 0.34682304 -0.19468892 0.18204603
000070 37 7c 99 bd fc 74 bc be e5 da 0d bd d8 fb 1f 3f
       -0.07494395 -0.36808002 -0.034632582 0.6249366
000080 55 99 d1 be af d9 fa 3e 95 46 24 3e 92 bf 8e bd
       -0.40937296 0.48994204 0.1604255 -0.06970133
000090 fc ed a0 be f3 e1 00 bf f9 42 67 3e cf fc 71 3e
       -0.31431568 -0.5034477 0.22584142 0.23631595
0000a0 9b 9e 50 3e ad ee b8 be b2 d7 5f be 39 5e e6 bd
       0.20373003 -0.36119595 -0.21859625 -0.1124844
0000b0 c5 50 7c be 49 d0 cd 3e 48 7c 06 3e ef d8 17 bf
       -0.24640186 0.4019797 0.13133347 -0.5931539
0000c0 78 0c ba be 09 3d db bd 66 75 9e 3d 50 a1 3b be
       -0.36337638 -0.10705001 0.07737236 -0.18323255
0000d0 e0 e9 6a bd 39 8a d1 bd d2 83 e4 be cf 9a dd 3e
       -0.057351947 -0.10231442 -0.4463182 0.43282172
0000e0 08 24 83 3e 07 a9 6b be 62 1f ee 3e 86 a2 df 3e
       0.25613427 -0.23013698 0.46508318 0.43678683
0000f0 b9 a7 5a be 70 c8 1b bf da 2b 1b 3e 25 21 c4 bd
       -0.21353044 -0.6085272 0.15153447 -0.09576634
000100 d5 04 de 3e 9c b8 de 3e 71 b3 c3 be c9 0e 91 3d
       0.43363062 0.4350022 -0.3822284 0.07082898
000110 c2 b1 d6 3e 59 06 10 be 33 30 9c be 63 eb 83 3e
       0.41932493 -0.14064921 -0.30505523 0.25765523
000120 8b 6e 57 bd 01 9f ca 3b 85 d0 33 3e 1d 8e d2 3e
       -0.052595656 0.0061835055 0.17560013 0.4112405
000130 65 c9 6b be e3 a1 a7 be 0d 81 69 be 7a df b5 be
       -0.23026045 -0.32740697 -0.22803135 -0.35522062
000140 d9 dd a4 3e ea 72 53 be a7 b2 c0 3e b4 24 26 be
       0.32200506 -0.20649305 0.376363 -0.16224939
000150 66 52 c7 3d 8d 16 36 be 7b 4b d0 3d ad 71 26 3e
       0.09732513 -0.1778204 0.10170647 0.16254301
000160 e3 0c b4 be e0 ef 82 3e 8a d3 4a be 37 05 f5 3d
       -0.35166082 0.25573635 -0.19807258 0.11963885
000170 b0 65 38 bd fc 88 8e bd cb 82 11 3e 87 8f 58 bd
       -0.04501885 -0.069597214 0.1421005 -0.052871253

VAE.Tokenizer.category_embeddings.weight f4 [113, 4]
000000 e7 b6 93 3e 0d d7 52 3c ae db f7 3d 0e 01 eb 3e
       0.2885048 0.012868655 0.121024475 0.45899242
000010 35 11 24 bf 9a d2 d3 bc c0 2d 93 3e ff 25 fc be
       -0.64088756 -0.025857259 0.28745842 -0.4924774
000020 50 0c 6d be da ee 84 be bd 92 9a 3c 8b c2 4d 3e
       -0.23149228 -0.2596348 0.018868798 0.20093744
000030 85 b8 90 3d a1 ac 76 3e 83 59 71 be fb 87 56 be
       0.07066444 0.2408929 -0.23569302 -0.2095031
000040 f8 af 88 be 73 2a 71 3e 2e a2 a9 3e a3 f3 64 be
       -0.26696754 0.2355135 0.33131546 -0.22358565
000050 6b 31 c5 bd 34 ed a8 3e dd 75 f4 3e 19 f4 f0 3d
       -0.09628566 0.32993472 0.47746173 0.11765308
000060 67 79 be 3c 92 f3 0b 3f 9c 4e 5c 3e cc 7e c1 be
       0.023251249 0.54668534 0.21514362 -0.3779205
000070 a0 c5 c6 3d 55 56 a0 be 51 24 be be 78 03 b2 3d
       0.09705663 -0.31315866 -0.37137082 0.08692068
000080 5a a8 82 3d 05 5e bb 3e 72 94 06 3f d4 43 99 3e
       0.06379767 0.3659517 0.5257026 0.2993456
000090 3d 14 21 be 1e 56 25 3d 20 44 07 3e cd 2a 2e be
       -0.15730377 0.04036533 0.13209581 -0.17008515
0000a0 75 04 00 3f 9c 4a 22 3f e8 34 8d 3f 93 68 e7 bd
       0.500068 0.63395095 1.1031771 -0.11299243
0000b0 a6 df 2e be 5f b5 a8 3e 4d a4 e3 3e 97 e0 c7 bd
       -0.17077503 0.32950875 0.4446129 -0.09759634
0000c0 b8 de 82 be c7 aa 5b 3c 67 6f cc 3d 2d 81 30 3e
       -0.25560546 0.013407416 0.09982186 0.17236777
0000d0 92 ff 48 be 56 e7 2c 3f 1d 0e bc be a1 9a ca be
       -0.19628742 0.6754049 -0.36729518 -0.39571097
0000e0 c2 ff 2b be 4a 81 84 3e a3 c5 cf 3e 2e 9f 6f 3e
       -0.16796783 0.2587989 0.40580472 0.23400566
0000f0 46 dc 8b be da 88 ca be ed b2 95 be 3b c5 1b 3e
       -0.27316493 -0.39557534 -0.29238072 0.15211956
000100 e4 af 6f be 3e 7d 8e 3d 39 07 b4 3e c9 52 d3 bc
       -0.2340694 0.06957482 0.3516176 -0.025796311
000110 0e a5 8e be c0 0c 8b 3d f2 d0 7f 3d 95 cf 4f be
       -0.27860302 0.06789541 0.062455125 -0.2029403
000120 2d 84 01 bd 67 63 f7 3d 1e c9 ff 3e 28 10 95 3d
       -0.031620193 0.12079506 0.49958128 0.07278472
000130 cd 4b df be 3c 17 f0 be d7 62 b2 be 30 c6 d3 be
       -0.4361252 -0.46892726 -0.34841034 -0.41362143
000140 63 0c 81 be 66 19 ba be d6 9b b0 3d 31 4e 54 be
       -0.25204763 -0.36347502 0.08623473 -0.20732953
000150 c7 ac 7f 3e f7 ba 92 3e a5 96 08 3f 32 99 08 bf
       0.24968253 0.28658268 0.53354865 -0.5335876
000160 f7 96 ba 3e a4 90 8c bd a8 ca a6 bd 56 77 a5 be
       0.36443302 -0.068635255 -0.08144122 -0.3231761
000170 ee 78 d5 3d 71 b2 9e be c7 70 92 3d f3 eb b9 3e
       0.10423456 -0.30995515 0.07150417 0.36312827
000180 de 0b b1 3e 81 35 0f 3d 52 df 04 bd a6 34 2c be
       0.34579366 0.034963135 -0.032439537 -0.16816959
000190 99 54 75 3e 5a eb 58 3e c1 30 9e be 3a c8 bd be
       0.23958053 0.2118353 -0.3089657 -0.37066823
0001a0 de 02 4b 3e ca b1 4f be 43 f5 a0 be aa 20 9d bb
       0.19825312 -0.20282665 -0.3143712 -0.0047951536
0001b0 13 38 dd bd 5e f7 8d 3e a4 1e 08 3e 3b 4c b5 3e
       -0.10801711 0.2772779 0.13292938 0.35409722
0001c0 2b 4a 86 3e f4 9b f5 be a4 0e bc 3e dc 11 2a 3e
       0.2622846 -0.47970545 0.3672992 0.16608375
0001d0 a5 88 59 3f 5c 16 4c 3f ac bd 18 3f fd 38 b3 3e
       0.8497413 0.7972162 0.59664416 0.35004416
0001e0 8b f8 fe 3b c4 34 8d be 76 e9 4e 3e 47 1e b6 be
       0.0077810935 -0.2757932 0.20206246 -0.35569975
0001f0 25 04 be be b3 59 1f be 4e 67 a6 be c6 ad ae bd
       -0.37112537 -0.15561561 -0.3250069 -0.085292384
000200 ba 37 ca 3e 08 b1 1e bf 3c 96 68 be 99 21 1c bd
       0.3949564 -0.6198888 -0.2271356 -0.03811798
000210 90 4e 4c 3f ca df 29 3f e3 16 67 3f b0 d2 ed 3d
       0.79807377 0.663571 0.902693 0.11612451
000220 b9 59 ae bd ef 0f bd be d2 2a 31 bd be 15 d5 be
       -0.08513207 -0.3692622 -0.043253727 -0.4161815
000230 b0 78 8b 3c 36 ba b9 be bc 77 79 3d 65 e5 2d 3d
       0.017025322 -0.3627488 0.060905203 0.042455096
000240 3f d4 75 be f9 0a af be fe e4 00 bf 51 bd 35 bf
       -0.24006747 -0.3418806 -0.50349414 -0.70992
000250 b3 29 c7 3d 2f 57 bb be 4d c4 e0 bd db b3 9c be
       0.0972475 -0.36589953 -0.109749414 -0.3060597
000260 7d 7b f2 3e 1a ae c7 bd 52 00 07 3f 82 a9 b8 be
       0.4735984 -0.09750004 0.52734864 -0.36066824
000270 4c 21 ea bd a6 77 10 bf fd aa f4 be dd 31 08 be
       -0.11432132 -0.5643257 -0.47786704 -0.13300271
000280 91 b6 16 3d 66 9b 63 3d 1d c8 13 3f 32 b7 3e bd
       0.036795203 0.05556812 0.57727224 -0.046561427
000290 b7 62 d9 be 0f 20 ff 3d 3f 99 bd be 06 0b 42 be
       -0.42458126 0.124572866 -0.3703098 -0.18949518
0002a0 ad 22 16 3e 41 4c 8f bc 66 de 6d be a9 50 cd 3e
       0.14661665 -0.017492415 -0.2322937 0.401006
0002b0 46 8c ba 3e c9 09 bd 3d ce db d2 3d 95 e8 5a be
       0.36435145 0.09230382 0.10295831 -0.21377786
0002c0 bc 1b 0b 3e 08 60 98 3e 58 06 05 3e 0a 59 62 be
       0.13584799 0.29760766 0.12990701 -0.22104278
0002d0 b4 ba e9 3e 19 cc 91 bd 99 41 14 be 1e f8 50 be
       0.45650256 -0.07119007 -0.14478149 -0.20407149
0002e0 f8 9b 44 3e 2a e4 03 3e d0 4a ea bd 74 e4 9b 3e
       0.19200122 0.12880006 -0.114400506 0.30447733
0002f0 97 c0 97 be 6f 1d 27 3e 6b e4 37 3e 52 e5 8d bd
       -0.29639122 0.16319822 0.17958228 -0.06928505
000300 7a 8d 99 bc 6f 27 13 3e 1b ab 94 be 29 1a b0 3e
       -0.01874422 0.14370511 -0.29036793 0.3439496
000310 96 14 17 bd a8 a9 6d 3d 09 43 38 be 7d 0d 21 3e
       -0.036884867 0.058023125 -0.17994322 0.15727802
000320 2b 78 91 be d1 05 10 3e c3 1e de 3e 72 66 64 3e
       -0.28411993 0.14064719 0.43382844 0.22304705
000330 61 a6 a6 3e b7 b0 a1 3d ef 5e 09 bf 0d 74 07 be
       0.32548812 0.07895034 -0.5366048 -0.13227864
000340 c6 be 17 be 78 a5 ea 3e fa 5d 14 3e f6 c8 c2 be
       -0.14818868 0.45829368 0.14488974 -0.38043946
000350 c8 0c a7 be 3e 90 97 be 6c f3 cb 3e 92 89 3d be
       -0.3262694 -0.29602236 0.39834154 -0.1850951
000360 1e 31 74 3e 49 6d 88 3e c9 48 8b 3e e2 08 a2 be
       0.23846862 0.26645878 0.27203968 -0.31647402
000370 b0 e8 d8 3e 41 54 b2 3e 49 34 e6 be 7c 04 36 be
       0.42365026 0.34829906 -0.44961765 -0.17775148
000380 f8 8d 17 3f 8e 50 4f 3d e9 18 ae 3e 67 aa 16 bf
       0.59201 0.050613932 0.3400338 -0.58853763
000390 fc cd d9 bb b7 eb e9 bd 91 fc 61 bd 8a f1 d3 3e
       -0.0066468697 -0.11421912 -0.055172507 0.41395217
0003a0 9d fc eb be 95 f9 4f 3e e7 4d 16 3d fd 83 05 3f
       -0.46091166 0.20310052 0.036695387 0.52154523
0003b0 23 b0 16 bf 92 0a 2c bc a3 7e 61 3e 4c 95 f0 3e
       -0.58862513 -0.010500567 0.22020964 0.46988904
0003c0 53 09 63 be cc dc 06 bf 01 f0 dc be 72 3e 05 bf
       -0.22171526 -0.5268066 -0.43151858 -0.5204841
0003d0 c9 58 4c be 95 5d cf be eb a3 12 bf 7f ef e0 be
       -0.19955744 -0.40501085 -0.5728137 -0.4393272
0003e0 f6 b9 c8 bd 3d 92 91 be bf c3 5f 3f 53 22 9e be
       -0.09801094 -0.28431883 0.8740806 -0.30885562
0003f0 65 7b 42 bd 30 2e 84 3d 74 97 af bc ba 93 ac bd
       -0.04748096 0.06454122 -0.021434523 -0.08426614

VAE.encoder_mu.layers.0.attention.W_q.weight f4 [4, 4]
000000 66 31 72 3d 71 a4 db 3d 50 44 03 be 4f 78 06 3f
       0.05912914 0.10724724 -0.12819028 0.52527326
000010 d1 97 d6 3e b0 44 c8 be 9c 35 13 be a3 ed 66 bd
       0.41912702 -0.39114904 -0.14375919 -0.05637897
000020 31 db 80 be 60 57 94 3e f2 5e 23 3c 4e 3b 1c 3d
       -0.2516723 0.28972912 0.009971367 0.038142495
000030 c5 f5 61 be a4 5e a0 be 9f 78 57 3e 36 f8 c1 3d
       -0.2206641 -0.31322205 0.21042107 0.094711706

VAE.encoder_mu.layers.0.attention.W_q.bias f4 [4]
000000 f1 d9 33 3b 77 80 6f bd cc e3 48 3d c3 93 9d bd
       0.0027443136 -0.058472123 0.04904537 -0.07694199

VAE.encoder_mu.layers.0.attention.W_k.weight f4 [4, 4]
000000 4f 05 8f be 48 64 07 bf de cf ae 3e 74 3a ee be
       -0.27933738 -0.5288739 0.34142965 -0.4652897
000010 15 eb 78 be bf 3e 03 be ae 50 cb be d1 05 0f bf
       -0.24308427 -0.12816904 -0.3970999 -0.5586825
000020 6c ee 00 bf 15 e7 84 3e d1 24 66 3c e8 28 07 3d
       -0.503638 0.25957552 0.014046864 0.032997996
000030 7f 69 dc 3d ae af 8f 3e bc 33 08 bf 3a c4 8f 3e
       0.10762309 0.2806372 -0.5320394 0.28079396

VAE.encoder_mu.layers.0.attention.W_k.bias f4 [4]
000000 60 1e 11 39 f1 16 98 37 f0 9c 21 b8 86 33 ae b8
       0.00013839593 1.8130495e-05 -3.853155e-05 -8.3065635e-05

VAE.encoder_mu.layers.0.attention.W_v.weight f4 [4, 4]
000000 8c f7 af bd 86 c0 ac 3d 60 5c fc b7 5f 07 62 3d
       -0.08592138 0.084351584 -3.0083756e-05 0.05518281
000010 1b 7f ad bd b3 d8 9e 3d c1 6c d1 bb bf 17 68 3d
       -0.08471509 0.07756176 -0.0063911383 0.05666327
000020 69 97 ab bd cc ea 8b 3d f9 55 0c ba e5 b6 6e 3d
       -0.083784886 0.06831893 -0.0005353387 0.05827989
000030 a2 90 a6 bd fc 40 a1 3d 2c fa fe bb 5f 5c 66 3d
       -0.08133055 0.07873723 -0.0077812877 0.056240436

VAE.encoder_mu.layers.0.attention.W_v.bias f4 [4]
000000 87 a7 61 bd fd a5 ab b9 8f 83 0f 3d e9 1f 79 3d
       -0.055091407 -0.00032739333 0.035037573 0.060821448

VAE.encoder_mu.layers.0.linear0.weight f4 [128, 4]
000000 46 fa d9 be 67 e3 c2 bd 7c 4b 36 3e b6 08 16 3d
       -0.42573756 -0.0951603 0.17802233 0.0366294
000010 ac 9e 7a 3e 55 79 94 be 10 9f 41 be 7a 21 41 3e
       0.24474591 -0.2899882 -0.18908334 0.18860427
000020 21 93 33 3e 08 9d 0a 3f d8 3c 17 bd 75 56 2f be
       0.17536594 0.5414586 -0.03692326 -0.17122824
000030 43 b6 98 be c9 00 f6 be b6 27 15 bd d2 50 db 3d
       -0.29826555 -0.48047474 -0.036414824 0.107087746
000040 7b 78 b0 3b ea b3 6a be 77 fb 94 3e e0 59 a1 bd
       0.005385456 -0.22920194 0.29098102 -0.078784704
000050 9b 6a 4d be 13 15 e6 3e 82 c7 96 bd 40 51 b8 3e
       -0.20060198 0.44937953 -0.07362272 0.3599949
000060 e4 c7 58 be 02 f5 3c be 6d 07 84 3e ee 5c 7e 3e
       -0.21170002 -0.18452838 0.25786915 0.24840137
000070 b3 79 f9 3c 29 f8 ea be 96 56 6d 3d 00 70 ef be
       0.030453539 -0.45892456 0.057943903 -0.46765137
000080 ef 5c 08 bf b9 cd 97 3e 4f 90 d9 be b7 9f 82 3e
       -0.53266805 0.2964914 -0.4249291 0.25512478
000090 6a 46 03 be 84 4e 04 3f 8d fd c7 bc b0 da 2e bd
       -0.1281983 0.51682305 -0.024412895 -0.042689025
0000a0 32 55 a4 bd 07 5b 6b be 3e 2f 0e 3f 8f 36 1a be
       -0.08024062 -0.22983943 0.55540836 -0.15059875
0000b0 2f 02 0e 3e 88 b7 0e be b7 b2 ba be 87 c7 ea be
       0.1386802 -0.13937199 -0.36464474 -0.45855352
0000c0 96 8c 1d be 1c 8f 47 3e 39 72 d2 3e 4f a2 12 be
       -0.1538566 0.19488186 0.4110277 -0.14319728
0000d0 68 c1 ab bd 00 45 11 bd 40 d0 fc 3c 20 cd ea 3c
       -0.08386499 -0.035466194 0.03086102 0.028662264
0000e0 44 d6 e7 bd d6 b9 b5 3d 6b 14 01 3f ef 18 3f 3d
       -0.11320165 0.08873336 0.5042178 0.046654638
0000f0 da 18 d1 3e 6c d6 34 3c fe 59 98 3d a2 43 91 3e
       0.40839273 0.01103745 0.0743904 0.28371912
000100 02 9b 84 be 22 f8 d5 3d 2c ff c6 3c 7f ad d5 be
       -0.25899512 0.10447718 0.024291597 -0.4173393
000110 74 e6 c6 be 93 5c 1a 3e 17 60 f7 3e 86 0f 1e bf
       -0.38847697 0.15074377 0.48315498 -0.61742437
000120 c0 d4 ef be 1c 24 99 3e 0a 7d 89 be 52 f8 d1 3a
       -0.46842003 0.29910362 -0.2685321 0.001601944
000130 ab 87 4c 3e a0 ba e9 bd 30 db 30 bd 71 c6 93 3e
       0.19973628 -0.11412549 -0.043177783 0.28862336
000140 ee 00 cf 3d d9 4e 66 3e a7 0e 91 3d 17 63 be 3e
       0.10107599 0.22491015 0.07082873 0.37184975
000150 8b 42 2c be 24 50 a3 3e 2f ba 2b 3e 83 b2 e7 3e
       -0.16822259 0.3189708 0.16770242 0.4525338
000160 d7 bc ed be 78 bd 2c bd 7b 49 04 bf bd 73 2a 3e
       -0.46433136 -0.04217288 -0.5167462 0.16645713
000170 27 51 13 3d 1e 3f 93 3d f2 b8 b3 3e e5 5b ec 3e
       0.035966065 0.07189773 0.3510204 0.4616386
000180 4e 7d fd bc d6 df 63 be 52 52 f1 be 91 a4 ef 3d
       -0.030943539 -0.22253355 -0.47133118 0.117013104
000190 9e 0c e5 be 41 4a 29 be 65 98 0b bf 9d 71 91 3e
       -0.4473619 -0.16532232 -0.5452941 0.28406993
0001a0 8c bd eb bb 03 bb d9 be 10 58 6f be b5 09 63 3d
       -0.0071942266 -0.4252549 -0.23373437 0.05542918
0001b0 e8 a7 ef 3e 95 84 a8 bd e9 56 cd 3e 42 f8 98 3e
       0.4680779 -0.08228413 0.4010537 0.29876906
0001c0 14 b1 c3 bd 6a b4 d0 bd 07 24 18 bf 91 e8 f9 3d
       -0.09555259 -0.10190661 -0.59429973 0.12202562
0001d0 00 eb bd 3e be ef fa bd a9 05 e7 be 6c 75 91 be
       0.37093353 -0.122527584 -0.45121506 -0.28409898
0001e0 7e 07 8c 3e 11 48 5e be 52 94 9e 3e e2 16 f1 3d
       0.27349466 -0.21707179 0.30972534 0.11771943
0001f0 2d b4 95 3e 2a 00 1e 3f cc a5 c1 3d c7 10 98 be
       0.29239026 0.61719 0.09455451 -0.297003
000200 81 e2 fa bd 50 db e0 3e c7 fe b8 3e 5e c2 bc bd
       -0.122502334 0.43917322 0.3613188 -0.0921676
000210 64 4d 6e be b3 be cd 3e ce 4a 82 3e 1d df 03 3f
       -0.2327171 0.40184554 0.25447696 0.5151232
000220 e9 9e 0c bf 79 de 1b 3e a6 44 37 3c 5a ee dc be
       -0.5492998 0.15221585 0.011185801 -0.43150598
000230 fd e1 d2 3e 43 64 e0 3e 42 40 ea 3c f8 b6 2e be
       0.4118804 0.43826494 0.028595094 -0.17061985
000240 20 c8 b1 3e 75 8b 79 be 11 99 e2 be 29 85 8a 3e
       0.34722996 -0.24369605 -0.44257405 0.27054718
000250 b7 f9 4d 3d 64 b9 49 3e f5 35 a5 3e e2 d8 b7 bd
       0.050286975 0.19699627 0.32267728 -0.08976914
000260 94 01 01 3e 53 f6 95 3e 0f 8a d7 bc f3 48 8c 3e
       0.12598258 0.29289493 -0.026310949 0.27399406
000270 74 e0 5e 3e ed a2 af 3e 00 09 36 be 5c 86 83 be
       0.2176531 0.3430399 -0.1777687 -0.25688446
000280 dd ed 4e be 80 0c 04 bf db c2 d6 be bb 6b 72 3e
       -0.20207925 -0.51581573 -0.41945538 0.23673908
000290 21 45 44 3e da 73 0a bf c2 16 a1 be e9 7d 6d be
       0.19166996 -0.54083025 -0.31462675 -0.23192562
0002a0 7d 9b 00 3f de 2a a8 be d9 56 f7 3c 11 3c fe 3e
       0.50237256 -0.32845205 0.03019278 0.49655202
0002b0 f1 4f cf be 1c 44 58 3c 99 66 55 be d1 e6 6c 3e
       -0.40490678 0.013199832 -0.20839919 0.23134924
0002c0 e2 a5 a7 be 05 6f 34 3d 48 85 ce be d0 d0 34 3e
       -0.32743746 0.04405119 -0.4033606 0.1765778
0002d0 ac cf 99 3e 12 7f bc 3e 06 1b 19 be 46 da 08 3f
       0.30041254 0.36815697 -0.14951715 0.5345806
0002e0 5d bd 13 be a4 f4 9d bd ab 6c 49 3e c2 03 ac 3e
       -0.14427705 -0.07712677 0.1967036 0.33596617
0002f0 89 d3 87 3e a8 ec b1 be da ae b9 3e 79 82 61 3e
       0.26528576 -0.34750867 0.36266214 0.22022428
000300 42 09 92 bd af bc 52 3e 3f 20 7f 3e 87 49 28 bf
       -0.07130672 0.2057979 0.24914645 -0.65737194
000310 6a 06 6f 3e ba c4 c6 3d dd d5 8a 3d f3 64 cf be
       0.2334229 0.09705491 0.067790724 -0.40506706
000320 a6 5f a5 be c3 1f 31 bd 31 6a ba 3e 51 42 ee 3e
       -0.32299536 -0.04324318 0.36409143 0.4653497
000330 b2 ea 85 3e a7 b9 8a 3d a2 24 cd 3a ae 54 83 3e
       0.2615562 0.067736916 0.0015651176 0.25650543
000340 c6 55 6b 3e da c1 b7 3e d6 06 d8 3e 2e e1 b8 be
       0.22981939 0.35890085 0.42192715 -0.36109298
000350 a6 bb 35 3d 20 3b 4a 3c ce fa 45 3e 9d 81 fb 3e
       0.04436841 0.012343198 0.19333956 0.49122325
000360 b1 20 cc be 8d 7b 06 3f d8 e3 b1 3e b8 b2 08 3d
       -0.39868692 0.52532274 0.34744143 0.033373564
000370 2b 14 6a be 43 1d 57 3e 58 02 48 3e a6 06 e9 3e
       -0.22859256 0.21007256 0.19532144 0.45512885
000380 84 e2 6f 3e 1c 5c 09 3f be 9e aa bd 58 7b 3b be
       0.23426253 0.5365617 -0.08331059 -0.1830877
000390 2f 6b e0 3e 63 40 ce be a7 18 aa 3d f1 2e dc be
       0.43831775 -0.40283498 0.08305483 -0.43004563
0003a0 01 e1 a2 be 87 04 ab 3e 84 a5 ed be 2a 2e 6f be
       -0.3181229 0.33401892 -0.4641534 -0.23357454
0003b0 ab f7 2a be b8 a9 ed 3e bb da 91 be 77 e2 c4 3e
       -0.1669604 0.46418548 -0.2848719 0.3845403
0003c0 09 d9 b0 3e 7c 90 99 be 1a ee b8 bd 6d 16 37 be
       0.34540585 -0.29993045 -0.09029789 -0.17879649
0003d0 5a 0b e8 3e 50 ca 62 3e a6 ff 50 3e e9 88 ed 3e
       0.4532116 0.22147489 0.20410022 0.46393517
0003e0 47 fe 07 be 72 a3 04 be 02 43 19 bf b7 d1 38 be
       -0.13280593 -0.12952974 -0.5986787 -0.1804875
0003f0 1e f1 11 3f 31 f2 71 bd 1b c6 fa bc 39 6a bd 3d
       0.5700854 -0.059068862 -0.030612042 0.09248776

VAE.encoder_mu.layers.0.linear0.bias f4 [128]
000000 6d b3 65 3e d0 85 f0 3e 75 8f 66 3d c1 b8 1e be
       0.22431727 0.4697709 0.056289155 -0.15500166
000010 17 4a a4 3e be 3d 0d 3e 80 db cb 3e 2a d5 17 3e
       0.32087776 0.13793084 0.39815903 0.1482741
000020 8d b0 25 3e b8 71 01 bf bc 68 e7 3d 07 d1 0c bf
       0.1618063 -0.50564146 0.11299273 -0.5500645
000030 ef 26 db bb 2a b8 e3 be ce be 08 bd c6 41 d6 3e
       -0.006687991 -0.44476444 -0.03338509 0.41847056
000040 72 d8 7e be 8d e2 76 be 7d 35 9a 3e e1 80 b4 be
       -0.24887255 -0.2410986 0.30118933 -0.35254577
000050 ed d2 f5 3e df 81 02 be 96 28 8a be 64 1c 91 be
       0.48012486 -0.12744854 -0.2698409 -0.28341973
000060 f0 a8 24 be 48 e1 f6 3d d2 b1 b8 be c5 b4 f0 be
       -0.1608007 0.12054688 -0.36073166 -0.47012916
000070 f8 71 16 3e 3e 9d e3 be f6 a8 b5 3e b0 9b 71 be
       0.14691913 -0.44455904 0.3548047 -0.23594546
000080 2e df ff bb 1e 7c 80 3e 5a b3 81 3e b2 a2 1e be
       -0.0078085875 0.25094694 0.25332147 -0.15491751
000090 c7 14 67 be e6 e2 9c 3d e9 dc 08 bf a0 2d 9c 3e
       -0.2256652 0.07660465 -0.5346208 0.3050356
0000a0 14 a1 66 3d 65 e7 a5 3e 09 c1 7f 3e 2f ae 48 bd
       0.05630596 0.32403103 0.24975981 -0.04899424
0000b0 19 1e 43 be 61 94 0c be 1c a3 00 3e 24 d7 5a be
       -0.1905445 -0.13728477 0.12562221 -0.21371132
0000c0 34 6e b0 3e a6 67 f1 3e 6c 8b bf 3c 6e a2 c2 be
       0.34459078 0.4714939 0.023381911 -0.3801455
0000d0 f6 e8 ba bd 7a e7 a1 3e 43 08 b3 3e db 5c 2f 3e
       -0.09126465 0.31621915 0.3496724 0.17125265
0000e0 43 ff 6f 3e 39 45 11 bd b1 d2 28 3d ec 3e 25 be
       0.23437218 -0.035466406 0.041216556 -0.16137284
0000f0 f9 57 7e be 8f bb 3a be 3a 67 90 be 66 a9 a1 be
       -0.24838246 -0.1823561 -0.28203756 -0.31574553
000100 69 ea bb bd 64 a5 e4 3e 1d ef 92 be 47 1c 95 3e
       -0.091755696 0.44657433 -0.28698054 0.29123136
000110 f7 64 db be d7 bb 3a 3e 49 18 e6 be 29 46 00 3f
       -0.42850468 0.18235718 -0.44940403 0.50107056
000120 4a 92 d1 be f6 cd 8b 3e 51 3b 66 be a0 ab a5 3d
       -0.40931922 0.27305573 -0.22483565 0.080893755
000130 06 bb da be 6d c5 67 bd 8b df 84 3e 14 9b df be
       -0.42720813 -0.056584764 0.259518 -0.43673003
000140 2f 74 83 3e 62 63 f5 3e 82 19 8d 3e f4 4f 3b 3d
       0.2567458 0.47927386 0.27558523 0.045730546
000150 03 10 a8 3e 90 d6 c7 be 48 ab 73 3e 6f 49 e8 3e
       0.32824716 -0.39030886 0.23795807 0.45368525
000160 b6 48 0b 3d cb 84 4b be e5 ae ba 3d 2b cd 94 bc
       0.03400489 -0.19874875 0.0911539 -0.018164238
000170 62 18 d4 be 3e 7a 94 3e aa 0e af be 63 0f f6 be
       -0.41424853 0.28999513 -0.34190875 -0.48058614
000180 c7 8f 4f 3e 84 44 f5 be 0e 88 1a be a5 8b 3a 3e
       0.2026969 -0.47903836 -0.15090963 0.18217333
000190 c2 f5 dd be 9b 76 c6 3d 23 c2 c7 3c 86 c2 8e be
       -0.4335156 0.09690591 0.024384564 -0.27882785
0001a0 eb a4 39 be 88 0d 57 be 0b 0e ba be d6 14 95 be
       -0.18129317 -0.21001256 -0.3633884 -0.2911746
0001b0 4e a5 ef 3e 53 26 59 3e 08 52 45 be c8 42 e0 3d
       0.46805805 0.21206026 -0.19269574 0.109502375
0001c0 75 2e ee be 16 bb f3 be dc 4f bf be a8 f7 bf be
       -0.4651982 -0.47603673 -0.37365615 -0.37493634
0001d0 0b e8 81 be 8b db 6d be 15 cb 2a be bb da ab 3e
       -0.25372347 -0.2322828 -0.16679032 0.33565316
0001e0 f9 a9 1a 3e 0a 7f 97 be 34 41 b8 3e ba c0 26 3e
       0.15103902 -0.2958911 0.35987246 0.16284457
0001f0 8d e4 a5 be 83 a3 10 bf 4e e0 fe 3e f2 0f a6 bc
       -0.32400933 -0.564995 0.49780506 -0.020271275

VAE.encoder_mu.layers.0.linear1.weight f4 [4, 128]
000000 60 1a 5d bb 13 0f 51 bc c3 e8 75 bd 74 5b 3e bb
       -0.0033737645 -0.012759942 -0.060036432 -0.002904621
000010 42 a4 c7 3c b7 40 1a 3e 4b 23 c8 bc d8 2b 09 3e
       0.024370316 0.15063749 -0.024430891 0.13395631
000020 63 9b 1e 3e f3 78 48 be 07 f5 6b 3d a6 07 c1 be
       0.15488963 -0.19577388 0.057606723 -0.37701148
000030 9e 4e 09 bb 85 92 75 bc 33 05 f7 bd be ca 21 3d
       -0.00209514 -0.014988546 -0.120615385 0.03949999
000040 a4 38 d1 3d 25 a1 91 3c 1d a5 b9 3c 7c 5e 54 be
       0.102158815 0.017777035 0.02266174 -0.20739168
000050 d9 90 7c bc bf d1 d4 3d 10 8c d3 3d 92 ce 1a 3e
       -0.015415394 0.103915684 0.10329449 0.15117863
000060 13 04 f2 bb 9a 80 8b bd df 63 21 be c7 7b 63 3d
       -0.0073857396 -0.06811638 -0.15760754 0.055537965
000070 af a1 06 bd f9 88 9c bc d3 32 a2 bd 28 d6 3c bd
       -0.032869037 -0.019108282 -0.0791985 -0.046102673
000080 3b 80 2d be cc 7a 71 3d 40 8f 39 be b4 39 da bd
       -0.16943447 0.058955 -0.18121052 -0.10655537
000090 f3 3b af bd 35 d6 b2 bc 01 73 a2 be 74 da 3f 3d
       -0.08556356 -0.021830657 -0.31728366 0.046839193
0000a0 9c 44 ca 3c df ec 86 bd e2 5d e6 bd 19 d5 1e bd
       0.024690919 -0.06588148 -0.112483755 -0.038777445
0000b0 1a fe b1 3d 4e cb d1 3c f8 56 6d bd 1f 4e 8d 3d
       0.08691044 0.025609639 -0.057944268 0.06899666
0000c0 39 ff 8b bd ad 6a 0a 3d 53 ad 0f bc be 27 11 be
       -0.06835789 0.03379314 -0.008769351 -0.14175317
0000d0 46 67 96 3c 1a 8c e1 bd fd 4d 75 bd 37 10 af 3d
       0.018359791 -0.110130504 -0.05988883 0.085480146
0000e0 3a 8f 16 bd e2 aa 49 3c 3b 2e b3 3d 24 7c 1c 3d
       -0.036757685 0.012308808 0.08749052 0.038204327
0000f0 b3 78 d0 3d 39 70 18 be a7 d2 23 3e 00 59 75 3e
       0.101792715 -0.1488656 0.15998326 0.23959732
000100 02 22 22 3d dd 36 2f 3d 0c a4 f7 3d c0 04 09 3d
       0.039583214 0.04277693 0.12091836 0.033451796
000110 a4 76 37 3e 78 51 22 3c db c6 47 3e dc f4 a6 bd
       0.17916352 0.009907119 0.19509451 -0.08152172
000120 a0 69 1c 3e db dc 0e 3e c2 2e c4 bd 58 a3 14 be
       0.15274668 0.13951437 -0.09579231 -0.14515436
000130 7c 21 51 bd e3 20 fe 3d 72 31 d8 3d c4 c6 18 3e
       -0.051057324 0.124086164 0.10556306 0.14919573
000140 c4 81 08 3c 3e 6f 07 3e 3b ba c2 bc 70 58 9b 3d
       0.00833172 0.1322603 -0.023770442 0.075852275
000150 6f 57 7a 3d 4f bb 5c 3c a6 53 9d bd d2 93 8e bd
       0.06111854 0.013472392 -0.0768197 -0.06961788
000160 33 42 da 3d 00 83 9e 3c 49 23 66 bd 0f ef 9a 3d
       0.10657158 0.019349575 -0.056185994 0.07565128
000170 fe 54 64 3d 5a 02 13 bd e9 5d 0a 3e a4 6b 5a 3e
       0.055745117 -0.035890914 0.13512386 0.21330124
000180 7d c8 7f bb 94 86 97 bc 2d 32 3e 3e 5e 05 61 bd
       -0.0039029412 -0.018496789 0.18573828 -0.05493676
000190 85 7d 1a be a8 26 94 3c 40 0a f7 bd 88 55 0c 3c
       -0.15086944 0.018084839 -0.12062502 0.008565314
0001a0 0b fc 26 bd 14 b8 d9 3d 18 76 b6 bb e7 d4 62 3d
       -0.04076771 0.10630813 -0.005568277 0.05537882
0001b0 5c d1 bb bd 19 e4 a2 3d 97 98 65 3d a5 b6 6c 3d
       -0.091707915 0.079536624 0.056053724 0.05779137
0001c0 20 15 45 bd 96 ff 8d 3c dd f0 2a be 16 62 1e bd
       -0.04811585 0.017333787 -0.16693445 -0.03866776
0001d0 2d c2 4d 3e b0 c4 91 3d 9e a8 60 bd 50 98 3e bd
       0.20093603 0.07117593 -0.054848306 -0.046531975
0001e0 d3 e2 ba 3d 24 7d 73 be f4 a6 88 bd 1d 2d ab bd
       0.091252945 -0.23778206 -0.06672469 -0.08358214
0001f0 c5 f6 59 3d 21 b2 f9 bc 02 2c 7b bd 12 b1 89 3d
       0.053213853 -0.030480446 -0.061321266 0.067232266
000200 93 45 cf 3c 60 bc d4 bd 64 f6 7c 3d 78 9e 30 3d
       0.02530173 -0.10387492 0.061758414 0.043119878
000210 42 36 6b 3c b9 3b 76 bd c1 a6 8f 3d ab e9 50 bd
       0.014356198 -0.06011555 0.07014228 -0.051004093
000220 63 eb d0 bd 9d f5 15 be c7 87 bb bd e0 c5 a4 3e
       -0.102011465 -0.14644475 -0.09156757 0.32182217
000230 2d a4 ef 3c 08 46 30 3d 46 e0 80 3d 5a c3 fb 3c
       0.02925309 0.043035537 0.06292777 0.0307328
000240 8c e8 18 3e 2e 37 01 3e e9 41 d0 bd 31 74 f7 3d
       0.1493246 0.12618706 -0.10168821 0.120827086
000250 e8 d3 87 bd 87 e8 59 3a 83 55 85 bd ad 5e 3c 3c
       -0.06632215 0.00083125423 -0.06510451 0.011497182
000260 44 80 02 bd e4 cd a4 bd 7f bb 1c 3e 97 01 37 be
       -0.031860605 -0.08047083 0.15305899 -0.178717
000270 67 dd 30 bd 40 00 da bd bf 2b 4d bd 36 ec 32 3e
       -0.043179896 -0.10644579 -0.050090548 0.1747292
000280 99 3d 95 3c 6b fb 8a bc e0 6b f0 3c 29 bb f8 3d
       0.018217849 -0.016965589 0.029348314 0.12145073
000290 a9 06 c9 3d 10 fb 06 3e c9 b6 a7 be 18 11 02 3d
       0.098157234 0.1318171 -0.32756642 0.031754583
0002a0 f5 8c 0c 3d db 69 93 bd 12 87 ff bd a0 99 97 3d
       0.034314115 -0.07197925 -0.124769345 0.074023485
0002b0 0e 91 e5 bb d6 50 89 bc 17 65 1a 3d 36 2e d9 3c
       -0.0070058173 -0.016762178 0.037694063 0.026511293
0002c0 4c 4d 6f 3d da e9 01 3c 7a b1 b3 3d 0a bd 22 3e
       0.058423325 0.00792929 0.08774085 0.15892425
0002d0 8b 2d fd 3d 0c 19 71 3d 08 2a de 3b 74 86 c0 3d
       0.12362202 0.058861777 0.006779913 0.09400645
0002e0 69 74 e6 bc 9e 42 b0 bd df c2 97 3b 3c 27 06 bd
       -0.02813168 -0.08606456 0.0046313847 -0.03275226
0002f0 04 8a cb bc e1 5b 1c 3d ed 65 f1 bb 38 8d 42 bc
       -0.024846084 0.03817356 -0.007366887 -0.0118744895
000300 4d 61 2e 3e 72 2f 08 3d fd cc 25 be 59 40 d3 ba
       0.17029305 0.033248372 -0.16191478 -0.00161172
000310 0a dc 02 be 79 d2 e0 b7 60 b7 82 3d 2e 55 28 3d
       -0.1277925 -2.680089e-05 0.06382632 0.04109686
000320 2c 08 ec 3d 01 16 1e 3d 5e cd 2e 3e 7e 8d e5 3b
       0.11524996 0.038595203 0.17070529 0.0070053926
000330 4c 13 27 3c 88 b6 30 be 62 a1 61 3d 0e 09 8c bd
       0.010197472 -0.1725713 0.055085547 -0.068376645
000340 4f e2 08 be d1 1b c0 bd 23 9c c0 3d 99 e2 46 bd
       -0.1336758 -0.093803056 0.09404781 -0.048555944
000350 ce 21 8b 3c 8f 8c 47 be c2 50 84 bd c5 3a 38 3d
       0.016983893 -0.19487213 -0.06460716 0.044977922
000360 93 28 b7 3c e6 e3 13 be 83 c9 3d bd 68 f1 08 be
       0.022358214 -0.14442405 -0.046334755 -0.13373339
000370 12 64 62 bd 12 e1 1e 3e d4 f4 2b bc f4 0b 77 ba
       -0.055271216 0.15515545 -0.010495383 -0.00094240834
000380 95 1b 86 3c 2f 8a e9 bd b5 a9 5e bd b2 63 12 3d
       0.016370574 -0.114033096 -0.054361064 0.035739608
000390 cb a5 07 3e a4 36 08 be 4a 54 a2 3b 5f dd 86 bc
       0.13246839 -0.13302094 0.0049538957 -0.01646298
0003a0 86 c9 59 3e 31 50 0a be a0 a6 7b bd 7d 0a 96 bd
       0.21268281 -0.13507153 -0.061438203 -0.07326219
0003b0 28 27 7e bd c5 2c 3c 3d 9f cf 8c bd 26 a6 ce bb
       -0.06204906 0.045941133 -0.06875538 -0.0063064275
0003c0 a2 ca aa bd 60 11 75 bd b0 0a 50 3d 53 d5 20 bc
       -0.083394304 -0.059831023 0.050791442 -0.009816485
0003d0 c6 4a b2 bd 76 89 0e 3e 48 42 2b b9 59 d9 b0 bd
       -0.08705668 0.13919625 -0.00016332523 -0.08635206
0003e0 b2 46 b1 bd a6 1c 90 bd cf f4 c2 3c 80 e8 96 3d
       -0.08656062 -0.07036714 0.023798374 0.073685646
0003f0 fb 6d 33 3e 36 14 5e bd 95 15 4d bd 13 d4 63 3e
       0.17522423 -0.054218493 -0.05006941 0.22248869

VAE.encoder_mu.layers.0.linear1.bias f4 [4]
000000 33 aa 07 3d ce 2f 9d bc 7e f3 e1 b9 a4 ad ef 3c
       0.0331213 -0.019187834 -0.0004309676 0.029257603

VAE.encoder_mu.layers.0.norm1.weight f4 [4]
000000 02 c7 89 3f ce a9 8b 3f 4d 4a 8e 3f 5f 6e 9b 3f
       1.0763857 1.0911195 1.1116425 1.2143058

VAE.encoder_mu.layers.0.norm1.bias f4 [4]
000000 36 36 44 bd 90 82 a4 3d 61 d8 db 3c 19 66 d8 bd
       -0.047903262 0.08032715 0.026836576 -0.105663486

VAE.encoder_mu.layers.1.attention.W_q.weight f4 [4, 4]
000000 cf fe 63 be 0c 03 46 3d ea 88 03 3f 9f c4 e9 be
       -0.2226517 0.04834275 0.5138079 -0.45657822
000010 f1 81 e6 be d2 35 b1 3d 09 45 2b 3c cf 1b dd 3d
       -0.45021012 0.086528435 0.010453471 0.1079632
000020 47 65 da 3b 97 a5 de 3e 06 74 d8 3e 11 2e 42 3e
       0.006664905 0.4348571 0.4227602 0.18962885
000030 33 90 de be cf a8 8b be 2f f7 94 bd ae 46 ec 3e
       -0.4346939 -0.27277228 -0.07273709 0.46147674

VAE.encoder_mu.layers.1.attention.W_q.bias f4 [4]
000000 f9 b2 25 3e 02 37 f7 3d e1 5e bb 3b 95 f9 02 be
       0.16181554 0.12071039 0.0057180976 -0.1279052

VAE.encoder_mu.layers.1.attention.W_k.weight f4 [4, 4]
000000 c2 0d 13 3f 03 ee a0 be 16 0b 7e 3d 99 f1 60 be
       0.5744287 -0.3143159 0.06202229 -0.21967162
000010 56 50 aa 3e 71 26 ce be 61 5d 08 bf 1b 5f ce be
       0.33264416 -0.40263703 -0.53267485 -0.40306935
000020 ee 22 bc 3c 4d 21 a5 3e b2 0f 00 bf 5c 64 18 3e
       0.022965875 0.3225197 -0.5002395 0.14882034
000030 5c c0 01 bf f7 18 96 bc 3c b4 f0 3d 8f 85 31 3d
       -0.5068414 -0.018322451 0.11753127 0.043340262

VAE.encoder_mu.layers.1.attention.W_k.bias f4 [4]
000000 e5 ea 16 3a 42 11 15 39 e0 93 6d 38 70 45 03 39
       0.0005757048 0.00014216176 5.6642923e-05 0.00012519001

VAE.encoder_mu.layers.1.attention.W_v.weight f4 [4, 4]
000000 ef 23 75 3e fc 05 9c 3e b3 ae 8d 3e 52 dc 2c 3e
       0.23939489 0.30473316 0.27672347 0.1688092
000010 11 e1 49 3e 51 77 34 be 4e 83 92 bd bb 0f 5d be
       0.19714762 -0.1762364 -0.07153951 -0.21588032
000020 b6 4e 36 3a 8c 81 ab 3e 9f d2 79 3e 4b ce 0d 3e
       0.0006954478 0.33497274 0.24396752 0.13848226
000030 fd 4a f5 3d 2f 7b 42 bd 2e 13 17 3c 90 53 18 be
       0.119771935 -0.04748076 0.009220881 -0.14875627

VAE.encoder_mu.layers.1.attention.W_v.bias f4 [4]
000000 dd 0f 40 3c 6e 3e 97 bc df 19 03 be bc 9e d7 3d
       0.011722532 -0.018462386 -0.12802838 0.10528323

VAE.encoder_mu.layers.1.linear0.weight f4 [128, 4]
000000 87 41 50 be 49 01 8b be 9c 5d e8 3e 9a 22 6d be
       -0.20337497 -0.27149418 0.45383918 -0.2315773
000010 b3 7e eb 3d f5 aa ea 3e 8c 3b 78 be 3c a7 b0 3e
       0.11498775 0.45833555 -0.24241465 0.3450259
000020 6e d5 e2 bd 26 d2 b9 3e 4a fb 29 be 04 43 cb be
       -0.11075865 0.36293143 -0.16599765 -0.39699566
000030 25 e0 8b be 6e 5e 8d be cc 3f 93 bd 0b a3 85 be
       -0.27319446 -0.27611107 -0.07189903 -0.26100954
000040 c0 75 bd be f6 13 a4 3e 5a ab f2 3e 34 4e c7 be
       -0.370039 0.3204648 0.47396356 -0.38926852
000050 d5 a9 a9 3d 1b 68 66 be 5e fc 28 bf 12 e0 94 3e
       0.08284346 -0.2250065 -0.6601008 0.29077202
000060 f2 a4 02 3f 3d 56 e0 3e 1f ea a8 3d 35 62 23 3e
       0.51032937 0.43815795 0.0824778 0.15955432
000070 59 e2 af 3c 73 1a 95 3d 9c 48 35 3e 06 1d ac bd
       0.021470236 0.072804354 0.1770348 -0.08403973
000080 9d 35 1d 3e c5 bb 43 3d f2 f6 00 3f a9 d5 e4 3e
       0.15352483 0.047786493 0.5037681 0.4469426
000090 5a 5d 4c be 63 46 f3 be 13 3b 82 be c1 f0 04 3f
       -0.19957486 -0.47514638 -0.25435695 0.5192986
0000a0 11 0b 10 bf af 96 44 be d7 82 72 bc 31 89 e6 be
       -0.56266886 -0.19198106 -0.014801702 -0.45026544
0000b0 66 61 92 3d 51 a2 91 3e 41 58 7b 3e af 8b 7c 3e
       0.071474835 0.2844415 0.24545385 0.2466266
0000c0 cd 99 c5 bc f5 6f 9a 3d a6 42 fc 3e 7c c2 b6 be
       -0.02412119 0.07540885 0.492696 -0.35695255
0000d0 be 72 ff be b9 29 d0 be c9 a6 c4 bc 09 8b c5 3e
       -0.4989223 -0.40656832 -0.02400531 0.38582638
0000e0 47 ab 1f 3f fa af 9a 3e 09 ed df be 30 a0 9a 3e
       0.62370723 0.30212384 -0.4373553 0.30200338
0000f0 2e 3b f4 be 38 94 bd be 53 a3 b2 be 46 c6 8b be
       -0.477014 -0.37027144 -0.34890231 -0.27299708
000100 b3 3e 94 bd 28 7f 55 3e 67 aa b7 3e 42 36 88 3e
       -0.072385214 0.20849288 0.35872194 0.26603895
000110 b5 1c eb 3e 39 48 07 bf 19 b8 11 3e 18 ca 00 3e
       0.4592034 -0.5284458 0.14230384 0.12577093
000120 88 b4 db be 4c 9f bf be f2 ab b3 3e 24 6b df be
       -0.42911172 -0.3742622 0.3509212 -0.4363643
000130 cd fe 86 be e5 19 90 be 94 01 ff be 5c 73 5c be
       -0.26366273 -0.28144756 -0.49805892 -0.21528381
000140 f8 69 70 be 15 5c 72 be 85 d6 d8 3d 1e f8 a6 bc
       -0.23477924 -0.23667939 0.10587791 -0.020381983
000150 9e e4 7d be 64 08 0e 3e f1 41 a9 3d 3b a4 03 be
       -0.24794242 0.13870388 0.082645305 -0.12855618
000160 7b 24 3f 3e cb c9 4f 3e c9 11 b4 3e 8d 9e ed bd
       0.1866626 0.20291822 0.3516982 -0.11602507
000170 bd 44 f9 3e 74 4a 00 bf 4e 70 bb 3e 3b d4 d6 3e
       0.48685256 -0.50113606 0.3660912 0.41958794
000180 ad a9 0c bf ac 9e 7d bd 22 9c 0b bc a9 f6 df 3e
       -0.54946405 -0.0619189 -0.008521112 0.43742874
000190 cf 3c fe bc 33 65 fa be 57 cd 2a bf de 88 0e 3f
       -0.031034855 -0.48905334 -0.66719574 0.5567759
0001a0 7f f2 85 be 02 aa 7b be c2 2a 8a 3c 21 f7 58 bc
       -0.26161572 -0.24576572 0.016866092 -0.013242514
0001b0 4b 7a df 3e 30 60 52 3d c9 20 e9 be 26 e6 8f be
       0.4364799 0.051361263 -0.45532826 -0.28105277
0001c0 54 86 e5 bc 92 88 da 3e d4 a3 94 3e 91 8a b6 be
       -0.028018154 0.4268232 0.2903124 -0.35652593
0001d0 95 2d a5 3e 8e 59 0c 3e 49 31 0f 3f bb 84 88 3e
       0.3226134 0.13706037 0.5593458 0.26663765
0001e0 20 0c 18 bf 56 5f eb 3e e1 59 93 3e 9f fd 10 be
       -0.593935 0.45971173 0.2877951 -0.14159249
0001f0 d5 92 ef ba 37 8b 2e 3d ac 0d 08 3f 06 7e 03 bf
       -0.0018278012 0.042613234 0.5314586 -0.5136417
000200 cb 50 b7 3e c7 56 09 3e d9 c3 d3 be 6b 6a 00 bf
       0.35803828 0.13412009 -0.41360357 -0.5016238
000210 0a e5 d6 3c bd 2e 11 bc e5 55 b1 3e 74 60 c3 3e
       0.026232261 -0.008861241 0.34635845 0.38159525
000220 8b 1b 65 be 65 59 80 3e 54 d0 b0 3e fd 4d c9 3d
       -0.22373788 0.25068203 0.34533942 0.09829328
000230 f1 66 20 be af 53 bf be 3e 72 a4 be 53 b5 8a 3e
       -0.15664269 -0.37368533 -0.3211841 0.27091464
000240 b4 bc 7b be 54 ca 7f 3e b8 85 93 3e f0 5b e1 3c
       -0.24583703 0.24979526 0.28812957 0.02750966
000250 14 15 97 3d 62 e2 ac bd d5 1b 1b 3d cf 37 c6 3e
       0.07377067 -0.084416166 0.03786834 0.38714454
000260 3a 4b 69 be d7 25 b5 3e 04 36 de 3e 04 ee 04 3f
       -0.22782603 0.35380432 0.43400586 0.51925683
000270 ec bd 0f 3b c5 69 9b be 6a 22 1c bf 91 01 a7 3e
       0.002193327 -0.30354133 -0.6099001 0.32618383
000280 13 a9 b6 3e 5f 48 e5 bd b5 d5 2a 3e d5 70 d7 3e
       0.35675868 -0.11195444 0.16683085 0.42078272
000290 1e db b6 3e 89 7d d8 be f0 7f d3 be 1d ef fd bd
       0.35714048 -0.42283276 -0.41308546 -0.12399123
0002a0 a5 24 db 3e 31 2b 93 be 20 9b 20 bf ae f1 af 3e
       0.42801395 -0.2874389 -0.627367 0.34364074
0002b0 54 e6 de bc 53 03 2f 3e f0 78 b5 3c d3 3c b8 be
       -0.027209438 0.17091112 0.022152394 -0.35983905
0002c0 25 12 69 be eb cd 50 be db c2 89 3c 69 14 9b be
       -0.22760828 -0.20391051 0.016816547 -0.3028901
0002d0 14 69 e8 bd 28 af 80 3e b5 a3 bf 3e c3 b6 82 3e
       -0.11348167 0.25133634 0.37429586 0.2553006
0002e0 6a 0c b0 be af d8 00 be 00 7e 94 3e fb f5 1b be
       -0.3438447 -0.12582658 0.2900238 -0.15230553
0002f0 1c 27 27 be 80 c1 07 bf 50 3d 01 bf 2a 1b 66 be
       -0.16323513 -0.5302963 -0.5048418 -0.224713
000300 7d 5e 8e be 66 d3 3a 3d 45 5f 1e bd b3 3d c3 3e
       -0.27806464 0.04561176 -0.038665075 0.3813301
000310 9d 97 b4 be 88 54 85 3d 1b 92 c9 3c a1 13 85 3c
       -0.35271922 0.06510264 0.024605801 0.016244711
000320 03 5a 84 bd 4b 2a 41 3e ab ee e8 3e 82 22 63 be
       -0.06462481 0.1886379 0.4549459 -0.22181132
000330 7d 9f d9 3e a7 bc bb 3e 9f 45 9a bd 53 a2 80 3d
       0.42504492 0.36667368 -0.075328104 0.06280961
000340 43 c5 d5 3e 2f 37 28 be 7e 98 10 3e 65 1f 8b 3d
       0.4175206 -0.16427301 0.14120671 0.067930974
000350 89 cb c2 3e 75 d8 e5 3e 8d b0 a0 be ec 90 21 bf
       0.3804591 0.44891706 -0.31384698 -0.6311176
000360 e2 10 ec 3e 13 24 ca 3e 34 19 58 3d 1b e6 fa 3c
       0.4610663 0.39480647 0.05275841 0.030627301
000370 63 cf fe 3e 92 1f df 3e ba 22 3b 3b 4a 8d f7 3e
       0.49767599 0.43578774 0.0028554634 0.48349983
000380 84 a2 1f 3e b9 e7 b4 3e e7 bc b8 3e c6 29 e1 be
       0.15589339 0.3533304 0.3608162 -0.43977183
000390 cf bb 6c be 6d aa 3b bd 04 e5 89 be 79 ba 95 3e
       -0.23118518 -0.045816828 -0.26932538 0.2924383
0003a0 79 c3 21 3e 0d 24 39 be 53 c9 d4 3e 83 a2 b0 bd
       0.15797223 -0.18080159 0.41559848 -0.08624747
0003b0 e6 83 af be 44 c2 b0 3e b1 b8 a3 3d 55 54 10 bf
       -0.34280318 0.34523213 0.079942115 -0.5637868
0003c0 ed 8b 24 be 30 e3 87 3e 65 1f 94 be 57 64 8b 3e
       -0.16069002 0.26540518 -0.28930202 0.2722499
0003d0 ce c6 96 bd 6b 70 6a bd 1b 19 f1 3e 04 f0 e2 3e
       -0.07362138 -0.057236116 0.47089466 0.44323742
0003e0 89 e0 35 bd a5 a8 ac be 8b 01 b8 3e 17 e1 da 3e
       -0.044403587 -0.33722416 0.35938677 0.42749855
0003f0 7b 52 98 3e e3 44 4e be ac 54 6a be 66 6c 90 be
       0.29750428 -0.20143466 -0.22883862 -0.282077

VAE.encoder_mu.layers.1.linear0.bias f4 [128]
000000 59 27 c6 be ca 1d bc bd 8f 6a ea 3d f5 b6 ef 3e
       -0.38701895 -0.09185369 0.11446106 0.46819273
000010 b7 16 1c bf c7 8c e0 3d db d6 4c 3e a8 01 f6 bc
       -0.6097216 0.10964351 0.20003836 -0.030030087
000020 4c ec fd bd d3 d8 aa be 0f 7d 9c 3c f0 9c d9 3e
       -0.12398586 -0.3336855 0.019102601 0.42502546
000030 96 22 ec be e0 85 8a 3c 7e ec 9c be 87 c6 d2 3e
       -0.46120137 0.01690954 -0.3064918 0.4116709
000040 ff 0d 80 be 11 99 d3 3d be 1b 89 3b 05 d5 6e be
       -0.25010678 0.103319295 0.0041842153 -0.23323448
000050 db 47 62 be 6a bb 4b 3e 19 17 b4 3e 21 8b cf 3e
       -0.22097723 0.19895712 0.35173872 0.40535834
000060 b6 11 ed 3c a1 31 5d 3e 46 df 1b 3e 92 db c5 3d
       0.02893911 0.21600963 0.15221891 0.0966102
000070 dc f6 b0 3e a4 50 c7 be d8 54 d9 3e 1e be 18 be
       0.3456334 -0.3892871 0.42447543 -0.14916274
000080 f4 fa eb 3e 9b 52 1c bd 80 79 08 be 3c 6f 89 be
       0.460899 -0.038164716 -0.13327599 -0.26842678
000090 30 83 91 3e 50 0b fb bd f2 aa d7 3e fe d8 91 3e
       0.284204 -0.12258017 0.42122608 0.28485864
0000a0 67 ff 26 3e 24 2c 5c 3d e3 1c ad be 85 52 7e be
       0.16308366 0.053753033 -0.338111 -0.24836166
0000b0 6f 36 95 be 96 45 95 3e e0 47 5f be 87 5b e9 bd
       -0.29143092 0.29154652 -0.21804762 -0.113944106
0000c0 24 8f 01 be 60 f8 03 be 00 51 9c be c4 db cf 3e
       -0.1265226 -0.12887716 -0.30530548 0.40597355
0000d0 2b d6 66 3e b1 27 95 3e 5c 65 e9 3e cc b3 b6 be
       0.22542636 0.29131845 0.45585144 -0.3568405
0000e0 24 ea 26 3e 6d 50 f2 3d de 0c cf bd 4b 14 bf bd
       0.16300255 0.11831746 -0.10109876 -0.093300425
0000f0 73 f7 82 be 1f 7e d6 3e 64 11 40 3d 6c d6 12 3d
       -0.25579414 0.41893098 0.046891585 0.03584902
000100 18 d5 10 bd 7f fe d5 3e a0 78 9b 3e 35 22 76 be
       -0.035359472 0.41795728 0.30365467 -0.24036486
000110 ae 8f d5 be d9 77 aa be 7c 40 d6 be c1 ec 05 3e
       -0.4171118 -0.33294562 -0.41846073 0.13078596
000120 4a 4f 9c bc 24 20 00 3e a7 bd a1 3e 86 80 4b be
       -0.019080777 0.1251226 0.31590006 -0.19873247
000130 e9 6d c0 be 56 82 eb 3e 19 fc 6c bd 41 74 35 3d
       -0.37583855 0.45997876 -0.057857607 0.04430032
000140 ad 83 df bb e6 6a d9 be 08 02 05 bf 19 f9 2d bd
       -0.006821117 -0.4246437 -0.51956224 -0.042473886
000150 b8 9a ac 3c f1 51 b0 be a8 c6 40 be c5 52 be 3e
       0.02106987 -0.34437516 -0.18825781 0.37172523
000160 e1 86 ba bc 37 2e af bc 2e 32 0c bf d4 53 5c be
       -0.022769393 -0.021384342 -0.5476407 -0.21516353
000170 e9 f6 48 39 e4 02 97 be 08 10 8b 3e a9 8d 5c bd
       0.00019165468 -0.29494393 0.27160668 -0.053846035
000180 fd ee a9 3e 81 48 a7 be e0 13 21 be 20 ae 5b bd
       0.33190146 -0.32672504 -0.15730238 -0.053632855
000190 c6 81 fc bd bd db ae be 8c 2b f0 bd fc 77 cb be
       -0.1232944 -0.34152022 -0.11727056 -0.39739978
0001a0 80 24 9e be 1c 98 b4 be a0 1c f8 be e4 be d9 3e
       -0.30887222 -0.352723 -0.4845934 0.4252845
0001b0 be 1c 9e be d5 a1 89 3e ad b6 8d 3e 57 2f 8c bc
       -0.30881304 0.2688128 0.27678433 -0.017112417
0001c0 2a c6 84 bd 91 c9 af be 54 8e 27 3d eb 76 88 bd
       -0.06483109 -0.3433347 0.04090722 -0.06663307
0001d0 27 88 3e be ec b8 06 be cc 6e 14 3e e6 5a bd 3c
       -0.18606625 -0.1315648 0.1449539 0.023114633
0001e0 2c 23 56 3c 63 1e a3 bd 54 97 78 3e d5 b9 a2 be
       0.013069909 -0.0796478 0.24276477 -0.31782404
0001f0 dd ed 0f 3e 0f bd 3d 3e 84 cc 42 3d 0f 18 18 be
       0.14055581 0.18529151 0.047558323 -0.14852928

VAE.encoder_mu.layers.1.linear1.weight f4 [4, 128]
000000 56 74 17 3e 3e 83 91 bd 65 cd 51 bd 67 a2 41 3d
       0.14790472 -0.071051106 -0.05122127 0.04727402
000010 62 84 c1 3d c7 b8 df bd cf 26 d8 bb 19 91 3c bc
       0.09449078 -0.10923915 -0.006596423 -0.011509203
000020 3e b2 b1 3d 1f 4b 23 be 43 8f a8 3d 8d d7 c0 bd
       0.08676575 -0.15946625 0.0823045 -0.09416113
000030 c5 0f 03 be e7 92 46 bd b0 88 f8 bd 2c e7 56 bd
       -0.12798984 -0.04847994 -0.12135446 -0.052466556
000040 11 92 57 3d 6f 7d 79 3b d4 71 3e 3c 0a 56 63 bd
       0.052629534 0.003806915 0.011623818 -0.055501975
000050 b4 be a5 3c b9 0b 36 bd 71 8d 41 bd e7 bd 82 3d
       0.020232536 -0.044444773 -0.04725403 0.06383877
000060 bd d9 c7 3b 4f 69 c6 bd 4c ff b2 bd 28 7c e6 3d
       0.0060989545 -0.09688055 -0.087401 0.1125415
000070 12 11 ee bd 2d 0e a0 3d ee 2b a6 3c ae 73 47 bd
       -0.1162435 0.07815204 0.02028462 -0.048694305
000080 b0 97 05 3e 38 7d 9c bd fb fc cb 3d 4a df a7 bc
       0.13046145 -0.07641071 0.099603616 -0.020492215
000090 6a d0 88 3d 23 82 70 bd 10 b0 4a bd ea 9b e0 bd
       0.06680377 -0.058717858 -0.049484313 -0.10967238
0000a0 3b ea be bd 72 fc e5 3d f2 ed dc 3d eb f5 b5 3d
       -0.0932202 0.11229791 0.10787572 0.08884796
0000b0 59 85 c4 3d 40 42 17 3d f8 05 62 bd eb f0 8f 3d
       0.095957465 0.036928415 -0.055181473 0.07028373
0000c0 34 82 ef bd 32 a6 e6 3c 90 53 ae be d7 40 11 3e
       -0.11694756 0.02815542 -0.34048128 0.1418489
0000d0 12 d3 9f 3c ec b1 02 3e 7c ae 62 3d d9 f1 97 bd
       0.019509826 0.12763184 0.055342183 -0.07419176
0000e0 78 01 f9 bd bb cd 47 bd 2b b2 13 3e be 1f 1d 3d
       -0.12158483 -0.048780184 0.14423434 0.03836035
0000f0 a2 a1 05 bc a6 2f 41 bc 81 4a 7a 3d 9b bd e3 3c
       -0.008156212 -0.011791145 0.06110621 0.027800372
000100 ce 3e 2a bd 46 f5 98 3d 71 29 34 bd 2a c2 80 3d
       -0.0415638 0.07468657 -0.043984834 0.06287034
000110 f1 17 80 3d a3 e7 5d 3d 4d df 17 3d 9b 30 6c bc
       0.062545665 0.054175984 0.03707819 -0.014415885
000120 3c a3 a3 3b d8 f0 bc 3d 4e eb 49 bd e2 57 08 3d
       0.0049938243 0.09225625 -0.04929667 0.033286937
000130 4a 83 80 be 59 da af bd 2c a8 9f 3c 65 15 1e be
       -0.25100166 -0.085865684 0.01948937 -0.15437849
000140 0b 2d 64 3d 1c d6 33 bd 33 da 44 be 63 9b ac 3d
       0.05570702 -0.043905362 -0.19223861 0.08428075
000150 85 01 bc bc 96 22 e0 bc 83 be 57 3e 5b ec 4b bd
       -0.022949943 -0.027360242 0.21068768 -0.049785953
000160 11 6a 59 bd 04 ff af bd 63 78 c6 3e c7 aa 96 bc
       -0.05307967 -0.08593562 0.38763723 -0.01839198
000170 be 53 ad bc 99 19 d4 3d 6b 22 95 3d dc 39 a0 3d
       -0.021158095 0.10356445 0.07281955 0.07823536
000180 64 e1 81 bd 3e 5a 8f bd 18 32 c9 3c 37 98 bc bd
       -0.06341818 -0.06999634 0.02456002 -0.0920872
000190 b9 0e 80 3d 0f f4 e0 3c 1f a5 42 3d 2a 3a a8 3d
       0.06252808 0.027460126 0.047520753 0.08214219
0001a0 ac 9c 64 bd 0e 31 35 bd cb d0 86 bd 68 3a 3d 3d
       -0.055813476 -0.044236235 -0.06582793 0.04619828
0001b0 4c a1 bb 3d ec 9c 94 3c be b5 26 bc e9 67 6b 3d
       0.09161624 0.018141232 -0.010175167 0.057472143
0001c0 eb f9 af 3d ee 25 61 be 82 5b d1 3d 13 3c fd bb
       0.0859259 -0.21987125 0.10222532 -0.0077281087
0001d0 92 f9 94 3c 70 67 0e 39 ce 6f 4b 3b 5e d3 85 bd
       0.01818541 0.00013580709 0.0031041983 -0.06534456
0001e0 15 31 c4 3d 4e b9 c3 bd 24 00 e0 3d 02 c3 ed bc
       0.09579674 -0.095568284 0.10937527 -0.029023651
0001f0 30 84 b5 bb cf 77 e8 bd 64 c1 9d bd 8d c0 e8 bd
       -0.0055394396 -0.11350977 -0.07702902 -0.11364851
000200 ee 70 5c 3d 9d c5 16 3e 90 54 92 3c e0 37 95 3d
       0.053818636 0.14723821 0.017862588 0.07286048
000210 e4 b7 6d be b2 7b 8b bd d1 cc 99 3b 73 7c 9b 3c
       -0.2321468 -0.068107024 0.0046936055 0.01898024
000220 e1 ec e7 3d 0d 86 85 3d 58 96 e5 3c dc d2 c0 3c
       0.11324478 0.06519709 0.028025791 0.023538046
000230 73 76 8b 3d 99 67 e2 3d 62 f7 51 bd 22 af d8 3b
       0.06809702 0.11054916 -0.051261313 0.0066126743
000240 f4 95 6a bc 35 bc a6 bd 85 49 e8 3c 0e c3 94 3c
       -0.014317978 -0.081413664 0.02835537 0.018159416
000250 9b 76 03 bd 72 48 98 3d 3c b8 72 3c 2e b2 01 be
       -0.032095533 0.07435693 0.014814433 -0.12665626
000260 64 8f b3 3d 61 8b 0b be 3a 79 ed 3d 79 0b d5 bd
       0.08767584 -0.13627388 0.11595388 -0.10402579
000270 db fe 8a 3c b5 9b dc be bc 91 1d bd 8f 05 01 3e
       0.016967228 -0.43087545 -0.03846906 0.12599777
000280 6d ce f9 3c 0f 0c cb 3d 8f e7 e3 bc 1d bd 65 bc
       0.03049394 0.09914409 -0.027820377 -0.014022139
000290 7e cd 6e 3c 9a 0b aa bd cb 97 93 3d 3c fb ac bd
       0.01457536 -0.08302994 0.072066866 -0.08446357
0002a0 cd 87 e8 bd d0 11 28 bd bd 51 e5 bd 0d 60 e4 3d
       -0.11354027 -0.041032612 -0.11197231 0.11151133
0002b0 29 74 c6 bc 19 a4 76 3d c1 82 2d ba 65 03 0f be
       -0.024225311 0.06021509 -0.000661891 -0.13966139
0002c0 f4 09 2c 3d 28 c4 ae 3d 99 e2 a6 be 60 01 20 3d
       0.04200168 0.085335076 -0.32594755 0.03906381
0002d0 69 50 03 be c7 44 a8 3d ee 65 d1 3b 3a 95 c9 bd
       -0.12823643 0.08216243 0.006390325 -0.09842916
0002e0 a4 d1 84 bd 25 9b a6 3d 77 39 fb 3c 1d c6 0b be
       -0.06485298 0.0813506 0.03066705 -0.13649793
0002f0 c3 d5 7d 3d e1 31 79 3d 0f cf b0 bc d8 35 f1 3d
       0.061971437 0.060838584 -0.021583108 0.11777848
000300 53 f7 09 bd f1 d7 22 bd 73 79 b9 3d 10 e3 4a 3d
       -0.033683132 -0.03975672 0.09056368 0.04953295
000310 83 d9 95 bd cd 09 b5 3c 61 74 65 3d 6c 53 db bc
       -0.07316878 0.0220994 0.05601919 -0.026773177
000320 fd 6a c1 3d 5b 39 c2 bd f3 79 d8 3d 5a c5 dc 3d
       0.094442345 -0.09483596 0.10570135 0.10779829
000330 cc 83 9f bd fc f8 7c 3b 62 13 f9 bd 68 42 c2 bc
       -0.0778881 0.0038600555 -0.121619 -0.023713306
000340 c1 9c ec 3d 1a 6e 01 be d8 04 73 3e 4b a9 ce bc
       0.11553336 -0.12639657 0.23732316 -0.02522721
000350 5c 9c 83 3d 0e de ea bd e6 00 ee bd b0 62 86 bc
       0.064263076 -0.11468135 -0.11621265 -0.01640448
000360 96 a6 9f 3b 43 13 96 3d 0d d8 db bc a9 5e 11 be
       0.0048721535 0.07327893 -0.02683642 -0.14196266
000370 a8 e8 b5 bb 19 02 3b 3c 4d fb bd 3b 4b f6 cf 3d
       -0.0055514164 0.011414074 0.0057977797 0.101543985
000380 bc 3b f1 3c 72 9f de 3c 92 4c 22 3d cd 22 20 3e
       0.029447429 0.027175639 0.039623804 0.15638275
000390 04 af 9f bc 2a 94 22 3e 38 9f 1e 3e 21 d9 d8 3d
       -0.019492634 0.15876833 0.15490425 0.10588289
0003a0 40 5b 07 3e 74 cf 19 3e 88 33 48 3d 63 11 11 be
       0.13218403 0.15020543 0.04887727 -0.14166789
0003b0 fa 76 e6 bd 9a f0 e9 3d 4b 47 f3 bc 0b f2 f9 3d
       -0.11253162 0.11422844 -0.029697081 0.12204369
0003c0 3d d5 60 3d ec c0 ba bd 21 47 55 3d 6a 3e 80 bd
       0.05489086 -0.09118828 0.052069787 -0.062619045
0003d0 b6 74 41 bd f2 aa 01 be 0a 86 fa bd 02 08 8f 3c
       -0.047230445 -0.12662867 -0.12232597 0.017459873
0003e0 5b d8 56 3d b6 36 b1 3d 23 79 3a bd 8e fc 97 3d
       0.052452426 0.086530134 -0.04552568 0.07421218
0003f0 15 37 38 3d da 5c d0 bd f1 e2 20 3d 5f 8d 17 be
       0.044974405 -0.1017396 0.03927893 -0.14800023

VAE.encoder_mu.layers.1.linear1.bias f4 [4]
000000 7d 03 ee 3d 40 8c 1e 3d 63 87 91 bd 0b 8d 71 3d
       0.11621759 0.03870797 -0.07105901 0.0589724

VAE.encoder_mu.layers.1.norm1.weight f4 [4]
000000 bb dd 8a 3f 56 3b 97 3f 20 96 86 3f d3 70 94 3f
       1.0848917 1.1814983 1.0514565 1.1596931

VAE.encoder_mu.layers.1.norm1.bias f4 [4]
000000 c7 ee 8d 3d 6a 6a 9e 3b 0e 3f e4 bd 03 e6 98 bd
       0.06930309 0.004834463 -0.11144839 -0.07465746
