restsyn/tabsyn/vae/ckpt/sevenblobs_cond/decoder.pt (torch, 21363 bytes, 33 tensors)

VAE_Decoder.layers.0.attention.W_q.weight f4 [4, 4]
0	0x3e36722b	0.17816989
1	0x3eb3dacc	0.35127866
2	0xbdd1b73d	-0.10240028
3	0xbe5a72ee	-0.21332905
4	0xbd8ac976	-0.06776707
5	0xbf028625	-0.5098594
6	0x3ee1b34e	0.4408211
7	0xbb83d1e6	-0.0040228246
8	0x3dd38134	0.10327378
9	0xbe2d6e9b	-0.16936724
10	0xbdcbe8fa	-0.09956546
11	0xbed878fa	-0.42279798
12	0xbd17721c	-0.036974058
13	0x3e180b83	0.14848141
14	0xbe06de08	-0.13170636
15	0xbe698d71	-0.22807862

VAE_Decoder.layers.0.attention.W_q.bias f4 [4]
0	0xbda92135	-0.08258287
1	0x3ddc3a69	0.10753328
2	0x3d2c804b	0.042114537
3	0xbe14da34	-0.14536363

VAE_Decoder.layers.0.attention.W_k.weight f4 [4, 4]
0	0x3e09e61f	0.1346669
1	0xbd892f33	-0.06698456
2	0x3eb2d88a	0.3493083
3	0x3eb5e76c	0.35528123
4	0x3f349be6	0.7055038
5	0xbef4ee6d	-0.47838154
6	0xbe76b236	-0.2409142
7	0x3e84a245	0.25905052
8	0x3e87c0b2	0.26514202
9	0xbdd27396	-0.102759525
10	0xbddc3ff3	-0.10754385
11	0x3ebe64ae	0.37186188
12	0xbf0ef9aa	-0.5584971
13	0x3ed1d0bd	0.40979567
14	0x3e8f2851	0.27960446
15	0x3d51476e	0.05109351

VAE_Decoder.layers.0.attention.W_k.bias f4 [4]
0	0xb897ad33	-7.232502e-05
1	0xb80ef2b4	-3.4081473e-05
2	0xb952534e	-0.00020058194
3	0xb890b03c	-6.899281e-05

VAE_Decoder.layers.0.attention.W_v.weight f4 [4, 4]
0	0xbc162914	-0.009165067
1	0xbd27d1ce	-0.04097157
2	0xbe8a9035	-0.27063146
3	0x3df7f237	0.12106746
4	0xbca7806d	-0.02044698
5	0xbed623e0	-0.41824245
6	0xbebe7a8b	-0.37202868
7	0x3efc86b5	0.49321523
8	0x3e6490be	0.2232084
9	0xbec12786	-0.37725466
10	0xbe9a618e	-0.30152553
11	0x3e5fe638	0.21865165
12	0x3ea781aa	0.32716113
13	0x3e3fd8a8	0.18734992
14	0x3e3f2521	0.18666507
15	0xbbbb800e	-0.0057220524

VAE_Decoder.layers.0.attention.W_v.bias f4 [4]
0	0x3cddb54b	0.027063986
1	0xbb76fb3c	-0.0037686368
2	0x3d60a725	0.0548469
3	0xbd9effd8	-0.07763642

VAE_Decoder.layers.0.linear0.weight f4 [128, 4]
0	0x3ebe0ed7	0.37120697
1	0x3f032456	0.5122732
2	0x3db4796e	0.088122234
3	0x3e4f496d	0.20242853
4	0xbdbcedd3	-0.09225049
5	0x3d03b7d6	0.03215774
6	0xbf08442f	-0.5322904
7	0xbebc0029	-0.36718872
8	0xbecf631d	-0.40505305
9	0xbeda369c	-0.4261979
10	0xbe9a1fdf	-0.3010244
11	0xbec058c8	-0.37567735
12	0xbe5059b2	-0.20346716
13	0x3e2d7931	0.16940762
14	0xbeb1af9a	-0.34704286
15	0xbebe9149	-0.3722022
16	0xbef3ccbc	-0.47617137
17	0x3e9d69a1	0.3074465
18	0xbd810291	-0.06299318
19	0x3ee88e8d	0.45421258
20	0x3ef35f4e	0.4753365
21	0xbe7e8155	-0.24854024
22	0xbed9462a	-0.42436343
23	0xbc2317a4	-0.009954367
24	0xbe59677c	-0.21230882
25	0xbeadf479	-0.3397558
26	0x3dda8e05	0.10671619
27	0x3dd5119c	0.10403749
28	0xbede46d1	-0.43413404
29	0xbcab8e8b	-0.020941993
30	0xbeb7aa47	-0.358721
31	0xbf068fbe	-0.52563083
32	0xbe93d955	-0.2887675
33	0xbd965b58	-0.07341641
34	0x3f224443	0.6338541
35	0xbc411c2f	-0.011786505
36	0xbee37045	-0.44421592
37	0x3ea06442	0.3132649
38	0xbd90f470	-0.07077873
39	0xbe811809	-0.2521365
40	0x3d97ce30	0.07412374
41	0x3d64daf0	0.055872858
42	0x3df29a60	0.11845851
43	0x3e93aa76	0.2884099
44	0x3ee8b067	0.45447084
45	0xbe873b05	-0.26412216
46	0xbef5443b	-0.47903618
47	0x3d276578	0.040868253
48	0x3e08cfcf	0.13360523
49	0xbeb68eac	-0.35655725
50	0xbeb747ba	-0.3579691
51	0xbeef5860	-0.46747112
52	0xbdd491f1	-0.103793986
53	0x3e6e12a1	0.23249294
54	0xbe9a10bc	-0.30090892
55	0xbeeb5793	-0.4596525
56	0x3e6393dc	0.22224373
57	0x3efb9c6b	0.49142775
58	0xbb103ad3	-0.0022007718
59	0xbecb9c74	-0.39767802
60	0xbe036a49	-0.12833513
61	0xbe17d570	-0.14827514
62	0xbedbcbe2	-0.42928988
63	0xbf0709d1	-0.52749354
64	0x3e72bbb8	0.23704422
65	0xbe8e32f1	-0.2777324
66	0x3f0f9d7f	0.56099695
67	0xbecbee9b	-0.3983048
68	0x3e91bd6c	0.2846483
69	0x3ddfc67a	0.10926528
70	0xbefe4332	-0.4966064
71	0x3dc79603	0.09745409
72	0x3ee71a7e	0.451374
73	0xbe24a57a	-0.1607875
74	0x3ede5efd	0.43431845
75	0xbeb096d8	-0.34490085
76	0x3e9b224c	0.30299604
77	0xbdc1e3dc	-0.09467289
78	0xbf151342	-0.5823251
79	0xbefdbb78	-0.4955709
80	0x3e898aca	0.268637
81	0xbf029ae1	-0.51017576
82	0x3ecb27d1	0.39678815
83	0xbd140595	-0.036138136
84	0x3eab0b53	0.33407077
85	0xbef2697e	-0.4734611
86	0xbe531e7f	-0.20617102
87	0xbe5299c2	-0.20566466
88	0x3dcb7c44	0.09935811
89	0x3e9ee10a	0.31031066
90	0x3e632f86	0.22186098
91	0xbe8ee30c	-0.27907598
92	0xbde9a0e7	-0.11407643
93	0xbf1191dc	-0.5686319
94	0x3eba7904	0.36420453
95	0xbee0b4b5	-0.4388787
96	0x3e95e055	0.29272714
97	0x3c9ab055	0.01888291
98	0xbe866032	-0.26245266
99	0x3de94247	0.113895945
100	0x3d13eab0	0.036112487
101	0x3ed44501	0.41458896
102	0x3e81c539	0.2534578
103	0xbef31ce0	-0.47482967
104	0x3dacb985	0.084338225
105	0x3e2eaa15	0.17057069
106	0x38b2fbf9	8.534635e-05
107	0xbe10fc57	-0.1415876
108	0x3ee3c696	0.44487447
109	0x3e87d1fe	0.265274
110	0x3e8b448d	0.27200738
111	0xbe754725	-0.2395292
112	0xbebd445c	-0.36966217
113	0xbeedbda3	-0.46433744
114	0xbe8cf9c7	-0.27534315
115	0x3d730533	0.05933113
116	0xbeaf9c48	-0.3429892
117	0x3e8428ca	0.2581237
118	0x3e389e59	0.18029155
119	0x3ec07ffe	0.3759765
120	0xbe4d25e5	-0.20033987
121	0xbe584051	-0.21118285
122	0xbd569eba	-0.052397467
123	0xbe2bc1fa	-0.16773215
124	0xbefa8a39	-0.4893358
125	0xbac71e2d	-0.0015191488
126	0xbdcc9b45	-0.09990553
127	0x3e8e38e5	0.27777782
128	0xbeaee8c2	-0.34161955
129	0x3ec4a8be	0.3840999
130	0xbe3060b0	-0.17224383
131	0x3e8cf65d	0.2753171
132	0x3e2409f4	0.16019422
133	0xbe9c045c	-0.30472076
134	0x3e1caf99	0.1530136
135	0xbe82f9db	-0.2558125
136	0x3ed79494	0.42105544
137	0xbe9b1096	-0.30286092
138	0x3e0bbf7c	0.13647264
139	0x3e65adf0	0.22429633
140	0xbc00f4aa	-0.007870832
141	0xbe6fd72b	-0.23421924
142	0xbf057205	-0.52127105
143	0x3d2a6cbd	0.041607607
144	0xbe252240	-0.16126347
145	0xbea5b808	-0.32366967
146	0xbd5af5a0	-0.053456903
147	0xbe04e12c	-0.12976521
148	0xbdbab873	-0.09117212
149	0x3f08b0d9	0.5339485
150	0xbeb76c45	-0.3582479
151	0xbe9fe3e4	-0.31228554
152	0x3eb72b57	0.35775253
153	0xbeac78b7	-0.33685848
154	0x3e0fe362	0.14051583
155	0x3d20c1ed	0.039247442
156	0xbd6ff13d	-0.058579672
157	0x3d5f4b06	0.054514907
158	0xbebe1458	-0.37124896
159	0x3e260c75	0.1621569
160	0xbde2116f	-0.110384814
161	0x3df308d5	0.11866919
162	0x3efe306e	0.49646324
163	0x3daeee30	0.085415244
164	0xbe6eb945	-0.23312862
165	0xbe5a578b	-0.21322457
166	0xbef3244b	-0.47488627
167	0x3ee935ce	0.45548862
168	0x3ec7f195	0.390515
169	0xbeec282e	-0.46124405
170	0x3dea53cf	0.114417665
171	0x3e759688	0.23983204
172	0xbedec575	-0.43510023
173	0xbe4def2c	-0.20110768
174	0x3e647f86	0.22314271
175	0x3e9fb149	0.31189945
176	0x3e8afb86	0.27145022
177	0xbe5591a1	-0.20856334
178	0xbeb0b117	-0.3451011
179	0xbe86ff3e	-0.2636661
180	0x3db8588e	0.090012655
181	0x3eef3260	0.4671812
182	0xbedda24c	-0.43287885
183	0x3e1efb50	0.15525556
184	0xbef84b3a	-0.48494893
185	0xbdb42ffd	-0.087982155
186	0x3ef6c698	0.4819839
187	0x3eacba0f	0.337357
188	0xbca5a221	-0.02021891
189	0xbe91bdb7	-0.28465053
190	0xbeb28dde	-0.3487386
191	0x3e1f68d0	0.15567327
192	0xbe803fff	-0.25048825
193	0xbf06a9a7	-0.5260262
194	0xbedf7925	-0.43647113
195	0x3e020873	0.12698536
196	0xbecbf130	-0.3983245
197	0xbd7031dd	-0.058641303
198	0x3e935b18	0.28780437
199	0x3e424415	0.18971284
200	0xbe891d07	-0.2677996
201	0x3e9b7a66	0.3036682
202	0xbe9e2797	-0.3088958
203	0x3d89a577	0.06721013
204	0x3e3d84d0	0.18507695
205	0xbef86dda	-0.4852131
206	0x3cc1ab8a	0.023641367
207	0xbeb6785c	-0.35638702
208	0xbe9e6a8f	-0.30940673
209	0x3c93598f	0.01798704
210	0xbdf2d9f8	-0.118579805
211	0xbd01863e	-0.031622164
212	0xbeabc39d	-0.3354768
213	0xbd0b265d	-0.033972133
214	0x3c1d9f9c	0.009620573
215	0xbdae6730	-0.08515775
216	0xbeab3912	-0.3344198
217	0xbed8b10c	-0.42322576
218	0xbe556725	-0.20840128
219	0xbec32310	-0.38112688
220	0xbefc813b	-0.49317345
221	0xbebd6264	-0.3698913
222	0x3ec72a3d	0.38899413
223	0xbe54dd24	-0.20787483
224	0xbef00379	-0.4687765
225	0xbed3c6c1	-0.41362575
226	0xbe734abf	-0.23758982
227	0xbea21538	-0.31656814
228	0x3e8d5366	0.2760269
229	0x3ef9796e	0.48725456
230	0x3e8065f4	0.25077784
231	0xbec4dc66	-0.384494
232	0x3c391e48	0.0112987235
233	0xbde355c7	-0.11100345
234	0x3ebc24f0	0.3674693
235	0x3ee05939	0.4381807
236	0xbe1ea9fd	-0.15494533
237	0x3e2d6e45	0.16936596
238	0xbea809ae	-0.32819885
239	0xbdc94aa2	-0.09828688
240	0x3ec76005	0.38940445
241	0xbe95d697	-0.29265282
242	0x3e1becf0	0.15227103
243	0x3ed291ab	0.4112676
244	0x3edf5a76	0.43623704
245	0x3e747a96	0.23874888
246	0x3e055b51	0.13023116
247	0xbd9182f5	-0.07105056
248	0xbf2e0d72	-0.67989266
249	0xbedc9ab4	-0.4308678
250	0x3eba40a5	0.36377445
251	0xbf107a46	-0.56436574
252	0x3ed4cb95	0.4156157
253	0x3e1b3d1f	0.15160035
254	0xbd2457be	-0.04012274
255	0x3e6dd8b8	0.23227203

VAE_Decoder.layers.0.linear0.bias f4 [128]
0	0x3ed92273	0.42409095
1	0x3e512438	0.20423973
2	0xbe3c171c	-0.1836819
3	0x3ec87e57	0.3915889
4	0x3ef70f99	0.48254088
5	0xbe098312	-0.13428906
6	0xbe65830a	-0.22413269
7	0x3e1b5efa	0.1517295
8	0xbd37e0bf	-0.04489207
9	0x3ee2b465	0.44278255
10	0xbeeb3730	-0.45940542
11	0x3e10eddd	0.14153238
12	0x3ed71ab3	0.42012557
13	0xbebe1f80	-0.37133408
14	0xbe2432e4	-0.16035038
15	0xbd99ba5b	-0.075062476
16	0x3d7b4757	0.06134733
17	0x3ed9acaf	0.4251456
18	0xbef095cd	-0.4698929
19	0xbe5cfbc2	-0.21580413
20	0x3e1e3177	0.15448557
21	0xbea86cba	-0.32895452
22	0xbe8aae2e	-0.27086014
23	0x3eb68fd1	0.35656598
24	0x3eff8e38	0.49913192
25	0x3ecaf03f	0.39636418
26	0xbebf6bb2	-0.37386853
27	0xbef7018b	-0.48243365
28	0xbd436a2a	-0.047708668
29	0xbd9ac0a9	-0.07556278
30	0x3edc243b	0.42996392
31	0xbe9a377a	-0.3012045
32	0x3e7b0266	0.24512634
33	0x3e3a6949	0.18204226
34	0xbe9b6d40	-0.3035679
35	0x3dbb6026	0.09149198
36	0xbefb6b24	-0.4910518
37	0xbdf7a1b8	-0.12091392
38	0xbeacaed7	-0.33727142
39	0x3e03465e	0.12819812
40	0xbe6cb0ef	-0.2311437
41	0xbed87d5c	-0.42283142
42	0xbe1848c2	-0.14871505
43	0xbb078337	-0.0020677575
44	0x3cb7b479	0.022424923
45	0x3ee41c93	0.4455305
46	0xbe1a6226	-0.15076503
47	0x3eacf008	0.3377688
48	0x3e943434	0.28946078
49	0xbe6988d7	-0.22806107
50	0xbee06468	-0.43826604
51	0x3ea97168	0.33094335
52	0x3ee99027	0.45617792
53	0xbf07a90c	-0.5299232
54	0x3d7e1401	0.062030796
55	0xbebcfee5	-0.3691322
56	0x3e0b4669	0.13601078
57	0x3e9ba3d0	0.30398417
58	0x3da06cba	0.07833238
59	0x3ce2eab3	0.027699804
60	0xbe5d427f	-0.21607397
61	0x3d9ef186	0.07760911
62	0x3dd6aad6	0.10481803
63	0x3df5a728	0.11994773
64	0x3d8939d0	0.0670048
65	0x3ea820f5	0.32837644
66	0x3e80d097	0.2515914
67	0x3f064acd	0.52457887
68	0x3debb1b8	0.115085065
69	0xbeb2a370	-0.34890318
70	0x3e60781a	0.21920815
71	0x3ebf3251	0.37343076
72	0xbea99fe1	-0.3312979
73	0x3f046843	0.5172159
74	0x3e6ba925	0.23013742
75	0xbe33cb7f	-0.17558096
76	0xbe8e63fe	-0.27810663
77	0x3f042700	0.5162201
78	0xbd3c7ba4	-0.04601635
79	0xbd9d32f9	-0.07675738
80	0x3e4c1668	0.19930422
81	0x3e238f50	0.15972638
82	0xbefe05c8	-0.49613786
83	0x3f07aab1	0.5299483
84	0xbe5151d1	-0.20441367
85	0xbe1b8f0b	-0.15191285
86	0xbe9293be	-0.28628343
87	0x3e8bd877	0.27313587
88	0x3e4e721a	0.20160714
89	0x3e892ceb	0.26792082
90	0xbe98099e	-0.29694837
91	0xbef3e1f8	-0.47633338
92	0xbe5a48c0	-0.21316814
93	0x3ea5d863	0.32391652
94	0xbe2c0ec1	-0.16802503
95	0x3ea4bb13	0.32173976
96	0xbe3c882d	-0.18411322
97	0x3f06d746	0.5267223
98	0x3dc737fe	0.097274765
99	0xbde5305c	-0.111908644
100	0x3e30fdda	0.17284337
101	0x3eda1349	0.42592838
102	0xbef5dd6b	-0.4802049
103	0xbe4fccb8	-0.20292938
104	0xbebb1b5f	-0.3654432
105	0x3ed3a576	0.41337174
106	0xbee2f121	-0.44324592
107	0x3ec0ce4c	0.37657392
108	0x3eb2e07e	0.349369
109	0xbe65448a	-0.22389427
110	0x3e92bc9e	0.28659528
111	0xbae5e35b	-0.0017539071
112	0x3e3dbb56	0.18528494
113	0x3ebc05a0	0.36723042
114	0x3eae9a9b	0.3410233
115	0x3d9cf9c4	0.076648265
116	0xbe8617dd	-0.2619008
117	0x3ec10956	0.37702435
118	0xbec2368e	-0.37932247
119	0xbee65922	-0.44989878
120	0xbd3ca2fb	-0.046053868
121	0xbdd77cc6	-0.105218455
122	0x3f0f6767	0.56017154
123	0x3e922f31	0.2855163
124	0x3e3662ae	0.17811081
125	0xbdfe5a77	-0.124195985
126	0xbe3dd882	-0.18539622
127	0xbe3f2327	-0.18665753

VAE_Decoder.layers.0.linear1.weight f4 [4, 128]
0	0xbd608d5a	-0.054822303
1	0x3daf7726	0.08567648
2	0xbd6ed5e0	-0.058309436
3	0x3d2b2b76	0.041789494
4	0x3d1bab44	0.03800513
5	0x3b8d9373	0.004320556
6	0xbd155438	-0.03645727
7	0xbd2a9612	-0.041647024
8	0x3e906012	0.28198296
9	0xbd74bffe	-0.05975341
10	0x3d952bd9	0.07283754
11	0x3d8d0f67	0.068877034
12	0xbcd4d9e2	-0.0259828
13	0xbc7a1a63	-0.01526508
14	0xbc776d9b	-0.015101816
15	0x3d3dc19d	0.046327222
16	0x3c213045	0.0098381685
17	0x3de30223	0.11084392
18	0xbd5245ab	-0.05133597
19	0x3df9133f	0.12161874
20	0x3d59e540	0.053197145
21	0xbdf89577	-0.12137883
22	0x3d0a2bb6	0.033733092
23	0x3d28a379	0.041171525
24	0x3d826e66	0.06368713
25	0xbd73339c	-0.05937539
26	0x3cf14148	0.029450074
27	0x3d49ced6	0.04926952
28	0x3d1eef8c	0.03880267
29	0x3dafc14d	0.08581791
30	0x3d799b09	0.06093887
31	0x3dd15a43	0.10222294
32	0xbd8073e1	-0.06272102
33	0x3d8295fe	0.06376265
34	0xbbad162b	-0.0052821836
35	0x3dec83c0	0.11548567
36	0xbd4f2eda	-0.05058179
37	0xbdd39f82	-0.10333158
38	0xbe9475fa	-0.2899626
39	0xbd0f7f18	-0.035033315
40	0xbd0e3d69	-0.034726534
41	0xbce9979a	-0.028514672
42	0xbd6c9380	-0.057757854
43	0x3da0b010	0.07846081
44	0xbb0d3a0f	-0.0021549498
45	0x3d28f5c0	0.04124999
46	0xbaa90de7	-0.001289782
47	0xbcc86646	-0.02446283
48	0xbd2c407c	-0.042053685
49	0xbc039dd8	-0.008033238
50	0x3d309966	0.043115042
51	0x3d684432	0.05670566
52	0x3dc47ea0	0.09594464
53	0x3c6d8eb9	0.01449936
54	0x3d4d16ca	0.05007056
55	0x3c249479	0.010045164
56	0x3db0e18e	0.08636771
57	0xbd544b9e	-0.051829927
58	0x3d7f4050	0.062317193
59	0xbcee2711	-0.029071363
60	0x3d97c039	0.074097104
61	0x3bd0261d	0.0063521997
62	0x3d8e5037	0.069488935
63	0x3c77d2e4	0.015125964
64	0x3dea4a29	0.11439926
65	0x3d9c67ef	0.07637011
66	0x3d9f8df3	0.077907465
67	0x3de0f000	0.10983276
68	0x3d9190e1	0.071077116
69	0xbc84a490	-0.01619175
70	0xbd2eb43e	-0.04265236
71	0x3d605b22	0.05477441
72	0x3dde71d4	0.10861555
73	0x3d07ddea	0.033170618
74	0xbc03061a	-0.00799706
75	0x3c9df1b5	0.019280294
76	0x3c0dfdb7	0.008666447
77	0x3d93f1b2	0.07223834
78	0x3c23d018	0.009998344
79	0x3daa6d08	0.08321577
80	0x3c1484ce	0.009064866
81	0x3d0a44e3	0.0337571
82	0x3d5c54ba	0.05379174
83	0xbd914af1	-0.07094372
84	0x3d438fde	0.047744624
85	0xbd6fc015	-0.058532793
86	0x3d78f872	0.06078381
87	0x3cf53d84	0.02993656
88	0xbcb95b95	-0.022626678
89	0xbd8cd3b6	-0.06876318
90	0xbd8af6a8	-0.06785327
91	0xbc99dc75	-0.01878188
92	0xbce4f50e	-0.027948882
93	0x3dbf114f	0.09329473
94	0xbd61f7e0	-0.055168033
95	0x3db315fd	0.08744428
96	0xbcacfffa	-0.021118153
97	0xbb8f350d	-0.004370338
98	0x3db02f38	0.08602756
99	0x3d2b6bbd	0.041850794
100	0x3d0df52c	0.034657642
101	0x3d8733ab	0.06601652
102	0xbd2c58cc	-0.04207687
103	0x3d159745	0.036521215
104	0xbd18ca78	-0.037302464
105	0x3df0f6af	0.11765801
106	0x3d8f1c57	0.06987827
107	0x3d7d8ad2	0.061899967
108	0x3ced3066	0.028953742
109	0x3d9fc28a	0.07800777
110	0xbd35e0de	-0.044403903
111	0x3d9a9385	0.07547668
112	0x3dc75303	0.0973263
113	0x3c9c017a	0.019043673
114	0xbd606642	-0.05478502
115	0xbd98ae2c	-0.07455096
116	0x3d363a29	0.04448906
117	0xbb97ceb0	-0.0046327934
118	0xbcd0faaf	-0.02551016
119	0x3e053069	0.13006748
120	0xbd2a4cb9	-0.041577075
121	0x3d4143a6	0.047183655
122	0x3d3d924d	0.0462821
123	0xbcbf6361	-0.023362817
124	0x3db178c4	0.08665612
125	0x3dc04116	0.09387414
126	0xbc793901	-0.015211345
127	0xbc526bf8	-0.012843125
128	0xbd9c8219	-0.07642002
129	0xbd846c04	-0.06465915
130	0x3d640226	0.05566611
131	0x3d375cad	0.044766117
132	0x3e0c05bf	0.13674067
133	0xbc80691d	-0.015675122
134	0xbdbd2caf	-0.09237038
135	0xbbc68db8	-0.0060593747
136	0xbebcc60a	-0.36869842
137	0x3c0078a6	0.007841265
138	0xbc05cac0	-0.008166015
139	0xbd3b08a6	-0.045662545
140	0xbd88037a	-0.06641288
141	0x3ce1731d	0.02752071
142	0xbde2eb4e	-0.11080037
143	0xbdf2a1f6	-0.11847298
144	0xbc45ff31	-0.012084768
145	0x3d13bcb5	0.036068637
146	0xbd979c4e	-0.0740286
147	0xbdba0d8c	-0.09084615
148	0xbd3b2a42	-0.045694597
149	0xbc89daca	-0.01682796
150	0x3cd7dfda	0.026351858
151	0xbd888e69	-0.066677876
152	0x3d0d4b7e	0.034495823
153	0xbd7d6cd4	-0.061871365
154	0x3d3de620	0.046362042
155	0xbd866831	-0.06562842
156	0x3d2a75ed	0.04161637
157	0x3d41ddc3	0.04733063
158	0xbd551dea	-0.05203048
159	0x3e053878	0.13009822
160	0x3dde9700	0.10868645
161	0xbd7c9215	-0.061662752
162	0xbd0c5be2	-0.034267314
163	0xbd1269f8	-0.03574559
164	0xbd8bbdf6	-0.068233415
165	0xbc2e157d	-0.01062524
166	0x3e9bc9bb	0.30427346
167	0x3dcd692b	0.10029825
168	0xbdcf1bbc	-0.10112712
169	0x3e50f963	0.20407633
170	0x3d12b430	0.03581637
171	0xbe022f31	-0.12713315
172	0x3d8ed650	0.069744706
173	0xbbcdf252	-0.0062849903
174	0xbdfbf924	-0.12303379
175	0xbc8a4a71	-0.0168812
176	0x3d979226	0.074009225
177	0xbd54df3c	-0.051970705
178	0x3cfcf0b5	0.030876497
179	0xbd9e68c3	-0.077348255
180	0x3d445f53	0.04794247
181	0xbd2e30e0	-0.04252708
182	0xbdb35757	-0.08756893
183	0xbe983b58	-0.29732776
184	0xbe02ae36	-0.12761769
185	0xbdb3a2f4	-0.08771315
186	0x3d60754a	0.054799356
187	0x3d2c5f9c	0.042083368
188	0x3d79552c	0.06087224
189	0x3c96770d	0.018367315
190	0xbe0edc4c	-0.13951224
191	0xbc89206c	-0.016739093
192	0xbddcb897	-0.10777395
193	0x3b0739d9	0.0020633845
194	0x3b8ad56c	0.0042368677
195	0x3ccfe59b	0.02537804
196	0xbdce762f	-0.100811355
197	0x3cd5f7c9	0.02611913
198	0x3df390bf	0.118928425
199	0xbe0cacd1	-0.13737799
200	0x3e699257	0.2280973
201	0x3de846c4	0.113416225
202	0xbd23e82a	-0.04001633
203	0x3c7d52c6	0.015461629
204	0x3d202dc9	0.039106164
205	0xbdb01022	-0.08596827
206	0xbdf8d24c	-0.12149486
207	0x3e26ba1d	0.16281934
208	0x3d2c984e	0.042137437
209	0xbd19d61c	-0.037557706
210	0x3dab04a3	0.08350494
211	0x3bb84272	0.0056231553
212	0x3a8bd123	0.0010667186
213	0x3d8db602	0.06919481
214	0xbe3e1ad0	-0.18564916
215	0xbdf13724	-0.11778095
216	0xbd5852e2	-0.05281342
217	0xbd8fa0e0	-0.07013106
218	0x3dbe205a	0.09283514
219	0x3d1c535d	0.03816544
220	0xbd11af0d	-0.035567332
221	0x3d66756d	0.05626433
222	0x3cf54021	0.029937806
223	0x3d655756	0.055991493
224	0x3c562596	0.013070485
225	0xbcfec024	-0.03109748
226	0xb9ac4927	-0.000328609
227	0xbe00802b	-0.12548892
228	0x3d9b862d	0.075939514
229	0xbd0dc385	-0.03461029
230	0x3b2e446d	0.0026591078
231	0x3dc98212	0.09839262
232	0x3dff3f05	0.12463192
233	0xbc849d10	-0.016188174
234	0xbd0a1054	-0.033706978
235	0x3de76557	0.11298626
236	0x3c7efe28	0.015563525
237	0x3dd15c10	0.10222638
238	0x3d2b82aa	0.041872658
239	0xbdda4693	-0.10657992
240	0x3d45a37c	0.048251614
241	0x3ce83c2f	0.02834901
242	0xbd247d87	-0.040158775
243	0xbd8ef73c	-0.0698075
244	0x3d9fa94c	0.07795963
245	0xbda08ff7	-0.07839959
246	0xbd4ef719	-0.05052862
247	0x3d96cd8f	0.07363426
248	0x3d459ad8	0.048243374
249	0x3d2fe075	0.04293867
250	0xbd95d3f4	-0.073158175
251	0xbc6f3659	-0.01460036
252	0xbdc246fb	-0.09486195
253	0xbd127e1f	-0.03576481
254	0x3d7463e6	0.059665583
255	0x3c2e485f	0.010637372

VAE_Decoder.layers.0.linear1.bias f4 [4]
0	0x3d89dc03	0.06731417
1	0xbda90589	-0.08253009
2	0x3dadfc7f	0.084954254
3	0xbc13a416	-0.009011289

VAE_Decoder.layers.0.norm1.weight f4 [4]
0	0x3f8ef90b	1.1169752
1	0x3f8d9c67	1.1063355
2	0x3f9883c0	1.1915207
3	0x3f883c9b	1.0643495

VAE_Decoder.layers.0.norm1.bias f4 [4]
0	0xbda73c83	-0.081658386
1	0xbd9be86d	-0.07612691
2	0x3e31c026	0.17358455
3	0xba8a3d64	-0.001054686

VAE_Decoder.layers.1.attention.W_q.weight f4 [4, 4]
0	0x3ef883e9	0.4853814
1	0x3ed24d66	0.41074675
2	0x3ecb6b54	0.39730322
3	0xbe9e80bd	-0.30957595
4	0xbdf19600	-0.11796188
5	0xbecf0a9f	-0.4043779
6	0x3ea6569c	0.32487953
7	0xbed4b68e	-0.41545528
8	0xbefe260b	-0.496384
9	0xbef12349	-0.47097233
10	0x3e9fafb9	0.31188753
11	0x3f024a0d	0.5089424
12	0x3dae285b	0.08503791
13	0xbea20b84	-0.3164941
14	0xbe5770b8	-0.21039093
15	0xbe9eb430	-0.30996847

VAE_Decoder.layers.1.attention.W_q.bias f4 [4]
0	0x38f6be46	0.00011765635
1	0xbc067041	-0.008205474
2	0xba999dec	-0.0011720038
3	0x3bee5d39	0.0072742966

VAE_Decoder.layers.1.attention.W_k.weight f4 [4, 4]
0	0xbda9b154	-0.08285776
1	0xbe678608	-0.22609723
2	0x3ea502d8	0.32228732
3	0x3e2a0c01	0.16606142
4	0xbedb9348	-0.42885804
5	0xbda1b414	-0.07895675
6	0x3ea40799	0.32037047
7	0xbdaf022b	-0.085453354
8	0xbe7f9eb7	-0.24962889
9	0xbe9e7581	-0.30949023
10	0xbeb7d90d	-0.35907784
11	0x3d6b9b30	0.057521045
12	0xbe1a997a	-0.15097609
13	0xbe957c24	-0.29196274
14	0xbeb14533	-0.34623107
15	0x3e64e054	0.223512

VAE_Decoder.layers.1.attention.W_k.bias f4 [4]
0	0xb972033c	-0.00023080123
1	0xb99f3414	-0.00030365644
2	0xb7d9c022	-2.5957885e-05
3	0xb89180b8	-6.9381145e-05

VAE_Decoder.layers.1.attention.W_v.weight f4 [4, 4]
0	0x3ed8461e	0.42240995
1	0x3ecf7a16	0.40522832
2	0xbeedb7a3	-0.46429166
3	0x3e47aa4d	0.19498558
4	0x3e26174a	0.16219822
5	0x3e93a4e2	0.28836733
6	0x3dbd72aa	0.09250386
7	0x3ed8db8e	0.42355007
8	0x3eb7c934	0.35895693
9	0x3e4e6436	0.20155415
10	0x3e65fd89	0.22459997
11	0x3e8fa4d5	0.28055444
12	0x3dd846cc	0.105603784
13	0xbe24fcd9	-0.16112079
14	0xbee0aa0c	-0.43879735
15	0x3e131e52	0.14367035

VAE_Decoder.layers.1.attention.W_v.bias f4 [4]
0	0x3cbf2e9d	0.023337657
1	0xbd074796	-0.033027254
2	0x3d32be5d	0.043638576
3	0xbd43e789	-0.04782823

VAE_Decoder.layers.1.linear0.weight f4 [128, 4]
0	0x3ee63b1b	0.4496697
1	0xbe1e7d51	-0.15477492
2	0x3db1f402	0.08689119
3	0x3efd86f5	0.49517027
4	0xbeedc2e3	-0.4643775
5	0xbeddd7eb	-0.43328795
6	0xbd5b31c5	-0.05351426
7	0xbed2925b	-0.41127285
8	0xbec3d816	-0.38250798
9	0x3e8770dc	0.26453292
10	0x3e664999	0.22489013
11	0x3ee8871a	0.45415574
12	0xbec4e0f5	-0.3845288
13	0xbed015d9	-0.40641668
14	0x3e0ee738	0.1395539
15	0x3dc4420e	0.095829114
16	0x3eeb44d6	0.45950955
17	0xbe8fcdc1	-0.28086665
18	0xbebf2719	-0.37334517
19	0x3ef6aa7e	0.4817695
20	0x3eaabc57	0.33346817
21	0xbd879f0c	-0.06622133
22	0xbebe264c	-0.37138593
23	0xbea37986	-0.31928653
24	0xbd5ae1c9	-0.05343798
25	0x3ea4565e	0.32097143
26	0xbedf3bdf	-0.43600366
27	0xbe3bad6e	-0.18327877
28	0xbed052e0	-0.4068823
29	0xbe23c0eb	-0.15991561
30	0xbd427857	-0.047478046
31	0x3ee9d293	0.45668468
32	0x3eb4d426	0.35318106
33	0xbeed60c6	-0.46362895
34	0xbedd050d	-0.43167916
35	0xbe49f0df	-0.19720791
36	0xbe8cb8e6	-0.27484816
37	0xbec4e7f8	-0.38458228
38	0xbe4deb61	-0.20109321
39	0x3e2c9a00	0.16855621
40	0xbe6454d8	-0.2229799
41	0x3ea94d55	0.33066812
42	0xbe078356	-0.13233694
43	0xbe9eda8c	-0.31026113
44	0xbea393e0	-0.31948757
45	0xbe526c03	-0.20549016
46	0x3e91f4fc	0.2850722
47	0xbe39b381	-0.18134882
48	0xbe206b0c	-0.15665835
49	0x3da11780	0.078658104
50	0xbd0c1430	-0.03419894
51	0xbcee14e0	-0.029062688
52	0xbe659be4	-0.22422749
53	0x3eafbf27	0.34325525
54	0x3dde6de4	0.10860804
55	0xbe790dbf	-0.2432165
56	0xbe1fe738	-0.15615547
57	0x3bfbf041	0.0076885526
58	0x3ef12b2d	0.47103253
59	0x3e104a2b	0.14090793
60	0x3e8d2af1	0.27571824
61	0x3ee05bba	0.43819982
62	0xbe406b11	-0.18790843
63	0x3d5f0e13	0.05445678
64	0xbe28fb91	-0.16502215
65	0xbe0903fc	-0.13380426
66	0x3eb6fda7	0.35740396
67	0x3da572be	0.08078526
68	0xbef311ac	-0.4747442
69	0xbdf6ce71	-0.12051094
70	0x3ed00bc5	0.4063398
71	0xbe1d1d35	-0.15343173
72	0xbea458a2	-0.3209887
73	0x3e2a9234	0.16657335
74	0xbebf9b0f	-0.37422988
75	0x3e5c10fc	0.21490854
76	0x3d948c1a	0.07253285
77	0xbed49ad0	-0.41524363
78	0x3ecac118	0.39600444
79	0x3ed41512	0.41422325
80	0xbea6eaaf	-0.32600924
81	0xbeac75dd	-0.33683673
82	0xbec61b13	-0.3869253
83	0xbd27a45d	-0.040928233
84	0x3e26ec67	0.16301118
85	0x3c001acb	0.007818888
86	0xbe84d502	-0.25943762
87	0x3f11d4b2	0.5696517
88	0xbddb1ef3	-0.106992625
89	0x3e2e59f4	0.17026502
90	0x3e272196	0.16321406
91	0x3ed5cf96	0.41759938
92	0xbe6fe727	-0.23428021
93	0x3e5f55a7	0.21810018
94	0x3d3d1ba6	0.046168946
95	0x3d4d2101	0.050080303
96	0x3ee38c47	0.4444296
97	0x3e7c8ec0	0.2466383
98	0xbc40e658	-0.011773668
99	0xbef7fb41	-0.4843388
100	0x3e7879b1	0.24265172
101	0x3f02e89a	0.5113617
102	0xbf0d0488	-0.5508504
103	0xbeed09b8	-0.46296477
104	0xbdee4d90	-0.116358876
105	0xbea1210b	-0.31470522
106	0xbe56fbbb	-0.20994465
107	0x3edd099a	0.43171388
108	0xbe48575e	-0.19564578
109	0x3d7382f2	0.05945105
110	0xbd043007	-0.032272365
111	0xbeb02393	-0.3440214
112	0x3c70b126	0.014690673
113	0x3e9f117e	0.31068033
114	0xbe0c6b32	-0.13712767
115	0x3efa7e6c	0.48924577
116	0x3ef7e436	0.484163
117	0x3d350f46	0.04420402
118	0x3eb48f17	0.3526542
119	0x3ebbb302	0.3666001
120	0x3e8f86fd	0.28032675
121	0xbe5c46f4	-0.21511441
122	0x3ed595d3	0.4171587
123	0x3d9d3137	0.076754026
124	0x3e29f037	0.16595541
125	0xbc1600d8	-0.009155475
126	0x3ea6e7f2	0.32598835
127	0xbd296e98	-0.041365236
128	0x3df2b502	0.11850931
129	0xbef20784	-0.4727136
130	0xbf03e135	-0.51515514
131	0x3e8c8be5	0.2745048
132	0xbe799671	-0.24373795
133	0x3ee4231c	0.44558036
134	0x3e32b904	0.1745339
135	0x3ec9134d	0.39272538
136	0xbed6b45a	-0.41934472
137	0x3e823d11	0.25437215
138	0x3eb6e603	0.3572236
139	0xbe80d1c1	-0.2516003
140	0xbef98c99	-0.4874008
141	0x3eb7b1d5	0.35877863
142	0x3d7f1961	0.062280063
143	0x3e58d2ce	0.21174166
144	0xbe054a20	-0.13016558
145	0x3ea3eea9	0.3201802
146	0xbe5493d1	-0.20759512
147	0x3e7bd732	0.24593809
148	0xbea28966	-0.31745452
149	0xbec1dddf	-0.37864587
150	0x3e39e940	0.18155384
151	0x3dfefda1	0.124507196
152	0xbc0308be	-0.00799769
153	0xbe215bf6	-0.15757737
154	0x3df54a96	0.11977117
155	0xbd373fb3	-0.044738483
156	0xbd988ebe	-0.07449101
157	0x3c9fe50a	0.019518394
158	0xbe895812	-0.26825005
159	0x3e9fdbd4	0.31222403
160	0xbee21c7f	-0.44162366
161	0xbe126057	-0.14294563
162	0x3f04c094	0.5185635
163	0xbea736ce	-0.32659
164	0xbe779444	-0.24177653
165	0xbf0daee7	-0.55345005
166	0x3e89245f	0.2678556
167	0x3d84a827	0.06477385
168	0x3e6c6570	0.2308557
169	0xbeba2397	-0.36355278
170	0x3ee5eb49	0.4490607
171	0x3eab88c5	0.33502784
172	0xbed293fb	-0.41128525
173	0xbab5b239	-0.0013862319
174	0xbea0fa75	-0.31441084
175	0x3ef4c86b	0.47809157
176	0x3ed7b6af	0.42131564
177	0xbe3b6710	-0.18301034
178	0x3eb5da34	0.35518038
179	0xbe992b6e	-0.29915947
180	0x3f169170	0.5881567
181	0xbd57293f	-0.05252957
182	0x3e5ad2d3	0.21369486
183	0x3e3e98f7	0.18613039
184	0xbd9aa110	-0.075502515
185	0xbe8e343b	-0.27774224
186	0xbea21cfc	-0.31662738
187	0xbe81f4d4	-0.25382102
188	0x3efc381c	0.49261558
189	0xbebd7674	-0.37004435
190	0xbd8ce44d	-0.068794824
191	0xbebd5632	-0.36979824
192	0x3d2f4f0e	0.0428
193	0xbea0082c	-0.31256235
194	0x3d3749f5	0.044748265
195	0xbd03936d	-0.032123018
196	0x3e8cfc1c	0.27536094
197	0xbe43b43f	-0.19111727
198	0x3e7a295e	0.24429843
199	0x3e04cb7c	0.12968248
200	0xbe38b175	-0.18036444
201	0x3ef28278	0.47365165
202	0x3ef8b956	0.485789
203	0x3d58d998	0.05294189
204	0x3eb151a7	0.34632608
205	0xbe3c3554	-0.18379718
206	0x3ef53579	0.4789236
207	0x3e066095	0.1312278
208	0xbc0eed63	-0.00872359
209	0xbe2295ed	-0.15877505
210	0x3e987c35	0.29782262
211	0x3edcf1b2	0.4315315
212	0xbe343d53	-0.17601518
213	0x3e7c39d4	0.24631435
214	0xbe4fec92	-0.20305088
215	0xbef81d49	-0.48459843
216	0xbeb9814c	-0.36231458
217	0x3e317785	0.1733075
218	0x3e76eadc	0.24113029
219	0x3ed05c3b	0.40695366
220	0x3e6213e0	0.22077894
221	0x3eb0f01d	0.34558192
222	0xbe720e89	-0.23638357
223	0x3e47a946	0.19498166
224	0xbe639d34	-0.22227937
225	0x3eede5c6	0.46464366
226	0x3e4911ca	0.19635692
227	0xbef20132	-0.47266537
228	0x3e4281c2	0.18994811
229	0xbee6de33	-0.450914
230	0xbd6ee9cf	-0.058328446
231	0x3e3be3b4	0.1834858
232	0x3dae366e	0.085064754
233	0x3ea361e4	0.31910622
234	0xbed54ee1	-0.41661742
235	0xbb88a5de	-0.0041701635
236	0xbe5dea97	-0.2167152
237	0x3d85db5e	0.065359816
238	0xbcdbd1de	-0.02683347
239	0xbeb8c792	-0.3608976
240	0x3dadf616	0.08494203
241	0x3e9711a6	0.29505652
242	0x3e0eafaa	0.13934198
243	0x3eb32d18	0.3499534
244	0xbeec9463	-0.4620696
245	0xbec75cbf	-0.38937947
246	0x3e03ed6a	0.12883535
247	0xbebc5049	-0.36780003
248	0xbeced49b	-0.4039658
249	0xbe8cc509	-0.27494076
250	0x3e049329	0.12946762
251	0x3eb3d220	0.3512125
252	0x3e63d38a	0.22248664
253	0xbe8e3558	-0.27775073
254	0x3ed14bca	0.40878135
255	0xbeb450aa	-0.35217792

VAE_Decoder.layers.1.linear0.bias f4 [128]
0	0xbee28607	-0.4424288
1	0x3e5e85bb	0.21730702
2	0xbe9a7967	-0.30170748
3	0x3e84b31f	0.2591791
4	0x3e07a1cb	0.13245313
5	0xbeb7db55	-0.35909525
6	0x3df47339	0.119360395
7	0xbd99c6d7	-0.07508629
8	0x3e0b66ed	0.13613482
9	0xbeb0b1d3	-0.3451067
10	0xbed62cf8	-0.41831183
11	0xbe65093f	-0.22366808
12	0xbebecf1a	-0.3726738
13	0xbeee48ad	-0.46539822
14	0xbe971909	-0.29511288
15	0xbeaa6d16	-0.3328635
16	0x3e09a426	0.13441524
17	0x3e460f53	0.19341783
18	0xbeb22ea8	-0.3480122
19	0x3d432b40	0.04764867
20	0xbe55b14f	-0.20868419
21	0x3d8443f8	0.064582765
22	0x3d866f23	0.065641664
23	0xbeadd328	-0.33950162
24	0x3e58b13f	0.21161364
25	0xbe2a9f00	-0.16662216
26	0xbe86c593	-0.26322612
27	0xbe8b3477	-0.27188465
28	0x3e63edbc	0.22258657
29	0xbeafbb66	-0.3432266
30	0x3ee3f26d	0.44520894
31	0xbe2841b3	-0.16431312
32	0xbef8bf6c	-0.48583543
33	0xbe6cbed3	-0.23119669
34	0x3e557594	0.20845634
35	0x3df5d8e5	0.1200426
36	0xbde7035e	-0.11279939
37	0x3eb94160	0.3618269
38	0x3eaaf6fa	0.33391553
39	0x3e8d2452	0.27566773
40	0xbdf1eb8e	-0.118125066
41	0x3cd7cf4e	0.026343968
42	0xbe4c3fdc	-0.19946235
43	0xbd72f501	-0.059315685
44	0xbe4b2364	-0.19837719
45	0xbec44cc8	-0.3833983
46	0x3db476a4	0.088116914
47	0x3e39d6bb	0.1814832
48	0x3c0d9885	0.0086423205
49	0x3ef06dd5	0.46958795
50	0xbe8a4664	-0.2700683
51	0x3e0ab4c6	0.13545522
52	0xbe76495f	-0.24051426
53	0x3ef7167b	0.4825934
54	0x3ce73cfd	0.028227324
55	0xbddd97dd	-0.10819981
56	0x3e097000	0.13421631
57	0x3e56bca7	0.20970403
58	0xbc7c4488	-0.0153971985
59	0xbe7982d5	-0.24366315
60	0xbdbfc1da	-0.09363146
61	0xbe5a896f	-0.2134149
62	0x3cfe2e1b	0.031027844
63	0x3ea27d14	0.31736052
64	0xbbb2c3be	-0.005455463
65	0xbedf9470	-0.43667936
66	0x3ebd2de5	0.36949077
67	0x3f0f64fb	0.5601346
68	0xbeaf3d72	-0.34226567
69	0xbdea5132	-0.11441268
70	0x3cfa5c83	0.030561691
71	0x3ec67d72	0.38767582
72	0x3f07c9a9	0.53042084
73	0xbed4b17c	-0.4154166
74	0xbd0c2aa8	-0.034220368
75	0x3eaf04a0	0.34183216
76	0x3c146d78	0.0090593025
77	0x3d81b893	0.06334033
78	0xbdbe48c2	-0.09291221
79	0x3e9b4eb7	0.30333492
80	0x3e642858	0.22281015
81	0x3e147880	0.14499092
82	0x3d2abeea	0.041685976
83	0xbe4abaa9	-0.19797768
84	0xbeaac621	-0.33354285
85	0xbec5b376	-0.3861348
86	0x3eae0d46	0.33994502
87	0x3e827f24	0.25487626
88	0xbe0190f5	-0.12652953
89	0x3dcfa620	0.10139108
90	0xbebd7c5f	-0.3700895
91	0x3e79cb48	0.24393952
92	0x3e286a19	0.16446723
93	0xbe1d15c2	-0.15340331
94	0xbe518714	-0.20461684
95	0xbdf066ec	-0.11738381
96	0xbc8cc591	-0.01718405
97	0xbebad085	-0.36487213
98	0x3df9c35e	0.121954665
99	0x3db7714c	0.089571565
100	0x3e7590fd	0.2398109
101	0xbe9fb0cf	-0.31189582
102	0x3ee6debe	0.45091814
103	0xbe410fa3	-0.18853621
104	0x3edaf7ae	0.4276709
105	0xbe8d0a1d	-0.27546778
106	0xbc511d87	-0.0127633875
107	0x3e98c1a1	0.29835227
108	0x3ec236d0	0.37932444
109	0xbeabc732	-0.3355041
110	0x3e799a78	0.24375331
111	0x3e2d692d	0.16934653
112	0xbefc7a67	-0.49312136
113	0xbe887beb	-0.26657042
114	0x3e802707	0.25029776
115	0x3edcc93f	0.4312229
116	0xbe87acf2	-0.26499134
117	0x3e269f2f	0.16271661
118	0xbe769510	-0.240803
119	0x3e193d06	0.14964685
120	0x3ea9b1d3	0.33143482
121	0x3e3d2618	0.18471563
122	0x3eaee9d8	0.34162784
123	0x3d252a3a	0.040323474
124	0x3edb860b	0.42875704
125	0x3e7f7fd5	0.24951108
126	0xbece98db	-0.40350994
127	0xbe261dac	-0.16222256

VAE_Decoder.layers.1.linear1.weight f4 [4, 128]
0	0xbdae3ddf	-0.08507895
1	0xbb7031ce	-0.003665078
2	0x3c9cf3ed	0.019159282
3	0xbc812a22	-0.01576716
4	0xbb028a85	-0.001991899
5	0x3d046e56	0.032331787
6	0xbd872ff1	-0.06600941
7	0xbc8dae58	-0.017295048
8	0xbd6d2aea	-0.057902254
9	0x3ca4d136	0.02011929
10	0xbdc4410e	-0.09582721
11	0x3d83b57e	0.06431101
12	0x3dafebee	0.08589922
13	0x3dc24060	0.09484935
14	0x3d087a89	0.033319984
15	0xbdb89d3b	-0.09014364
16	0x3da0bde0	0.07848716
17	0xbb05c34f	-0.0020410602
18	0x3d04cebd	0.032423723
19	0x3cde95e8	0.02717109
20	0x3c3de263	0.011589619
21	0x3c660c40	0.014041007
22	0xbc2d8e04	-0.010592941
23	0xbc971051	-0.018440397
24	0xbce7e728	-0.028308466
25	0xbd6f2aa1	-0.058390263
26	0x3d62856c	0.055303022
27	0xbd7eef2d	-0.062239815
28	0x3da96041	0.08270312
29	0xbd7ce8df	-0.06174552
30	0x3e04a2bb	0.12952702
31	0xbd2af551	-0.04173786
32	0x3d8b5746	0.068037555
33	0x3d35f6fd	0.044425
34	0xbccb8135	-0.024841884
35	0xbd720c35	-0.059093673
36	0xbcf88664	-0.03033752
37	0x3b9fe42f	0.0048794965
38	0x3da57d5e	0.080805525
39	0x3d40f98d	0.04711299
40	0x3d8d6b1f	0.06905197
41	0xbcba1c39	-0.022718536
42	0x3db4b1b6	0.08822958
43	0xbd2a5c18	-0.041591734
44	0x3d20a748	0.03922203
45	0xbd595cf8	-0.053067178
46	0xbe09ab8c	-0.13444346
47	0xbcdbdef5	-0.026839713
48	0x3d81bd40	0.06334925
49	0xbd262904	-0.04056646
50	0x3dbc4286	0.09192376
51	0x3d014d4a	0.03156785
52	0x3d013884	0.031548038
53	0x3d7ca62c	0.06168191
54	0xba012e31	-0.00049278425
55	0xbd97d362	-0.07413365
56	0xbd27de62	-0.040983565
57	0x3dabdbdf	0.083915465
58	0xbdc82b60	-0.09773898
59	0x3c88935f	0.016671835
60	0x3dc128b3	0.09431591
61	0x3d984493	0.074349545
62	0xbbfbcc86	-0.007684293
63	0x3da03928	0.07823402
64	0xbd981d74	-0.07427493
65	0xbc55e056	-0.013053974
66	0xb9e4f5c0	-0.00043670647
67	0x3c8a7b0c	0.016904376
68	0xbd09fe48	-0.033689767
69	0xbd9fd0ba	-0.07803483
70	0x3cf35545	0.029703746
71	0xbd97989e	-0.07402156
72	0x3d18b1d2	0.037278958
73	0x3d1a2c14	0.037639692
74	0xbd7d6c6d	-0.06187098
75	0xbca07d63	-0.019591039
76	0xbdbddc79	-0.092705674
77	0xbe100d50	-0.14067578
78	0xbbc8eab6	-0.0061314953
79	0x3d90ebc5	0.070762195
80	0x3db3b2fa	0.087743714
81	0x3df5d380	0.12003231
82	0xbda66223	-0.08124187
83	0x3ca67c76	0.02032302
84	0xbd2ed45b	-0.042682987
85	0x3cf17b50	0.029477745
86	0x3dcca2ed	0.09992013
87	0xbcb773b3	-0.022394037
88	0xbd482fca	-0.0488737
89	0x3c6d7cc7	0.014495081
90	0x3da58015	0.0808107
91	0xbdf166b9	-0.11787171
92	0xbcc54570	-0.024080962
93	0x3b33056c	0.0027316464
94	0x3dcc9a96	0.099904224
95	0x3d2fe5f6	0.042943917
96	0xbd9a5d03	-0.07537272
97	0x3d25907e	0.040421
98	0x3da0d5e9	0.078533
99	0xbdb5f820	-0.08885217
100	0x3dc4fe9c	0.096188754
101	0xbd86311b	-0.06552335
102	0xbd1075b3	-0.035268497
103	0x3e113c94	0.14183265
104	0x3c9be1af	0.019028513
105	0xbe6eea35	-0.2333153
106	0x3d99dc4a	0.0751272
107	0xbcfe063a	-0.031008828
108	0xbcdcdab2	-0.02695975
109	0x3c795dd3	0.015220123
110	0x39d65870	0.00040883152
111	0x3cf5bfca	0.029998679
112	0x3d7b7ed5	0.061400253
113	0x3d82db5b	0.06389495
114	0x3d1c6cbd	0.03818964
115	0x3d530074	0.051514104
116	0xbcb733be	-0.02236354
117	0xbd26da34	-0.04073544
118	0xbce23e0b	-0.027617475
119	0x3d5dd483	0.054157745
120	0x3db2be6f	0.087277286
121	0x3def9a49	0.116993494
122	0x3ba49d59	0.00502364
123	0xbd0cd17b	-0.034379464
124	0x3c3d7ed6	0.011565885
125	0x3d74dc24	0.059780255
126	0x3abc15fc	0.0014349814
127	0x3daafabb	0.08348604
128	0x3db8f36a	0.090308025
129	0xbc650644	-0.013978545
130	0xbdaf2f60	-0.08553958
131	0x3d1ded01	0.038556103
132	0x3d91f85b	0.07127448
133	0xbc19a23d	-0.0093770595
134	0x3c517a44	0.012785498
135	0x3d322b17	0.043498125
136	0x3d9642e9	0.07336981
137	0xbd6cc8c0	-0.057808638
138	0xbd2ac86f	-0.041695055
139	0xbe2432fa	-0.16035071
140	0xbcce3afa	-0.025174607
141	0xbdaa93fd	-0.08329008
142	0xbd4e7b82	-0.050410755
143	0x3c88a79e	0.016681489
144	0xbd04e962	-0.032449134
145	0xbdf2715c	-0.11838028
146	0x3dcd3353	0.10019555
147	0x3d46c861	0.04853094
148	0xbd19c568	-0.037541777
149	0x3db24151	0.08703864
150	0x3d672f1e	0.05644142
151	0xbdbaef56	-0.09127681
152	0xbc57d811	-0.013174073
153	0x3c827df7	0.015929205
154	0x3d3d8cb6	0.04627677
155	0xbd5290a5	-0.051407475
156	0xbca0f6c2	-0.019648913
157	0x3e010c61	0.12602378
158	0x3d901463	0.070351385
159	0x3d20565c	0.03914486
160	0xbca7bb44	-0.020475037
161	0xbd340f2b	-0.043959778
162	0x3cb6080f	0.02222064
163	0xbdc3e127	-0.09564429
164	0x3dc19b70	0.094534755
165	0x3ce28ef8	0.027656063
166	0xbaeb19cb	-0.0017936764
167	0x3e2555f0	0.16146064
168	0xbdab4ba8	-0.0836404
169	0xbc7cbdff	-0.015426158
170	0x3d750a9a	0.059824564
171	0x3df65007	0.12026983
172	0xbd9d963c	-0.076946706
173	0x3e16fb69	0.14744343
174	0x3d8b8e9e	0.068143114
175	0xbd8f01fc	-0.069828
176	0x3dac5767	0.08415108
177	0xbdaf89f4	-0.08571234
178	0x3d949750	0.07255423
179	0xbda3f172	-0.080050364
180	0x3b3b7ac7	0.0028607117
181	0xbca66a9e	-0.02031451
182	0x3c27bac3	0.010237399
183	0x3b81ba1b	0.003958953
184	0x3c0b2262	0.008492084
185	0x3d49b7dc	0.049247608
186	0x3c51852a	0.012788096
187	0x3d4a9d62	0.0494665
188	0x3d44b8d4	0.04802783
189	0xbdc85484	-0.09781745
190	0x3c906d18	0.017630145
191	0xbd1f8257	-0.03894266
192	0x3d6bfc0a	0.05761341
193	0x3d868b11	0.065694936
194	0xbd21a126	-0.039460324
195	0xbc91980e	-0.0177727
196	0xbc81bdcd	-0.015837574
197	0xbce53e78	-0.027983889
198	0xbd920553	-0.07129922
199	0xbd781615	-0.060567934
200	0xbe0165c8	-0.12636483
201	0x3dba42af	0.0909475
202	0x3d389ca9	0.045071278
203	0x3d56c02a	0.052429356
204	0xbd6a3fa7	-0.05718961
205	0xbd3b03a1	-0.045657758
206	0xbe012d5d	-0.12614961
207	0xbdbd5ee9	-0.09246618
208	0xbd97738d	-0.073950864
209	0x3d98fbee	0.07469927
210	0xbd819b9b	-0.063285075
211	0xbcfd0a5a	-0.030888725
212	0x3d309453	0.043110203
213	0xbd119a60	-0.035547614
214	0xbc28a7ca	-0.01029391
215	0x3b0d2fda	0.0021543414
216	0xbdc40eb0	-0.09573114
217	0x3c93ff46	0.01806606
218	0x3cc45eaf	0.02397093
219	0xbd40daaa	-0.047083534
220	0x3cd65823	0.026165074
221	0xbdd3ba9c	-0.10338327
222	0xbdaabd0a	-0.083368376
223	0xbd27bf7a	-0.04095409
224	0xbdae8217	-0.085209064
225	0xbc79aec0	-0.015239418
226	0xba6e0dfa	-0.0009081062
227	0x3d90fc07	0.070793204
228	0xbd87106b	-0.06594928
229	0x3bcebdc5	0.0063092434
230	0xbdd95390	-0.106116414
231	0xbdce3257	-0.10068195
232	0x3b78259c	0.0037864214
233	0x3e600980	0.21878624
234	0xbd562def	-0.0522899
235	0xbcd50fbb	-0.026008477
236	0xbd418286	-0.047243617
237	0x3c5bd8ce	0.0134183895
238	0xbdf1b546	-0.11802153
239	0x3dbba836	0.09162943
240	0xbd18f789	-0.037345443
241	0x3d88fc10	0.06688702
242	0xbd1a22ac	-0.037630722
243	0x3d5dd9d5	0.05416282
244	0xbd2b4892	-0.041817255
245	0xbd900a5b	-0.07033225
246	0x3b392423	0.00282503
247	0x3d866b4e	0.065634355
248	0xbba02166	-0.004886794
249	0xbd45fecc	-0.048338696
250	0xbdab92fc	-0.083776444
251	0xbd24ccee	-0.0402345
252	0xbceb295a	-0.028706241
253	0x3c9fe2f7	0.019517405
254	0xbda3bf0e	-0.07995425
255	0xbd269e85	-0.04067852

VAE_Decoder.layers.1.linear1.bias f4 [4]
0	0xbd17dd51	-0.0370763
1	0xbc5dffaa	-0.013549725
2	0x3d06107b	0.03273056
3	0xbdf6db8f	-0.12053596

VAE_Decoder.layers.1.norm1.weight f4 [4]
0	0x3f824168	1.017621
1	0x3f8925ca	1.0714657
2	0x3f94812a	1.1601918
3	0x3f8b2d5d	1.0873219

VAE_Decoder.layers.1.norm1.bias f4 [4]
0	0xbc5abb1e	-0.013350276
1	0xbde97362	-0.11398961
2	0x3e05cff9	0.13067617
3	0xbc63e37f	-0.01390922

VAE_Decoder.layers.1.norm0.weight f4 [4]
0	0x3f756b21	0.9586659
1	0x3f76b638	0.96371794
2	0x3f824141	1.0176164
3	0x3f870fc8	1.0551691

VAE_Decoder.layers.1.norm0.bias f4 [4]
0	0x3ce62505	0.028093824
1	0x3cdc9b58	0.026929542
2	0x3c21fe94	0.009887356
3	0x3c8eff43	0.017455703

VAE_Decoder.last_normalization.weight f4 [4]
0	0x3f800000	1.0
1	0x3f800000	1.0
2	0x3f800000	1.0
3	0x3f800000	1.0

VAE_Decoder.last_normalization.bias f4 [4]
0	0x00000000	0.0
1	0x00000000	0.0
2	0x00000000	0.0
3	0x00000000	0.0

VAE_Decoder.head.weight f4 [4, 4]
0	0x3ec65a08	0.38740563
1	0xbd61b1b0	-0.055101097
2	0xba47ac00	-0.00076168776
3	0x3e10de94	0.14147407
4	0xbe8c80e0	-0.27442074
5	0xbea22214	-0.31666625
6	0xbeda3760	-0.42620373
7	0x3e0b1350	0.13581586
8	0xbe5d7be4	-0.21629292
9	0x3eb9e702	0.36309057
10	0x3e27e4e0	0.16395903
11	0xbd3c7f30	-0.046019733
12	0x3daaa968	0.08333093
13	0xbebefb8a	-0.37301284
14	0xbee51e5a	-0.4474972
15	0xbe37282c	-0.17886418

VAE_Decoder.head.bias f4 [4]
0	0x3d5889c0	0.052865744
1	0x3ed5750c	0.41690862
2	0x3e999182	0.29993826
3	0x3eb6c7e6	0.35699385

Detokenizer.weight f4 [2, 4]
0	0xbe535d0a	-0.2064096
1	0x3f154cbf	0.5832023
2	0x3ef1fc18	0.47262645
3	0xbc42ca2d	-0.011889023
4	0x3e439223	0.19098715
5	0xbf1e036c	-0.6172397
6	0x3e8602b2	0.2617393
7	0x3e9a640c	0.30154455

Detokenizer.cat_recons.0.weight f4 [3, 4]
0	0x3e9e7c9e	0.3095445
1	0xbea11740	-0.3146305
2	0x3f36a1c2	0.7134057
3	0xbea4858f	-0.32133147
4	0xbefefc25	-0.49801746
5	0xbd661c0f	-0.056179103
6	0x3d4f9662	0.050680526
7	0x3c194037	0.009353689
8	0x3e9f15c5	0.31071296
9	0x3f2afb05	0.66789275
10	0x3ef1a07d	0.47192755
11	0x3e5821c7	0.21106635

Detokenizer.cat_recons.0.bias f4 [3]
0	0xbec99d0c	-0.3937763
1	0x3dfc1a84	0.12309745
2	0xbe2a802a	-0.16650453
