restsyn/tabsyn/vae/ckpt/sevenblobs_cond/encoder.pt (torch, 21872 bytes, 33 tensors)

Tokenizer.weight f4 [3, 4]
0	0xbd3b7d95	-0.04577406
1	0x3d9ccb33	0.07655945
2	0xbe5d2666	-0.21596679
3	0x3e4e1a69	0.20127262
4	0xbe32a351	-0.17445113
5	0x3d313e1e	0.04327213
6	0x3e61269c	0.21987385
7	0x3e13424d	0.1438076
8	0xbeb75117	-0.35804054
9	0xbe283b6f	-0.16428922
10	0xbc0616d1	-0.008184151
11	0xbeab4190	-0.33448458

Tokenizer.bias f4 [3, 4]
0	0x3e9f8f0a	0.31163818
1	0xbeaaf2eb	-0.33388457
2	0x3ea0e2e2	0.31423098
3	0xbe2846cc	-0.16433257
4	0x3ee7ecc8	0.45297837
5	0xbd58bf80	-0.052917004
6	0xbedc7340	-0.4305668
7	0xbefd2663	-0.4944335
8	0xbeb09bab	-0.34493765
9	0xbea617ed	-0.3244013
10	0x3e88b168	0.2669785
11	0x3eb3f741	0.35149577

Tokenizer.category_embeddings.weight f4 [3, 4]
0	0xbddc3897	-0.10752981
1	0xbe97fc45	-0.29684654
2	0xbd9e1488	-0.0771876
3	0x3c7316c7	0.0148369735
4	0x3ee51939	0.44745806
5	0x3e682856	0.22671637
6	0xbee9c983	-0.45661554
7	0x3e174c51	0.14775206
8	0x3ef4080b	0.47662386
9	0x3e0f214d	0.13977547
10	0x3d676a20	0.056497693
11	0x3f035d55	0.5131429

VAE_Encoder.layers.0.attention.W_q.weight f4 [4, 4]
0	0x3d7fffaa	0.06249968
1	0x3d379d7d	0.044827927
2	0xbe98fc95	-0.29880205
3	0x3e225991	0.1585448
4	0xbedf472b	-0.43608984
5	0xbe532c68	-0.20622408
6	0xbefe6e75	-0.49693647
7	0x3ea4406e	0.32080406
8	0xbe4b1b2b	-0.19834583
9	0x3d6ce077	0.057831254
10	0xbd51fe06	-0.051267646
11	0x3ead19dc	0.33808792
12	0xbea5a65c	-0.32353485
13	0xbd92e5b4	-0.07172719
14	0x3e67a4ab	0.2262141
15	0x3ea37aea	0.31929713

VAE_Encoder.layers.0.attention.W_q.bias f4 [4]
0	0xbc54bdb5	-0.012984683
1	0xbe01f68b	-0.12691705
2	0x3e200cce	0.15629885
3	0x3e181ed3	0.14855509

VAE_Encoder.layers.0.attention.W_k.weight f4 [4, 4]
0	0xbf1d88a8	-0.61536646
1	0xbee6138a	-0.44936782
2	0x3e775655	0.24154027
3	0xbe65948e	-0.2241995
4	0xbe7b1bc8	-0.24522316
5	0x3dcd39e5	0.10020808
6	0x3de11257	0.10989826
7	0xbee7adb6	-0.45249718
8	0xbed54da2	-0.41660792
9	0x3d4e64ab	0.050388973
10	0xbd60c55e	-0.054875724
11	0x3eca63c3	0.39529237
12	0xbe2b4513	-0.16725568
13	0x3d18a43a	0.037265994
14	0x3e4720dd	0.1944613
15	0x3ed34618	0.41264415

VAE_Encoder.layers.0.attention.W_k.bias f4 [4]
0	0xb8934e34	-7.024073e-05
1	0xb98105eb	-0.00024609207
2	0x38b79335	8.7535394e-05
3	0xb8c27cb4	-9.273869e-05

VAE_Encoder.layers.0.attention.W_v.weight f4 [4, 4]
0	0x3d8c0f2d	0.06838832
1	0xbe39394a	-0.1808826
2	0xbe83a33f	-0.25710484
3	0x3e043b94	0.12913352
4	0x3e95edc4	0.29282963
5	0xbe8b45e1	-0.2720175
6	0x3dc55cb8	0.09636825
7	0x3e2bef56	0.16790518
8	0x3e8c32b3	0.2738243
9	0x3eb8bce3	0.3608161
10	0x3e57735f	0.21040104
11	0x3e9cdcdf	0.3063726
12	0x3ed4a54f	0.4153237
13	0x3ed67f1c	0.41893852
14	0xbe674e32	-0.22588423
15	0xbe66800d	-0.22509785

VAE_Encoder.layers.0.attention.W_v.bias f4 [4]
0	0x3dcc5abc	0.09978244
1	0xbd7c9277	-0.061663117
2	0xbd40c713	-0.047064852
3	0xbcdf42b4	-0.027253486

VAE_Encoder.layers.0.linear0.weight f4 [128, 4]
0	0xbc1c8264	-0.009552572
1	0xbea44455	-0.32083383
2	0xbe012070	-0.1261003
3	0x3df32120	0.118715525
4	0xbde4a93d	-0.11165092
5	0xbdc1cbae	-0.09462677
6	0x3e84a3d7	0.2590625
7	0x3c8ed5e1	0.01743597
8	0xbdf714b5	-0.120644964
9	0xbed991f3	-0.42494163
10	0x3d2d57a7	0.04231992
11	0x3e6bb06f	0.23016523
12	0x3ea43a18	0.32075572
13	0x3ee33d1b	0.44382557
14	0xbe17ef79	-0.14837445
15	0xbe67c066	-0.22631988
16	0x3e4f9888	0.2027303
17	0x3eac0708	0.33599114
18	0xbd28f83c	-0.04125236
19	0x3ebdc48a	0.3706401
20	0x3d518975	0.05115648
21	0xbdeada7c	-0.11467454
22	0x3ea7978c	0.3273281
23	0x3ef2d4d9	0.47428015
24	0x3e75c9de	0.24002787
25	0x3e06e359	0.13172664
26	0xbe4e533c	-0.20148939
27	0xbeb444ae	-0.35208648
28	0x3e4b5e3d	0.19860168
29	0xbee9e0d4	-0.45679343
30	0x3de17b0c	0.110097975
31	0xbf043617	-0.51645035
32	0xbd8ff841	-0.070297725
33	0x3edde7fe	0.43341058
34	0xbea0696e	-0.31330436
35	0x3e75d267	0.24006043
36	0x3ef53c6d	0.47897664
37	0xbe984ef1	-0.29747728
38	0x3ee06bec	0.43832338
39	0xbf012e65	-0.5046142
40	0x3f01f8e8	0.50770426
41	0x3edc6d1b	0.4305199
42	0x3e8b2eab	0.27184042
43	0x3ed068f9	0.40705088
44	0xbee61eae	-0.44945282
45	0x3f2072d3	0.6267521
46	0x3e58e241	0.21180059
47	0x3d8659ef	0.06560122
48	0xbed13605	-0.40861526
49	0x3cb612a4	0.022225685
50	0x3e3f07e3	0.18655352
51	0xbee4e986	-0.44709414
52	0x3e4693c3	0.19392304
53	0x3e2a0601	0.16603853
54	0x3ed0b1a5	0.40760532
55	0x3e9238cd	0.2855896
56	0xbee3e5c0	-0.44511223
57	0xbe358147	-0.17725097
58	0xbc80851c	-0.015688471
59	0xbe9a8fb4	-0.30187762
60	0x3d386935	0.04502221
61	0xbed9af37	-0.4251649
62	0x3ea55775	0.32293287
63	0x3df6130e	0.12015353
64	0xbe9b7094	-0.30359328
65	0x3e321a72	0.173929
66	0x3ee001f7	0.437515
67	0xbe970a83	-0.29500207
68	0xbd212aac	-0.039347336
69	0xbe733abe	-0.23752877
70	0x3ed7d133	0.42151794
71	0xbec87c70	-0.39157438
72	0xbf12f6ba	-0.57407725
73	0xbe0cc1fb	-0.13745873
74	0x3eb641f6	0.355972
75	0xbebd2b3c	-0.36947048
76	0x3ee71e8a	0.45140487
77	0xbeb8564f	-0.36003348
78	0x3c4b88a3	0.012422713
79	0xbee1b95d	-0.44086733
80	0xbddb401b	-0.107055865
81	0x3d983709	0.07432372
82	0xbe417fc0	-0.18896389
83	0x3c6ad913	0.014333981
84	0x3e5d6093	0.21618871
85	0xbdc7379d	-0.09727404
86	0xbea67993	-0.3251463
87	0xbc6745f9	-0.014115804
88	0xbde4b721	-0.111677416
89	0xbf0a2fb7	-0.5397906
90	0xbebade10	-0.36497545
91	0x3dbdb896	0.092637226
92	0xbed78896	-0.42096394
93	0xbb8a9919	-0.0042296764
94	0x3dd2c43b	0.10291334
95	0xbdad442f	-0.084602706
96	0xbe7a5b46	-0.2444888
97	0x3e747735	0.23873599
98	0x3dd731de	0.10507558
99	0x3c97aa88	0.018513933
100	0x3e7efa48	0.24900162
101	0xbe346b80	-0.17619133
102	0x3ee9f3b0	0.4569373
103	0x3eeb54de	0.45963186
104	0xbea3a2f7	-0.3196027
105	0xbdb2476c	-0.08705029
106	0x3dd7aa87	0.105305724
107	0xbe226cda	-0.15861836
108	0xbcf771ea	-0.030205686
109	0xbe9e9bad	-0.30978146
110	0x3eb041af	0.34425113
111	0xbd0c680d	-0.034278918
112	0xbd2dc4d1	-0.042424027
113	0xbe493d23	-0.19652228
114	0xbec9b792	-0.39397866
115	0xbe0f1568	-0.1397301
116	0x3ec6af0f	0.38805434
117	0x3eb2f2c2	0.34950835
118	0x3eed16ad	0.46306363
119	0x3ed24943	0.4107152
120	0xbdc0efff	-0.094207756
121	0x3e6884bf	0.22706889
122	0x3e281adc	0.16416496
123	0x3e641b67	0.22276078
124	0xbccb4ebb	-0.024817815
125	0xbecfc0d0	-0.40576792
126	0x3ee54dfe	0.44786066
127	0x3efc9155	0.4932963
128	0x3d87226b	0.065983616
129	0x3e6ea297	0.2330421
130	0xbe77fa2d	-0.24216528
131	0xbe143b0b	-0.14475648
132	0x3ee5ca26	0.4488079
133	0x3edeaff6	0.43493623
134	0xbe6109bc	-0.2197637
135	0x3e73604c	0.23767203
136	0xbe4d827d	-0.20069309
137	0xbe7e622d	-0.24842139
138	0xbe4775fe	-0.19478604
139	0xbea45558	-0.32096362
140	0xbeab5d25	-0.334695
141	0x3e108790	0.14114213
142	0x3e293aa4	0.16526276
143	0x3dc962d9	0.09833307
144	0x3eddf7c1	0.43353084
145	0xbeddeef8	-0.4334638
146	0x3eca38e9	0.39496544
147	0xbf001187	-0.50026745
148	0xbec7b69d	-0.3900651
149	0xbde9bb34	-0.11412659
150	0x3ed979f4	0.42475855
151	0xbd030879	-0.031990502
152	0x3ed824c9	0.42215565
153	0x3e68fcf8	0.2275275
154	0xbe1f3c14	-0.15550262
155	0xbd77f449	-0.060535703
156	0xbe7c5222	-0.24640706
157	0x3efffb95	0.4999663
158	0xbead9629	-0.33903626
159	0x3c02110d	0.007938636
160	0x3d9d3b11	0.07677282
161	0xbedb760a	-0.42863494
162	0xbe9c76c6	-0.30559367
163	0x3d5ff501	0.054677013
164	0xbebc7511	-0.36808065
165	0xbe327c51	-0.17430235
166	0xbe329bea	-0.17442289
167	0xbf0a6e59	-0.5407463
168	0xbecc01ca	-0.39845115
169	0x3d00331b	0.031298738
170	0xbddc1ee8	-0.107480824
171	0xbec4370b	-0.38323244
172	0x3c26ac8c	0.010172974
173	0xbeeaf569	-0.45890358
174	0xbd357056	-0.044296585
175	0x3eeef046	0.4666769
176	0x3decf013	0.11569228
177	0x3e4c63f0	0.19959998
178	0x3ea0d6c1	0.31413844
179	0xbe83563d	-0.25651732
180	0xbe29cd6d	-0.1658227
181	0x3dfed864	0.12443617
182	0xbd584549	-0.05280045
183	0x3d5373a1	0.051623944
184	0x3ed492c9	0.41518238
185	0xbdf60b7b	-0.120139085
186	0x3da24de5	0.079250135
187	0x3eb149d2	0.34626633
188	0x3eadfae3	0.33980474
189	0x3ef35f6c	0.4753374
190	0x3d20aaab	0.03922526
191	0xbe76a990	-0.2408812
192	0x3e841096	0.25793904
193	0xbe32fd92	-0.17479542
194	0x3ce9d14a	0.02854218
195	0xbe2269f4	-0.1586073
196	0xbeba8c1a	-0.36435014
197	0xbdf8cf3c	-0.12148902
198	0xbd0478d6	-0.0323418
199	0x3d60df34	0.054900363
200	0x3cb9e1e3	0.022690719
201	0x3de82230	0.11334646
202	0x3ef83faa	0.48486072
203	0xbdc299ab	-0.09501966
204	0xbe907ea2	-0.28221613
205	0x3e763004	0.24041754
206	0xbee5dab1	-0.4489341
207	0xbe657763	-0.22408824
208	0xbea0aa6e	-0.31380028
209	0xbeaa9867	-0.333194
210	0x3eec1dc5	0.46116462
211	0xbeea54cb	-0.45767817
212	0x3e545f00	0.20739365
213	0xbe619ca5	-0.22032411
214	0x3eb43239	0.35194567
215	0x3eff94d8	0.49918246
216	0x3ea5aa87	0.32356665
217	0xbe23e6f6	-0.16006073
218	0xbd3d5177	-0.04622027
219	0xbefb3c13	-0.4906927
220	0xbeab1682	-0.3341561
221	0x3e7c81c5	0.24658878
222	0x3ee88039	0.45410326
223	0xbdbae869	-0.0912636
224	0x3e66650e	0.22499487
225	0x3e240c1a	0.16020241
226	0x3e51758b	0.20454995
227	0xbe11a9e1	-0.1422496
228	0xbec0d3a8	-0.3766148
229	0xbe3495ea	-0.17635313
230	0x3eb4a485	0.35281768
231	0xbeee056f	-0.4648852
232	0x3ea02124	0.31275284
233	0xbe307b45	-0.17234524
234	0xbeb30d60	-0.34971142
235	0x3f07de18	0.53073263
236	0xbe8e923d	-0.27845946
237	0x3e9a595d	0.30146304
238	0xbef0f526	-0.47062033
239	0x3d6aa887	0.057289626
240	0x3e06501e	0.131165
241	0xbd89c423	-0.06726863
242	0x3ebe1dad	0.37132016
243	0xbe03e506	-0.12880334
244	0x3da138e4	0.07872179
245	0xbee54d33	-0.4478546
246	0xbcfa0305	-0.030519018
247	0x3e9a6c51	0.30160764
248	0xbec22116	-0.37915868
249	0xbd86dd4b	-0.06585177
250	0x3d01dcf4	0.031704858
251	0xbea5d826	-0.3239147
252	0x3eeae284	0.45875943
253	0x3e2c7c11	0.16844203
254	0xbe6999fe	-0.2281265
255	0xbdd68801	-0.104751594

VAE_Encoder.layers.0.linear0.bias f4 [128]
0	0xbe4a8cf6	-0.19780335
1	0xbeae837f	-0.340847
2	0xbe2ea564	-0.17055279
3	0x3e55aa03	0.20865636
4	0x3ec21ce2	0.3791266
5	0xbe62b433	-0.22139053
6	0x3e0f064c	0.13967246
7	0x3db76b90	0.08956063
8	0xbea0c799	-0.3140228
9	0x3d804243	0.062626384
10	0x3eb03221	0.34413245
11	0xbd326c46	-0.04356029
12	0xbe1ba927	-0.15201245
13	0x3e98a21c	0.2981118
14	0x3ea80061	0.3281279
15	0x3d363643	0.04448534
16	0xbed107f0	-0.40826368
17	0xbe8c5add	-0.27413073
18	0xbef554d3	-0.47916278
19	0x3ed18b9b	0.40926823
20	0x3e0c2d7f	0.1368923
21	0x3d6a79a0	0.057244897
22	0xbeac5f32	-0.33666378
23	0xbe86cb21	-0.2632685
24	0x3cbc5ff2	0.022994969
25	0xbef318cd	-0.4747986
26	0xbe7f5cca	-0.2493774
27	0x3e521037	0.20513998
28	0xbee62d0d	-0.44956246
29	0x3ed36d78	0.41294456
30	0x3ec1ed41	0.37876323
31	0x3e8be1e1	0.2732077
32	0xbedeabf3	-0.43490562
33	0x3ed6f92b	0.41986975
34	0x3e22e8af	0.15909074
35	0x3cdbfdbe	0.026854392
36	0xbe9c427a	-0.30519468
37	0x3e88bde4	0.26707375
38	0x3eeb091b	0.45905384
39	0x3e59d0ac	0.21271008
40	0x3eed6858	0.4636867
41	0xbe90bc16	-0.28268498
42	0x3e691c59	0.2276472
43	0xbeed14ad	-0.46304837
44	0x3eaf701e	0.34265226
45	0x3ee6d0ea	0.45081264
46	0x3db203b2	0.08692111
47	0x3efc05cb	0.4922317
48	0xbd72c6d4	-0.05927165
49	0xbee76f06	-0.45201892
50	0xbe05eaf0	-0.13077903
51	0x3ece60fc	0.40308368
52	0xbee864a6	-0.4538929
53	0x3e9e3492	0.30899483
54	0xbcc984d4	-0.02459947
55	0x3dd967ae	0.106154785
56	0x3d5a30f4	0.05326934
57	0x3e81f7e5	0.2538444
58	0xbecd85b7	-0.4014108
59	0x3e749ac9	0.23887171
60	0xbda2b5da	-0.07944842
61	0xbe29c536	-0.16579136
62	0xbe5ba45d	-0.21449418
63	0xbe9341a2	-0.2876101
64	0xbe2ae928	-0.16690505
65	0x3d1eb415	0.03874596
66	0xbe043db9	-0.1291417
67	0x3e1160cf	0.14197086
68	0x3c2c2483	0.010506752
69	0xbc63e11f	-0.0139086535
70	0xbafa6167	-0.0019102514
71	0x3de317fa	0.110885575
72	0xbe864271	-0.26222566
73	0x3e15f425	0.14643915
74	0x3cc0328d	0.023461604
75	0xbe60beae	-0.21947739
76	0xbe63bd83	-0.22240262
77	0xbe9fb24a	-0.3119071
78	0x3eec0367	0.46096346
79	0x3ee47821	0.446229
80	0xbec8a9ea	-0.39192134
81	0xbe81ba7d	-0.25337592
82	0xbe31f195	-0.17377312
83	0x3f05f943	0.5233347
84	0xbe619d00	-0.22032547
85	0x3ed9119d	0.4239625
86	0xbea9bd17	-0.33152077
87	0xbec47ab4	-0.38374865
88	0x3e0442e5	0.12916143
89	0xbed7df0d	-0.42162362
90	0x3ee93d2c	0.45554483
91	0xbee1184d	-0.43963853
92	0x3e310d10	0.17290139
93	0x3dbb87c3	0.09156754
94	0xbd6254bc	-0.05525659
95	0x3ee25568	0.44205785
96	0x3d569521	0.052388314
97	0xbef3ad58	-0.47593188
98	0x3e692fde	0.22772166
99	0xbe962b7f	-0.2933006
100	0x3da85fc1	0.082213886
101	0xbe229333	-0.15876465
102	0x3ddc7d02	0.10766031
103	0xbd903a7b	-0.07042404
104	0x3e413a5d	0.1886992
105	0x3e74e1e2	0.23914292
106	0x3e857236	0.260637
107	0xbe765a63	-0.24057917
108	0x3ea28a9d	0.3174638
109	0x3eb92abe	0.36165422
110	0x3e72ebab	0.23722713
111	0x3e6b49db	0.22977392
112	0xbee03a24	-0.43794358
113	0xbe7823da	-0.24232426
114	0xbdde4933	-0.108538054
115	0x3e9fb099	0.3118942
116	0xbe7a3f43	-0.24438195
117	0x3deb098d	0.11476431
118	0x3e6a24d7	0.22865616
119	0xbec2ad28	-0.38022733
120	0xbec9e054	-0.3942896
121	0x3e54f69e	0.20797202
122	0xbf00a144	-0.5024607
123	0x3e9a51a2	0.30140406
124	0xbead42b9	-0.33839968
125	0xbdd2a6a7	-0.10285693
126	0x3e6fe1b6	0.23425946
127	0x3e367c78	0.17820919

VAE_Encoder.layers.0.linear1.weight f4 [4, 128]
0	0xbcce16b9	-0.02515732
1	0xbc8f6045	-0.01750196
2	0x3d80024f	0.0625044
3	0x3db46107	0.08807569
4	0xbc6c89c5	-0.014437144
5	0x3dd3baa3	0.103383325
6	0x3dbcff27	0.09228354
7	0xbcb96afd	-0.022634024
8	0x3cd28cd4	0.025701918
9	0x3db1416a	0.08655055
10	0xbd43b495	-0.04777964
11	0xbe8edcb3	-0.27902755
12	0x3c970356	0.018434208
13	0xbd1b1cb2	-0.037869163
14	0xbd0dc3e6	-0.03461065
15	0xbd12ef62	-0.035872824
16	0xbd09ef76	-0.033675633
17	0xbc2f5511	-0.010701434
18	0xbba3a394	-0.0049938653
19	0x3d219fae	0.039458923
20	0xbd8cafc4	-0.06869462
21	0xbddd2e2b	-0.107998215
22	0xbde5eca7	-0.112267785
23	0xbc5b44b9	-0.013383084
24	0xbe1228ec	-0.14273423
25	0x3dd79d34	0.10528031
26	0xbdaf2939	-0.085527845
27	0x3c3d0e74	0.01153909
28	0xbdcc5104	-0.0997639
29	0x3d7b1004	0.06129457
30	0x3d8c323c	0.06845519
31	0x3d9c7a22	0.076404825
32	0xbd94126a	-0.07230075
33	0xbbd4c5e6	-0.006493318
34	0xbd2dae9b	-0.042402845
35	0xbcd2c52a	-0.02572878
36	0xbcadab83	-0.021199947
37	0x3b20d943	0.002454356
38	0xbcca0fd6	-0.024665754
39	0xbc539c31	-0.012915657
40	0xbd85b631	-0.06528891
41	0x3e5f2caa	0.21794382
42	0x3d9369d0	0.071979165
43	0x3d866a55	0.0656325
44	0xbc4b854b	-0.012421916
45	0xbc9d4ad3	-0.019200718
46	0xbda2c49b	-0.07947656
47	0x3cd4bee9	0.02596994
48	0xbda17e30	-0.078853965
49	0x3cc714e1	0.024301948
50	0xbde3dbcc	-0.11125907
51	0x3d8899c9	0.06669957
52	0xbd121730	-0.035666645
53	0xbc36ccdd	-0.011157242
54	0x3db3a3c8	0.08771473
55	0x3bee4d12	0.007272371
56	0xbc2cdb42	-0.010550322
57	0xbd65b1f2	-0.056077905
58	0xbde49b21	-0.11162401
59	0xbd1d1b62	-0.038356192
60	0xbd2b4fef	-0.041824277
61	0xbd0dbd24	-0.034604207
62	0xbd079938	-0.033105105
63	0x3d2069f0	0.03916353
64	0x3d6f5fc9	0.058440957
65	0x3d99b6ed	0.075055934
66	0x3de7e70d	0.11323366
67	0x3cac3b61	0.021024408
68	0xbb38580c	-0.0028128652
69	0xbc72baf6	-0.014815083
70	0xbcbc0004	-0.022949226
71	0x3d929fa8	0.07159358
72	0xbcfcd832	-0.030864809
73	0x3d82118f	0.06351005
74	0x3d40a41f	0.047031518
75	0xbdfd8ef7	-0.12380784
76	0x3d81b23e	0.06332825
77	0xbc77191f	-0.015081673
78	0xbd1efddf	-0.03881633
79	0x3dd78e70	0.10525215
80	0xbd184518	-0.037175268
81	0xbdd16802	-0.10224916
82	0xbe62f78d	-0.22164746
83	0x3cbd8a9b	0.023137381
84	0x3dbe9b44	0.09306958
85	0xbd877530	-0.066141486
86	0x3c784ec5	0.015155499
87	0x3d6c2f86	0.05766251
88	0xbbe59b8a	-0.007007067
89	0x3cb92cd6	0.022604387
90	0xbd89d272	-0.067295924
91	0xbd4a8163	-0.0494398
92	0x3d5c66fa	0.053809144
93	0x3d9e2e60	0.07723689
94	0x3dcc37a8	0.09971553
95	0x3c33c62f	0.010972544
96	0xbd9f8692	-0.07789339
97	0xbd9e2d50	-0.077234864
98	0x3d522d5b	0.051312786
99	0x3d176369	0.03696004
100	0x3db5b147	0.088717036
101	0xbdd07773	-0.10179033
102	0x3cf29be7	0.029615356
103	0x3cdae194	0.026718892
104	0xbbe4c9b4	-0.0069820527
105	0x3cda1a17	0.026623769
106	0x3d43e385	0.0478244
107	0x3ca70f37	0.020392997
108	0xbd8c47b7	-0.06849616
109	0x3da1c96e	0.07899748
110	0x3cfb86be	0.030703899
111	0xbcf0427c	-0.029328577
112	0xbd92d753	-0.07169976
113	0x3e230935	0.15921481
114	0xbdc2ce25	-0.09511975
115	0x3ccf359f	0.025294123
116	0x3d53eab6	0.05173751
117	0x3df7ccf6	0.1209964
118	0xbd6b2403	-0.05740739
119	0xbe02ee9d	-0.12786336
120	0xbe0c1fc4	-0.13683993
121	0xbd6f01b5	-0.058351237
122	0xbdef172b	-0.11674341
123	0xbd59221c	-0.053011045
124	0xbdcac28d	-0.09900389
125	0x3cafae05	0.021445284
126	0xbc15e573	-0.009148943
127	0x3d8af1a4	0.067843705
128	0x3d1da17c	0.03848408
129	0x3d8a51fc	0.067539185
130	0xbd9e1504	-0.07718852
131	0xbbe9237c	-0.007114826
132	0xbd622a5e	-0.055216186
133	0x3d14cfba	0.036330916
134	0xbd1b9ddd	-0.037992347
135	0xbd85c7f6	-0.0653228
136	0xbac5c269	-0.0015087846
137	0xbd39a597	-0.045323934
138	0xbdba8390	-0.09107125
139	0x3e10c54e	0.14137766
140	0xbdeaad63	-0.11458852
141	0x3da2d47c	0.079506844
142	0x3badae40	0.0053003132
143	0x3db6b39f	0.08920979
144	0xbda99435	-0.082802214
145	0x3b870b99	0.0041212556
146	0x3d9e521c	0.07730505
147	0xbd8f5390	-0.0699836
148	0x3d5bc02f	0.053650077
149	0xbd01fdd4	-0.03173621
150	0x3cb38836	0.021915536
151	0x3db83827	0.08995085
152	0x3d4d32c4	0.050097242
153	0xbdc619aa	-0.09672864
154	0x3d395fc2	0.045257337
155	0x3d205357	0.03914198
156	0xbbb12e5d	-0.0054071383
157	0xbd096809	-0.03354648
158	0x3c84ae0b	0.016196271
159	0xbca32450	-0.019914776
160	0x3d2d327c	0.042284474
161	0xbaf0c062	-0.0018367881
162	0x3d5c4639	0.053777907
163	0x3bcb8d1e	0.006211891
164	0xbdd74c3d	-0.10512588
165	0xbd87d2a2	-0.06631972
166	0x3d0072cc	0.03135948
167	0x3d644715	0.05573185
168	0x3dae81e1	0.08520866
169	0xbe5adb33	-0.2137268
170	0xbdc67e48	-0.09692055
171	0xbb702baf	-0.0036647131
172	0x3aaa17ad	0.0012977027
173	0xbd7bf82b	-0.06151597
174	0x3da5b614	0.08091369
175	0xbd95ec09	-0.07320411
176	0x3d45bfc1	0.048278574
177	0xbd665be3	-0.056239974
178	0x3da0d1f5	0.07852546
179	0xbd60465c	-0.0547546
180	0x3dab80fb	0.083742104
181	0xbd1ff796	-0.039054476
182	0xbdcc5780	-0.09977627
183	0x3bc4109f	0.0059834267
184	0xbe0b9d0e	-0.1363413
185	0x3d5fafea	0.054611124
186	0x3c477e27	0.012176073
187	0x3b71d917	0.0036903077
188	0x3c3261fb	0.010887618
189	0x3c2bd76f	0.010488375
190	0x3b88fd24	0.0041805673
191	0x3ad4f563	0.0016247447
192	0x3d160e0c	0.03663449
193	0x3d0bd7a9	0.034141216
194	0x3ca7ec17	0.020498319
195	0xbda8e3d8	-0.08246583
196	0x3c9c485c	0.019077472
197	0x3c4d088d	0.012514246
198	0x3dbb2a91	0.09138978
199	0xbd8efe19	-0.06982059
200	0x3d6662c6	0.05624654
201	0xbd617a9e	-0.055048577
202	0xbbbdafb7	-0.005788769
203	0x3de02c9c	0.109460086
204	0xbd683b5e	-0.056697242
205	0x3d0e96fc	0.03481196
206	0xbcd55bf2	-0.02604482
207	0xbd4f267f	-0.050573822
208	0xbd3a0b55	-0.045420963
209	0x3de6142b	0.112343155
210	0xbc0023fd	-0.00782108
211	0x3ab6b1e9	0.0013938519
212	0xbd069136	-0.032853328
213	0xbc96596d	-0.018353188
214	0x3dc903d3	0.098151825
215	0x3d232c06	0.039836906
216	0x3e032a2f	0.1280906
217	0xbd8d2e1e	-0.06893562
218	0x3cc18bc1	0.02362621
219	0x3e0fdb60	0.14048529
220	0x3d1d3daa	0.038388886
221	0x3b888935	0.004166747
222	0xbc038ed1	-0.008029656
223	0x3cdbb8ee	0.02682158
224	0x3c6db842	0.0145092625
225	0x3d43ac77	0.047771897
226	0x3d4ea12d	0.050446678
227	0xbd23883f	-0.039924856
228	0xbdb37cfa	-0.08764072
229	0x3daa45d0	0.08314097
230	0xbda8ff9b	-0.08251878
231	0xbd28a494	-0.04117258
232	0x3d0489b0	0.03235787
233	0x3d06d328	0.032916218
234	0x3d36b150	0.044602692
235	0x3d015942	0.031579264
236	0x3d2ee832	0.042701907
237	0xbd7f09ba	-0.062265135
238	0x3d0390ef	0.03212064
239	0x3c2332eb	0.00996087
240	0xbc717d01	-0.014739276
241	0xbda7faa3	-0.08202102
242	0x3d9c2d59	0.07625837
243	0x3deba231	0.11505545
244	0xbdabe8b9	-0.08393998
245	0xbddc8d7e	-0.10769175
246	0x3df45b5b	0.11931487
247	0x3d960c4b	0.073265634
248	0xbcb2acce	-0.021810915
249	0x3db72314	0.089422375
250	0x3d14e508	0.036351234
251	0x3bbd0457	0.0057683396
252	0xbd86b812	-0.065780774
253	0xbd9f3411	-0.07773603
254	0xbd41435d	-0.047183383
255	0x3d7bf1cc	0.061509892

VAE_Encoder.layers.0.linear1.bias f4 [4]
0	0x3da28a20	0.079365015
1	0x3bf091bd	0.007341592
2	0x3da33a81	0.07970143
3	0xbcaae134	-0.020859338

VAE_Encoder.layers.0.norm1.weight f4 [4]
0	0x3f887d7d	1.0663296
1	0x3f8bca96	1.0921199
2	0x3f839df8	1.0282583
3	0x3f7efaa2	0.99601185

VAE_Encoder.layers.0.norm1.bias f4 [4]
0	0x3dc00224	0.09375408
1	0x3d3c7d54	0.04601796
2	0xbd620a76	-0.055185758
3	0xbd015b62	-0.03158129

VAE_Encoder.layers.1.attention.W_q.weight f4 [4, 4]
0	0xbe690b68	-0.22758257
1	0x3ec5a550	0.38602686
2	0xbeb24798	-0.34820247
3	0xbf086b71	-0.5328894
4	0x3edd37da	0.43206674
5	0x3e57d557	0.21077476
6	0xbdb66328	-0.08905631
7	0x3eb20f92	0.34777504
8	0x3c41a549	0.011819192
9	0x3df46460	0.119332075
10	0x3e1f5147	0.15558349
11	0xbf33560d	-0.7005318
12	0xbe2ab45b	-0.16670363
13	0xbe82f164	-0.2557479
14	0x3e7decbe	0.24797341
15	0xbefeaabb	-0.49739632

VAE_Encoder.layers.1.attention.W_q.bias f4 [4]
0	0xbdbf7380	-0.09348202
1	0xbbae3cba	-0.0053172978
2	0xbdd4aa60	-0.10384059
3	0x3cf72be3	0.030172294

VAE_Encoder.layers.1.attention.W_k.weight f4 [4, 4]
0	0x3e9efaf4	0.31050837
1	0xbecb85ae	-0.39750427
2	0xbede52e2	-0.4342261
3	0xbeb5ee9d	-0.3553361
4	0x3e54da15	0.20786317
5	0xbe4e0b40	-0.20121479
6	0xbe0db41d	-0.13838239
7	0x3ea84624	0.32866013
8	0x3dbbdbe1	0.09172798
9	0x3dd130c3	0.10214379
10	0x3e899ee4	0.26879036
11	0xbea3dba6	-0.32003516
12	0x3edcf510	0.43155718
13	0x3e9eed2f	0.31040332
14	0xbea6b02e	-0.3255629
15	0xbdfba48b	-0.122872435

VAE_Encoder.layers.1.attention.W_k.bias f4 [4]
0	0x39996645	0.0002925863
1	0x39293ba1	0.0001613931
2	0xba85a81f	-0.0010197199
3	0x396e9111	0.0002275149

VAE_Encoder.layers.1.attention.W_v.weight f4 [4, 4]
0	0xbdb01231	-0.0859722
1	0x3eea25da	0.45732003
2	0x3e657803	0.22409062
3	0x3dce8043	0.10083058
4	0xbefaf2b7	-0.49013302
5	0x3ee462d7	0.4460666
6	0x3f04e4d8	0.5191169
7	0x3eca7032	0.39538723
8	0x3e85275d	0.26006594
9	0xbd32f70c	-0.043692634
10	0x3ec1ffd3	0.3789049
11	0x3ef0c322	0.47023875
12	0x3ee7271d	0.4514703
13	0xbef916e7	-0.48650286
14	0x3d3c3eab	0.045958202
15	0xbeaffc91	-0.3437238

VAE_Encoder.layers.1.attention.W_v.bias f4 [4]
0	0x3b6a0d86	0.0035713627
1	0x3b4f2551	0.0031607936
2	0xbc066d88	-0.008204825
3	0xbcaeeed6	-0.02135412

VAE_Encoder.layers.1.linear0.weight f4 [128, 4]
0	0x3ee209f5	0.44148222
1	0x3db20206	0.08691792
2	0x3ea5230f	0.3225331
3	0x3e8e7817	0.27825996
4	0xbe37f186	-0.17963228
5	0x3f468804	0.77551293
6	0x3e4ba5a5	0.19887407
7	0xbeb1d377	-0.34731647
8	0xbee78b59	-0.452235
9	0xbe60f7d4	-0.21969539
10	0x3ebe2c74	0.3714329
11	0xbf085f59	-0.5327049
12	0xbe2d41b5	-0.16919596
13	0xbf007734	-0.5018189
14	0xbd2de2c4	-0.04245259
15	0x3edf23a3	0.43581876
16	0x3e2edede	0.17077205
17	0xbe9f000a	-0.31054717
18	0x3eb3cd14	0.351174
19	0x3ef87471	0.48526338
20	0xbe2fc437	-0.17164694
21	0xb9c393e6	-0.0003730349
22	0x3e3a370d	0.18185063
23	0x3eba94c5	0.36441627
24	0xbe35279c	-0.17690891
25	0xbe597fa4	-0.21240097
26	0xbec3c6d0	-0.3823762
27	0xbe470efc	-0.1943931
28	0xbe8b0ddf	-0.2715902
29	0xbe02e6df	-0.12783383
30	0xbd1a75cb	-0.037709992
31	0x3e0245c0	0.1272192
32	0x3dae3263	0.08505704
33	0x3d497ded	0.049192358
34	0x3ea5a6b9	0.32353762
35	0xbe268a9e	-0.16263816
36	0x3ef39aa3	0.47578916
37	0x3e920699	0.2852066
38	0x3ecf9933	0.4054657
39	0xbef1a323	-0.47194776
40	0xbeec6d2d	-0.46177045
41	0x3ec4320c	0.38319433
42	0x3db04a8c	0.08607969
43	0xbd13740e	-0.03599935
44	0xbea6bca4	-0.32565796
45	0x3d16e7a9	0.036842022
46	0x3e02cced	0.12773485
47	0xbf100ccf	-0.56269544
48	0x3e264b52	0.1623967
49	0xbe8b6b79	-0.27230433
50	0x3b42a90f	0.0029702818
51	0x3ecc027f	0.39845654
52	0x3e8b8ee2	0.27257448
53	0xbe72019a	-0.23633423
54	0xbe5d9524	-0.21638924
55	0xbeb6b7b9	-0.35687044
56	0xbe5f756f	-0.21822141
57	0x3e7af9e1	0.24509384
58	0x3e2ac390	0.16676164
59	0xbeb0de82	-0.3454476
60	0x3ee27df0	0.44236708
61	0x3e33a814	0.17544585
62	0xbdf2249c	-0.11823389
63	0x3f02a802	0.5103761
64	0x3e43ec6d	0.19133158
65	0xbba74d0b	-0.00510562
66	0xbda6d7ef	-0.08146655
67	0x3e89cec8	0.26915574
68	0x3d63c28d	0.05560546
69	0x3e0a418b	0.13501565
70	0x3f07c104	0.53028893
71	0x3e8dd2f4	0.27700007
72	0x3ed6f2b5	0.41982046
73	0x3eb1f316	0.34755772
74	0xbf0712f1	-0.5276328
75	0xbed9e663	-0.42558584
76	0xbe819104	-0.2530595
77	0x3df3d7b6	0.11906378
78	0x3ee4d69f	0.44694993
79	0xbd129ea7	-0.035795834
80	0x3db279fc	0.08714673
81	0xbdbe12ea	-0.09280951
82	0x3e307baa	0.17234674
83	0xbead145c	-0.33804595
84	0x3d4edc5c	0.05050312
85	0xbea10899	-0.31451872
86	0x3ef74ac5	0.48299232
87	0xbe14d51e	-0.14534423
88	0xbd8d061d	-0.06885932
89	0x3ea7d895	0.32782426
90	0x3ee33c8a	0.44382125
91	0x3ede15e7	0.43376085
92	0x3e9b2baa	0.3030675
93	0x3d77d535	0.060506064
94	0x3dcdfaa5	0.10057572
95	0xbef0a10a	-0.46997863
96	0xbe18c565	-0.1491905
97	0xbee3023a	-0.44337636
98	0x3e463e77	0.19359766
99	0xbeddd935	-0.43329778
100	0xbe8faee4	-0.28063118
101	0xbee517c9	-0.4474471
102	0x3eec54e6	0.46158522
103	0x3e86df07	0.2634203
104	0xbe879e96	-0.2648818
105	0xbd2c88f6	-0.042122804
106	0x3ebee59a	0.37284547
107	0x3e72cba1	0.23710491
108	0x3eebc9c6	0.46052378
109	0x3ef0120b	0.46888766
110	0x3db8e95f	0.09028887
111	0x3e88c9a5	0.26716343
112	0x3c91a64a	0.017779488
113	0xbe0545cb	-0.13014905
114	0x3e99bf31	0.3002868
115	0x3eb36ebe	0.35045427
116	0x3f012fe6	0.5046371
117	0x3f77bc0b	0.96771306
118	0xbef96f16	-0.48717564
119	0x3f4ec55d	0.807699
120	0xbe2e4661	-0.17019035
121	0x3eb68f64	0.35656273
122	0xbe490a48	-0.19632828
123	0x3dd3e6b3	0.10346737
124	0xbee6ea7d	-0.45100775
125	0x3e18d34c	0.14924353
126	0x3e5ab6a9	0.21358742
127	0x3ea639e6	0.32466048
128	0xbec68c35	-0.38778844
129	0xbe9096bd	-0.28240004
130	0x3de1cb93	0.11025157
131	0x3ee29601	0.4425507
132	0xbeb48c67	-0.35263368
133	0x3edb9af5	0.4289166
134	0x3e74d2ff	0.23908614
135	0x3d56282a	0.052284397
136	0xbe9480d7	-0.29004547
137	0x3f20a20c	0.62747264
138	0x3e130039	0.14355554
139	0x3e191c29	0.14952148
140	0xbf03754b	-0.5135085
141	0xbdd9804b	-0.10620173
142	0x3e84fed2	0.25975662
143	0x3e9d54eb	0.3072885
144	0x3e25503c	0.16143888
145	0x3f09cfdc	0.53832793
146	0xbe97e39a	-0.29665834
147	0x3e342f10	0.17596078
148	0x39f0ac99	0.00045904962
149	0xbe868d4d	-0.2627968
150	0xbe646eb9	-0.22307862
151	0xbd6af910	-0.05736643
152	0xbe8842ea	-0.2661355
153	0x3e42dcd3	0.1902955
154	0x3e8338be	0.25629228
155	0xbea55fb8	-0.3229959
156	0xbe89685f	-0.2683744
157	0x3d0edb2f	0.034877
158	0x3ea93da5	0.33054844
159	0x3e1ee34f	0.15516399
160	0xbed94052	-0.42431885
161	0xbec7cb15	-0.39022127
162	0x3ecbf9f1	0.39839128
163	0xbc94dde8	-0.01817222
164	0x3e0631a6	0.13104877
165	0xbdf6d8e0	-0.120530844
166	0x3e61f5b9	0.22066392
167	0xbe0ec761	-0.13943245
168	0xbdb117e8	-0.08647138
169	0x3f3c6783	0.73595446
170	0xbf5a9dcd	-0.85397035
171	0x3ec5fee1	0.3867102
172	0xbecf8e02	-0.4053803
173	0x3f3edbf8	0.74554396
174	0x3ed9e9aa	0.42561084
175	0x3b366cd1	0.0027835856
176	0x3c2675a4	0.010159884
177	0x3e6df322	0.23237279
178	0x3ea0e5b5	0.31425253
179	0xbee98893	-0.4561201
180	0xbec82978	-0.39094138
181	0xbed2feb6	-0.41209954
182	0x3eb611ac	0.35560358
183	0xbee9e007	-0.45678732
184	0xbe1b405f	-0.15161274
185	0xbd5f6554	-0.054539993
186	0x3ee85b52	0.45382172
187	0xbd2a0ae1	-0.04151428
188	0xbe022233	-0.12708358
189	0x3f07f134	0.5310242
190	0x3ee71c34	0.45138705
191	0x3de021aa	0.10943921
192	0xbdae6a3c	-0.08516356
193	0xbe8140b5	-0.2524468
194	0x3c672e54	0.014110167
195	0x3e2f76e5	0.17135198
196	0xbe7fd7fd	-0.24984737
197	0x3dccbeca	0.099973276
198	0xbe7a7793	-0.24459676
199	0xbebee5f7	-0.37284824
200	0x3ecdd34e	0.40200275
201	0xbd9fb7f2	-0.07798757
202	0x3edd9076	0.43274277
203	0x3de7546a	0.112953976
204	0x3e5c284d	0.21499749
205	0xbd1dc1c7	-0.03851488
206	0x3c1eca65	0.009691809
207	0x3d4abb64	0.049495116
208	0xbe675a56	-0.22593054
209	0xbececc7d	-0.40390387
210	0x3e1ef667	0.15523683
211	0x3ddf44b4	0.10901776
212	0x3ed3bf28	0.41356778
213	0xbeb6ab93	-0.35677776
214	0xbec30980	-0.38093185
215	0x3dce9644	0.10087255
216	0x3f0001d1	0.5000277
217	0x3e721805	0.23641975
218	0x3d61ba88	0.05510953
219	0x3e272108	0.16321194
220	0xbf148a05	-0.580231
221	0x3f3a635e	0.7280787
222	0xbe875a9a	-0.2643631
223	0xbf317dfc	-0.6933286
224	0x3ec99856	0.39374036
225	0x3d030035	0.03198262
226	0xbf08e30a	-0.53471434
227	0xbe7e1e98	-0.24816358
228	0xbea2577e	-0.31707376
229	0xbea44f47	-0.32091734
230	0x3e6245d4	0.2209695
231	0x3e9b298d	0.30305138
232	0xbe8c4873	-0.27399024
233	0x3ee27f32	0.44237667
234	0x3e95f882	0.2929116
235	0xbea49481	-0.3214455
236	0x3e9e4f57	0.30919906
237	0x3eb89d9a	0.3605774
238	0xbf1395a2	-0.57650197
239	0x3e102f2e	0.14080498
240	0x3ef8db41	0.48604777
241	0xbed63c24	-0.4184276
242	0xbeadffc4	-0.33984196
243	0x3dbb9429	0.09159119
244	0xbeb2d5be	-0.34928697
245	0x3e4790f5	0.1948889
246	0x3db20fb9	0.08694405
247	0xbe37c670	-0.17946792
248	0xbe95708d	-0.29187432
249	0xbebc56e5	-0.36785045
250	0xbde43127	-0.111421876
251	0x3e8b2bd2	0.2718187
252	0xbde11036	-0.1098942
253	0xbb2e66a3	-0.002661147
254	0x3ac173c6	0.0014759235
255	0xbd7c8bd7	-0.0616568

VAE_Encoder.layers.1.linear0.bias f4 [128]
0	0x3e915040	0.28381538
1	0xbe4d2984	-0.20035368
2	0x3e7eddc6	0.24889287
3	0x3d0399ba	0.032129027
4	0x3ba92f8d	0.005163139
5	0x3e9a0b4b	0.3008674
6	0xbedcf65a	-0.431567
7	0x3c10be77	0.008834473
8	0x3db6ced6	0.089261696
9	0xbcb0de7c	-0.021590464
10	0xbe72b541	-0.23701955
11	0xbec155ef	-0.37760875
12	0x3cda8841	0.026676299
13	0x3ee4ff7c	0.4472617
14	0x3e28aadf	0.16471432
15	0x3e9b25b3	0.303022
16	0x3e1c1512	0.15242413
17	0x3e9eeb93	0.31039104
18	0x3e2e3d08	0.17015469
19	0xbf027510	-0.50959873
20	0x3dc6b11b	0.09701749
21	0x3d92f9d2	0.07176556
22	0xbeee0d7d	-0.46494666
23	0x3e2084a5	0.156756
24	0x3e945275	0.2896916
25	0x3da08727	0.07838278
26	0xbec27fd4	-0.3798815
27	0x3eec108d	0.46106377
28	0x3d965fb4	0.07342473
29	0xbe76eb96	-0.24113306
30	0x3e0785fe	0.13234708
31	0xbe89e93d	-0.2693576
32	0xbddda19b	-0.108218394
33	0xbea7d196	-0.3277709
34	0x3e4461a4	0.19177872
35	0xbe9cf5c2	-0.30656248
36	0x3e583a22	0.21115926
37	0x3ed64ee1	0.41857055
38	0x3ef1729c	0.47157753
39	0xbd293d84	-0.04131843
40	0x3d6d6a21	0.05796254
41	0x3e5435b6	0.20723614
42	0xbd21d549	-0.039510045
43	0xbe49a33c	-0.19691175
44	0x3e61570d	0.22005863
45	0xbee332a9	-0.44374588
46	0xbe5a455a	-0.21315518
47	0xbeb71760	-0.3576002
48	0xbd03e329	-0.03219906
49	0xbda8d9bd	-0.08244655
50	0xbec30585	-0.3809015
51	0xbec7f10c	-0.39051092
52	0x3e206568	0.15663683
53	0x3f074363	0.528372
54	0x3b21ee31	0.0024708624
55	0x3df19a9b	0.11797067
56	0x3ebaa5d2	0.36454636
57	0x3eb87d22	0.3603297
58	0x3d4de787	0.05026963
59	0x3e414ef9	0.18877782
60	0xbe685c35	-0.22691424
61	0x3ef746de	0.48296255
62	0x3e8003fb	0.25003037
63	0x3f0ab8f8	0.5418849
64	0x3e32d614	0.17464477
65	0xbedae7cc	-0.42754972
66	0x3ed79565	0.42106166
67	0x3ea522d3	0.3225313
68	0xbe96d81c	-0.29461753
69	0x3e8c4174	0.27393687
70	0x3e9c7f77	0.30565998
71	0xbda4fca5	-0.080560006
72	0xbe919116	-0.28431004
73	0xbd2c3cda	-0.04205022
74	0xbe8ba8c2	-0.2727719
75	0xbe93d32f	-0.28872058
76	0xbd2e8e34	-0.042616084
77	0xbd0c2304	-0.03421308
78	0xbea90dad	-0.33018246
79	0x3ee703e7	0.45120165
80	0x3e872643	0.2639638
81	0x3ea75ee5	0.32689586
82	0x3eab68f3	0.33478507
83	0x3d056153	0.03256352
84	0xbe9a0a67	-0.3008606
85	0x3d392eeb	0.04521076
86	0x3daeba09	0.08531577
87	0x3e53cff4	0.20684797
88	0x3e9b2f03	0.30309305
89	0x3e495f00	0.19665146
90	0x3e0e63df	0.13905285
91	0xbe84e165	-0.25953212
92	0x3ead7679	0.3387945
93	0xbe5bf29b	-0.21479265
94	0xbe1d2575	-0.1534632
95	0xbec98898	-0.39362025
96	0x3da339c4	0.07970002
97	0xbed8b329	-0.42324188
98	0xbea98fcb	-0.33117518
99	0xbdf745b6	-0.12073843
100	0x3e388271	0.1801851
101	0xbd3c15bb	-0.04591916
102	0x3d2530cf	0.04032975
103	0xbe2e6b7f	-0.17033194
104	0xbe487922	-0.19577459
105	0xbe4fd717	-0.20296894
106	0x3ed7f491	0.42178777
107	0x3edb37ab	0.4281591
108	0xbe92173b	-0.28533348
109	0xbea63b54	-0.3246714
110	0xbe4fd5ba	-0.20296374
111	0xbb9652a9	-0.0045874906
112	0x3e15f11d	0.14642759
113	0x3c91e98c	0.01781156
114	0xbe0e8285	-0.13916977
115	0xbb828972	-0.00398367
116	0x3ec914b2	0.39273602
117	0xbe9bf2d4	-0.304587
118	0x3f0cc336	0.5498537
119	0x3db0dbbf	0.08635663
120	0x3e4cb870	0.19992232
121	0xbd3b011d	-0.04565536
122	0x3c906f70	0.017631263
123	0xbe70e8ac	-0.23526257
124	0x3ea34504	0.31888592
125	0xbd6df5a0	-0.058095574
126	0x3ede707a	0.43445188
127	0x3ecf6a5f	0.40510842

VAE_Encoder.layers.1.linear1.weight f4 [4, 128]
0	0xbcf13ad1	-0.029446991
1	0x3e8f3741	0.27971843
2	0x3d9f7220	0.077854395
3	0x3bb3728a	0.0054763006
4	0x3cd87109	0.026421087
5	0x3d90531e	0.07047103
6	0xbd87faba	-0.06639619
7	0x3c2f1f0d	0.010688555
8	0xbc71b294	-0.014752049
9	0x3e149bbc	0.14512533
10	0xbce497bc	-0.027904384
11	0x3ccc1df8	0.024916634
12	0xbd46ba6b	-0.048517626
13	0xbc8c6b1e	-0.017140921
14	0xbca3008b	-0.01989772
15	0xbe180e31	-0.14849164
16	0xbd1639c2	-0.036676176
17	0xbc57d7d4	-0.013174016
18	0xbc573853	-0.013135987
19	0x3d2ebffa	0.042663552
20	0x3d3b20d1	0.045685593
21	0xbd542296	-0.051790796
22	0xbccb191f	-0.024792252
23	0x3d9ce0ff	0.07660102
24	0x3db23930	0.08702314
25	0x3bd26ad5	0.006421427
26	0x3d506bda	0.050884105
27	0x3ce15556	0.027506512
28	0x3d4c311d	0.049851526
29	0xbf16bf40	-0.58885574
30	0x3d4f65cf	0.0506342
31	0xbcbf9018	-0.023384139
32	0x3cc19b95	0.023633758
33	0x3d4ee36a	0.050509848
34	0x3cbaa6f8	0.022784695
35	0xbd838258	-0.064213455
36	0xbd812dc5	-0.06307558
37	0xbcbc8d53	-0.023016607
38	0xbda3325a	-0.07968588
39	0xbd46e74e	-0.048560433
40	0x3cddadca	0.027060408
41	0x3d7f5732	0.062339015
42	0xbef571b2	-0.47938305
43	0x3b82ddaf	0.003993712
44	0x3c2e7ec5	0.010650341
45	0x3c73d720	0.014882833
46	0x3c289f64	0.010291908
47	0x3d43b5a2	0.04778064
48	0x3da18229	0.07886154
49	0x3e547ef1	0.2075155
50	0x3cc980ff	0.024597643
51	0xbca475e2	-0.020075742
52	0x3daa391d	0.08311675
53	0x3ca7ec53	0.02049843
54	0x3a665802	0.0008786918
55	0x3eb9b1cb	0.36268458
56	0xbda4995d	-0.08037064
57	0x3ceabeae	0.028655376
58	0x3c04365c	0.008069601
59	0xbdbe36b1	-0.09287775
60	0x3d5dfce9	0.054196272
61	0xbd77a52d	-0.06046026
62	0xbd885d78	-0.06658453
63	0xbc72cee1	-0.014819832
64	0x3df6db50	0.12053549
65	0xbc2a30fb	-0.010387654
66	0xbc996baa	-0.018728096
67	0x3dab19c2	0.08354522
68	0xbcd86f9a	-0.026420403
69	0xbe1c9867	-0.15292512
70	0x3d53c3a0	0.051700234
71	0x3e15d9d6	0.14633879
72	0x3cc5e004	0.02415467
73	0xbd70dcd5	-0.05880435
74	0x3da9e4c5	0.082955875
75	0xbcc28872	-0.023746703
76	0xbd85b69b	-0.0652897
77	0xbc804554	-0.015658058
78	0x3d0f24b0	0.034947097
79	0xbc5d6d61	-0.0135148475
80	0x3ba3c495	0.0049977996
81	0x3cfe99ed	0.031079257
82	0xbdab1f44	-0.08355573
83	0xbd9e4069	-0.07727129
84	0xbd05a775	-0.032630403
85	0x3c76268e	0.015023841
86	0xbd751c56	-0.059841476
87	0xbd3b7835	-0.045768935
88	0x3d9062f1	0.070501216
89	0x3d792ef2	0.060835786
90	0x3da8448d	0.082162
91	0x3dcea94f	0.10090887
92	0x3d8d64b0	0.0690397
93	0x3c909db2	0.01765332
94	0xbf0ac4f9	-0.54206806
95	0x3daedc81	0.085381515
96	0x3d9cbf83	0.076537155
97	0x3db09f24	0.08624104
98	0x3e81eb5f	0.25374886
99	0x3d8a3b0b	0.06749543
100	0xbd9aaaba	-0.07552095
101	0x3cb1ea96	0.021718305
102	0x3f0af920	0.54286385
103	0xbc1fad43	-0.009745899
104	0x3d122e19	0.035688493
105	0xbd4e8176	-0.050416432
106	0xbd1433a2	-0.036182053
107	0xbd00c674	-0.03143926
108	0x3d57b8c8	0.052666456
109	0x3d6cae8c	0.05778365
110	0xbf0e54f1	-0.5559836
111	0x3ca730f7	0.02040909
112	0xbdc127fe	-0.09431456
113	0x3c22cd1f	0.0099366
114	0xbd77a8af	-0.060463604
115	0x3e0f4a5d	0.13993211
116	0x3d640959	0.055672977
117	0xb9cf145d	-0.00039497289
118	0xbd75f7b4	-0.06005068
119	0x3c5cca12	0.013475912
120	0x3e1acabe	0.15116403
121	0xbb92885f	-0.004471823
122	0xbc8e1b4a	-0.017346997
123	0x3de3255a	0.110911086
124	0xbd866937	-0.06563037
125	0xbc2e7b04	-0.010649446
126	0x3dad1a8c	0.08452329
127	0xbd31d7ef	-0.04341882
128	0x3d7f3e24	0.06231512
129	0x3eac9282	0.33705527
130	0x3d723149	0.059129033
131	0x3d12c68e	0.035833888
132	0x3daf8db3	0.08571949
133	0xbd892bf4	-0.066978365
134	0x3bd70a1e	0.0065624854
135	0x3d5e56a1	0.054281835
136	0xbb483e7b	-0.003055482
137	0xbdd93afe	-0.10606955
138	0x3e0b34a2	0.13594297
139	0x3d348943	0.044076215
140	0xbd7a5765	-0.061118502
141	0xbd754ade	-0.059885852
142	0x3d67a13e	0.056550257
143	0x3d7541fd	0.059877384
144	0x3d912484	0.07087043
145	0xba8d4e9e	-0.0010780876
146	0xbb9850ae	-0.0046482896
147	0x3ce43c3e	0.027860757
148	0xbc865dc6	-0.016402137
149	0xbdb13c8c	-0.086541265
150	0x3df54bea	0.1197737
151	0xbdb65e01	-0.089046486
152	0xbd67cde4	-0.056592837
153	0x3d3b8578	0.045781583
154	0xbcf2144b	-0.029550692
155	0x3e3995b3	0.18123512
156	0xbd12df0d	-0.03585725
157	0x3e612559	0.21986903
158	0x3cd389a7	0.025822474
159	0x3da2054c	0.079111665
160	0xbd9d674e	-0.076857194
161	0x3e0a2114	0.13489181
162	0x3e01df4b	0.12682836
163	0xbd61d9ad	-0.055139232
164	0x3d939705	0.07206539
165	0x3d62d97a	0.055383183
166	0xbce0eaaa	-0.027455647
167	0x3cfc538a	0.030801553
168	0xbc23e91b	-0.010004307
169	0xbba37bf7	-0.004989143
170	0x3ec861b9	0.39137056
171	0x3e001782	0.12508968
172	0xbdb7fe08	-0.089839995
173	0x3d771c50	0.060329735
174	0x3cf92c0e	0.030416515
175	0x3dfa52ed	0.12222848
176	0x3dba74c7	0.09104305
177	0x3e505241	0.20343877
178	0x3d6b7d52	0.05749256
179	0x3d1ad283	0.037798416
180	0x3d8a0d02	0.06740762
181	0x3da5eecc	0.081021875
182	0x3dc0f3ef	0.09421527
183	0x3efeb32f	0.4974608
184	0x3d53e0c0	0.05172801
185	0xbd5b77d3	-0.05358107
186	0x3e223d86	0.15843782
187	0x3d4ee0bf	0.050507303
188	0x3d62f752	0.055411644
189	0x3dcf65ca	0.101268366
190	0x3d9e40d1	0.077272065
191	0x3dae2e67	0.08504944
192	0x3d000e34	0.031263545
193	0x3d6d839c	0.05798684
194	0x3be61620	0.0070216805
195	0x3d3f6064	0.046722785
196	0x3e755ca6	0.23961124
197	0x3e07f646	0.1327754
198	0x3d8db1f8	0.069187105
199	0x3e8c71e4	0.27430642
200	0x3c51b030	0.012798354
201	0xb952276e	-0.0002004185
202	0x3d69631a	0.056979276
203	0x3da3775c	0.0798175
204	0x3e38f998	0.18063962
205	0xbc4eddd2	-0.012626128
206	0xbd96fc10	-0.07372296
207	0x3de19d62	0.110163465
208	0x3b5d7eda	0.0033797533
209	0xbc81e581	-0.015856506
210	0x3cc021b1	0.023453565
211	0x3d54ae2f	0.051923927
212	0x3b8e740b	0.0043473295
213	0xbdcf2368	-0.10114175
214	0x3e768d4a	0.24077335
215	0x3e3258b1	0.17416646
216	0xbcb013b8	-0.021493778
217	0x3d1bd57b	0.038045388
218	0xbd26a923	-0.040688645
219	0x3cfe54de	0.031046327
220	0xbd279ec2	-0.040922888
221	0x3e13d6fc	0.14437479
222	0x3e5e111f	0.21686219
223	0xbc80cc07	-0.015722288
224	0xbdd95961	-0.10612751
225	0x3e7e9dea	0.24864927
226	0x3de9a39a	0.11408158
227	0x3d8106c9	0.06300122
228	0x3e0c2eb5	0.13689692
229	0x3da21ea8	0.079160035
230	0x3f27babd	0.65519315
231	0xbd0cbabe	-0.03435778
232	0x3e71baac	0.23606366
233	0x3cd04a83	0.025426155
234	0x3c6345a9	0.013871589
235	0x3c972a8c	0.018452905
236	0x3d5dbbfc	0.054134354
237	0x3d7f4924	0.06232561
238	0x3db80be9	0.08986647
239	0x3e1ae9a8	0.15128195
240	0x3d636116	0.05551251
241	0x3bd1aa49	0.0063984734
242	0xbda62c7b	-0.08113953
243	0x3da3d6f6	0.07999985
244	0xbd43df61	-0.047820453
245	0x3cb81485	0.022470722
246	0x3d81cec8	0.063382685
247	0xbde86ae9	-0.113485165
248	0xbd59e818	-0.053199857
249	0xbca25fa6	-0.019821
250	0x3d8d6f68	0.06906015
251	0xbd5a3b34	-0.053279117
252	0x3ce6cee8	0.028174832
253	0xbc909771	-0.017650338
254	0x3cb94570	0.022616118
255	0xbd1aeeb2	-0.037825294

VAE_Encoder.layers.1.linear1.bias f4 [4]
0	0xbd53e7d3	-0.051734757
1	0xbcf2207e	-0.02955651
2	0x3b935bdb	0.004497034
3	0x3d8e4d93	0.0694839

VAE_Encoder.layers.1.norm1.weight f4 [4]
0	0x3f890479	1.070449
1	0x3f9536ed	1.1657387
2	0x3f8e626b	1.1123785
3	0x3f8abf61	1.0839654

VAE_Encoder.layers.1.norm1.bias f4 [4]
0	0x3cc73e40	0.024321675
1	0x3dbb61b7	0.09149497
2	0xbcad56dc	-0.021159582
3	0x3c2da294	0.010597844

VAE_Encoder.layers.1.norm0.weight f4 [4]
0	0x3f8710cf	1.0552005
1	0x3f840cd3	1.0316414
2	0x3f7410e1	0.95338255
3	0x3f94ea2d	1.1633965

VAE_Encoder.layers.1.norm0.bias f4 [4]
0	0xbc224bfd	-0.009905812
1	0x3a45b28d	0.000754156
2	0x3d574986	0.05256035
3	0x3d3210f4	0.0434732

VAE_Encoder.last_normalization.weight f4 [4]
0	0x3f800000	1.0
1	0x3f800000	1.0
2	0x3f800000	1.0
3	0x3f800000	1.0

VAE_Encoder.last_normalization.bias f4 [4]
0	0x00000000	0.0
1	0x00000000	0.0
2	0x00000000	0.0
3	0x00000000	0.0

VAE_Encoder.head.weight f4 [4, 4]
0	0xbdb9c438	-0.09070629
1	0xbe853b18	-0.26021647
2	0x3c7f5500	0.01558423
3	0x3efef538	0.49796462
4	0x3db08180	0.0861845
5	0x3cdb1a60	0.026745975
6	0x3d620360	0.055179
7	0x3eda0430	0.4258132
8	0xbde12cf8	-0.10994905
9	0x3e881362	0.26577288
10	0xbe10ac6c	-0.14128274
11	0xbe600a28	-0.21878874
12	0xbdea2878	-0.114335
13	0xbe20c880	-0.15701485
14	0xbef62906	-0.48078173
15	0xbd950d10	-0.07277882

VAE_Encoder.head.bias f4 [4]
0	0x3d75a200	0.05996895
1	0x3d86bfc8	0.06579548
2	0x3ef920dc	0.48657882
3	0xbeefc190	-0.46827364
