restsyn/tabsyn/vae/ckpt/sevenblobs_cond/model.pt (torch, 61929 bytes, 96 tensors)

VAE.Tokenizer.weight f4 [3, 4]
00000000: db7d 3bbd a6cb 9c3d 3a24 5dbe e719 4e3e
00000010: bca7 32be 5c39 313d 9d27 613e da45 133e
00000020: a052 b7be 683b 28be 4b08 06bc 7642 abbe
-0.045774322 0.0765603 -0.2159585 0.20127068 -0.17446798 0.043267593 0.21987768 0.14382115
-0.35805225 -0.16428912 -0.008180688 -0.33449143

VAE.Tokenizer.bias f4 [3, 4]
00000000: 3b8e 9f3e 6ff2 aabe 64e2 a03e b93f 28be
00000010: 3dec e73e ceb7 58bd f972 dcbe 9d26 fdbe
00000020: f89a b0be 1918 a6be 54b1 883e 0bf7 b33e
0.311632 -0.33388087 0.31422722 -0.16430558 0.45297423 -0.052909665 -0.43056467 -0.49443522
-0.34493232 -0.3244026 0.2669779 0.35149416

VAE.Tokenizer.category_embeddings.weight f4 [3, 4]
00000000: eb35 dcbd cafc 97be 1b16 9ebd 560f 733c
00000010: 771a e53e 5520 683e 24c9 e9be 754d 173e
00000020: e006 f43e 1c26 0f3e c369 673d 385d 033f
-0.107524715 -0.2968505 -0.0771906 0.014835199 0.44746754 0.22668584 -0.4566127 0.14775641
0.47661495 0.13979381 0.056497347 0.51314116

VAE.encoder_mu.layers.0.attention.W_q.weight f4 [4, 4]
00000000: a305 803d 3297 373d eef8 98be a95a 223e
00000010: 3943 dfbe b72d 53be bc6b febe b23f a43e
00000020: ef1d 4bbe abe0 6c3d 68ec 51bd b81b ad3e
00000030: 32a8 a5be 03e4 92bd 1ba7 673e 847c a33e
0.06251075 0.044821925 -0.29877418 0.15854897 -0.43605974 -0.20622908 -0.4969157 0.32079846
-0.19835638 0.057831448 -0.051250845 0.3381021 -0.32354885 -0.07172396 0.2262234 0.31930935

VAE.encoder_mu.layers.0.attention.W_q.bias f4 [4]
00000000: 050a 55bc a0f9 01be 0c0a 203e 271d 183e
-0.013002877 -0.1269288 0.15628833 0.1485487

VAE.encoder_mu.layers.0.attention.W_k.weight f4 [4, 4]
00000000: 3d87 1dbf fd10 e6be 5855 773e 8d92 65be
00000010: bd18 7bbe 5a43 cd3d d015 e13d 87aa e7be
00000020: d34a d5be 0e96 4e3d 43ba 60bd e465 ca3e
00000030: 8244 2bbe e9b6 183d 1024 473e 7248 d33e
-0.6153448 -0.44934836 0.2415365 -0.22419186 -0.24521156 0.10022612 0.109904885 -0.4524729
-0.4165865 0.050436072 -0.054865133 0.3953086 -0.16725352 0.03728381 0.1944735 0.4126621

VAE.encoder_mu.layers.0.attention.W_k.bias f4 [4]
00000000: 5a4e 93b8 9006 81b9 bf95 b738 e87c c2b8
-7.0241e-05 -0.00024609687 8.7540124e-05 -9.2739065e-05

VAE.encoder_mu.layers.0.attention.W_v.weight f4 [4, 4]
00000000: 1109 8c3d ce39 39be 82a4 83be 9d39 043e
00000010: cbee 953e 0045 8bbe ae54 c53d faee 2b3e
00000020: d432 8c3e 66bd b83e 8379 573e addf 9c3e
00000030: 89a6 d43e 4f7e d63e fc52 67be d981 66be
0.06837667 -0.18088457 -0.25711447 0.12912603 0.29283747 -0.2720108 0.09635292 0.16790381
0.2738253 0.36082 0.21042447 0.306394 0.41533306 0.4189324 -0.2259025 -0.2251047

VAE.encoder_mu.layers.0.attention.W_v.bias f4 [4]
00000000: 2359 cc3d ca93 7cbd d7c6 40bd 9b3e dfbc
0.09977939 -0.06166438 -0.04706463 -0.027251532

VAE.encoder_mu.layers.0.linear0.weight f4 [128, 4]
00000000: e670 1cbc b143 a4be f820 01be 7c1e f33d
00000010: 73a0 e4bd a1cf c1bd 3ea4 843e eed3 8e3c
00000020: eb19 f7bd 8191 d9be 594d 2d3d dab1 6b3e
00000030: cf3a a43e 933b e33e 53ed 17be 43c4 67be
00000040: 7798 4f3e 8606 ac3e 6ef3 28bd 1fc4 bd3e
00000050: 0f8a 513d 06db eabd 5e97 a73e 15d5 f23e
00000060: 77c9 753e e8e3 063e 1753 4ebe 8444 b4be
00000070: 945d 4b3e 77e0 e9be 2f7c e13d 0936 04bf
00000080: 70f8 8fbd fce7 dd3e 6e69 a0be 7bd2 753e
00000090: cb3b f53e db4d 98be e66b e03e 6c2e 01bf
000000a0: d9f8 013f cc6c dc3e bd2e 8b3e 1a69 d03e
000000b0: 811e e6be d26f 203f 9bec 583e d94d 863d
000000c0: 1634 d1be 4d0a b63c b808 3f3e d3ea e4be
000000d0: 9b93 463e f906 2a3e 89b1 d03e 7a38 923e
000000e0: aae5 e3be 6682 35be 3692 80bc ab8e 9abe
000000f0: b763 383d eeae d9be 9f57 a53e dd12 f63d
00000100: 8070 9bbe 611b 323e e401 e03e eb0b 97be
00000110: e21e 21bd e53c 73be efd0 d73e 127e c8be
00000120: 6af6 12bf c1c0 0cbe 9941 b63e 6d2c bdbe
00000130: 141e e73e 0855 b8be 3d60 4b3c 46b8 e1be
00000140: 5a3f dbbd b738 983d e77f 41be 32d2 6a3c
00000150: 8060 5d3e 2d3e c7bd a379 a6be 5914 67bc
00000160: 2fb3 e4bd f02e 0abf cbe0 babe 4db9 bd3d
00000170: 2d88 d7be a7ba 8abb dac8 d23d b746 adbd
00000180: 7159 7abe 1076 743e 9531 d73d 8fa5 973c
00000190: 87f7 7e3e de6a 34be 54f4 e93e e354 eb3e
000001a0: 5ba2 a3be f647 b2bd 0bac d73d 7a6e 22be
000001b0: ce6d f7bc 849b 9ebe 6f41 b03e 6269 0cbd
000001c0: 66c8 2dbd 753a 49be c4b7 c9be 2f15 0fbe
000001d0: e8ae c63e 88f2 b23e c416 ed3e 7049 d23e
000001e0: 2bf0 c0bd d184 683e 741a 283e de1b 643e
000001f0: f739 cbbc 28c1 cfbe fe4c e53e 1991 fc3e
00000200: b721 873d 3aa0 6e3e 78fb 77be c039 14be
00000210: fdc9 e53e 73b0 de3e 750a 61be 8260 733e
00000220: d981 4dbe d961 7ebe 4b76 47be 7655 a4be
00000230: 3b5d abbe 2989 103e 5d39 293e 7661 c93d
00000240: 77f7 dd3e 90ef ddbe 5c39 ca3e 5a11 00bf
00000250: 05b8 c7be 82bb e9bd 367a d93e 2506 03bd
00000260: c624 d83e e1fc 683e 2c3c 1fbe d5f1 77bd
00000270: ed51 7cbe 23fc ff3e b696 adbe 7f11 023c
00000280: ab3b 9d3d d375 dbbe ed76 9cbe 17f5 5f3d
00000290: 9b73 bcbe d07b 32be 409f 32be 9d6e 0abf
000002a0: cc01 ccbe 4531 003d ec1d dcbd 3a37 c4be
000002b0: d1a4 263c 69f5 eabe 9372 35bd 8df0 ee3e
000002c0: b9f0 ec3d ec64 4c3e 59d6 a03e 6156 83be
000002d0: 24cd 29be 94da fe3d f946 58bd f770 533d
000002e0: c292 d43e 830b f6bd db4d a23d f049 b13e
000002f0: d6fa ad3e 875f f33e 49aa 203d f0a8 76be
00000300: 6110 843e b3fb 32be 69d5 e93c b66a 22be
00000310: 1a8c babe 3ccf f8bd d678 04bd 34df 603d
00000320: 37d5 b93c 3724 e83d 863f f83e 4d97 c2bd
00000330: c87e 90be 3530 763e afda e5be 0876 65be
00000340: 8daa a0be 6796 aabe 021d ec3e 3b55 eabe
00000350: ae5f 543e 1c9d 61be 6032 b43e 2894 ff3e
00000360: 9caa a53e 6ae8 23be 8352 3dbd 3a3b fbbe
00000370: 6416 abbe 0e82 7c3e 6180 e83e edeb babd
00000380: aa64 663e d90c 243e 0376 513e d6a9 11be
00000390: aad3 c0be 9896 34be faa4 b43e 6605 eebe
000003a0: 7422 a03e 8e78 30be 910e b3be 50dd 073f
000003b0: 6c92 8ebe b55a 9a3e 21f5 f0be cba3 6a3d
000003c0: c84f 063e 67c1 89bd 501d be3e bae4 03be
000003d0: 5738 a13d 254d e5be fdfa f9bc 296c 9a3e
000003e0: 8020 c2be 58e2 86bd a1e1 013d 31d8 a5be
000003f0: cce2 ea3e 9278 2c3e 6399 69be ca8a d6bd
-0.009548401 -0.32082894 -0.12610233 0.11871049 -0.11163416 -0.0946343 0.25906557 0.01743504
-0.1206549 -0.42493823 0.042310093 0.23017064 0.32076117 0.4438139 -0.14836626 -0.22633462
0.20273004 0.33598727 -0.041247778 0.3706369 0.051157054 -0.11467557 0.32732671 0.47428194
0.24002634 0.13172877 -0.20148884 -0.35208523 0.19859916 -0.45679066 0.11010014 -0.5164495
-0.070298076 0.43341053 -0.31330436 0.24006073 0.4789718 -0.297469 0.4383232 -0.5046146
0.50770336 0.43051755 0.27184096 0.40705186 -0.44945148 0.62670624 0.21184008 0.06557817
-0.4086005 0.022221709 0.1865567 -0.44710407 0.19392245 0.16604222 0.4076045 0.28558713
-0.44511157 -0.17725524 -0.015694719 -0.30186972 0.04501697 -0.42516273 0.32293412 0.12015317
-0.30359268 0.17393257 0.43751442 -0.2950128 -0.039336093 -0.23753698 0.4215159 -0.39158684
-0.5740725 -0.13745405 0.35596922 -0.36947957 0.45140135 -0.36002374 0.012413082 -0.44085902
-0.10705443 0.074326925 -0.18896447 0.014332341 0.21618843 -0.09728656 -0.32514676 -0.014103972
-0.11166989 -0.5397787 -0.36499628 0.09263859 -0.4209608 -0.0042336765 0.10292216 -0.084607534
-0.24448182 0.23873162 0.10507504 0.018511562 0.24899112 -0.17618892 0.4569422 0.459632
-0.31959805 -0.08705132 0.105308615 -0.15862456 -0.030203726 -0.30978024 0.34424922 -0.03428019
-0.042427443 -0.19651206 -0.39398015 -0.13972925 0.38805318 0.34950662 0.4630643 0.41071653
-0.094208084 0.22706915 0.16416341 0.22276255 -0.024807913 -0.40577054 0.44785303 0.4932945
0.065982275 0.23303309 -0.24217021 -0.14475155 0.44880667 0.43493995 -0.21976645 0.23767284
-0.20069064 -0.24842013 -0.19478719 -0.32096452 -0.33469567 0.14114822 0.16525789 0.09833042
0.43352863 -0.43346834 0.39496887 -0.50026476 -0.39007583 -0.114127174 0.42476052 -0.03198828
0.42215556 0.22752716 -0.15550297 -0.060533363 -0.24640627 0.49997053 -0.33904046 0.007938742
0.076773964 -0.4286333 -0.30559483 0.054677095 -0.3680695 -0.17430043 -0.17443562 -0.5407503
-0.3984512 0.031296987 -0.10747895 -0.38323385 0.010171131 -0.45890358 -0.04429872 0.466679
0.11569352 0.19960374 0.31413534 -0.2565184 -0.16582161 0.12444034 -0.05280206 0.051621404
0.41518217 -0.120139144 0.07925006 0.34626722 0.33980435 0.4753382 0.039224897 -0.24087882
0.25793746 -0.17478828 0.028544145 -0.1586102 -0.36435014 -0.12148902 -0.0323418 0.054900363
0.022684677 0.113350324 0.48485965 -0.095015146 -0.28221726 0.24041827 -0.44893405 -0.22408307
-0.3138012 -0.33317873 0.4611588 -0.4576815 0.20739624 -0.22032589 0.35194683 0.49917722
0.32356727 -0.16006628 -0.046221267 -0.49068624 -0.3341552 0.24658987 0.45410445 -0.091270305
0.22499338 0.16020526 0.20455174 -0.14224944 -0.37661487 -0.17635572 0.35282117 -0.46488494
0.31276286 -0.17233488 -0.3497205 0.5307207 -0.27846086 0.3014733 -0.4706202 0.05728511
0.13116372 -0.06726342 0.3713174 -0.12880221 0.07872074 -0.4478542 -0.030515188 0.30160645
-0.3791542 -0.065861404 0.031709317 -0.32391503 0.45876157 0.16842869 -0.22812419 -0.10475691

VAE.encoder_mu.layers.0.linear0.bias f4 [128]
00000000: b88c 4abe ef82 aebe c3a5 2ebe 83ab 553e
00000010: fb1c c23e b0b3 62be f305 0f3e c16b b73d
00000020: 8dc7 a0be 5340 803d 3532 b03e 7171 32bd
00000030: 23a4 1bbe e6a1 983e 1000 a83e dd31 363d
00000040: a907 d1be 4d59 8cbe 4b55 f5be 8d8c d13e
00000050: 912d 0c3e b07c 6a3d 795e acbe d5ca 86be
00000060: ad75 bc3c ee18 f3be b25c 7fbe e10f 523e
00000070: 082d e6be 796d d33e 40ed c13e 74e3 8b3e
00000080: 26ac debe 17f9 d63e aee8 223e 1bf3 db3c
00000090: 4742 9cbe dbbd 883e 1d09 eb3e 84d1 593e
000000a0: 4568 ed3e 87bb 90be 8e1b 693e 4814 edbe
000000b0: 1570 af3e 0cd1 e63e 5c03 b23d c705 fc3e
000000c0: 12c0 72bd 066f e7be 77ec 05be e960 ce3e
000000d0: 2c66 e8be a934 9e3e dc7f c9bc 4366 d93d
000000e0: b62f 5a3d 46f7 813e 2d85 cdbe 1799 743e
000000f0: fdb7 a2bd 13c5 29be f6a3 5bbe 7c41 93be
00000100: 12e9 2abe 89b0 1e3d 053e 04be 8962 113e
00000110: 8e02 2c3c c2f6 63bc ee0f fbba 2b19 e33d
00000120: fd42 86be 3bf3 153e 292f c03c abbf 60be
00000130: a6be 63be a2b2 9fbe c502 ec3e 1b78 e43e
00000140: eaa9 c8be aeba 81be 69ea 31be bbf8 053f
00000150: 0898 61be 8c11 d93e 7cbd a9be 8f7a c4be
00000160: 5542 043e 82df d7be d93b e93e a017 e1be
00000170: 340c 313e 7d87 bb3d eb54 62bd dd55 e23e
00000180: 0198 563d 90ad f3be 3430 693e ce2b 96be
00000190: 5d63 a83d 0994 22be 7875 dc3d c93a 90bd
000001a0: d639 413e afe1 743e 2772 853e 1f5a 76be
000001b0: 598a a23e 732a b93e 3deb 723e f149 6b3e
000001c0: 563a e0be 9e25 78be ba4c debd d1b0 9f3e
000001d0: 6d3f 7abe cf09 eb3d 8924 6a3e 57ae c2be
000001e0: f9e1 c9be 88f6 543e 64a1 00bf b951 9a3e
000001f0: a142 adbe 7aa8 d2bd 6ee1 6f3e ac7c 363e
-0.19780242 -0.3408427 -0.1705542 0.20866208 0.37912735 -0.22138858 0.13967113 0.08956099
-0.31402245 0.06262269 0.34413305 -0.043565217 -0.15199332 0.2981102 0.32812548 0.044481147
-0.40826157 -0.2741188 -0.47916636 0.40927544 0.13689257 0.057247818 -0.33665827 -0.26326624
0.023005331 -0.47479957 -0.24937704 0.2051387 -0.4495623 0.41294459 0.3787632 0.2732197
-0.43490714 0.41986915 0.15909073 0.02684932 -0.30519316 0.26707348 0.4590539 0.2127133
0.46368614 -0.28268072 0.22764418 -0.46304536 0.342652 0.45081365 0.08692047 0.49223158
-0.059265204 -0.45201892 -0.13078485 0.40308312 -0.4539045 0.30899552 -0.0245971 0.10615208
0.053268157 0.25383967 -0.40140668 0.23886524 -0.07945249 -0.16579084 -0.21449265 -0.28760898
-0.16690472 0.038742576 -0.12914284 0.14197744 0.010498656 -0.013913812 -0.0019154528 0.11088785
-0.26222983 0.14643566 0.023459988 -0.21948116 -0.22240695 -0.31190974 0.46095863 0.44622883
-0.39192134 -0.25337738 -0.17374577 0.5233266 -0.22030652 0.423962 -0.33152378 -0.38374755
0.12915929 -0.4216271 0.45553473 -0.43963337 0.17289811 0.09156702 -0.055256765 0.44206133
0.052391056 -0.47593355 0.22772294 -0.29330295 0.08222077 -0.15876783 0.10764593 -0.070424624
0.18869719 0.23914216 0.26063654 -0.24057816 0.31746176 0.361652 0.23722549 0.22977425
-0.43794507 -0.242331 -0.10854478 0.31189588 -0.24438258 0.1147648 0.228655 -0.38023636
-0.39430216 0.20797169 -0.5024626 0.30140474 -0.33839896 -0.102860406 0.23425838 0.17820996

VAE.encoder_mu.layers.0.linear1.weight f4 [4, 128]
00000000: a516 cebc db3f 8fbc 4802 803d 2a60 b43d
00000010: f38e 6cbc afbb d33d 61fd bc3d 0776 b9bc
00000020: bf87 d23c 4c3f b13d acb6 43bd 47da 8ebe
00000030: f4df 963c cc1b 1bbd 16c1 0dbd b7ef 12bd
00000040: fff7 09bd 368b 2fbc 7cab a3bb dd98 213d
00000050: b3b0 8cbd a32e ddbd 41ec e5bd 8038 5bbc
00000060: f327 12be b39c d73d 6829 afbd f80b 3d3c
00000070: e550 ccbd 930f 7b3d 3932 8c3d 217a 9c3d
00000080: 0011 94bd ddd5 d4bb c1b0 2dbd fdc2 d2bc
00000090: 30b5 adbc 56ef 203b 4115 cabc 13a5 53bc
000000a0: aeb6 85bd cc1f 5f3e ff67 933d c26a 863d
000000b0: e58a 4bbc d24b 9dbc 03c5 a2bd a6b7 d43c
000000c0: c17e a1bd e114 c73c 4dda e3bd 4898 883d
000000d0: 9116 12bd afc8 36bc fba2 b33d 7a2d ee3b
000000e0: c5e4 2cbc a4b0 65bd 9d9b e4bd 1e1d 1dbd
000000f0: cf4c 2bbd 00bb 0dbd 899c 07bd f167 203d
00000100: 845d 6f3d 66b7 993d 5de4 e73d 6d3c ac3c
00000110: 3551 38bb 4cba 72bc dafd bbbc d69e 923d
00000120: 6bd8 fcbc 1d12 823d c3a2 403d 4690 fdbd
00000130: 83b2 813d 5213 77bc 68fd 1ebd e38c d73d
00000140: 1845 18bd c368 d1bd 18f4 62be 5e90 bd3c
00000150: b59b be3d 5d76 87bd 4d4f 783c 672e 6c3d
00000160: 049a e5bb 5d2f b93c 25d2 89bd 547f 4abd
00000170: 5c63 5c3d ad35 9e3d 1238 cc3d 7cc5 333c
00000180: 5887 9fbd 332c 9ebd a52b 523d 7263 173d
00000190: 7bb1 b53d 6278 d0bd ac95 f23c f5db da3c
000001a0: f9d9 e4bb 9115 da3c 04e1 433d fc0a a73c
000001b0: 9e47 8cbd 39ca a13d 6782 fb3c 9044 f0bc
000001c0: 5fd6 92bd 4c09 233e 85d2 c2bd fd35 cf3c
000001d0: 8ee8 533d 0ecf f73d 4e23 6bbd abef 02be
000001e0: 9b1f 0cbe 0c02 6fbd a317 efbd bf21 59bd
000001f0: 74c3 cabd f0aa af3c dfeb 15bc 93f0 8a3d
00000200: bc9e 1d3d 7a47 8a3d 9315 9ebd 4522 e9bb
00000210: 6c2a 62bd d2cd 143d 769d 1bbd cac7 85bd
00000220: b1d8 c5ba 7ea4 39bd 8183 babd 6abc 103e
00000230: 1fa9 eabd a1d3 a23d 8e96 ad3b 32b3 b63d
00000240: ce92 a9bd a027 873b 4a50 9e3d 3c53 8fbd
00000250: 2bc0 5b3d 59fe 01bd 7286 b33c 8b2e b83d
00000260: 8a2a 4d3d f219 c6bd 105a 393d 9652 203d
00000270: 6c27 b1bb 7f68 09bd 61ab 843c d727 a3bc
00000280: 4a31 2d3d b5b2 f0ba 3746 5c3d 697f cb3b
00000290: 564b d7bd 71d3 87bd 3973 003d ed46 643d
000002a0: d581 ae3d 51d8 5abe ab7d c6bd a045 70bb
000002b0: 8819 aa3a d6f8 7bbd 0ab6 a53d e0eb 95bd
000002c0: cbbf 453d e35b 66bd a4d1 a03d 8346 60bd
000002d0: bf80 ab3d 88f8 1fbd fa56 ccbd b107 c43b
000002e0: d59c 0bbe 7caf 5f3d 947f 473c 80d4 713b
000002f0: 8a59 323c e5ce 2b3c 4900 893b 9509 d53a
00000300: 4b0d 163d bbd6 0b3d abef a73c 48e3 a8bd
00000310: 414d 9c3c 8804 4d3c d529 bb3d 2dfe 8ebd
00000320: fa61 663d 7c80 61bd 85ac bdbb 242b e03d
00000330: bd3b 68bd 6697 0e3d f95e d5bc 7c26 4fbd
00000340: 550b 3abd 1b14 e63d 7f55 00bc 849a b63a
00000350: 768f 06bd 4159 96bc 6f02 c93d 5c2c 233d
00000360: 3428 033e ec2d 8dbd e288 c13c ecd7 0f3e
00000370: 0d3e 1d3d 0b61 883b 5597 03bc 42b6 db3c
00000380: c0b7 6d3c a5aa 433d 7ca0 4e3d 3988 23bd
00000390: 077d b3bd 2746 aa3d 46ff a8bd 1ca4 28bd
000003a0: 6c89 043d 59d3 063d 96b0 363d 9058 013d
000003b0: d1e7 2e3d 740b 7fbd 4691 033d 3231 233c
000003c0: 847d 71bc 37fb a7bd bb2f 9c3d e5a0 eb3d
000003d0: e7e8 abbd 728d dcbd bf5a f43d be0c 963d
000003e0: 1fb2 b2bc 3c22 b73d cce4 143d 13f5 bc3b
000003f0: 5bb7 86bd 6e34 9fbd 3b43 41bd c2f1 7b3d
-0.025157282 -0.017486503 0.06250435 0.08807404 -0.014438379 0.10338532 0.09228016 -0.022639288
0.025699494 0.08654651 -0.04778163 -0.27900907 0.018417336 -0.037868306 -0.03460797 -0.03587314
-0.033683773 -0.010714343 -0.0049948078 0.039452422 -0.0686964 -0.10799911 -0.112267025 -0.01338017
-0.14273052 0.10527935 -0.085528195 0.011538498 -0.09976367 0.06129415 0.06845517 0.07640482
-0.07229805 -0.006495221 -0.042404894 -0.025727743 -0.021204561 0.0024556718 -0.024668338 -0.012917775
-0.06528984 0.21789473 0.0719757 0.06563331 -0.012423252 -0.019201193 -0.07947733 0.025966477
-0.078855045 0.024301948 -0.11125622 0.0666967 -0.035666052 -0.011156245 0.087713204 0.007268605
-0.01055259 -0.05607666 -0.111624934 -0.038357846 -0.041821297 -0.034602165 -0.033108268 0.039161626
0.058438793 0.075056836 0.11322854 0.021024907 -0.0028124575 -0.014814924 -0.022948194 0.07159202
-0.030864915 0.06351111 0.04703022 -0.123810336 0.063328765 -0.01508029 -0.038815886 0.10524919
-0.037175268 -0.1022506 -0.22163427 0.023140129 0.093070425 -0.06614373 0.0151556255 0.05766144
-0.0070068855 0.022605592 -0.06729535 -0.049437836 0.053805694 0.077250816 0.09971632 0.010972377
-0.07789487 -0.07723274 0.051311154 0.036960073 0.08871742 -0.10179211 0.029612385 0.026716212
-0.006983992 0.026621612 0.047822013 0.02039098 -0.068495974 0.07899899 0.03070183 -0.029329568
-0.07169794 0.15921515 -0.0951281 0.025294298 0.051735453 0.121000394 -0.057406716 -0.12786739
-0.13683932 -0.05835156 -0.1167443 -0.0530107 -0.09900561 0.021443814 -0.009150474 0.06784167
0.03848146 0.06751914 -0.07718959 -0.007114681 -0.055216238 0.036329098 -0.037991963 -0.06532247
-0.0015094486 -0.045322888 -0.09107114 0.14134374 -0.114580385 0.07950521 0.0052974885 0.089208975
-0.08279954 0.0041245967 0.07730158 -0.069982976 0.053650063 -0.031736705 0.021914694 0.08993252
0.050089397 -0.096729174 0.045251906 0.03914126 -0.005406311 -0.03354692 0.016195001 -0.019916458
0.042283334 -0.0018363806 0.0537779 0.006210257 -0.10512416 -0.06632126 0.031359885 0.055731703
0.08520857 -0.2137158 -0.09691938 -0.0036662593 0.001297758 -0.061516605 0.08091362 -0.0732038
0.04827861 -0.056239974 0.07852486 -0.054754745 0.08374166 -0.039055377 -0.09977527 0.005982362
-0.13634045 0.054610714 0.012176413 0.0036900342 0.010885606 0.010486339 0.004180942 0.0016253466
0.03663377 0.03414033 0.020500025 -0.082464755 0.019079806 0.012513287 0.09138838 -0.06982074
0.05624578 -0.055054173 -0.005788388 0.109457284 -0.056697596 0.034812354 -0.026046263 -0.05057381
-0.045420963 0.112343036 -0.007832884 0.0013931547 -0.03285166 -0.018353106 0.09814917 0.039837226
0.12808305 -0.068935245 0.023624841 0.14047211 0.038389254 0.004161959 -0.008031686 0.026820306
0.014509141 0.04777016 0.05044602 -0.039924834 -0.087640814 0.08314162 -0.082518145 -0.041172132
0.03235762 0.0329164 0.044602 0.0315786 0.042701546 -0.062266782 0.032120965 0.00996046
-0.014739398 -0.08202212 0.07626291 0.115052976 -0.08394032 -0.10769166 0.11931371 0.07326649
-0.02181345 0.089420766 0.03635101 0.00576652 -0.06577941 -0.07773672 -0.047183257 0.061509855

VAE.encoder_mu.layers.0.linear1.bias f4 [4]
00000000: ba89 a23d fe8e f03b b73a a33d d0de aabc
0.079364255 0.0073412647 0.07970183 -0.020858198

VAE.encoder_mu.layers.0.norm1.weight f4 [4]
00000000: 4c7d 883f 2cca 8b3f 019e 833f 81fa 7e3f
1.0663238 1.0921073 1.0282594 0.9960099

VAE.encoder_mu.layers.0.norm1.bias f4 [4]
00000000: a002 c03d 8a7e 3c3d a509 62bd d15b 01bd
0.09375501 0.046019115 -0.05518498 -0.031581704

VAE.encoder_mu.layers.1.attention.W_q.weight f4 [4, 4]
00000000: 570c 69be dda5 c53e 8247 b2be 476b 08bf
00000010: 6537 dd3e 83dc 573e de67 b6bd 1610 b23e
00000020: 95a5 413c 0759 f43d 0755 1f3e 0956 33bf
00000030: 13b5 2abe 7ff0 82be 06ed 7d3e afaa febe
-0.22758614 0.38603106 -0.3482018 -0.5328869 0.43206325 0.21080212 -0.0890653 0.34777898
0.011819263 0.11931043 0.15559779 -0.70053154 -0.16670637 -0.2557411 0.24797449 -0.49739596

VAE.encoder_mu.layers.1.attention.W_q.bias f4 [4]
00000000: 5772 bfbd 0df7 aebb b495 d4bd e029 f73c
-0.093479805 -0.0053395093 -0.10380116 0.030171335

VAE.encoder_mu.layers.1.attention.W_k.weight f4 [4, 4]
00000000: 12fb 9e3e 6c85 cbbe c054 debe 92ed b5be
00000010: 8ed9 543e d40b 4ebe c9b3 0dbe 8f46 a83e
00000020: 78da bb3d 9435 d13d 6d9e 893e 7bdb a3be
00000030: ddf4 dc3e bced 9e3e fdaf a6be b0a6 fbbd
0.31050926 -0.3975023 -0.43424034 -0.35532814 0.20786116 -0.201217 -0.13838114 0.32866332
0.09172529 0.10215297 0.26878682 -0.32003388 0.43155566 0.31040752 -0.32556143 -0.122876525

VAE.encoder_mu.layers.1.attention.W_k.bias f4 [4]
00000000: b965 9939 6d3c 2939 20a9 85ba 888d 6e39
0.00029258223 0.00016139606 -0.0010197498 0.00022750173

VAE.encoder_mu.layers.1.attention.W_v.weight f4 [4, 4]
00000000: 1e11 b0bd 6c26 ea3e bb76 653e 807f ce3d
00000010: bdf2 fabe ed62 e43e c8e4 043f 4270 ca3e
00000020: 5f27 853e a9f7 32bd 4d00 c23e fdc2 f03e
00000030: 6c27 e73e 6917 f9be 823d 3c3d 84fc afbe
-0.08597015 0.4573244 0.22408573 0.100829124 -0.4901332 0.44606724 0.5191159 0.3953877
0.260066 -0.04369322 0.37890854 0.47023764 0.45147264 -0.48650673 0.045957096 -0.34372342

VAE.encoder_mu.layers.1.attention.W_v.bias f4 [4]
00000000: 3233 6a3b 0f29 4f3b ee72 06bc 5ced aebc
0.0035736081 0.0031610166 -0.008206112 -0.021353416

VAE.encoder_mu.layers.1.linear0.weight f4 [128, 4]
00000000: cc09 e23e 2e02 b23d 4d23 a53e 1878 8e3e
00000010: deed 37be 9f86 463f aaa6 4b3e e8d1 b1be
00000020: e28a e7be 8af8 60be 3d2c be3e 415f 08bf
00000030: 5642 2dbe 0477 00bf 8fe9 2dbd 7524 df3e
00000040: 0cdf 2e3e 2000 9fbe a4cc b33e 5875 f83e
00000050: 7bc4 2fbe f6a2 bfb9 6536 3a3e a394 ba3e
00000060: 9c27 35be a47f 59be d0c6 c3be fc0e 47be
00000070: f90d 8bbe 85e8 02be 626b 1abd f745 023e
00000080: c335 ae3d 067b 493d baa5 a53e b28a 26be
00000090: 4b9b f33e 4805 923e 6699 cf3e c8a2 f1be
000000a0: 9d6b ecbe 1634 c43e b23f b03d ad78 13bd
000000b0: a1bc a6be 2fe1 163d b5cc 023e 410c 10bf
000000c0: d64a 263e 586b 8bbe 62fb 423b 2702 cc3e
000000d0: 008f 8b3e 8501 72be 5795 5dbe f2b7 b6be
000000e0: a978 5fbe 610b 7b3e cbb5 2a3e dfda b0be
000000f0: b97d e23e f0a8 333e 3725 f2bd 88a7 023f
00000100: 22ec 433e c74d a7bb 63d2 a6bd c7ce 893e
00000110: c9c5 633d 9c41 0a3e 9fc0 073f c7d2 8d3e
00000120: 94f3 d63e 9af2 b13e de12 07bf 2ae7 d9be
00000130: 1291 81be 22d7 f33d a7d6 e43e 8f9d 12bd
00000140: 9d7a b23d 8313 bebd 4c7b 303e 4914 adbe
00000150: 41da 4e3d 3f08 a1be 164b f73e 5ed7 14be
00000160: 9e03 8dbd b9d8 a73e dc3b e33e 9915 de3e
00000170: c82b 9b3e bdd2 773d fffa cd3d baa0 f0be
00000180: 36c5 18be 5102 e3be 4b3e 463e 2ed9 ddbe
00000190: b6af 8fbe 2817 e5be 4954 ec3e 1fe0 863e
000001a0: e59e 87be 637f 2cbd 16e5 be3e 73cb 723e
000001b0: b1c9 eb3e 0412 f03e 87ea b83d 1bca 883e
000001c0: e190 913c ab43 05be dfbe 993e 3570 b33e
000001d0: bb2f 013f 71bb 773f 8e6c f9be 3bc3 4e3f
000001e0: 0c46 2ebe 588f b63e 4e0a 49be ffe5 d33d
000001f0: ece9 e6be 8cd2 183e 50b6 5a3e 7d39 a63e
00000200: d38b c6be e796 90be 5bcc e13d 6095 e23e
00000210: 4086 b4be d49b db3e 1fc4 743e b311 563d
00000220: 937e 94be aca0 203f 9d00 133e 461d 193e
00000230: 2d75 03bf c17a d9bd 2dfe 843e 2154 9d3e
00000240: 6f4f 253e 70d0 093f ace0 97be 082d 343e
00000250: aa40 f139 ad8d 86be ab6f 64be b2f0 6abd
00000260: 1144 88be 60db 423e 7d39 833e a65d a5be
00000270: 5066 89be a6cd 0e3d fb3d a93e 68e4 1e3e
00000280: 6540 d9be 61cb c7be 2bfa cb3e a5d1 94bc
00000290: ed30 063e e6d9 f6bd 78f6 613e e6c6 0ebe
000002a0: 7e1d b1bd 7e67 3c3f e99a 5abf f8f5 c53e
000002b0: 9c89 cfbe 67d9 3e3f 78ea d93e 9c9b 363b
000002c0: ae8e 263c fff1 6d3e 69e5 a03e b188 e9be
000002d0: bb27 c8be a1ff d2be 5911 b63e 78e0 e9be
000002e0: 1e3a 1bbe b483 5fbd 8b5c e83e 0714 2abd
000002f0: 8d1e 02be 01ec 073f e71b e73e 691f e03d
00000300: 906c aebd 2740 81be ac20 673c 2279 2f3e
00000310: 7ad7 7fbe 18b5 cc3d 1077 7abe bce5 bebe
00000320: ccd2 cd3e aeb7 9fbd 5190 dd3e d856 e73d
00000330: 3328 5c3e 57c1 1dbd 82c7 1e3c f3bb 4a3d
00000340: 4259 67be bacc cebe f8f4 1e3e 0c45 df3d
00000350: febe d33e 8eab b6be 8f09 c3be 869a ce3d
00000360: bb01 003f 6b18 723e 2cbd 613d ba1f 273e
00000370: d886 14bf 6060 3a3f a766 87be 3478 31bf
00000380: 6398 c93e 8c01 033d e0e2 08bf 6b1f 7ebe
00000390: d457 a2be de4e a4be 6e45 623e 8d29 9b3e
000003a0: 8f47 8cbe 5380 e23e 02f6 953e 1294 a4be
000003b0: 714f 9e3e 239d b83e 1d95 13bf 802e 103e
000003c0: f9da f83e 103c d6be c2ff adbe 1099 bb3d
000003d0: cad4 b2be 608e 473e f00c b23d aac0 37be
000003e0: bd71 95be c954 bcbe c232 e4bd 772c 8b3e
000003f0: 8110 e1bd 0b66 2ebb c47f c13a 638a 7cbd
0.441481 0.08691822 0.32253495 0.27826 -0.17961833 0.77549165 0.19887796 -0.34730458
-0.45223147 -0.2196981 0.37143126 -0.53270346 -0.16919836 -0.50181603 -0.042459067 0.43582502
0.17077273 -0.31054783 0.35117066 0.48527026 -0.17164795 -0.00036551774 0.18184812 0.36441526
-0.17690891 -0.21240097 -0.3823762 -0.1943931 -0.27159098 -0.12784012 -0.037700064 0.12722002
0.08506348 0.04918959 0.32353002 -0.16263846 0.47579417 0.28519654 0.4054672 -0.47194505
-0.46175852 0.38320988 0.08605899 -0.036003757 -0.32565787 0.036835846 0.12773402 -0.562687
0.16239485 -0.27230334 0.0029751887 0.39845392 0.27257538 -0.23633392 -0.21639 -0.35687214
-0.21823372 0.2451606 0.16670911 -0.34541985 0.44236544 0.17544913 -0.118235044 0.5103688
0.19133046 -0.0051057073 -0.08145597 0.2691557 0.055608544 0.1350159 0.5302829 0.27699873
0.4198271 0.34755403 -0.52763164 -0.42559177 -0.25305992 0.11906268 0.44695017 -0.03579479
0.08714793 -0.09281065 0.17234534 -0.3380454 0.050501112 -0.31451604 0.48299474 -0.14535281
-0.068854555 0.32782534 0.44381607 0.43375853 0.3030684 0.06050371 0.10057639 -0.46997625
-0.1491898 -0.44337705 0.193597 -0.43329757 -0.28063744 -0.4474423 0.46158054 0.26342866
-0.26488414 -0.042113673 0.37284154 0.23710422 0.46052316 0.46888745 0.090291075 0.26716694
0.017769279 -0.13014095 0.30028436 0.35046545 0.50463456 0.9677039 -0.48715633 0.8076665
-0.17018908 0.35656238 -0.19632837 0.10346603 -0.45100343 0.14924067 0.21358609 0.32465735
-0.38778552 -0.2824013 0.11025306 0.4425459 -0.35258675 0.42892325 0.2390294 0.052262973
-0.29002818 0.62745166 0.14355703 0.14952573 -0.5135067 -0.106191166 0.2597517 0.30728248
0.16143583 0.53833675 -0.296636 0.17595303 0.0004601528 -0.26279965 -0.22308223 -0.05735845
-0.2661443 0.19028997 0.25629798 -0.3229801 -0.2683587 0.03486409 0.330551 0.15516818
-0.42431942 -0.39022353 0.398393 -0.018166373 0.13104601 -0.120532796 0.22066677 -0.13943061
-0.08648203 0.73595417 -0.85392624 0.38664222 -0.40534675 0.7455048 0.42561698 0.0027863747
0.010165853 0.23236845 0.31425026 -0.456121 -0.39092812 -0.41210654 0.3556011 -0.4567907
-0.15158889 -0.05456896 0.45383105 -0.041523006 -0.12706967 0.5309449 0.45138475 0.10943491
-0.085168004 -0.25244257 0.014106911 0.17136052 -0.24984542 0.099954784 -0.24459481 -0.37284648
0.40199888 -0.07798706 0.43274167 0.11295861 0.2149971 -0.03851446 0.009691121 0.04949565
-0.22592643 -0.4039057 0.15523136 0.109018415 0.41356653 -0.3567776 -0.3809323 0.10088067
0.5000264 0.23642127 0.05511205 0.16320696 -0.58018255 0.72803307 -0.26445505 -0.6932404
0.39374074 0.031983897 -0.53471184 -0.24816673 -0.31707633 -0.3209142 0.22096798 0.30305138
-0.27398345 0.4423853 0.29289252 -0.3214422 0.30919984 0.36057386 -0.57649404 0.14080238
0.48604563 -0.418427 -0.3398419 0.09160054 -0.3492797 0.19487906 0.08693874 -0.1794459
-0.29188338 -0.36783436 -0.11142494 0.2718236 -0.10989476 -0.0026611115 0.0014762809 -0.061655413

VAE.encoder_mu.layers.1.linear0.bias f4 [128]
00000000: 4450 913e d92c 4dbe 92dd 7e3e 9b95 033d
00000010: c82c a93b 5d0b 9a3e 5af6 dcbe 4dd7 103c
00000020: cdcf b63d 70d3 b0bc fab8 72be d355 c1be
00000030: 0188 da3c 73ff e43e 38a2 283e 4e25 9b3e
00000040: 2e15 1c3e 74eb 9e3e 4c3e 2e3e 1075 02bf
00000050: cab0 c63d dbf7 923d 050e eebe e884 203e
00000060: 8252 943e 0283 a03d 4180 c2be a110 ec3e
00000070: 465d 963d a6f2 76be 3b86 073e 7ae9 89be
00000080: 46a1 ddbd 1ad8 a7be 1c61 443e d0f6 9cbe
00000090: d338 583e 694e d63e 4d72 f13e bf38 29bd
000000a0: aa6e 6d3d e435 543e bbf9 21bd f0a4 49be
000000b0: 5558 613e 5f32 e3be 9a40 5abe 3f18 b7be
000000c0: 77e7 03bd 15db a8bd 5c05 c3be 13f1 c7be
000000d0: b265 203e 6743 073f 1bdd 213b 718d f13d
000000e0: dea5 ba3e b07c b83e 16da 4d3d 534f 413e
000000f0: 505c 68be 5946 f73e aa01 803e f6b8 0a3f
00000100: a7d6 323e c3e8 dabe 6795 d73e d122 a53e
00000110: f6d7 96be d841 8c3e 847f 9c3e 2dfb a4bd
00000120: 7d91 91be d244 2cbd 4ea8 8bbe 43d5 93be
00000130: 8e92 2ebd 2d2e 0cbd 930e a9be 2001 e73e
00000140: d926 873e b15e a73e db68 ab3e 645a 053d
00000150: 2e09 9abe 582e 393d 5dba ae3d 9dc9 533e
00000160: 162f 9b3e 9e5f 493e 0c63 0e3e 7ce1 84be
00000170: cd76 ad3e 73f3 5bbe ed2c 1dbe 9288 c9be
00000180: f342 a33d 9fb3 d8be 3d90 a9be da45 f7bd
00000190: f281 383e 221a 3cbd 5510 253d f66a 2ebe
000001a0: f679 48be 6fd7 4fbe 83f4 d73e 7637 db3e
000001b0: d517 92be be3a a6be 47d5 4fbe 8c7c 96bb
000001c0: f4f0 153e d9e4 913c 0b81 0ebe d078 82bb
000001d0: 8614 c93e 21f1 9bbe cbc2 0c3f 4bdb b03d
000001e0: d6b8 4c3e c903 3bbd 886f 903c f7e8 70be
000001f0: b146 a33e 8af6 6dbd 5e70 de3e 3c6a cf3e
0.2838155 -0.2003664 0.2488921 0.032125097 0.005162809 0.30086794 -0.431567 0.008840394
0.089263536 -0.021585196 -0.23703375 -0.3776079 0.02667618 0.44726142 0.16468132 0.303019
0.15242454 0.3103901 0.17015952 -0.50959873 0.097016886 0.07176181 -0.4649507 0.156757
0.28969198 0.07837488 -0.37988475 0.46106437 0.07342009 -0.24116 0.13234799 -0.2693594
-0.10821776 -0.3278206 0.1917767 -0.30657053 0.21115427 0.41856697 0.47157517 -0.041313883
0.057966866 0.20723683 -0.039544802 -0.19691825 0.22006352 -0.44374368 -0.21313706 -0.35760686
-0.032203164 -0.082449116 -0.38090026 -0.39051113 0.15663794 0.5283722 0.002469844 0.11794556
0.36454672 0.3603263 0.05025681 0.18877916 -0.22691464 0.48295859 0.2500127 0.5418848
0.17464696 -0.42755708 0.42106172 0.32253125 -0.2946164 0.27393985 0.30566037 -0.080557205
-0.2843131 -0.04205782 -0.27276844 -0.28873643 -0.042620234 -0.034223724 -0.33018932 0.45118046
0.26396826 0.3268943 0.33478436 0.032556906 -0.3008513 0.045210212 0.0853164 0.20682378
0.3030936 0.19665381 0.13904971 -0.2595328 0.338797 -0.21479587 -0.15349169 -0.39362007
0.07971754 -0.4232454 -0.33117858 -0.1207387 0.1801832 -0.04592336 0.04029878 -0.1703299
-0.19577774 -0.20297025 0.42178735 0.4281575 -0.28533807 -0.32466692 -0.20296203 -0.004592484
0.14642698 0.017809318 -0.13916413 -0.003981687 0.3927347 -0.30457404 0.5498473 0.08635577
0.19992384 -0.045657907 0.017631307 -0.23526369 0.3188987 -0.058096446 0.43445104 0.40510738

VAE.encoder_mu.layers.1.linear1.weight f4 [4, 128]
00000000: 0036 f1bc 5035 8f3e a672 9f3d 6789 b33b
00000010: be76 d83c 4d54 903d bafa 87bd 8b24 2f3c
00000020: bda8 71bc c89a 143e 2294 e4bc f918 cc3c
00000030: dbb6 46bd a867 8cbc aaf5 a2bc a70a 18be
00000040: de2c 16bd 68d0 57bc e53c 57bc d3c0 2e3d
00000050: 0c1f 3b3d 3121 54bd 9d16 cbbc 90df 9c3d
00000060: ef39 b23d 4677 d23b 466d 503d a75a e13c
00000070: 9f32 4c3d e7bc 16bf 7c66 4f3d 848d bfbc
00000080: 0f9f c13c 48fe 4e3d 59a9 ba3c a081 83bd
00000090: ca2a 81bd db7f bcbc 7732 a3bd dbe5 46bd
000000a0: 48b0 dd3c 1758 7f3d bb6d f5be ceef 823b
000000b0: cb79 2e3c d9cd 733c cfa1 283c 4bd0 433d
000000c0: 2583 a13d 327c 543e bc81 c93c ec74 a4bc
000000d0: 3d3a aa3d ecfb a73c 9b89 663a 11ae b93e
000000e0: 9f98 a4bd e2c1 ea3c 5c3e 043c 7835 bebd
000000f0: bd02 5e3d 86a3 77bd 495c 88bd 78c8 72bc
00000100: 9cda f63d 3f17 2abc 1167 99bc e119 ab3d
00000110: ff7a d8bc c796 1cbe 15c3 533d 6cd7 153e
00000120: 60f6 c53c 77db 70bd b7e7 a93d 4185 c2bc
00000130: a9b4 85bd d942 80bc 0e1f 0f3d 4f68 5dbc
00000140: b9d2 a33b df9a fe3c 1f1b abbd 9c3f 9ebd
00000150: ad9b 05bd ef1c 763c ce1b 75bd 0877 3bbd
00000160: a664 903d 0b32 793d 7f46 a83d 4fa8 ce3d
00000170: 3c5f 8d3d faa3 903c 66c2 0abf afdf ae3d
00000180: d4bc 9c3d 129b b03d 87ea 813e 9c39 8a3d
00000190: 1ca9 9abd 5def b13c 81f7 0a3f 4ba8 1fbc
000001a0: 9b31 123d 717e 4ebd a534 14bd 8cc3 00bd
000001b0: 1ab9 573d 4cb1 6c3d 1154 0ebf 8512 a73c
000001c0: 7824 c1bd 50c7 223c f3aa 77bd fc49 0f3e
000001d0: e209 643d 40a7 cdb9 0ef9 75bd 78be 5c3c
000001e0: 21ca 1a3e 7a71 92bb e616 8ebc a723 e33d
000001f0: 2468 86bd 7d76 2ebc 7c18 ad3d 29d7 31bd
00000200: 233e 7f3d c890 ac3e 392b 723d 36cc 123d
00000210: d68d af3d 6329 89bd 1e0a d73b 5459 5e3d
00000220: 0f90 48bb 3b3b d9bd 8331 0b3e 0e90 343d
00000230: 3956 7abd 644b 75bd 2290 673d f740 753d
00000240: f224 913d dec7 8dba 1628 98bb 452d e43c
00000250: 1960 86bc 5c3d b1bd 4848 f53d 415e b6bd
00000260: 4ccf 67bd e287 3b3d 6414 f2bc d395 393e
00000270: bbdb 12bd 0b28 613e 1984 d33c 3e02 a23d
00000280: 5764 9dbd 3215 0a3e 83dc 013e 9bd9 61bd
00000290: c495 933d dfd9 623d 0502 e1bc f84c fc3c
000002a0: f1f0 23bc 6883 a3bb fc60 c83e ce12 003e
000002b0: 9400 b8bd c516 773d eb1f f93c 703f fa3d
000002c0: 0378 ba3d 9d4e 503e 3c7b 6b3d d4d2 1a3d
000002d0: d60c 8a3d e4ee a53d 29f4 c03d 58ae fe3e
000002e0: 49e1 533d 9774 5bbd 323b 223e 73e0 4e3d
000002f0: 92f6 623d 0d5e cf3d 8c43 9e3d 922d ae3d
00000300: 580a 003d ea78 6d3d 0e16 e63b 2760 3f3d
00000310: bd5b 753e dcf5 073e 7ab1 8d3d 3271 8c3e
00000320: dca8 513c 1e9d 57b9 4663 693d 0172 a33d
00000330: 59f4 383e 4fda 4ebc 93fd 96bd 9e95 e13d
00000340: 0367 5d3b cfec 81bc 8e23 c03c a2b2 543d
00000350: da60 8e3b e323 cfbd 208c 763e 1955 323e
00000360: 6214 b0bc a2d5 1b3d bfa8 26bd 3b53 fe3c
00000370: a393 27bd d4d1 133e f20b 5e3e adcd 80bc
00000380: c759 d9bd de9b 7e3e 65a2 e93d 3e07 813d
00000390: a92e 0c3e 5d1f a23d 89b8 273f b2b6 0cbd
000003a0: 3db5 713e 4e48 d03c 2a38 633c b829 973c
000003b0: 87be 5d3d eb56 7f3d d710 b83d c6ec 1a3e
000003c0: 4261 633d 09a1 d13b da35 a6bd 03df a33d
000003d0: 1de5 43bd b330 b83c f8cf 813d 506b e8bd
000003e0: 89e8 59bd 2258 a2bc f76e 8d3d 4a2c 5abd
000003f0: 93ab e63c 1398 90bc 4543 b93c 5cee 1abd
-0.029444695 0.27970362 0.07785539 0.005479026 0.026423808 0.07047329 -0.06639619 0.010689865
-0.014749703 0.1451217 -0.027902666 0.024914252 -0.04851423 -0.01713927 -0.019892532 -0.14847814
-0.036663882 -0.0131722465 -0.013137077 0.04266436 0.045683905 -0.051789466 -0.024791056 0.07659829
0.08702456 0.00642291 0.05088546 0.027509047 0.049852964 -0.5888199 0.050634846 -0.02338291
0.023635415 0.05053547 0.02278583 -0.064212084 -0.063069895 -0.023010185 -0.0796861 -0.04855905
0.027061597 0.06233987 -0.4793528 0.003995872 0.010649155 0.014880621 0.010292484 0.047806066
0.07886342 0.20750502 0.024597995 -0.020075284 0.08311889 0.020505868 0.00087943085 0.36265615
-0.08036923 0.028656904 0.008071508 -0.09287542 0.05420183 -0.060458682 -0.06658227 -0.014818303
0.12053415 -0.010381519 -0.018725904 0.083545454 -0.026425837 -0.15291892 0.051699717 0.14632958
0.024165332 -0.058803048 0.08296149 -0.023745181 -0.06528599 -0.015656875 0.034941725 -0.013513639
0.0049994853 0.031079708 -0.08354782 -0.07726976 -0.032619167 0.015021547 -0.05984097 -0.045767814
0.07050447 0.06083874 0.08216571 0.10090696 0.0690293 0.017656315 -0.5420288 0.08538758
0.076532036 0.08623327 0.25374243 0.06749269 -0.07551786 0.021720583 0.5428391 -0.009744714
0.03569184 -0.050413553 -0.03618302 -0.031436488 0.05266676 0.05778627 -0.55597025 0.020394573
-0.09430784 0.009935215 -0.060465764 0.13993067 0.055673487 -0.00039225258 -0.06005197 0.013473146
0.15116169 -0.004469094 -0.017344903 0.110907845 -0.06562832 -0.010648367 0.08451936 -0.043418083
0.062315118 0.3370421 0.05912325 0.035839282 0.08571975 -0.06697347 0.0065624854 0.05428441
-0.0030603444 -0.106070004 0.13593106 0.044082694 -0.061117385 -0.05988635 0.05653394 0.05987641
0.07087125 -0.0010817011 -0.0046434505 0.027853617 -0.016403245 -0.086542815 0.11976677 -0.08904696
-0.056594178 0.045783885 -0.029550739 0.1812356 -0.035854083 0.21987931 0.025819825 0.07910584
-0.07685154 0.13484648 0.12681775 -0.055139165 0.072063 0.05538356 -0.027466783 0.03079842
-0.010006175 -0.00499003 0.39136493 0.12507173 -0.08984485 0.06032445 0.030410727 0.12219131
0.09104922 0.20342489 0.057490572 0.037798718 0.067407295 0.081022054 0.0942157 0.4974239
0.05172852 -0.053577986 0.15842894 0.05050702 0.05541093 0.10125361 0.07727727 0.085047856
0.031259865 0.05797664 0.007021672 0.046722557 0.23960777 0.13277382 0.069186166 0.2743011
0.012796607 -0.00020562529 0.05697944 0.07980729 0.18061961 -0.012625291 -0.07372584 0.11014865
0.0033783324 -0.01585999 0.023454454 0.05192817 0.0043450417 -0.10114267 0.24076891 0.17415275
-0.021494094 0.038045533 -0.040688273 0.031045547 -0.04091228 0.14435512 0.21684244 -0.015723074
-0.10612827 0.24864146 0.114079274 0.063002095 0.13689674 0.07916138 0.65515953 -0.03435392
0.23604293 0.025425103 0.013868371 0.01845251 0.05413678 0.06233875 0.08987587 0.15129384
0.055512674 0.0063973707 -0.0811574 0.080015205 -0.04782592 0.02248416 0.06338495 -0.11348593
-0.05320028 -0.019817416 0.069059305 -0.053264894 0.028157985 -0.01765064 0.022615084 -0.037824973

VAE.encoder_mu.layers.1.linear1.bias f4 [4]
00000000: a7e5 53bd 1822 f2bc 4a55 933b e64c 8e3d
-0.051732685 -0.029557273 0.0044962512 0.06948261

VAE.encoder_mu.layers.1.norm1.weight f4 [4]
00000000: 6004 893f bb36 953f 0462 8e3f 2fbf 8a3f
1.070446 1.1657327 1.1123662 1.0839595

VAE.encoder_mu.layers.1.norm1.bias f4 [4]
00000000: 6c42 c73c ad5d bb3d d857 adbc 6e98 2d3c
0.024323665 0.091487266 -0.021160051 0.010595424

VAE.encoder_mu.layers.1.norm0.weight f4 [4]
00000000: d510 873f 080d 843f 5a11 743f 1aea 943f
1.0552012 1.0316477 0.95338976 1.1633942

VAE.encoder_mu.layers.1.norm0.bias f4 [4]
00000000: 7d51 22bc b232 463a f347 573d 2e0d 323d
-0.009907124 0.0007560655 0.05255885 0.0434696

VAE.encoder_mu.last_normalization.weight f4 [4]
00000000: 0000 803f 0000 803f 0000 803f 0000 803f
1.0 1.0 1.0 1.0

VAE.encoder_mu.last_normalization.bias f4 [4]
00000000: 0000 0000 0000 0000 0000 0000 0000 0000
0.0 0.0 0.0 0.0

VAE.encoder_mu.head.weight f4 [4, 4]
00000000: 38c4 b9bd 183b 85be 0055 7f3c 38f5 fe3e
00000010: 8081 b03d 601a db3c 6003 623d 3004 da3e
00000020: f82c e1bd 6213 883e 6cac 10be 280a 60be
00000030: 7828 eabd 80c8 20be 0629 f6be 100d 95bd
-0.09070629 -0.26021647 0.01558423 0.49796462 0.0861845 0.026745975 0.055179 0.4258132
-0.10994905 0.26577288 -0.14128274 -0.21878874 -0.114335 -0.15701485 -0.48078173 -0.07277882

VAE.encoder_mu.head.bias f4 [4]
00000000: 00a2 753d c8bf 863d dc20 f93e 90c1 efbe
0.05996895 0.06579548 0.48657882 -0.46827364

VAE.encoder_logvar.layers.0.attention.W_q.weight f4 [4, 4]
00000000: 3e59 a1be 1fc4 003f 6db8 293f c913 8abc
00000010: 47ce e4be aca2 05bf edad 26bf d091 abbe
00000020: f21f 013f 4bd4 adbe 956a e6be 9ea9 76be
00000030: 39bc 173e 96b9 923e 34cd 72be 0477 51bd
-0.315134 0.5029926 0.66297036 -0.016855137 -0.44688627 -0.5220134 -0.6510914 -0.33509684
0.5043937 -0.3395103 -0.4500319 -0.24088141 0.14817895 0.28657216 -0.23711091 -0.051138893

VAE.encoder_logvar.layers.0.attention.W_q.bias f4 [4]
00000000: 1291 a3bd c0aa 173c 4345 5f3d 1009 5fbc
-0.07986654 0.009257019 0.054509412 -0.0136130005

VAE.encoder_logvar.layers.0.attention.W_k.weight f4 [4, 4]
00000000: 5275 21be 3c51 fcbe 4f57 02be e41e e9be
00000010: f13a 9e3c 5ef9 1c3c 4df7 3f3f 7791 e33e
00000020: c357 ea3e 6d72 d1bd f9ba 8e3e b6cc be3b
00000030: 25eb 80bc e361 9c3e 9872 253e 151c 6c3e
-0.1576741 -0.49280727 -0.12728618 -0.4553138 0.019315215 0.009580938 0.74986726 0.44446918
0.45770082 -0.10226903 0.27877024 0.0058227433 -0.015737126 0.30543432 0.16156995 0.23057587

VAE.encoder_logvar.layers.0.attention.W_k.bias f4 [4]
00000000: 0374 e0b8 1118 2ab7 1ffd d038 6817 a6b8
-0.00010702761 -1.0138393e-05 9.9653604e-05 -7.9198566e-05

VAE.encoder_logvar.layers.0.attention.W_v.weight f4 [4, 4]
00000000: 421b b9be 045e 8ebe 8d3c 8ebe f2a1 aa3e
00000010: 1cfb 6fbd f31a e6be be3c 2a3e 7f0f 3ebe
00000020: efd8 893e 4741 fa3d b7b1 403d 49c7 d0be
00000030: 4665 e2be daee e3bd a4b1 ef3d 253b 453e
-0.3615361 -0.27806103 -0.27780572 0.3332668 -0.058589086 -0.44942436 0.16624734 -0.18560599
0.2692332 0.12219482 0.047044482 -0.40777043 -0.4421789 -0.11129542 0.11703804 0.19260843

VAE.encoder_logvar.layers.0.attention.W_v.bias f4 [4]
00000000: b500 cabc e086 1bbd dee0 b9bb 01b8 debc
-0.02465854 -0.037970424 -0.005672558 -0.02718735

VAE.encoder_logvar.layers.0.linear0.weight f4 [128, 4]
00000000: 7c29 043e f16e c3be 4754 653e 92dd 483e
00000010: e7ba 103e bfe4 c3be 4e12 dfbe d7a9 663d
00000020: bfc6 88be ec2e 0f3d d40c 59bd 1aa1 023d
00000030: 422a 1b3d 726c 9b3e 398a 1d3e e3fd 853e
00000040: 9314 933c dcdb a43e 8d70 59be ac97 c53d
00000050: a871 a23e 9a6e 2cbd 29e0 6cbe 8915 ccbe
00000060: 560e 0b3d 7e44 c13d 305e 3fbe 1e9f 8f3e
00000070: 3a94 69be 67d7 d63d 8811 c2be f271 213e
00000080: 5ab2 86be b26b 89be 9c2c c0bd e99c eebe
00000090: e177 bbbd 6bc5 5b3e 9ff7 873d 7491 07bd
000000a0: d15e 023f b787 b23e 9233 f93c a53f 37be
000000b0: d524 18be 9118 ec3e e3dd 2b3c ecd1 5bbe
000000c0: ded7 dabe 1ec5 793e 4e65 2ebe 0200 11be
000000d0: 3107 d83c 7876 233e 6026 3b3e 9214 eb3e
000000e0: dce3 89be 56b7 b7be 7025 5cbe a6be d3be
000000f0: dc43 9b3d 595e c13e 94d7 a73e c190 bf3e
00000100: 39d4 083f cf45 813e 7458 bebe bb60 05bf
00000110: f501 8ebd 6c1a de3d 23b8 203d 4f87 f53e
00000120: 0514 853e f554 02be 1f19 e13e 5600 ef3e
00000130: ed26 283e 90eb 5dbe 5e04 f4bd ac67 8c3e
00000140: c42c 073f ff95 ca3e 13cb b9be c743 7f3d
00000150: 3cc8 943e 493a b63e 27f3 ddbe 2052 acbc
00000160: 3890 70be 2bf8 1f3d 56bf b83e e75d 70be
00000170: 1bbe f33e ae03 423d 2618 c33c cb18 153e
00000180: c044 3dbe b5f6 a13e 9166 013e 39ba d53e
00000190: 5630 b43e 37a4 9cbd 6bd1 aabe 4cf9 00bf
000001a0: 332e bb3e 1965 7a3d 1aaa a3bd 8860 edbd
000001b0: 8c0d 0e3f 152d f3be 8dc3 943e 9043 193e
000001c0: dce3 9a3e b521 02be 9f53 16bb d93f 9e3d
000001d0: b2c7 9a3e 137c 0a3e 9ec9 e2be 69e1 e93c
000001e0: 8a02 74be 22ef 06bf 9cfa 013f fc37 d33d
000001f0: 0894 ba3d e17c dfbe 7175 943d 739f efbe
00000200: 85ab 0f3e 3600 37be 983b 26bd 4679 cc3e
00000210: 1931 bcbe f349 fd3e 2d4d 01be f8e9 553e
00000220: d066 da3d d175 83be ad47 c03e 0255 d43e
00000230: c9d6 0e3f 5217 3dbe 63c0 5cbe 5f73 04bf
00000240: 7f8e 62be 464d 76bd 9626 8dbe 4f5f 473d
00000250: 5b82 8b3e f825 d7be e4df d03e fb42 86bc
00000260: 145b 5d3e f627 0ebf f96d e03d 6ad7 323d
00000270: 7f67 dbbe 1bf1 d4bd ea96 8fbd 5fdd bfbd
00000280: 0f7f c9bb 6203 c3be bb46 55be d86a 1fbe
00000290: 0f1b 65be 93cb 933e 0502 c3bd 6c36 88be
000002a0: 94ea 7bbe 2feb 683c 7095 873e 077c c23e
000002b0: da87 9fbe 6e09 89bd ce96 a3be 213c 54be
000002c0: 0863 1e3f 8203 bc3e 1589 e13e 8087 e53e
000002d0: f420 233f efc4 9b3b 6587 6bbd 241b 693e
000002e0: b8e6 9fbe 915c fbbd 07de 653e 6954 debe
000002f0: aab0 87be 0dd0 ecbe b575 e5be 62c4 ec3e
00000300: a630 f13e 4005 04be 3b67 93bd ad9b 80bd
00000310: bfa7 4dbe 20d3 733e 11fd 543e 537e 08be
00000320: 21f9 253e f232 4cbe 18c2 5ebe 7fdb d93e
00000330: 8a2f f03d 355d ee3e 258b aebd 5e03 82be
00000340: 776e 823d c13f 833e 3dc5 c7bd 4719 be3e
00000350: e345 123f f179 563e 439d 863e b904 abbe
00000360: c581 133f fcec 82be 4662 783d 2fbe 9abc
00000370: 9f79 65be 6b8a 1bbe 0d86 e9bd 9dc3 03be
00000380: 599c d03e c12f 743e 563b c7bd 03a7 a8be
00000390: 335f f33d 841b 903d 7cc3 b93c 6f24 53bd
000003a0: 3044 893a 0499 873e 61d5 80be 5894 a8be
000003b0: 5d23 e1bd 0687 1f3f b53e 453d feb6 88bc
000003c0: c2cc 2c3e 04f4 633e 75c8 ba3e 56b0 74be
000003d0: 5e32 ef3e 21ca 00be 12a0 a9be 813d dc3d
000003e0: 8850 823e 13b9 3c3e 8bfc cbbe 4daf 833e
000003f0: 0174 62bc 9bcc a33e a2c1 f03e 6697 043e
0.1290645 -0.3817058 0.2239543 0.19615772 0.14133798 -0.38260457 -0.43568653 0.056314316
-0.2671413 0.034956858 -0.05299075 0.03189192 0.037882097 0.30356175 0.15384759 0.26170263
0.017954146 0.3219899 -0.21234341 0.0964807 0.31727338 -0.042097665 -0.23132385 -0.3986018
0.03394922 0.09436892 -0.18688273 0.28051084 -0.2281045 0.104903035 -0.37904 0.15766123
-0.26307946 -0.26839978 -0.093835086 -0.46604088 -0.091537245 0.21462028 0.06639027 -0.0330977
0.5092593 0.34869167 0.030420098 -0.17895372 -0.148578 0.46112493 0.010489914 -0.21466798
-0.4274282 0.243916 -0.17030832 -0.14160159 0.026370617 0.15963161 0.18276358 0.4591413
-0.26931655 -0.35882062 -0.21498656 -0.4135639 0.075813025 0.37767294 0.3278166 0.37415126
0.53448826 0.25248572 -0.3717686 -0.52100724 -0.06933967 0.10844883 0.039238106 0.47954795
0.25991836 -0.12727721 0.43964478 0.46679944 0.16421099 -0.21671891 -0.119148955 0.27422845
0.5280268 0.39567563 -0.36287746 0.062320497 0.29059017 0.35591343 -0.43349573 -0.021035254
-0.23492515 0.03905503 0.36083478 -0.23473321 0.47605976 0.04736679 0.023815226 0.14560239
-0.18483257 0.31633535 0.12636782 0.4174364 0.35193127 -0.07648509 -0.33362898 -0.50380397
0.36558685 0.06113157 -0.07991429 -0.115906775 0.5548942 -0.47495332 0.29055443 0.1496718
0.30251968 -0.1270817 -0.0022938026 0.07727022 0.3023048 0.13523893 -0.44294447 0.028549867
-0.23829094 -0.5270864 0.50773025 0.103134125 0.09110266 -0.43649963 0.07248963 -0.46801338
0.14030273 -0.17871174 -0.040584177 0.39936274 -0.3675621 0.4947048 -0.12627096 0.20890033
0.10664141 -0.25675824 0.37554684 0.41471106 0.55796486 -0.18465927 -0.21557765 -0.5173854
-0.2212467 -0.060132287 -0.275685 0.048674878 0.2724789 -0.42021155 0.40795815 -0.01638936
0.21616775 -0.55529726 0.109584756 0.043662466 -0.428524 -0.1039755 -0.070112064 -0.09368395
-0.00614918 -0.38088518 -0.20827763 -0.15568101 -0.22373603 0.28866252 -0.095218696 -0.2660402
-0.24601203 0.014216228 0.264812 0.3798525 -0.31158334 -0.06691252 -0.31950992 -0.20726062
0.6186986 0.36721426 0.44049898 0.4482994 0.6372216 0.004753701 -0.05750217 0.2276426
-0.31230712 -0.12273515 0.22447978 -0.43423775 -0.2650197 -0.4625248 -0.44816366 0.46243578
0.47107428 -0.12892628 -0.07197424 -0.06279693 -0.20083521 0.23811007 0.20799662 -0.13329439
0.16208316 -0.19941309 -0.21753728 0.42550275 0.11727817 0.46555486 -0.085226335 -0.25393194
0.06368726 0.25634578 -0.09754417 0.3712866 0.5713789 0.20944954 0.26291856 -0.3340204
0.5761989 -0.2557143 0.060640596 -0.018889515 -0.22409676 -0.15189521 -0.11402521 -0.1286759
0.40744284 0.23846342 -0.09728114 -0.3293992 0.11883392 0.07036498 0.022676222 -0.051548418
0.0010472592 0.2648393 -0.25162795 -0.32925677 -0.10993073 0.62315404 0.048155505 -0.01668882
0.16874984 0.22261053 0.36481062 -0.23895392 0.46718115 -0.12577106 -0.33129936 0.107539184
0.25452065 0.18429975 -0.39841112 0.2571968 -0.013821603 0.3199204 0.4702273 0.12948379

VAE.encoder_logvar.layers.0.linear0.bias f4 [128]
00000000: 4984 dfbe 792d a63e 84ca 703e ea96 9e3e
00000010: d9bc 7ebe 4c97 d4be bffe 503e 0152 00be
00000020: 0b17 ae3d a9d9 b53d b43f 113e a86d 08bc
00000030: fff7 8d3e 5a96 a8be e430 e0be 2ccd 2f3d
00000040: efc8 063f 0160 84bb 550f 9b3d 44a6 dc3e
00000050: 2d36 bbbe f525 e4be 6608 7b3e 4471 eebd
00000060: bb71 703b d40f a93d f381 89bd 8866 e93e
00000070: 22e9 fe3e 4590 02bf c840 d83d 0a6c fe3d
00000080: 928e 44be 904e bcbd fd9d dabe 90c4 e3bd
00000090: 370e f8be 3df5 06be 94e5 253d 2926 b8bd
000000a0: ad82 433b 89b8 943d bef0 96be 4b9d a0be
000000b0: 2bf7 493e 991d a4be 477b b83c 526f efbc
000000c0: 44bc ca3e 4619 fb3d f4f6 653e e3f0 d3bc
000000d0: 0ab3 2cbd a7c8 033f d296 983e 5370 fe3e
000000e0: 58c7 eabe 5bd2 0c3e d7b5 21bd 6cc4 c13e
000000f0: bb3a fbbe 044a b3be bfca 19be fd7f ab3e
00000100: d94e cebb da28 c0be 82fb 61be 7fb6 f6be
00000110: e41c a43d a237 893e 45af dd3e 707b 103d
00000120: d12d c63c 97a4 05bd bfc5 fe3d de5a f13e
00000130: 2c51 4a3e 9a5c 453e 0fc1 883e d122 f93d
00000140: a54d 75be 79ee 9f3e 5390 0fbe 5d16 8fbe
00000150: e716 01bf 7048 eabe 2424 ffbe 174f e53e
00000160: a058 a83e 0e0f 77bd 89fe eabc 87ab 88be
00000170: 6074 e9bd 6acf 96be f8d1 d9be 4acf 9dbe
00000180: c7e3 df3e 6e25 36be 6d5f 8abe 2d47 f5bc
00000190: 7616 84be f2f6 f0bc 9d1c cbbd 840b b9bd
000001a0: 8fe5 c4bd 6e74 703e 31af fb3e 9dc7 b0bd
000001b0: e19e eabe 51f5 e43e 9333 2a3e 02e3 a23e
000001c0: b969 3dbe 54d1 ddbd d6da c9bc 49b4 cdbd
000001d0: b1a8 7ebd 64c5 10be 5e77 ccbe 2120 c2be
000001e0: 3a79 74be f2ba b83e caf2 42be dc0e 743e
000001f0: 6de3 943e bc9d 9c3e d76c f6be 4854 a7be
-0.43655613 0.32456568 0.23514754 0.30974513 -0.24876727 -0.4152168 0.20409678 -0.12531282
0.08500489 0.08879406 0.14184457 -0.008326925 0.27728269 -0.3292721 -0.437873 0.042920277
0.5265035 -0.004039765 0.07571284 0.430956 -0.3656477 -0.4456021 0.24514922 -0.116426975
0.0036688882 0.08254972 -0.06714239 0.45586038 0.4978724 -0.5100139 0.10559231 0.124229506
-0.19195011 -0.09194672 -0.4269866 -0.11121476 -0.48448345 -0.13179488 0.040502146 -0.089916535
0.0029832528 0.0726176 -0.29480547 -0.31370005 0.19723193 -0.3205383 0.02251972 -0.029227886
0.3959676 0.1226068 0.22457486 -0.0258717 -0.042162932 0.51478046 0.29802567 0.49695072
-0.45855212 0.13752119 -0.039480057 0.3784517 -0.49068245 -0.35017407 -0.15018748 0.33496085
-0.0062960205 -0.37531167 -0.22068599 -0.48186108 0.08013323 0.26800257 0.43297783 0.03527397
0.024191769 -0.03262767 0.12440061 0.4713964 0.19757527 0.19273606 0.26709792 0.12164844
-0.239554 0.31236628 -0.14019899 -0.2794675 -0.5042557 -0.4575839 -0.4983226 0.44786903
0.32880116 -0.06031709 -0.028685825 -0.26693365 -0.1139915 -0.2945512 -0.42543006 -0.30822212
0.43728468 -0.17787716 -0.2702593 -0.029941166 -0.25798386 -0.029414628 -0.09917567 -0.090353996
-0.09614097 0.23481914 0.49157098 -0.08631823 -0.4582434 0.44718412 0.16621237 0.31813818
-0.18497361 -0.10830942 -0.024640482 -0.10044152 -0.062172595 -0.14137799 -0.3993482 -0.37915137
-0.2387437 0.36080128 -0.19037929 0.23833793 0.29079762 0.30589092 -0.48129913 -0.3268149
