restsyn/tabsyn/vae/ckpt/heloc_cond/decoder.pt (torch, 28233 bytes, 47 tensors)

VAE_Decoder.layers.0.attention.W_q.weight f4 [4, 4]
000000 87 6d d2 3e 30 e8 a1 bd 55 f4 98 3e 41 26 e1 be
       0.41099188 -0.079056144 0.2987391 -0.43974498
000010 b0 d7 f7 3e 08 cd d5 be 27 ca 9d be 4b 27 89 bd
       0.48406744 -0.4175799 -0.30818292 -0.06696948
000020 d2 60 16 bf 72 fb ba be f7 12 27 be 51 50 34 3e
       -0.58741486 -0.36519963 -0.16315828 0.17608763
000030 7b 47 b5 be 22 c6 0e bf 79 c3 06 bf e2 33 7d be
       -0.35406098 -0.55771077 -0.5264202 -0.24726823

VAE_Decoder.layers.0.attention.W_q.bias f4 [4]
000000 4b f1 2d 3e f3 da 09 be bd 78 32 bd 62 d8 46 bc
       0.16986577 -0.13462429 -0.043572176 -0.012136551

VAE_Decoder.layers.0.attention.W_k.weight f4 [4, 4]
000000 19 69 80 3e ef 09 42 3e d6 11 97 3d 4a ab 85 bd
       0.25080183 0.18949102 0.07376449 -0.065268114
000010 c1 19 ce be a4 0e e6 bc 10 4b 37 bd 0e 23 9a 3e
       -0.40254024 -0.028083153 -0.04474932 0.3010487
000020 17 fe 90 3e 75 96 ec 3d ee fa 2f bf c4 8d 1d 3e
       0.28318855 0.11552135 -0.68742263 0.1538611
000030 3e 2c 06 3f 2d 98 f2 bd d8 63 19 bf 9a 0f bc be
       0.5241126 -0.118454315 -0.59917974 -0.36730653

VAE_Decoder.layers.0.attention.W_k.bias f4 [4]
000000 7c 3a d7 38 e1 a1 6e b9 a6 fe 8c 38 b3 f6 b4 39
       0.000102628925 -0.00022757753 6.723152e-05 0.0003451608

VAE_Decoder.layers.0.attention.W_v.weight f4 [4, 4]
000000 5e 91 99 be 74 3f 17 3e a1 8c dd 3e 72 cf 1c 3e
       -0.2999372 0.14770299 0.43271354 0.15313509
000010 16 11 b0 be 46 3d ce 3d c7 8b b9 3e ec 35 e5 3d
       -0.34388036 0.10070281 0.36239454 0.111919254
000020 77 07 b4 3c a3 a8 4c 3e 81 f6 3e 3d 03 cf 03 3e
       0.021976216 0.19986205 0.046621803 0.12871937
000030 e3 ff 2b be 2d 3c c8 3d 37 1c 71 3e 54 1a 02 3e
       -0.16796832 0.097771026 0.2354592 0.12705356

VAE_Decoder.layers.0.attention.W_v.bias f4 [4]
000000 d5 06 25 3d 71 b6 59 bd 8c df 85 bd 3d 0f ab bd
       0.04028972 -0.053152505 -0.06536779 -0.08352516

VAE_Decoder.layers.0.linear0.weight f4 [128, 4]
000000 cb 40 3f be 95 36 27 bf b2 c5 bb 3e 4c 49 2f bf
       -0.1867706 -0.6531766 0.36674267 -0.6847122
000010 6b 8b 8f 3e 10 f7 51 3e e2 9b 8b be 60 d7 84 be
       0.28036055 0.20504403 -0.27267367 -0.25945568
000020 98 a9 39 3e c1 18 21 3f 70 b2 db be 0e 8d d5 be
       0.18131101 0.62928396 -0.42909575 -0.4170918
000030 06 ee 62 be 72 13 4e 3e 39 9c 06 3e 65 3f 54 3d
       -0.22161111 0.20124605 0.13145532 0.05181827
000040 cb 61 32 bf 3e bd 1a be da 7b ec 3d 1b 99 de bd
       -0.6968047 -0.15111253 0.1154706 -0.10869046
000050 31 36 79 3d e9 5e 30 3f 81 c1 c0 be 34 9b 75 3e
       0.060842697 0.6889482 -0.37647632 0.23984987
000060 07 42 c5 be cf 76 35 3f f8 b5 16 bf f5 a5 82 bd
       -0.38526937 0.7088441 -0.5887141 -0.0637931
000070 7b e1 bc bd 21 f6 0f 3f 59 7b ff be f8 f0 69 3e
       -0.092226945 0.5623494 -0.49898794 0.22845829
000080 39 4b a0 be 2e d3 61 3e 3e 52 11 3f 63 93 08 3f
       -0.3130739 0.22053215 0.56766117 0.53349894
000090 e8 0f 8d 3e 78 a2 ee be 44 25 c0 3e 4a 5c f7 3d
       0.27551198 -0.4660833 0.3752843 0.120781496
0000a0 3b 4a d6 3d aa fd b9 3e 02 80 d0 be 07 c6 8e be
       0.10463377 0.36326343 -0.40722662 -0.27885458
0000b0 e1 27 83 be 39 23 97 3e e7 de ec 3d be 53 a4 3e
       -0.25616363 0.2951906 0.11565953 0.3209514
0000c0 1b 86 b4 bd 1d e0 da be 39 9d c5 3e 2c 0f d4 be
       -0.08814641 -0.4274911 0.38596514 -0.41417825
0000d0 cd 4c b4 3e 7f 17 f6 3e 0f db 06 3d 24 2e 05 bf
       0.35214844 0.480648 0.032923754 -0.5202353
0000e0 82 3d 11 3e da 00 f5 3c 6e 95 e0 3e 8e 3f 05 be
       0.1418362 0.029907633 0.43864006 -0.13012525
0000f0 38 33 c7 3e 81 c0 a6 3d 41 07 18 be 7b ea 8e 3e
       0.38906264 0.08142186 -0.14846517 0.2791327
000100 27 f8 07 3f de 9d 70 be 3e 48 b1 be fc 69 94 3e
       0.53113025 -0.23497722 -0.3462543 0.2898711
000110 26 21 cb be 25 d3 34 be 05 70 a3 3a cf b1 81 3e
       -0.39673728 -0.1765867 0.0012469298 0.2533097
000120 40 b5 cd bd 16 f0 db 3e 9b d8 5c bd 46 6b c3 be
       -0.10044336 0.4295661 -0.05391751 -0.3816778
000130 c7 70 8d be ae ee 10 3f 21 4b 15 bf 98 7f ea 3e
       -0.27625105 0.56614196 -0.5831776 0.4580047
000140 46 58 ef 3e 50 a1 19 bf b8 c9 4e 3e af 2e 6f bd
       0.46747035 -0.6001177 0.20194137 -0.05839413
000150 c7 bd a3 3d 2c 21 b0 3c 3c 39 99 bd b2 6e 4a 3d
       0.079951815 0.021500193 -0.0748162 0.049421974
000160 0d 1b 93 3e af be 4a 3d 83 f8 c0 be f4 bb d8 3d
       0.28731576 0.049498256 -0.376896 0.10582724
000170 aa 35 65 3d c4 37 cc 3e 69 b7 0c bf df 8f 01 3f
       0.05595938 0.39886296 -0.5496736 0.50610155
000180 52 52 e5 3e c3 f4 92 3d 4d 15 ce be 13 f7 29 be
       0.44789368 0.07175591 -0.40250626 -0.16598158
000190 14 bf b8 3e b2 e3 e3 be f5 6d c7 bc cf 6f b9 3e
       0.3608328 -0.44509655 -0.024344424 0.36218116
0001a0 8f 91 69 3d 70 c6 4e be 4a 92 37 3f 83 da 2e be
       0.05702358 -0.20192885 0.71707594 -0.17075543
0001b0 0d 04 d5 be b0 e9 d5 be 6e b8 23 be cc 45 08 3f
       -0.41604653 -0.41779852 -0.15988323 0.532315
0001c0 b7 eb 14 bf 6c d4 ba 3e e1 ef 5c be 4d f2 9b 3e
       -0.5817217 0.3649019 -0.21575882 0.30458298
0001d0 51 4e fc 3e 25 c3 94 be d6 44 f4 3c 43 f0 1c be
       0.492785 -0.29055133 0.02981798 -0.15326028
0001e0 92 61 0d 3f 78 e4 bc bc 5a a2 e6 bc 3c ac bc 3d
       0.55227005 -0.023058161 -0.028153587 0.092125386
0001f0 26 ef e0 bd b4 08 3b 3f 2c 2f b2 be e5 90 aa bd
       -0.10983114 0.73060155 -0.34801614 -0.08328418
000200 f2 d2 69 3d 3e 20 00 bf ca 13 f8 3b f5 3a 90 3d
       0.05708594 -0.500492 0.0075707184 0.07042495
000210 b7 08 6a bd 60 39 d0 3e c7 0b d3 be ce 66 ec be
       -0.057137217 0.40668774 -0.41219923 -0.46172184
000220 cf 2a 98 3e ff 85 31 be 0c b8 00 3f 6c 2c d6 be
       0.2972016 -0.17336272 0.50280833 -0.41830766
000230 91 50 d9 3e 8d c1 6a be 48 94 58 be 9a a3 4c 3e
       0.4244428 -0.22925396 -0.21150315 0.19984284
000240 fb d0 b7 be f7 36 86 3b c7 ab 4e 3d 23 1f bd 3e
       -0.35901627 0.004095908 0.05045679 0.36937818
000250 fb 74 1f bd d8 84 37 3f f0 e4 dc be 29 ea a8 be
       -0.03892992 0.7168708 -0.43143415 -0.3299115
000260 52 52 1e 3f 9d 50 7d bd bc 4b ce 3e 56 42 b8 be
       0.6184436 -0.061844457 0.40292156 -0.3598811
000270 f9 b4 07 3f 09 c9 0f bf 97 c5 33 3e 60 f9 60 3b
       0.5301052 -0.5616613 0.17555843 0.0034328327
000280 89 85 52 3e c5 a1 a9 3b 9d f6 dd 3e 5b 00 1b bf
       0.20558752 0.005176755 0.43352214 -0.6054742
000290 a2 2b 67 be 2b f9 1a 3e 54 bf 16 3f 43 73 61 be
       -0.22575238 0.15134113 0.58885694 -0.22016625
0002a0 62 ae 8b bd 0c c0 26 3f ef b9 a6 bc d9 86 e6 3e
       -0.0682037 0.6513679 -0.020352332 0.45024756
0002b0 25 ef 49 be 4e 42 28 bf c1 b7 e9 3d 61 51 e1 3d
       -0.19720133 -0.6572617 0.114120014 0.1100185
0002c0 ec f0 3b bf b5 89 01 bf 3b c9 1c 3f 63 ca 0f 3d
       -0.7341449 -0.5060075 0.61244553 0.03510512
0002d0 dc 37 ec 3d d8 4f fc bb ab 9d 80 be b5 e3 20 3e
       0.11534092 -0.007699948 -0.2512029 0.15711863
0002e0 8b f2 48 3c a6 6a f5 be bb c5 fa 3e 79 b5 e5 3e
       0.012264858 -0.4793293 0.4897898 0.44865015
0002f0 2e 97 80 be e6 33 24 3f fb f7 40 be 69 fb 53 bd
       -0.2511534 0.6414169 -0.18844597 -0.051753435
000300 f8 62 b1 be a7 bc d4 3d 82 8d dd be 9c e0 f7 3e
       -0.3464582 0.10387545 -0.43272024 0.4841355
000310 b8 d1 5a be 52 26 a9 3e 28 80 02 bf 0e 04 f2 3d
       -0.21369064 0.3303705 -0.509768 0.118171796
000320 61 b4 5c be 98 1b 01 3f d4 25 09 3f a3 84 01 bf
       -0.21553184 0.5043273 0.53573346 -0.5059301
000330 93 68 7d 3e a7 22 b2 3c df c8 c6 be 3d d6 bf be
       0.24746923 0.02174504 -0.38825127 -0.37468138
000340 78 e3 04 3f 50 8d 24 3f 3a 11 52 3e 3c 51 da be
       0.5190959 0.64278126 0.20514384 -0.42640102
000350 8c 55 af 3e 34 04 bb be 37 b3 0c 3f fe 55 19 bf
       0.34244955 -0.36526644 0.5496096 -0.5989684
000360 25 69 df 3e 35 cd ca be 51 ae e7 bd 74 9c 6f bd
       0.43634906 -0.39609686 -0.11312545 -0.058498815
000370 c6 10 9e 3c 65 8d 9f 3e a8 47 04 bf 67 48 ef 3e
       0.019295108 0.31162563 -0.5167184 0.46734926
000380 f7 fe b9 3e 57 62 04 3f fd ae f0 bd 57 92 70 be
       0.36327335 0.51712555 -0.11752126 -0.23493324
000390 b1 b2 9b 3e 12 94 89 3e a8 8e 9a 3e 2a 20 5f be
       0.30409768 0.2687078 0.30186963 -0.21789613
0003a0 b0 ec dc be a7 b7 f8 3e fa 7c 92 3c 7b 05 c0 be
       -0.43149328 0.48577616 0.01788186 -0.3750418
0003b0 39 2b 38 3f 0c 06 98 be 30 7d 04 3f 87 e5 8a be
       0.7194095 -0.29692113 0.5175352 -0.2712824
0003c0 b9 33 f7 bc 78 b3 39 3f 7b d3 35 bf 93 88 9d be
       -0.03017603 0.7253947 -0.7102582 -0.3076826
0003d0 ec ec 82 3e 15 f7 e9 3e 14 88 bb be f9 a2 4f bc
       0.25571382 0.4569632 -0.36627257 -0.012673133
0003e0 19 17 c9 bc 08 db 8e be 9a ae 96 be bb ca 9a be
       -0.024547147 -0.27901483 -0.29430085 -0.30232796
0003f0 f6 b4 8a be 92 b2 28 3f c3 ac 3d bf b2 ce cc be
       -0.27091187 0.65897477 -0.7409174 -0.40001446

VAE_Decoder.layers.0.linear0.bias f4 [128]
000000 de 99 e0 3e 8a d2 bf bd 06 e9 65 be 67 fc 04 3f
       0.4386739 -0.09366329 -0.22452173 0.51947635
000010 12 57 50 be 53 11 a7 bc 9c f1 76 bc 9c 36 f7 3e
       -0.20345715 -0.020394003 -0.015072253 0.4828385
000020 e5 85 bd 3c 0d 83 cb 3c 65 69 ce 3e 1b 10 b3 3e
       0.023135135 0.024842763 0.40314785 0.34973225
000030 0b b7 db 3e d3 5e c6 be 29 ee 59 be c0 32 86 be
       0.42913088 -0.3874422 -0.21282257 -0.26210594
000040 b7 e7 38 3e bc 3f 1c 3f b1 fc e9 be 97 09 70 38
       0.18057142 0.6103475 -0.457006 5.722939e-05
000050 11 2a 08 3f 9a 5e a3 be a3 00 d4 be e1 9f ef 3e
       0.5318919 -0.31908113 -0.41406736 0.46801665
000060 f6 4e e7 3e a8 2b e2 be ef 8b 11 3f 63 6b e1 be
       0.4517743 -0.44173932 0.56854147 -0.44027242
000070 9c b8 19 3f 00 cb 61 3e 1f e8 e4 3d 1a 9f 30 3e
       0.60047317 0.22050095 0.11177086 0.17248192
000080 66 7e 8c 3e e7 dc 12 3e b0 36 1d 3f e6 34 85 3e
       0.27440184 0.1434208 0.6141157 0.2601692
000090 ce 21 a6 3e 7c 76 e8 3d 37 14 b1 bd 48 49 fd 3e
       0.32447666 0.11350724 -0.08646434 0.49469972
0000a0 08 85 af 3e ca 9f 2d 3e f2 a7 28 3d 6b 76 8d bd
       0.34281182 0.16955486 0.04117579 -0.06907352
0000b0 db 0c 31 3e a4 b3 eb 3e 7e e2 77 3c da 77 97 be
       0.1729006 0.46035492 0.015129684 -0.29583627
0000c0 f6 9c b5 3d 1f 13 34 3e 9a 3b d7 be 10 b8 a4 bc
       0.088678285 0.17585419 -0.4203766 -0.0201073
0000d0 95 4f e1 3e c3 5d da 3e 26 03 5f 3e 1c e2 bb 3e
       0.4400603 0.4264966 0.21778545 0.36695945
0000e0 67 9f 71 3d ac 6c b5 be d5 19 91 be 6f 83 82 be
       0.05898991 -0.35434473 -0.2834002 -0.254909
0000f0 cb 6c 6c be 3a ad dc 3e ec b1 b7 3e 5e 38 ae 3d
       -0.23088376 0.4310091 0.3587793 0.08506845
000100 4d e8 92 3d 7b d6 b3 3e 11 20 56 be 88 1e ea be
       0.07173214 0.35124573 -0.2091067 -0.45726418
000110 c8 f0 8d 3e 26 79 0d 3f 61 58 25 3e 1c f6 f4 bd
       0.27722764 0.5526298 0.16146995 -0.11961004
000120 d8 91 85 3e 54 ef 47 3e a3 be 91 be 55 4c 7d bc
       0.26087832 0.1952489 -0.28465757 -0.0154600935
000130 1e f6 e5 be da 96 b3 3e d7 e1 e6 be ca 00 43 3e
       -0.44914335 0.35076028 -0.45094177 0.1904327
000140 cf c1 99 be 3d b0 db be be 28 8d 3e 05 f2 81 3e
       -0.30030677 -0.42907897 0.27570146 0.2537996
000150 b7 f9 de bd ba c9 80 be 17 fc df be fc 65 5b 3d
       -0.10887473 -0.25153905 -0.43747017 0.053564057
000160 90 3a 12 3f 76 ce e1 3e 48 be cd 3e 38 75 f9 3e
       0.5712061 0.4410283 0.40184236 0.48722243
000170 d2 2a 67 bd 04 f5 3f be e8 86 be 3d 53 aa c7 3e
       -0.05643732 -0.1874581 0.09303075 0.38997135
000180 e9 4c ae 3e 1d 28 aa 3d 0b 67 d1 3e ae 0e 56 3b
       0.34043053 0.08308432 0.40898928 0.0032662558
000190 58 56 13 3e 50 66 9f 3d 0d 72 0e 3e 72 37 c5 3d
       0.14388406 0.077831864 0.13910694 0.09629716
0001a0 0e 94 2c be d1 23 8e 3e b4 37 0f 3f 12 2f 9b 3d
       -0.16853353 0.277617 0.5594437 0.07577337
0001b0 01 1f b1 3e bd fa 50 3e 37 56 6e 3e 85 79 ad bd
       0.34593967 0.20408149 0.23275076 -0.08470444
0001c0 43 f4 47 be 94 5d c5 be d4 44 23 3f 83 a4 b1 be
       -0.19526772 -0.38547957 0.637769 -0.34695825
0001d0 53 38 8a be 38 56 33 be 82 85 06 3f 62 da b9 bd
       -0.26996097 -0.17513359 0.52547467 -0.09074856
0001e0 f3 f8 d4 3e 02 db f8 3e 08 d9 d2 3e e8 b0 ff be
       0.41596183 0.4860459 0.41181207 -0.49939656
0001f0 58 c0 f8 3e 4f b3 97 3e 2b 86 8c 3e 94 ba af be
       0.48584247 0.2962899 0.27446112 -0.34322035

VAE_Decoder.layers.0.linear1.weight f4 [4, 128]
000000 8b d7 20 be 5a 39 45 3d ec ab 7f bc a0 6c 49 bd
       -0.15707223 0.048150398 -0.015604954 -0.04917586
000010 d8 c4 2c be 28 1b 36 3e 45 d5 81 3e ac 64 23 3e
       -0.16871965 0.17783797 0.25358024 0.15956372
000020 3c c1 9b bd b1 8a 9e bc 4d 80 85 bd b7 cf b1 bc
       -0.07605216 -0.019353243 -0.06518612 -0.021705491
000030 90 37 36 be 3b 34 1a 39 ab cb cb 3d 40 99 e7 bc
       -0.17794633 0.00014706042 0.09950956 -0.028271317
000040 f9 58 1d 3d bb f4 a2 bd 7f 2e a8 bd 5b ab 1f 3e
       0.03841493 -0.07956835 -0.082119934 0.1559271
000050 4d 54 09 be ed a9 32 bb c8 af c4 3c 4e 53 0c 3e
       -0.13411064 -0.0027261928 0.0240096 0.13703653
000060 74 77 08 bd cf 4e b6 3d b0 68 35 be c1 6d 8c bd
       -0.033317044 0.0890175 -0.17715716 -0.068568714
000070 e8 70 14 3c e3 74 73 3c 55 3a ca bd 0e 6d 88 3d
       0.009060122 0.014859411 -0.09874407 0.066614255
000080 2b 7d db bd be 30 b4 3c c4 7a 0d be e2 02 23 bd
       -0.10717233 0.021995898 -0.13816363 -0.03979767
000090 2e 89 8c bd 37 fe ab 3d 9c d6 f2 bc 45 2c f3 3b
       -0.068621024 0.08398097 -0.02964335 0.007421049
0000a0 f0 68 86 bc 9d c5 06 be 1e 3c 23 3e 65 59 f4 bc
       -0.01640746 -0.13161321 0.15940902 -0.029827783
0000b0 ef a3 22 be 2b 6c 4d bd 79 ef 12 be a8 5c 55 3e
       -0.15882848 -0.050151985 -0.14349164 0.20836127
0000c0 fd ad 80 3b 53 ae 80 3d f0 9d e9 bd 1f 08 84 bc
       0.003926991 0.0628325 -0.11407077 -0.016117154
0000d0 d7 ec 2b 3d 73 70 c4 bc 9a 43 db bd ce a6 ae 3d
       0.041973915 -0.023979401 -0.10706253 0.08527909
0000e0 76 34 28 bd 73 36 e8 3c ef 16 0c be 6b 63 36 3d
       -0.041065656 0.028346276 -0.13680623 0.044528406
0000f0 87 74 48 3e ae 04 a0 bd 4d 23 08 39 b8 12 3b 3e
       0.19575702 -0.078133926 0.00012983121 0.1826886
000100 00 96 2c bd c0 87 01 bd 98 0b f7 bd f1 8e b4 3d
       -0.04213524 -0.031623602 -0.12062758 0.088163264
000110 24 3b a7 3d 6d 4b c8 bd ef df 30 3c ea 8c dc bd
       0.08165577 -0.09780011 0.010795577 -0.10769065
000120 a8 4a ef bc bb 96 cb bd 01 bb e2 bb d9 d7 f5 bd
       -0.029210404 -0.09940859 -0.0069192653 -0.1200406
000130 62 86 ec bd 35 17 29 be 3d d6 de bd 98 f3 84 be
       -0.11549069 -0.16512759 -0.108807065 -0.25967097
000140 5f c7 85 be 12 69 62 3e 68 bd 78 bd 9d 0b 3a 3b
       -0.2612867 0.22110394 -0.060727507 0.002838827
000150 39 6b de bd 14 09 a6 bc c8 8a c4 bd b8 5d 30 be
       -0.10860295 -0.020268 -0.09596783 -0.17223251
000160 a1 31 2d be cb 67 0d 3e b3 58 f9 3c c9 52 a6 bc
       -0.16913463 0.13809125 0.030437803 -0.020303147
000170 ef 37 59 be b2 88 57 be c5 e0 15 be 35 04 9c be
       -0.21212743 -0.21048239 -0.14636524 -0.3047196
000180 be 09 31 3d f2 43 83 3c b3 00 f2 bd 22 ab 08 3d
       0.04322218 0.01602361 -0.118165396 0.03336633
000190 5f 77 b3 bc 6e d8 91 bd 94 aa 47 be 2c 6e db bc
       -0.021907507 -0.07121359 -0.19498664 -0.026785932
0001a0 3a e8 c9 bc 51 3b 5f bd a1 de 76 bd 7a ec cf 3d
       -0.024646867 -0.054499928 -0.06027091 0.10152526
0001b0 49 fd d1 b8 9d c1 d8 bc 92 97 a6 bd 19 dd d9 bc
       -0.00010013075 -0.02645951 -0.081343785 -0.026594685
0001c0 38 5f 2c be 78 4f e1 bd fe a8 c2 bd f1 bd 16 bd
       -0.16833198 -0.110014856 -0.09504889 -0.036802236
0001d0 79 79 1b ba 05 d2 60 be 1f 36 85 3d 49 30 8f 3d
       -0.00059308816 -0.21955116 0.065044634 0.069916315
0001e0 84 3c 90 bd 48 ea d0 bb 6c d9 97 3d e6 86 e4 3d
       -0.070427924 -0.0063755848 0.07414517 0.11158542
0001f0 2c 99 06 bd f3 13 0c 3e a1 e1 7c bd e6 7f 29 be
       -0.03286092 0.13679485 -0.061738614 -0.16552696
000200 14 fe 57 be 9f a6 b7 3b b8 6d d8 3d c4 6e ac bc
       -0.21093017 0.0056045796 0.10567802 -0.02104891
000210 7b 6b e7 3d 61 f5 34 3e 0a 4f cb 3d 48 11 03 3e
       0.11299797 0.1767173 0.09927185 0.12799561
000220 71 b5 e0 bc f6 49 95 be 51 fd e8 3c 89 79 55 bc
       -0.027430268 -0.2915799 0.028441103 -0.0130294645
000230 31 a6 72 be e2 8d 7c 3d 96 1e af 3c 9e 44 20 3c
       -0.2369621 0.061658747 0.02137689 0.009781985
000240 79 d5 22 3d 82 5c 04 be cc 05 8e bc 82 5b e6 3d
       0.039754365 -0.12925914 -0.017336749 0.112479225
000250 37 20 71 be ce a2 35 bd c2 31 9f 3d 5b e0 19 3e
       -0.23547445 -0.044344716 0.077731624 0.15026991
000260 ae 43 bc bc d4 4d a7 be ad d4 4c be 8a 39 0e 3e
       -0.022981491 -0.32676566 -0.20003004 0.13889137
000270 e7 48 91 3d 11 f2 44 be bb d8 4a bd b0 17 dc 3d
       0.07093983 -0.19232966 -0.049523097 0.107467055
000280 70 18 8a be 20 9c 4c 3d 20 17 d3 bd 41 b5 bd 3d
       -0.2697177 0.04995358 -0.10307145 0.09263087
000290 2f 01 7c 3d bb 75 f0 3d 53 4c 41 bd c0 00 61 be
       0.061524566 0.11741205 -0.04719193 -0.21972942
0002a0 6f 3c a1 bc 22 b8 4c bd 8f 1e 13 3d fd e2 31 be
       -0.019682137 -0.04998029 0.035917815 -0.17371745
0002b0 94 19 31 be 04 37 eb 3d f1 a6 b2 bd 5a b5 e4 bc
       -0.17294914 0.11485103 -0.08723248 -0.027918506
0002c0 49 52 2d bd 22 a2 17 3e 8f 35 e7 3d 0f 8f 4b bd
       -0.0423148 0.14807943 0.11289512 -0.04969698
0002d0 cc c0 e9 3d 9c 7a 3b be bd ae 98 bd 92 76 07 3e
       0.11413726 -0.1830849 -0.07455204 0.13228825
0002e0 b1 bc 94 3d 4a 8e fb bd 0d ae 1e 3d 64 73 e7 bd
       0.072625525 -0.12282999 0.038740207 -0.11301306
0002f0 d8 33 6d 3e eb 9d 65 3c 27 fb cf bc 72 f3 16 3e
       0.23164308 0.014014701 -0.025388313 0.14741305
000300 59 a9 c2 bc 90 7c 68 bd 2a 42 86 be fe fe e6 3d
       -0.023762392 -0.056759417 -0.26222354 0.11279105
000310 63 a9 39 3d a1 d4 63 be 8c 9c a4 3b 26 e7 cb bd
       0.045327555 -0.2224908 0.0050235447 -0.099561974
000320 2b c8 06 3d 7f df 5d bd 93 55 b8 3c 1d 02 7c be
       0.03290574 -0.05416822 0.022501742 -0.24610181
000330 35 86 6f 3d 82 1b 0d 3d 61 ea 0e 3d 20 d5 69 be
       0.0584776 0.03445006 0.03489149 -0.22835207
000340 bf c6 7b be a6 68 82 bd d0 e9 66 bc 1d e5 6f 3d
       -0.24587534 -0.06367616 -0.014093831 0.05856811
000350 a9 e7 b7 bd f7 8e 91 3d b4 c9 32 bd 6f 2a 1d be
       -0.089797325 0.071073465 -0.04364939 -0.15348218
000360 62 12 81 bd be aa 0b bd d1 a3 35 3e 4a fb c3 3d
       -0.06302334 -0.03409838 0.17738272 0.09569414
000370 cc 79 0b 3d 54 ed e0 bd bf 41 c5 bd 1c 6f 17 be
       0.0340517 -0.10982767 -0.09631681 -0.14788479
000380 c3 ab 4f b9 17 a2 9e be 4f ff 7b bd 41 bb ae bb
       -0.00019805045 -0.3098304 -0.061522778 -0.005332381
000390 5b 3e 6a 3b 39 cc 4e 3b 14 8e 70 be f5 d6 ec bc
       0.0035742733 0.0031554832 -0.23491699 -0.028911093
0003a0 36 d8 4f 3d 71 ec c8 3d a4 8d 45 3d cc 89 40 3d
       0.050743304 0.098107226 0.048230782 0.047006413
0003b0 b8 c4 ad 3d 7c 7a ae bd 0b 1b a7 be bd c4 19 bd
       0.08484787 -0.08519456 -0.3263782 -0.03754114
0003c0 f4 ae 99 bd c1 fa e4 3c 54 ea e1 bd 48 f7 3a 3e
       -0.07504073 0.0279516 -0.11031023 0.18258393
0003d0 54 cc ab bd 71 55 e7 be 3c cb a4 3d a4 f4 a4 bc
       -0.08388582 -0.45182374 0.080465764 -0.020136185
0003e0 76 15 ec bd 19 ab 4a be fb 46 e3 3b f4 4d 11 3c
       -0.11527531 -0.19791831 0.0069359518 0.008868683
0003f0 49 90 be 3d 09 89 a0 3c 93 cf b2 3d 3b ad 8b 3d
       0.09304864 0.019596593 0.08730998 0.068201505

VAE_Decoder.layers.0.linear1.bias f4 [4]
000000 57 59 2d be 19 60 b0 bd cd 2b 91 3c dc 97 98 bd
       -0.16928612 -0.08612079 0.017721081 -0.0745084

VAE_Decoder.layers.0.norm1.weight f4 [4]
000000 d4 fe ae 3f 6d 35 b9 3f 36 5b ae 3f 6c b7 a7 3f
       1.3671517 1.4469429 1.3621585 1.3102851

VAE_Decoder.layers.0.norm1.bias f4 [4]
000000 c9 31 82 bd 4c 82 87 3c c7 04 d1 3d 2a 8e 99 3d
       -0.06357152 0.016541623 0.10205989 0.07497819

VAE_Decoder.layers.1.attention.W_q.weight f4 [4, 4]
000000 17 ee 21 bf f7 12 8b be 77 43 e7 be 2d 63 1c 3f
       -0.6325392 -0.27162907 -0.4516866 0.6108883
000010 2d fc 27 bd e6 8a dd be 96 95 cc be 38 39 8c be
       -0.041011978 -0.43270034 -0.39957875 -0.27387404
000020 f8 67 92 be 38 ba cd be f1 69 6d be 28 a1 d4 3d
       -0.28594947 -0.40181136 -0.23184945 0.103823006
000030 61 b5 82 be 1f f8 05 3f b9 24 88 be 79 6c 8e 3e
       -0.25529006 0.5233173 -0.26590517 0.27817133

VAE_Decoder.layers.1.attention.W_q.bias f4 [4]
000000 cd c7 97 3e 73 bf 8b be cd 19 8b 3e 32 01 b9 3d
       0.29644623 -0.27294502 0.27168122 0.09033431

VAE_Decoder.layers.1.attention.W_k.weight f4 [4, 4]
000000 dc 3e e5 be 0d 68 a2 be a5 ab 29 3f b8 ef e8 3e
       -0.4477452 -0.3172001 0.66277534 0.4549539
000010 7a 81 95 3e 66 0f ab 3e 14 cd 30 3c 5d 7c 9a 3e
       0.29200345 0.33410186 0.010791082 0.30173007
000020 84 17 0a bf f5 af 0f 3d 50 db 26 3e c3 fb d8 3c
       -0.5394213 0.035079915 0.16294599 0.026487237
000030 c5 a6 32 3e a2 af 5c bd 0e 4f b5 3e 5f 00 04 be
       0.1744643 -0.053878434 0.35411876 -0.12890767

VAE_Decoder.layers.1.attention.W_k.bias f4 [4]
000000 43 cd 2d 39 15 ce a7 37 6c d5 87 b7 79 e3 1c b9
       0.00016575032 2.0003916e-05 -1.6192636e-05 -0.0001496206

VAE_Decoder.layers.1.attention.W_v.weight f4 [4, 4]
000000 f4 c7 b8 3e a5 c7 26 be 0a 4e 12 3c 84 38 33 bc
       0.36090052 -0.16287096 0.008929739 -0.010938767
000010 41 6b c8 3e 2f 26 3e 3e 56 a4 9b bd aa f5 30 3e
       0.39144328 0.18569253 -0.07599704 0.17281213
000020 4e 98 5f 3c 8b eb 1d be 3f d9 0f 3f 47 aa ee 3d
       0.013647152 -0.15421884 0.56190866 0.116535716
000030 90 a4 d0 3d 31 e5 d2 be e7 54 d2 bd cb 60 6a be
       0.10187638 -0.41190484 -0.102701 -0.22888486

VAE_Decoder.layers.1.attention.W_v.bias f4 [4]
000000 1d 3c 91 bd 6d d8 9f bc d0 97 1e 3c d7 a0 61 bd
       -0.07091544 -0.01951238 0.00967975 -0.05508503

VAE_Decoder.layers.1.linear0.weight f4 [128, 4]
000000 0b 53 04 3f 46 0d fa be ea 7d 49 bf 24 66 9c be
       0.51689214 -0.48838252 -0.78707755 -0.30546677
000010 25 ab f1 3e c1 5f f7 3d 90 ba 13 be 93 6f 37 bf
       0.47200885 0.120788105 -0.14426637 -0.71654624
000020 54 8d 72 be ba b7 81 3b cf b0 44 bf 6b c2 f9 3d
       -0.23686725 0.0039586695 -0.7683229 0.121952854
000030 35 80 e4 3e b5 5c dc 3e 72 6e 81 3e d7 b0 6c bf
       0.44629064 0.4303948 0.25279576 -0.92457336
000040 13 69 16 3d 90 a6 13 bf 9b ce 6f bd 14 47 b9 3e
       0.0367213 -0.5767603 -0.058546644 0.3618704
000050 50 e5 61 3e 62 0f 50 bf ca 6c 07 3f 09 00 e0 3d
       0.22060132 -0.8127347 0.52900374 0.10937507
000060 01 4b 13 3e 0c a3 d9 3e bd 2d 09 3e a9 56 a6 be
       0.1438408 0.42507207 0.13396354 -0.3248799
000070 46 17 de be ff 67 cf 3e 38 3a cc 3e 04 b3 e7 be
       -0.4337713 0.4050903 0.39888167 -0.45253766
000080 4c b9 88 be 03 2a 04 bd 09 e5 52 bf b4 ff 24 3f
       -0.2670387 -0.032266628 -0.8238073 0.6445267
000090 de be 0e bf 6a 15 6f be ce 01 09 3f a3 a8 80 3e
       -0.5575999 -0.23348013 0.5351838 0.2512866
0000a0 3c 4d 2a bd 6a ea a2 3e 70 21 bd 3e 98 73 98 3e
       -0.041577563 0.3181947 0.36939573 0.2977569
0000b0 fc 97 f3 bd 34 84 97 3e 9c 83 c0 3e 99 8a 9d be
       -0.11894223 0.2959305 0.3760041 -0.30769804
0000c0 43 ee 5f 3f 4c e3 ef 3e f3 7f dc be 41 c8 16 bf
       0.87472934 0.468531 -0.43066368 -0.58899313
0000d0 98 8b a0 bd c0 21 af 3d 21 aa d6 3e d4 d1 4c 3d
       -0.078391254 0.08551359 0.41926673 0.050004795
0000e0 d9 01 44 be bb d1 6a 3e d7 52 1f 3e 0d ea d5 be
       -0.1914133 0.22931568 0.15558945 -0.4178013
0000f0 93 5e 3d 3f d6 5b 6d 3f c8 93 a7 bc 39 64 a2 bd
       0.73972434 0.92718256 -0.02045621 -0.07929272
000100 14 d7 0d bf 42 6d b3 be 9e f0 19 3e be 5d 4a 3e
       -0.5540631 -0.35044295 0.15033194 0.19762322
000110 4d c0 95 be 25 72 56 be ae 4f 19 3e 03 57 07 3f
       -0.29248276 -0.2094198 0.14971802 0.52867144
000120 eb 18 f3 3d d1 c2 7a 3d 58 ad 42 3f 56 97 86 be
       0.11869987 0.061220948 0.7604575 -0.26287335
000130 ef 2a 06 bf 96 01 f4 be 3f 05 9c be 75 07 31 3f
       -0.5240926 -0.4765746 -0.30472752 0.69152004
000140 78 d1 42 bf e2 8e d2 3e 11 11 84 3e 8c bc 37 bf
       -0.76100874 0.41124636 0.2579427 -0.71772075
000150 c2 23 9b be fb 96 83 be 5f 0e ff 3d 24 3b 12 3f
       -0.3030072 -0.25701126 0.12453913 0.5712149
000160 89 70 b7 3e 49 5b 82 3e 7d c0 47 bf 8b 4f 3d 3f
       0.35828045 0.2546027 -0.7802809 0.739495
000170 f2 ca fc bd 85 f3 43 3f 57 ab 5a be 64 ab 5b 3d
       -0.12343396 0.76543456 -0.21354423 0.053630248
000180 a1 bb 2c bf 5e ec 33 be e1 40 05 bd 4e 41 03 3f
       -0.674738 -0.17570636 -0.032532576 0.5127152
000190 1d 62 9b be 58 d2 32 3f e0 cf 3d bc fd 5f b4 3e
       -0.30348292 0.6985221 -0.011585206 0.35229483
0001a0 08 3d c7 3c 37 13 8a be 2a b0 e2 3e 2f 1f 69 3d
       0.024321094 -0.26967785 0.44275028 0.056914505
0001b0 63 01 f5 be 64 a7 17 bf f1 79 9c 3e 79 26 0d bf
       -0.4785262 -0.5923979 0.30561784 -0.5513683
0001c0 26 a6 0d 3f b4 db 26 be 8e f7 ff 3c 06 bf 09 be
       0.5533165 -0.16294748 0.031245973 -0.13451776
0001d0 7b 09 cd be a6 8a 53 be 7b 52 a9 3e d9 fd 22 bf
       -0.40046296 -0.20658359 0.3307074 -0.6366859
0001e0 d3 84 0d 3f 17 33 22 bf 71 38 29 3f 97 b8 1a be
       0.552808 -0.63359207 0.6610175 -0.15109478
0001f0 95 e7 07 3f 60 6b 6a 3e 09 d9 d7 bd 3f 3f c3 3d
       0.5308774 0.22892523 -0.10539443 0.095335476
000200 3f 06 93 be 38 4b f1 bd 19 8d 05 bf b9 96 dc 3e
       -0.28715703 -0.11781925 -0.5216842 0.43083742
000210 c2 33 42 bd 64 ce 06 bf bc 5c f2 be 41 d8 34 3f
       -0.04741264 -0.5265868 -0.47336376 0.7064248
000220 1f 23 aa 3e 7d 60 c0 3e cc c5 2b be 09 da 02 3d
       0.3322992 0.37573615 -0.16774672 0.031946216
000230 20 ea 88 3d 7a 22 ea 3d 45 4c 67 3e 5f 42 8f bd
       0.06685281 0.11432357 0.22587688 -0.06995081
000240 5b d2 36 bf 7e d8 da 3e d0 1d 17 bf 57 7a 9c bd
       -0.71414727 0.42743295 -0.59029865 -0.07640522
000250 48 d6 1b bf 51 bf ee 3e 53 7c 19 3f b2 b6 ed 3e
       -0.6087384 0.46630338 0.5995533 0.46428448
000260 a5 57 01 bf 62 e6 12 3e 5e e2 4f 3e 4d 06 67 be
       -0.5052436 0.14345697 0.20301196 -0.22560997
000270 44 96 88 3e 5c 20 c0 3e 7b 99 31 3f c4 ee 89 be
       0.26677144 0.37524688 0.6937482 -0.26939976
000280 fa 13 ff be 1a 74 d9 3e 86 d6 c1 3e 20 89 80 bd
       -0.49819928 0.4247139 0.3785898 -0.062761545
000290 41 a3 11 3f 1e 11 11 3e 70 71 81 be ba bf 4d 3e
       0.5688973 0.14166686 -0.25281858 0.20092669
0002a0 ae cd 30 be aa cb 89 be 97 3a a9 be 9a ab 2c 3f
       -0.1726596 -0.26913196 -0.33052513 0.67449343
0002b0 10 97 d6 be 16 3d 25 3f 76 20 c9 3e 80 6a c5 3d
       -0.41912127 0.64546335 0.39282578 0.09639454
0002c0 2e 5c 14 bf 0a 2a 11 bf 5c c5 de 3e 77 e3 29 bd
       -0.57953155 -0.5670477 0.43509948 -0.041476693
0002d0 89 c4 bf be 03 29 c3 3e 32 67 df 3e 3a 56 f0 be
       -0.37454632 0.38117227 0.4363342 -0.46940786
0002e0 0a c3 0b be fc da c1 3c 33 db 14 3f da e5 b8 be
       -0.1364862 0.02366399 0.5814697 -0.36112863
0002f0 59 92 56 3e 48 c2 10 3e 94 94 30 bf 49 ac 0c 3f
       0.20954265 0.14136612 -0.6897671 0.54950386
000300 15 bb 2a 3f 60 46 b4 be a6 ac 94 3e df 9f 90 bf
       0.66691715 -0.35209942 0.2903797 -1.1298789
000310 ef af 82 ba 8f e9 cb be 7d 90 0a 3f 85 c4 2c 3f
       -0.0009970645 -0.3982663 0.5412672 0.67487365
000320 10 6e e5 3e d3 03 b3 3e a1 24 d7 3e ed 04 43 bf
       0.44810534 0.34963855 0.42020133 -0.7617939
000330 89 14 f4 3e fe ea 68 3e ea aa 4e 3e ab ca 38 bf
       0.47671917 0.22745892 0.20182386 -0.72184247
000340 1e a3 06 bf 40 71 e9 3e 0b 5f e5 bd 5a cc 67 bd
       -0.5259265 0.45594215 -0.11199769 -0.05659137
000350 ae 1a 51 bf 68 67 aa 3e f1 4a 20 be e1 76 ab 3e
       -0.81681335 0.33282018 -0.15653588 0.33489135
000360 b8 d5 9c 3e 72 8a ef be 45 60 ec be b2 27 56 3e
       0.30631804 -0.46785313 -0.46167198 0.2091358
000370 9e f8 26 bf 7a 4b 01 3f 32 a5 9d 3e 49 cb ba 3d
       -0.6522311 0.50505793 0.30790097 0.09120805
000380 a7 e8 b7 be 56 4c 26 3f 4c 1e 00 be 33 b1 28 3f
       -0.35919687 0.6496023 -0.12511557 0.65895385
000390 b1 67 28 3e 34 be b6 be 02 5a af be 74 36 c1 be
       0.16445805 -0.35691988 -0.34248358 -0.37736857
0003a0 20 3c 20 bf b7 e0 20 3f 67 43 16 bf 8c b7 10 3f
       -0.62591743 0.6284289 -0.586966 0.5653007
0003b0 8c 03 2c 3e 1a 28 5c bf 7f 9f 2f 3f 4c 8a 0e 3f
       0.16798228 -0.8599869 0.68602747 0.55679774
0003c0 fc c5 ef be 84 dc 1c 3f 36 38 33 bf a4 56 f7 bd
       -0.46830738 0.6127398 -0.70007646 -0.12077072
0003d0 10 18 60 3f 89 40 08 bd 0a bb a2 be 06 be 64 be
       0.87536716 -0.03326467 -0.31783324 -0.22338113
0003e0 96 3d 3a 3f f0 03 10 bf 8f 61 9e be eb 48 61 3f
       0.7275022 -0.5625601 -0.30933806 0.8800189
0003f0 a0 5b c2 3e 3f 98 29 bf 5b c7 09 be 2e 27 0c 3f
       0.3796053 -0.66247934 -0.13454954 0.54747283

VAE_Decoder.layers.1.linear0.bias f4 [128]
000000 a0 53 c6 3e 84 e9 d8 3e 4a 89 87 3e 1a 1e 1f 3f
       0.38735676 0.42365658 0.2647193 0.62155306
000010 2a 4b 1a 3f c3 9c 73 3e 57 a2 1e 3f e3 25 2c 3e
       0.6027094 0.23790269 0.6196646 0.16811328
000020 a7 2b 95 3c c6 9b 88 bd 0e a2 8c 3d a1 0b 92 3e
       0.018209292 -0.066703364 0.06866847 0.28524497
000030 c9 62 1e 3e 64 e0 8e 3d ea d8 ed 3e 6d b8 de 3e
       0.15467371 0.06976393 0.46454555 0.4350008
000040 c9 7c 60 3e 78 23 16 3f 21 61 2f be e4 eb 39 3f
       0.21922602 0.5864787 -0.17126895 0.72625566
000050 90 6c 1a 3d ff 93 1d 3f 90 53 29 3f 21 fc 47 3e
       0.03770119 0.6155395 0.6614313 0.19529773
000060 65 74 e0 3e c7 b3 68 3d e9 0b 2d 3e 11 a6 54 3e
       0.43838802 0.056812074 0.16899075 0.20766474
000070 07 da a3 bd 85 1f da 3e d5 e7 2c be 62 b6 3a 3e
       -0.0800057 0.42602172 -0.16885312 0.18233636
000080 42 16 6b 3e 14 e3 d4 bd aa b0 25 be 90 a9 8f 3e
       0.2295771 -0.10394874 -0.16180673 0.28059053
000090 51 4a c0 3e 41 0a da 3e 84 de 08 3e fc 54 a9 3e
       0.375567 0.42585948 0.13366133 0.3307265
0000a0 67 a8 0d 3e 78 7a 8a bd b7 2e 8f be 74 6b 22 3e
       0.13833772 -0.0676164 -0.27965328 0.15861303
0000b0 04 29 be bd fb eb cd 3e ce 81 80 bd 70 0f bf be
       -0.09285167 0.402191 -0.06274758 -0.37316465
0000c0 f6 09 86 be 84 81 ea 3e e9 bd 2c 3e 07 09 0d 3f
       -0.26179475 0.45801938 0.1686932 0.550919
0000d0 6f da 16 3f 44 05 32 3f 8f eb 0e 3f 24 ce 5b be
       0.58927053 0.69539285 0.55828184 -0.21465355
0000e0 25 d9 25 3e 6b f9 24 3f a8 82 18 bc 93 8d 88 3d
       0.16196115 0.6444308 -0.009308495 0.06667628
0000f0 bd 0e d8 bd 92 1e ed 3e 30 b7 d9 3d 8f a1 42 be
       -0.10549686 0.46312386 0.10630643 -0.19006942
000100 d4 b5 b1 be db 9c 0f 3f 76 e2 13 3f f4 29 d3 3e
       -0.34709036 0.5609872 0.57767427 0.41242945
000110 c2 86 d5 3e 81 67 e9 3e 58 66 d7 3c 3c 10 f1 bc
       0.41704375 0.4558678 0.026293918 -0.029426686
000120 b0 25 f1 be f2 42 18 3e f8 b7 34 3f 0b 3c 1c be
       -0.47099066 0.14869288 0.70593214 -0.1525728
000130 b5 f8 db 3e cc 5a ad be 6d e8 fe 3b 1c 86 96 be
       0.42963186 -0.33858335 0.007779172 -0.29399192
000140 77 1e 23 3f 25 7e 82 be e7 2b 50 be 3d 66 db 3e
       0.6371836 -0.25486866 -0.20329247 0.4285144
000150 f3 67 1f 3f 50 d1 c5 bd ce 72 94 3e f6 0e 03 3e
       0.6226799 -0.09659064 0.2899384 0.12798676
000160 91 08 fe 3e fb 2e 4a 3f 65 27 88 be 73 8f 36 bf
       0.4961591 0.78977937 -0.26592556 -0.71312636
000170 6e 6e 02 be cb 1b ad 3e cf 2c 2e 3f 73 55 a9 3d
       -0.12737438 0.33810267 0.6803712 0.08268251
000180 a7 86 f3 3e f6 5d 0f be 7d 40 16 bf ea 88 da 3e
       0.4756367 -0.14000687 -0.5869215 0.42682582
000190 cf e5 43 3e cf 0f 11 3f 10 26 f8 3e 89 b1 e2 be
       0.19130634 0.56664747 0.4846654 -0.44276074
0001a0 97 b6 25 3f 99 cf 0e 3f 3f ac 3d 3e c9 29 cf be
       0.64731735 0.5578552 0.18522738 -0.40461567
0001b0 ef ba f2 3e c9 6d 75 3d 9e 98 19 be 8a 28 d9 3e
       0.47408244 0.059919152 -0.14999625 0.4241374
0001c0 0e 6a 8c 3e 2f 3d db 3e c1 55 68 3e 9c 3a 8b be
       0.27424663 0.42820117 0.22688963 -0.27193153
0001d0 13 57 06 3f e8 6a 39 b9 cd 6b 09 3e 17 1a 35 3e
       0.52476615 -0.000176828 0.13420029 0.17685734
0001e0 37 43 00 3f d8 0f c9 3e 67 b7 97 3e 17 cc 5b 3e
       0.5010256 0.392699 0.29632112 0.21464573
0001f0 3e 89 a5 3e 8e 0b d6 3e 0c d5 8e 3e 4b 18 e7 3e
       0.3233127 0.4180569 0.27896917 0.45135722

VAE_Decoder.layers.1.linear1.weight f4 [4, 128]
000000 be 52 5d 3d 44 c8 41 bd 68 50 63 3e ca 39 c3 bd
       0.054033987 -0.04731013 0.22198641 -0.09532507
000010 4d d6 34 be 0e 78 7c be 94 18 02 3e 0f e5 17 3e
       -0.17659874 -0.24655172 0.12704688 0.14833473
000020 9e 69 1b 3e 1b e4 d3 bd f1 b8 76 3d 15 2f ee bc
       0.15177009 -0.10346242 0.060234968 -0.029075185
000030 6a 09 10 3e dd 07 fb bd ee 95 bd 3d 3f 94 a7 3e
       0.14066091 -0.12257359 0.092571124 0.3273029
000040 35 45 e9 bc a0 04 aa 3b 60 29 ad be 43 09 c3 3c
       -0.028475383 0.0051885396 -0.3382063 0.023808127
000050 0c 7a 09 3f 4a 4e 6b bd b3 cc 2c 3e a5 a6 9b 3e
       0.53701854 -0.05744771 0.16874962 0.30400577
000060 1e 80 64 bc 32 15 d3 3e 69 09 77 be 2f c0 87 be
       -0.013946561 0.41227108 -0.24124683 -0.26513812
000070 19 ee ab bd 0f a4 1f be 3d 93 47 be db 6d 36 3d
       -0.08395023 -0.15589927 -0.1948976 0.04453836
000080 d9 e5 80 3d bd c5 bc 3d cc cf 0c 3d 69 51 b7 3c
       0.0629384 0.09217403 0.034377858 0.022377687
000090 48 67 9c 3e 06 d3 22 3d 5b 07 9f 3c 5c 27 f2 bd
       0.30547547 0.03975203 0.019412687 -0.118239135
0000a0 fe 5a 2d 3e 8c aa 4b 3d ad af 44 3c 2d fe 3b 3e
       0.16929242 0.049723193 0.012004775 0.18358679
0000b0 0f b5 83 be ce d7 26 3d 98 50 11 be ed 4e 99 3e
       -0.25724074 0.04073315 -0.141909 0.29943028
0000c0 10 8a 13 be 6a 8e 84 be 43 43 88 be f7 77 04 be
       -0.14408135 -0.25889903 -0.26613817 -0.12936388
0000d0 36 d7 32 3e 0b b1 bd 3d 07 15 54 3d 31 5a 43 3e
       0.17464909 0.09262284 0.051777866 0.19077374
0000e0 2b c7 2f 3e fb 3c 82 bc 73 71 0a 3f 19 21 8f be
       0.1716582 -0.015898218 0.5407936 -0.2795494
0000f0 b0 b3 ab 3e 58 3e f7 3d b1 c3 9e 3a 14 dd 48 bd
       0.33535528 0.12072438 0.0012112764 -0.04903896
000100 01 e8 b6 be 20 49 d4 bd 42 4f f5 3c 76 bc ce 3d
       -0.3572388 -0.1036551 0.02994502 0.1009454
000110 e7 bc ef 3d 80 14 fb 3d 8f 65 33 3e ad db a8 3e
       0.11705952 0.122597694 0.1751921 0.329801
000120 3e b3 37 3c 58 65 71 3e 7b 23 6b 3c 14 59 a2 3e
       0.011212168 0.23573816 0.014351721 0.31708586
000130 d9 16 62 be d8 ff ef 3d 7c 57 f2 bd 6d 24 ba 3d
       -0.22079028 0.1171872 -0.118330926 0.09088979
000140 3b 79 83 be 5e cd d6 3d 02 35 51 3e fc 13 0d 3e
       -0.2567843 0.104883894 0.20430377 0.13777155
000150 9f 5d d1 bd 45 89 af 3d c2 47 1a 3e fb 2b 51 be
       -0.10222935 0.08571104 0.15066436 -0.20426933
000160 68 36 b2 3d 9f a4 57 3d 1a f3 4b 3e 1a 9c 3c be
       0.087017834 0.05264723 0.19916955 -0.18418923
000170 e8 bb d4 3e 06 b9 da bc 7b 2a 6e be 93 4f 02 3e
       0.4154961 -0.026699554 -0.23258393 0.12725668
000180 b7 1e 66 3c 63 67 65 3e 46 9e e7 3d 5c 1e b0 bd
       0.014045409 0.2240272 0.11309485 -0.085995406
000190 ed 43 88 bc 31 9c c2 bd e0 66 2f 3e 97 95 9b 3c
       -0.016633952 -0.095024474 0.17129087 0.018992228
0001a0 33 4e b7 bd 7c 2a 45 3e c8 c1 a1 be 3e 0c 0e 3e
       -0.08950462 0.19254488 -0.31593156 0.13871858
0001b0 95 78 54 3e b4 b9 6d be ba 8a c3 be 73 76 bf 3d
       0.20749123 -0.23215371 -0.38191777 0.09348764
0001c0 62 80 db 3c 2c 3d 26 3e 1c e7 2d 3e aa 64 94 3e
       0.026794616 0.16234273 0.16982692 0.2898305
0001d0 95 07 1d 3e 56 bc 61 be 8f 17 fa bd 8a 30 4b 3e
       0.15334924 -0.220445 -0.12211525 0.19842735
0001e0 c1 a4 25 ba 09 27 1b bd fe 5f 2b be 29 36 52 3d
       -0.0006318801 -0.037879024 -0.16735837 0.051321182
0001f0 0d 0b f4 b9 fe 03 b5 be a2 e7 2f 3d 20 9e e5 3d
       -0.0004654754 -0.35354608 0.04294551 0.112118006
000200 cc 1a e2 3d 67 72 ec 3e 99 75 d5 3b ce c2 2e 3e
       0.11040267 0.46181032 0.006514263 0.170665
000210 fe 71 14 be f6 df 87 3d f0 01 5c 3e 3b 91 9a 3d
       -0.1449661 0.06634514 0.21485114 0.07547232
000220 d3 1d 2c be db 59 2e 3c 6f a7 08 bd 91 1a af 3c
       -0.16808252 0.01064154 -0.033362802 0.021374973
000230 43 dd b4 3e 77 8a 4c bd 19 80 74 3d b8 24 f0 3e
       0.3532506 -0.049936738 0.059692476 0.46903014
000240 17 e9 f6 bd a6 ba 28 be 41 f7 ea 3d a6 c1 8e be
       -0.12056177 -0.1647745 0.11472941 -0.27882117
000250 f2 b5 ab bd 00 bf 76 be 96 ab 44 bd 42 4b 80 3d
       -0.08384313 -0.24096298 -0.0480152 0.06264354
000260 95 58 71 be b5 ff ac be a4 d0 2a 3e 26 f0 14 3d
       -0.23568948 -0.3378884 0.16681153 0.036361836
000270 f8 93 5e 3d cc c6 d3 3d 92 bb e4 3d 14 11 20 3e
       0.054340333 0.10340652 0.11168589 0.15631515
000280 ba 47 19 be f8 0c 2f be fa 50 9a 3e 80 21 86 3c
       -0.14968768 -0.17094791 0.30139905 0.016373396
000290 62 47 34 bd 82 35 a5 bd ef f9 d2 3c 98 3a c9 3d
       -0.04401339 -0.080668464 0.025753943 0.09825629
0002a0 0e 68 7e bd ef 02 57 3e 8d 27 aa be d7 58 1a bd
       -0.062110953 0.20997213 -0.332333 -0.03768238
0002b0 f5 87 bf 3b f8 4a 1d bd 33 a4 1b 3e 60 70 66 be
       0.0058450648 -0.038401574 0.15199356 -0.22503805
0002c0 3c cb 4c 3e 09 da 42 be 01 d0 bf 3e 06 a3 98 3e
       0.19999403 -0.19028486 0.37463382 0.29811877
0002d0 bb 7b b3 bc 14 52 d8 bd c3 e2 e9 bd c1 87 f2 bd
       -0.021909585 -0.1056253 -0.114202045 -0.11842299
0002e0 f2 ad e4 bd e9 c1 91 3d b7 05 15 be ed 29 ec bd
       -0.1116599 0.071170636 -0.14552961 -0.11531434
0002f0 be 91 9b 3d 94 0d 62 3e 94 a4 9b be dd d3 82 be
       0.075961575 0.22075492 -0.30399 -0.25552264
000300 0c 93 51 bc f9 ec ac 3b 23 7f 10 be 00 7c a2 bd
       -0.012791406 0.005277273 -0.14110999 -0.079338074
000310 cd 34 34 3d 59 05 f9 bd 9a 45 06 be bf 69 8c 3e
       0.043995667 -0.12159223 -0.13112488 0.27424428
000320 65 5e 0e 3d c8 08 d8 3d 7b 6d 5d be 60 65 96 be
       0.03475799 0.1054855 -0.21623795 -0.29374218
000330 45 ff 89 be cc fc b1 3c 34 cf f8 b8 27 b7 d8 bb
       -0.26952568 0.021726988 -0.00011864156 -0.0066136303
000340 00 fb 23 3d b9 dd 48 be 5a b4 2a be 10 45 f9 3c
       0.040034294 -0.1961583 -0.16670361 0.03042844
000350 4a ce d4 3e f4 e4 1d be 82 ff 0c 3e 3a 99 c0 3d
       0.41563636 -0.1541937 0.13769343 0.09404226
000360 a9 12 0e be d9 a8 a2 3e b0 8a fb bd e5 ac 19 3e
       -0.13874306 0.31769446 -0.12282312 0.1500736
000370 7c 98 04 3f ac 2e 6e be 97 4c 77 be d1 c2 c6 bc
       0.5179517 -0.23259991 -0.2415031 -0.024262818
000380 16 c5 53 3d f9 86 d9 3e 90 0d 2b bf 2b cb d0 3c
       0.051701628 0.42485788 -0.6681757 0.025487503
000390 9c f5 41 3e 23 9a 09 3f bb c8 9d 3d 87 fb 16 be
       0.18941349 0.5375082 0.07704302 -0.14744388
0003a0 20 88 09 be cd e0 76 3d 12 9a 26 3d 46 4d 43 be
       -0.13430834 0.06027298 0.040674277 -0.19072446
0003b0 f1 2d 7d bd 0a 2c af 3c 24 4a 9f 3d 21 c5 e5 bc
       -0.06181139 0.021383304 0.07777813 -0.0280481
0003c0 ab 9a 75 3e 82 4a a8 3e 1b 42 23 be a9 ba c1 3e
       0.23984782 0.32869345 -0.15943186 0.37837723
0003d0 14 e9 4b be 58 0b 9e bd d2 d7 56 3e ec fc be 3e
       -0.19913131 -0.077170074 0.20980766 0.3730234
0003e0 9d a7 23 be a8 b8 17 be 6a 42 25 bd b6 5e 2f 3d
       -0.15981908 -0.14816535 -0.04034654 0.042814933
0003f0 9c c0 40 be d7 e2 55 3d 28 6a 14 3d 6b 25 07 3d
       -0.18823475 0.052218284 0.03623405 0.03299467

VAE_Decoder.layers.1.linear1.bias f4 [4]
000000 35 3f 37 3d f9 aa 63 3a f0 4c 03 3d 2b 20 84 bd
       0.044738013 0.00086848397 0.032055795 -0.06451448

VAE_Decoder.layers.1.norm1.weight f4 [4]
000000 13 8d bd 3f d7 87 cd 3f 87 65 bf 3f 17 d7 d4 3f
       1.4808677 1.605708 1.4952859 1.662814

VAE_Decoder.layers.1.norm1.bias f4 [4]
000000 9d b0 06 bd 88 16 cc bc d4 d6 50 3e 03 30 81 bd
       -0.032883275 -0.024913087 0.2039445 -0.06307986

VAE_Decoder.layers.1.norm0.weight f4 [4]
000000 6e df 95 3f fa e2 5c 3f 57 ee 8b 3f 04 49 86 3f
       1.170881 0.8628384 1.093211 1.0491033

VAE_Decoder.layers.1.norm0.bias f4 [4]
000000 a4 4c 07 be f0 e6 15 bc 63 50 9d bc 56 29 fc 3d
       -0.1321283 -0.009149298 -0.01920337 0.12312572

VAE_Decoder.last_normalization.weight f4 [4]
000000 00 00 80 3f 00 00 80 3f 00 00 80 3f 00 00 80 3f
       1.0 1.0 1.0 1.0

VAE_Decoder.last_normalization.bias f4 [4]
000000 00 00 00 00 00 00 00 00 00 00 00 00 00 00 00 00
       0.0 0.0 0.0 0.0

VAE_Decoder.head.weight f4 [4, 4]
000000 2a 64 b3 3e 18 b8 d0 be 78 17 fd be 50 d7 95 bd
       0.35037357 -0.40765452 -0.49431968 -0.07316458
000010 e0 31 9f bd 72 32 b1 be 56 d8 dd 3e b8 39 f0 bd
       -0.07773185 -0.346088 0.43329114 -0.11729759
000020 24 bc 6c be 3c 44 54 3e 90 4b d8 bd a8 f3 51 3e
       -0.23118645 0.20729154 -0.105612874 0.20503104
000030 78 e4 6f be b6 de 93 be e4 da b0 be 84 bb 50 be
       -0.23426998 -0.28880852 -0.34542 -0.20384032

VAE_Decoder.head.bias f4 [4]
000000 50 fa 9b 3d 6c f0 11 be cc 29 18 3e de 79 de 3e
       0.07616103 -0.1425187 0.14859694 0.43452352

Detokenizer.weight f4 [16, 4]
000000 7e 41 ea b8 66 1a 61 3d cf 60 ed 3d fc 4e 36 bd
       -0.000111701884 0.054956816 0.115907304 -0.04450892
000010 b3 fc bc 3d b7 bd 91 be 45 a6 32 be 62 51 f8 bd
       0.09227886 -0.28465053 -0.1744624 -0.121248975
000020 06 6a 83 bc c7 35 e0 bd f7 71 16 bd 03 c7 5f bd
       -0.016041767 -0.10947757 -0.03672978 -0.05463315
000030 0b 28 a6 be 6f 2c 62 3e 97 d3 3c be 27 97 4b be
       -0.32452425 0.22087263 -0.1844009 -0.19881879
000040 78 e5 b9 bd ff da a7 bc 64 81 e4 bd 79 dc 02 3e
       -0.09076971 -0.020490168 -0.11157492 0.12779416
000050 5f 18 3b 3e df a0 42 be e2 7f 37 3e a5 01 a8 3d
       0.18271016 -0.1900668 0.17919877 0.08203439
000060 7d 9b ce bd db ee 78 bc f0 16 83 3d f2 0d 85 bd
       -0.10088251 -0.015193666 0.06400859 -0.064968005
000070 4b cb 2a 3e ba 88 9c be 4f 1b 98 be 7f 54 8f be
       0.16679113 -0.30573064 -0.29708335 -0.27994153
000080 42 a0 13 3e 10 ac 43 3d a2 c9 30 3e cc 4d 3f b8
       0.14416602 0.047771513 0.17264417 -4.5610403e-05
000090 7a a9 91 3e 64 40 aa be f2 e0 6c 3e 16 e6 1e be
       0.28449613 -0.3325225 0.23132685 -0.15517458
0000a0 e8 4f c6 bd 83 f8 df 3c cd 9a c4 bd 19 5b 5e be
       -0.0968321 0.02734018 -0.095998384 -0.21714438
0000b0 b9 a4 0a be 9f ec 8f 3e 90 d4 d0 3d e6 89 44 3e
       -0.13539399 0.28110215 0.10196793 0.19193229
0000c0 27 c4 b5 bd e0 99 64 3e fc 46 a1 3d e6 db 26 3e
       -0.08875304 0.22324324 0.07874867 0.16294822
0000d0 d1 a8 4e 3e ff eb 82 be 6c 83 1f 3e c1 af ce bd
       0.20181586 -0.25570676 0.15577477 -0.10092116
0000e0 ef 50 fc 3d 37 4a 93 bd 7d 20 a4 3d e0 56 59 3e
       0.12320124 -0.0719189 0.08014009 0.21224546
0000f0 25 a0 8b 3e a3 47 11 be 88 5a 9c bd 75 4d da be
       0.27270618 -0.14187483 -0.07634455 -0.4263722

Detokenizer.cat_recons.0.weight f4 [3, 4]
000000 b3 58 ca be ba e9 26 bf ba 7a 2d be 42 8e 02 3f
       -0.39520797 -0.6520039 -0.16941348 0.5099832
000010 e6 d5 ac 3e bb 81 16 3f 63 54 1c 3f 0d 7f 6d be
       0.33756942 0.58791703 0.61066264 -0.23192997
000020 b0 bd 9d 3e d8 ce 01 3f cd c8 9e be f5 71 1a be
       0.30808783 0.50706244 -0.31012574 -0.15082534

Detokenizer.cat_recons.0.bias f4 [3]
000000 d9 8b 1d 3d aa 45 3d 3d f2 cd 1a 3d
       0.038463447 0.046209015 0.03779406

Detokenizer.cat_recons.1.weight f4 [19, 4]
000000 53 7b e0 3e 25 1c f1 3e 04 c1 24 be 5b b8 00 3f
       0.4384409 0.47091785 -0.16089255 0.50281304
000010 f0 99 e1 bd c1 36 77 3d ee ab d6 3e cb be ae be
       -0.110156894 0.06035495 0.41928047 -0.34129938
000020 24 b5 02 3f 4e 35 03 be 33 c5 ce 3e 71 2d 2e 3e
       0.5105765 -0.12813303 0.40384826 0.17009522
000030 87 88 a7 be 85 c6 30 3f e2 bd 3e 3f fc f7 e1 3e
       -0.3272135 0.69052917 0.7450849 0.4413451
000040 dc 1c f6 be d7 55 29 3d 85 ee 83 be 1f fd 41 be
       -0.48068893 0.04134163 -0.25767913 -0.18944214
000050 fb 26 b0 be 83 95 c0 be ab b6 a2 be e0 c0 49 3d
       -0.3440474 -0.37614068 -0.3177999 0.049256206
000060 43 7f eb 3e 16 1a 13 be 18 6c 2a bf 7c f0 43 3d
       0.4599553 -0.1436542 -0.6657119 0.047836766
000070 ab 6e 05 3f f2 69 d5 3e 06 42 ff bd d0 76 9f be
       0.5212199 0.41682392 -0.12463765 -0.31145334
000080 07 ee 25 3f 4a 1a c5 be df 29 76 be 9d 27 a9 3e
       0.64816326 -0.3849662 -0.2403941 0.33038035
000090 0c 42 a2 be 82 cc 61 be ea b7 10 3e 46 a9 68 3d
       -0.31691015 -0.2205067 0.14132658 0.056802057
0000a0 83 65 53 3c aa 70 cc 3e e6 fb 10 bf a0 8d 25 3e
       0.01290262 0.39929706 -0.56634367 0.16167307
0000b0 a9 b9 f2 bd 34 0e 7b be 20 95 c5 be 36 3f 37 3f
       -0.11851818 -0.24517137 -0.38590336 0.7158083
0000c0 c8 7c b7 3c 58 b8 aa be 94 5f 0e bf 75 92 a5 3d
       0.022398368 -0.33343768 -0.5561459 0.08084575
0000d0 d7 eb b3 be 3a a3 b5 3d d0 bd 18 bf 52 b7 5a 3e
       -0.3514087 0.088690236 -0.5966463 0.21358994
0000e0 40 d1 19 be ad 4e f1 3e 52 84 a9 be 8c b8 90 bd
       -0.15021229 0.47130337 -0.33108765 -0.070664495
0000f0 3a c4 ba 3c a6 ce c1 be 08 33 5e 3e bc b9 36 3e
       0.022798646 -0.37852973 0.21699154 0.1784429
000100 f7 00 08 3e f6 d6 bd be 98 78 24 3e 0c e3 b4 3e
       0.13281618 -0.37078065 0.16061628 0.35329473
000110 d5 c6 5a be 38 03 96 be af b7 89 bb f2 b0 82 3e
       -0.21364911 -0.2929933 -0.004202805 0.25525624
000120 bb dc b5 3e 91 12 27 bf 66 a6 7b be b5 4b 91 3d
       0.35519966 -0.65262705 -0.24575195 0.07094518

Detokenizer.cat_recons.1.bias f4 [19]
000000 34 d5 9a 3e 67 96 f8 3d 2f aa 1e 3f 48 36 4b 3e
       0.30240786 0.12138062 0.6197843 0.19844925
000010 02 1a 11 be 7c dc 22 be b9 20 b3 3d a1 e7 aa be
       -0.14170077 -0.1590442 0.08746476 -0.33379844
000020 06 63 ce be 7f d7 53 3e 00 71 3a 3e b1 55 0f bf
       -0.40309924 0.20687674 0.18207169 -0.5599013
000030 c6 db a8 bd f6 20 99 be f0 4c 4e be 0f 31 26 3e
       -0.082450435 -0.2990796 -0.20146537 0.16229652
000040 4f 71 ea be bc 88 2c 3e bb a7 e6 be
       -0.45789573 0.16849035 -0.45049843

Detokenizer.cat_recons.2.weight f4 [17, 4]
000000 f8 19 c4 3e 88 99 b9 3d be 79 17 bf b6 46 04 3e
       0.38301063 0.09062487 -0.5917014 0.12917599
000010 77 e7 86 be 94 3d d8 be 35 e5 52 3e 64 ec f9 bd
       -0.2634847 -0.4223448 0.20595248 -0.12203291
000020 0e db 4a be 8f e0 31 3e 7c 20 50 3d 14 f9 c7 be
       -0.19810125 0.17370819 0.05081223 -0.3905722
000030 28 20 0d be 52 83 28 3e 00 1b 30 3f 8d 5e 17 3e
       -0.13781798 0.16456345 0.687912 0.14782162
000040 9e eb 0a 3f 2f ab bd be 44 65 3f 3e 8e 4d 03 3e
       0.54265773 -0.37044665 0.18690974 0.12822554
000050 87 f0 11 bd 99 63 c4 be 2f 66 c9 be 71 93 9e be
       -0.035629775 -0.38357237 -0.39335772 -0.30971864
000060 a8 0c a4 3e dd 95 d3 3e d1 70 04 3f 6a b9 26 3e
       0.32040906 0.41325274 0.51734644 0.16281667
000070 df 44 da 3e ee b0 51 3f 7a 57 12 3d 74 38 81 3e
       0.4263067 0.819106 0.035727955 0.25238383
000080 67 1a 8a 3e c9 74 a2 3e 04 c3 ad 3e 45 fd 17 3f
       0.26973268 0.31729725 0.33937848 0.59370834
000090 e7 0b cc 3d ca 5b c2 3e 83 bd d8 be 16 0e 84 be
       0.09963208 0.37960654 -0.42332086 -0.25791997
0000a0 89 c6 a9 3e 17 8b 3f 3f 4e b0 bf be f5 e6 78 3e
       0.33159283 0.7482161 -0.37439197 0.24306853
0000b0 65 f7 df 3d ef 2e 85 be e5 b4 e6 bd cc 57 bd 3e
       0.10935859 -0.2601237 -0.11264972 0.36981046
0000c0 4e 67 b2 3e cd 5b a8 be e9 83 8f be ab 29 fc bd
       0.3484444 -0.32882538 -0.28030327 -0.12312635
0000d0 d0 0b 8e 3e 12 fc 0e 3f a8 c8 42 3e 04 89 cd bd
       0.27743387 0.5585338 0.19021857 -0.10035899
0000e0 9a e5 1b be 11 11 b5 3e d8 19 61 3e 71 78 9a bd
       -0.15224305 0.35364583 0.21982515 -0.075425036
0000f0 ad 67 b8 be 3e 34 ef 3c 12 c9 c5 3c 50 71 1a 3f
       -0.36016598 0.029199716 0.02414373 0.6032915
000100 34 0c 80 be 02 16 a4 bd 65 f6 6e be a0 64 a1 3e
       -0.2500931 -0.0801201 -0.2333618 0.31522083

Detokenizer.cat_recons.2.bias f4 [17]
000000 cd d1 b2 be e2 e7 e7 bb dc e8 88 3e b6 21 1f 3e
       -0.3492569 -0.007077203 0.26740158 0.15540203
000010 e9 93 82 3e 5f c2 4b bd 17 1e 1e bf dd b8 9c bc
       0.25503471 -0.049745914 -0.61764663 -0.019131118
000020 de 61 a3 be f7 cc 42 3e 51 3f 9a 3e 22 62 05 bf
       -0.31910604 0.190235 0.30126432 -0.52102864
000030 7f 42 a3 be 1c bc 16 bf 16 98 d7 bd 15 44 92 be
       -0.3188667 -0.5888078 -0.10527055 -0.28567567
000040 f2 9e b0 3b
       0.0053900415

Detokenizer.cat_recons.3.weight f4 [10, 4]
000000 f4 81 2a 3f 29 35 f6 3e f3 01 f3 bd 59 b6 48 be
       0.6660454 0.48087433 -0.11865606 -0.1960081
000010 25 38 66 be f3 ab c0 be 56 a7 9f 3e 5e de 90 3d
       -0.22482355 -0.37631187 0.31182355 0.07073663
000020 7e 30 0f 3f f1 13 da bd c4 11 3f 3e f8 49 b2 3e
       0.5593337 -0.10648335 0.18659121 0.3482206
000030 29 be a1 be 98 90 05 3f 5d 9e db be 76 42 c3 3e
       -0.31590393 0.5217376 -0.4289426 0.38136643
000040 b4 09 2f bd 6a 41 77 be d5 57 98 be 80 7b 37 3e
       -0.042733863 -0.24146047 -0.2975451 0.17918205
000050 fa 2c f0 3e d4 c2 95 3e 5f 01 0a 3f 7f 09 8e be
       0.46909314 0.29250205 0.5390834 -0.2774162
000060 40 02 55 be fa 40 69 be df 3e 17 3e 4f 57 51 3f
       -0.2080164 -0.22778693 0.14770077 0.8177385
000070 5b 52 49 be b1 99 ef 3d 60 8b 70 be d9 ce d4 be
       -0.19660322 0.11699236 -0.23490667 -0.41564062
000080 e9 bc fe bd fd 10 4b bd 30 7c 14 3f 55 0c 80 be
       -0.124383755 -0.04957675 0.58001995 -0.2500941
000090 5a 38 93 3c 60 5b d6 3e be ff 9f be 1c 94 2d 3f
       0.017971206 0.4186659 -0.31249803 0.6780412

Detokenizer.cat_recons.3.bias f4 [10]
000000 82 22 ca 3e 41 68 e1 be 64 e2 6c bd ba 42 ff 3d
       0.39479452 -0.44024852 -0.05783309 0.12463899
000010 d1 64 ef 3d ac be ed 3e a8 11 03 bf 3c c8 93 be
       0.11689151 0.46434534 -0.51198816 -0.28863704
000020 92 b9 e2 3e c2 1d f5 bb
       0.44282204 -0.007480354

Detokenizer.cat_recons.4.weight f4 [8, 4]
000000 58 28 51 bf f2 1c c7 be b3 9c 48 3e 4e 79 5d 3e
       -0.81702185 -0.3888927 0.19591026 0.21628305
000010 4e 35 15 bf 74 2f d8 bc a8 71 42 3f f9 f4 5f 3d
       -0.5828446 -0.026389815 0.75954676 0.054676984
000020 a7 91 8c be e4 03 bc 3e fa 69 a7 3e 33 6f b0 be
       -0.27454874 0.36721718 0.3269804 -0.34459838
000030 47 be 5f 3f aa 69 5d be 8f 4a e1 3d 9c 56 11 bf
       0.87399715 -0.21622339 0.11000549 -0.5677278
000040 f5 a3 ac be 26 6e 36 bf 0a 22 3e be e3 f7 cb 3d
       -0.3371884 -0.71261823 -0.18567672 0.0995939
000050 d6 69 0f be c9 0c 37 be 63 8a 4c bf 33 fb ab be
       -0.14005217 -0.17875971 -0.7989866 -0.33590087
000060 82 85 1f 3e 26 58 4a be e3 e2 91 be 31 51 09 3f
       0.15578273 -0.19760188 -0.28493413 0.53639513
000070 90 2c b4 3e 21 9c b3 3e 5b 3c 36 3c 37 9d ff 3e
       0.35190248 0.35080054 0.011122788 0.49924633

Detokenizer.cat_recons.4.bias f4 [8]
000000 db 4b 34 be be 12 4a be 11 9a c4 bc a0 a2 69 be
       -0.17607062 -0.19733712 -0.023999246 -0.22815943
000010 9a 9c 1d bc 6c 1d 16 3f e8 03 bf bc fa 9a b5 3e
       -0.009619856 0.58638644 -0.023317292 0.354698
