restsyn/tabsyn/vae/ckpt/heloc_cond/encoder.pt (torch, 24368 bytes, 33 tensors)

Tokenizer.weight f4 [17, 4]
0	0xbe0d19d5	-0.13779385
1	0x3da4c5b2	0.0804552
2	0x3d870d84	0.06594375
3	0x3d5403d5	0.051761467
4	0x3d94f231	0.07272757
5	0x3e9ae549	0.30253056
6	0x3d479b56	0.048732124
7	0x3df7b1df	0.12094473
8	0x3c3d31ce	0.011547519
9	0xbb68a0cb	-0.003549623
10	0x3d453f1e	0.048155896
11	0xbe228b15	-0.15873368
12	0xbeb7a7ce	-0.35870212
13	0x3de1a7a5	0.11018304
14	0x3c9c1e3f	0.019057391
15	0xbd8d5c89	-0.06902415
16	0x3c05e4a8	0.008172192
17	0x3e49f3f3	0.19721965
18	0x3e06e066	0.13171539
19	0xbcaed000	-0.021339417
20	0x3e22f48a	0.15913597
21	0xbd3424c6	-0.043980382
22	0x3e75b3cc	0.23994368
23	0x3de7ec77	0.11324399
24	0xbc96f928	-0.018429354
25	0x3e96b65d	0.29436007
26	0x3e28e1ae	0.1649234
27	0xbe255de6	-0.161491
28	0x3dfd9fba	0.12383981
29	0xbe1240fe	-0.14282605
30	0x3eac244b	0.3362144
31	0xbe919a32	-0.28437954
32	0xbea2879f	-0.31744096
33	0xbe1d9a28	-0.15390837
34	0xbeb7ba5d	-0.3588437
35	0xbdd430b3	-0.10360851
36	0xbd90cd82	-0.070704475
37	0xbe1a306f	-0.15057538
38	0xbe733ed5	-0.23754437
39	0xbd4ac1e1	-0.049501304
40	0xbe6b0709	-0.22951902
41	0x3dd2d74c	0.10294971
42	0x3e9c6f41	0.3055363
43	0x3da85ab4	0.08220425
44	0xbe8b1b52	-0.2716928
45	0xbe2e9172	-0.1704767
46	0xbe7845dc	-0.24245399
47	0xbe9834ef	-0.29727885
48	0x3e95e9c8	0.29279923
49	0x3e95db0b	0.2926868
50	0xbe5df213	-0.21674375
51	0x3e8b644c	0.27224958
52	0x3ea711af	0.3263068
53	0x3c670242	0.014099659
54	0x3de20cfd	0.110376336
55	0x3de1d8b6	0.110276625
56	0xbea00363	-0.31252584
57	0x3e6d9604	0.23201758
58	0x3eafc2b7	0.34328243
59	0x3d7ecc92	0.062206812
60	0x3d5bdad0	0.053675473
61	0xbe04f2a7	-0.1298319
62	0x3de87ffb	0.11352535
63	0x3f16c2ad	0.588908
64	0x3ea6d4e0	0.32584286
65	0x3e18b7f3	0.14913921
66	0x3ec3a1b6	0.38209313
67	0x3e8bb941	0.27289775

Tokenizer.bias f4 [24, 4]
0	0x3e3720fb	0.17883675
1	0x3e12515e	0.14288852
2	0xbea9442d	-0.33059826
3	0x3ed14ef2	0.40880543
4	0xbf1847be	-0.5948447
5	0x3f015995	0.50527316
6	0x3d103932	0.035210796
7	0x3dd29f0a	0.102842405
8	0x3f02a4fa	0.51032984
9	0x3eb7d6e2	0.3590613
10	0x3e3aafd5	0.18231137
11	0xbf02000e	-0.50781333
12	0xbed9bb4b	-0.42525706
13	0xbc8d1918	-0.01722388
14	0xbe4c4c78	-0.19951046
15	0x3e8232aa	0.2542928
16	0xbdf9e5a8	-0.122020066
17	0xbe8eb991	-0.2787595
18	0xbf2c0707	-0.6719822
19	0x3d844bf9	0.06459803
20	0xbd8d4f34	-0.068998724
21	0xbd4e9a64	-0.050440207
22	0x3e8a935b	0.27065548
23	0xbed8ded6	-0.4235751
24	0x3e91280b	0.28350863
25	0x3f22b0ec	0.6355121
26	0xbf13c0ff	-0.57716364
27	0x3dfefa6a	0.124501064
28	0x3f1e3235	0.6179536
29	0x3e980a62	0.2969542
30	0x3f24d48c	0.6438682
31	0xbf423905	-0.75868255
32	0xbeda1a94	-0.42598403
33	0x3e47bb79	0.19505109
34	0xbe1af0e6	-0.15130958
35	0x3e000300	0.12501144
36	0xbd218853	-0.03943665
37	0xbeb67f84	-0.35644162
38	0xbf280674	-0.65634847
39	0x3efc3ce7	0.49265215
40	0xbe68c3d5	-0.22730954
41	0x3dcc2e2d	0.09969745
42	0xbcee6504	-0.029100902
43	0x3ea01e41	0.31273082
44	0x3e155990	0.14584947
45	0x3ea89c8a	0.3293193
46	0xbe9db42b	-0.3080152
47	0xbea589b4	-0.32331622
48	0x3e4e8153	0.20166521
49	0x3e9f6149	0.3112891
50	0xbe558913	-0.20853071
51	0x3c1458b6	0.009054353
52	0xbd089364	-0.033343688
53	0xbe96c6e1	-0.29448608
54	0x3e67fde8	0.22655451
55	0xbe3bbe52	-0.1833432
56	0x3eb8f54d	0.3612465
57	0xbea21007	-0.31652853
58	0x3f273f5e	0.65331066
59	0xbc9de0c6	-0.01927222
60	0x3f17886b	0.5919253
61	0xbdd1591d	-0.10222075
62	0x3e900225	0.28126636
63	0x3ed87d08	0.4228289
64	0x3d127920	0.035760045
65	0x3e8ead35	0.2786652
66	0x3ec8698e	0.39143032
67	0xbda56267	-0.080754094
68	0xbedc1fbb	-0.42992958
69	0x3e1a9e80	0.15099525
70	0xbe8c61e7	-0.27418444
71	0xbdde40eb	-0.10852226
72	0xbdb054b5	-0.086099066
73	0x3d23c30d	0.039980937
74	0xbd162d9f	-0.0366646
75	0x3df89c27	0.12139159
76	0xbe06de6b	-0.13170783
77	0x3e34d510	0.17659402
78	0x3e83fb46	0.25777644
79	0xbe9690cc	-0.29407346
80	0xbecbacc7	-0.39780256
81	0xbecc1b2d	-0.39864483
82	0xbf179cba	-0.5922352
83	0x3e13e7be	0.14443871
84	0xbeda9451	-0.4269128
85	0x3e0752cb	0.13215177
86	0xbe52b2ef	-0.2057607
87	0x3d0c4035	0.03424092
88	0x3d8aa326	0.06769399
89	0xbdb23691	-0.08701814
90	0xbe51bf84	-0.20483214
91	0xbdf27112	-0.11837973
92	0xbe103047	-0.14080916
93	0x3dab4bdc	0.083640784
94	0xbd69a3d4	-0.057041004
95	0xbe971da0	-0.2951479

Tokenizer.category_embeddings.weight f4 [114, 4]
0	0xbe3c2cc3	-0.1837645
1	0x3dca50d6	0.098786995
2	0x3c3ec3d7	0.011643372
3	0x3e8001b8	0.2500131
4	0x3d17ba2f	0.037042793
5	0xbd8eee83	-0.06979086
6	0x3ef22fb3	0.47302017
7	0xbea7f0d5	-0.32800928
8	0xbdd5b285	-0.104344405
9	0x3f247113	0.6423504
10	0x3c9e48c7	0.019321812
11	0xbe095985	-0.13413055
12	0x3f3e0822	0.7423116
13	0xbeafd600	-0.34342957
14	0xbe638dac	-0.22222012
15	0x3eab5872	0.33465916
16	0xbe27e4ce	-0.16395876
17	0x3edef869	0.43548897
18	0xbe6018db	-0.21884482
19	0x3e46c530	0.19411159
20	0x3eca3957	0.39496872
21	0xbe95faed	-0.29293004
22	0xbdf1153a	-0.11771627
23	0x3d87e337	0.06635135
24	0x3dd94801	0.10609437
25	0x3dc2a7c7	0.09504657
26	0xbecdb788	-0.40179086
27	0x3eca3bd2	0.39498764
28	0x3e1044f0	0.14088798
29	0x3ec31265	0.3809997
30	0x3e9b90a4	0.3038379
31	0x3ca1b4a3	0.019739455
32	0x3e32100e	0.17388937
33	0xbdb7b6d1	-0.08970416
34	0x3f01f672	0.5076667
35	0x3d0e7de2	0.03478802
36	0x3f1c5363	0.6106474
37	0xbefedae7	-0.49776384
38	0x3eb4f592	0.35343605
39	0x3e8956bb	0.26823983
40	0x3d88c4c1	0.06678153
41	0x3eb01df9	0.34397867
42	0x3e4d521a	0.2005085
43	0xbf0ef47b	-0.558418
44	0xbbf94c27	-0.007607955
45	0xbf1fd598	-0.62435293
46	0xbef55c50	-0.4792199
47	0x3dc5a3d7	0.096503906
48	0xbf28bc61	-0.65912443
49	0xbec7c543	-0.39017686
50	0x3ea1df0c	0.31615484
51	0x3dba27c7	0.09089618
52	0x3e63b90e	0.22238562
53	0xbd036320	-0.032076955
54	0xbd388f47	-0.045058515
55	0xbe178f7e	-0.14800832
56	0x3e4afeda	0.1982378
57	0xbf22f610	-0.6365671
58	0xbda21e18	-0.07915896
59	0x3f3854f6	0.7200464
60	0xbe2b7234	-0.16742784
61	0xbed63d50	-0.41843653
62	0xbe709c43	-0.23497109
63	0xbf18c24b	-0.5967147
64	0x3ded56a4	0.11588791
65	0x3e7595e3	0.23982958
66	0x3e5afbf6	0.21385178
67	0xbe21b04b	-0.15789907
68	0x3d0fd79c	0.03511773
69	0x3eacf959	0.33783987
70	0x3d9844ba	0.074349836
71	0xbe54387f	-0.20724677
72	0xbba655d1	-0.005076148
73	0xbf04b83c	-0.5184362
74	0xbea3075b	-0.3184155
75	0x3e0e6591	0.13905932
76	0x3d341a23	0.04397024
77	0xbebaeee3	-0.3651038
78	0xbf06e45a	-0.52692187
79	0x3f3bb3ec	0.73321414
80	0xbd70a562	-0.05875147
81	0xbf18d878	-0.59705305
82	0xbe73d9b0	-0.2381351
83	0x3e11975d	0.14217897
84	0x3d31356e	0.043263845
85	0x3e0b3085	0.13592727
86	0xbd3c39a2	-0.0459534
87	0xbf00cab9	-0.5030933
88	0x3dac2b79	0.08406729
89	0xbed05179	-0.4068716
90	0xbe179a75	-0.14805014
91	0x3d377919	0.044793222
92	0xbeda275e	-0.4260816
93	0x3e179ca1	0.14805843
94	0x3eb5ad69	0.35483864
95	0xbdea7dee	-0.114498004
96	0x3c8a80ac	0.016907059
97	0x3e823154	0.2542826
98	0xbd3030a4	-0.043015137
99	0x3c53a853	0.01291855
100	0x3e214e42	0.15752509
101	0x3e9a0b78	0.30086875
102	0x3ddfec47	0.10933738
103	0x3ed6c2c6	0.41945475
104	0x3e3512b6	0.17682919
105	0x3e03507b	0.1282367
106	0xbe05744b	-0.13032643
107	0x3f1591a3	0.5842535
108	0xbe8ac860	-0.27106
109	0xbf3d3def	-0.7392263
110	0xbe2bffd2	-0.16796806
111	0xbf1d2889	-0.61389977
112	0x3f08362e	0.5320767
113	0xbd03688f	-0.032082137
114	0xbe1c1110	-0.15240884
115	0xbe323b95	-0.17405541
116	0x3f23bb94	0.63958097
117	0xbe8a42c1	-0.27004054
118	0xbf0d831b	-0.55278176
119	0xbe337cc6	-0.17528066
120	0x3e138283	0.14405255
121	0xbd8d1ef2	-0.06890668
122	0xbee2b0d2	-0.44275528
123	0x3ced84c5	0.028993974
124	0xbe1d82d7	-0.15381943
125	0xbe413628	-0.18868315
126	0x3e99d831	0.30047753
127	0xbf013330	-0.5046873
128	0x3ea4a368	0.3215592
129	0xbecde469	-0.40213326
130	0xbca7a307	-0.02046348
131	0xbd08127c	-0.033220753
132	0xbd12cde1	-0.035840873
133	0xbe68518d	-0.22687359
134	0xbec9ed6c	-0.3943895
135	0x3ee979ce	0.45600742
136	0x3eaaf880	0.33392715
137	0xbdd388cf	-0.103288285
138	0x3e868246	0.26271266
139	0xbe5d921b	-0.21637766
140	0x3ec799eb	0.38984618
141	0xbc11d5fa	-0.008901114
142	0xbd8e2ce5	-0.06942157
143	0xbe9baad0	-0.30403757
144	0x3e8465f6	0.2585904
145	0x3ef93c74	0.48678935
146	0x3d545f3e	0.051848643
147	0x3ed4a4c4	0.41531956
148	0x3dd910d9	0.105989166
149	0xbd1b2ad4	-0.03788264
150	0x3dec44b3	0.11536541
151	0x3f4d2e1a	0.8014847
152	0x3dcbb2fa	0.099462464
153	0xbe88486b	-0.2661775
154	0x3d88ae17	0.0667383
155	0x3f0501ac	0.51955676
156	0x3e318234	0.17334825
157	0x3db5cc1a	0.0887682
158	0xbe3e3d9d	-0.18578191
159	0xbd530a23	-0.05152334
160	0xbe2ccb1a	-0.16874352
161	0x3ece83d8	0.40334964
162	0x3e45dbde	0.19322154
163	0x3db16fe1	0.08663917
164	0x3e8f4dd9	0.2798908
165	0x3ebb7ea0	0.36620045
166	0xbe3ee2a4	-0.18641144
167	0x3e03b5be	0.12862298
168	0xbdcf9835	-0.10136453
169	0x3ec1b083	0.3782998
170	0xbe27dac4	-0.16392046
171	0xbd00b51f	-0.03142273
172	0x3dbf1f27	0.09332114
173	0x3e887396	0.26650685
174	0xbde2b562	-0.11069752
175	0x3e8445a7	0.2583439
176	0x3eee6aec	0.4656595
177	0x3f055d68	0.5209565
178	0xbdc16d7d	-0.09444711
179	0x3d692bee	0.05692666
180	0x3e3711c8	0.17877877
181	0xbe5e8fad	-0.21734495
182	0xbc7bbd24	-0.015364919
183	0x3f43cd13	0.76484793
184	0x3c9771ce	0.018486883
185	0xbd1550b9	-0.036453936
186	0x3e7cb93a	0.24680033
187	0x3da04627	0.078258805
188	0xbe9b899c	-0.30378425
189	0xbea464a6	-0.3210804
190	0xbc546093	-0.012962478
191	0xbef06bc0	-0.46957207
192	0x3dd93c36	0.106071874
193	0xbf26b38c	-0.65117717
194	0xbe9b9c8d	-0.30392876
195	0x3dbee25d	0.09320519
196	0xbe94d97f	-0.29072186
197	0x3c9c7c66	0.019102287
198	0x3f4ecf93	0.80785483
199	0xbe20d1bb	-0.15705006
200	0xbf022c40	-0.5084877
201	0x3d0a0d9b	0.03370438
202	0xbe961619	-0.29313734
203	0xbee286a6	-0.44243354
204	0xbddd793a	-0.10814138
205	0x3eda07c2	0.42584044
206	0xbdfbd882	-0.12297155
207	0xbeb4feda	-0.35350686
208	0x3dfc30d1	0.123139985
209	0x3e8944a6	0.26810187
210	0x3d2f3978	0.042779416
211	0xbc101e05	-0.00879622
212	0x3debefc3	0.1152034
213	0xbdfcf4aa	-0.123513535
214	0x3f0b0565	0.54305106
215	0xbe58e837	-0.21182333
216	0x3e2a3890	0.1662314
217	0xbf25f56b	-0.64827603
218	0xbe272725	-0.16323526
219	0xbe03604c	-0.12829703
220	0x3e5accbc	0.21367162
221	0x3dec7387	0.115454726
222	0x3e2facea	0.17155805
223	0x3d34983c	0.044090495
224	0x3f09f63d	0.53891355
225	0x3d1c8d78	0.038220853
226	0x3d1abd28	0.03777805
227	0xbe08b921	-0.13351871
228	0x3f0d17a0	0.55114174
229	0xbf0dd271	-0.55399233
230	0x3e1497f4	0.1451109
231	0x3db38cbc	0.08767077
232	0xbeb31d5c	-0.34983337
233	0x3f364190	0.7119379
234	0xbd37919d	-0.044816602
235	0xbe4b98ac	-0.19882458
236	0x3e9dda12	0.30830437
237	0xbee5683c	-0.44806087
238	0x3e5868e0	0.21133757
239	0xbe009f38	-0.12560737
240	0x3db77aeb	0.089589916
241	0xbea669a5	-0.32502475
242	0x3e893dbf	0.2680492
243	0xbe0a947d	-0.13533206
244	0xbdbc8133	-0.0920433
245	0x3d934528	0.07190925
246	0xbd963198	-0.07333678
247	0xbee8dd6f	-0.4548144
248	0x3e879a8a	0.2648509
249	0x3d9fe145	0.07806639
250	0xbea9fcd2	-0.332007
251	0x3f1b683a	0.6070591
252	0x3ed6dc62	0.41965014
253	0xbefc850c	-0.49320257
254	0xbf1e9fa7	-0.6196236
255	0xbe874823	-0.26422223

VAE_Encoder.layers.0.attention.W_q.weight f4 [4, 4]
0	0xbee3fe16	-0.4452979
1	0xbeb671e2	-0.3563376
2	0x3ee7a372	0.45241886
3	0xbed8c63e	-0.42338747
4	0xbe5aba5b	-0.21360151
5	0x3ee2e643	0.443163
6	0x3e2fdb4b	0.17173497
7	0x3dd74742	0.10511638
8	0x3e970d55	0.2950236
9	0xbd1080cd	-0.035279084
10	0xbe3e6a95	-0.18595345
11	0x3e56edb3	0.20989113
12	0x3e7c88a9	0.24661507
13	0xbe7939fd	-0.24338527
14	0xbdbe6fbe	-0.09298657
15	0x3daf277c	0.08552453

VAE_Encoder.layers.0.attention.W_q.bias f4 [4]
0	0xbd218f0e	-0.03944307
1	0x3d061f24	0.03274454
2	0x3dc4dada	0.09612055
3	0x3e0817f2	0.13290384

VAE_Encoder.layers.0.attention.W_k.weight f4 [4, 4]
0	0x3efa3f1f	0.48876283
1	0xbf119d60	-0.5688076
2	0x3ee55ba7	0.44796488
3	0x3e49a29b	0.19690935
4	0xbe71cee3	-0.23614077
5	0x3db2def9	0.08733935
6	0xbea3108d	-0.31848565
7	0x3d2b08cd	0.04175644
8	0xbcd72fbc	-0.026267879
9	0x3df51ac0	0.11967993
10	0xbe99d099	-0.3004196
11	0xbd34236d	-0.043979097
12	0x3e83090b	0.25592837
13	0xbe0afc5a	-0.13572827
14	0xbea98177	-0.33106586
15	0xbd4378f3	-0.047722768

VAE_Encoder.layers.0.attention.W_k.bias f4 [4]
0	0xb752671b	-1.25409815e-05
1	0x38aa80ca	8.1302205e-05
2	0xb6c6f63c	-5.9295253e-06
3	0x377be729	1.5014587e-05

VAE_Encoder.layers.0.attention.W_v.weight f4 [4, 4]
0	0x3dd81c7b	0.10552307
1	0xbddd7bea	-0.1081465
2	0xbe5f0809	-0.21780409
3	0x3e123717	0.14278828
4	0x3e1d1fb7	0.1534413
5	0xbd815879	-0.06315703
6	0xbe6b22aa	-0.22962442
7	0x3de4d2a5	0.1117299
8	0x3e26361a	0.16231576
9	0xbda3e1e6	-0.08002071
10	0xbe7276e5	-0.23678167
11	0x3dc42831	0.095779784
12	0x3e0aef06	0.13567743
13	0xbd62827f	-0.055300232
14	0xbe76096a	-0.24027029
15	0x3de6d0e7	0.11270314

VAE_Encoder.layers.0.attention.W_v.bias f4 [4]
0	0x3d12556f	0.035726007
1	0x3db506fe	0.08839224
2	0xbd57f71d	-0.0527259
3	0xbd71d56e	-0.059041433

VAE_Encoder.layers.0.linear0.weight f4 [128, 4]
0	0x3edbd227	0.4293377
1	0xbed185fe	-0.4092254
2	0xbeecb569	-0.46232155
3	0x3f231480	0.63703156
4	0xbeb054c0	-0.3443966
5	0xbe11bb98	-0.14231718
6	0x3e2e41e7	0.17017327
7	0xbe6d6865	-0.23184355
8	0xbe08ba50	-0.13352323
9	0x3e9aa5c4	0.30204594
10	0x3e88834c	0.26662672
11	0x3d274cbd	0.040844668
12	0xbeda6396	-0.42654103
13	0xbe8f4164	-0.27979577
14	0x3cbf22ff	0.023332117
15	0xbe51bc53	-0.20481996
16	0x3ec4b7ab	0.38421378
17	0xbe22ca33	-0.15897445
18	0x3cc9947c	0.024606936
19	0xbd7b3d97	-0.061338034
20	0x3dedfade	0.11620115
21	0xbe709630	-0.23494792
22	0xbd078991	-0.033090178
23	0x3f156a07	0.5836491
24	0xbec5f8d5	-0.38666406
25	0x3f0dbc1e	0.5536517
26	0x3e04e154	0.12976581
27	0xbec50b13	-0.3848501
28	0x3e5a0041	0.2128916
29	0xbddde5f1	-0.108348735
30	0xbed7f48b	-0.4217876
31	0xbef8f993	-0.4862791
32	0x3dd4d6e2	0.10392548
33	0x3ee73002	0.45153815
34	0x3e76e8c7	0.24112235
35	0x3de00912	0.1093923
36	0xbe8f5f80	-0.28002548
37	0x3eb31305	0.34975448
38	0xbe1c2cbc	-0.1525144
39	0x3f273e5d	0.65329534
40	0xbe4b3432	-0.1984413
41	0x3eab7c3c	0.3349322
42	0x3e9ebf8f	0.31005523
43	0xbe91dfae	-0.28490967
44	0x3e3d4f2b	0.18487231
45	0x3e8d5820	0.27606297
46	0xbe8cbf12	-0.27489525
47	0xbe4e2d20	-0.20134401
48	0x3cb5e3d3	0.022203362
49	0x3eb38d6a	0.35068828
50	0xbe5dcda7	-0.21660481
51	0xbe907e19	-0.28221205
52	0xbe800566	-0.2500412
53	0x3e81f80d	0.2538456
54	0xbddcea03	-0.10786822
55	0x3e5e84c0	0.21730328
56	0xbe5ccd4d	-0.21562691
57	0xbeb0a0b1	-0.34497598
58	0xbeb2cdb4	-0.34922564
59	0x3e83a3d4	0.25710928
60	0xbbab0fe2	-0.0052203992
61	0xbe5b1296	-0.21393809
62	0xbe9abd52	-0.30222565
63	0xbef8b7a7	-0.48577616
64	0xbec3d45f	-0.38247964
65	0xbe0eeb3e	-0.13956925
66	0xbef0e77a	-0.47051603
67	0x3e068674	0.13137227
68	0xbeff5995	-0.49873033
69	0xbea2b7b5	-0.31780782
70	0x3d8508f7	0.064958505
71	0xbebcdf2c	-0.36889017
72	0xbd31a7f4	-0.043373063
73	0xbc9cc994	-0.019139089
74	0xbec63f42	-0.38720137
75	0xbe8ef478	-0.2792089
76	0xbe5c20bb	-0.2149686
77	0xbd3b18e2	-0.045678027
78	0xbe95dd43	-0.29270372
79	0x3e8478aa	0.2587331
80	0xbebd8a56	-0.37019604
81	0xbeb52a02	-0.35383612
82	0x3eec6dcd	0.4617752
83	0x3ee0bd4f	0.4389443
84	0xbe71e4da	-0.23622456
85	0x3e93b9cb	0.28852686
86	0x3dbbd731	0.09171904
87	0x3ed6f3d4	0.419829
88	0xbeb72f45	-0.3577825
89	0x3dcf702e	0.101288185
90	0xbec78ab9	-0.38973024
91	0x3ee11329	0.4395993
92	0xbe0b95b3	-0.13631324
93	0xbd1ff001	-0.039047245
94	0xbeabcef3	-0.33556327
95	0xbef8ca6d	-0.4859194
96	0xbeebd5c5	-0.4606153
97	0xbe19e202	-0.15027621
98	0xbd9f2328	-0.077703774
99	0x3f20907c	0.62720466
100	0x3ecc716e	0.3993029
101	0xbf05facc	-0.5233581
102	0x3ead7c4b	0.3388389
103	0x3ee54daa	0.44785815
104	0x3f0450e1	0.5168591
105	0xbde2665f	-0.11054682
106	0xbe8ef816	-0.2792365
107	0xbe843f9a	-0.25829774
108	0x3ddc148e	0.10746108
109	0xbeddbf9a	-0.43310243
110	0xbe933fc5	-0.2875959
111	0x3e9cc60a	0.30619842
112	0xbde1178c	-0.10990819
113	0x3e8940ef	0.26807353
114	0x3d579214	0.052629545
115	0xbe3364ae	-0.17518875
116	0xbddaeacd	-0.10689316
117	0xbe8ed3ea	-0.27896053
118	0x3e849fc1	0.25903133
119	0x3f003d16	0.5009321
120	0x3eb9f981	0.3632317
121	0xbdc7c492	-0.0975429
122	0xbddec151	-0.10876716
123	0xbc9aef7e	-0.018913027
124	0x3da68746	0.0813127
125	0xbd188a49	-0.037241254
126	0x3d65dfca	0.056121625
127	0x3e33592f	0.1751449
128	0xbeab6f75	-0.33483472
129	0xbe5165b7	-0.20448957
130	0x3e467a30	0.19382548
131	0x3d4f3b44	0.05059363
132	0x3ebe37b8	0.37151885
133	0x3eadaf41	0.3392277
134	0x3e627ccb	0.22117917
135	0x3e955337	0.2916505
136	0xbeba7167	-0.36414644
137	0x3d96f52b	0.07370981
138	0x3ebc87f5	0.36822477
139	0x3ee5ffdc	0.44921768
140	0x3e7c2288	0.24622548
141	0xbf0fef79	-0.5622478
142	0xbca24e80	-0.019812822
143	0xbe114a21	-0.14188434
144	0x3d8c5b49	0.06853349
145	0xbe803c8a	-0.25046188
146	0x3eb157ca	0.3463729
147	0xbee17be6	-0.4403984
148	0xbeeeaf5e	-0.4661817
149	0x3ecd71b6	0.40125817
150	0xbedb4337	-0.42824718
151	0x3e8c717a	0.27430326
152	0x3ec0247e	0.3752784
153	0x3e8cbd8c	0.27488363
154	0xbee4c2cd	-0.4467987
155	0xbdb1a79f	-0.08674549
156	0x3ddf1eb6	0.108945295
157	0xbe927098	-0.28601527
158	0xbe800be9	-0.25009087
159	0x3e373098	0.17889631
160	0x3edf0011	0.43554738
161	0xbe43f132	-0.19134977
162	0x3de99dfd	0.11407087
163	0x3ec4e956	0.3845927
164	0x3dcd7fac	0.10034117
165	0xbdd45369	-0.10367472
166	0x3db51062	0.088410154
167	0x3eeda828	0.46417356
168	0x3f1471c6	0.57986104
169	0x3e11513d	0.14191146
170	0x3e414284	0.1887303
171	0xbdf255f9	-0.11832804
172	0x3bcf267b	0.006321726
173	0x3ea98d14	0.33115447
174	0x3dd85e92	0.10564913
175	0x3f1afc34	0.6054108
176	0x3e239262	0.1597381
177	0xbef9a457	-0.48758194
178	0xbef0c953	-0.47028598
179	0x3ec04fb3	0.37560806
180	0xbe45a3be	-0.19300744
181	0xbbe7c392	-0.0070728743
182	0x3e59b96c	0.21262139
183	0xbe50925a	-0.20368329
184	0xbde3ebac	-0.11128935
185	0xbb2fc593	-0.0026820644
186	0xbd02ee97	-0.03196582
187	0xbec9ef78	-0.39440513
188	0xbebb6826	-0.36602896
189	0xbec8284c	-0.39093244
190	0x3d96ee7a	0.073697045
191	0x3ebf4ce2	0.37363344
192	0x3ef57e68	0.47948003
193	0x3eae41e2	0.3403464
194	0x3e0147ab	0.12624995
195	0xbe2659f8	-0.16245258
196	0xbef5fb08	-0.48043084
197	0x3dd4aeae	0.1038488
198	0x3e1e8f28	0.15484297
199	0x3ecf9ad4	0.40547812
200	0x3d13889b	0.03601895
201	0x3ee12bef	0.4397883
202	0x3e7aa417	0.24476658
203	0xbe491ad6	-0.19639143
204	0xbd21be2d	-0.039488006
205	0x3eb1d2b5	0.3473107
206	0xbe2bbf18	-0.16772115
207	0x3d2226e1	0.03958786
208	0x3e94004e	0.28906482
209	0x3e4974f7	0.19673525
210	0x3e14a81b	0.14517252
211	0xbee05bbd	-0.4381999
212	0x3e571be9	0.2100674
213	0x3f0046a7	0.50107807
214	0xbe36f015	-0.17865022
215	0xbe723f78	-0.23657024
216	0x3ed3879a	0.41314393
217	0x3dca7ec0	0.09887457
218	0x3cf28058	0.029602215
219	0xbe3f71f0	-0.18695807
220	0xbea05050	-0.31311274
221	0x3c9b2023	0.018936222
222	0x3eb6c061	0.35693648
223	0x3f096ba3	0.53679866
224	0xbedcbb80	-0.431118
225	0x3df7e3b1	0.121039756
226	0xbee2398f	-0.4418454
227	0x3f018e9f	0.5060825
228	0x3cc49b5e	0.023999866
229	0xbdbc423f	-0.09192323
230	0x3e0b1be1	0.13584854
231	0x3eeac349	0.45852116
232	0x3ec4b929	0.38422516
233	0xbea5886a	-0.32330638
234	0x3e5bfc52	0.21482971
235	0x3ea4001e	0.3203134
236	0xbe7bc7e1	-0.24587967
237	0x3f09caac	0.5382488
238	0x3ed854d3	0.42252216
239	0xbdcf3c09	-0.10118873
240	0x3e529d13	0.20567732
241	0xbe756eab	-0.23967998
242	0xbebac34b	-0.36477122
243	0xbe917824	-0.28411973
244	0xbdec7316	-0.115453884
245	0x3bd15ffb	0.0063896156
246	0x3ef3c727	0.4761288
247	0x3f02abc5	0.5104335
248	0xbd9a8cc2	-0.07546379
249	0x3eec5a0f	0.4616246
250	0xbb91accc	-0.004445648
251	0x3ef25ad2	0.47334915
252	0xbeed3cb7	-0.46335384
253	0x3effc243	0.49952897
254	0xbeca5bb0	-0.39523077
255	0xbdcff80f	-0.10154735

VAE_Encoder.layers.0.linear0.bias f4 [128]
0	0xbeb45b9f	-0.3522615
1	0x3ee57e6e	0.4482302
2	0xbd724727	-0.059149887
3	0xbcebb720	-0.028773844
4	0x3ed86256	0.42262524
5	0xbd7b0230	-0.061281383
6	0x3eb8e323	0.36110792
7	0xbb80cf14	-0.0039309356
8	0xbde103bb	-0.1098704
9	0x3e99dd93	0.3005186
10	0x3eff61df	0.49879357
11	0xbe469db1	-0.19396092
12	0x3e68bf1b	0.22729151
13	0xbe362135	-0.17786105
14	0x3eedf850	0.4647851
15	0x3eb07dc7	0.3447096
16	0xbec0f2b2	-0.37685162
17	0xbbd4e367	-0.006496835
18	0x3e8189e6	0.2530052
19	0x3c82066a	0.0158722
20	0xbe3365d3	-0.17519312
21	0x3ec20fed	0.37902775
22	0x3e98ae8e	0.29820675
23	0xbd7578f5	-0.059929807
24	0xbe4f4e13	-0.20244627
25	0x3cfa9e30	0.030593008
26	0xbe4b0563	-0.19826274
27	0x3d2dca3e	0.0424292
28	0x3e82e796	0.2556731
29	0xbec3d567	-0.3824875
30	0xbed2e598	-0.4119079
31	0xbee9417c	-0.45557773
32	0x3ea5b1d9	0.3236225
33	0xbe1f8bba	-0.15580645
34	0xbdae62a3	-0.08514907
35	0x3e9faa0a	0.31184417
36	0x3e4255c1	0.18978025
37	0xbc72f725	-0.014829432
38	0x3e33ebee	0.17570469
39	0x3e07bbd1	0.1325524
40	0xbeb25a47	-0.348345
41	0x3ebef326	0.37294883
42	0x3e8141f1	0.25245622
43	0x3d10f514	0.035389975
44	0xbe81f104	-0.25379193
45	0x3ec313df	0.38101098
46	0x3ee0ab21	0.4388056
47	0x3eba6afb	0.36409745
48	0x3eb0e92b	0.34552893
49	0xbe2a246f	-0.16615461
50	0xbe240d19	-0.16020621
51	0x3e51ac99	0.20475997
52	0xbe01ec67	-0.12687837
53	0xbec4c379	-0.38430384
54	0x3d024b0c	0.03180985
55	0x3eae1792	0.34002358
56	0x3e7c5def	0.24645208
57	0xbf2261e5	-0.63430625
58	0x3f01db76	0.50725496
59	0xbe584fd7	-0.21124206
60	0x3e3bf8dc	0.18356651
61	0xbc9ad9cf	-0.018902687
62	0xbe996a5d	-0.2996396
63	0x3df0490d	0.11732683
64	0xbd690625	-0.056890626
65	0x3de1fedb	0.11034938
66	0x3ecd5c08	0.40109277
67	0x3bf7d3ae	0.007563076
68	0xbe8cb380	-0.27480698
69	0x3e91ab6b	0.28451094
70	0x3ea05397	0.31313774
71	0x3e8aa84e	0.2708153
72	0x3dc34a45	0.0953565
73	0xbeaa4992	-0.33259255
74	0xbdac0d52	-0.08400978
75	0x3ea5c5f4	0.3237759
76	0x3dc84b4b	0.09779986
77	0xbee021a4	-0.43775666
78	0x3d8add37	0.06780475
79	0x3ebf3e4d	0.3735222
80	0xbe11c888	-0.14236653
81	0xbede0de9	-0.43369988
82	0x3e31219b	0.17297976
83	0xbef3ef46	-0.4764349
84	0x3ed97acb	0.42476496
85	0xbe61a588	-0.22035801
86	0xbe29a952	-0.16568497
87	0x3e0a281b	0.13491862
88	0x3efb5e6d	0.4909548
89	0x3de1d364	0.11026648
90	0x3edbbbd8	0.4291675
91	0xbe850c48	-0.25985932
92	0x3d8beb0b	0.0683194
93	0x3ee11990	0.43964815
94	0xbe155c3a	-0.14585963
95	0x3c6f34cf	0.014599993
96	0x3ec12eda	0.37731057
97	0x3e8da9c9	0.27668598
98	0x3f0de3b7	0.5542559
99	0xbee2ea23	-0.44319257
100	0x3ee928eb	0.4553903
101	0x3d425c52	0.047451325
102	0x3ee236bf	0.44182393
103	0xbe65e9c0	-0.2245245
104	0xbbba9447	-0.0056939456
105	0x3e8336c5	0.25627723
106	0xbdf95b22	-0.12175585
107	0xbe0bc2cf	-0.13648532
108	0x3effaa0d	0.49934426
109	0xbe84ccf4	-0.25937617
110	0x3e8dc491	0.2768903
111	0x3d2290ce	0.039688878
112	0xbef2a22d	-0.47389355
113	0x3c19e408	0.009392746
114	0x3f01d3f5	0.50714046
115	0xbe6a6b2a	-0.22892442
116	0xbe9963ef	-0.29959056
117	0xbe50bd14	-0.20384628
118	0x3ddc5f2e	0.107603416
119	0xbba9c36c	-0.005180767
120	0xbee47074	-0.44617045
121	0x3e7f452b	0.24928729
122	0xbec039f8	-0.37544227
123	0x3e3e0c9e	0.185595
124	0x3e67fc40	0.2265482
125	0x3ea91f08	0.33031487
126	0x3ed77e2d	0.42088452
127	0xbe1a9f8a	-0.15099922

VAE_Encoder.layers.0.linear1.weight f4 [4, 128]
0	0x3db54360	0.088507414
1	0x3d461519	0.048359964
2	0xbca741ac	-0.020417057
3	0xbc8d67bb	-0.017261377
4	0xbcbb01f0	-0.022828072
5	0x3d619628	0.05507484
6	0xbc8cf23d	-0.017205352
7	0xbd53d5a9	-0.051717434
8	0x3d62a6c2	0.055334814
9	0xbda9d95e	-0.082934126
10	0xbd643423	-0.055713784
11	0x3aa38a08	0.001247705
12	0xbc66b963	-0.014082286
13	0xbdf9fdeb	-0.12206634
14	0xbc22c151	-0.009933786
15	0xbe01e627	-0.12685452
16	0xbc908ba5	-0.017644713
17	0xbdb2c2cc	-0.08728561
18	0xbcc4aa64	-0.02400703
19	0x3c913291	0.017724307
20	0xbd9e8f3e	-0.07742165
21	0xbd776ac1	-0.060404543
22	0xbc115eb1	-0.008872674
23	0xbe24903f	-0.1607065
24	0xbd822752	-0.06355156
25	0x3c666f1e	0.014064578
26	0xbcb61044	-0.022224553
27	0x3d7f4d26	0.062329434
28	0xbda931fe	-0.082614884
29	0x3d419de9	0.047269735
30	0x3e523f7e	0.20532033
31	0xbd99f76c	-0.07517895
32	0x3c5932d8	0.013256751
33	0xbd259974	-0.040429547
34	0xbd879772	-0.06620683
35	0xbc3883c4	-0.011261884
36	0x3c9f7175	0.01946328
37	0xbd4a7e5d	-0.049436916
38	0x3dad7151	0.08468879
39	0x3e081383	0.13288693
40	0x3dc12ca4	0.09432343
41	0x3d82b9c4	0.06383088
42	0xbd69b53f	-0.057057615
43	0xbd9b2eff	-0.07577323
44	0x3df57001	0.11984254
45	0xbd404051	-0.046936337
46	0xbde935dc	-0.11387226
47	0xbc9608d9	-0.018314766
48	0xbb56a23d	-0.003275051
49	0xbdf65488	-0.12027842
50	0x3dcc5851	0.099777825
51	0xbdac564c	-0.08414897
52	0xbd950c15	-0.07277695
53	0xbe4746e9	-0.19460644
54	0x3cf5e00a	0.030014057
55	0x3d8152c7	0.06314617
56	0xbd9c2608	-0.076244414
57	0x3d42f542	0.047597177
58	0x3d169049	0.036758695
59	0xbc08eb31	-0.008356855
60	0xbdca2fd7	-0.09872406
61	0xbbbc4d1a	-0.005746496
62	0xbddd48f7	-0.108049326
63	0x3c3608e2	0.011110516
64	0xbda8db75	-0.08244983
65	0x3d190f76	0.03736826
66	0x3bea45b4	0.0071494225
67	0xbd6d8121	-0.057984475
68	0xbe107866	-0.14108428
69	0xbd84b6dd	-0.06480191
70	0xbc8fb3ec	-0.017541848
71	0x3d899ce2	0.06719376
72	0xbe081419	-0.13288917
73	0x3d262c8a	0.04056982
74	0xbc84fbd9	-0.016233372
75	0x3de40da4	0.11135414
76	0xbbdac5d2	-0.006676414
77	0xbe126a80	-0.14298439
78	0xbdc6103d	-0.09671066
79	0x3d2015fd	0.03908347
80	0x3dab985a	0.08378668
81	0xbe441495	-0.19148476
82	0xbde06ba3	-0.1095803
83	0xbd895b4c	-0.067068666
84	0xbd366539	-0.044530127
85	0xbe41a7fe	-0.1891174
86	0x3da16500	0.07880592
87	0x3d97310c	0.07382402
88	0xbd6cf60c	-0.057851836
89	0x3e0579b9	0.13034715
90	0xbbd9d574	-0.00664776
91	0x3d073d20	0.033017278
92	0xbc5dd252	-0.013538914
93	0x3cbd0219	0.02307229
94	0x3da78f11	0.081815846
95	0xbddacb4f	-0.10683309
96	0x3cb32dc4	0.021872409
97	0x3d26c987	0.040719535
98	0xbc753cfc	-0.014968153
99	0xbdf5f645	-0.12009863
100	0xbcaf1fa7	-0.021377398
101	0x3dc9fb5f	0.09862398
102	0x3d730df5	0.059339482
103	0xbd7aec67	-0.061260607
104	0x3da9b9d6	0.082873985
105	0xbd7ba754	-0.061438873
106	0xbca5d801	-0.0202446
107	0xbd288329	-0.04114071
108	0xbd9dbd89	-0.077021666
109	0x3c0ab089	0.008464941
110	0x3c9ec619	0.01938157
111	0x3c5ac5c2	0.013352813
112	0xbdebe8bf	-0.11519002
113	0xbd99bc29	-0.07506592
114	0xbd630183	-0.055421364
115	0xbd73ad0e	-0.05949121
116	0xbd1f9b45	-0.038966436
117	0x3cdb25b0	0.02675137
118	0xbd8e7516	-0.06955926
119	0x3d55a278	0.052156895
120	0xbd884d85	-0.06655411
121	0x3d4ffc1d	0.050777543
122	0xbe066822	-0.13125661
123	0xbdb85ee0	-0.09002471
124	0xbd525e09	-0.05135921
125	0xbcbbfe02	-0.022948269
126	0xbdc708d9	-0.097184844
127	0xbd459cdd	-0.0482453
128	0xbdc4c991	-0.09608758
129	0xbdc2ff19	-0.09521312
130	0xbddc1fc2	-0.10748245
131	0xbe242b11	-0.16032054
132	0x3c99dfca	0.018783469
133	0xbe008ed9	-0.12554492
134	0xbdfe973d	-0.1243119
135	0x3c7eb727	0.015546597
136	0xbdb680ba	-0.089112714
137	0x3cfb1acc	0.030652426
138	0xbda849b9	-0.082171865
139	0x3d00343e	0.031299822
140	0xbd98caf2	-0.07460584
141	0x3badccc0	0.005303949
142	0x3d920f7d	0.071318604
143	0x3cc8dd02	0.024519447
144	0xbb0d15ae	-0.0021527815
145	0x3c2d22cf	0.010567381
146	0xbb484ee2	-0.0030564596
147	0x3d2688ef	0.040657934
148	0xbddcc329	-0.10779411
149	0xbd3e152e	-0.046406917
150	0x3d7c1333	0.061541747
151	0x3b79c349	0.0038110784
152	0xbde41cd4	-0.11138311
153	0xbd1683bd	-0.03674673
154	0x3e4216f3	0.18954067
155	0xbdb2a0b3	-0.08722057
156	0xbd8f19e4	-0.0698736
157	0xbd8cb050	-0.068695664
158	0x3e754eac	0.23955792
159	0xbd4b92bb	-0.04970048
160	0xbda51965	-0.08061484
161	0xbd94e16d	-0.07269559
162	0x3debfa5e	0.11522363
163	0x3cabdca8	0.02097924
164	0x3b1f7ed4	0.002433707
165	0x3d2a4bb6	0.04157611
166	0x3d1ea9e5	0.038736243
167	0x3d18168d	0.03713088
168	0xbe29e4a7	-0.1659113
169	0x3c05cf01	0.008167029
170	0x3dc8a806	0.09797673
171	0x3ddd7fa2	0.1081536
172	0xbda167a8	-0.07881099
173	0xbdb841da	-0.08996935
174	0xbd67efe9	-0.05662528
175	0xbdaebaf2	-0.08531751
176	0x3def8002	0.116943374
177	0x3e0bcdba	0.13652697
178	0x3d26cf99	0.040725324
179	0xbd983efd	-0.07433889
180	0xbd1ed2c9	-0.03877524
181	0xbd9c830e	-0.07642184
182	0x3dddfc39	0.10839123
183	0xbdf24546	-0.11829619
184	0x3dfb7d4c	0.12279758
185	0xbe68af3b	-0.22723095
186	0x3d362571	0.0444693
187	0xbdc80412	-0.09766401
188	0x3dd99838	0.106247365
189	0xbe6387b4	-0.22219735
190	0x3e15c9c7	0.14627753
191	0xbd680acd	-0.056650925
192	0x3d74b65f	0.059744235
193	0xbd8f7359	-0.07004423
194	0xbdbec273	-0.09314432
195	0x3de556a6	0.111981675
196	0xbe15fc14	-0.14646941
197	0x3d10a071	0.03530926
198	0x3dc8e84f	0.09809934
199	0xbc041f77	-0.008064142
200	0x3dfbdab9	0.122975774
201	0x3b28a4ef	0.0025733074
202	0x3ddf5242	0.10904361
203	0xbd0d6aa8	-0.034525543
204	0x3db27cf8	0.08715242
205	0x3cee9fc2	0.029128913
206	0x3d240e44	0.040052667
207	0x3d6f24ab	0.05838458
208	0xbcfa0fc5	-0.030525098
209	0x3e22c216	0.1589435
210	0x3d61ece9	0.055157576
211	0x3d957fbf	0.07299756
212	0x3da918dc	0.08256695
213	0x3dd5a08d	0.10431013
214	0xbd770c0c	-0.060314223
215	0xbdd86744	-0.10566571
216	0x3de31994	0.11088863
217	0xbce52512	-0.027971778
218	0xbc850e9d	-0.01624232
219	0x3daa2851	0.08308471
220	0xbc957a32	-0.018246744
221	0xbd00b653	-0.031423878
222	0x3d04eba1	0.032451276
223	0x3e10fe67	0.14159547
224	0xbcc4fe4a	-0.024047036
225	0xbc68a969	-0.014200547
226	0x3b02167a	0.0019849823
227	0xbde62145	-0.112368144
228	0x3cec63cb	0.028856179
229	0x3cdf64db	0.027269771
230	0x3dc3cd50	0.095606446
231	0x3e0c84ac	0.13722485
232	0x3d86471e	0.06556533
233	0xbd03654d	-0.03207903
234	0xbdd02c0c	-0.10164651
235	0x3d565d82	0.05233527
236	0xbd8fcfa4	-0.07022026
237	0xbd099cf2	-0.03359694
238	0xbe31fe20	-0.17382097
239	0xbd1a227e	-0.03763055
240	0x3d77fa4d	0.06054144
241	0xbb8ebff6	-0.0043563796
242	0xbdcef05a	-0.10104437
243	0x3e1efe6b	0.1552674
244	0xbe138946	-0.14407834
245	0xbdd3edd4	-0.103480965
246	0x3d917d42	0.07103969
247	0x3e132561	0.14369728
248	0xbe20d97b	-0.15707962
249	0x3d50c406	0.050968193
250	0x3cee82ce	0.029115107
251	0xbbcffa5b	-0.0063469834
252	0xba922013	-0.0011148475
253	0xbc864af5	-0.016393164
254	0x3cb54d23	0.022131508
255	0xbd5c1f97	-0.053741064

VAE_Encoder.layers.0.linear1.bias f4 [4]
0	0xbd9f8143	-0.077883266
1	0xbbf01bc8	-0.0073275305
2	0xbd0c017d	-0.034181107
3	0x3dd0c927	0.10194617

VAE_Encoder.layers.0.norm1.weight f4 [4]
0	0x3f91450c	1.1349196
1	0x3f8992cc	1.0747924
2	0x3f8d21a6	1.1025894
3	0x3f9692e3	1.1763576

VAE_Encoder.layers.0.norm1.bias f4 [4]
0	0x3c9b00b2	0.01892123
1	0x3976ef05	0.0002354943
2	0x3c1e73d9	0.009671175
3	0x3e002ab9	0.12516297

VAE_Encoder.layers.1.attention.W_q.weight f4 [4, 4]
0	0xbe89269b	-0.26787266
1	0xbe36caab	-0.17850749
2	0x3eba53a7	0.36391947
3	0xbeb848ed	-0.35993138
4	0xbf111ed4	-0.56687665
5	0xbda59da5	-0.08086709
6	0xbbb02aa2	-0.005376176
7	0xbd4740b0	-0.048645675
8	0x3e11a948	0.14224732
9	0xbd73b5c3	-0.059499513
10	0x3e513fff	0.20434569
11	0x3da51394	0.08060375
12	0xbea0400a	-0.31298858
13	0xbf0490ac	-0.5178325
14	0x3ee362bc	0.44411266
15	0x3ed05775	0.40691724

VAE_Encoder.layers.1.attention.W_q.bias f4 [4]
0	0xbda5ff43	-0.08105328
1	0x3e02665a	0.12734357
2	0x3eaae84c	0.33380353
3	0x3ccbaa7a	0.024861563

VAE_Encoder.layers.1.attention.W_k.weight f4 [4, 4]
0	0x3ee3aa1b	0.44465718
1	0x3eda4d09	0.42636898
2	0x3e1ca7a5	0.15298326
3	0xbee7c2d5	-0.45265833
4	0x3ec5e9a2	0.3865481
5	0x3c805725	0.015666554
6	0xbeba8a9f	-0.36433885
7	0x3eb175d3	0.34660205
8	0xbedb2c4a	-0.42807227
9	0xbd726d1d	-0.05918609
10	0xbea78444	-0.32718098
11	0x3e5ef159	0.21771754
12	0x3e2e366d	0.1701295
13	0xbefe90c8	-0.49719834
14	0xbe766639	-0.24062432
15	0x3ec9524e	0.39320606

VAE_Encoder.layers.1.attention.W_k.bias f4 [4]
0	0x390e62bc	0.00013578957
1	0x38fab88c	0.000119553035
2	0x3752f4f8	1.2574012e-05
3	0xb8808368	-6.127992e-05

VAE_Encoder.layers.1.attention.W_v.weight f4 [4, 4]
0	0x3e8f865b	0.28032193
1	0x3dc703c7	0.09717517
2	0xbe106d04	-0.14104086
3	0xbc11c5f4	-0.008897293
4	0x3e8571cd	0.26063386
5	0x3cba85c7	0.022768868
6	0xbe7d3bd0	-0.24729848
7	0xbd95b956	-0.07310741
8	0x3a99f9ce	0.0011747421
9	0xbe890f3c	-0.26769435
10	0xbee9a09d	-0.4563035
11	0xbe9f89e3	-0.31159887
12	0x3ec45f46	0.38353938
13	0x3e2924b4	0.16517907
14	0xbdacb4e4	-0.0843294
15	0x3e380e28	0.1797415

VAE_Encoder.layers.1.attention.W_v.bias f4 [4]
0	0x3ca52f23	0.020164078
1	0xbc528d4c	-0.012851071
2	0xbc2a361a	-0.010388875
3	0xbd750b23	-0.059825074

VAE_Encoder.layers.1.linear0.weight f4 [128, 4]
0	0xbdf0423b	-0.117313825
1	0x3d1548c7	0.03644636
2	0x3bd3fd72	0.006469422
3	0x3de11684	0.10990623
4	0xbe25c1c5	-0.16187198
5	0xbe305b06	-0.17222223
6	0x3ec26bc2	0.37972838
7	0xbf012a1e	-0.5045489
8	0x3ef1dc5c	0.47238433
9	0x3cf5598b	0.029949924
10	0xbdcfa26f	-0.101384036
11	0xbd5e195a	-0.054223396
12	0x3ec78a80	0.38972855
13	0xbdca3bfd	-0.09874723
14	0x3c86f878	0.016475901
15	0x3f0d6671	0.5523444
16	0xbd4a78ec	-0.049431726
17	0x3eb700f9	0.3574293
18	0x3f13312d	0.5749691
19	0xbcf2cf43	-0.029639846
20	0xbeac581a	-0.33660966
21	0xbe46f113	-0.194279
22	0x3ed8c228	0.4233563
23	0xbd95bd8e	-0.07311545
24	0xbee909cc	-0.45515287
25	0xbc32f2ef	-0.010922178
26	0xbdb507c2	-0.0883937
27	0x3e787efc	0.2426719
28	0xbeded2a2	-0.43520075
29	0xbefcb2ff	-0.49355313
30	0x3e98f483	0.29874048
31	0x3d9d8f3f	0.07693338
32	0xbe44a642	-0.19204047
33	0x3ed36d59	0.41294363
34	0x3d5b124b	0.053484242
35	0xbed68cae	-0.41904205
36	0xbd4a9671	-0.04945988
37	0x3e15dc16	0.14634737
38	0x3e8b9f79	0.27270105
39	0x3c7d05c2	0.015443267
40	0xbeb6de89	-0.35716656
41	0xbe1674fd	-0.14693065
42	0x3e92a79c	0.286435
43	0xbe35953c	-0.1773271
44	0xbe36e4d0	-0.17860723
45	0x3ed1b2c5	0.40956703
46	0xbefadaec	-0.4899515
47	0x3e1982e3	0.14991336
48	0x3e52b655	0.20577367
49	0xbe9ac6b1	-0.30229715
50	0x3e1b8051	0.15185668
51	0xbe80ccb5	-0.2515618
52	0x3dfc7d11	0.12328542
53	0xbed9a1ca	-0.42506248
54	0x3da9d9a7	0.08293467
55	0xbea4bc83	-0.32175073
56	0xbea7d695	-0.327809
57	0xbedff6b4	-0.43742907
58	0x3dbcbed4	0.09216085
59	0x3e92263d	0.28544798
60	0x3da65d4e	0.08123265
61	0x3e720010	0.23632836
62	0xbe33ebd4	-0.1757043
63	0x3e5f4ca9	0.21806587
64	0x3e36192f	0.17783044
65	0x3dd1c41d	0.10242484
66	0x3d5ad06f	0.053421434
67	0xbee220c1	-0.44165614
68	0x3d80eb4d	0.0629488
69	0x3d6c546e	0.057697706
70	0x3d302264	0.043001547
71	0x3f10529f	0.5637607
72	0xbee1bb14	-0.44088042
73	0x3ea48196	0.32130116
74	0xbeaa81c8	-0.3330214
75	0x3e58368e	0.21114561
76	0x3ef1128b	0.4708446
77	0x3de8f246	0.11374335
78	0xbf0aec21	-0.54266554
79	0xbe89f0f3	-0.26941642
80	0x3e7d1284	0.24714094
81	0xbf089aee	-0.53361404
82	0x3e19f6c5	0.15035541
83	0xbeb75c70	-0.35812712
84	0x3eae913e	0.34095186
85	0xbddd5a37	-0.10808223
86	0xbe775fac	-0.2415759
87	0xbe405cbc	-0.18785375
88	0xbd97a369	-0.07404215
89	0x3ec96867	0.39337465
90	0x3e7b489a	0.24539414
91	0xbdf63bde	-0.120231375
92	0xbedc9077	-0.43078968
93	0x3edadcdb	0.42746624
94	0xbea23423	-0.31680402
95	0x3e286a50	0.16446805
96	0xbe4830ef	-0.19549917
97	0x3ef5d6c4	0.48015416
98	0xbedf1c4e	-0.43576282
99	0xbdcecf71	-0.1009816
100	0x3e219bda	0.15782109
101	0xbe99aebe	-0.3001613
102	0xbdf67fad	-0.12036071
103	0xbe9aa955	-0.30207315
104	0x3dd19406	0.10233311
105	0x3e8d4c85	0.27597442
106	0xbf10493e	-0.5636176
107	0xbe756902	-0.23965839
108	0xbe01debc	-0.12682623
109	0xbe36234f	-0.17786907
110	0xbe4a3d9e	-0.19750068
111	0x3e25a5f7	0.16176592
112	0xbeb36b35	-0.3504273
113	0xbf1fc9aa	-0.6241709
114	0x3caffa3d	0.021481628
115	0xbedc2932	-0.4300018
116	0xbeb1f919	-0.3476036
117	0xbcaae977	-0.020863278
118	0xbd9ec944	-0.07753232
119	0x3ee91fa8	0.45531964
120	0xbe0fc91c	-0.14041561
121	0x3ec6abc1	0.38802913
122	0xbe61c227	-0.2204672
123	0x3ee02cd0	0.4378419
124	0xbcda3c4a	-0.026640076
125	0x3eff10ad	0.4981741
126	0x3f1e571a	0.61851656
127	0xbecc1820	-0.39862156
128	0x3ed87417	0.4227607
129	0x3ec2f704	0.38079083
130	0xbe2a46dc	-0.16628593
131	0xbe16863e	-0.14699647
132	0x3f290d33	0.66035765
133	0x3e2975aa	0.16548792
134	0x3e1a7c58	0.15086496
135	0x3f0e12e2	0.5549756
136	0x3eaf3f46	0.3422796
137	0xbe4687f9	-0.19387807
138	0xbe4f424b	-0.20240133
139	0x3e8a6b68	0.2703507
140	0x3e271389	0.16316046
141	0xbdcddda8	-0.10052043
142	0xbec3b34b	-0.38222727
143	0x3e2cb4a0	0.16865778
144	0xbde6ca51	-0.112690575
145	0xbe94980a	-0.29022247
146	0xbf03dccd	-0.5150879
147	0x3c125a42	0.008932652
148	0x3f0599fe	0.521881
149	0xbe9d812c	-0.30762613
150	0xbf148f66	-0.5803131
151	0x3f0f0d37	0.5587954
152	0xbed69d0f	-0.419167
153	0x3f04367c	0.51645637
154	0xbed843c1	-0.42239192
155	0x3dbaf954	0.09129587
156	0xbe3b5bd1	-0.18296744
157	0xbea1a6f7	-0.31572697
158	0xbefccc02	-0.49374396
159	0x3e802ac7	0.25032637
160	0x3db71fff	0.0894165
161	0xbf00a1a9	-0.50246674
162	0x3e7530e8	0.23944438
163	0xbe3a93e1	-0.18220474
164	0x3f1d4a18	0.61441183
165	0xbefd0686	-0.4941904
166	0x3b0c7cf2	0.0021436778
167	0x3e28edbe	0.16496941
168	0xbf2aef94	-0.6677182
169	0xbd85bcb0	-0.0653013
170	0x3f0be863	0.5465147
171	0xbec7c0d3	-0.390143
172	0x3f205c52	0.6264087
173	0xbeb6d46a	-0.35708934
174	0xbea0db06	-0.31417102
175	0x3ea22ad2	0.31673294
176	0xbea5eac6	-0.3240568
177	0x3eb248e4	0.34821236
178	0x3ac8f38a	0.0015331369
179	0xbf0d2ad8	-0.551435
180	0xbe9099f2	-0.2824245
181	0x3e911fbd	0.28344527
182	0xbe94a337	-0.29030773
183	0x3e0c178f	0.13680862
184	0xbd20e4d5	-0.03928073
185	0xbdd7dec3	-0.10540535
186	0x3df45bf5	0.11931602
187	0x3e2f230c	0.17103213
188	0x3e2b4ea5	0.1672922
189	0xbc428da5	-0.011874591
190	0xbe84e5c5	-0.2595655
191	0x3ea0353d	0.31290618
192	0x3db6b415	0.08921067
193	0xbf2b62d6	-0.66947687
194	0x3e0aa298	0.13538587
195	0x3d142984	0.036172405
196	0xbe9edd89	-0.31028393
197	0x3d880608	0.06641775
198	0x3eb8fc02	0.36129767
199	0x3c4e9ccd	0.012610626
200	0x3e958b18	0.29207683
201	0x3eb607ad	0.3555273
202	0xbede2818	-0.43389964
203	0x3ec63849	0.38714817
204	0x3ead523c	0.33851802
205	0x3e55ad0a	0.2086679
206	0xbecd0c22	-0.4004832
207	0x3ce85f8e	0.028365877
208	0xbc864282	-0.016389135
209	0xbf58a365	-0.8462432
210	0x3c202924	0.009775434
211	0x3e31ebd6	0.1737512
212	0xbe5429c5	-0.20719059
213	0x3ea8f1c3	0.3299695
214	0xbe3d6133	-0.1849411
215	0xbe819c81	-0.25314716
216	0x3ec1b076	0.37829942
217	0xbd8ce96a	-0.06880458
218	0x3ede640f	0.43435714
219	0xbeff7a2c	-0.49897897
220	0x3e9d243c	0.30691707
221	0xbdc1c2d6	-0.0946099
222	0x3e446c35	0.19181903
223	0x3e20d4a2	0.15706113
224	0x3ebdc074	0.37060893
225	0xbc22c0a7	-0.009933627
226	0x3ee4876b	0.44634566
227	0x3e24354a	0.16035953
228	0xbe0d9f57	-0.13830315
229	0xbedce84d	-0.4314598
230	0x3d1ef39f	0.038806554
231	0xbe93cffa	-0.2886961
232	0xbf06e752	-0.52696717
233	0x3e879dbc	0.2648753
234	0x3e51eadc	0.20499748
235	0xbe3f08c1	-0.18655683
236	0x3e4d9bfb	0.20079033
237	0x3ebe1181	0.3712273
238	0xbf0b531e	-0.544237
239	0xbeb24933	-0.34821472
240	0xbec5756b	-0.38566145
241	0xbeaeaab8	-0.34114623
242	0xbdf58bc1	-0.119895466
243	0xbe8eb356	-0.27871197
244	0x3eb738d1	0.35785535
245	0xbe90824c	-0.2822441
246	0x3eb9f536	0.36319894
247	0xbf06de7b	-0.5268323
248	0x3e8646b4	0.26225817
249	0x3eb5d553	0.35514316
250	0xbe6e7ce9	-0.23289837
251	0x3c3922d4	0.011299808
252	0xbd9e2288	-0.0772143
253	0xbec53704	-0.38518536
254	0x3eece59e	0.46268934
255	0xbdfc531b	-0.123205386

VAE_Encoder.layers.1.linear0.bias f4 [128]
0	0x3e398ef7	0.18120943
1	0x3e0838ac	0.13302869
2	0x3eaf4184	0.34229672
3	0x3e847b28	0.2587521
4	0xbe8a87d1	-0.27056745
5	0x3e9148da	0.28375894
6	0x3e35d9ab	0.17758815
7	0x3eb2aff9	0.3489988
8	0x3ea35182	0.31898123
9	0x3ea11d0f	0.31467482
10	0xbd3b663c	-0.045751795
11	0x3e3f7a3f	0.18698977
12	0xbc815a56	-0.015790146
13	0xbde9aa57	-0.11409443
14	0xbebbfef9	-0.36717966
15	0x3b57e2be	0.0032941545
16	0x3ea6eb6c	0.32601488
17	0xbe0ff98d	-0.1406004
18	0xbed98fbb	-0.4249247
19	0x3e0b5ce8	0.1360966
20	0x3944e661	0.0001877784
21	0x3c2d7c59	0.010588729
22	0x3ebfd010	0.37463427
23	0x3ee117a0	0.43963337
24	0xbdb5485d	-0.08851693
25	0xbd24d713	-0.040244173
26	0xbebadd4a	-0.36496955
27	0x3ce1e1d1	0.027573498
28	0x3defeb3c	0.11714789
29	0xbea7f178	-0.32801414
30	0xbe9549f9	-0.29158
31	0x3d8fb53b	0.07016989
32	0x3cc417af	0.023937074
33	0x3db697c3	0.08915665
34	0xbeab99fb	-0.33515915
35	0x3e17db07	0.14829646
36	0x3ee90ff9	0.4552
37	0x3ed3fc8a	0.4140361
38	0xbdd8ce76	-0.10586254
39	0xbe15c8e5	-0.14627416
40	0xbed8344c	-0.422274
41	0xbd036af1	-0.03208441
42	0xbe69fb49	-0.22849764
43	0xbe350932	-0.17679289
44	0x3ea122ff	0.31472012
45	0xbe247cec	-0.16063279
46	0x3eca2845	0.39483848
47	0x3ea7d92d	0.3278288
48	0xbe97160c	-0.29509008
49	0xbe98c81c	-0.2984017
50	0xbe2e0efc	-0.16997904
51	0xbef5db15	-0.4801871
52	0xbe1285f4	-0.14308912
53	0x3eb44500	0.35208893
54	0x3e9895b6	0.2980172
55	0xbe606db0	-0.21916842
56	0xbe6a1292	-0.22858647
57	0x3f0b3cc2	0.54389584
58	0x3dd71ca7	0.10503512
59	0xbe4728e1	-0.19449188
60	0x3ece9426	0.40347403
61	0x3e9cab1d	0.305993
62	0x3ee20397	0.44143364
63	0xbeeb5cb8	-0.45969176
64	0x3d590541	0.052983526
65	0x3e3cce8d	0.18438168
66	0x3d404a74	0.046946004
67	0x3d0d37de	0.034477107
68	0x3d2bab74	0.041911557
69	0x3ec8ae4b	0.39195475
70	0x3d10727e	0.03526544
71	0x3e571b0a	0.21006408
72	0xbeb09fc5	-0.34496894
73	0xbefde29f	-0.4958696
74	0xbe84a225	-0.25904956
75	0x3e833f9e	0.25634474
76	0x3dca95bc	0.09891841
77	0xbe461ae5	-0.19346197
78	0x3e90b983	0.28266534
79	0x3df33fe0	0.118774176
80	0xbd591955	-0.053002674
81	0x3ef4f0b8	0.47839904
82	0x3eddb8f7	0.4330518
83	0x3ecfdcd3	0.40598163
84	0xbecd4443	-0.40091142
85	0x3ed2b638	0.41154647
86	0x3dad5162	0.08462788
87	0xbe4ecbb9	-0.20194902
88	0xbe9b8851	-0.3037744
89	0xbdd72ce7	-0.10506611
90	0xbe2733f5	-0.16328414
91	0xbccfc271	-0.025361272
92	0x3e89ae0e	0.26890606
93	0xbcab187a	-0.020885695
94	0x3e88a47e	0.26687998
95	0xbd6389cb	-0.05555133
96	0xbeacfc8a	-0.33786422
97	0x3e302bda	0.17204228
98	0x3e1b7200	0.15180206
99	0xbf07802a	-0.5292994
100	0xbe03f3bb	-0.12885945
101	0xbef0e0c2	-0.47046477
102	0x3eaeb361	0.3412123
103	0x3ec7ba2e	0.3900923
104	0x3eeb5798	0.45965266
105	0x3e54fc9c	0.20799488
106	0x3da87375	0.08225147
107	0x3ebc35fe	0.36759943
108	0x3f05525c	0.52078795
109	0xbec2d444	-0.3805257
110	0xbe13c237	-0.14429556
111	0x3e75888a	0.23977867
112	0xbec6e8de	-0.3884954
113	0x3de23753	0.110457085
114	0x3f051653	0.5198719
115	0x3d305626	0.043050908
116	0xbe51a652	-0.20473602
117	0x3eb9fbf1	0.3632503
118	0x3ef9c9a5	0.48786655
119	0xbe330f8a	-0.17486396
120	0xbe1e265a	-0.15444317
121	0x3eba24e7	0.3635628
122	0x3daad246	0.08340888
123	0xbe19e35f	-0.15028141
124	0xbecce25a	-0.40016443
125	0xbdb89c75	-0.09014217
126	0x3d819f8c	0.06329259
127	0x3ecef63c	0.40422237

VAE_Encoder.layers.1.linear1.weight f4 [4, 128]
0	0x3dbca028	0.09210235
1	0x3d9bbdc2	0.07604553
2	0xbcbe29e4	-0.023213334
3	0x3d266642	0.040624864
4	0x3e7cebce	0.24699327
5	0xbd86fbe9	-0.06591017
6	0x3d164340	0.03668523
7	0xbcce8565	-0.025210092
8	0xbdd1363a	-0.10215421
9	0x3ce25fa0	0.027633488
10	0xbd896c80	-0.06710148
11	0x3d065310	0.03279406
12	0xbe3e2db3	-0.1857212
13	0xbe15cd07	-0.14628993
14	0x3c93d355	0.018045107
15	0x3e0e1508	0.1387521
16	0xbe5af9e1	-0.21384384
17	0xbce758da	-0.02824061
18	0x3d25eae5	0.040507216
19	0xbdc6c712	-0.097059384
20	0xbdd36b55	-0.10323206
21	0x3dd98ba6	0.10622339
22	0x3da69c45	0.08135275
23	0x3d890e5d	0.06692193
24	0xbcae71d9	-0.021294521
25	0x3d709433	0.058735084
26	0xbcb200a5	-0.021728823
27	0xbca9ff5c	-0.020751648
28	0xbd06da5a	-0.03292308
29	0xbcf1c0db	-0.029510906
30	0x3e0cbb88	0.13743412
31	0xbd7669d5	-0.060159523
32	0xbe33ed61	-0.17571022
33	0x3da80a1f	0.082050554
34	0xbdd19016	-0.1023256
35	0x3e1ed40c	0.15510577
36	0xbc04b7f2	-0.008100497
37	0x3e0a6e39	0.13518609
38	0x3dc425b0	0.09577501
39	0xb8916de1	-6.934605e-05
40	0x3c52c42c	0.012864154
41	0x3db6b49b	0.089211665
42	0x3dcb28e5	0.099199094
43	0x3c04c5d8	0.00810381
44	0xbe25efac	-0.16204709
45	0x3d97ef51	0.07418693
46	0x3d7fa40c	0.062412307
47	0x3db4e42c	0.08832583
48	0x3e2b6a48	0.16739762
49	0x3db70280	0.08936024
50	0x3bd72b4c	0.0065664407
51	0xbcf8cec7	-0.030372037
52	0x3eb5b1b8	0.3548715
53	0x3e0bfe8a	0.13671318
54	0xbd980a6d	-0.074238636
55	0xbe431b43	-0.19053368
56	0xbd2aaff7	-0.04167172
57	0x3cb15856	0.021648567
58	0x3d6f15ec	0.058370516
59	0x3ac52193	0.0015039913
60	0xbbafff21	-0.00537099
61	0xbe0efc7b	-0.13963501
62	0x3dfa2f59	0.12216062
63	0xbd4952b1	-0.049151126
64	0xbd897823	-0.067123674
65	0x3e1be860	0.15225363
66	0x3d5967c1	0.053077463
67	0x3d9f2f9d	0.077727534
68	0x3d8c58cc	0.06852874
69	0x3d97e1c1	0.07416106
70	0xbe22c2dc	-0.15894645
71	0xbd9fb965	-0.07799033
72	0x3d15d11d	0.03657638
73	0xbd15ec0b	-0.03660206
74	0x3e0324b7	0.12806974
75	0xbe0f8f7d	-0.1401958
76	0x3e09e10f	0.1346476
77	0xbe1b5228	-0.15168059
78	0x3d5a257c	0.053258404
79	0xbcf98ef2	-0.03046367
80	0x3d40c12b	0.04705922
81	0xbd681a57	-0.056665745
82	0xbe0bd8ea	-0.13656965
83	0xbe2469ba	-0.16055956
84	0x3e95cd9f	0.2925844
85	0x3d52a0f2	0.05142302
86	0xbd11f2c2	-0.035631903
87	0xbde0deba	-0.10979982
88	0x3d7a8f6f	0.061171945
89	0xbe28a1d3	-0.16467981
90	0xbe2b8679	-0.16750516
91	0x3dbdc122	0.09265353
92	0x3b34e5bd	0.0027602755
93	0xbe5397d8	-0.20663393
94	0xbe0549ee	-0.13016483
95	0x3de24c15	0.11049668
96	0x3cfc5f0b	0.030807039
97	0xbdcbb118	-0.09945887
98	0x3df8750c	0.121317
99	0x3e65b420	0.22431993
100	0xbdfdfddd	-0.12401936
101	0xbdb61d8c	-0.08892354
102	0x3d361c14	0.04446037
103	0xbcf525ae	-0.029925194
104	0x3ce5dcda	0.028059412
105	0x3dbe24c1	0.09284354
106	0x3dd2a28b	0.10284909
107	0x3d555f96	0.05209311
108	0xbda8e57c	-0.08246896
109	0x3b6bcbd6	0.003597965
110	0xbdaab45d	-0.08335183
111	0xbda46026	-0.08026151
112	0xbcb51536	-0.02210484
113	0xbe3a9c35	-0.18223651
114	0xbd816e33	-0.06319847
115	0x3d9a4529	0.075327225
116	0xbe7c702b	-0.24652164
117	0x3d202d01	0.03910542
118	0x3dbd65dc	0.09247944
119	0x3e2864e1	0.16444732
120	0xbd9ebc9f	-0.0775082
121	0x3d8df503	0.06931498
122	0xbe3e5486	-0.1858693
123	0xbd602a70	-0.05472797
124	0xbbfa6e1a	-0.0076425197
125	0xbcafb5a0	-0.02144891
126	0xbd3f3484	-0.046680942
127	0x3d6707f9	0.056404088
128	0xbdb5b208	-0.088718474
129	0x3d50c4e5	0.050969023
130	0x3dd3090a	0.103044584
131	0xbe124bd4	-0.14286739
132	0xbe8e352a	-0.27774936
133	0xbcb04f06	-0.021522056
134	0x3d017f90	0.031615794
135	0x3d15a9c3	0.03653885
136	0xbd0f1227	-0.03492942
137	0x3c582201	0.013191701
138	0xbdd85841	-0.10563708
139	0x3da31694	0.07963291
140	0x3b26107b	0.0025339413
141	0x3e0d01dd	0.13770242
142	0x3c9cd3a6	0.01914389
143	0x3e0a4c75	0.13505729
144	0xbd326afc	-0.04355906
145	0xbe2aa03b	-0.16662686
146	0x3d9b8bd8	0.075950325
147	0x3d6fdbb2	0.058559127
148	0x3df0e2b1	0.11761988
149	0xbd180cff	-0.03712177
150	0x3ca55552	0.020182285
151	0xbd650909	-0.05591682
152	0x3e1eccc4	0.155078
153	0xbc87a07e	-0.01655602
154	0x3e751731	0.23934628
155	0xbdcdb1cb	-0.10043677
156	0x3d6ccf66	0.057814978
157	0xbde4c291	-0.11169923
158	0xbcb940d9	-0.02261393
159	0xbe224554	-0.15846759
160	0x3e35283d	0.17691131
161	0xbe12ddf5	-0.14342482
162	0xbdea3490	-0.11435807
163	0x3b0ac62b	0.0021175246
164	0x3c76ce6c	0.015063863
165	0xbd15c5b6	-0.036565505
166	0x3e103caa	0.14085642
167	0xbe39f486	-0.18159685
168	0x3e848495	0.25882402
169	0x3dc77043	0.09738209
170	0xbe751d2c	-0.2393691
171	0x3d3b891b	0.04578505
172	0xbce3cc8a	-0.027807493
173	0x3dd36e2f	0.1032375
174	0xbc8dda42	-0.017315987
175	0x3d186823	0.037208688
176	0x3ea34343	0.31887254
177	0xbd099c06	-0.03359606
178	0x3dacd2c6	0.08438639
179	0x3db29ed8	0.08721703
180	0x3ecc7fae	0.39941162
181	0x3dfa4ef4	0.1222209
182	0x3cd4822a	0.025940973
183	0x3abcc637	0.0014402334
184	0x3e4ff29c	0.20307392
185	0xbe035c6a	-0.12828222
186	0xbdae8f8a	-0.08523472
187	0x3e510d39	0.204152
188	0xbdf32f98	-0.11874312
189	0x3d5af6cd	0.053458024
190	0x3db7a32f	0.08966672
191	0x3e1a4fb1	0.15069462
192	0x3e10a429	0.14125122
193	0x3d01ebf1	0.031719152
194	0x3cf9424f	0.030427126
195	0xbc95ca5e	-0.018284973
196	0x3d9a2639	0.07526822
197	0xbc6f57d1	-0.014608339
198	0xbb3e19e8	-0.002900714
199	0xbd9d8648	-0.07691628
200	0x3d06f95f	0.032952663
201	0xbcb81608	-0.022471443
202	0xbe030455	-0.12794621
203	0xbe0bb26d	-0.13642283
204	0xbe0946e5	-0.1340595
205	0xbcd61903	-0.026134973
206	0xbd0d4477	-0.03448912
207	0x3da73d4e	0.0816599
208	0xbdfdfbbf	-0.124015324
209	0xbd4aeebd	-0.049544085
210	0x3c33e1a3	0.010979089
211	0xbe30beed	-0.17260332
212	0xbe2de74e	-0.16982767
213	0xbd49d76f	-0.04927772
214	0xbd1c6354	-0.038180664
215	0x3e6028fd	0.21890636
216	0x3d99328d	0.07480345
217	0x3e32971c	0.17440456
218	0x3d4503b3	0.04809923
219	0x3db340a3	0.08752563
220	0x3d3a510e	0.045487456
221	0xbe3bb6ce	-0.18331453
222	0x3d2187de	0.039436214
223	0x3e52a2eb	0.20569961
224	0xbca977f6	-0.020687085
225	0x3e1dacf7	0.15398012
226	0xbd27740a	-0.040882148
227	0x3e422dc0	0.18962765
228	0xbd83f5d8	-0.06443375
229	0xbd485eab	-0.048918407
230	0xbc42c6e6	-0.011888241
231	0x3dcc6aa6	0.09981279
232	0xbac3f3d8	-0.001494999
233	0xbced0065	-0.028930852
234	0xbb864e77	-0.004098709
235	0x3c645ff1	0.01393889
236	0xbca33116	-0.019920867
237	0xbdb5cd22	-0.088770166
238	0xbe69e403	-0.22840886
239	0xbdfd2a6e	-0.123616084
240	0x3cb95354	0.022622742
241	0x3cac5b29	0.021039562
242	0x3d9ecdbf	0.07754087
243	0x3d9287b9	0.07154793
244	0x3d50ebcc	0.051006123
245	0xbd8229b0	-0.063556075
246	0x3d080c64	0.03321494
247	0x3dddb948	0.10826355
248	0xbd21a00d	-0.039459277
249	0xbd69a235	-0.05703946
250	0xbdcd9372	-0.100378886
251	0x3e31570a	0.17318359
252	0x3e378a79	0.17923917
253	0xbc24ebba	-0.010065967
254	0xbe0e6903	-0.13907246
255	0x3cf80697	0.03027658

VAE_Encoder.layers.1.linear1.bias f4 [4]
0	0xbce1c6e4	-0.027560659
1	0xbde0bf8d	-0.109740354
2	0xbd3e1990	-0.046411097
3	0xbdcc0e9f	-0.09963726

VAE_Encoder.layers.1.norm1.weight f4 [4]
0	0x3f8f2725	1.1183821
1	0x3f95ea0a	1.1712048
2	0x3f985ee8	1.1903963
3	0x3f90c325	1.1309553

VAE_Encoder.layers.1.norm1.bias f4 [4]
0	0x3d641cf4	0.055691674
1	0x3bb12c1a	0.0054068686
2	0xbd702a42	-0.05863405
3	0x3d8870cd	0.0666214

VAE_Encoder.layers.1.norm0.weight f4 [4]
0	0x3f82b46d	1.0211312
1	0x3f497704	0.7869723
2	0x3f7a12ed	0.9768513
3	0x3f49cd52	0.7882892

VAE_Encoder.layers.1.norm0.bias f4 [4]
0	0xbcaa4052	-0.020782623
1	0x3b8d737c	0.0043167453
2	0x3cc89b3d	0.024488086
3	0xbcefc9b1	-0.029270979

VAE_Encoder.last_normalization.weight f4 [4]
0	0x3f800000	1.0
1	0x3f800000	1.0
2	0x3f800000	1.0
3	0x3f800000	1.0

VAE_Encoder.last_normalization.bias f4 [4]
0	0x00000000	0.0
1	0x00000000	0.0
2	0x00000000	0.0
3	0x00000000	0.0

VAE_Encoder.head.weight f4 [4, 4]
0	0x3d587750	0.05284816
1	0x3e926fa8	0.28600812
2	0xbe98d5b8	-0.29850554
3	0x3d9a66d0	0.07539141
4	0xbec3fb56	-0.38277692
5	0xbeeded96	-0.46470326
6	0x3ed3d082	0.41370016
7	0x3e276cd0	0.16350102
8	0xbe320068	-0.17382967
9	0x3efa60cc	0.48901975
10	0xbe80640c	-0.2507633
11	0xbd24f650	-0.040273964
12	0x3b697e00	0.003562808
13	0xbeb311fe	-0.34974664
14	0x3e468478	0.1938647
15	0xbd2478e0	-0.040154338

VAE_Encoder.head.bias f4 [4]
0	0x3e7ced08	0.24699795
1	0x3edcd388	0.43130136
2	0x3d30aef0	0.043135583
3	0x3e64416c	0.22290581
