restsyn/tabsyn/vae/ckpt/heloc_cond/model.pt (torch, 71086 bytes, 110 tensors)

VAE.Tokenizer.weight f4 [17, 4]
-0.1411488 0.07594791 0.070138365 0.049701113 0.07435634 0.29063526 0.033850804 0.13922207
0.0059941667 -0.005580597 0.071645625 -0.15154046 -0.35633326 0.11125087 0.03983232 -0.104133695
0.0056017293 0.19303332 0.14121121 -0.014135858 0.16586412 -0.0403174 0.23089413 0.108524814
0.0018166339 0.31768727 0.14248972 -0.1675972 0.14370133 -0.14620477 0.31546023 -0.26712012
-0.37301913 -0.13623701 -0.31841832 -0.11928465 -0.06414084 -0.14394166 -0.2367101 -0.06478844
-0.22414173 0.110216 0.26197043 0.09759061 -0.2661525 -0.17901857 -0.24295685 -0.29503956
0.2740543 0.31951824 -0.21078974 0.2654881 0.31620973 0.018582711 0.11090797 0.11046686
-0.26494533 0.23300187 0.36463222 0.041428037 0.03909084 -0.1392352 0.115516886 0.5952292
0.32531008 0.15846044 0.37998793 0.26887897
00000000: 5089 10be 948a 9b3d b4a4 8f3d 6593 4b3d
00000010: 2348 983d 25ce 943e 24a7 0a3d 3b90 0e3e
00000020: b76a c43b 71dd b6bb f1ba 923d 6c2d 1bbe
00000030: 5071 b6be 7fd7 e33d 3727 233d 0c44 d5bd
00000040: b68e b73b 87aa 453e ac99 103e 169a 67bc
00000050: 49d8 293e dc23 25bd 836f 6c3e 4242 de3d
00000060: 1e1c ee3a e8a7 a23e d3e8 113e 9a9e 2bbe
00000070: 7126 133e b4b6 15be 0184 a13e f8c3 88be
00000080: 5dfc bebe b781 0bbe ba07 a3be 834b f4bd
00000090: 465c 83bd 7165 13be 2264 72be cdaf 84bd
000000a0: 6985 65be edb8 e13d fd20 863e 96dd c73d
000000b0: 2445 88be a550 37be aec9 78be 6d0f 97be
000000c0: d850 8c3e e597 a33e 44d9 57be 0eee 873e
000000d0: 3ee6 a13e c53a 983c b823 e33d 733c e23d
000000e0: eaa6 87be 0b98 6e3e 13b1 ba3e 72b0 293d
000000f0: b71d 203d ac93 0ebe 1e94 ec3d f160 183f
00000100: 0b8f a63e 7443 223e c78d c23e 81aa 893e

VAE.Tokenizer.bias f4 [24, 4]
0.16209984 0.15116175 -0.31578082 0.4038012 -0.59221166 0.5099165 0.037557468 0.09708511
0.4844997 0.3470147 0.20315163 -0.51545453 -0.4177279 -0.016535167 -0.20971434 0.25320718
-0.13490184 -0.27259922 -0.66708237 0.061997842 -0.047852222 -0.012794091 0.24678752 -0.4417576
0.28008488 0.6448139 -0.57416177 0.12298621 0.6130648 0.31597838 0.63228625 -0.7369911
-0.41415593 0.185853 -0.15246744 0.124946624 -0.05757318 -0.33990508 -0.65708625 0.5068072
-0.2137921 0.1014526 -0.03374524 0.30821028 0.14633241 0.2982317 -0.29551923 -0.32242388
0.20105165 0.32405317 -0.21285431 0.011299807 -0.029597223 -0.29695243 0.20166817 -0.18106957
0.37444913 -0.30618945 0.6597166 -0.034279548 0.59054875 -0.098328404 0.28275928 0.418603
0.04369701 0.21288781 0.4010607 -0.04066362 -0.41460332 0.14265227 -0.2879914 -0.10185482
-0.08736336 0.042750254 -0.038002 0.098069884 -0.13262793 0.15967563 0.2674165 -0.29255503
-0.40503058 -0.39259169 -0.5846477 0.15350354 -0.42248306 0.1396159 -0.19732808 0.013796641
0.05287692 -0.072662234 -0.21399657 -0.10024596 -0.1381877 0.07080802 -0.04947209 -0.31003258
00000000: 80fd 253e 25ca 1a3e 06ae a1be 08bf ce3e
00000010: 2f9b 17bf e389 023f dcd5 193d 8fd4 c63d
00000020: 5810 f83e e9ab b13e fb06 503e d4f4 03bf
00000030: 6ee0 d5be c274 87bc 5bbf 56be 5fa4 813e
00000040: b523 0abe 2092 8bbe e9c5 2abf 73f1 7d3d
00000050: b100 44bd 4f9e 51bc deb5 7c3e 0d2e e2be
00000060: 4967 8f3e 8612 253f 44fc 12bf 32e0 fb3d
00000070: d1f1 1c3f ebc7 a13e 83dd 213f 73ab 3cbf
00000080: 3f0c d4be 4050 3e3e 6d20 1cbe 04e4 ff3d
00000090: dbd1 6bbd 0a08 aebe ce36 28bf 1ebe 013f
000000a0: 51ec 5abe 61c6 cf3d 7338 0abd bdcd 9d3e
000000b0: 2ad8 153e d3b1 983e 4c4e 97be be14 a5be
000000c0: 7ce0 4d3e 4cea a53e 7bf6 59be d322 393c
000000d0: e075 f2bc 260a 98be 1a82 4e3e 4d6a 39be
000000e0: ccb7 bf3e ddc4 9cbe 30e3 283f b668 0cbd
000000f0: 342e 173f 6760 c9bd d3c5 903e 2253 d63e
00000100: a3fb 323d 43ff 593e d457 cd3e e58e 26bd
00000110: e346 d4be 7013 123e 9c73 93be 4399 d0bd
00000120: 90eb b2bd e41a 2f3d fca7 1bbd ddd8 c83d
00000130: 9ecf 07be 0282 233e d1ea 883e c6c9 95be
00000140: 2b60 cfbe c701 c9be 79ab 15bf 0830 1d3e
00000150: b34f d8be 78f7 0e3e 5f10 4abe 4e0b 623c
00000160: 7895 583d f0cf 94bd eb21 5bbe c14d cdbd
00000170: 1481 0dbe cc03 913d 3fa3 4abd 97bc 9ebe

VAE.Tokenizer.category_embeddings.weight f4 [114, 4]
-0.18127637 0.1132269 0.0072176573 0.23952624 0.08614728 -0.1314914 0.42597556 -0.26559526
-0.12244594 0.6163778 0.045422826 -0.16340952 0.72894925 -0.34644222 -0.19112557 0.35390764
-0.1608343 0.4536292 -0.21621703 0.17326191 0.38925964 -0.28470245 -0.11634035 0.060846485
0.1266074 0.07357004 -0.42139953 0.41412586 0.15243226 0.37381893 0.30727544 0.009407364
0.18900837 -0.032342926 0.4936825 -0.0048120283 0.59287655 -0.50297153 0.3736543 0.27244398
0.03709496 0.27553213 0.22764668 -0.5073364 -0.061001126 -0.572934 -0.4405447 0.07040033
-0.6231571 -0.41045818 0.3073827 0.17247106 0.2341341 -0.0013616132 -0.053609308 -0.15055805
0.16610983 -0.6302202 -0.076459 0.69865334 -0.16879693 -0.35151097 -0.26128128 -0.59397167
0.110730544 0.25532886 0.19416918 -0.15459138 0.04471182 0.33982757 0.06826325 -0.21522757
-0.015374236 -0.49610966 -0.31568646 0.12651823 0.008102345 -0.30296174 -0.5289088 0.68494165
-0.05944514 -0.56256413 -0.29400617 0.092969604 0.021469245 0.15745263 -0.020445611 -0.49695477
0.07642923 -0.41301447 -0.12681781 0.043320294 -0.4343971 0.143009 0.3611027 -0.102072485
0.045891576 0.25951916 -0.07774133 -0.007688218 0.17707548 0.29312387 0.10208861 0.42532405
0.16485867 0.15255556 -0.12105374 0.56886566 -0.2838673 -0.7384851 -0.15125178 -0.5482488
0.59044665 -0.05415756 -0.16783474 -0.15423825 0.62285006 -0.27161258 -0.56234473 -0.1419339
0.14058155 -0.08002634 -0.45670083 0.033414967 -0.13789293 -0.2538228 0.36096525 -0.57095087
0.2925763 -0.4095294 0.0048612705 -0.032390136 -0.05880584 -0.20981547 -0.38931793 0.43834493
0.33088303 -0.1011771 0.26823252 -0.22205019 0.41885036 -0.049330182 -0.09548544 -0.27007914
0.2720631 0.4846706 0.04024514 0.4149303 0.097137645 -0.02834651 0.073989816 0.76928985
0.11014341 -0.18765718 -0.010103961 0.568875 0.15486895 0.077537425 -0.17350207 -0.05659122
-0.26604378 0.37466958 0.26089364 0.123208955 0.28953087 0.3390881 -0.16957837 0.11893219
-0.1204656 0.38894758 -0.125318 -0.050925113 0.07977281 0.29942888 -0.13318908 0.27804112
0.48437157 0.4846848 -0.04819439 0.002108927 0.15588236 -0.20770516 -0.016468931 0.7654373
0.021337105 -0.026219165 0.240182 0.07409603 -0.28661782 -0.3442019 -0.027215421 -0.45484945
0.10067822 -0.6465203 -0.2982933 0.0736206 -0.30345246 0.032043464 0.80061865 -0.1497555
-0.49470147 0.031058332 -0.31170037 -0.4498072 -0.047349874 0.424386 -0.15072605 -0.36541915
0.11378505 0.26661444 0.055442326 0.0065703047 0.10640221 -0.11856145 0.554534 -0.20782264
0.17439614 -0.6415439 -0.17768459 -0.13975647 0.20158565 0.14528137 0.16717118 0.03157117
0.5387253 0.035195414 0.038283683 -0.12698264 0.53444093 -0.5501635 0.15112807 0.10172762
-0.30450904 0.7249317 -0.058165822 -0.21941186 0.30214667 -0.4341388 0.19996649 -0.12836812
0.08008929 -0.3217252 0.25430897 -0.10329751 -0.08999902 0.08915838 -0.09435869 -0.45549962
0.2701424 0.06849091 -0.3338501 0.6124189 0.40852702 -0.48767808 -0.6260487 -0.2353976
00000000: 83a0 39be 81e3 e73d 1982 ec3b 5e46 753e
00000010: fc6d b03d aea5 06be 7819 da3e 1afc 87be
00000020: f0c4 fabd efca 1d3f 490d 3a3d d354 27be
00000030: 6b9c 3a3f e060 b1be 6cb6 43be 6233 b53e
00000040: bfb1 24be 1642 e83e ff67 5dbe 926b 313e
00000050: 0a4d c73e 85c4 91be d943 eebd 2a3a 793d
00000060: 5fa5 013e e4ab 963d aec1 d7be 4e08 d43e
00000070: 3417 1c3e 3265 bf3e 3553 9d3e 5821 1a3c
00000080: 698b 413e 047a 04bd f4c3 fc3e 38ae 9dbb
00000090: c2c6 173f bec2 00bf 9e4f bf3e c77d 8b3e
000000a0: e3f0 173d 8c12 8d3e 361c 693e cce0 01bf
000000b0: 51dc 79bd cdab 12bf 138f e1be 0c2e 903d
000000c0: 3987 1fbf 9327 d2be 4461 9d3e 419c 303e
000000d0: d9c0 6f3e 2878 b2ba 6f95 5bbd e42b 1abe
000000e0: b218 2a3e 1c56 21bf 8996 9cbd f2da 323f
000000f0: 1ad9 2cbe 3ff9 b3be a9c6 85be 870e 18bf
00000100: b2c6 e23d 77ba 823e 49d4 463e 344d 1ebe
00000110: be23 373d e1fd ad3e 9acd 8b3d 9e64 5cbe
00000120: 38e4 7bbc 1602 febe a8a1 a1be ff8d 013e
00000130: b3bf 043c cd1d 9bbe 9166 07bf 5658 2f3f
00000140: bf7c 73bd 3404 10bf fa87 96be d966 be3d
00000150: 45e0 af3c 433b 213e 8e7d a7bc db70 febe
00000160: ee86 9c3d a276 d3be 87dc 01be 9f70 313d
00000170: 4c69 debe f470 123e 74e2 b83e 610b d1bd
00000180: cef8 3b3d b2df 843e d936 9fbd 72ed fbbb
00000190: 4653 353e 5514 963e d513 d13d 13c4 d93e
000001a0: b6d0 283e 8637 1c3e 06eb f7bd 2ea1 113f
000001b0: 0e57 91be 5c0d 3dbf bfe1 1abe 095a 0cbf
000001c0: 8327 173f 51d4 5dbd dfdc 2bbe a2f0 1dbe
000001d0: 1a73 1f3f ce10 8bbe d3f5 0fbf 1f57 11be
000001e0: 9cf4 0f3e dae4 a3bd b1d4 e9be 22de 083d
000001f0: ce33 0dbe 10f5 81be 70d0 b83e d629 12bf
00000200: 90cc 953e d6ad d1be 4b4b 9f3b 85ab 04bd
00000210: 64de 70bd ded9 56be ae54 c7be bf6e e03e
00000220: 8069 a93e f035 cfbd c655 893e 2061 63be
00000230: 8e73 d63e 720e 4abd df8d c3bd d047 8abe
00000240: db4b 8b3e bf26 f83e 17d8 243d bf71 d43e
00000250: 1af0 c63d f136 e8bc f987 973d 2ef0 443f
00000260: de92 e13d 3429 40be 168b 25bc cba1 113f
00000270: f795 1e3e f1cb 9e3d 87aa 31be 32cc 67bd
00000280: e436 88be b1d4 bf3e da93 853e fa54 fc3d
00000290: 643d 943e f59c ad3e f4a5 2dbe b892 f33d
000002a0: abb6 f6bd 2324 c73e 5d53 00be da96 50bd
000002b0: ed5f a33d be4e 993e b862 08be 685b 8e3e
000002c0: 8dff f73e 9b28 f83e 7b67 45bd ec35 0a3b
000002d0: a09f 1f3e a9b0 54be dae9 86bc b3f3 433f
000002e0: 27cb ae3c 93c9 d6bc 45f2 753e a9bf 973d
000002f0: 92bf 92be 3b3b b0be e0f2 debc 07e2 e8be
00000300: 6230 ce3d 5b82 25bf e6b9 98be 66c6 963d
00000310: 1f5e 9bbe 0240 033d 58f5 4c3f 8159 19be
00000320: 8349 fdbe 0b6e fe3c 3197 9fbe 214d e6be
00000330: f1f1 41bd 1f49 d93e ee57 1abe 3818 bbbe
00000340: 2308 e93d b081 883e 7e17 633d b64b d73b
00000350: 67e9 d93d 58d0 f2bd f1f5 0d3f 75cf 54be
00000360: e794 323e 393c 24bf f3f2 35be 521c 0fbe
00000370: 786c 4e3e a4c4 143e ec2e 2b3e c550 013d
00000380: e7e9 093f 1129 103d 5acf 1c3d bd07 02be
00000390: 1fd1 083f 84d7 0cbf 51c1 1a3e 9256 d03d
000003a0: 9ce8 9bbe 2095 393f 493f 6ebd 81ad 60be
000003b0: f8b2 9a3e 7147 debe 04c4 4c3e ef72 03be
000003c0: db05 a43d 2ab9 a4be c934 823e a58d d3bd
000003d0: 6851 b8bd ab98 b63d 213f c1bd 3f37 e9be
000003e0: 1b50 8a3e f644 8c3d 66ee aabe 7cc7 1c3f
000003f0: 742a d13e f1b0 f9be ba44 20bf 120c 71be

VAE.encoder_mu.layers.0.attention.W_q.weight f4 [4, 4]
-0.42220294 -0.36351344 0.45855784 -0.404205 -0.23363043 0.44115174 0.16256778 0.09961466
0.27618855 -0.040269997 -0.20412709 0.20421256 0.24865878 -0.25203314 -0.10689689 0.1008159
00000000: fc2a d8be 6f1e babe 18c8 ea3e f5f3 cebe
00000010: d13c 6fbe a4de e13e 2b78 263e c502 cc3d
00000020: 9668 8d3e 27f2 24bd b106 51be 191d 513e
00000030: 68a0 7e3e 7d0a 81be c2ec dabd 9178 ce3d

VAE.encoder_mu.layers.0.attention.W_q.bias f4 [4]
-0.050885122 0.033544198 0.09645437 0.118461974
00000000: eb6c 50bd a465 093d de89 c53d 319c f23d

VAE.encoder_mu.layers.0.attention.W_k.weight f4 [4, 4]
0.48325852 -0.5490066 0.45121866 0.20075153 -0.2510235 0.09067743 -0.31297618 0.03417554
-0.02103763 0.10708248 -0.3012261 -0.052505534 0.2592319 -0.1404655 -0.32834804 -0.05826883
00000000: a96d f73e b28b 0cbf 2206 e73e cf91 4d3e
00000010: 2786 80be 17b5 b93d 6a3e a0be a7fb 0b3d
00000020: 1c57 acbc 0f4e db3d 4f3a 9abe 0b10 57bd
00000030: 0bba 843e 30d6 0fbe 3c1d a8be 4cab 6ebd

VAE.encoder_mu.layers.0.attention.W_k.bias f4 [4]
-1.9630073e-05 8.7932174e-05 -3.8482474e-05 -4.0462044e-05
00000000: 43ab a4b7 3a68 b838 3e68 21b8 cab5 29b8

VAE.encoder_mu.layers.0.attention.W_v.weight f4 [4, 4]
0.1027923 -0.109656006 -0.20989136 0.14071345 0.15861526 -0.056997575 -0.23122007 0.10840477
0.16490813 -0.076974325 -0.24480774 0.090615004 0.12966351 -0.058548946 -0.22951555 0.12118412
00000000: c584 d23d 5493 e0bd c3ed 56be 3017 103e
00000010: 0a6c 223e 4a76 69bd f4c4 6cbe 5203 de3d
00000020: addd 283e b7a4 9dbd e1ae 7abe 5c94 b93d
00000030: 83c6 043e 05d1 6fbd 2006 6bbe 612f f83d

VAE.encoder_mu.layers.0.attention.W_v.bias f4 [4]
0.035052635 0.10031587 -0.05105328 -0.067210086
00000000: 5a93 0f3d 6872 cd3d 3e1d 51bd 71a5 89bd

VAE.encoder_mu.layers.0.linear0.weight f4 [128, 4]
0.4073982 -0.40331256 -0.46269372 0.6385326 -0.34289563 -0.14003076 0.17196135 -0.23456615
-0.11987232 0.30391607 0.24399765 0.047846384 -0.4103164 -0.30065596 0.01880008 -0.19665481
0.3711766 -0.15460564 0.040068503 -0.06817966 0.097898155 -0.22598137 -0.032971423 0.5819286
-0.36372107 0.55143905 0.12771444 -0.3944907 0.20088871 -0.08341762 -0.4232589 -0.4855614
0.11663385 0.4513628 0.25195906 0.10278262 -0.28412214 0.35979813 -0.15076749 0.6363305
-0.18439183 0.3360918 0.30474287 -0.28694636 0.19086747 0.27591893 -0.24070533 -0.21193592
0.04735268 0.32980138 -0.21833754 -0.28422728 -0.25087878 0.26300928 -0.10947218 0.20339003
-0.21737102 -0.3414735 -0.3529529 0.25418285 -0.028057823 -0.18695116 -0.29770753 -0.49031174
-0.40428144 -0.111327685 -0.47445264 0.13850969 -0.48652792 -0.33058584 0.06414339 -0.36484236
-0.06116251 -0.009441818 -0.39607823 -0.2756512 -0.18682542 -0.056680728 -0.29498002 0.26462665
-0.3878342 -0.32916218 0.48025903 0.41713467 -0.23614736 0.28454444 0.098606266 0.42162794
-0.3656734 0.11657745 -0.3886152 0.41870287 -0.13575773 -0.037288383 -0.34271297 -0.483732
-0.4534776 -0.15106513 -0.07511603 0.62155473 0.37839234 -0.49946705 0.31459242 0.4719052
0.53165936 -0.13282278 -0.2520626 -0.27609786 0.09829406 -0.42388055 -0.28943542 0.30431193
-0.092253745 0.26213756 0.05320848 -0.17691918 -0.11253895 -0.2753621 0.28452942 0.4801758
0.34949613 -0.09092766 -0.09835824 -0.018925745 0.0813127 -0.037241254 0.056121625 0.1751449
-0.35215423 -0.17384286 0.19276725 0.046686605 0.39181298 0.34431735 0.21567015 0.28649092
-0.37633744 0.086790174 0.3907628 0.42516932 0.23123905 -0.5437583 -0.018630533 -0.1411468
0.09097236 -0.27257818 0.34972134 -0.44327277 -0.44964957 0.38153967 -0.4283183 0.2859311
0.38650483 0.27355862 -0.4202987 -0.09534807 0.09052417 -0.2759449 -0.2519306 0.17862917
0.4295817 -0.19450378 0.12264569 0.3823821 0.09599602 -0.08815151 0.077987194 0.46870983
0.5547204 0.15126352 0.19028091 -0.11942411 0.012234514 0.3287808 0.1083601 0.60353374
0.1372732 -0.4797254 -0.47123283 0.3766938 -0.20602383 0.0075782132 0.21484834 -0.20697318
-0.100763544 -0.002410419 -0.026714241 -0.39788267 -0.34574035 -0.4009021 0.07726398 0.36697352
0.45753393 0.35847238 0.13353008 -0.16753854 -0.47803617 0.10956331 0.15102684 0.39825258
0.055543955 0.42488223 0.24830404 -0.20252241 -0.050491165 0.36777377 -0.15222557 0.022563418
0.30083573 0.19614506 0.14048918 -0.43810445 0.2447329 0.5081298 -0.17488572 -0.25348425
0.3946772 0.108035274 0.035783716 -0.18943654 -0.29621547 0.00441995 0.3492269 0.55195445
-0.43326175 0.12863687 -0.4391247 0.49073917 0.016475817 0.0027621882 0.12301712 0.45565903
0.37532213 -0.29730907 0.21710254 0.31543675 -0.21717632 0.5353032 0.437369 -0.111793295
0.22370426 -0.2457524 -0.366171 -0.281434 -0.099174574 0.0015015587 0.4858787 0.49519253
-0.07352257 0.45461112 0.0017424985 0.4814901 -0.47862673 0.49965915 -0.3878631 -0.103377655
00000000: 7f96 d03e fc7e cebe 31e6 ecbe df76 233f
00000010: 0490 afbe 3964 0fbe a316 303e 1c32 70be
00000020: 9e7f f5bd e39a 9b3e 85da 793e 92fa 433d
00000030: fe14 d2be 94ef 99be a002 9a3c e15f 49be
00000040: dc0a be3e f150 1ebe df1e 243d c7a1 8bbd
00000050: d47e c83d a967 67be 0b0d 07bd 46f9 143f
00000060: a639 babe 1c2b 0d3f 93c7 023e affa c9be
00000070: c5b5 4d3e dbd6 aabd 64b5 d8be 819b f8be
00000080: badd ee3d 0619 e73e c700 813e b27f d23d
00000090: 7578 91be 7637 b83e cb62 1abe 8ee6 223f
000000a0: 36d1 3cbe 3914 ac3e 4207 9c3e a2ea 92be
000000b0: c372 433e 3f45 8d3e 757b 76be bb05 59be
000000c0: e2f4 413d badb a83e e093 5fbe 3d86 91be
000000d0: 2f73 80be 27a9 863e f332 e0bd 7a45 503e
000000e0: 8296 5ebe 9dd5 aebe 3eb6 b4be 4124 823e
000000f0: 85d9 e5bc 2070 3fbe 1f6d 98be 240a fbbe
00000100: fafd cebe c5ff e3bd 75eb f2be 7cd5 0d3e
00000110: 301a f9be 8c42 a9be 9c5d 833d 9ecc babe
00000120: 8a85 7abd dbb1 1abc c4ca cabe 2722 8dbe
00000130: 2a4f 3fbe 0d2a 68bd 9f07 97be 257d 873e
00000140: 3492 c6be f287 a8be 83e4 f53e ad92 d53e
00000150: 9dd0 71be cfaf 913e 15f2 c93d 9edf d73e
00000160: 8b39 bbbe 28c0 ee3d 92f8 c6be 3960 d63e
00000170: 1304 0bbe b4bb 18bd 1378 afbe b9ab f7be
00000180: 372e e8be d1b0 1abe 6fd6 99bd 361e 1f3f
00000190: a4bc c13e 25ba ffbe 4212 a13e 8f9d f13e
000001a0: d41a 083f b202 08be 590e 81be b35c 8dbe
000001b0: 654e c93d df06 d9be e130 94be c6ce 9b3e
000001c0: 88ef bcbd e536 863e 23f1 593d 4d2a 35be
000001d0: d27a e6bd 43fc 8cbe d7ad 913e 9ad9 f53e
000001e0: 28f1 b23e 4838 babd 0c70 c9bd 2a0a 9bbc
000001f0: 4687 a63d 498a 18bd cadf 653d 2f59 333e
00000200: 8f4d b4be dd03 32be c764 453e 743a 3f3d
00000210: b69b c83e 5d4a b03e a3d8 5c3e f0ae 923e
00000220: 4daf c0be 0cbf b13d 1012 c83e cbaf d93e
00000230: eec9 6c3e be33 0bbf 0f9f 98bc c988 10be
00000240: b74f ba3d 5e8f 8bbe ad0e b33e a6f4 e2be
00000250: 7838 e6be 2b59 c33e 894c dbbe 9065 923e
00000260: f6e3 c53e e00f 8c3e 6431 d7be d945 c3bd
00000270: bc64 b93d a648 8dbe 0cfd 80be 91ea 363e
00000280: 22f2 db3e 002c 47be aa2d fb3d 96c7 c33e
00000290: 9099 c43d c788 b4bd c0b7 9f3d bcfa ef3e
000002a0: 2802 0e3f d3e4 1a3e 00d9 423e a194 f4bd
000002b0: 4573 483c f555 a83e e6eb dd3d 3081 1a3f
000002c0: 5991 0c3e 919e f5be 6e45 f1be 02de c03e
000002d0: e9f7 52be a952 f83b 3401 5c3e c7f0 53be
000002e0: 1e5d cebd 1ff8 1dbb d3d7 dabc 47b7 cbbe
000002f0: e104 b1be 0a43 cdbe 943c 9e3d f4e3 bb3e
00000300: e341 ea3e b189 b73e 1cbc 083e 398f 2bbe
00000310: 28c1 f4be bb62 e03d c8a6 1a3e c3e7 cb3e
00000320: 0f82 633d 2a8a d93e 6a43 7e3e 0962 4fbe
00000330: d3cf 4ebd d84c bc3e 05e1 1bbe ebd6 b83c
00000340: 2407 9a3e 40da 483e 65dc 0f3e 3a4f e0be
00000350: 439b 7a3e cb14 023f 3e15 33be b0c8 81be
00000360: 2113 ca3e 9941 dd3d f291 123d a7fb 41be
00000370: 8ea9 97be 3ad5 903b decd b23e e34c 0d3f
00000380: 7cd4 ddbe 62b9 033e f4d4 e0be 2a42 fb3e
00000390: 4bf8 863c d405 353b 66f0 fb3d 244c e93e
000003a0: 392a c03e e538 98be 2150 5e3e ed80 a13e
000003b0: 7863 5ebe a109 093f d4ee df3e e2f3 e4bd
000003c0: bb12 653e 84a6 7bbe c47a bbbe 1e18 90be
000003d0: 0a1c cbbd f3cf c43a 18c5 f83e e089 fd3e
000003e0: 0093 96bd cac2 e83e 8c64 e43a df85 f63e
000003f0: 900e f5be 53d3 ff3e fe95 c6be aab7 d3bd

VAE.encoder_mu.layers.0.linear0.bias f4 [128]
-0.3500378 0.44817263 -0.065748125 -0.033537168 0.42743576 -0.06328543 0.37286693 -0.0059655653
-0.10151188 0.31035146 0.5002956 -0.18571019 0.23113759 -0.16698095 0.46705577 0.3459792
-0.36227372 -0.009826392 0.24954292 0.010102003 -0.15813272 0.37412173 0.3144308 -0.06045608
-0.2099471 0.006670092 -0.18049185 0.044518538 0.25801083 -0.39654884 -0.4197607 -0.45557773
0.32532573 -0.14619374 -0.07005772 0.3103089 0.1943581 -0.026916789 0.18293318 0.13321316
-0.35116175 0.37423086 0.25667045 0.03592528 -0.25274742 0.3827696 0.44268593 0.36151022
0.3471869 -0.16703938 -0.15168905 0.22709505 -0.12544143 -0.37563303 0.033048134 0.32230473
0.2546589 -0.63428396 0.5085189 -0.20008898 0.18259954 -0.0158428 -0.30539048 0.11927705
-0.061508887 0.1212092 0.40266547 0.0059524514 -0.27632383 0.28506386 0.32015258 0.2775775
0.092087194 -0.33259255 -0.09859129 0.32087907 0.10232424 -0.4163914 0.068753004 0.35977027
-0.1444511 -0.4217159 0.17890987 -0.4764349 0.42569178 -0.22523215 -0.1622831 0.14239454
0.49225336 0.11179456 0.4453951 -0.26850957 0.072994374 0.4395485 -0.14072518 0.016495991
0.3728636 0.2795922 0.5540748 -0.43718436 0.45700437 0.048468318 0.43744677 -0.22132953
-0.0054481872 0.2760589 -0.11228992 -0.13555829 0.517815 -0.24752283 0.27458647 0.039438393
-0.4802967 0.0057952623 0.5093328 -0.21987404 -0.32149148 -0.19465105 0.105945885 -0.010118092
-0.43967196 0.262615 -0.3792292 0.18599652 0.23609467 0.33098447 0.41427153 -0.15311038
00000000: 2838 b3be e276 e53e f4a6 86bd 455e 09bd
00000010: dcd8 da3e cb9b 81bd 6ae8 be3e ca7a c3bb
00000020: 76e5 cfbd 63e6 9e3e 5f13 003f d02a 3ebe
00000030: 55af 6c3e 0efd 2abe ef21 ef3e 3024 b13e
00000040: f17b b9be e0fe 20bc 2e88 7f3e df82 253c
00000050: 8bed 21be e28c bf3e 13fd a03e cba0 77bd
00000060: 5ffc 56be ca90 da3b dbd2 38be 1259 363d
00000070: ff19 843e 7308 cbbe e0ea d6be 7c41 e9be
00000080: 1891 a63e d0b3 15be 6c7a 8fbd cfe0 9e3e
00000090: cf05 473e 9980 dcbc d652 3b3e 0869 083e
000000a0: 79cb b3be 309b bf3e 4f6a 833e 6326 133d
000000b0: 1c68 81be 61fa c33e bba7 e23e de17 b93e
000000c0: 7bc2 b13e 5f0c 2bbe 6054 1bbe 9b8b 683e
000000d0: b873 00be f952 c0be 7b5d 073d 2005 a53e
000000e0: a762 823e 6f60 22bf 4b2e 023f 20e4 4cbe
000000f0: 60fb 3a3e c2c8 81bc 245c 9cbe 8747 f43d
00000100: bef0 7bbd 873c f83d 2b2a ce3e c80c c33b
00000110: 517a 8dbe e4f3 913e 0aeb a33e a31e 8e3e
00000120: 3698 bc3d 9249 aabe 3bea c9bd 434a a43e
00000130: 5f8f d13d 4131 d5be 60ce 8c3d cf33 b83e
00000140: fdea 13be 25eb d7be 2634 373e 46ef f3be
00000150: 46f4 d93e 42a3 66be 8a2d 26be e0cf 113e
00000160: a208 fc3e 8cf4 e43d d40a e43e 167a 89be
00000170: 137e 953d 800c e13e 431a 10be 9a22 873c
00000180: fae7 be3e b526 8f3e d9d7 0d3f a1d6 dfbe
00000190: 7afc e93e b786 463d 06f9 df3e 35a4 62be
000001a0: b586 b2bb 9857 8d3e 42f8 e5bd cbcf 0abe
000001b0: 868f 043f a076 7dbe 9996 8c3e 278a 213d
000001c0: 73e9 f5be 2fe6 bd3b a263 023f a926 61be
000001d0: 889a a4be 9b52 47be 28fa d83d 5bc6 25bc
000001e0: af1c e1be 7975 863e 542a c2be df75 3e3e
000001f0: cdc2 713e cc76 a93e 661b d43e f8c8 1cbe

VAE.encoder_mu.layers.0.linear1.weight f4 [4, 128]
0.08431152 0.051474962 -0.026264358 -0.02691222 -0.011303706 0.05305576 -0.01822063 -0.04870697
0.05201987 -0.08135875 -0.05522228 -0.0032259857 -0.014859715 -0.11939561 -0.008411604 -0.12367098
-0.014720667 -0.08290529 -0.024885423 0.020564497 -0.04670571 -0.06291741 -0.006258949 -0.16172275
-0.061033797 0.014323922 -0.010477425 0.058619007 -0.083051555 0.061047588 0.17347178 -0.07517895
0.014692158 -0.04787337 -0.06272913 0.011154954 0.028500749 -0.04950191 0.08055535 0.13048969
0.08399797 0.062985756 -0.05068224 -0.07144723 0.1156588 -0.04460214 -0.11207328 -0.016425788
-0.0006510631 -0.111479506 0.09933302 -0.08629923 -0.06900274 -0.19915818 0.037530705 0.05985028
-0.07232661 0.040445957 0.05162261 -0.011865638 -0.09301532 -0.012394889 -0.10170456 0.009223511
-0.08282671 0.037818313 0.008643999 -0.0539747 -0.13318662 -0.055749934 -0.021045262 0.08114956
-0.12864284 0.04056982 -0.0070037036 0.126804 -0.009278877 -0.15679656 -0.0911367 0.04332668
0.113165945 -0.18210378 -0.106400296 -0.067068666 -0.042588346 -0.18945943 0.0734456 0.09407827
-0.06078093 0.12712109 0.002799253 0.034280557 0.00025085284 0.023137515 0.07987272 -0.08984439
0.017840758 0.04015815 -0.009978925 -0.0827562 -0.015344982 0.096005805 0.05790655 -0.07533394
0.08259637 -0.061941717 -0.032482084 -0.04289972 -0.078931786 0.0069798674 0.022816073 0.017117038
-0.11068691 -0.07571769 -0.05328342 -0.049870115 -0.033914562 0.017159209 -0.06526444 0.07646649
-0.066660956 0.04571505 -0.13850398 -0.0855408 -0.050792016 -0.010913772 -0.09666177 -0.048955645
-0.09596958 -0.08854764 -0.0945231 -0.14429836 0.013991726 -0.12660718 -0.117802754 0.0074223885
-0.08171657 0.028820552 -0.07698295 0.024783852 -0.074303724 0.0042865532 0.0703085 0.023014143
-0.001712161 0.022620767 -0.006147932 0.038376965 -0.11722742 -0.043712858 0.059979923 0.0025865242
-0.1116568 -0.05310895 0.1735045 -0.0873161 -0.06562186 -0.052685775 0.24072203 -0.04970048
-0.06532768 -0.08008389 0.13108364 0.011920576 0.0033535014 0.04029375 0.032258313 0.035882894
-0.16473176 0.0073376056 0.09452768 0.10802686 -0.07844501 -0.083818994 -0.05479087 -0.08757561
0.11601965 0.14072324 0.046937518 -0.07452211 -0.039280593 -0.08263756 0.103557184 -0.10759628
0.12098066 -0.20961395 0.035105143 -0.083942816 0.093295164 -0.20320742 0.14641277 -0.05582173
0.054242484 -0.06468339 -0.087924704 0.11151112 -0.14078966 0.033393584 0.09061303 -0.004655973
0.12214698 0.0025733074 0.11156836 -0.033403628 0.08244443 0.03786132 0.036785472 0.045757655
-0.031919822 0.15865423 0.05218027 0.07299756 0.08006443 0.09805049 -0.06047751 -0.10936696
0.10728524 -0.029227488 -0.016642315 0.08287024 -0.013110613 -0.027838236 0.031100836 0.13518855
-0.013262707 -0.010809704 -0.007933673 -0.10918527 0.039190885 0.02539276 0.09444794 0.13989076
0.064640544 -0.03259915 -0.1015532 0.050006937 -0.06977777 -0.03232971 -0.17480376 -0.04265628
0.053912427 -0.0040425165 -0.099545375 0.14272058 -0.15867433 -0.10199666 0.070622504 0.13672811
-0.15964419 0.043308325 0.031447843 -0.009128823 -0.0028433616 -0.008827793 0.01513865 -0.058285765
00000000: 85ab ac3d 69d7 523d 5a28 d7bc 0477 dcbc
00000010: 2e33 39bc ff50 593d 6e43 95bc f680 47bd
00000020: ca12 553d 6b9f a6bd c230 62bd 0f6b 53bb
00000030: 2976 73bc b085 f4bd d3d0 09bc 3647 fdbd
00000040: f42e 71bc 40ca a9bd 84dc cbbc e076 a83c
00000050: 7d4e 3fbd d8da 80bd df17 cdbb a69a 25be
00000060: 93fe 79bd e2ae 6a3c 81a9 2bbc 7c1a 703d
00000070: ef16 aabd 090d 7a3d 96a2 313e 6cf7 99bd
00000080: 61b7 703c de16 44bd 2178 80bd 45c3 363c
00000090: 677a e93c 84c2 4abd 34fa a43d 179f 053e
000000a0: 2107 ac3d adfe 803d 2e98 4fbd ed52 92bd
000000b0: 85de ec3d bcb0 36bd ad86 e5bd 608f 86bc
000000c0: 1bac 2aba 5e4f e4bd 1c6f cb3d a7bd b0bd
000000d0: 4f51 8dbd 1ff0 4bbe ccb9 193d 9125 753d
000000e0: f91f 94bd a9aa 253d 3b72 533d 1868 42bc
000000f0: d17e bebd ef13 4bbc 7b4a d0bd 361e 173c
00000100: 0da1 a9bd 60e7 1a3d 8f9f 0d3c 9314 5dbd
00000110: 1362 08be 0b5a 64bd 1d67 acbc be31 a63d
00000120: f3ba 03be 8a2c 263d 537f e5bb e8d8 013e
00000130: 6e06 18bc 478f 20be e1a5 babd 5177 313d
00000140: 8cc3 e73d 6a79 3abe 66e8 d9bd 4c5b 89bd
00000150: 1e71 2ebd a701 42be a66a 963d 1cac c03d
00000160: 6df5 78bd 082c 023e ac73 373b c569 0c3d
00000170: e684 8339 e38a bd3c 4f94 a33d 5600 b8bd
00000180: c826 923c df7c 243d a57e 23bc 157c a9bd
00000190: 8569 7bbc b19e c43d 6b2f 6d3d ae48 9abd
000001a0: 4928 a93d 99b6 7dbd ef0b 05bd 9eb7 2fbd
000001b0: fda6 a1bd 5fb7 e43b c6e8 ba3c 0839 8c3c
000001c0: d2af e2bd e011 9bbd b73f 5abd 9b44 4cbd
000001d0: ffe9 0abd 7891 8c3c 5da9 85bd 779a 9c3d
000001e0: 8a85 88bd b43f 3b3d fdd3 0dbe 0430 afbd
000001f0: 4a0b 50bd adcf 32bc 9bf6 c5bd b785 48bd
00000200: b38b c4bd 7758 b5bd 5495 c1bd f3c2 13be
00000210: 8d3d 653c 50a5 01be 9242 f1bd 8237 f33b
00000220: 045b a7bd 1419 ec3c 3da9 9dbd 8107 cb3c
00000230: 8d2c 98bd 3776 8c3b e7fd 8f3d 2888 bc3c
00000240: 976a e0ba 304f b93c 9774 c9bb 2a31 1d3d
00000250: ee14 f0bd 410c 33bd 82ad 753d ad82 293b
00000260: 52ac e4bd c588 59bd 2aab 313e c9d2 b2bd
00000270: c164 86bd 0acd 57bd d67f 763e bb92 4bbd
00000280: 85ca 85bd 0603 a4bd ca3a 063e 854e 433c
00000290: 6bc6 5b3b 0f0b 253d 4b21 043d f1f9 123d
000002a0: 71af 28be 4c70 f03b ba97 c13d 303d dd3d
000002b0: c7a7 a0bd 4ba9 abbd 646c 60bd d75a b3bd
000002c0: b69b ed3d c119 103e 8e41 403d 0c9f 98bd
000002d0: b0e4 20bd e23d a9bd ca15 d43d 705b dcbd
000002e0: b5c4 f73d 0aa5 56be 69ca 0f3d 36ea abbd
000002f0: 8911 bf3d 9b15 50be 3bed 153e 54a5 64bd
00000300: 5e2d 5e3d ba78 84bd de11 b4bd f15f e43d
00000310: 2a2b 10be b6c7 083d 5393 b93d 2291 98bb
00000320: 3228 fa3d efa4 283b f47d e43d 3ed2 08bd
00000330: a0d8 a83d 7914 1b3d 5dac 163d 616c 3b3d
00000340: 5cbe 02bd 4176 223e fbba 553d bf7f 953d
00000350: d2f8 a33d b2ce c83d 44b7 77bd c9fb dfbd
00000360: 5db8 db3d 7c6e efbc 7755 88bc dfb7 a93d
00000370: e6cd 56bc 030d e4bc 2ec7 fe3c de6e 0a3e
00000380: d34b 59bc 2f1b 31bc 3dfc 01bc 879c dfbd
00000390: 9f86 203d 7a04 d03c ec6d c13d 863f 0f3e
000003a0: 4362 843d b086 05bd 20fb cfbd 13d4 4c3d
000003b0: a6e7 8ebd 286c 04bd c2ff 32be 5ab8 2ebd
000003c0: 47d3 5c3d 1677 84bb 72de cbbd 5825 123e
000003d0: 867b 22be a0e3 d0bd 88a2 903d 7402 0c3e
000003e0: c479 23be 1264 313d 74cf 003d 0f91 15bc
000003f0: b157 3abb 73a2 10bc 1a08 783c 0ebd 6ebd

VAE.encoder_mu.layers.0.linear1.bias f4 [4]
-0.0757419 -0.006604324 -0.03424778 0.09928232
00000000: 921e 9bbd 1669 d8bb 6647 0cbd 8754 cb3d

VAE.encoder_mu.layers.0.norm1.weight f4 [4]
1.1292957 1.0715474 1.0944675 1.1785445
00000000: c38c 903f 7728 893f 8317 8c3f 8cda 963f

VAE.encoder_mu.layers.0.norm1.bias f4 [4]
0.015078106 0.013745315 0.005676677 0.11720976
00000000: 290a 773c 0834 613c 6b03 ba3b ac0b f03d

VAE.encoder_mu.layers.1.attention.W_q.weight f4 [4, 4]
-0.26440805 -0.18105578 0.36688906 -0.36295363 -0.5575639 -0.077000126 0.0013666954 -0.05805596
0.14329553 -0.06177915 0.20296109 0.080875024 -0.30417413 -0.51313597 0.44849092 0.39870313
00000000: 7e60 87be b066 39be e2d8 bb3e 0fd5 b9be
00000010: 82bc 0ebf 3eb2 9dbd b022 b33a 16cc 6dbd
00000020: 10bc 123e 220c 7dbd 08d5 4f3e cea1 a53d
00000030: b6bc 9bbe e15c 03bf 9aa0 e53e d122 cc3e

VAE.encoder_mu.layers.1.attention.W_q.bias f4 [4]
-0.08563417 0.11807875 0.33604288 0.015987605
00000000: f860 afbd 46d3 f13d d00d ac3e 70f8 823c

VAE.encoder_mu.layers.1.attention.W_k.weight f4 [4, 4]
0.45154116 0.42632964 0.14538361 -0.45195916 0.3811051 0.006937649 -0.3544396 0.34587118
-0.43487462 -0.057194617 -0.31918207 0.21607836 0.1649739 -0.49518117 -0.23257117 0.3849024
00000000: 6730 e73e e147 da3e 71df 143e 3167 e7be
00000010: 3520 c33e 3855 e33b 1b79 b5be 0716 b13e
00000020: e3a7 debe e744 6abd d56b a3be a543 5d3e
00000030: ebee 283e 6388 fdbe 2327 6ebe ed11 c53e

VAE.encoder_mu.layers.1.attention.W_k.bias f4 [4]
8.794621e-05 0.00018361103 3.2582768e-05 0.00016326677
00000000: c36f b838 b687 4039 7ba9 0838 9732 2b39

VAE.encoder_mu.layers.1.attention.W_v.weight f4 [4, 4]
0.2750692 0.10431087 -0.14312573 -0.006352586 0.2631349 0.029624965 -0.254434 -0.07295541
0.0010342033 -0.27581465 -0.45223448 -0.31133306 0.38581815 0.1706817 -0.08513795 0.17758712
00000000: dfd5 8c3e f0a0 d53d 8d8f 12be 5b29 d0bb
00000010: 9eb9 863e 0eb0 f23c 2c45 82be a569 95bd
00000020: 1b8e 873a 9437 8dbe 478b e7be 0c67 9fbe
00000030: f589 c53e 2fc7 2e3e ce5c aebd 66d9 353e

VAE.encoder_mu.layers.1.attention.W_v.bias f4 [4]
0.022790056 -0.013093685 -0.010193514 -0.062388357
00000000: 36b2 ba3c e586 56bc b202 27bc ef8a 7fbd

VAE.encoder_mu.layers.1.linear0.weight f4 [128, 4]
-0.11734023 0.04319516 0.0046326406 0.101916395 -0.1876791 -0.16392316 0.40276214 -0.50895447
0.48817468 0.012159231 -0.09796106 -0.048024777 0.38922805 -0.09846941 0.018050183 0.5513328
-0.04244305 0.3602431 0.58704376 -0.05113231 -0.33505037 -0.20585531 0.4372871 -0.06917896
-0.45581463 -0.00608039 -0.08571406 0.2387488 -0.43365985 -0.50121576 0.30705374 0.076462395
-0.1943779 0.41068104 0.055432808 -0.41615027 -0.05039087 0.16497883 0.26932827 0.0064683473
-0.36410946 -0.15363583 0.30284822 -0.17351837 -0.17525913 0.40872395 -0.48580098 0.14239915
0.19753973 -0.31005138 0.15297805 -0.24240156 0.11806102 -0.4314697 0.08694272 -0.31550235
-0.31583837 -0.47076485 0.10067166 0.29216135 0.083721235 0.2354737 -0.17311212 0.21337935
0.19257112 0.07947235 0.055730313 -0.42115116 0.055028792 0.072271675 0.036026776 0.5668015
-0.44083312 0.31895688 -0.33196345 0.21479122 0.46989366 0.11090088 -0.5497616 -0.25899246
0.24880803 -0.5378365 0.14452332 -0.35216358 0.32485488 -0.09583756 -0.24343474 -0.18479666
-0.07483753 0.39222798 0.25019392 -0.122329585 -0.43052363 0.42936245 -0.31725731 0.16348706
-0.19414102 0.47522515 -0.43689546 -0.09523064 0.16282448 -0.28369084 -0.12825437 -0.3161538
0.10280813 0.2769007 -0.5613434 -0.24391416 -0.13775973 -0.16236135 -0.20202206 0.16522983
-0.37817556 -0.6233679 0.0208914 -0.4272264 -0.35197598 -0.014149896 -0.08451125 0.45990834
-0.14128992 0.39923525 -0.21670875 0.42950192 -0.033364207 0.5045974 0.6115284 -0.39492646
0.4241486 0.37615198 -0.17119005 -0.13702253 0.6573706 0.19603975 0.14007008 0.54524106
0.34429666 -0.19600065 -0.19605096 0.26789054 0.16508326 -0.09343861 -0.3826466 0.16569112
-0.12034189 -0.29433468 -0.5110172 0.016926771 0.5225707 -0.30601177 -0.57646644 0.5586116
-0.4190013 0.5146842 -0.41876346 0.091069296 -0.19099829 -0.30514246 -0.49952337 0.2521452
0.08706508 -0.510532 0.2366003 -0.17029826 0.6381821 -0.48558518 0.00770629 0.13866799
-0.66397107 -0.069847316 0.5689826 -0.3946422 0.648492 -0.33322957 -0.333287 0.2998569
-0.32740766 0.34658122 0.0009914206 -0.5462881 -0.28095368 0.28225532 -0.28640404 0.13338071
-0.036185484 -0.10120263 0.120645575 0.16744857 0.16914463 -0.010713826 -0.2591898 0.30988872
0.11034711 -0.6637004 0.13826393 0.022687975 -0.30738991 0.058370207 0.38845834 0.015017743
0.2925085 0.3536023 -0.43208274 0.38795054 0.31935522 0.2274259 -0.4116467 0.03260803
-0.019727023 -0.8381942 0.004487796 0.16928118 -0.20490411 0.3266059 -0.18452972 -0.25225002
0.35476667 -0.089196116 0.45829308 -0.4781368 0.2937634 -0.100517265 0.20263304 0.1619548
0.36452883 -0.016529009 0.44375992 0.17100772 -0.13769518 -0.41946253 0.04325887 -0.30807397
-0.5311031 0.269107 0.20670174 -0.1874225 0.20327935 0.3673876 -0.54486835 -0.34308907
-0.38781586 -0.3366327 -0.122703284 -0.27935737 0.3469127 -0.27951604 0.36455813 -0.5296449
0.26062137 0.35628515 -0.22982532 0.0089718895 -0.08342675 -0.3847427 0.45791858 -0.12058264
00000000: 1350 f0bd 68ed 303d 68cd 973b 8bb9 d03d
00000010: f32e 40be 79db 27be d736 ce3e d74a 02bf
00000020: 08f2 f93e 8337 473c cf9f c8bd a1b5 44bd
00000030: e648 c73e 54aa c9bd fadd 933c 2524 0d3f
00000040: c3d8 2dbd c971 b83e 8048 163f 1d70 51bd
00000050: b98b abbe bccb 52be 18e4 df3e b3ad 8dbd
00000060: 8960 e9be 023e c7bb da8a afbd 917a 743e
00000070: aa08 debe ad4f 00bf 2636 9d3e 5198 9c3d
00000080: 000b 47be c944 d23e 830d 633d a611 d5be
00000090: a866 4ebd 36f0 283e 65e5 893e 6ef4 d33b
000000a0: 8e6c babe b652 1dbe ec0e 9b3e cdae 31be
000000b0: 2177 33be 4444 d13e e8ba f8be 15d1 113e
000000c0: db47 4a3e 0ebf 9ebe 47a6 1c3e 1d38 78be
000000d0: fac9 f13d 99e9 dcbe 060f b23d 8689 a1be
000000e0: 91b5 a1be 1708 f1be f12c ce3d 2c96 953e
000000f0: 0a76 ab3d 0520 713e 4e44 31be 1e80 5a3e
00000100: 5d31 453e 66c2 a23d 7845 643d 20a1 d7be
00000110: df65 613d 2c03 943d d090 133d e719 113f
00000120: e1b4 e1be 514e a33e 1df7 a9be 3bf2 5b3e
00000130: e795 f03e 0020 e33d 2dbd 0cbf a99a 84be
00000140: 88c7 7e3e a7af 09bf ecfd 133e c94e b4be
00000150: 6153 a63e 7c46 c4bd f546 79be 563b 3dbe
00000160: 6b44 99bd 1bd2 c83e 6b19 803e ef87 fabd
00000170: 986d dcbe 65d5 db3e 8d6f a2be 2769 273e
00000180: e7cc 46be b650 f33e c3b0 dfbe 4808 c3bd
00000190: 76bb 263e ed3f 91be 1d55 03be e9de a1be
000001a0: 128d d23d eec5 8d3e 33b4 0fbf a2c4 79be
000001b0: e310 0dbe 0e42 26be dfde 4ebe 0232 293e
000001c0: 3aa0 c1be 0a95 1fbf 7124 ab3c 6bbd dabe
000001d0: 3236 b4be f7d4 67bc 3c14 adbd 1b79 eb3e
000001e0: 4eae 10be 9068 cc3e e6e8 5dbe ade7 db3e
000001f0: e8a8 08bd 4c2d 013f 208d 1c3f cd33 cabe
00000200: 012a d93e fe96 c03e 724c 2fbe a24f 0cbe
00000210: 7149 283f a5be 483e 886e 0f3e eb94 0b3f
00000220: a747 b03e 65b4 48be 95c1 48be f328 893e
00000230: 960b 293e be5c bfbd 41ea c3be efaa 293e
00000240: cf75 f6bd 09b3 96be 06d2 02bf 03aa 8a3c
00000250: 32c7 053f 93ad 9cbe 4e93 13bf 2b01 0f3f
00000260: 5787 d6be 58c2 033f 2a68 d6be 8a82 ba3d
00000270: 0e95 43be a23b 9cbe 87c1 ffbe 2d19 813e
00000280: 2d4f b23d 3ab2 02bf 5947 723e ab62 2ebe
00000290: e75f 233f 9f9e f8be 0c85 fc3b fbfe 0d3e
000002a0: 02fa 29bf 1c0c 8fbd d8a8 113f 8b0e cabe
000002b0: 9203 263f 119d aabe 98a4 aabe d886 993e
000002c0: faa1 a7be 1873 b13e 8ef2 813a 89d9 0bbf
000002d0: 29d9 8fbe c583 903e 8da3 92be f494 083e
000002e0: 3b37 14bd 5343 cfbd 0715 f73d a377 2b3e
000002f0: 4034 2d3e 0b89 2fbc 87b4 84be bca9 9e3e
00000300: aafd e13d 45e8 29bf 0f95 0d3e 22dc b93c
00000310: 3662 9dbe 9915 6f3d 03e4 c63e fb0c 763c
00000320: adc3 953e 5c0b b53e f339 ddbe 74a1 c63e
00000330: 8782 a33e 56e2 683e 5bc3 d2be ff8f 053d
00000340: 919a a1bc e593 56bf 5d0e 933b 0c58 2d3e
00000350: 62d2 51be e338 a73e 5cf5 3cbe ea26 81be
00000360: faa3 b53e 74ac b6bd 64a5 ea3e 59ce f4be
00000370: 2868 963e ffdb cdbd 097f 4f3e 7bd7 253e
00000380: 86a3 ba3e d867 87bc 8034 e33e a61c 2f3e
00000390: f7ff 0cbe cbc3 d6be 3630 313d dfbb 9dbe
000003a0: 5ff6 07bf 65c8 893e 9fa9 533e afeb 3fbe
000003b0: 7628 503e 3a1a bc3e 7e7c 0bbf 5fa9 afbe
000003c0: cd8f c6be 1f5b acbe dc4b fbbd ee07 8fbe
000003d0: 8b9e b13e ba1c 8fbe 5da7 ba3e cf96 07bf
000003e0: 2a70 853e 026b b63e 5457 6bbe d5fe 123c
000003f0: a5db aabd fffc c4be 4e74 ea3e 08f4 f6bd

VAE.encoder_mu.layers.1.linear0.bias f4 [128]
0.18002875 0.155664 0.33703795 0.25836974 -0.26335818 0.28477108 0.17909172 0.34982458
0.31973717 0.3134115 -0.038771104 0.18229556 -0.0135514075 -0.10927803 -0.3620854 0.0003805888
0.30855376 -0.13394819 -0.42436403 0.13380961 0.0006515882 0.020471737 0.37775168 0.44324464
-0.08992365 -0.039581995 -0.36477667 0.034498774 0.12468757 -0.3240854 -0.28998786 0.074978
0.01880329 0.082810834 -0.3370227 0.14540768 0.45742777 0.41345933 -0.10752481 -0.13954976
-0.41302693 -0.052652836 -0.2229889 -0.20407507 0.31673378 -0.16471113 0.39434713 0.32560283
-0.30504048 -0.28873488 -0.17272726 -0.4666345 -0.14799915 0.35127923 0.31433207 -0.21414243
-0.22142892 0.5505918 0.11178699 -0.20014378 0.4070721 0.3017385 0.4413766 -0.45974478
0.050031368 0.18249272 0.051876407 0.025919719 0.05225658 0.38480824 0.06461189 0.2121137
-0.34790364 -0.50520384 -0.2512057 0.25597593 0.10379276 -0.18846671 0.32466018 0.11740719
-0.04939391 0.50163496 0.4378658 0.4110893 -0.39394474 0.41227534 0.09213125 -0.20510525
-0.30954626 -0.10458827 -0.15481089 -0.02810651 0.26911756 -0.014763119 0.27173242 -0.07602976
-0.33786422 0.17853494 0.15711287 -0.53379357 -0.12965272 -0.42740637 0.38650438 0.39144856
0.46048796 0.20747465 0.080145106 0.36867568 0.52154166 -0.37546828 -0.1383638 0.24477899
-0.3884954 0.10443 0.5145522 0.048558187 -0.22273639 0.36549354 0.48871443 -0.17323138
-0.14963199 0.38003862 0.08231275 -0.15236871 -0.39632744 -0.07154845 0.07209749 0.4082218
00000000: 7559 383e 6266 1f3e 3d90 ac3e 0a49 843e
00000010: e2d6 86be 84cd 913e d263 373e 351c b33e
00000020: 97b4 a33e 7977 a03e 73ce 1ebd b0ab 3a3e
00000030: b906 5ebc 29cd dfbd 4263 b9be c489 c739
00000040: c2fa 9d3e b729 09be 3e46 d9be 6305 093e
00000050: 58cf 2a3a 58b4 a73c ab68 c13e f6f0 e23e
00000060: e429 b8bd bb20 22bd 02c4 babe 964e 0d3d
00000070: 325c ff3d 86ee a5be 4a79 94be 118e 993d
00000080: 5b09 9a3c ba98 a93d 3d8e acbe c0e5 143e
00000090: f933 ea3e f1b0 d33e f835 dcbd 22e6 0ebe
000000a0: 4478 d3be 80aa 57bd 3457 64be 0ef9 50be
000000b0: ee2a a23e 09aa 28be dee7 c93e 6ab5 a63e
000000c0: 442e 9cbe 0fd5 93be 6adf 30be b8ea eebe
000000d0: 178d 17be dfda b33e 22f0 a03e 2748 5bbe
000000e0: 43be 62be 96f3 0c3f 94f0 e43d 7ef2 4cbe
000000f0: c16b d03e 787d 9a3e 1dfc e13e ab63 ebbe
00000100: b1ed 4c3d 5fdf 3a3e 5b7c 543d 9755 d43c
00000110: ff0a 563d 9605 c53e 3d53 843d 5534 593e
00000120: 6d20 b2be 0a55 01bf 099e 80be 470f 833e
00000130: 4c91 d43d 6bfd 40be dc39 a63e 2e73 f03d
00000140: 4551 4abd 266b 003f f22f e03e 4c7a d23e
00000150: 20b3 c9be c115 d33e 4faf bc3d 1c07 52be
00000160: d97c 9ebe 6032 d6bd bf86 1ebe a03f e6bc
00000170: c7c9 893e 02e1 71bc 8320 8b3e 7eb5 9bbd
00000180: 8afc acbe ddd1 363e 32e2 203e b2a6 08bf
00000190: afc3 04be 02d5 dabe e7e3 c53e f26b c83e
000001a0: 14c5 eb3e 3c74 543e 1e23 a43d 0fc3 bc3e
000001b0: c183 053f 613d c0be 3daf 0dbe 58a7 7a3e
000001c0: dee8 c6be 65df d53d b1b9 033f f3e4 463d
000001d0: 0215 64be f821 bb3e c738 fa3e 9163 31be
000001e0: 2139 19be 6c94 c23e 9693 a83d 8b06 1cbe
000001f0: 6eeb cabe fe87 92bd d9a7 933d 7302 d13e

VAE.encoder_mu.layers.1.linear1.weight f4 [4, 128]
0.089566745 0.09772831 -0.013256363 0.037191913 0.25451317 -0.075599134 0.033422474 -0.031599663
-0.0987016 0.02889797 -0.081298865 0.029728534 -0.1899117 -0.15217477 0.010308144 0.13598126
-0.18639664 -0.030734466 0.037771575 -0.099489525 -0.10784323 0.10201292 0.08358062 0.06385773
-0.023721078 0.06242511 -0.02903245 -0.023876518 -0.03843429 -0.032837283 0.13395129 -0.042109706
-0.16679676 0.07586113 -0.10453663 0.15304385 -0.011555225 0.13141021 0.0931769 -0.002018989
0.00852704 0.081302196 0.1151397 0.0022887269 -0.15824433 0.07138244 0.058734752 0.0855752
0.16092369 0.08289446 0.0022796057 -0.04896795 0.3473225 0.13596246 -0.074468814 -0.19772117
-0.046366088 0.01695975 0.05832553 -0.0022842172 -0.00842485 -0.14096335 0.1209609 -0.054386213
-0.065565884 0.15086816 0.051122364 0.07161803 0.065515526 0.07524724 -0.14984868 -0.0832756
0.033105373 -0.04969791 0.13962072 -0.1356652 0.13415463 -0.15824622 0.05950659 -0.03389062
0.044982195 -0.06154449 -0.12237289 -0.14932527 0.29659584 0.048362855 -0.03888945 -0.10056938
0.053321276 -0.16769817 -0.17152372 0.0902423 0.00044893875 -0.17927083 -0.13128246 0.10247432
0.030807039 -0.1049865 0.11943361 0.21934873 -0.13185532 -0.090065174 0.07205127 -0.038044892
0.025060717 0.08929072 0.09975862 0.052393362 -0.08780278 0.00084848015 -0.06337187 -0.08362449
-0.02210484 -0.19620088 -0.037838716 0.083622634 -0.2569975 0.03441016 0.08913493 0.16199721
-0.08110764 0.06931489 -0.18266489 -0.057342812 -0.012301117 -0.02844301 -0.04973319 0.06130627
-0.09139608 0.02257533 0.101276346 -0.14019504 -0.2874733 -0.018676585 0.030081995 0.043113716
-0.04025393 0.009360238 -0.10911042 0.07679858 0.0044991206 0.14543037 0.024696928 0.13197178
-0.053592384 -0.16754967 0.0735647 0.057514124 0.12440361 -0.034294084 0.015619808 -0.058895458
0.151423 -0.016685545 0.2389464 -0.10232028 0.060731962 -0.11463958 -0.025596907 -0.16553193
0.17344926 -0.13951558 -0.105318844 0.0012506212 0.01437242 -0.03380945 0.13832845 -0.18194883
0.2624211 0.10171131 -0.24238256 0.051670205 -0.033016834 0.100860395 -0.017645115 0.03631104
0.32229745 -0.025157245 0.08206021 0.09433314 0.40312877 0.11805508 0.0036903212 0.012356834
0.20725715 -0.12867975 -0.08951578 0.20161699 -0.121626906 0.03127606 0.08536412 0.14896092
0.13751155 0.030772425 0.026973741 -0.014148588 0.07311473 -0.019054936 -0.041661363 -0.082217626
0.030370442 -0.021528075 -0.14133397 -0.14188199 -0.13821319 -0.022838425 -0.041913964 0.07871006
-0.12337987 -0.04900687 0.0049027028 -0.17845532 -0.1786725 -0.04889262 -0.040919926 0.21883361
0.08036424 0.17022976 0.06277515 0.08493346 0.042178918 -0.19118801 0.020532165 0.21029642
-0.020687085 0.15959394 -0.044694286 0.19391766 -0.05935713 -0.051567584 -0.024457308 0.10477828
-0.0026927777 -0.031515967 -0.0059971386 0.009590251 -0.014637608 -0.09047751 -0.23493981 -0.12673835
0.022622742 0.0037707558 0.071346514 0.061860505 0.059865948 -0.060052082 0.03208579 0.10577569
-0.041320927 -0.061245687 -0.1057795 0.16936544 0.18433337 -0.02616515 -0.13959643 0.025986275
00000000: c56e b73d c825 c83d 3731 59bc 8c56 183d
00000010: 8d4f 823e b8d3 9abd 01e6 083d a66e 01bd
00000020: 1124 cabd 70bb ec3c 0580 a6bd 4189 f33c
00000030: 3678 42be b4d3 1bbe 7de3 283c ac3e 0b3e
00000040: c3de 3ebe d9c6 fbbc 5eb6 1a3d 2ac1 cbbd
00000050: e9dc dcbd 26ec d03d 512c ab3d d7c7 823d
00000060: b552 c2bc 79b1 7f3d 76d5 edbc b098 c3bc
00000070: 466d 1dbd 6380 06bd 872a 093e 3a7b 2cbd
00000080: c5cc 2abe 155d 9b3d 4d17 d6bd 87b7 1c3e
00000090: 2052 3dbc 6690 063e 88d3 be3d 0451 04bb
000000a0: ffb4 0b3c c481 a63d 5dce eb3d 77fe 153b
000000b0: cd0a 22be f530 923d da93 703d 0d42 af3d
000000c0: 2ec9 243e 92c4 a93d 7065 153b 9e92 48bd
000000d0: 41d4 b13e be39 0b3e 1b83 98bd 6b77 4abe
000000e0: 5eea 3dbd 2cef 8a3c c0e6 6e3d ceb2 15bb
000000f0: 6208 0abc b258 10be 59ba f73d 14c4 5ebd
00000100: 6847 86bd 2f7d 1a3e af65 513d 79ac 923d
00000110: 012d 863d 3a1b 9a3d ef71 19be 668c aabd
00000120: 8099 073d 0990 4bbd bcf8 0e3e d1eb 0abe
00000130: d55f 093e 4c0b 22be 2fbd 733d e4d0 0abd
00000140: 403f 383d 1316 7cbd a39e fabd b9e8 18be
00000150: 69db 973e 2118 463d 8b4a 1fbd 52f7 cdbd
00000160: 6967 5a3d 12b9 2bbe eaa3 2fbe f4d0 b83d
00000170: 8a5f eb39 c692 37be e96e 06be 0ede d13d
00000180: 0b5f fc3c 2a03 d7bd 9c99 f43d f49c 603e
00000190: 1505 07be 1774 b8bd 9e8f 933d f6d4 1bbd
000001a0: 224c cd3c 0ede b63d 3f4e cc3d 6c9a 563d
000001b0: f2d1 b3bd 8a6c 5e3a 1cc9 81bd 5143 abbd
000001c0: 3615 b5bc e2e8 48be c5fc 1abd 5842 ab3d
000001d0: 2d95 83be abf1 0c3d 608c b63d 99e2 253e
000001e0: c31b a6bd f7f4 8d3d 810c 3bbe 4ce0 6abd
000001f0: a08a 49bc 5101 e9bc 08b5 4bbd 491c 7b3d
00000200: de2d bbbd e6ef b83c f969 cf3d 4a8f 0fbe
00000210: b32f 93be a3ff 98bc 846e f63c 0298 303d
00000220: 4ee1 24bd af5b 193c 4975 dfbd 9348 9d3d
00000230: 5c6d 933b b3eb 143e 3651 ca3c 9c23 073e
00000240: b083 5bbd 2492 2bbe 17a9 963d ee93 6b3d
00000250: 52c7 fe3d f477 0cbd 39ea 7f3c 5d3c 71bd
00000260: a20e 1b3e 20b0 88bc 5dae 743e 4c8d d1bd
00000270: 14c2 783d 28c8 eabd 9bb0 d1bc 3481 29be
00000280: af9c 313e 2cdd 0ebe 68b1 d7bd e2eb a33a
00000290: 4c7a 6b3c c77b 0abd f9a5 0d3e cb50 3abe
000002a0: 0f5c 863e 054e d03d 2233 78be 23a4 533d
000002b0: a93c 07bd e58f ce3d 7d8c 90bc e3ba 143d
000002c0: 2c04 a53e 9116 cebc 2f0f a83d bc31 c13d
000002d0: e566 ce3e ddc6 f13d 51d9 713b 5174 4a3c
000002e0: 383b 543e a0c4 03be 0d54 b7bd af74 4e3e
000002f0: 8717 f9bd 531b 003d 62d3 ae3d 3689 183e
00000300: d4cf 0c3e 7416 fc3c 09f8 dc3c 7bcf 67bc
00000310: 2dbd 953d 1919 9cbc 1ba5 2abd b761 a8bd
00000320: 6fcb f83c a55b b0bc dab9 10be 8349 11be
00000330: c287 0dbe a617 bbbc faad 2bbd bd32 a13d
00000340: 96ae fcbd 6dbb 48bd daa6 a03b febc 36be
00000350: edf5 36be a143 48bd a79b 27bd eb15 603e
00000360: 0296 a43d b650 2e3e 4290 803d 98f1 ad3d
00000370: cdc3 2c3d cac6 43be 1233 a83c f257 573e
00000380: f677 a9bc 986c 233e 5b11 37bd 5a92 463e
00000390: 7620 73bd 8838 53bd b15a c8bc ff95 d63d
000003a0: 5079 30bb e316 01bd a583 c4bb 6e20 1d3c
000003b0: 94d2 6fbc 464c b9bd 1094 70be b3c7 01be
000003c0: 5453 b93c c91e 773b 1f1e 923d 7161 7d3d
000003d0: ff35 753d 2cf9 75bd 646c 033d eda0 d83d
000003e0: 2240 29bd c2dc 7abd eca2 d8bd 226e 2d3e
000003f0: e3c1 3c3e 4c58 d6bc 5ef2 0ebe 2be1 d43c

VAE.encoder_mu.layers.1.linear1.bias f4 [4]
-0.029549375 -0.1125791 -0.050441306 -0.09751749
00000000: 8811 f2bc df8f e6bd 8b9b 4ebd 40b7 c7bd

VAE.encoder_mu.layers.1.norm1.weight f4 [4]
1.1214685 1.1745894 1.1963208 1.1257585
00000000: 488c 8f3f f258 963f 0a21 993f db18 903f

VAE.encoder_mu.layers.1.norm1.bias f4 [4]
0.04385509 0.007205597 -0.056073472 0.06392052
00000000: 65a1 333d ee1c ec3b 4cad 65bd c3e8 823d

VAE.encoder_mu.layers.1.norm0.weight f4 [4]
1.0221466 0.7945114 0.97332156 0.7876333
00000000: b3d5 823f 1965 4b3f 9a2b 793f 56a2 493f

VAE.encoder_mu.layers.1.norm0.bias f4 [4]
-0.022247666 0.004058966 0.023880297 -0.029703684
00000000: bd40 b6bc 1301 853b 9da0 c33c 2455 f3bc

VAE.encoder_mu.last_normalization.weight f4 [4]
1.0 1.0 1.0 1.0
00000000: 0000 803f 0000 803f 0000 803f 0000 803f

VAE.encoder_mu.last_normalization.bias f4 [4]
0.0 0.0 0.0 0.0
00000000: 0000 0000 0000 0000 0000 0000 0000 0000

VAE.encoder_mu.head.weight f4 [4, 4]
0.05284816 0.28600812 -0.29850554 0.07539141 -0.38277692 -0.46470326 0.41370016 0.16350102
-0.17382967 0.48901975 -0.2507633 -0.040273964 0.003562808 -0.34974664 0.1938647 -0.040154338
00000000: 5077 583d a86f 923e b8d5 98be d066 9a3d
00000010: 56fb c3be 96ed edbe 82d0 d33e d06c 273e
00000020: 6800 32be cc60 fa3e 0c64 80be 50f6 24bd
00000030: 007e 693b fe11 b3be 7884 463e e078 24bd

VAE.encoder_mu.head.bias f4 [4]
0.24699795 0.43130136 0.043135583 0.22290581
00000000: 08ed 7c3e 88d3 dc3e f0ae 303d 6c41 643e

VAE.encoder_logvar.layers.0.attention.W_q.weight f4 [4, 4]
0.044861823 0.23455073 0.8503276 0.49266303 -0.0016815799 0.1581388 0.18687204 -0.012915519
-0.026340282 0.16793653 0.4991572 0.25582352 0.6634021 0.47502515 0.7864763 -0.005441341
00000000: 08c1 373d 112e 703e 12af 593f 543e fc3e
00000010: 7568 dcba 23ef 213e 625b 3f3e 9d9b 53bc
00000020: 93c7 d7bc 8ef7 2b3e 8891 ff3e 4dfb 823e
00000030: b8d4 293f 7f36 f33e 8356 493f 474d b2bb

VAE.encoder_logvar.layers.0.attention.W_q.bias f4 [4]
0.03681565 0.02142456 0.045344837 0.042079344
00000000: 02cc 163d 8f82 af3c 82bb 393d 645b 2c3d

VAE.encoder_logvar.layers.0.attention.W_k.weight f4 [4, 4]
0.2699491 -0.7869973 -0.82359314 0.7074109 0.056006026 -0.38438573 0.22047956 0.34647515
0.26098505 -0.2420483 -0.36383376 0.63221955 -0.28386995 -0.49966878 -1.0032486 0.7055464
00000000: c536 8a3e a878 49bf 00d7 52bf e118 353f
00000010: 9366 653d 35ce c4be 65c5 613e 3165 b13e
00000020: d59f 853e 82db 77be 6b48 babe 24d9 213f
00000030: 6757 91be 96d4 ffbe 736a 80bf b09e 343f

VAE.encoder_logvar.layers.0.attention.W_k.bias f4 [4]
7.5595426e-06 -1.285479e-06 -1.8546076e-07 8.224221e-06
00000000: faa7 fd36 b988 acb5 1123 47b4 c3fa 0937

VAE.encoder_logvar.layers.0.attention.W_v.weight f4 [4, 4]
-0.20775141 -0.28627262 0.39119932 -0.0828114 0.25140914 0.28960323 0.17222959 -0.18678716
0.085498214 0.17808598 0.33040592 -0.2940109 -0.17101277 0.0072079417 0.36706656 -0.31549993
00000000: c9bc 54be 5392 92be 474b c83e 0699 a9bd
00000010: b3b8 803e e046 943e f45c 303e 2245 3fbe
00000020: b019 af3d 2c5c 363e f72a a93e 9988 96be
00000030: f91d 2fbe 9930 ec3b 26f0 bb3e 3589 a1be

VAE.encoder_logvar.layers.0.attention.W_v.bias f4 [4]
-0.034964528 -0.060669687 -0.032036684 0.041891556
00000000: f736 0fbd c780 78bd e638 03bd 7b96 2b3d
