restsyn/tabsyn/vae/ckpt/fintech/decoder.pt (torch, 34439 bytes, 69 tensors)

VAE_Decoder.layers.0.attention.W_q.weight f4 [4, 4]
0	0x3ed0f715	0.4081351
1	0xbc2b1a61	-0.010443301
2	0x3e8bc5e7	0.27299425
3	0xbe4136d1	-0.18868567
4	0xbe2623a5	-0.16224535
5	0xbe95a79d	-0.2922944
6	0x3ed9f8db	0.42572674
7	0x3f203078	0.6257396
8	0xbefea5ff	-0.4973602
9	0xbeeedfdb	-0.46655163
10	0x3db67efe	0.089109406
11	0xbe0325b7	-0.12807356
12	0xbc1410dd	-0.009037224
13	0xbe88dcf9	-0.2673109
14	0xbe5f3d6a	-0.21800771
15	0x3ed4fb2c	0.4159788

VAE_Decoder.layers.0.attention.W_q.bias f4 [4]
0	0xbc54c6b3	-0.012986827
1	0x3dfde50a	0.12397201
2	0xbdb4728f	-0.08810913
3	0xbdfd65ee	-0.12372957

VAE_Decoder.layers.0.attention.W_k.weight f4 [4, 4]
0	0xbdfeb246	-0.12436347
1	0xbe3ec920	-0.1863141
2	0x3eb9a500	0.36258698
3	0xbeb785be	-0.35844225
4	0xbf10e517	-0.56599563
5	0xbe158e8a	-0.14605156
6	0x3eca41a8	0.39503217
7	0xbeaa98bd	-0.33319655
8	0x3f00e401	0.50347906
9	0x3e8e9f2e	0.2785582
10	0xbf090720	-0.53526497
11	0x3ee481b3	0.44630203
12	0x3e45f66c	0.19332284
13	0xbe7ecd94	-0.2488311
14	0x3e9c9627	0.30583307
15	0xbe1f7635	-0.15572436

VAE_Decoder.layers.0.attention.W_k.bias f4 [4]
0	0x392c5e9e	0.00016438446
1	0xb98e8ef9	-0.00027190874
2	0xb93d3e22	-0.00018047591
3	0x39741d45	0.00023280557

VAE_Decoder.layers.0.attention.W_v.weight f4 [4, 4]
0	0xbe66bdcc	-0.2253334
1	0x3da0379f	0.07823109
2	0x3d4282de	0.047488086
3	0xbbf6df17	-0.0075339186
4	0x3ea36642	0.31913954
5	0xbe1fc210	-0.15601373
6	0xbe8586d5	-0.2607943
7	0x3ecd53f6	0.4010312
8	0xbeb28edf	-0.34874627
9	0x3d69c262	0.057070144
10	0xbb74c998	-0.0037351605
11	0x3db08de2	0.08620812
12	0xbe29f0e4	-0.16595799
13	0xbe24f82b	-0.16110294
14	0x3de8236d	0.11334882
15	0xbc4cfb91	-0.01251115

VAE_Decoder.layers.0.attention.W_v.bias f4 [4]
0	0x3dc15bc2	0.094413295
1	0xbe112797	-0.14175259
2	0xbbefa97b	-0.007313905
3	0xbd344da5	-0.04401936

VAE_Decoder.layers.0.linear0.weight f4 [128, 4]
0	0xbee55bdd	-0.4479665
1	0x3cbd58e6	0.02311368
2	0xbde98e3b	-0.114040814
3	0x3e25f051	0.16204955
4	0x3dcb5cae	0.099297866
5	0xbec650e9	-0.38733605
6	0x3e9c8376	0.30569047
7	0xbd396091	-0.04525811
8	0x3e85e4d2	0.2615114
9	0x3ea99dc7	0.33128187
10	0xbecba33a	-0.3977297
11	0xbe95646a	-0.29178172
12	0xbea35190	-0.31898165
13	0x3e144f44	0.14483362
14	0x3e25394d	0.1613514
15	0xbbc86535	-0.0061155804
16	0x3e741159	0.23834743
17	0x3eadee08	0.33970666
18	0xbe699dde	-0.22814128
19	0xbf1e6c6b	-0.6188418
20	0x3e88b9c7	0.26704237
21	0x3efa7883	0.48920068
22	0xbec2ff32	-0.38085324
23	0xbeec871a	-0.46196824
24	0x3e3bf845	0.18356426
25	0xbed8515e	-0.42249578
26	0xbee9a496	-0.45633382
27	0xbeb51f8c	-0.3537563
28	0x3e8c40a4	0.27393067
29	0x3ed34b97	0.41268608
30	0xbed92dab	-0.42417654
31	0xbeed1f29	-0.46312836
32	0x3e1d1326	0.15339336
33	0xbecd44fe	-0.400917
34	0x3eb300aa	0.34961444
35	0x3e98a05c	0.29809844
36	0xbe33a986	-0.17545137
37	0xbdaa864a	-0.08326395
38	0x3e209add	0.15684076
39	0xbe60280d	-0.21890278
40	0xbe20540c	-0.15657061
41	0x3e0488ab	0.1294276
42	0x3ee0fdcc	0.43943632
43	0xbe154840	-0.14578342
44	0x3eafa643	0.34306535
45	0xbf019124	-0.5061209
46	0xbedb93dc	-0.42886245
47	0x3e931015	0.28723207
48	0xbea77e26	-0.3271343
49	0xbf0acf74	-0.542228
50	0xbeb002c3	-0.34377107
51	0xbf058cb0	-0.521678
52	0xbc558740	-0.013032734
53	0xbceb2a00	-0.02870655
54	0x3cf76780	0.03020072
55	0x3c2632c0	0.010143936
56	0xbe994bff	-0.29940793
57	0x3e8d835d	0.27639285
58	0xbdbc5852	-0.09196533
59	0x3ee80eb0	0.45323706
60	0xbe5c1300	-0.21491623
61	0xbf1d26bc	-0.6138723
62	0xbdbe077a	-0.0927877
63	0x3eb407ed	0.35162297
64	0x3eb13502	0.34610754
65	0xbec68829	-0.38775757
66	0xbdbcce67	-0.092190556
67	0x3d2908ff	0.041268345
68	0x3eb1bebc	0.3471583
69	0xbea1fed4	-0.3163973
70	0x3ecde4c2	0.4021359
71	0x3db92095	0.09039418
72	0xbde432b2	-0.11142482
73	0x3db6b404	0.08921054
74	0xbf1d9009	-0.61547905
75	0x3ecc0963	0.39850911
76	0x3d224d2b	0.039624374
77	0xbeeff0e0	-0.4686346
78	0x3e5f1013	0.21783476
79	0x3d8f9f61	0.07012821
80	0x3e1af6dc	0.15133232
81	0x3ec28626	0.37992972
82	0x3ebb3ed0	0.3657136
83	0xbe75a227	-0.23987637
84	0x3e9eb206	0.30995196
85	0xbe8add73	-0.27122077
86	0xbf1a8980	-0.6036606
87	0x3e2cb3d3	0.16865472
88	0xbeea5ce5	-0.45773998
89	0xbf00b847	-0.50281185
90	0x3ee68259	0.45021322
91	0xbe93925e	-0.28822607
92	0xbe4bc16a	-0.19898
93	0xbedfaa7a	-0.4368475
94	0x3da0c49c	0.0785
95	0x3e20680c	0.1566469
96	0x3e31ec0d	0.17375202
97	0xbef9583b	-0.48700127
98	0x3eaf5194	0.34241927
99	0x3e89f08a	0.2694133
100	0x3d8c5b52	0.068533555
101	0xbcd70de7	-0.026251746
102	0x3ee13c9d	0.43991557
103	0x3ea86663	0.32890615
104	0xbe54e893	-0.20791845
105	0x3ee64085	0.449711
106	0xbdd75bdd	-0.105155684
107	0xbea31deb	-0.31858763
108	0xbf05ed78	-0.52315474
109	0x3c09de0e	0.008414758
110	0xbe8d81f6	-0.27638215
111	0x3d93eed5	0.07223288
112	0x3ec47dbc	0.38377178
113	0x3f07dffa	0.53076136
114	0x3eb4dbc1	0.3532391
115	0xbf0c7ab0	-0.54874706
116	0xbd02714c	-0.03184633
117	0xbeb75adf	-0.35811517
118	0x3e4dfab6	0.2011517
119	0xbd7a42a7	-0.06109872
120	0xbeed0f9f	-0.4630098
121	0x3c6028ef	0.013681634
122	0xbee175f0	-0.44035292
123	0x3e831cec	0.25608003
124	0xbd80f4a1	-0.06296659
125	0x3d3922a1	0.04519904
126	0xbdf0801b	-0.11743184
127	0xbf0c5f05	-0.5483249
128	0xbf0f46c7	-0.5596737
129	0xbee589c3	-0.44831666
130	0x3dd59f0a	0.10430725
131	0x3d5679f7	0.05236241
132	0xbdf838fd	-0.12120245
133	0x3ed26f45	0.41100517
134	0xbf0c1f51	-0.54735285
135	0xbdb91e39	-0.09038968
136	0xbc7525a0	-0.014962584
137	0xbecc3b48	-0.39888978
138	0x3f031f49	0.5121961
139	0x3edc8f19	0.43077925
140	0xbea6be1e	-0.32566923
141	0x3d8a004e	0.06738339
142	0x3ed841c3	0.42237672
143	0xbeb9f881	-0.36322406
144	0x3e6f3050	0.23358274
145	0xbe680ce1	-0.22661163
146	0x3ea4bc0c	0.32174718
147	0x3dbe2182	0.09283735
148	0x3eb3d38f	0.35122344
149	0x3d8522b1	0.065007575
150	0x3efefaae	0.49800628
151	0xbefe6cb6	-0.49692315
152	0xbd805533	-0.062662505
153	0xbedbafdd	-0.4290761
154	0xbf0d4cce	-0.5519532
155	0xbf187c0d	-0.59564286
156	0x3ee4d0d0	0.4469056
157	0xbe27f280	-0.164011
158	0x3de7b2c1	0.113133915
159	0x3ea4371d	0.32073298
160	0x3ddcdb0b	0.10783967
161	0x3f2d37d6	0.67663324
162	0x3e902567	0.28153536
163	0xbdce29f7	-0.10066598
164	0x3e8a9ee4	0.2707435
165	0xbf23c725	-0.63975745
166	0x3e8e65cd	0.27812043
167	0xbe8c8e47	-0.274523
168	0x3e3a4f17	0.18194233
169	0xbf134c0b	-0.5753791
170	0x3e8566a9	0.26054886
171	0xbf051476	-0.51984346
172	0x3f055835	0.5208772
173	0x3f033459	0.5125175
174	0xbdd78030	-0.10522497
175	0xbf07c3a0	-0.53032875
176	0xbe98d636	-0.2985093
177	0x3ebad7bd	0.3649272
178	0x3e3ce00e	0.18444845
179	0xbef6b901	-0.48188022
180	0xbea59fcc	-0.32348478
181	0xbe9dd38f	-0.3082547
182	0xbe76d400	-0.24104309
183	0x3d8f3a27	0.069935136
184	0xbe26d2dc	-0.16291374
185	0xbd617745	-0.055045385
186	0xbecf197b	-0.40449128
187	0xbf0bcf1f	-0.54612917
188	0xbe136f0f	-0.14397834
189	0xbeaf8aa6	-0.34285468
190	0x3e5887a2	0.2114549
191	0xbecb2425	-0.39676014
192	0xbeec67b2	-0.46172863
193	0xb9c63de1	-0.00037811606
194	0x3f0def56	0.5544332
195	0xbdb6c653	-0.08924546
196	0x3e6de1af	0.23230623
197	0xbe4d0cd1	-0.2002442
198	0x3d8d3691	0.06895173
199	0x3ec9f711	0.3944631
200	0xbdd3c8dc	-0.10341045
201	0xbea98d74	-0.33115733
202	0xbec2ea29	-0.38069275
203	0x3eac7b49	0.3368781
204	0x3e7e981a	0.2486271
205	0xbd75b8d9	-0.059990738
206	0x3e43a450	0.19105649
207	0xbf17537e	-0.59111774
208	0xbe3898d7	-0.18027054
209	0xbd087e3b	-0.033323508
210	0x3ee53fc5	0.44775215
211	0xbeffa4ed	-0.49930516
212	0x3eaeeffa	0.34167463
213	0xbe6b7f1f	-0.22997712
214	0x3e8e9a43	0.27852067
215	0xbecafe94	-0.39647353
216	0xbece2e5b	-0.4026974
217	0x3cbf2124	0.023331232
218	0xbe69af33	-0.2282074
219	0x3e969222	0.29408365
220	0x3e93e9c3	0.28889284
221	0xbe84522f	-0.2584395
222	0xbea8c6e5	-0.32964244
223	0x3ecea69d	0.4036149
224	0x3da1e29e	0.07904552
225	0x3da4dce2	0.080499426
226	0x3e928e33	0.28624114
227	0xbebf469e	-0.37358564
228	0xbea1bbc2	-0.3158856
229	0xbe1b2613	-0.15151243
230	0x3dad8cfc	0.08474156
231	0x3ec96765	0.39336696
232	0xbf135f71	-0.5756751
233	0xbd0cd048	-0.03437832
234	0x3ea37ef5	0.31932798
235	0x3e8871bf	0.2664928
236	0x3e859b06	0.26094836
237	0x3f198cc8	0.5998044
238	0xbed139ab	-0.4086431
239	0x3e8b7174	0.27234995
240	0xbed655ef	-0.41862437
241	0x3caff984	0.021481283
242	0xbdc39a66	-0.095509335
243	0xbe948e65	-0.29014888
244	0x3d81f05f	0.06344675
245	0x3e848502	0.25882727
246	0xbee2f637	-0.44328472
247	0x3ec2e6e2	0.38066775
248	0xbeac1245	-0.3360769
249	0x3d7a7272	0.0611443
250	0xbdc240ca	-0.09485014
251	0x3db33147	0.08749633
252	0xbd2dd57a	-0.042439915
253	0x3e39a558	0.1812948
254	0xbef49e8f	-0.4777722
255	0xbd6cd209	-0.057817493

VAE_Decoder.layers.0.linear0.bias f4 [128]
0	0x3e03e337	0.12879644
1	0x3e877f40	0.26464272
2	0x3d8cee9e	0.0688145
3	0xbe566a94	-0.20939094
4	0x3f09837b	0.5371625
5	0x3ee3ec00	0.4451599
6	0xbe02c9fe	-0.12772366
7	0x3e7aaad4	0.24479228
8	0x3efe01fb	0.49610886
9	0x3eb00ba4	0.3438388
10	0x3f014c35	0.5050691
11	0x3e2edf03	0.1707726
12	0x3e91bc27	0.2846386
13	0xbdff7cf8	-0.12475008
14	0x3eb4fcf9	0.35349253
15	0xbdc970ed	-0.09835992
16	0x3eabaa8f	0.33528563
17	0x3ed4cb66	0.4156143
18	0xbdb059e9	-0.08610899
19	0x3e724563	0.23659281
20	0xbd99a827	-0.07502776
21	0x3e9c2fc4	0.30505192
22	0xbe9a9d23	-0.3019801
23	0x3e07cf99	0.13262786
24	0xbe289878	-0.16464412
25	0x3eca338d	0.39492455
26	0xbd5bd4f3	-0.05366988
27	0xbe1d09d4	-0.1533578
28	0xbde9f895	-0.114243664
29	0x3f036db8	0.5133929
30	0xbea233e8	-0.31680226
31	0x3edb3391	0.4281278
32	0xbedf5534	-0.43619692
33	0x3eb87590	0.36027193
34	0xbdee2340	-0.11627817
35	0x3d5afa09	0.05346111
36	0x3ec4dcf6	0.3844983
37	0xbe603619	-0.21895637
38	0xbeffae1b	-0.4993752
39	0x3edce6d1	0.4314485
40	0xbe149226	-0.14508876
41	0xbe40aa61	-0.18814994
42	0xbe5e8760	-0.21731329
43	0x3f1a38a1	0.6024266
44	0xbebf3e7a	-0.37352353
45	0x3ea3d698	0.3199966
46	0x3f0bc673	0.54599684
47	0x3daf3cda	0.085565284
48	0xbca9a905	-0.020710478
49	0xbe732c90	-0.23747468
50	0x3e3dd35b	0.18537657
51	0xbc9ba4e1	-0.018999519
52	0xbedb61f0	-0.42848158
53	0x3e9adf49	0.30248478
54	0xbdb134ea	-0.08652671
55	0x3e7a68a1	0.24453975
56	0x3d43f93a	0.047845103
57	0x3dc7e367	0.097601704
58	0xbd20d272	-0.039263196
59	0xbe43dbcd	-0.19126816
60	0xbe319593	-0.17342214
61	0xbe24d0d0	-0.1609528
62	0x3e352ea7	0.17693578
63	0xbe920a43	-0.28523454
64	0x3ea6cc35	0.32577673
65	0x3e903727	0.28167078
66	0xbcda3b72	-0.026639674
67	0xbde9aa12	-0.114093915
68	0xbeb7d42e	-0.35904068
69	0x3e26faf7	0.16306673
70	0xbebb5d74	-0.36594737
71	0xbef13b4e	-0.47115558
72	0x3f069581	0.52571875
73	0x3d8bff31	0.06835783
74	0x3eee571b	0.4655083
75	0xbee3d9e3	-0.44502172
76	0x3eaf1d05	0.34201828
77	0x3dd4d4ac	0.103921264
78	0xbf1a5e32	-0.6029998
79	0x3f07caa6	0.5304359
80	0x3e860ec7	0.2618315
81	0xbbbfe298	-0.0058558695
82	0x3ef7eafc	0.48421466
83	0xbed037e7	-0.4066765
84	0x3dff8855	0.12477175
85	0x3edb3ea0	0.42821217
86	0xbe913c43	-0.2836629
87	0x3eaf9067	0.34289858
88	0xbe6fc0bc	-0.23413366
89	0x3e19934f	0.149976
90	0x3e847384	0.2586938
91	0xbea752c2	-0.32680327
92	0x3ecc6d45	0.39927116
93	0x3e3d0bbe	0.1846151
94	0x3eff330b	0.4984363
95	0xbd8b2020	-0.06793237
96	0xbed7ae5f	-0.42125222
97	0x3ed55dce	0.4167313
98	0x3e8f3748	0.27971864
99	0x3ed6095a	0.4180401
100	0x3e95026c	0.2910341
101	0x3dba4a0a	0.09096153
102	0x3eb7b67b	0.3588141
103	0xbde59d27	-0.11211615
104	0xbd3ca3bd	-0.04605459
105	0xbc352683	-0.011056545
106	0x3e78bf29	0.24291672
107	0x3edef27b	0.43544373
108	0xbec68e34	-0.38780367
109	0xbd4e94b6	-0.05043479
110	0x3eee9d1a	0.46604234
111	0xbe6a82ea	-0.22901502
112	0xbebb6908	-0.3660357
113	0xbeb6ecf0	-0.35727644
114	0x3e618a62	0.22025445
115	0x3f0e2251	0.5552111
116	0x3f006db8	0.5016742
117	0x3e3ae1e8	0.18250239
118	0x3e267e13	0.16259031
119	0x3e0e39fa	0.13889304
120	0x3eaea13d	0.3410739
121	0xbec6ee49	-0.38853672
122	0x3eea767b	0.45793518
123	0xbde11efe	-0.109922394
124	0xbd9244a2	-0.07141997
125	0x3e96bce4	0.29440987
126	0x3d0dd1e9	0.034624014
127	0xbdb49f19	-0.08819408

VAE_Decoder.layers.0.linear1.weight f4 [4, 128]
0	0xbd6d2895	-0.05790003
1	0x3ccab26f	0.024743287
2	0xbd038399	-0.032107923
3	0xbddddfba	-0.10833688
4	0x3dc29c37	0.09502452
5	0x3d504f9f	0.050857183
6	0x3d9ebe7b	0.07751175
7	0x3e1339f5	0.14377578
8	0x3cbb2014	0.022842444
9	0xbcdbe931	-0.026844593
10	0xbdf2d62c	-0.11857256
11	0x3db18c84	0.08669379
12	0x3da6bf37	0.0814194
13	0x3ce190fe	0.027534958
14	0xbcb063ee	-0.021532025
15	0x3dd69bcc	0.10478935
16	0x3d55da7e	0.052210324
17	0x3cfa7928	0.03057535
18	0x3d24b866	0.04021492
19	0x3c5f5b36	0.013632586
20	0x3d24ade6	0.040204905
21	0x3db67e6a	0.0891083
22	0x3cef5058	0.029213116
23	0xbc571841	-0.013128341
24	0x3df4a308	0.11945158
25	0xbd9c2081	-0.07623387
26	0xbdfdae3e	-0.1238675
27	0xbe01a060	-0.12658834
28	0x3dcc0047	0.099609904
29	0x3d6a8bc9	0.057262216
30	0xbdcc5f05	-0.09979061
31	0x3d7b49f2	0.061349817
32	0xbefab33f	-0.4896488
33	0xb9848d56	-0.00025282305
34	0x3db1dd28	0.0868476
35	0xbc2a573a	-0.010396773
36	0x3da9cdda	0.08291216
37	0x3dfd3176	0.123629496
38	0x3edb642c	0.42849863
39	0x3d447289	0.04796079
40	0xbcfe2120	-0.031021655
41	0x3e1b7400	0.15180969
42	0x3dc0c514	0.0941259
43	0x3d2f3e2d	0.042783905
44	0x3d05e265	0.03268661
45	0x3cad4993	0.021153247
46	0x3db9b8e1	0.09068466
47	0xbc7da734	-0.015481759
48	0xbd3286f6	-0.04358574
49	0x3d0ae07d	0.033905495
50	0x3d82a216	0.06378572
51	0x3e1eedfd	0.15520473
52	0x3de6d397	0.11270826
53	0x3d9f293f	0.07771539
54	0xbde9545c	-0.113930434
55	0x3da3d467	0.07999497
56	0x3df7dff4	0.121032625
57	0xbcc4630d	-0.023973012
58	0xbceb7f57	-0.028747244
59	0x3dbfe677	0.093701296
60	0xbe264224	-0.16236168
61	0x3dc3039b	0.09522172
62	0xbe16029e	-0.14649436
63	0x3e306fc6	0.17230138
64	0xbbc3e5e0	-0.005978331
65	0xbcc2f004	-0.023796089
66	0xbdaf9db5	-0.08575002
67	0xbcae1781	-0.021251442
68	0x3ce9184f	0.028453974
69	0x3d63c4e5	0.055607695
70	0xbe0c231f	-0.13685273
71	0x3cddc125	0.027069638
72	0xbc7c988f	-0.015417232
73	0xb907147f	-0.00012882239
74	0x3db2e2f8	0.08734697
75	0xbe3fde24	-0.18737084
76	0xbdbd0ee8	-0.09231359
77	0x3d167fae	0.03674286
78	0xbf3805a3	-0.718836
79	0xbd756a06	-0.059915565
80	0x3cc8a9ee	0.024495091
81	0xbd491c6b	-0.049099367
82	0x3deaaba6	0.114585206
83	0xbe0880b8	-0.13330352
84	0x3c845df6	0.016158085
85	0x3e45b217	0.19306217
86	0x3dcd9672	0.10038461
87	0xbc37dff9	-0.011222833
88	0x3bbb00f7	0.005706902
89	0xbd9f1934	-0.07768479
90	0xbe138377	-0.14405619
91	0xbe27a2bf	-0.16370676
92	0xbe25e55d	-0.16200776
93	0xbe03d508	-0.12874234
94	0x3db60213	0.088871144
95	0xbdf98a2e	-0.12184559
96	0xbd31740a	-0.043323554
97	0xbd87d835	-0.06633035
98	0xbcf2afed	-0.029624904
99	0x3df4a348	0.11945206
100	0xbd0220c5	-0.031769533
101	0x3d25ff2b	0.04052655
102	0x3c43d61d	0.011952904
103	0xbcfdebc3	-0.030996209
104	0x3d537efe	0.05163478
105	0xbe0a41c0	-0.13501644
106	0x3cc9c339	0.024629222
107	0x3d93577d	0.071944214
108	0xbdea8f09	-0.11453063
109	0x3dec4000	0.115356445
110	0x3e1029a3	0.14078383
111	0xbd6825d6	-0.05667671
112	0xbd010f34	-0.03150864
113	0x3d92601b	0.07147237
114	0x3dea9521	0.11454225
115	0x3dc04ff4	0.0939025
116	0x3d413750	0.04717189
117	0xbc327894	-0.010893006
118	0xbe1ea57a	-0.15492812
119	0x3c372f7a	0.011180753
120	0xbe056b41	-0.13029195
121	0x3e375ba6	0.17906055
122	0x3e132727	0.14370404
123	0xbe1975fc	-0.14986414
124	0x3e18c571	0.14919068
125	0xbd23e2bd	-0.040011156
126	0xbcb807db	-0.022464683
127	0xbedd9c69	-0.43283394
128	0x3aaad060	0.0013032071
129	0x3e581889	0.2110311
130	0xbdde5f44	-0.10858014
131	0x3dbe37fa	0.092880204
132	0x3c186e9c	0.009303715
133	0xbd643760	-0.055716872
134	0xbd3e3d24	-0.046445027
135	0xbdb646a7	-0.089001946
136	0x3e329b78	0.17442119
137	0x3d3fc647	0.04681995
138	0x3e20560a	0.15657821
139	0x3dcc4095	0.099732555
140	0x3e36b42d	0.17842169
141	0x3ce0d7d1	0.02744666
142	0x3b4c2bcb	0.0031154032
143	0x3e7f6a36	0.2494286
144	0x3e096fe0	0.13421583
145	0x3e300ad4	0.1719163
146	0xbd8257a4	-0.063643724
147	0x3e394d1d	0.18095823
148	0x3d7fb2ed	0.062426496
149	0xbd4ecb98	-0.05048713
150	0x3e4f9e08	0.20275128
151	0x3e5e02ed	0.21680804
152	0x3e318b2d	0.17338248
153	0x3d23febd	0.04003786
154	0x3dda81f4	0.10669318
155	0xbc93247b	-0.017961731
156	0xbc5779aa	-0.013151566
157	0x3d04fd60	0.0324682
158	0xbe1818b6	-0.14853176
159	0xbbb223e5	-0.005436408
160	0x3ea273b5	0.31728902
161	0xbdf86d27	-0.12130194
162	0x3d8b7eae	0.068112716
163	0x3cad49e8	0.021153405
164	0x3e36fb1f	0.17869233
165	0x3e0684ce	0.13136598
166	0xbe94b61c	-0.29045188
167	0x3de9a8ba	0.11409135
168	0x3c9eee6c	0.019400798
169	0x3e1836d3	0.14864664
170	0x3e3ea6ef	0.18618368
171	0xbded3743	-0.11582806
172	0x3ca928da	0.020649362
173	0x3e133a2c	0.1437766
174	0x3cc0d6d2	0.023539934
175	0x3d2d0272	0.04223866
176	0x3e169ca0	0.14708185
177	0x3cf819bc	0.030285709
178	0x3dfcf5aa	0.12351544
179	0xbd7a89b9	-0.0611665
180	0x3d24012d	0.040040184
181	0x3d0b4be6	0.03400793
182	0xbddf673c	-0.10908362
183	0x3da75a04	0.08171466
184	0x3de468a9	0.11152775
185	0x3e5f8dd7	0.21831451
186	0x3dda5452	0.10660614
187	0xbca22185	-0.019791374
188	0x3e397c1b	0.18113749
189	0x3bad7c2a	0.0052943425
190	0xbd278430	-0.04089755
191	0xbdd40962	-0.10353352
192	0xbd0c0c51	-0.034191433
193	0xbc3262ef	-0.010887845
194	0x3d52107d	0.051285256
195	0x3dfdb283	0.12387564
196	0x3d89009c	0.06689569
197	0x3de56cfd	0.112024285
198	0x3e9887fc	0.29791248
199	0xbd7f1c6b	-0.06228296
200	0x3e34a873	0.17642383
201	0xb8ae15cb	-8.301026e-05
202	0x3b1a2788	0.0023522098
203	0x3e8baa4c	0.27278364
204	0xbbfd5b45	-0.0077318274
205	0xbd71b3ae	-0.059009247
206	0xbe546757	-0.20742546
207	0x3dcab12b	0.09897073
208	0xbd8f7caf	-0.070062034
209	0x3d2cbad8	0.042170376
210	0x3db2b067	0.08725052
211	0xbe1cef8b	-0.15325753
212	0xbdfccc38	-0.12343639
213	0xbb987138	-0.0046521686
214	0xbdaa730f	-0.08322727
215	0xbe0ab310	-0.1354487
216	0x3d02eef6	0.031966172
217	0x3e13344b	0.14375417
218	0x3b858f73	0.0040759384
219	0x3dd8de74	0.105893046
220	0x3d8871df	0.06662344
221	0x3dbdf100	0.09274483
222	0x3c8fd831	0.017559143
223	0x3e5a598b	0.2132322
224	0xbd6c5edb	-0.05770765
225	0x3de13091	0.109955914
226	0xbd491e8d	-0.0491014
227	0x3c2bfb32	0.010496901
228	0x3dc85293	0.09781375
229	0x3bf85ed2	0.007579663
230	0x3c31ad67	0.010844565
231	0xbbb4984b	-0.005511319
232	0xbe034955	-0.12820943
233	0x3e19f267	0.15033875
234	0x3daeb74b	0.08531054
235	0xbc54a047	-0.012977666
236	0x3e365ef2	0.17809656
237	0x3dc59220	0.09647012
238	0x3dc436ae	0.09580742
239	0x3e42a65e	0.19008777
240	0x3d659dad	0.056058574
241	0x3d395c2e	0.045253925
242	0xbd5433f5	-0.051807363
243	0xbc05386a	-0.008131126
244	0x3c3af86d	0.011411768
245	0xbdbec192	-0.09314264
246	0x3d72168b	0.05910353
247	0x3d4f597b	0.050622445
248	0x3da1d839	0.07902569
249	0x3e59373c	0.21212476
250	0xbda0ce94	-0.07851902
251	0x3d548f3e	0.05189442
252	0xbd68e42f	-0.056858238
253	0x3d9044c6	0.070443675
254	0x3dfb79b1	0.1227907
255	0x3dfcb7cd	0.12339745

VAE_Decoder.layers.0.linear1.bias f4 [4]
0	0xbce0ee69	-0.027457433
1	0x3e02e3ff	0.12782286
2	0x3c716a15	0.014734765
3	0xbb406d44	-0.0029362002

VAE_Decoder.layers.0.norm1.weight f4 [4]
0	0x3f8db0c0	1.1069565
1	0x3f9bf9ad	1.218557
2	0x3f95c9d4	1.1702218
3	0x3f91cf3d	1.1391369

VAE_Decoder.layers.0.norm1.bias f4 [4]
0	0xbd262f72	-0.04057259
1	0x3cb2593a	0.021771062
2	0xbd7d9a8f	-0.061914977
3	0xbdf42bf6	-0.119224474

VAE_Decoder.layers.1.attention.W_q.weight f4 [4, 4]
0	0xbed11195	-0.40833727
1	0x3e53f56b	0.20699088
2	0x3e1d7dbd	0.15379997
3	0xbee6b4f3	-0.45059928
4	0xbdaf8101	-0.085695274
5	0x3e13b172	0.14423159
6	0x3e1672ff	0.14692305
7	0x3af9d196	0.0019059654
8	0x3ee7da02	0.45283514
9	0x3e31d431	0.17366101
10	0x3ec93557	0.39298508
11	0xbe751769	-0.23934712
12	0xbed0df2e	-0.40795273
13	0xbdb493d1	-0.08817256
14	0xbd8e3186	-0.069430396
15	0xbe61e0dd	-0.22058435

VAE_Decoder.layers.1.attention.W_q.bias f4 [4]
0	0xbd6a1899	-0.057152364
1	0xbd5a0df1	-0.05323595
2	0x3dc17780	0.09446621
3	0x3cf20fb2	0.0295485

VAE_Decoder.layers.1.attention.W_k.weight f4 [4, 4]
0	0xbe95e0b9	-0.29273012
1	0xbdc09fb9	-0.09405465
2	0xbdab0315	-0.08350197
3	0xbe8deddc	-0.27720535
4	0xbdf90968	-0.12159997
5	0xbe820e46	-0.25401515
6	0xbd504982	-0.050851353
7	0x3eba65e1	0.36405852
8	0x3eaf6511	0.34256795
9	0xbea799d8	-0.3273456
10	0xbe8f0a32	-0.27937466
11	0x3e6160c7	0.22009574
12	0xbcb8406d	-0.022491658
13	0xbea6ac87	-0.32553503
14	0xbdd9d329	-0.10635979
15	0x3dabb06f	0.083832614

VAE_Decoder.layers.1.attention.W_k.bias f4 [4]
0	0x38a9109e	8.061643e-05
1	0x3776cff6	1.4711162e-05
2	0xb883347d	-6.2563435e-05
3	0xb7afc97e	-2.0955453e-05

VAE_Decoder.layers.1.attention.W_v.weight f4 [4, 4]
0	0xbe6a9230	-0.22907329
1	0xbe84c687	-0.25932714
2	0xbd9420b9	-0.07232804
3	0x3e3c97ff	0.18417357
4	0x3ed8a3d3	0.42312488
5	0x3e6870da	0.226993
6	0xbe09d0a6	-0.134585
7	0xbdf04426	-0.11731748
8	0x3e9d258d	0.3069271
9	0xbf093748	-0.5359998
10	0x3e6d2cf0	0.23161674
11	0xbe8ec808	-0.27886987
12	0xbdf629c4	-0.12019685
13	0xbdc3e0ec	-0.09564385
14	0xbe8e8e9b	-0.27843174
15	0xbea4f774	-0.32220042

VAE_Decoder.layers.1.attention.W_v.bias f4 [4]
0	0x3c4e0a1d	0.012575653
1	0x3d95c218	0.07312411
2	0xbd429b41	-0.047511343
3	0xbc2fddf3	-0.010734069

VAE_Decoder.layers.1.linear0.weight f4 [128, 4]
0	0xbec41c76	-0.38302964
1	0xbf0b22f9	-0.5435024
2	0xbeb88fb1	-0.36047128
3	0x3f0c7256	0.5486196
4	0x3e8a611f	0.27027223
5	0xbefeb3d2	-0.49746567
6	0x3d905710	0.07047856
7	0xbe0dff8c	-0.13867015
8	0xbe2243de	-0.15846202
9	0xbefd4c6a	-0.49472362
10	0xbe319663	-0.17342524
11	0x3eb70b73	0.35750923
12	0x3e5972aa	0.21235147
13	0xbe6dc022	-0.23217824
14	0x3e24eaf9	0.1610526
15	0xbe3a99cc	-0.18222731
16	0xbd02bb34	-0.031916812
17	0x3e71082e	0.23538277
18	0xbeffd06b	-0.49963698
19	0x3ece264e	0.402636
20	0xbecf92ec	-0.4054178
21	0x3e6f8a00	0.23392487
22	0xbe3780fb	-0.17920296
23	0xbe9c8af8	-0.30574775
24	0x3c9a7cf7	0.018858416
25	0x3e81e3b6	0.25369042
26	0x3ed6ddb9	0.41966036
27	0x3ec5d54f	0.38639304
28	0x3f16e3c4	0.5894129
29	0x3dcf98fd	0.10136602
30	0x3d066671	0.03281254
31	0xbefb1f41	-0.49047282
32	0xbeead346	-0.45864314
33	0xbd01447f	-0.031559464
34	0x3f2d1d93	0.6762325
35	0x3d02f0eb	0.03196804
36	0xbe18fc98	-0.14940107
37	0xbeaf7342	-0.34267622
38	0x3efc144d	0.49234238
39	0xbda787ae	-0.08180176
40	0xbe051395	-0.12995751
41	0x3ec480ba	0.3837946
42	0x3e6eed97	0.23332821
43	0x3ea055d9	0.31315497
44	0xbe99843e	-0.29983705
45	0xbe14c4df	-0.14528225
46	0xbdc15d6b	-0.09441646
47	0x3e58fa2a	0.2118918
48	0xbe07d452	-0.13264588
49	0x3e0dec01	0.1385956
50	0x3f1b0edf	0.60569566
51	0xbea3e7d8	-0.3201282
52	0xbe6c320c	-0.23065966
53	0xbb93a40e	-0.004505641
54	0xbe8fb268	-0.280658
55	0x3f04a845	0.5181926
56	0x3e68c4ba	0.22731295
57	0xbf042a61	-0.51627165
58	0x3e80f724	0.25188553
59	0xbe172ee9	-0.14763989
60	0xbe983394	-0.2972685
61	0x3ecee54a	0.4040931
62	0x3f17b141	0.59254843
63	0xbedbbe6b	-0.42918715
64	0x3ddc5c08	0.10759741
65	0xbeecd78b	-0.46258196
66	0xbecdd283	-0.4019967
67	0x3efdfdfc	0.49607837
68	0xbdfff901	-0.124986656
69	0x3e310d22	0.17290166
70	0x3dc584d3	0.09644475
71	0x3ea4436e	0.32082695
72	0x3e91628c	0.28395498
73	0xbddc0cd4	-0.10744634
74	0xbecd3b5a	-0.40084344
75	0x3f0f7032	0.5603057
76	0xbde2c578	-0.110728204
77	0x3ec60c00	0.3868103
78	0xbd48c582	-0.049016483
79	0x3d58039d	0.05273782
80	0x3ebac71f	0.36480042
81	0xbe7905cc	-0.24318618
82	0xbea2a996	-0.3177001
83	0xbd6c4614	-0.05768402
84	0x3e052072	0.13000658
85	0x3edc962b	0.4308332
86	0x3f0fa285	0.5610736
87	0xbec82fdd	-0.39099017
88	0x3e6dd886	0.23227128
89	0xbefec967	-0.49763033
90	0x3f00bbdc	0.5028665
91	0xbe01d67e	-0.12679479
92	0x3e961350	0.2931161
93	0x3e75909e	0.23980948
94	0x3eb9ab84	0.3626367
95	0xbee0e7ce	-0.43926853
96	0x3ef0fa69	0.47066048
97	0xbc34903a	-0.011020714
98	0x3eb4d047	0.35315153
99	0x3e9fc17e	0.3120231
100	0xbf1bcc45	-0.60858566
101	0x3e8b80d6	0.27246732
102	0x3f134505	0.5752719
103	0xbecb83c9	-0.39748982
104	0xbec101d6	-0.37696713
105	0xbc6dd75b	-0.014516677
106	0xbda5c709	-0.080946036
107	0xbeafb4d4	-0.34317648
108	0x3e5f741a	0.21821633
109	0xbf03d020	-0.5148945
110	0xbf0be011	-0.54638773
111	0x3e07f2bf	0.13276194
112	0x3ee2a360	0.4426527
113	0x3e033453	0.12812929
114	0xbe04dd18	-0.12974966
115	0x3f01a2b2	0.5063888
116	0x3f073958	0.52821875
117	0xbdf5cad2	-0.120015755
118	0xbc3e212e	-0.01160459
119	0x3e300ec6	0.17193136
120	0x3f1b220f	0.60598844
121	0xbf1c01bc	-0.60940146
122	0xbee06fcf	-0.43835303
123	0xbe56b9db	-0.20969336
124	0xbee9597c	-0.45576084
125	0xbec0c7ac	-0.37652338
126	0x3e659355	0.22419484
127	0xbdd73d5f	-0.105097525
128	0x3ecb2f00	0.39684296
129	0x3ee4add7	0.4466388
130	0xbf070c84	-0.5275347
131	0x3d8f2560	0.069895506
132	0xbf146be2	-0.57977116
133	0xbe5d8fbe	-0.21636865
134	0x3db939c2	0.090442196
135	0xbe97de60	-0.29661846
136	0xbf074020	-0.5283222
137	0x3ea9fcb0	0.33200598
138	0xbe0b96a1	-0.13631679
139	0x3e6d2885	0.23159988
140	0xbe8addc7	-0.27122328
141	0x3c877ee7	0.016540004
142	0x3ecd9ce8	0.40158772
143	0x3e199c9f	0.15001152
144	0xbefccd61	-0.49375442
145	0xbdd68229	-0.10474045
146	0x3d69e1e2	0.057100184
147	0xbcaccf56	-0.02109496
148	0xbdc12cd0	-0.094323754
149	0x3ee86f42	0.45397383
150	0xbefa5087	-0.48889562
151	0x3f15c6d3	0.58506507
152	0x3ece4ba9	0.402921
153	0x3d91ebaa	0.071250275
154	0x3eaaa6de	0.33330435
155	0xbdcd4ca4	-0.10024384
156	0xbe5b2933	-0.21402435
157	0xbe66443d	-0.22486968
158	0x3f16a324	0.5884268
159	0xbef0cf3a	-0.470331
160	0x3e02ba46	0.1276637
161	0xbcdf5c00	-0.027265549
162	0xbed4783c	-0.41497982
163	0xbef89e8a	-0.48558456
164	0x3f23fb80	0.64055634
165	0xbd5cf752	-0.0539468
166	0xbd176158	-0.03695807
167	0xbe0b3dfd	-0.13597865
168	0xbe8bbc20	-0.27291965
169	0x3e7864f9	0.24257268
170	0x3f1326b1	0.57480913
171	0xbc11c292	-0.008896487
172	0x3ea673d5	0.32510248
173	0x3e7b824c	0.24561423
174	0x3d426e04	0.0474682
175	0xbec82303	-0.39089212
176	0x3f3e8967	0.7442841
177	0xbe4050e0	-0.18780851
178	0x3e31f381	0.17378046
179	0xbf232ecd	-0.6374329
180	0x3e5915a3	0.2119966
181	0x3c86c290	0.016450197
182	0xbdfc4d22	-0.123193994
183	0x3efb5beb	0.49093565
184	0xbed28625	-0.4111797
185	0x3eeeec2c	0.4666456
186	0x3ee69164	0.450328
187	0xbeb970c7	-0.36218855
188	0xbec8f9c0	-0.39253044
189	0x3ee582bb	0.44826302
190	0x3f1278ce	0.57215583
191	0x3e29d935	0.16586764
192	0xbf786548	-0.9702954
193	0x3e5dd786	0.21664247
194	0xbf064e3d	-0.5246313
195	0xbed80892	-0.4219404
196	0xbeee92ce	-0.46596378
197	0x3f02815e	0.5097865
198	0xbe3484cd	-0.17628784
199	0x3e41e1cb	0.1893379
200	0x3ea44730	0.32085562
201	0xbe200465	-0.15626676
202	0xbe6ce57b	-0.23134415
203	0xbd3c702f	-0.046005424
204	0xbf044a44	-0.5167582
205	0x3ed101c6	0.40821666
206	0xbd9e7daf	-0.07738816
207	0x3e982997	0.2971923
208	0xbe91cd74	-0.2847706
209	0xbeacee3a	-0.33775502
210	0x3cac8e14	0.021063842
211	0xbecc6cbb	-0.39926705
212	0x3df06359	0.11737699
213	0x3ef28df2	0.4737392
214	0xbefeabaa	-0.49740344
215	0x3e896c9c	0.26840675
216	0x3eff8693	0.4990736
217	0x3e6ce349	0.23133577
218	0xbecc7331	-0.39931634
219	0xbf04442e	-0.51666534
220	0x3f17a416	0.5923475
221	0xbe8da104	-0.27661908
222	0xbe9166bb	-0.2839869
223	0x3e24b0c7	0.1608306
224	0xbf110e4a	-0.5666243
225	0x3e99783c	0.29974544
226	0x3e867e44	0.26268208
227	0x3ec60721	0.38677314
228	0xbe893ad1	-0.26802686
229	0xbed310eb	-0.41223845
230	0xbde5c1a0	-0.11218572
231	0x3f0380ed	0.513686
232	0xbeda169d	-0.42595378
233	0xbf1c0d51	-0.6095782
234	0xbe4a04d9	-0.19728412
235	0x3e785d08	0.24254239
236	0x3e94107b	0.28918824
237	0x3ca4734a	0.020074505
238	0xbf033c5a	-0.51263964
239	0xbefc7083	-0.4930459
240	0xbe732149	-0.23743166
241	0x3e9fffca	0.3124984
242	0xbeb46dad	-0.35239926
243	0x3edcc59c	0.43119514
244	0xbec3214a	-0.38111335
245	0x3e46c241	0.1941004
246	0x3e35fa0d	0.17771168
247	0xbdacc5a7	-0.08436137
248	0xbeca9222	-0.39564615
249	0xbeb0bfdc	-0.34521377
250	0xbed4a07e	-0.41528696
251	0x3f28ed01	0.6598664
252	0x3f1798f4	0.5921776
253	0x3d79dbff	0.06100082
254	0xbed5a86c	-0.41730058
255	0xbe0248be	-0.12723061

VAE_Decoder.layers.1.linear0.bias f4 [128]
0	0xbdd25c3b	-0.10271498
1	0x3dd3657f	0.10322093
2	0x3c0681c9	0.008209654
3	0x3eec2573	0.4612232
4	0x3e8aa986	0.2708246
5	0x3d47f1d2	0.048814602
6	0x3ec37626	0.38176078
7	0xbe2ef8f3	-0.17087154
8	0x3c6ec57b	0.01457345
9	0x3e983614	0.29728758
10	0x3d784c05	0.060619373
11	0x3ef6142a	0.4806226
12	0xbdcea7bd	-0.10090587
13	0x3f10d418	0.5657363
14	0xbe964809	-0.29351833
15	0x3da1d575	0.07902042
16	0x3e8bc8a5	0.27301517
17	0x3e873375	0.26406446
18	0xbec3deea	-0.38256007
19	0xbeb9aef6	-0.36266297
20	0x3e847f8e	0.25878567
21	0x3daf53f4	0.08560935
22	0x3c9e8e97	0.019355102
23	0xbeaad72b	-0.33367285
24	0xbe4a2f14	-0.19744521
25	0xbd5c5dd4	-0.05380042
26	0x3e8d71a1	0.27625754
27	0x3e2f96c2	0.17147353
28	0xbe1ab3b6	-0.15107617
29	0xbe8d96cf	-0.2765412
30	0xbe95fab0	-0.29292822
31	0xbc6cb112	-0.014446514
32	0x3e945ec1	0.28978541
33	0xbc2894e9	-0.010289409
34	0xbea7ff51	-0.32811978
35	0x3de8ef25	0.11373738
36	0x3ea0c8bc	0.31403148
37	0x3f05ba20	0.5223713
38	0x3eaa071e	0.33208555
39	0xbe874e4e	-0.2642693
40	0x3c2c1948	0.010504074
41	0x3e04e0dd	0.12976404
42	0xbcf24f00	-0.029578686
43	0x3eeb4b38	0.45955825
44	0xbceb32fc	-0.028710835
45	0xbe473e68	-0.194574
46	0x3e111b35	0.14170535
47	0x3daac074	0.08337489
48	0xbec88fa3	-0.39172086
49	0x3ef011ea	0.46888667
50	0x3ebca904	0.368477
51	0xbe56234c	-0.20911902
52	0xbd4c30e2	-0.049851306
53	0xbd26b26a	-0.040697493
54	0xbdfb86e0	-0.12281585
55	0x3d8da3a9	0.06915981
56	0xbebcf339	-0.36904314
57	0x3e3dc5b9	0.18532456
58	0xbc7832c4	-0.015148822
59	0x3ea68ab6	0.32527703
60	0x3e359484	0.17732435
61	0xbe4a45a4	-0.19753128
62	0xbe9e3011	-0.30896047
63	0x3ee77ed0	0.45213938
64	0x3ed2bdd3	0.4116045
65	0x3eaaa7a6	0.3333103
66	0xbe4616ef	-0.19344686
67	0x3f12bd6b	0.5732028
68	0x3e2438f3	0.1603735
69	0x3e9c3d23	0.30515394
70	0xbea65963	-0.32490072
71	0x3e147c99	0.14500655
72	0x3ede2a38	0.43391585
73	0xbee3276b	-0.4436601
74	0xbece102b	-0.4024671
75	0xbdee3182	-0.116305366
76	0x3db55984	0.088549644
77	0xbeb9f0e9	-0.36316612
78	0x3f0b4f17	0.54417557
79	0xbe94a36e	-0.29030937
80	0xbef27e5a	-0.47362024
81	0x3e836e41	0.25670055
82	0x3d2dddd8	0.042447895
83	0xbd9f673e	-0.07783364
84	0x3efdbf07	0.49559805
85	0x3d2635f2	0.04057879
86	0xbe6004a0	-0.21876764
87	0x3ea238b9	0.316839
88	0xbd97bc73	-0.07408991
89	0x3ea7aa98	0.3274734
90	0x3e04fe44	0.1298762
91	0xbe75ebfb	-0.240158
92	0xbecd4f75	-0.40099683
93	0xbe15da98	-0.14634168
94	0xbbad1bcd	-0.005282855
95	0xbeb0752b	-0.34464392
96	0x3f008801	0.50207525
97	0x3de951bf	0.11392545
98	0xbed8d445	-0.4234945
99	0x3cfd5e52	0.030928764
100	0x3e9bb3b2	0.30410534
101	0x3e4cb3b6	0.1999043
102	0x3ef17176	0.47156876
103	0xbe249202	-0.16071323
104	0x3e894b14	0.26815093
105	0xbe38abee	-0.18034336
106	0xbe744203	-0.23853306
107	0x3de9dc0e	0.11418925
108	0x3db3664e	0.087597474
109	0x3ef2c8a4	0.47418702
110	0xbc4abc22	-0.012373956
111	0xbe511cec	-0.20421189
112	0xbe855861	-0.2604399
113	0x3e46db0e	0.194195
114	0xbee06eae	-0.43834442
115	0x3ef2886c	0.47369707
116	0x3edf6883	0.43634424
117	0xbe989e5a	-0.29808313
118	0x3d0cf212	0.034410544
119	0xbeb9502c	-0.3619398
120	0x3ed67023	0.4188243
121	0x3e5a7a6b	0.21335761
122	0x3e94d07f	0.2906532
123	0x3dcc5f92	0.09979166
124	0xbe034236	-0.12818226
125	0x3f059c1e	0.5219134
126	0x3ee698f7	0.45038578
127	0xbeb36ab9	-0.3504236

VAE_Decoder.layers.1.linear1.weight f4 [4, 128]
0	0x3e8cae9d	0.2747697
1	0x3b4222ca	0.0029622787
2	0x3e0275e9	0.12740292
3	0x3c8751a0	0.016518414
4	0x3e2839e9	0.16428341
5	0xbdf594dd	-0.11991284
6	0xbc818050	-0.015808254
7	0x3e1a9cb7	0.15098844
8	0xbe241bbc	-0.16026205
9	0xbd00cd60	-0.03144586
10	0xbb20a1ef	-0.0024510582
11	0xbd2a6e9c	-0.04160939
12	0xbbe22e30	-0.0069024786
13	0x3d05c9c6	0.03266313
14	0xbcc67f11	-0.024230512
15	0xbd56d113	-0.052445482
16	0x3e2889fb	0.16458885
17	0xbe123301	-0.14277269
18	0x3c0ba715	0.008523722
19	0x3cbb13f7	0.022836668
20	0x3e43f51e	0.19136474
21	0xbdaa621c	-0.08319494
22	0x3c9e9362	0.019357387
23	0x3d79c827	0.060981896
24	0xbdacb61b	-0.08433171
25	0xbe500855	-0.20315678
26	0xbe209d84	-0.15685087
27	0x3e4d2148	0.20032227
28	0x3e6d7216	0.23188052
29	0xbd4c2b67	-0.04984608
30	0x3f07f337	0.5310549
31	0xbe057109	-0.130314
32	0x3ca0719f	0.019585429
33	0xbdd26cd1	-0.10274661
34	0xbdc97016	-0.09835832
35	0xbd998683	-0.07496359
36	0xbe26d7b3	-0.1629322
37	0x3abc4336	0.0014363292
38	0x3e057617	0.13033329
39	0xbe157e32	-0.14598921
40	0x3e0847c8	0.13308632
41	0x3e873af9	0.2641218
42	0xbdae314a	-0.08505495
43	0x3c9b07af	0.018924562
44	0x3e3bb20b	0.18329637
45	0x3dac06dd	0.083997466
46	0xbda779da	-0.08177538
47	0xbe2e836d	-0.17042322
48	0xbdc476aa	-0.09592946
49	0xbdd9b3cc	-0.10629997
50	0x3e502cfa	0.20329657
51	0xbd63e6eb	-0.055640142
52	0xbe341314	-0.17585403
53	0x3dd992a9	0.10623676
54	0x3df81019	0.121124454
55	0x3dffad30	0.12484205
56	0xbd8d3494	-0.06894794
57	0x3d5cbfee	0.053893976
58	0x3aed8b54	0.0018123188
59	0x3e147063	0.14495997
60	0x3d49f67d	0.049307335
61	0xbe66006c	-0.22461098
62	0x3ebfb18b	0.37440142
63	0x3e38e5c7	0.18056403
64	0xbdc01ae5	-0.0938013
65	0x3b25492b	0.0025220613
66	0x3e4bd335	0.19904788
67	0x3d96c968	0.07362634
68	0xbd9ecb59	-0.07753629
69	0x3dff3602	0.12461473
70	0x3d354497	0.044254865
71	0xbe349217	-0.17633854
72	0xbdc7de2b	-0.09759172
73	0x3bd685d6	0.006546716
74	0x3f1fe6ed	0.6246174
75	0x3e81cc2a	0.25351077
76	0x3e1f9c92	0.1558707
77	0xbd80dfde	-0.06292699
78	0xbdb8e2a3	-0.090276025
79	0xbd904968	-0.07045251
80	0x3db1241c	0.086494654
81	0xbe100aa7	-0.14066564
82	0xbd419869	-0.04726449
83	0x3df75590	0.120768666
84	0x39e47b5f	0.00043579467
85	0xbe1d3d04	-0.15355307
86	0xbda0be16	-0.07848756
87	0xbd06adb0	-0.032880485
88	0x3d394a7f	0.04523706
89	0xbd6e8b5f	-0.058238383
90	0x3d172a3d	0.036905516
91	0xbd8cbed0	-0.06872332
92	0x3cd474d6	0.025934618
93	0x3e38d629	0.18050446
94	0x3bcc6632	0.0062377686
95	0x3c8df1a2	0.017327134
96	0xbd2c3c7e	-0.042049877
97	0x3d9d285a	0.07673712
98	0xbd9029a1	-0.0703919
99	0x3e3c6adb	0.18400137
100	0x3e549ebe	0.2076368
101	0x3db94ce6	0.0904787
102	0xbdf8a075	-0.1213998
103	0x3e2772f0	0.16352439
104	0x3cd07760	0.025447547
105	0x3e35d73c	0.17757887
106	0x3bb12ac0	0.0054067075
107	0x3e2caa97	0.1686195
108	0x3e3b859e	0.1831269
109	0x3dedcdc6	0.11611514
110	0x3dbdbc4c	0.092644304
111	0x3e19027f	0.14942358
112	0x3de202ac	0.11035666
113	0xbd943a6b	-0.07237705
114	0x3dacaecb	0.084317766
115	0x3ded365d	0.115826346
116	0x3e4b7b4e	0.19871256
117	0x3e2b7424	0.16743523
118	0x3d9f30fa	0.077730134
119	0xbc9db721	-0.019252362
120	0xbe089242	-0.13337043
121	0xbe231d5e	-0.15929171
122	0x3de262f6	0.110540316
123	0x3e54477e	0.20730397
124	0x3e3f9610	0.18709588
125	0xbe1197e2	-0.14218095
126	0x3e34a0b3	0.17639427
127	0xbd5a6b1f	-0.053324815
128	0xbda6e75c	-0.08149597
129	0xbcb98172	-0.022644732
130	0xbd9b8a59	-0.07594747
131	0x3d075973	0.03304429
132	0xbe603c00	-0.21897888
133	0x3da17cc7	0.078851275
134	0x3d18bca0	0.03728926
135	0xbde08a5c	-0.1096389
136	0x3e2d96ef	0.16952108
137	0x3d9505da	0.07276507
138	0x3d13b340	0.036059618
139	0x3d12fd0c	0.035885856
140	0x3e3198f7	0.17343508
141	0xbe36c81c	-0.17849773
142	0x3dc4ea61	0.09615017
143	0x3dce0a1e	0.100605235
144	0xbdbf41de	-0.09338735
145	0xbc82669b	-0.015918067
146	0xbddca334	-0.10773316
147	0xbcbb280d	-0.022846246
148	0xbdc5e11b	-0.09662076
149	0x3d8804eb	0.06641563
150	0x3e06b484	0.13154799
151	0x3db213cf	0.086951844
152	0x3d701148	0.05861023
153	0x3e04ce81	0.129694
154	0x3c736a2b	0.014856855
155	0xbd5e488e	-0.054268412
156	0xbe2af84d	-0.16696282
157	0xbe3df037	-0.18548666
158	0xbe962839	-0.29327562
159	0x3d854a9f	0.065083735
160	0xbe483ed9	-0.19555224
161	0x3e2bae74	0.16765767
162	0xbdab5d07	-0.08367353
163	0x3e136a42	0.14396003
164	0x3c34f222	0.011044057
165	0xbe231915	-0.15927537
166	0x3d7a751c	0.06114684
167	0x3db3cdda	0.087794974
168	0xbdd59fe4	-0.10430887
169	0xbdf547ae	-0.119765624
170	0x3dc0a429	0.09406311
171	0x3c56c8a1	0.013109357
172	0xbdd3cefa	-0.10342212
173	0xbdd59630	-0.104290366
174	0x3cb9fcc2	0.022703532
175	0x3d2bdb9f	0.041957494
176	0x3bf4fd14	0.0074764583
177	0x3d827a67	0.06371003
178	0xbdaffddf	-0.08593344
179	0xbcf09fd5	-0.029373089
180	0x3d272a76	0.04081198
181	0xbdbfd344	-0.093664676
182	0xbe2b607b	-0.16736023
183	0xbdbfd73a	-0.09367223
184	0xbbbcc6b0	-0.00576099
185	0xbdd46ba1	-0.10372091
186	0xb90bddeb	-0.00013338744
187	0xbe4b55ea	-0.19856992
188	0xbde1439a	-0.10999222
189	0x3d4bcaca	0.04975394
190	0xbdf0bdeb	-0.11754974
191	0xbe5d7841	-0.21627904
192	0x3ce343f3	0.027742362
193	0x3c57f1e8	0.013180234
194	0xbd79b9a7	-0.060968067
195	0xbe839b82	-0.2570458
196	0x3dfcbfcc	0.1234127
197	0xbe36a9c9	-0.17838205
198	0xbd9eb405	-0.0774918
199	0x3e4fd1f5	0.20294936
200	0x3de8caee	0.11366831
201	0x3d715874	0.058922246
202	0xbe497258	-0.19672525
203	0xbe1ddd31	-0.15416409
204	0xbdd0564c	-0.1017271
205	0x3d8036a5	0.062604226
206	0x3e1c3d5d	0.15257783
207	0x3dca5fdc	0.09881565
208	0xbe0d02de	-0.13770625
209	0xbd0237df	-0.031791564
210	0x3e0d2c80	0.13786507
211	0xbddf8aba	-0.10915132
212	0x3d5f6aaf	0.0545451
213	0x3e4387f9	0.19094838
214	0x3e1dadd1	0.15398337
215	0x3d99db86	0.07512574
216	0xbde356b3	-0.11100521
217	0x3dd7b322	0.10532214
218	0xbda43465	-0.08017806
219	0xbd6fcac3	-0.058542978
220	0xbe972ba3	-0.2952548
221	0xbceb9189	-0.02875592
222	0xbe46c790	-0.19412065
223	0x3e2e34e8	0.1701237
224	0x3d03b290	0.032152712
225	0xbef828fc	-0.4846877
226	0x3d5f1575	0.054463822
227	0xbe4c7ef3	-0.19970302
228	0xbdce4e77	-0.1007356
229	0xbc391d62	-0.011298509
230	0xbd169abb	-0.036768656
231	0xbe841b37	-0.25802013
232	0xbe1c392e	-0.15256187
233	0xbd237cf4	-0.039914086
234	0x3e31c188	0.17358983
235	0xbd9cea1c	-0.0766184
236	0xbd97b4e3	-0.07407548
237	0xbd799392	-0.06093175
238	0x3db7a577	0.08967107
239	0xbd339c9d	-0.04385053
240	0xbe20bb00	-0.15696335
241	0x3d16d408	0.036823303
242	0xbba3553b	-0.0049845255
243	0xbdcd530c	-0.100256056
244	0xbd1292ea	-0.03578464
245	0xbe5715ca	-0.21004406
246	0x3da84e1d	0.08218024
247	0xbe2e6f6f	-0.17034696
248	0x3e047e4a	0.129388
249	0x3d88ac74	0.06673518
250	0xbe4e4ea9	-0.20147194
251	0xbdc8e45a	-0.098091796
252	0xbe8caf2b	-0.27477393
253	0x3cb84848	0.022495404
254	0xbe3bb9ac	-0.18332547
255	0x3e09fb79	0.13474835

VAE_Decoder.layers.1.linear1.bias f4 [4]
0	0xbc1c5100	-0.009540796
1	0x3d170563	0.03687037
2	0x3a4eee03	0.0007893743
3	0xbd428c33	-0.047496986

VAE_Decoder.layers.1.norm1.weight f4 [4]
0	0x3f9ca245	1.2237021
1	0x3f95f5f5	1.1715685
2	0x3f9c1f5d	1.2197071
3	0x3f9e94f6	1.2389209

VAE_Decoder.layers.1.norm1.bias f4 [4]
0	0xbbcd512a	-0.006265779
1	0x3d910240	0.07080507
2	0xbd5357ee	-0.05159753
3	0xbd854991	-0.06508172

VAE_Decoder.layers.1.norm0.weight f4 [4]
0	0x3f6aa933	0.9166443
1	0x3f843e3e	1.0331495
2	0x3f930a28	1.1487474
3	0x3f7607d8	0.9610572

VAE_Decoder.layers.1.norm0.bias f4 [4]
0	0x3ce1d7ec	0.02756878
1	0x3ce5d876	0.028057318
2	0xbc95dbf0	-0.018293351
3	0x3cb0a176	0.021561366

VAE_Decoder.last_normalization.weight f4 [4]
0	0x3f800000	1.0
1	0x3f800000	1.0
2	0x3f800000	1.0
3	0x3f800000	1.0

VAE_Decoder.last_normalization.bias f4 [4]
0	0x00000000	0.0
1	0x00000000	0.0
2	0x00000000	0.0
3	0x00000000	0.0

VAE_Decoder.head.weight f4 [4, 4]
0	0xbe3a70ac	-0.18207043
1	0x3e839d9e	0.2570619
2	0x3eb14cbc	0.34628856
3	0x3e068a48	0.13138688
4	0xbe8c0cdc	-0.2735356
5	0xbe824ba0	-0.25448322
6	0xbe12e5dc	-0.14345497
7	0xbd5dfd10	-0.054196417
8	0x3c77e180	0.015129447
9	0xbee5d686	-0.4489023
10	0xbef51fda	-0.47875863
11	0x3dd92908	0.10603529
12	0xbe96e932	-0.2947479
13	0x3e9e0710	0.30864763
14	0xbd0201c0	-0.03173995
15	0xbed02fe4	-0.40661538

VAE_Decoder.head.bias f4 [4]
0	0xbea5b21e	-0.32362455
1	0x3e24f420	0.16108751
2	0x3e7fbf9c	0.24975437
3	0xba12bc00	-0.0005597472

Detokenizer.weight f4 [10, 4]
0	0xbe1dee1d	-0.15422864
1	0x3e60d4d2	0.21956185
2	0x3e3b34cc	0.18281859
3	0x3ea4b54a	0.32169563
4	0x3d0380d8	0.032105297
5	0x3eb09b79	0.34493616
6	0x3e2855e3	0.16439013
7	0x3d504e36	0.050855838
8	0xbed53d36	-0.41648263
9	0xbe4c9eed	-0.199825
10	0x3e1233e5	0.14277609
11	0xbe259eeb	-0.16173904
12	0x3ec4033d	0.3828372
13	0x3d285ca1	0.041103963
14	0xbe2f819d	-0.17139287
15	0x3e99501d	0.29943934
16	0xbe112bea	-0.14176908
17	0xbe3be328	-0.18348372
18	0x3ebead2b	0.37241492
19	0x3e4958e1	0.19662811
20	0x3e2b89e8	0.16751826
21	0x3ee38a5b	0.44441494
22	0x3eac72cf	0.33681342
23	0x3ebe026d	0.37111226
24	0xbe1bf39f	-0.15229653
25	0x3c984e93	0.018592155
26	0x3ef56012	0.47924858
27	0x3e5704f7	0.20997988
28	0x3d44d04a	0.048050202
29	0xbecc6143	-0.39917955
30	0xbe07d048	-0.13263047
31	0x3e877d62	0.26462847
32	0xbe63b4c6	-0.22236928
33	0xbd813f74	-0.06310931
34	0xbde0107a	-0.10940643
35	0xbeea7321	-0.4579096
36	0x3db01f91	0.08599771
37	0xbeaa080e	-0.3320927
38	0xbe5b00f2	-0.2138708
39	0x3ee5a64f	0.44853446

Detokenizer.cat_recons.0.weight f4 [2, 4]
0	0x3d9b30d2	0.07577671
1	0x3f4ba946	0.79555166
2	0xbebc02c6	-0.36720866
3	0xbf0d73b9	-0.55254704
4	0x3e8775a0	0.26456928
5	0xbeba4b32	-0.36385494
6	0xbcb78f7d	-0.022407288
7	0xbd746e42	-0.059675463

Detokenizer.cat_recons.0.bias f4 [2]
0	0xbe7e1bcf	-0.24815296
1	0x3ebec359	0.37258413

Detokenizer.cat_recons.1.weight f4 [3, 4]
0	0xbeca4a04	-0.39509594
1	0xbf2f63b8	-0.68511534
2	0xbf1b7c4a	-0.60736525
3	0xbf13fbdc	-0.5780618
4	0x3ef60c7a	0.48056394
5	0xbf601425	-0.8753074
6	0x3f24500a	0.6418463
7	0xbe569aa3	-0.20957427
8	0x3e5088a2	0.20364621
9	0x3f492e6b	0.78586453
10	0xbc8304c5	-0.015993485
11	0xbf27f5e0	-0.6560955

Detokenizer.cat_recons.1.bias f4 [3]
0	0xbe80330e	-0.25038952
1	0x3ecf3703	0.40471658
2	0x3e5c43a5	0.2151018

Detokenizer.cat_recons.2.weight f4 [9, 4]
0	0x3ec30e9c	0.38097084
1	0xbf0f95d3	-0.5608799
2	0x3d85d6de	0.06535123
3	0xbef829d3	-0.4846941
4	0xbe2f74a3	-0.17134337
5	0x3f9c967e	1.2233427
6	0xbe8a49bf	-0.2700939
7	0xbeeb48ba	-0.45953923
8	0xbf25e30c	-0.6479957
9	0x3e8a1abc	0.26973522
10	0x3f2914c6	0.6604732
11	0x3eb80876	0.35943955
12	0x3eb3caeb	0.35115752
13	0x3e95b814	0.29242003
14	0x3f08b660	0.5340328
15	0xbed27002	-0.4110108
16	0xbf8058de	-1.002712
17	0xbe052d40	-0.13005543
18	0xbf18eb99	-0.59734493
19	0xbd79e4dd	-0.061009277
20	0x3e51c60c	0.20485705
21	0x3db57b20	0.08861375
22	0x3e9672b8	0.29384398
23	0xbe156c49	-0.14592089
24	0xbd9a499d	-0.07533572
25	0xbe81ca36	-0.25349587
26	0x3dc84bd3	0.09780087
27	0x3efae2b8	0.49001098
28	0xbe8e78de	-0.2782659
29	0xbe70524c	-0.23468894
30	0x3eedc63d	0.46440306
31	0xbdf94136	-0.12170641
32	0xbd976d24	-0.07393864
33	0xbd99b49b	-0.07505151
34	0x3ecf0dcf	0.40440223
35	0x3d9e2e0f	0.07723629

Detokenizer.cat_recons.2.bias f4 [9]
0	0x3f0502b4	0.5195725
1	0xbd0b217f	-0.03396749
2	0x3e3089fc	0.17240137
3	0xbde95cfa	-0.11394687
4	0x3ea7a2b6	0.32741326
5	0x3e8604f3	0.2617565
6	0x3e03a678	0.12856472
7	0xbecf1da1	-0.40452293
8	0x3dc2fc25	0.09520749

Detokenizer.cat_recons.3.weight f4 [13, 4]
0	0x3f0643b4	0.52447057
1	0xbeb257f1	-0.3483272
2	0xbecf28ff	-0.40460965
3	0xbe03f012	-0.12884548
4	0x3f195d28	0.5990777
5	0x3f840b42	1.0315936
6	0xbd76cf17	-0.06025609
7	0x3e79a44f	0.24379085
8	0x3e84125d	0.2579526
9	0xbed936c8	-0.42424607
10	0x3eeda562	0.4641524
11	0x3e80c78a	0.25152236
12	0xbf809d6c	-1.0048041
13	0x3ea12f9b	0.31481633
14	0x3db873f5	0.09006492
15	0x3c6e25b3	0.014535355
16	0xbe553fa0	-0.20825052
17	0x3f1bd466	0.6087097
18	0x3ec0e868	0.37677312
19	0xbedb5c19	-0.42843702
20	0x3b2686f0	0.002541002
21	0x3dfbcb00	0.122945786
22	0x3ead1b48	0.33809876
23	0xbf505a7f	-0.81388086
24	0xbf04f27a	-0.5193249
25	0xbe137545	-0.14400204
26	0x3ec59da6	0.3859684
27	0xbddb50d6	-0.107087776
28	0xbf0542fe	-0.52055347
29	0xbe1e0ea5	-0.15435274
30	0xbe3a3d82	-0.18187526
31	0xbdffeaf7	-0.12495988
32	0xbea23187	-0.3167841
33	0xbed6639f	-0.4187288
34	0x3e1140f8	0.1418494
35	0xbe6cd183	-0.23126797
36	0xbec344a7	-0.38138315
37	0xbe2b24bf	-0.16713236
38	0x3e8e6717	0.27813026
39	0x3e15e036	0.14636311
40	0xbd98e1f6	-0.07464974
41	0xbea154d0	-0.3151002
42	0x3e416fcc	0.18890303
43	0xbd0e2364	-0.03470172
44	0x3db031d8	0.08603257
45	0xbd829021	-0.06375147
46	0x3de6cbf5	0.112693705
47	0xbec2e0f4	-0.3806225
48	0xbe72f2e1	-0.23725463
49	0xbed43e81	-0.41453937
50	0x3ebbd3f8	0.36685157
51	0xbd67b506	-0.05656912

Detokenizer.cat_recons.3.bias f4 [13]
0	0x3eba51c4	0.36390507
1	0x3df91aeb	0.12163337
2	0xbd15d554	-0.0365804
3	0xbf2499ea	-0.64297354
4	0xbefb60d4	-0.49097311
5	0xbf0b74b6	-0.5447496
6	0x3e83bbfb	0.25729355
7	0xbed0d66d	-0.40788594
8	0x3e51230c	0.20423526
9	0x3e568c8e	0.20952055
10	0x3d1a8dbe	0.037732832
11	0xbf28d180	-0.6594467
12	0xbe8d05a6	-0.27543372

Detokenizer.cat_recons.4.weight f4 [6, 4]
0	0x3e8cab01	0.27474216
1	0x3e0db8ec	0.13840073
2	0xbe724b4d	-0.23661537
3	0xbc42937e	-0.011875985
4	0xbf715b92	-0.9428035
5	0x3d8d0d40	0.06887293
6	0x3f34efe6	0.70678556
7	0xbe989dca	-0.29807884
8	0xbe93ff28	-0.28905606
9	0x3f633921	0.88759047
10	0xbe350ce9	-0.17680706
11	0x3e46bd6f	0.194082
12	0xbe500d19	-0.20317496
13	0x3e8ce3f2	0.27517658
14	0x3f3b3bd0	0.7313814
15	0xbe087eb8	-0.1332959
16	0xbf166f52	-0.5876361
17	0xbe63a117	-0.2222942
18	0x3ed21073	0.41028175
19	0xbe994b35	-0.2994019
20	0xbeb71559	-0.35758474
21	0x3dab2529	0.08356697
22	0x3ebee7c3	0.37286195
23	0x3f11717f	0.56813806

Detokenizer.cat_recons.4.bias f4 [6]
0	0x3e84a8a2	0.25909907
1	0xbd4d3255	-0.05009683
2	0xbf1d36c0	-0.61411667
3	0xbedbe6b9	-0.42949465
4	0xbe50172a	-0.20321336
5	0x3e817e20	0.25291538

Detokenizer.cat_recons.5.weight f4 [2, 4]
0	0xbe5ea514	-0.2174266
1	0x3e3c4365	0.18385084
2	0xbe89f45f	-0.26944253
3	0x3f405aee	0.7513875
4	0x3f208ea4	0.6271765
5	0xbede7087	-0.43445227
6	0xbd5b80f3	-0.053589772
7	0xbf44955a	-0.7679039

Detokenizer.cat_recons.5.bias f4 [2]
0	0xbe270d63	-0.163137
1	0x3e741db8	0.23839462

Detokenizer.cat_recons.6.weight f4 [2, 4]
0	0x3e9e2769	0.30889443
1	0x3ed8f6da	0.42375833
2	0xbcc3cf56	-0.023902576
3	0x3d506644	0.050878778
4	0xbeede631	-0.46464685
5	0x3f05c642	0.5225564
6	0xbeb1b3cf	-0.34707496
7	0xbf2b766b	-0.66977566

Detokenizer.cat_recons.6.bias f4 [2]
0	0xbef5994b	-0.47968516
1	0x3c07c57c	0.00828683

Detokenizer.cat_recons.7.weight f4 [2, 4]
0	0x3e0a3cdd	0.1349978
1	0xbf2bf094	-0.6716397
2	0x3da3f1e7	0.080051236
3	0xbcd8df2e	-0.026473608
4	0xbf5a201a	-0.85205233
5	0xbe366de0	-0.17815351
6	0xbde869be	-0.11348294
7	0xbe00e91b	-0.12588923

Detokenizer.cat_recons.7.bias f4 [2]
0	0xbe908dfd	-0.28233328
1	0x3e9a9799	0.30193785

Detokenizer.cat_recons.8.weight f4 [2, 4]
0	0x3f0277b0	0.5096388
1	0x3e9a33de	0.30117697
2	0x3f52b0a4	0.8230078
3	0xbdecdcbb	-0.115655385
4	0xbe3dc82a	-0.18533388
5	0xbf4c8441	-0.79889303
6	0xbec6d2d8	-0.38832736
7	0x3dbafe11	0.091304906

Detokenizer.cat_recons.8.bias f4 [2]
0	0xbb0a9172	-0.002114382
1	0x3deb829a	0.1149952

Detokenizer.cat_recons.9.weight f4 [2, 4]
0	0xbd11106b	-0.035416048
1	0xbeec07e5	-0.46099773
2	0xbce8ee1d	-0.028433854
3	0xbef65db1	-0.48118356
4	0xbeadc73e	-0.33941072
5	0x3f3360d6	0.70069635
6	0xbd810da1	-0.06301428
7	0x3e209090	0.15680146

Detokenizer.cat_recons.9.bias f4 [2]
0	0xbdb1b1cb	-0.086764894
1	0xbe91e982	-0.28498465

Detokenizer.cat_recons.10.weight f4 [5, 4]
0	0xbe36efe8	-0.17864954
1	0xbf22f502	-0.636551
2	0xbeea7266	-0.45790404
3	0xbbc96bf0	-0.0061469004
4	0xbec8fab7	-0.3925378
5	0x3f63d38c	0.8899467
6	0x3ed310c3	0.41223726
7	0x3ea607a8	0.32427716
8	0x3de333f7	0.11093896
9	0xbd5c2593	-0.05374677
10	0xbdda0262	-0.10644986
11	0x3f7e57b9	0.99352604
12	0xbf2f8d83	-0.68575305
13	0xbebc1379	-0.36733606
14	0x3eedd5e8	0.4645226
15	0xbf0d27cc	-0.5513885
16	0x3dfe4d4c	0.12417087
17	0x3e85bd93	0.26121196
18	0x3e6f0ce4	0.23344761
19	0xbc22885c	-0.009920206

Detokenizer.cat_recons.10.bias f4 [5]
0	0xbdfbf75c	-0.123030394
1	0xbdb1241b	-0.08649465
2	0x3e5a063d	0.21291442
3	0xbe1d0cfe	-0.15336987
4	0x3d38222f	0.044954475

Detokenizer.cat_recons.11.weight f4 [5, 4]
0	0xbf1ec2d7	-0.6201605
1	0x3e19303e	0.14959809
2	0xbf054d81	-0.52071387
3	0xbf3afe6c	-0.73044467
4	0x3f6faa01	0.9361878
5	0x3eeb572d	0.45964947
6	0x3e2b5e01	0.16735078
7	0xbe4cf576	-0.20015511
8	0xbd945706	-0.07243161
9	0x3f801184	1.0005345
10	0x3cfaae4d	0.030600691
11	0x3aa2b585	0.0012413716
12	0x3f2ddc82	0.67914593
13	0xbf1c4140	-0.61037064
14	0xbf117861	-0.5682431
15	0x3ee27ac3	0.44234285
16	0x3ece4fc2	0.40295225
17	0xbf3e80a8	-0.74415064
18	0xbe814c94	-0.25253737
19	0xbf45cbc8	-0.7726407

Detokenizer.cat_recons.11.bias f4 [5]
0	0xbedefec0	-0.43553734
1	0x3edd43b6	0.43215722
2	0xbd864bcc	-0.06557426
3	0xbe83d9b4	-0.25752032
4	0xbd2aec4b	-0.041729253

Detokenizer.cat_recons.12.weight f4 [2, 4]
0	0x3f32f6c9	0.69907814
1	0x3e2e3df9	0.17015828
2	0xbf33616c	-0.7007053
3	0x3ececc04	0.40390027
4	0xbe3c2ed6	-0.18377241
5	0xbf04d897	-0.5189299
6	0x3e8a63de	0.27029318
7	0x3d643881	0.05571795

Detokenizer.cat_recons.12.bias f4 [2]
0	0xbe228e78	-0.1587466
1	0xbf03357a	-0.51253474

Detokenizer.cat_recons.13.weight f4 [2, 4]
0	0x3ed5047a	0.41604978
1	0xbed1617b	-0.40894684
2	0xbf0c15b6	-0.5472063
3	0xbe735bd3	-0.23765497
4	0xbe6306b7	-0.2217053
5	0x3db6a86e	0.08918844
6	0x3eed863d	0.46391478
7	0x3ee3828d	0.4443554

Detokenizer.cat_recons.13.bias f4 [2]
0	0xbecc6129	-0.39917877
1	0x3e65b9cb	0.22434156

Detokenizer.cat_recons.14.weight f4 [2, 4]
0	0xbea841c1	-0.32862666
1	0xbf288271	-0.6582404
2	0xbf418d5c	-0.7560632
3	0x3e13e49f	0.14442681
4	0x3f043a8d	0.5165184
5	0x3edbfbf2	0.42965657
6	0x3f4c5a06	0.79824865
7	0x3d90d3c9	0.07071645

Detokenizer.cat_recons.14.bias f4 [2]
0	0x3d29e420	0.041477323
1	0x3cf2aa76	0.029622298

Detokenizer.cat_recons.15.weight f4 [2, 4]
0	0x3eb29240	0.34877205
1	0xbe31d09f	-0.17364739
2	0xbe1cb29b	-0.15302508
3	0x3f0f1a94	0.5589993
4	0xbf051dbe	-0.5199851
5	0x3ddbd005	0.10733036
6	0x3e018a41	0.12650396
7	0x3d9e79e0	0.077380896

Detokenizer.cat_recons.15.bias f4 [2]
0	0x3eadc031	0.33935693
1	0x3e95fef2	0.2929607

Detokenizer.cat_recons.16.weight f4 [2, 4]
0	0x3f5c8326	0.86137617
1	0xbec087aa	-0.37603503
2	0xbf2ee4d7	-0.6831793
3	0x3e54be10	0.20775628
4	0x3eb3478b	0.3501552
5	0xbe8c91d2	-0.27455002
6	0x3f02bb2e	0.51066864
7	0x3e6c8e97	0.23101269

Detokenizer.cat_recons.16.bias f4 [2]
0	0x3e0e0181	0.13867761
1	0xbecc9167	-0.39954683

Detokenizer.cat_recons.17.weight f4 [2, 4]
0	0xbf565025	-0.8371604
1	0x3ee2149a	0.44156343
2	0xbf22fe4f	-0.63669294
3	0xbdd53b8e	-0.1041175
4	0x3e4d4385	0.20045288
5	0x3eecb54b	0.46232066
6	0xbcffbf0f	-0.031219034
7	0x3ef9ac6e	0.48764366

Detokenizer.cat_recons.17.bias f4 [2]
0	0x3ea49109	0.32141903
1	0x3d0634e5	0.032765288

Detokenizer.cat_recons.18.weight f4 [2, 4]
0	0xbf5390df	-0.8264293
1	0x3f1eede1	0.62081724
2	0xbefc3afa	-0.49263746
3	0xbee7a2e8	-0.45241475
4	0x3e86086f	0.2617831
5	0x3e017251	0.12641264
6	0xbeb3fedc	-0.3515538
7	0xbbdbb97a	-0.00670546

Detokenizer.cat_recons.18.bias f4 [2]
0	0x3e1d8e45	0.15386303
1	0xbde7a339	-0.11310429
