restsyn/tabsyn/vae/ckpt/fintech/encoder.pt (torch, 23600 bytes, 33 tensors)

Tokenizer.weight f4 [11, 4]
0	0x3efadb08	0.48995233
1	0xbda6a358	-0.08136624
2	0x3e8215b5	0.25407186
3	0xbf3d6001	-0.73974615
4	0x3c7d087d	0.015443918
5	0x3dd19338	0.10233158
6	0x3e85a87c	0.26105106
7	0x3e1e1069	0.15435947
8	0x3cbd7866	0.0231287
9	0xbe5862a1	-0.21131374
10	0xbd494dc0	-0.049146414
11	0x3e2253e4	0.15852314
12	0xbe1c0d11	-0.1523936
13	0xbcf44487	-0.029817833
14	0x3eeba369	0.4602311
15	0x3da6eea8	0.08150989
16	0x3efa4888	0.48883462
17	0xbe811044	-0.25207722
18	0x3dd0ef31	0.10201872
19	0xbe920941	-0.28522685
20	0x3e2f417d	0.17114826
21	0xbe81f82a	-0.25384647
22	0xbe892989	-0.267895
23	0x3f061bc9	0.52386147
24	0x3ddeb689	0.108746596
25	0x3c99afea	0.01876064
26	0xbd4d233a	-0.050082423
27	0x3e64ac9a	0.22331467
28	0xbe1c1b0a	-0.1524469
29	0xbe1b1b9a	-0.15147248
30	0x3ea5f9d7	0.32417175
31	0xbe5876e4	-0.21139103
32	0x3ca38e10	0.019965202
33	0x3e8ee614	0.2790991
34	0xbcd556c4	-0.02604235
35	0xbe201ceb	-0.15636031
36	0x3dee5f22	0.11639239
37	0x3e4c30d7	0.19940506
38	0x3efd68c6	0.49493998
39	0xbf001aa8	-0.50040674
40	0xb99fc727	-0.00030475223
41	0x3e70d52d	0.2351882
42	0xbe7e65dc	-0.24843544
43	0xbd6169ad	-0.05503242

Tokenizer.bias f4 [29, 4]
0	0x3edebaab	0.4350179
1	0x3d74c92e	0.059762172
2	0x3db24648	0.08704811
3	0xbdaa88bc	-0.08326861
4	0xbea69085	-0.32532135
5	0xbf1adf4f	-0.6049699
6	0xbe2d171b	-0.16903345
7	0x3f041c41	0.5160561
8	0xbe5acc0f	-0.21366905
9	0x3ebfee3f	0.37486455
10	0xbe00f43b	-0.12593167
11	0x3e37cf01	0.1795006
12	0xbeb53d9e	-0.35398573
13	0xbee74e92	-0.45177132
14	0x3d42a10b	0.047516864
15	0xbe7ddb8d	-0.24790783
16	0x3e2d7422	0.16938832
17	0x3f0c6a3f	0.5484962
18	0xbeb815f7	-0.35954258
19	0x3f036edb	0.5134103
20	0xbdf456d2	-0.11930622
21	0x3ec3532c	0.38149393
22	0xbd633a1b	-0.055475336
23	0xbe7186e5	-0.23586614
24	0xbe2839a2	-0.16428235
25	0xbdaab9ca	-0.08336218
26	0xbf03d659	-0.51498944
27	0xbe9f8827	-0.31158563
28	0x3ee36caa	0.44418842
29	0xbe0928d1	-0.13394476
30	0xbe9b37a7	-0.30315897
31	0xbd920eb3	-0.0713171
32	0x3e4bbd71	0.19896485
33	0xbe940a4c	-0.28914106
34	0x3ecc0234	0.3984543
35	0xbcd864eb	-0.026415309
36	0x3eed83db	0.4638966
37	0xbecc51f2	-0.3990627
38	0xbc9734c4	-0.018457778
39	0xbeeae98e	-0.45881313
40	0x3ec611b1	0.38685372
41	0xbea42de0	-0.3206625
42	0xbed0faa5	-0.40816227
43	0x3e4fd7dd	0.20297189
44	0xbed1d7d0	-0.40984964
45	0x3d885830	0.066574454
46	0xbe0516b8	-0.12996948
47	0xbd250127	-0.040284302
48	0x3e6d18ca	0.23153988
49	0x3d59b948	0.053155214
50	0x3e3daa43	0.18521981
51	0x3e2ba856	0.16763434
52	0xbeb5f6ff	-0.35540006
53	0x3f1386a5	0.57627326
54	0xbe696955	-0.22794087
55	0xbece94b7	-0.40347835
56	0x3e371763	0.17880015
57	0xbe8695a8	-0.26286054
58	0xbe45f112	-0.19330242
59	0xbf2a7a2b	-0.66592664
60	0x3c9b1e6d	0.018935407
61	0x3deccfc6	0.11563067
62	0x3e36e876	0.17862114
63	0x3e8c2546	0.27372187
64	0xbeaf33cd	-0.34219208
65	0x3e3daa8b	0.18522088
66	0xbd6766e8	-0.056494623
67	0xbd44c275	-0.04803701
68	0x3e925b1b	0.28585133
69	0xbd3ca663	-0.046057116
70	0xbeb0301e	-0.3441171
71	0x3ec3af29	0.38219574
72	0xbed2c2ef	-0.41164348
73	0x3e738ca6	0.23784122
74	0xbe06f127	-0.1317793
75	0x3ec7d265	0.39027706
76	0x3b047134	0.0020209076
77	0x3e68f94c	0.22751349
78	0x3d51b79a	0.051200487
79	0x3f1e9d79	0.61959034
80	0xbeaba97c	-0.33527744
81	0x3eba4b25	0.36385456
82	0x3d5428a4	0.05179657
83	0x3d8d3910	0.068956494
84	0xbeab7991	-0.33491185
85	0x3ebffd19	0.37497786
86	0x3f18a60d	0.59628373
87	0x3d935db1	0.071956046
88	0x3dd2f152	0.102999344
89	0x3e3f9a43	0.1871119
90	0xbddb2253	-0.10699906
91	0x3ece7f1a	0.40331346
92	0xbe6e175d	-0.232511
93	0x3f04febd	0.519512
94	0xbf051709	-0.51988274
95	0x38497b1a	4.803678e-05
96	0xbea03989	-0.31293896
97	0xbdb7c1dd	-0.08972523
98	0x3ec1fb19	0.37886885
99	0x3dc2471d	0.0948622
100	0x3e656ec4	0.22405535
101	0xbe82c3a8	-0.255399
102	0xbed55dda	-0.41673166
103	0xbf060b33	-0.5236084
104	0x3cabc65e	0.020968612
105	0xbdac417c	-0.08410928
106	0xbf080330	-0.53129864
107	0x3f1cbc84	0.6122515
108	0xbe36a6d3	-0.17837076
109	0x3e4e0372	0.20118502
110	0xbe36b953	-0.17844133
111	0x3d76112c	0.06007497
112	0xbed51ac9	-0.41621998
113	0xbe9f78b3	-0.31146774
114	0x3e9cf220	0.30653477
115	0xbe8ac539	-0.27103594

Tokenizer.category_embeddings.weight f4 [67, 4]
0	0xbef25c10	-0.47335863
1	0xbde80b69	-0.11330301
2	0xbef3a858	-0.47589374
3	0x3deb90a9	0.11502201
4	0x3eb4f61c	0.35344017
5	0x3f31a2d6	0.6938909
6	0xbf83c4b4	-1.0294404
7	0x3ec76f4b	0.38952097
8	0xbee84f87	-0.45373175
9	0x3eb58bf3	0.35458335
10	0xbda946fe	-0.08265494
11	0xbeb39d4f	-0.35080954
12	0xbcfa6f33	-0.030570602
13	0x3be7f691	0.0070789536
14	0x3ec45064	0.38342583
15	0xbeb08c6c	-0.34482133
16	0x3e8413ef	0.25796458
17	0xbe3603a6	-0.1777483
18	0xbf2252ff	-0.6340789
19	0x3e85d6cb	0.26140437
20	0xbee5b0d2	-0.44861466
21	0x3e5c5561	0.21516944
22	0xbe357d4a	-0.17723575
23	0x3df0a338	0.117498815
24	0xbf0cae62	-0.5495359
25	0x3e9d4b19	0.30721357
26	0x3f200e78	0.6252208
27	0x3f4c3690	0.79770756
28	0xbe2c3b54	-0.16819507
29	0x3e9ebe05	0.31004348
30	0xbf0a69d8	-0.54067755
31	0x3f5e45b7	0.86825126
32	0x3ff4f7c3	1.9138111
33	0xbdcb63a0	-0.09931111
34	0x3fab4d02	1.3382876
35	0x3f571319	0.84013516
36	0xbf850c05	-1.0394293
37	0x3f0b6ce0	0.54463005
38	0x3e7346fd	0.23757549
39	0xbee13584	-0.43986142
40	0x3ee06b69	0.43831947
41	0x3f21f6e4	0.6326735
42	0x3e513c1a	0.20433083
43	0x3da23e98	0.07922095
44	0xbd4992bf	-0.049212214
45	0x3ea0ca97	0.31404564
46	0x3ef9562e	0.48698562
47	0x3daf0399	0.08545608
48	0xbe00c387	-0.12574588
49	0x3e114d7c	0.14189714
50	0x3e46b774	0.1940592
51	0xbf3bc6f0	-0.7335043
52	0x3d190ffc	0.03736876
53	0x3ea0c59c	0.31400764
54	0x3ef32a3a	0.47493154
55	0x3ea483a9	0.321317
56	0xbea6500e	-0.32482952
57	0xbe47b259	-0.19501628
58	0xbde68c09	-0.11257178
59	0xbead915b	-0.3389996
60	0x3f4391f4	0.7639458
61	0xbea16e93	-0.31529674
62	0xbe4ef3c2	-0.20210174
63	0x3f3c57d8	0.7357154
64	0x3d0a8a70	0.03382343
65	0xbf15a64e	-0.58456886
66	0x3f34620c	0.7046211
67	0x3e6c17c1	0.23055936
68	0xbdc5fd12	-0.0966741
69	0xbf058b38	-0.52165556
70	0xbd8a20f9	-0.0674457
71	0x3ee672ab	0.4500936
72	0x3ef8e143	0.4860936
73	0xbf33700d	-0.7009285
74	0x3f71d5de	0.9446696
75	0x3f30d293	0.6907131
76	0x3b170f0f	0.0023049747
77	0xbf53cceb	-0.82734555
78	0xbdc80008	-0.09765631
79	0x3ea2ec23	0.31820783
80	0xbe0c10fc	-0.13678354
81	0xbefab045	-0.48962608
82	0xbda22793	-0.079177044
83	0x3e88ee1f	0.26744172
84	0xbf8f27d0	-1.1184025
85	0x3ea9217d	0.33033362
86	0x3e53aab8	0.20670593
87	0xbe2ea842	-0.17056373
88	0xbef695f7	-0.4816129
89	0xbeda237b	-0.42605194
90	0x3f3fb853	0.7489063
91	0xbda302ec	-0.07959542
92	0x3e13ca69	0.14432682
93	0xbf0e4d6a	-0.55586874
94	0x3e91a664	0.28447258
95	0x3ecbf657	0.3983638
96	0xbe1bd9c4	-0.1521979
97	0xbf6b8fd7	-0.9201636
98	0xbccd739d	-0.025079543
99	0xbefff65f	-0.49992654
100	0x3e7ce96e	0.24698421
101	0xbf17962c	-0.5921352
102	0x3e7c322b	0.24628513
103	0x3ef79bfd	0.48361197
104	0xbd19da61	-0.037561778
105	0xbf5ecbea	-0.870299
106	0x3e4ee202	0.20203403
107	0xbe0850fc	-0.13312143
108	0x3f262c1d	0.6491106
109	0xbe780573	-0.24220829
110	0xbe922551	-0.28544095
111	0xbefbf869	-0.4921296
112	0xbe9dfc37	-0.30856487
113	0x3e414390	0.1887343
114	0x3f9344e0	1.1505394
115	0xbf406221	-0.7514973
116	0xbf0b3dd5	-0.54391223
117	0xbe371798	-0.17880094
118	0xbf8316cb	-1.0241331
119	0x3efcc0d4	0.49365866
120	0x3f1eabc2	0.6198083
121	0xbef13e64	-0.47117913
122	0x3f70d1fb	0.94070405
123	0x3fad6746	1.3547142
124	0xbe6020aa	-0.2188746
125	0x3f0a7cbd	0.54096586
126	0x3f33b3d9	0.701963
127	0xbf5c5dfe	-0.8608092
128	0xbf2586a2	-0.6465856
129	0xbcb769b4	-0.02238927
130	0x3ec46dd0	0.3836503
131	0x3e440da6	0.19145831
132	0xbeafc6d6	-0.34331387
133	0xbf646a72	-0.8922492
134	0x3f28c4a2	0.6592504
135	0x3f6cc3fc	0.9248655
136	0xbe5c6664	-0.21523434
137	0x3ec12444	0.3772298
138	0xbcd15519	-0.025553273
139	0xbdac3840	-0.08409166
140	0x3e3eb446	0.18623456
141	0x3ebdd919	0.37079695
142	0x3d748010	0.059692442
143	0xbc10a69f	-0.008828788
144	0xbe78af4f	-0.24285625
145	0x3e5307ed	0.20608492
146	0xbba9a073	-0.0051765977
147	0xbd166c74	-0.036724523
148	0x3e303461	0.17207481
149	0x3e1f9393	0.15583639
150	0xbea06f3f	-0.31334874
151	0xbf07608b	-0.5288169
152	0xbe8395a0	-0.25700092
153	0xbd3bda91	-0.045862738
154	0xbec39a9e	-0.382039
155	0xbc9df1b1	-0.019280287
156	0x3eac2de7	0.3362877
157	0xbe3d6f45	-0.18499477
158	0xbd87e37e	-0.066351876
159	0xbe6c9b01	-0.23106004
160	0xbcef88cb	-0.029240033
161	0x3dab83ba	0.08374734
162	0x3e35ae17	0.17742191
163	0xbe5baaf6	-0.21451935
164	0x3d0d3bef	0.034480985
165	0x3cd1afdb	0.02559655
166	0x3ea1442c	0.31497324
167	0xbe979cbf	-0.29611775
168	0x3ea870c8	0.32898545
169	0x3e97965d	0.29606906
170	0x3e501e1f	0.2032399
171	0x3d1865ce	0.037206464
172	0xbdd20f21	-0.10256792
173	0x3ed11f65	0.40844265
174	0x3e8b88a0	0.27252674
175	0xbeb25014	-0.3482672
176	0x3ea191ba	0.31556493
177	0xbeb20b28	-0.34774137
178	0x3e8cd582	0.27506644
179	0x3ba3fd30	0.0050045475
180	0x3dd50dd3	0.104030274
181	0x3e690793	0.22756796
182	0xbe7010b0	-0.23443866
183	0x3e8b706d	0.27234212
184	0xbfb95741	-1.4479753
185	0xbe9b2bd7	-0.30306885
186	0x3d34f0b3	0.04417486
187	0x3dd0ddf8	0.10198587
188	0x3f123a62	0.57120335
189	0xbf61a8a0	-0.88147926
190	0x3e17384c	0.1476757
191	0x3deeacd0	0.11654055
192	0xbf0834b4	-0.5320542
193	0x3f1b1d46	0.6059154
194	0x3e9f2a51	0.31086972
195	0x3e426596	0.18984064
196	0x3ecf9cd7	0.40549347
197	0xbf4d25c4	-0.8013575
198	0xbda6c04a	-0.08142145
199	0x3f05052e	0.5196103
200	0x3dd9e649	0.106396265
201	0xbebad329	-0.36489227
202	0x3f0faf90	0.5612726
203	0x3f669b87	0.90081066
204	0x3e5ff70b	0.21871583
205	0x3e19f181	0.15033533
206	0xbddca2e0	-0.107732534
207	0xbeb7d53c	-0.35904872
208	0x3ed1934a	0.40932685
209	0x3c41e53a	0.011834437
210	0xbe5c3fd7	-0.21508728
211	0x3e9e9edf	0.30980584
212	0x3ccab6bb	0.024745336
213	0x3decb826	0.11558561
214	0x3e179b0c	0.1480524
215	0x3ecc88f8	0.3994825
216	0xbe83f5fd	-0.25773612
217	0x3db5046a	0.088387325
218	0x3de4aef1	0.1116618
219	0xbe523d17	-0.20531116
220	0x3e5ba8fe	0.21451184
221	0x3f222bd4	0.63348126
222	0xbeeb2fe4	-0.45934975
223	0x3ea2c9b2	0.31794506
224	0xbe04855a	-0.12941495
225	0xbf21644a	-0.63043654
226	0x3dccbd15	0.09997002
227	0xbde11386	-0.10990052
228	0xbebedcf3	-0.37277946
229	0x3e1abb44	0.15110499
230	0xbdf58a85	-0.11989311
231	0xbe909607	-0.28239462
232	0xbf2ee9b9	-0.6832538
233	0xbec27c09	-0.37985256
234	0x3dd16e6e	0.10226141
235	0xbe603f31	-0.21899106
236	0x3f1a82aa	0.6035563
237	0xbe2fa838	-0.17154014
238	0x3e5d1150	0.21588635
239	0xbeecba98	-0.4623611
240	0xbe6d017a	-0.23145095
241	0xbe2d89a2	-0.16947034
242	0x3f43ddaf	0.7651014
243	0xbf0149b5	-0.50503093
244	0xbcb6fada	-0.022336412
245	0x3e9ca6fe	0.30596155
246	0x3f03cfcc	0.5148895
247	0x3e056f68	0.1303078
248	0xbe6a6ea2	-0.22893766
249	0xbe2153fc	-0.15754694
250	0xbec13d0b	-0.37741885
251	0xbe88d43b	-0.2672442
252	0xbf174b25	-0.59099036
253	0xbe476779	-0.19473065
254	0x3ebd9b62	0.3703261
255	0xbe9d7eb3	-0.30760726

VAE_Encoder.layers.0.attention.W_q.weight f4 [4, 4]
0	0x3e1e2977	0.15445505
1	0xbed3ee3f	-0.41392705
2	0x3eacede9	0.3377526
3	0xbe94f3c1	-0.2909222
4	0x3e968681	0.29399493
5	0xbebd6c92	-0.36996895
6	0xbed76a2a	-0.42073184
7	0xbe6df354	-0.23237354
8	0x3e75f539	0.24019326
9	0xbe28c497	-0.16481243
10	0x3f0e0758	0.55479956
11	0x3d3aa194	0.04556425
12	0x3dd817f2	0.10551442
13	0xbd13f9e7	-0.036126997
14	0xbecbda56	-0.39815015
15	0xbebb582e	-0.36590713

VAE_Encoder.layers.0.attention.W_q.bias f4 [4]
0	0x3d89edf9	0.06734843
1	0xbd61f9a2	-0.05516971
2	0x3d804824	0.0626376
3	0xbd9350bf	-0.071931355

VAE_Encoder.layers.0.attention.W_k.weight f4 [4, 4]
0	0x3ef1d15d	0.47230044
1	0x3e02c87b	0.1277179
2	0xbe18633f	-0.1488161
3	0xbee171a6	-0.4403202
4	0xbf0f0282	-0.558632
5	0x3ea5f3f6	0.3241269
6	0xbda4afa0	-0.0804131
7	0x3ee997eb	0.45623717
8	0x3e71503c	0.23565763
9	0xbec21530	-0.3790679
10	0x3ef07185	0.4696161
11	0xbdf6fa42	-0.12059452
12	0xbdaedc5f	-0.08538126
13	0x3e9b6666	0.3035156
14	0xbec6d57f	-0.3883476
15	0x3e3d75a3	0.18501906

VAE_Encoder.layers.0.attention.W_k.bias f4 [4]
0	0x38d464db	0.000101277335
1	0x39d0d284	0.00039829698
2	0xb8e1bb96	-0.00010763777
3	0x399f3f9b	0.00030374233

VAE_Encoder.layers.0.attention.W_v.weight f4 [4, 4]
0	0xbd47425c	-0.04864727
1	0x3e853119	0.2601402
2	0xbe8952ba	-0.26820928
3	0x3e1226d8	0.1427263
4	0x3e1b74e5	0.1518131
5	0xbc12b2f7	-0.008953801
6	0xbdfe32d7	-0.12412041
7	0xbca7d31d	-0.020486409
8	0x3dfb59e3	0.12273004
9	0x3e2062fb	0.15662758
10	0xbe3fb28e	-0.18720457
11	0x3d9410c7	0.072297625
12	0x3e912888	0.28351235
13	0xbdf5e189	-0.12005908
14	0xbd7e9574	-0.06215425
15	0xbdbc6806	-0.091995284

VAE_Encoder.layers.0.attention.W_v.bias f4 [4]
0	0x3dcd8a8a	0.1003619
1	0xbd04a859	-0.03238711
2	0xbe0b9ff8	-0.13635242
3	0xbcc28300	-0.023744106

VAE_Encoder.layers.0.linear0.weight f4 [128, 4]
0	0x3e47a84e	0.19497797
1	0x3d2f1fc9	0.042754922
2	0x3e072a43	0.13199715
3	0x3f13f624	0.57797456
4	0xbf180881	-0.59387976
5	0xbeb66841	-0.35626414
6	0x3d6efcd7	0.058346596
7	0xbe02a182	-0.12756923
8	0x3dbcedc4	0.09225038
9	0xbeb9178a	-0.3615077
10	0x3ef69c12	0.48165947
11	0xbed9427d	-0.4243354
12	0xbf0dcece	-0.55393684
13	0x3f0dc994	0.5538571
14	0x3ed1eff6	0.41003388
15	0x3ee35152	0.4439798
16	0xbe475472	-0.19465807
17	0xbdd8e548	-0.10590607
18	0xbe7ac1f0	-0.24488044
19	0xbed724b3	-0.42020187
20	0x3e8aceff	0.2711105
21	0xbf04e14d	-0.5190628
22	0xbe0c98ce	-0.13730165
23	0xbe5ec11f	-0.21753357
24	0x3e14a5c4	0.1451636
25	0x3a76e07b	0.00094176055
26	0xbeed4227	-0.46339533
27	0xbed462a3	-0.41481504
28	0x3ccf7f00	0.025329113
29	0x3e873e54	0.2641474
30	0x3e5fe08c	0.21863002
31	0x3e966adf	0.2937841
32	0x3e5a07dd	0.21292062
33	0xbedd1897	-0.43182823
34	0xbdc7b1f9	-0.097507425
35	0x3ee720af	0.45142123
36	0xbdd5c9f9	-0.10438914
37	0xbdee1d7e	-0.11626719
38	0xbee269e0	-0.442214
39	0x3e1c48c3	0.15262131
40	0xbdf183ac	-0.117926925
41	0x3dd9cf91	0.10635293
42	0xbd842507	-0.06452375
43	0x3ecaa0d5	0.3957583
44	0x3ef191ad	0.47181454
45	0xbf1eff56	-0.6210836
46	0xbd80afef	-0.06283557
47	0x3f1efda8	0.621058
48	0xbea87115	-0.32898775
49	0xbe0b8bc4	-0.13627535
50	0x3e805ded	0.2507166
51	0x3cd02777	0.025409443
52	0xbcd4fb04	-0.0259986
53	0x3df3c949	0.119036265
54	0x3e32dea6	0.17467746
55	0x3ec9052e	0.39261764
56	0x3ccd734a	0.025079388
57	0xbe6f06b5	-0.23342402
58	0xbeb846a0	-0.35991383
59	0x3c3cc8a2	0.011522444
60	0xbec8c04d	-0.39209214
61	0x3ebee4e5	0.37284008
62	0xbcd2f16e	-0.025749888
63	0x3e33f19e	0.17572638
64	0xbea8b4cf	-0.32950446
65	0xbe412ad4	-0.18863994
66	0x3ec2f490	0.3807721
67	0x3e95cbf9	0.2925718
68	0xbd97a7aa	-0.07405026
69	0xbe2e767f	-0.1703739
70	0x3dc30434	0.09522286
71	0x3f238a9b	0.6388337
72	0xbf0304b9	-0.5117908
73	0xbe91c2e1	-0.28468993
74	0xbebf3246	-0.37343043
75	0x3e849cdc	0.25900924
76	0x3eb869e4	0.36018288
77	0xbecbb8b3	-0.39789352
78	0xbe80f212	-0.25184685
79	0xbe965417	-0.2936103
80	0xbeb644c7	-0.35599348
81	0xbe3b1d5d	-0.1827292
82	0x3d984adc	0.07436153
83	0xbee76b31	-0.45198968
84	0x3eb1d1d9	0.34730414
85	0x3e1d3ed8	0.15356004
86	0x3ee895d1	0.454268
87	0x3ea958f5	0.3307568
88	0xbe9f8702	-0.3115769
89	0x3de0932c	0.10965571
90	0xbe160b35	-0.14652713
91	0x3ef26e44	0.4734975
92	0x3dda24f1	0.10651577
93	0x3eb359bb	0.35029396
94	0xbee6a8bf	-0.45050618
95	0x3dedb6db	0.116071425
96	0x3e06f671	0.13179947
97	0x3ed44b64	0.41463768
98	0x3d78a91c	0.06070815
99	0xbf05ae1f	-0.5221881
100	0xbe62084d	-0.22073479
101	0x3e7b0c62	0.24516442
102	0xbe6c3bf9	-0.23069753
103	0x3e5b62bb	0.21424381
104	0x3ed6f870	0.41986418
105	0x3ecfc168	0.40577245
106	0x3e79319a	0.24335328
107	0xbef3279c	-0.47491157
108	0xbe83bc46	-0.2572958
109	0x3e9b91ad	0.3038458
110	0xbe65f6f6	-0.2245749
111	0xbd086298	-0.03329715
112	0x3e8dd197	0.27698967
113	0xbe393a3a	-0.18088618
114	0x3ecce3f5	0.40017667
115	0x3d94eb12	0.072713986
116	0x3d9f8898	0.07789725
117	0xbe96c229	-0.29445007
118	0xbe5564d7	-0.20839249
119	0xbeecda75	-0.4626042
120	0x3ee5efe8	0.44909596
121	0x3eacc91d	0.33747187
122	0xbec37b63	-0.38180074
123	0xbe6b2412	-0.22962978
124	0xbefb3157	-0.4906108
125	0xbea19a7f	-0.31563184
126	0x3e63474e	0.2219517
127	0xbe83eee4	-0.25768197
128	0x3e2d3ff5	0.16918929
129	0x3dc9d94c	0.09855899
130	0xbe7e76e6	-0.24850044
131	0xbdc96ad9	-0.09834833
132	0xbef21adf	-0.47286126
133	0xbe0ee6fb	-0.139553
134	0x3ed76bc8	0.42074418
135	0x3ebbf699	0.36711577
136	0x3ebab0bc	0.36462963
137	0x3f0721fc	0.5278623
138	0x3eb9e784	0.36309445
139	0x3d27bc9e	0.040951364
140	0xbd9e757a	-0.077372506
141	0xbe98f914	-0.29877532
142	0x3eb7f3ee	0.3592829
143	0xbe8d1173	-0.27552375
144	0xbead1c48	-0.3381064
145	0xbe654b32	-0.22391966
146	0x3e4f24d9	0.202289
147	0xbed275f9	-0.4110563
148	0xbe0e63b9	-0.13905229
149	0x3e2242c4	0.15845782
150	0xbf1b6043	-0.6069376
151	0xbe00e8e2	-0.12588838
152	0x3e8970ee	0.2684397
153	0xbe1f0019	-0.15527381
154	0x3d1d4532	0.038396068
155	0xbef9bda5	-0.487775
156	0x3edce038	0.43139815
157	0xbe599a99	-0.2125038
158	0xbd09c2db	-0.033633094
159	0xbec05360	-0.3756361
160	0x3e3d247a	0.18470946
161	0x3ef40dc4	0.47666752
162	0x3d9c9bbc	0.076468915
163	0xbf009ff0	-0.50244045
164	0xbeba8c33	-0.3643509
165	0xbd1310c0	-0.035904646
166	0x3ed1183f	0.4083881
167	0xbed1cd16	-0.4097678
168	0xbedd3c99	-0.43210295
169	0xbeafdfbb	-0.3435038
170	0x3e975db3	0.29563674
171	0x3bde16f0	0.0067776367
172	0xbe96f2c5	-0.29482093
173	0x3df5e92c	0.12007365
174	0xbe3855f4	-0.18001539
175	0xbe5d07b0	-0.21584964
176	0xbf09dd18	-0.5385299
177	0x3e77a158	0.24182642
178	0xbe0e396e	-0.13889095
179	0x3f0840e3	0.5322401
180	0xbf05337d	-0.5203169
181	0x3e85d19e	0.26136488
182	0x3eb4d8b5	0.35321584
183	0x3e818927	0.2529995
184	0xbbf9a1b5	-0.007618154
185	0x3ee34dab	0.44395193
186	0xbeab9e3f	-0.3351917
187	0xbef1c30b	-0.47219118
188	0x3edb2e0b	0.42808565
189	0x3ea24f31	0.31701043
190	0x3e01e8cb	0.1268646
191	0x3ea08cbf	0.3135738
192	0xbf036842	-0.5133096
193	0xbeef0709	-0.46685055
194	0x3ecc1e01	0.3986664
195	0x3ea32d47	0.3187048
196	0x3eb39f15	0.35082307
197	0xbf06fc36	-0.52728593
198	0xbc9c2e25	-0.019064972
199	0x3d9e59b4	0.07731953
200	0xbe8f9be9	-0.28048638
201	0x3dd7c457	0.10535496
202	0x3ec2198e	0.37910122
203	0xbed08d0f	-0.4073262
204	0x3e29fa75	0.16599448
205	0xbf0fd3aa	-0.5618235
206	0x3e302a12	0.17203549
207	0x3eba495f	0.36384103
208	0x3ebe6c02	0.37191778
209	0x3e611ba0	0.21983194
210	0x3ee27f02	0.44237524
211	0x3ee23dc2	0.44187742
212	0x3e8daa0f	0.27668807
213	0x3f08de61	0.53464323
214	0xbd3d4977	-0.04621264
215	0x3e8eb42a	0.2787183
216	0x3d93ab12	0.072103634
217	0xbef27ff8	-0.47363257
218	0xbe584753	-0.21120958
219	0xbd520782	-0.05127669
220	0x3f12c31c	0.57328963
221	0xbd8bef20	-0.06832719
222	0x3eaf47c8	0.34234452
223	0xbedbff6c	-0.4296831
224	0x3e86e755	0.26348367
225	0xbe82bfcc	-0.25536954
226	0xbe4c716f	-0.19965146
227	0xbebe1217	-0.37123176
228	0x3eebb5a0	0.46037006
229	0xbf0360d5	-0.5131963
230	0x3ef60852	0.48053223
231	0xbe23bd17	-0.15990101
232	0x3e52ed90	0.20598435
233	0xbd216881	-0.039406303
234	0xbea8a1ba	-0.32935888
235	0xbea40dcf	-0.32041785
236	0xbebd4a0e	-0.36970562
237	0x3e92b191	0.28651097
238	0x3de154e1	0.110025175
239	0x3ebde3af	0.3708777
240	0xbe4da7e5	-0.20083578
241	0x3dd6f580	0.10496044
242	0x3e3baddd	0.18328042
243	0x3efebc63	0.49753103
244	0xbe8c38d0	-0.27387094
245	0xbf215ec2	-0.63035214
246	0xbd928b22	-0.07155444
247	0x3ec03f7d	0.37548438
248	0xbebf2dd7	-0.3733966
249	0x3e640112	0.22266033
250	0x3e9c7fa8	0.30566144
251	0x3e3cd03e	0.18438813
252	0xbdd7bc58	-0.105339706
253	0xbe0bd245	-0.1365443
254	0xbeaca5bf	-0.33720204
255	0x3ddbf036	0.10739176

VAE_Encoder.layers.0.linear0.bias f4 [128]
0	0x3ed37511	0.41300252
1	0x3eb5775f	0.35442635
2	0x3c1e2377	0.00965201
3	0xbeaaab73	-0.3333393
4	0x3eaeb54a	0.34122688
5	0x3e782699	0.24233474
6	0xbe942fcb	-0.28942713
7	0x3ef3b968	0.4760239
8	0x3e356ed6	0.17718062
9	0xbd82747e	-0.06369875
10	0xbdc4600d	-0.09588633
11	0xbea1874c	-0.31548536
12	0x3ec23918	0.37934184
13	0x3e84cedf	0.2593908
14	0xbd8c3c69	-0.0684746
15	0x3e6155e7	0.22005425
16	0x3eb8422c	0.35987985
17	0x3ec0f7bb	0.37689003
18	0x3ec096d6	0.3761508
19	0x3e5a033d	0.21290298
20	0xbe018d2f	-0.12651514
21	0x3ef7fb0d	0.48433724
22	0xbdb3058f	-0.087412946
23	0x3e828647	0.2549307
24	0xbd0e1480	-0.03468752
25	0x3ef79c1a	0.48361284
26	0x3d8067a4	0.06269768
27	0x3e53d184	0.20685393
28	0xbec082db	-0.37599835
29	0x3e5a70d8	0.21332109
30	0x3d6bc9e2	0.057565577
31	0xbdd1a198	-0.102359
32	0xbd1d35e4	-0.038381472
33	0x3ec5c6e4	0.38628304
34	0xbdf8e7f5	-0.12153617
35	0x3ee59bc6	0.44845408
36	0xbe027c39	-0.127427
37	0xbe8e6681	-0.2781258
38	0x3ebaea5e	0.36506933
39	0xbec217c6	-0.37908763
40	0xbe1870a0	-0.14886713
41	0xbebe5b47	-0.37179014
42	0xbec97350	-0.3934579
43	0xbec5470d	-0.3853077
44	0x3ec0487d	0.37555304
45	0xbe7691d8	-0.24079072
46	0xbebe1128	-0.37122464
47	0x3eb94e1e	0.3619241
48	0x3e8769a3	0.26447782
49	0x3e315fa7	0.17321645
50	0xbe98729e	-0.29774946
51	0xbe969d29	-0.2941678
52	0xbee7092c	-0.45124185
53	0xbef4f3fc	-0.47842395
54	0x3dc7357d	0.09726999
55	0x3ed85eac	0.4225973
56	0x3cb8eee9	0.022574859
57	0xbebec7ca	-0.37261802
58	0xbe989484	-0.29800808
59	0x3ea1bedb	0.31590924
60	0x3e2c03d6	0.16798338
61	0xbd735e61	-0.05941618
62	0x3ebe689d	0.3718919
63	0x3e772c28	0.24137938
64	0x3e6e92a8	0.23298132
65	0x3c9893f9	0.018625246
66	0x3ce21d23	0.027601784
67	0x3e0e583c	0.13900846
68	0xbea7b0d5	-0.327521
69	0x3ee2a9a2	0.44270045
70	0x3eafc350	0.343287
71	0x3dc57e17	0.0964319
72	0xbdc280da	-0.09497233
73	0xbd39ac9e	-0.045330636
74	0xbcaf27f1	-0.02138135
75	0xbebe6bf9	-0.37191752
76	0x3e2b93bd	0.16755576
77	0x3dfeb84d	0.12437496
78	0xbe5942a8	-0.21216834
79	0xbe1af1eb	-0.15131347
80	0x3eb415b3	0.35172805
81	0x3eb5c7a7	0.35503885
82	0x3da98f62	0.08279301
83	0x3f03e049	0.51514107
84	0x3c955b86	0.018232118
85	0xbdae90c3	-0.08523705
86	0x3ec495d8	0.38395572
87	0x3ed4d90d	0.41571847
88	0xbead0661	-0.3379393
89	0x3ebf13ed	0.3731989
90	0xbee48d76	-0.44639176
91	0x3ecbaca0	0.3978014
92	0xbd2a7b74	-0.04162164
93	0xbeed0a8d	-0.46297112
94	0x3d72b800	0.059257507
95	0x3ebb8b0a	0.36629516
96	0xbd7ba5d0	-0.061437428
97	0xbeb32dd8	-0.34995914
98	0xbe8e6f02	-0.27819067
99	0x3edac704	0.42729962
100	0x3d90643d	0.07050369
101	0xbe3196e8	-0.17342722
102	0x3e18e33f	0.14930438
103	0x3dfdb2a9	0.12387592
104	0x3efa2a25	0.4886028
105	0xbdf41e0e	-0.11919795
106	0x3ea2cc45	0.3179647
107	0x3ebfb553	0.37443027
108	0xbea7740a	-0.32705718
109	0x3eab86cb	0.33501276
110	0x3eef51fc	0.46742237
111	0xbd9ab20d	-0.07553492
112	0xbedb97a9	-0.42889145
113	0xbdd141b4	-0.1021761
114	0xbec511c4	-0.38490117
115	0xbde34d77	-0.110987596
116	0xbec8e999	-0.3924072
117	0xbdfb004e	-0.122559175
118	0x3edd7469	0.43252876
119	0x3d165562	0.03670252
120	0x3e3001a3	0.17188124
121	0x3e32666e	0.17421886
122	0xbbd3ff01	-0.006469608
123	0x3d767be1	0.060176734
124	0x3e98f839	0.2987688
125	0x3dfb5cd6	0.122735664
126	0x3e93e11f	0.2888269
127	0x3ec25f72	0.37963444

VAE_Encoder.layers.0.linear1.weight f4 [4, 128]
0	0xbd4fe008	-0.050750762
1	0x3dd365f0	0.103221774
2	0x3ca895b8	0.020579204
3	0xbdc5714e	-0.09640752
4	0x3dd9a682	0.10627462
5	0x3c6d00f4	0.014465559
6	0x3dcf850a	0.10132797
7	0x3c25f02b	0.010128061
8	0x3d79dd79	0.06100223
9	0xbcc54c8e	-0.024084356
10	0x3de95bf1	0.113944896
11	0xbe000897	-0.12503277
12	0x3d9aca7f	0.07558154
13	0xbe360136	-0.177739
14	0x3d3911f3	0.045183133
15	0x3d47fcc6	0.048825048
16	0x3e0f1154	0.13971454
17	0xbe473955	-0.19455464
18	0xbde5795c	-0.11204788
19	0xbcd91eca	-0.02650394
20	0x3ceeb26a	0.029137809
21	0xbd562069	-0.052277002
22	0xbc19e46c	-0.009392839
23	0xbd2eb9e1	-0.042657737
24	0xbca675cf	-0.020319847
25	0x3dabf9d4	0.0839726
26	0x3d1df76a	0.03856603
27	0x3ddaab10	0.10677159
28	0x3e5cb391	0.21552874
29	0x3c14095d	0.0090354355
30	0x3ce813d8	0.028329775
31	0x3d10e9ad	0.0353791
32	0x3cbf47ca	0.023349661
33	0x3d2f5c73	0.042812776
34	0xbdf15ce9	-0.11785299
35	0xbcc8a715	-0.024493733
36	0xbd9358d5	-0.07194678
37	0x3db3432c	0.087530464
38	0x3dfcd559	0.1234538
39	0x3d460aab	0.048350018
40	0xbc2c1f02	-0.01050544
41	0xbd83ba90	-0.06432068
42	0xbe3cb01e	-0.18426558
43	0xbdd5d6f8	-0.10441393
44	0xbc1a6585	-0.009423618
45	0xbe13fbd9	-0.14451541
46	0x3def5dc3	0.116878055
47	0xbc36787e	-0.011137126
48	0x3de39d1c	0.111139506
49	0x3df4833a	0.11939092
50	0xbd66d394	-0.05635412
51	0x3e21b9c2	0.15793517
52	0x3adfd192	0.0017076007
53	0x3d2e4bbe	0.042552702
54	0x3cfdbdee	0.030974355
55	0x3d8f2beb	0.069907986
56	0x3ddf9706	0.10917477
57	0x3e02136a	0.12702718
58	0x3e3efc5c	0.18650955
59	0xbd11faef	-0.0356397
60	0xbde68dfd	-0.11257551
61	0xbdfde921	-0.123979814
62	0xbdab0ae5	-0.08351687
63	0x3d97e3d2	0.074165
64	0xbd3aa650	-0.045568764
65	0xbe01a600	-0.1266098
66	0x3d864b07	0.06557279
67	0xbddb580b	-0.10710152
68	0xbd6a4d2e	-0.05720251
69	0xbdddafa0	-0.108245134
70	0xbd5f6b8d	-0.054545928
71	0x3daaa628	0.08332473
72	0x3daf4521	0.08558107
73	0xbb2830f1	-0.0025663937
74	0xbd42ffff	-0.04760742
75	0x3d9798f3	0.074022196
76	0xbcb506cf	-0.022097973
77	0xbe0b9181	-0.13629724
78	0xbd859c45	-0.06523947
79	0xbdb3f642	-0.08787204
80	0x3d81da39	0.06340451
81	0xbc97c5ff	-0.01852703
82	0xbcc23d35	-0.023710826
83	0x3dd075a3	0.101786874
84	0x3cb99252	0.022652779
85	0x3e17ed1f	0.14836548
86	0x3e4e5d16	0.20152697
87	0xbd0ba139	-0.0340893
88	0xbd3aab94	-0.045573786
89	0x3d9c724a	0.076389864
90	0xbdfee80d	-0.12446604
91	0xbd949b7a	-0.07256217
92	0x3da27582	0.07932569
93	0xbdca241b	-0.09870168
94	0xbdc724e6	-0.09723835
95	0x3d2ea584	0.042638317
96	0x3e17129a	0.1475319
97	0x3a09fd90	0.0005263919
98	0xbdd61350	-0.10452902
99	0x3de9ceef	0.114164226
100	0xbdaba702	-0.083814636
101	0xbdc8cd68	-0.09804803
102	0x3dcdd66f	0.100506656
103	0xbd2170f5	-0.039414365
104	0x3da2a625	0.07941846
105	0x3d912eed	0.070890285
106	0x3b955abc	0.0045579355
107	0xbd1fb5ec	-0.038991854
108	0x3e1fe250	0.15613675
109	0x3ddbda91	0.107350476
110	0x3cfc9e4e	0.030837204
111	0x3c41985a	0.011816109
112	0xbe039f66	-0.12853774
113	0x3de3306a	0.110932186
114	0xbc56b4e8	-0.013104655
115	0x3d49b55c	0.049245223
116	0x3dda5cb6	0.106622145
117	0xbe30aa48	-0.17252457
118	0xbe1d160a	-0.15340438
119	0xbd8e84ad	-0.069589
120	0x3cf7c62f	0.030245868
121	0xbd34cca2	-0.044140466
122	0xbdbfabdf	-0.09358954
123	0xbdd0d899	-0.10197563
124	0xbce154a5	-0.027506182
125	0x3d861453	0.06546845
126	0xbd7aac90	-0.061199725
127	0x3dd31b19	0.10307903
128	0x3d524344	0.05133368
129	0x3d901d07	0.070367865
130	0xbe0574d9	-0.13032855
131	0xbbd57448	-0.006514106
132	0x3ca5b336	0.020227056
133	0xbdb5df60	-0.08880496
134	0x3c53a0f6	0.012916794
135	0xbd8b01e3	-0.06787469
136	0xbcb0f2b6	-0.021600109
137	0x3c80aa88	0.015706316
138	0xbc611673	-0.0137382625
139	0x3e1284fd	0.14308544
140	0xbc425b07	-0.011862523
141	0x3dc3aec0	0.09554815
142	0x3cb81ee9	0.022475677
143	0x3d5be1d0	0.05368215
144	0xbd9a6998	-0.07539672
145	0x3d44d481	0.048054222
146	0x3d092b52	0.03348858
147	0x3c98f3e8	0.018670991
148	0x3d1be1fc	0.038057312
149	0xbc955e50	-0.018233448
150	0x3d151d60	0.036404967
151	0xbd3f0789	-0.046638045
152	0xbc6de063	-0.01451883
153	0xbce7e0da	-0.02830546
154	0xbd873413	-0.06601729
155	0x3d4bd1ac	0.049760506
156	0x3cc9bb7c	0.024625532
157	0x3c4a81dd	0.012360063
158	0xbd7d8c83	-0.06190158
159	0xbd9caa2b	-0.076496445
160	0xbdb23b5a	-0.08702727
161	0xbca88e00	-0.020575523
162	0x3d04b11d	0.03239547
163	0xbd214444	-0.039371744
164	0x3cb6698d	0.022267127
165	0xbe2ace60	-0.16680288
166	0xbda36dcd	-0.07979927
167	0xbde82931	-0.11335982
168	0xbd9225c0	-0.071361065
169	0xbc1287bc	-0.008943494
170	0xbad9c5a2	-0.0016614685
171	0xbc3cf4b0	-0.011532947
172	0x3d65aa9c	0.05607091
173	0x3cfc7579	0.030817734
174	0x3d053d0c	0.032528922
175	0x3d38dee5	0.045134444
176	0x3d33c3ef	0.04388803
177	0x3d92aa97	0.07161444
178	0x3d8f7b44	0.07005933
179	0x3dad8dc0	0.08474302
180	0xbcc7a542	-0.024370793
181	0xbdc6c643	-0.09705784
182	0x3d7a69e3	0.061136138
183	0xbdf1a945	-0.11799864
184	0xbd890db5	-0.066920675
185	0x3c93be58	0.018035099
186	0xbd6b78a4	-0.0574881
187	0xbd850748	-0.064955294
188	0x3c5fe342	0.013665022
189	0x3d9fcf2c	0.07803187
190	0xbdc8efec	-0.098113865
191	0xbd86ff57	-0.06591671
192	0xbdcfb57f	-0.101420395
193	0xbce1cfcc	-0.027564906
194	0xbc792177	-0.015205733
195	0x3d6f54b4	0.05843039
196	0x3c9deff0	0.01927945
197	0xbdc4be6c	-0.096066326
198	0xbdc8e9d4	-0.09810224
199	0x3c445a15	0.011984368
200	0x3cfae661	0.030627431
201	0x3d991b84	0.07475951
202	0xbcd78289	-0.026307361
203	0xbe03ab16	-0.12858233
204	0xbd4190e8	-0.047257334
205	0xbdaaaf21	-0.083341844
206	0xbdc7e914	-0.09761253
207	0xbdc74958	-0.09730786
208	0x3cc9b2aa	0.024621326
209	0xbc69212c	-0.0142291
210	0xbd7a099e	-0.061044328
211	0xbd9007f7	-0.07032769
212	0xbca450e3	-0.020058101
213	0x3daaab1d	0.083334185
214	0xbd54d64b	-0.05196218
215	0xb894fef8	-7.1046816e-05
216	0xbe1163d8	-0.14198244
217	0xbd07f04d	-0.033188153
218	0xbdc2f1bf	-0.09518766
219	0xbbdaf7a0	-0.006682351
220	0xbe2510c6	-0.1611968
221	0xbdae8f54	-0.085234314
222	0xbd5821fb	-0.05276678
223	0x3ddef0bc	0.1088576
224	0xbd7358dd	-0.05941092
225	0x3defb91d	0.117052294
226	0x3d8156bd	0.06315372
227	0xbb90ce76	-0.0044191433
228	0x3d9a4188	0.0753203
229	0x3d629e0d	0.05532651
230	0x3da0c0b2	0.07849254
231	0x3d7f9101	0.062394146
232	0xbe079a9f	-0.13242577
233	0xbdf61b14	-0.120168835
234	0xbddb4ad6	-0.10707633
235	0xbc661dcd	-0.014045191
236	0xbcfc5cf3	-0.03080604
237	0x3d2bd71a	0.041953184
238	0x3d44e722	0.048071988
239	0x3c6951db	0.014240707
240	0xbd46ad77	-0.048505273
241	0xbd128833	-0.03577442
242	0x3c9a2fd7	0.01882164
243	0xbd966e62	-0.073452726
244	0x3df7311c	0.12069914
245	0x3d1afe94	0.03784044
246	0xbc8106ce	-0.015750315
247	0xbd5bf7ad	-0.053703
248	0xbdd2badc	-0.10289547
249	0xbd34f493	-0.044178557
250	0x3ce91633	0.028452968
251	0x3ca0d794	0.019634046
252	0xbda4591f	-0.08024811
253	0xbc41ed5c	-0.011836376
254	0xbcec1f1e	-0.028823432
255	0xbdda9e22	-0.10674693

VAE_Encoder.layers.0.linear1.bias f4 [4]
0	0xbcd961d6	-0.02653591
1	0x3da9d031	0.082916625
2	0xbd8fe64d	-0.07026348
3	0x3c1bb8b0	0.009504482

VAE_Encoder.layers.0.norm1.weight f4 [4]
0	0x3f93ddc5	1.1552054
1	0x3f967da6	1.1757095
2	0x3f91985f	1.1374625
3	0x3f8d0653	1.1017555

VAE_Encoder.layers.0.norm1.bias f4 [4]
0	0x3e01fb6f	0.1269357
1	0xbc6a0a94	-0.014284749
2	0x3de44633	0.11146202
3	0xbd8291df	-0.06375479

VAE_Encoder.layers.1.attention.W_q.weight f4 [4, 4]
0	0x3eda9078	0.42688346
1	0x3f01dbaf	0.50725836
2	0xbd885843	-0.066574596
3	0x3e194c76	0.14970574
4	0x3e55171d	0.20809598
5	0xbdd6644e	-0.1046835
6	0x3ad52a6b	0.0016263252
7	0x3ed94537	0.4243562
8	0xbf1f7f88	-0.6230397
9	0x3f10b64b	0.56528157
10	0x3f096a38	0.536777
11	0x3db5758d	0.08860312
12	0x3ed33ab4	0.41255724
13	0x3e31a96c	0.17349786
14	0xbefaee20	-0.490098
15	0x3e577d23	0.2104383

VAE_Encoder.layers.1.attention.W_q.bias f4 [4]
0	0xbc97a257	-0.018510027
1	0x3d3ee398	0.04660377
2	0xbd250fa5	-0.040298123
3	0x3d63d839	0.055626128

VAE_Encoder.layers.1.attention.W_k.weight f4 [4, 4]
0	0xbea29b6a	-0.31759197
1	0xbef0d100	-0.47034454
2	0xbef35c1a	-0.47531205
3	0xbea4de33	-0.32200775
4	0xbe0c292e	-0.13687584
5	0xbc0d0562	-0.00860724
6	0x3ead986e	0.33905357
7	0xbd801af6	-0.062551424
8	0x3ecef41b	0.40420613
9	0x3e3fc399	0.18726958
10	0x3e41b1f1	0.18915536
11	0xbeb8c03d	-0.36084166
12	0xbebcda0f	-0.36885116
13	0x3ee76e28	0.4520123
14	0x3f025e4c	0.50925136
15	0x3d79311b	0.060837846

VAE_Encoder.layers.1.attention.W_k.bias f4 [4]
0	0xb910fd1d	-0.00013827202
1	0xb75d6b42	-1.3197599e-05
2	0xb96356f6	-0.00021680802
3	0xb95694fd	-0.00020464133

VAE_Encoder.layers.1.attention.W_v.weight f4 [4, 4]
0	0x3dc27754	0.09495416
1	0x3e617186	0.22015962
2	0x3e992d36	0.29917306
3	0x3eac0d58	0.3360393
4	0x3bd325d6	0.0064437194
5	0x3d4ab90e	0.04949289
6	0x3e367306	0.17817315
7	0x3e321c70	0.1739366
8	0x3e58e142	0.21179679
9	0x3e8d72b1	0.27626565
10	0x3ec1f33c	0.37880886
11	0x3ed0ef15	0.40807405
12	0xbe19e4f6	-0.15028748
13	0xbd1e7e89	-0.038694892
14	0x3d289c71	0.04116482
15	0x3e12bb69	0.14329304

VAE_Encoder.layers.1.attention.W_v.bias f4 [4]
0	0xbd09b382	-0.033618458
1	0x3cf61b9a	0.030042458
2	0xbb8f0385	-0.004364433
3	0x3c0b62f1	0.008507476

VAE_Encoder.layers.1.linear0.weight f4 [128, 4]
0	0xbdbe5908	-0.09294325
1	0x3e74a47d	0.23890872
2	0x3e0593ab	0.13044612
3	0x3e270c34	0.16313249
4	0x3eb251bc	0.34827983
5	0x3e6176be	0.22017953
6	0x3e91414e	0.28370136
7	0xbe83e53c	-0.2576083
8	0x3ebf9c97	0.37424156
9	0x3ef7078e	0.4824795
10	0xbe4b7c93	-0.1987174
11	0x3defd19c	0.11709902
12	0xbf074548	-0.5284009
13	0x3e57b40d	0.21064778
14	0xbdfff0dc	-0.12497112
15	0x3ef76115	0.48316255
16	0x3f11f3ba	0.5701252
17	0xbf03fc6f	-0.5155706
18	0xbc5cba88	-0.013472207
19	0xbc6de214	-0.014519233
20	0x3d6362ec	0.05551426
21	0xbea119fc	-0.31465137
22	0x3efe8192	0.4970823
23	0x3dc702da	0.09717341
24	0xbee76694	-0.45195448
25	0x3ec5c19b	0.38624272
26	0xbdfef0e1	-0.12448288
27	0x3e497e82	0.19677165
28	0xbe6de8f5	-0.23233397
29	0x3d06c700	0.032904625
30	0xbed10d2e	-0.40830368
31	0x3dc9b64b	0.09849223
32	0x3ed0f2eb	0.40810332
33	0xbe907b2f	-0.28218982
34	0x3e96b803	0.29437265
35	0x3ef9ada0	0.48765278
36	0x3e6d0007	0.23144542
37	0x3e895988	0.2682612
38	0xbe8f6e2c	-0.28013742
39	0x3d220e7a	0.039564587
40	0x3e84c69a	0.2593277
41	0x3d959656	0.07304065
42	0x3ec9b795	0.39397874
43	0xbd2c0477	-0.041996446
44	0xbebb19cf	-0.36543128
45	0x3e99c1ce	0.30030674
46	0x3bd6243d	0.0065350817
47	0x3eb425c6	0.3518507
48	0x3e31d6ea	0.1736714
49	0x3de5be8c	0.112179846
50	0xbeb8788d	-0.36029473
51	0x3f03c361	0.5147
52	0x3dac355d	0.08408616
53	0xbe300189	-0.17188086
54	0x3e7da007	0.24768077
55	0xbeaa6d41	-0.3328648
56	0xbd85ec41	-0.065392025
57	0xbea19836	-0.3156144
58	0x3eba3449	0.36368015
59	0xbec7ec72	-0.3904758
60	0xbe11b1df	-0.14228009
61	0xbde99d56	-0.114069626
62	0x3f0d99f8	0.5531306
63	0x3cbce918	0.023060367
64	0xbec25809	-0.3795779
65	0xbed4810a	-0.415047
66	0xbe805bb9	-0.2506998
67	0x3e8cffb4	0.27538836
68	0x3ed603f7	0.417999
69	0xbe4d3efb	-0.20043556
70	0xbe28cf4b	-0.16485326
71	0xbca0d8c4	-0.019634612
72	0xbc338bb1	-0.010958598
73	0x3ed8ebbe	0.42367357
74	0x3ee5fdb9	0.44920138
75	0xbede9647	-0.43474028
76	0xbf11a07d	-0.5688551
77	0xbd67eb30	-0.056620777
78	0xbdf2b641	-0.118511684
79	0xbde6855f	-0.11255907
80	0x3e7ebb6f	0.24876188
81	0xbe3615f4	-0.17781812
82	0xbe94cfd2	-0.29064804
83	0x3d32f8c5	0.043694276
84	0xbc9c4d63	-0.01907987
85	0xbcbf4ff6	-0.023353558
86	0x3dcc51a5	0.0997651
87	0x3f145126	0.5793632
88	0x3ed22a15	0.4104773
89	0x3ca7b729	0.02047308
90	0xbef0d462	-0.47037035
91	0xbe964bdd	-0.29354754
92	0x3e3dc6ae	0.18532822
93	0xbe12b9d3	-0.14328699
94	0xbe977df7	-0.2958829
95	0xbe96678f	-0.29375884
96	0xbe05ca65	-0.13065489
97	0x3e00e957	0.12589012
98	0xbea61a4b	-0.32441935
99	0xbec4f452	-0.38467652
100	0x3e762d20	0.24040651
101	0x3df90386	0.12158875
102	0x3dbff59e	0.0937302
103	0x3cc031d1	0.023461254
104	0x3ec23bd1	0.3793626
105	0x3f3ea8ec	0.74476504
106	0xbe147ea4	-0.14501435
107	0x3f42f7e0	0.7615948
108	0x3ee846e8	0.45366597
109	0xbeda9564	-0.426921
110	0xbedc7f9c	-0.43066108
111	0x3effeaf7	0.4998395
112	0x3e50449e	0.20338675
113	0x3e4d11cb	0.20026319
114	0x3e1e6945	0.15469845
115	0xbee94b18	-0.45565104
116	0xbedce837	-0.43145916
117	0xbe17c2b9	-0.14820375
118	0x3e77764a	0.24166217
119	0xbf0534d1	-0.52033716
120	0x3ebeba5b	0.37251553
121	0x3f0fe2c8	0.56205416
122	0xbebe5de5	-0.3718101
123	0x3f24fb03	0.64445513
124	0xbe9d709d	-0.3074998
125	0x3e861087	0.26184484
126	0x3f04193e	0.51601017
127	0xbdb41201	-0.087924965
128	0xbe78df79	-0.24303998
129	0x3d5f318e	0.05449062
130	0xbf086e0d	-0.53292924
131	0x3ec49e9b	0.38402256
132	0x3ea60bcc	0.32430875
133	0xbe9fab9d	-0.31185618
134	0xbec3b6ee	-0.38225502
135	0x3f095896	0.53650796
136	0x3e9406c5	0.28911415
137	0xbd701a59	-0.058618877
138	0x3ee2cb4c	0.44295728
139	0xbd28b3e8	-0.041187197
140	0x3de4aaca	0.11165388
141	0xbbace15f	-0.0052758898
142	0xbdd3fb94	-0.10350719
143	0x3e3446c8	0.17605126
144	0x3d56a8f8	0.052407235
145	0x3e7936b6	0.24337277
146	0x3ac6305c	0.0015120613
147	0x3ed1eed6	0.4100253
148	0xbccbca40	-0.024876714
149	0x3ea4081d	0.3203744
150	0x3dce85e6	0.10084133
151	0xbe591982	-0.21201137
152	0x3e27944b	0.16365163
153	0xbf08a81c	-0.53381515
154	0xbe5c6221	-0.21521808
155	0x3ee99175	0.45618787
156	0xbee94bf3	-0.45565757
157	0xbdd521f0	-0.10406864
158	0xbe36a012	-0.178345
159	0x3ecd681d	0.40118495
160	0xbf13d2d0	-0.5774355
161	0xbcce3774	-0.025172926
162	0xbe91acbf	-0.28452107
163	0x3eb8b4d5	0.36075464
164	0x3e6de133	0.23230438
165	0xbe91e6f8	-0.28496528
166	0xbdc0c517	-0.09412592
167	0x3da3624d	0.07977734
168	0x3ef49e92	0.4777723
169	0xbecc4486	-0.3989603
170	0xbe0c7f74	-0.13720495
171	0xbe8a80be	-0.27051347
172	0xbd1608dd	-0.036629546
173	0x3ed7739d	0.42080393
174	0xbf0d817a	-0.5527569
175	0xbda79b3b	-0.08183905
176	0xbec48315	-0.38381258
177	0xbee0f37c	-0.43935764
178	0xbec92c78	-0.3929174
179	0x3f08c4c4	0.5342524
180	0xbd2c3c6c	-0.04204981
181	0xbef9f9f8	-0.48823524
182	0xbdd63b57	-0.10460537
183	0x3a4bb1da	0.00077703374
184	0x3d189a1f	0.037256356
185	0x3d8af826	0.06785612
186	0xbe24b307	-0.16083919
187	0xbd651b2a	-0.05593411
188	0x3eca1c74	0.39474833
189	0x3e64bcdb	0.22337668
190	0x3ef703d2	0.48245102
191	0xbe68ef3e	-0.22747514
192	0xbca01283	-0.019540077
193	0x3e8552c2	0.26039702
194	0xbeea5cd3	-0.45773944
195	0x3d4ba739	0.049720023
196	0x3d507352	0.050891228
197	0x3e1aa7b6	0.15103039
198	0xbeb212a6	-0.34779853
199	0x3eb122cd	0.34596863
200	0x3ea7e767	0.32793733
201	0xbef51f22	-0.47875315
202	0x3eaabef6	0.33348817
203	0x3e86638f	0.26247832
204	0x3d6a2f55	0.057174046
205	0xbe63aef5	-0.2223471
206	0xbe2c678f	-0.1683638
207	0xbb9f3cd3	-0.0048595457
208	0xbeb18a5c	-0.34675872
209	0x3d38a510	0.04507929
210	0xbe12b752	-0.14327744
211	0x3bdc6c92	0.00672681
212	0x3dd506b9	0.10401673
213	0x3e9d30f5	0.30701414
214	0x3f03539c	0.5129945
215	0xbd5ff4be	-0.054676764
216	0x3e0595df	0.13045453
217	0x3ea3804e	0.31933826
218	0xbe485939	-0.19565286
219	0x3ed0030e	0.4062733
220	0x3e39a64a	0.1812984
221	0x3e3f0e37	0.18657766
222	0xbf072ce4	-0.5280287
223	0xbeba9d84	-0.364483
224	0x3d452ea7	0.048140194
225	0x3f0815e6	0.53158414
226	0x3ed53e5b	0.41649136
227	0x3e4c3eec	0.19945878
228	0x3e308714	0.17239028
229	0x3e4b93df	0.19880627
230	0x3e84fca6	0.25974005
231	0xbe230d6c	-0.15923089
232	0x3ecc9e9d	0.39964762
233	0xbea45c18	-0.32101512
234	0xbbe74c36	-0.0070586456
235	0x3e0dbe89	0.13842215
236	0x3df75eca	0.120786265
237	0xbd5a2416	-0.05325707
238	0x3dcf94a6	0.10135774
239	0x3f030180	0.51174164
240	0x3bd9ad14	0.006642947
241	0xbe649c8b	-0.22325341
242	0x3ec906f1	0.39263108
243	0x3f14c7f1	0.58117586
244	0xbec80313	-0.39064845
245	0x3e261168	0.16217577
246	0x3e528a02	0.20560458
247	0x3ebefbd1	0.37301496
248	0x3e232a40	0.15934086
249	0x3e3c5464	0.18391567
250	0x3e1346b4	0.1438244
251	0x3e9b7618	0.30363536
252	0x3ecaae5b	0.39586148
253	0x3c9b35bc	0.018946521
254	0xbdcd8290	-0.100346684
255	0x3ee2a988	0.44269967

VAE_Encoder.layers.1.linear0.bias f4 [128]
0	0x3dae26a3	0.08503463
1	0xbf0d7655	-0.55258685
2	0xbe86582b	-0.26239142
3	0xbe0e5bb7	-0.13902174
4	0xbe8970a8	-0.26843762
5	0x3d3038eb	0.04302303
6	0xbe5567d4	-0.20840389
7	0x3e53ae32	0.20671919
8	0x3ecb9bf9	0.39767435
9	0x3e21187c	0.15731996
10	0xbe3dec89	-0.18547262
11	0xbd57fb05	-0.052729625
12	0xbd5614e6	-0.052266024
13	0xbda50798	-0.08058089
14	0x3ed3f805	0.4140016
15	0xbe967fb3	-0.29394302
16	0xbed49faa	-0.41528064
17	0x3df41473	0.11917963
18	0x3c336052	0.0109482575
19	0xbd07f7f0	-0.033195436
20	0xbeed838e	-0.4638943
21	0xbee6489a	-0.44977266
22	0x3ed15ce9	0.40891197
23	0xbd30b984	-0.04314567
24	0x3eb823d9	0.3596485
25	0xbeac8cbf	-0.3370113
26	0xbef8362e	-0.48478836
27	0x3e3fd747	0.18734466
28	0x3da9d04f	0.08291685
29	0xbe0be5ff	-0.13661955
30	0xbe718637	-0.23586355
31	0x3e9060b9	0.28198794
32	0x3e4a2d64	0.19743878
33	0xbc707ab6	-0.014677694
34	0x3de32130	0.110903144
35	0x3ee723ac	0.45144403
36	0x3dc8003b	0.09765669
37	0x3eaffca5	0.3437244
38	0xbdff0baf	-0.124534
39	0x3e0a39aa	0.1349856
40	0x3c2b741c	0.010464694
41	0xbd84df36	-0.064878866
42	0xbe944764	-0.28960717
43	0xbec9db97	-0.39425346
44	0xbedb0e37	-0.42784283
45	0x3e762b87	0.24040042
46	0xbed6fbe7	-0.4198906
47	0x3e4893d5	0.19587643
48	0xbed1c122	-0.4096766
49	0xbe64e1ad	-0.22351713
50	0xbe6a9d4c	-0.22911566
51	0x3ed67970	0.41889524
52	0xbc453974	-0.012037624
53	0xbe6c0c91	-0.23051669
54	0xbe9fafbf	-0.3118877
55	0x3d4993f9	0.049213383
56	0x3e9d88af	0.30768344
57	0xbef4c3c5	-0.4780561
58	0xbe703bb3	-0.23460273
59	0xbe582d60	-0.21111059
60	0x3c7b077c	0.015321609
61	0x3b7fe221	0.0039044695
62	0xbeb39042	-0.35070997
63	0xbeb76f43	-0.35827073
64	0xbde516b3	-0.1118597
65	0xbee4cb73	-0.4468647
66	0xbebdec42	-0.37094313
67	0x3de30376	0.110846445
68	0x3e1462ed	0.14490862
69	0xbea2eb54	-0.31820166
70	0xbe1fe408	-0.15614331
71	0x3efd91c4	0.49525273
72	0xbec206d6	-0.3789584
73	0xbe30b359	-0.17255916
74	0xbeb3eb4f	-0.35140464
75	0xbe5df59c	-0.21675724
76	0x3e683703	0.22677235
77	0xbea20e14	-0.31651366
78	0x3e9babed	0.30404606
79	0x3ef52828	0.478822
80	0x3d9d4edb	0.07681056
81	0xbeccee6d	-0.40025654
82	0x3e880bac	0.26571405
83	0x3e8e2ae8	0.2776711
84	0xbeb2f31f	-0.34951112
85	0x3cbb5e04	0.022871979
86	0xbee44aca	-0.4458831
87	0xbee92ddb	-0.45542797
88	0xbeca4150	-0.39502954
89	0xbd05828e	-0.03259521
90	0xbc272458	-0.010201536
91	0x3ea7b317	0.32753822
92	0xbe583fbb	-0.21118061
93	0x3e2bc0f2	0.16772822
94	0x3ed6a2cc	0.4192108
95	0x3e6ca1dd	0.23108621
96	0x3edb1d53	0.4279581
97	0xbe855a28	-0.26045346
98	0xbdc1adf2	-0.094570056
99	0xbcba4b2a	-0.02274092
100	0xbeb546e7	-0.35405657
101	0xbd036f41	-0.032088522
102	0x3e8efa48	0.27925324
103	0x3e704592	0.23464039
104	0x3d317151	0.043320958
105	0xbeda1690	-0.4259534
106	0x3b8e7f3e	0.0043486645
107	0xbe8100d1	-0.25195935
108	0x3e756b40	0.23966694
109	0x3ee5b54f	0.4486489
110	0xbd22aaf3	-0.03971381
111	0xbea4c077	-0.3217809
112	0x3e7d8eda	0.24761525
113	0x3e4b3f63	0.19848399
114	0x3ea86060	0.32886028
115	0xbf0a95a0	-0.5413456
116	0xbea16d83	-0.31528863
117	0x3ee16f19	0.44030073
118	0xbed5f976	-0.41791886
119	0x3f0c2776	0.5474771
120	0xbec933f0	-0.39297438
121	0x3ecf2c3d	0.4046344
122	0x3e5de411	0.21669032
123	0xbe719967	-0.23593675
124	0x3e606385	0.21912964
125	0x3ef57e70	0.47948027
126	0xbee77836	-0.452089
127	0xbee8682a	-0.4539197

VAE_Encoder.layers.1.linear1.weight f4 [4, 128]
0	0xbdf240b9	-0.11828751
1	0xbd4cbea9	-0.049986515
2	0xbcd33406	-0.025781643
3	0xbe039410	-0.1284945
4	0xbe25c4b1	-0.16188313
5	0x3dc3b589	0.095561095
6	0xbdd83047	-0.10556083
7	0x3dbf87b2	0.09352054
8	0xbdffee6a	-0.12496646
9	0x3df3ff31	0.11913908
10	0x3da0af06	0.07845883
11	0xbda4529c	-0.08023569
12	0x3da20cbd	0.07912586
13	0x3d86970d	0.065717794
14	0x3e03f622	0.12886861
15	0x3d9ff8a7	0.078110985
16	0x3e7575f9	0.23970784
17	0xbcc07b4a	-0.023496289
18	0xbd56a79a	-0.05240593
19	0xbd5bcf9a	-0.05366478
20	0xbc85e74e	-0.016345646
21	0x3e8faf21	0.280633
22	0xbabcf7b0	-0.0014417078
23	0xbcd5a2c8	-0.026078597
24	0x3d9bcaf2	0.07607068
25	0x3c34624c	0.011009764
26	0x3f1558da	0.583387
27	0xbcca5efa	-0.024703491
28	0xbcad51ea	-0.021157224
29	0x3db4da1a	0.08830662
30	0x3d7aa5a8	0.06119314
31	0x3d8b71fd	0.06808851
32	0x3e21aca0	0.15788507
33	0xbd877633	-0.066143416
34	0xbc185758	-0.009298168
35	0x3d8d2d69	0.06893427
36	0x3d9ab483	0.07553961
37	0x3dee5724	0.116377145
38	0xbdabaaca	-0.08382185
39	0xbd2098cf	-0.03920823
40	0xbd939f76	-0.07208149
41	0xbdc8f961	-0.0981319
42	0xbe07e61b	-0.13271372
43	0x3da41a0d	0.08012781
44	0x3e4789ca	0.19486156
45	0xbde7b988	-0.11314684
46	0xbc8ca697	-0.01716928
47	0x3d976cc7	0.073937945
48	0x3c9c3508	0.019068256
49	0x3d98d6e6	0.074628636
50	0xbb1f03a6	-0.002426365
51	0xbcd4c672	-0.025973532
52	0xbe0609ae	-0.1308963
53	0x3dfae598	0.12250823
54	0x3cf19f9b	0.029495051
55	0x3d9cb997	0.07652586
56	0xbd001542	-0.031270273
57	0xbcf1fb06	-0.029538643
58	0xbe15da22	-0.14633992
59	0x3e4cd2af	0.20002244
60	0x3d76f3c4	0.060291067
61	0xbc451c6d	-0.012030703
62	0xbd049d80	-0.032376766
63	0xbd797c64	-0.060909644
64	0xbd997599	-0.07493133
65	0x3d0d95a2	0.03456653
66	0xbd17c892	-0.037056513
67	0x3de9e204	0.11420062
68	0x3e131339	0.14362802
69	0xbdf29ec6	-0.1184669
70	0x3d19e4c0	0.03757167
71	0x3d51cd84	0.051221386
72	0x3e00e682	0.12587932
73	0xbd4dd030	-0.05024737
74	0xbb6bdf2a	-0.003599117
75	0x3dd85f79	0.10565085
76	0xbc9a05dd	-0.018801624
77	0x3d6bbcda	0.05755315
78	0x3db20820	0.08692956
79	0xbd882b73	-0.06648912
80	0xba66a97c	-0.0008799059
81	0x3dba0caf	0.090844505
82	0x3da7082e	0.08155857
83	0xbd8d218e	-0.06891166
84	0xbdb015b2	-0.08597888
85	0x3ca01b17	0.019544167
86	0xbcd9f6b8	-0.026606902
87	0x3d9a89b3	0.07545795
88	0xbabba99c	-0.0014317515
89	0xbe026fcb	-0.12737958
90	0x3dbbd8da	0.091722205
91	0x3e06ec2c	0.1317603
92	0xbde37bf8	-0.111076295
93	0xbdb8eeed	-0.090299465
94	0xbc1e6cfa	-0.009669537
95	0x3a7700ea	0.00094224385
96	0x3df4252a	0.11921151
97	0x3e0bfb6a	0.13670126
98	0xbd2e0a93	-0.042490553
99	0xbd813a91	-0.06309999
100	0xbdaf7eb0	-0.085690856
101	0x3d3764a5	0.044773716
102	0xbdef557f	-0.11686229
103	0xbddd544b	-0.10807093
104	0x3d9fa0c6	0.07794337
105	0xbc978956	-0.018498104
106	0xbdee5ef8	-0.116392076
107	0x3d84b8b9	0.064805456
108	0xbdd75920	-0.10515046
109	0x3d0163ed	0.031589437
110	0xbd456ed0	-0.048201382
111	0xbe3bb8dc	-0.18332237
112	0x3c261623	0.010137114
113	0xbd1ed352	-0.03877575
114	0x3df55277	0.119786195
115	0x3e22346e	0.15840313
116	0xbda728f0	-0.08162105
117	0x3dd412dc	0.1035516
118	0xbe0b5169	-0.13605274
119	0xbd885ced	-0.06658349
120	0xbdfa738b	-0.12229069
121	0x3d862351	0.06549705
122	0x3db1c8d8	0.08680886
123	0x3dd7e193	0.10541072
124	0xbbda2725	-0.0066574984
125	0xbd276668	-0.040869147
126	0xbcc6186e	-0.02418157
127	0xbbabaf98	-0.0052394383
128	0x3e072f3a	0.13201609
129	0xbcfcc1cc	-0.030854128
130	0x3e09f177	0.13471018
131	0x3bd9408a	0.006630008
132	0x3dd15ce6	0.10222797
133	0x3c5634c2	0.013074102
134	0x3d127456	0.035755478
135	0xbdbd8fa9	-0.092559166
136	0xbd94c602	-0.072643295
137	0xbd90ef18	-0.070768535
138	0xbd29ba4a	-0.041437425
139	0x3c984c86	0.018591177
140	0xbd9523c7	-0.072822146
141	0xbc8e2d6a	-0.01735564
142	0x3ddf10c1	0.108918674
143	0xbd79e1fc	-0.06100653
144	0xbde8148c	-0.11332044
145	0x3d818f3b	0.06326147
146	0xbd405cb4	-0.04696341
147	0x3dfbe2a6	0.12299089
148	0xbe4a4bb5	-0.19755442
149	0xbdb610f8	-0.08889955
150	0x3dc2087e	0.09474276
151	0x3d5d9b92	0.05410344
152	0xbcbf11e9	-0.02332397
153	0xbd206402	-0.039157875
154	0x3f5504f1	0.83210665
155	0x3d9a0b87	0.0752173
156	0xbd8d092e	-0.068865165
157	0xbd66fd5b	-0.056393962
158	0x3d9afc3d	0.07567642
159	0x3c382292	0.011238711
160	0xbde307b5	-0.110854544
161	0xbd44e933	-0.04807396
162	0x3d70aeb1	0.05876035
163	0xbd3a6a06	-0.045511268
164	0xbd8c92c7	-0.06863933
165	0xbd9acf57	-0.07559078
166	0xbd2a9dfb	-0.04165457
167	0xbd80babd	-0.062856175
168	0xbd5e01bf	-0.054200884
169	0xbd8991f5	-0.06717292
170	0x3dbbb87a	0.091660455
171	0x3d83014a	0.0639673
172	0xbdb66c97	-0.089074306
173	0xbd10da06	-0.035364173
174	0x3da35e68	0.07976991
175	0xbd7db1db	-0.061937194
176	0x3e81ef3d	0.25377837
177	0x3cede212	0.029038463
178	0x3d92b1a3	0.07162788
179	0xbd1769d8	-0.036966175
180	0xbbc24580	-0.005928695
181	0xbd388bd0	-0.04505521
182	0x3e86e1f7	0.26344272
183	0x3d40faab	0.047114056
184	0x3d879d50	0.06621802
185	0x3d6d63eb	0.057956617
186	0x3d2ad66d	0.0417084
187	0xbd405e4f	-0.04696494
188	0xbd159d71	-0.0365271
189	0x3d1cb576	0.038258992
190	0x3d568b9a	0.05237923
191	0xbeb12ef4	-0.34606135
192	0xbc6d313e	-0.014477072
193	0xbd00fb3a	-0.03148959
194	0xbd98a08d	-0.07452498
195	0xbd244628	-0.04010597
196	0x3d885b07	0.06657987
197	0x3daf4239	0.08557553
198	0x3d848b13	0.06471839
199	0x3d14cdd4	0.036329105
200	0x3e01f057	0.12689339
201	0x3d4674dc	0.04845129
202	0xbd836e3e	-0.064175114
203	0xbdb1baf7	-0.08678239
204	0x3da999cf	0.0828129
205	0xbdc8c8bb	-0.09803911
206	0xbdd8e5ec	-0.10590729
207	0xbd9be240	-0.07611513
208	0x3d2b3265	0.041796107
209	0xbb1173d1	-0.0022194276
210	0x3cd89f4f	0.026443152
211	0x3daddcbe	0.08489369
212	0xbd64d54b	-0.055867475
213	0x3d0c9800	0.034324646
214	0xbdad99ee	-0.084766254
215	0xbe29e004	-0.16589361
216	0x3e29902d	0.16558905
217	0xbd735c38	-0.05941412
218	0xbde5181a	-0.11186238
219	0xbbb75ed3	-0.0055960207
220	0xbdb20d45	-0.08693937
221	0x3d3e6af1	0.046488706
222	0xbd8b2c2a	-0.06795533
223	0xbd578411	-0.052616183
224	0xbd80586e	-0.062668666
225	0xbcfb7b8f	-0.030698566
226	0x3d3f4c28	0.046703488
227	0xbd3aa0c6	-0.04556348
228	0x3de94688	0.11390406
229	0xbd0c72b8	-0.03428909
230	0x3db940f9	0.09045596
231	0x3d35891e	0.04432022
232	0xbb4ecc9d	-0.0031555064
233	0x3d68d8dc	0.05684744
234	0xbd9b76cc	-0.07591018
235	0x3d354d90	0.044263422
236	0x3e09e303	0.13465504
237	0x3cc5e455	0.024156729
238	0xbc9d5c98	-0.019209191
239	0x3d5b6964	0.053567305
240	0x3deb4052	0.114868775
241	0xbd95e067	-0.07318192
242	0x3daef5a4	0.08542946
243	0xbd1ce2f1	-0.038302366
244	0xbd24f2a2	-0.040270455
245	0xbd429e04	-0.047513977
246	0x3da3a7ea	0.079910114
247	0x3d81688a	0.06318767
248	0xbdb5b9a4	-0.08873299
249	0xbe1bd58a	-0.15218177
250	0xbd1f472e	-0.03888624
251	0xbcc4edc5	-0.024039159
252	0x3d87fa35	0.0663952
253	0x3d49c1ad	0.04925697
254	0xbba20f85	-0.0049456977
255	0xbdde3e25	-0.10851697

VAE_Encoder.layers.1.linear1.bias f4 [4]
0	0x3de624ab	0.112374626
1	0x3dfd3a27	0.12364607
2	0x3d37b378	0.04484889
3	0xbdc946c3	-0.0982795

VAE_Encoder.layers.1.norm1.weight f4 [4]
0	0x3f8b8e7e	1.090286
1	0x3f8e1812	1.1101096
2	0x3f8b299a	1.0872071
3	0x3f997578	1.1988974

VAE_Encoder.layers.1.norm1.bias f4 [4]
0	0x3d96bcd3	0.07360234
1	0x3bab5954	0.0052291546
2	0xbd3c1be3	-0.045925032
3	0x3d0d64a3	0.034519803

VAE_Encoder.layers.1.norm0.weight f4 [4]
0	0x3f838a7c	1.0276637
1	0x3f71eb5e	0.94499767
2	0x3f822e06	1.0170295
3	0x3f6a07fa	0.9141842

VAE_Encoder.layers.1.norm0.bias f4 [4]
0	0x3ca210da	0.019783426
1	0xbd775d1e	-0.060391538
2	0xbcb7975a	-0.022411037
3	0xbbdc2c65	-0.0067191594

VAE_Encoder.last_normalization.weight f4 [4]
0	0x3f800000	1.0
1	0x3f800000	1.0
2	0x3f800000	1.0
3	0x3f800000	1.0

VAE_Encoder.last_normalization.bias f4 [4]
0	0x00000000	0.0
1	0x00000000	0.0
2	0x00000000	0.0
3	0x00000000	0.0

VAE_Encoder.head.weight f4 [4, 4]
0	0xbec88a82	-0.39168173
1	0x3e787a30	0.24265361
2	0xbeeb40ae	-0.45947784
3	0xbe4ba304	-0.19886404
4	0x3e994252	0.2993341
5	0xbeafabda	-0.343108
6	0x3eda9fe2	0.42700106
7	0xbd8e07b0	-0.0693506
8	0x3e8c985c	0.2745999
9	0xbdf78fa8	-0.12087947
10	0xbe795f74	-0.24352819
11	0xbda2f120	-0.07956147
12	0x3e965ec6	0.2936918
13	0xbeda6a2e	-0.42659134
14	0xbe9d476a	-0.30718547
15	0xbe8c1324	-0.27358353

VAE_Encoder.head.bias f4 [4]
0	0xbeab23c6	-0.3342573
1	0xbea1aa90	-0.3157544
2	0x3e8ee1c0	0.2790661
3	0x3e989ef8	0.29808784
