restsyn/tabsyn/vae/ckpt/fintech_cond/decoder.pt (torch, 34439 bytes, 69 tensors)

VAE_Decoder.layers.0.attention.W_q.weight f4 [4, 4]
000000 74 b0 95 bc 46 11 77 3e 04 54 c5 bd 81 49 c7 3e
       -0.018272616 0.24127683 -0.09635165 0.38923267
000010 24 ce 62 3d 0e a9 13 be d3 0b 97 be f8 68 00 bf
       0.055372372 -0.14419958 -0.2950121 -0.5016017
000020 e4 db ed 3c 00 68 c4 be 2b 29 a1 be e1 5a 30 3d
       0.029035516 -0.38360596 -0.3147672 0.04305542
000030 62 b3 2f 3e f2 6e 74 be 24 da de bd 00 ae b7 be
       0.17158273 -0.23870447 -0.10881451 -0.3587494

VAE_Decoder.layers.0.attention.W_q.bias f4 [4]
000000 16 e4 bb 3d 6b 43 aa 3e 73 64 ab 3d 39 f9 60 bd
       0.09174363 0.3325456 0.083687685 -0.054925177

VAE_Decoder.layers.0.attention.W_k.weight f4 [4, 4]
000000 99 90 97 3e 14 6a c3 3d 8a 66 f1 be ba 41 37 be
       0.29602507 0.09541717 -0.47148544 -0.17896166
000010 cf 41 77 bd fc cf 28 3f 0a 4a 9f 3e 40 1f 43 bd
       -0.060365494 0.6594236 0.31111175 -0.047637224
000020 43 3b df be 12 79 a7 3e 18 c1 9a bc 21 0a d7 be
       -0.435999 0.32709557 -0.018890902 -0.41999915
000030 63 9f 6e 3e 51 01 9d be b6 48 af 3e ce 4b be be
       0.23302989 -0.30665067 0.34235162 -0.3716721

VAE_Decoder.layers.0.attention.W_k.bias f4 [4]
000000 52 c0 16 38 fe 4f 9a b9 b8 bd 3c b9 99 21 29 ba
       3.59419e-05 -0.00029432768 -0.00017999753 -0.0006451845

VAE_Decoder.layers.0.attention.W_v.weight f4 [4, 4]
000000 cf 46 c1 bd 15 70 5c bd 0f e6 25 be 41 0a 96 3e
       -0.09437334 -0.053817827 -0.16201042 0.29304698
000010 cb 91 33 3e 90 2b b4 bd b7 cf 30 be 03 f5 1e 3e
       0.17536084 -0.087973714 -0.17266737 0.15523152
000020 ce fb 0f 3e 5a 71 c5 bd 88 40 d2 bd 3b e6 0b 3e
       0.140609 -0.09640761 -0.102662146 0.13662045
000030 be b1 60 3d b6 5b 74 bd a9 02 f9 be 1e ab 68 bd
       0.05485701 -0.059657775 -0.48634842 -0.056803815

VAE_Decoder.layers.0.attention.W_v.bias f4 [4]
000000 b4 99 0b bd 75 cd 6e bc b7 0e a1 bc ad 85 17 bd
       -0.03408213 -0.014575352 -0.019660337 -0.036992718

VAE_Decoder.layers.0.linear0.weight f4 [128, 4]
000000 7f 22 31 bf 9f a0 3f 3f 4c 0a 09 be 5f 95 38 be
       -0.6919326 0.74854463 -0.13382834 -0.1802573
000010 c7 f4 97 3e 99 79 d8 3d a4 5a fa be 2d 86 74 3e
       0.29678938 0.10570068 -0.48897278 0.23879309
000020 bb e8 37 3f e6 8d 9d 3e e0 fe d9 be bf 9d 04 3f
       0.71839494 0.30772322 -0.42577267 0.518032
000030 5f 27 e7 3a c0 8b a6 3e de b8 c4 be 23 16 2a 3e
       0.0017635635 0.32528496 -0.38422292 0.16610007
000040 2e 8c 4e bd 7f fb 30 3e e2 07 70 bd 9e 47 03 bf
       -0.050426655 0.17283438 -0.058601268 -0.51281154
000050 c1 13 6f be 72 08 ed be c9 4b 75 3e 40 27 b1 3e
       -0.2334738 -0.46295506 0.23954691 0.34600258
000060 3f e0 2c 3e 24 29 ed be 38 8d 0f 3f 2a c9 8c be
       0.16882418 -0.4632045 0.5607486 -0.27497226
000070 4e 95 7e be d0 e4 1a 3f 30 a7 ad 3e e0 fe 73 be
       -0.24861643 0.6050539 0.33916616 -0.23827696
000080 b0 27 b0 be dd b2 d7 3c 75 56 d0 be 1c 4c bc 3e
       -0.3440528 0.026330406 -0.4069096 0.36776817
000090 00 7e b1 be e1 aa b5 be fb 5c ec be f2 6b 7d 3e
       -0.34666443 -0.35481933 -0.46164688 0.24748209
0000a0 c8 48 81 be a8 83 f9 be b3 f7 73 3e 53 1f fd 3e
       -0.2525084 -0.48733258 0.23824959 0.4943796
0000b0 23 12 d1 be 8b 25 32 3e 46 b9 cf bd 62 33 df 3e
       -0.4083415 0.17397134 -0.1014276 0.4359389
0000c0 78 25 d7 3e 8b 8e d7 bd 87 26 b0 3d e6 2b e4 bd
       0.42020774 -0.10525235 0.086010985 -0.111411855
0000d0 29 87 a3 be 87 31 f8 be c0 62 dd be 05 5e bf 3d
       -0.31939057 -0.48475286 -0.43239403 0.09344105
0000e0 5f c7 83 bd 71 96 93 3e c4 0f c0 3e ec 66 e8 be
       -0.064345114 0.28825715 0.37512028 -0.45391023
0000f0 dc 27 6b 3e a0 2c 08 3f 57 2b bb bd e9 e8 8a be
       0.22964424 0.5319309 -0.09139126 -0.2713082
000100 cb 86 84 3d a6 21 af bc 32 e4 b1 3c 49 d7 07 3f
       0.06471022 -0.02137835 0.021715257 0.53062874
000110 0a 1c 83 be 96 7f b2 3e cd 57 5b 3e 38 6a e0 be
       -0.2560733 0.34862965 0.21420212 -0.43831038
000120 76 1c 84 be 58 26 06 bf 08 fa fe 3e 1b 64 92 3e
       -0.25802964 -0.5240226 0.49800134 0.28592
000130 23 a0 b2 be ca bb 27 bc 1e 33 dd 3e 80 44 15 bf
       -0.348878 -0.0102376435 0.43203062 -0.5830765
000140 39 54 61 3e cb c0 e2 be 42 8b 2c bf a9 ce 05 3e
       0.22004785 -0.44287714 -0.6739999 0.13067116
000150 b4 45 a3 3e 9c 5a 8d 3e 02 fb d2 3e 86 a4 c7 3e
       0.31889117 0.27608192 0.4120713 0.3899271
000160 fb 8d f5 3e fd 15 0d bf 32 90 16 3f 09 a8 6c be
       0.47959885 -0.55111676 0.58813775 -0.23110975
000170 25 1d de bd 8d 67 24 3e 07 72 9e be 99 11 0e 3f
       -0.10845403 0.16055126 -0.3094637 0.554956
000180 65 bc f9 3e d7 de 08 3f 9e 21 64 be 9a 0a 14 be
       0.48776546 0.53465027 -0.22278449 -0.14457169
000190 f6 06 0a be 27 18 f4 be 53 fc 86 be 62 ad ae 3e
       -0.13479218 -0.47674677 -0.26364383 0.34116656
0001a0 4e 9b e1 be f4 de 67 3c ff bc 19 bf 60 07 d3 3e
       -0.440638 0.014152277 -0.6005401 0.41216564
0001b0 89 d6 da 3e fd a9 67 bc 97 ed be 3e b6 81 58 bd
       0.42741802 -0.014139649 0.37290642 -0.052858077
0001c0 12 0d bf 3e c1 8b 33 bd 2b 39 85 3e 01 f3 0e 3f
       0.3731466 -0.04383445 0.26020178 0.55839545
0001d0 5b ac 0f 3e 29 d6 39 3e 1e ab 85 be 25 39 85 be
       0.14030592 0.18148102 -0.26107115 -0.2602016
0001e0 8e e0 c0 3d 3d 2f 9c 3e ad 56 ca 3e e4 7f 71 bb
       0.094178304 0.3050479 0.39519253 -0.003684991
0001f0 eb 4b d1 3e f8 0d 83 be ba 57 e6 be 25 95 49 3e
       0.40878233 -0.25596595 -0.44988805 0.196858
000200 35 21 ef 3d 5d ef 1a 3f a6 6e b3 3e 4b 94 e1 be
       0.116762556 0.6052149 0.35045356 -0.4405845
000210 4e b4 fa be f7 12 16 3f 81 e8 02 bf a2 3c c8 bc
       -0.48965687 0.5862269 -0.5113602 -0.024442974
000220 96 9c 3f 3b c4 06 b6 3e 53 e6 aa 3e 41 67 ce 3e
       0.002923762 0.35552037 0.33378848 0.4031315
000230 1d d3 0b 3f db d4 ee 3e 41 d4 0b bf 81 99 70 3e
       0.5461901 0.4664677 -0.5462075 0.23496057
000240 ac 14 d6 be 4c 7b eb 3e 7d 46 84 be 0c d5 4f 3e
       -0.41812646 0.45992506 -0.25835028 0.20296115
000250 da d3 2a 3e 8d 07 26 bf 09 66 bb 3e 2d b1 95 3e
       0.16682377 -0.6485527 0.36601284 0.29236737
000260 3c 9d d6 3e 6c 23 f0 3e 82 8f 97 3e f4 b3 88 3e
       0.41916835 0.46902025 0.29601675 0.26699793
000270 c8 9f aa be f8 a1 5f bd 3a ef 12 be 69 5b 24 3e
       -0.33325028 -0.054597825 -0.1434907 0.16050495
000280 40 4d 85 3e c4 f4 d9 bd e5 bb 81 3d 1d 11 0f be
       0.260355 -0.106423885 0.06334666 -0.13971372
000290 78 a8 d6 bd 5d ee eb be 60 2e d1 3e 69 63 1a be
       -0.104813516 -0.46080294 0.40855694 -0.15076984
0002a0 2e 31 83 3e c7 88 d3 3e 2c a8 3a bf a1 59 01 3f
       0.2562346 0.4131529 -0.7291286 0.5052739
0002b0 f8 b7 b9 3e db 29 1f bf 75 02 e7 3e ab 86 bb 3e
       0.3627317 -0.6217324 0.45119062 0.3662618
0002c0 71 89 0f be e0 9d bb be cf a3 9b be ea 7c cb 3e
       -0.14017273 -0.36643887 -0.30398414 0.3974374
0002d0 15 8b c5 bc 01 2b ea be bf c7 b2 be 21 9d 1f 3f
       -0.024114171 -0.45735934 -0.3491802 0.62349135
0002e0 14 f3 96 3e b6 d8 9d be ac a3 b4 3e 88 a2 b4 3d
       0.2948233 -0.308294 0.35281122 0.08820063
0002f0 d7 32 b6 3c 84 1b b0 bd e8 53 35 be 91 65 c3 3e
       0.02224104 -0.08598998 -0.17707789 0.38163427
000300 9b 14 01 3f 0b 0c 29 3e a2 76 c5 3e a2 a0 fc bb
       0.50422066 0.165085 0.38567072 -0.0077095786
000310 5a a5 eb be 1a 3d 94 3d 69 96 0c 3f ef 7f f9 3e
       -0.4602459 0.07238217 0.5491701 0.48730418
000320 5b d9 fd 3b da 81 d5 3e 7b e0 bd bd 45 42 f9 bd
       0.007746858 0.4170063 -0.09271332 -0.12170843
000330 a4 3e 95 3e 9d 92 e8 be 3f be d5 be 38 be be 3e
       0.29149354 -0.45424357 -0.4174671 0.372545
000340 67 7a 29 3e 57 43 0b bf a1 b9 6c be 42 71 3b 3e
       0.16550599 -0.5439963 -0.23117687 0.18304923
000350 c0 f4 cc bd 78 21 37 3e 52 d0 e9 be 90 5d 03 3f
       -0.1000762 0.17883861 -0.45666748 0.5131464
000360 d8 04 e2 be 71 6c df 3e d4 ab 8e 3e 3d 69 78 3e
       -0.4414432 0.43637422 0.2786547 0.24258895
000370 4e 34 c2 bd 61 1b 03 3f e1 fa cb bd 0c ff 6a 3e
       -0.094826326 0.5121365 -0.09959961 0.22948855
000380 2c 05 00 3f 40 29 67 bd 8d 3e 18 3f fb 1a c5 be
       0.5000789 -0.056435823 0.59470445 -0.38497147
000390 02 37 9a be 95 8b dc 3e cb 57 47 3e c4 b1 34 bf
       -0.30120093 0.43075243 0.19467084 -0.7058375
0003a0 37 f7 ee 3e 4a 79 22 be 08 f0 05 be 2d 6d ef be
       0.46672985 -0.1586658 -0.13079846 -0.46762982
0003b0 7e 3c 69 3d 60 97 9b be 84 3d f3 3e c1 53 cf be
       0.056942455 -0.30388927 0.4750787 -0.40493587
0003c0 19 61 47 be 85 f8 11 bf 58 90 73 bc 03 08 a4 bd
       -0.19470634 -0.57019836 -0.014865957 -0.080093406
0003d0 86 ec a2 be a9 61 9a be db 5a f0 3e b1 63 fd 3e
       -0.31821078 -0.30152634 0.46944317 0.4949012
0003e0 18 f0 0d 3f 3e a5 7e 3d 7f 6c c5 bd 52 ff eb be
       0.5544448 0.062169306 -0.096398346 -0.4609323
0003f0 ed 13 c6 be 3c 70 26 bf de a2 03 3f c9 37 8c be
       -0.38687077 -0.65015006 0.5142039 -0.2738631

VAE_Decoder.layers.0.linear0.bias f4 [128]
000000 d9 cf b2 3b c7 50 04 bf 61 61 21 be 2a 78 71 3e
       0.0054569063 -0.51685756 -0.15759803 0.23580995
000010 f5 bc c7 3d f0 cb e5 bd 0b c9 85 3d a8 5b 4e be
       0.097528376 -0.112205386 0.065324865 -0.20152152
000020 71 73 ad 3e bd 05 f6 3e 6e 2a df bd 19 38 04 be
       0.33877137 0.48051253 -0.10896765 -0.12912025
000030 b9 d4 ca 3e cb 79 5c 3e 12 ac b8 3c f5 c9 dd 3e
       0.3961542 0.21530835 0.022542987 0.43318143
000040 5f 89 f5 bd 6c fd 96 be 47 4b 16 3e 45 27 be 3e
       -0.11989092 -0.2949022 0.14677154 0.37139335
000050 cb 6a 8e be 3a 55 bf be d6 1c 03 bd 40 4e bf be
       -0.27815852 -0.3736971 -0.032009922 -0.37364388
000060 58 7e 7a bd 37 b5 fe 3e c9 01 b6 be 41 7d 1d 3e
       -0.061155647 0.4974763 -0.35548237 0.15379812
000070 bd c3 9c bd 3e 7c 5a 3d 94 da 97 be f9 83 fa be
       -0.076545216 0.053341143 -0.2965895 -0.48928812
000080 b8 50 6b 3c f0 45 0d be 0a 18 e9 3e f1 66 86 be
       0.014362507 -0.1379621 0.45526153 -0.26250413
000090 2e da 5e be 6b 3a af 3e fa f0 e6 be 9a f5 eb 3e
       -0.21762916 0.34224257 -0.45105726 0.46085817
0000a0 5d d0 ab bd f0 2c b0 3e 08 b2 a5 3e ad 52 83 3e
       -0.083893515 0.34409285 0.3236239 0.25649014
0000b0 84 ab 6b be 25 de bd 3b 0d 46 0a 3e 09 b3 07 3f
       -0.23014647 0.005794304 0.13503285 0.5300756
0000c0 75 f9 15 be 8f 91 00 be 4a 37 77 3e 0f a0 7c 3e
       -0.14645942 -0.12555526 0.24142185 0.24670433
0000d0 5d ee b6 3e 87 48 e0 3e 34 14 d6 3d 7f a7 d6 3e
       0.35728732 0.43805334 0.10453072 0.41924664
0000e0 1f bc 15 3e e4 58 b9 be cf 77 79 3e e3 1a c0 3e
       0.14622544 -0.3620063 0.2436211 0.37520513
0000f0 e2 90 1b 3f 4e 7e d1 3c 30 c9 c3 3e 04 19 d9 be
       0.6076795 0.025572922 0.3823943 -0.42401898
000100 28 86 b7 be 64 77 ea bd 2d 6f 4d bc b0 9c 86 bd
       -0.3584454 -0.11448553 -0.012538713 -0.065728545
000110 a6 5e 16 bf 33 66 bb be eb c6 bb 3e 38 bd 03 bf
       -0.5873817 -0.3660141 0.366752 -0.514606
000120 0e 9f e4 bd 6d 41 60 3e 30 e5 c0 bc f5 9c d5 3e
       -0.1116315 0.21899958 -0.023546785 0.4172131
000130 e8 f0 14 be 23 4d dd 3e 0e 26 b6 be ca ee bf 3e
       -0.14545023 0.43222913 -0.35575908 0.3748687
000140 2f 14 e2 bd 29 c8 b8 be 30 40 06 bf 53 1d 05 3f
       -0.11039006 -0.3609021 -0.5244169 0.5199787
000150 32 7b 03 bf f8 f7 7f bd ac 35 cf be ce 56 83 be
       -0.51359856 -0.06249234 -0.40470636 -0.25652164
000160 92 3d ab 3d 2b fe dd 3e 11 97 f1 3e 9e e1 48 bc
       0.08361353 0.43357977 0.47185567 -0.012260823
000170 9d ad f7 3e 01 e5 1c 3c d4 c7 03 bf 7a 7d bf bd
       0.48374644 0.009576083 -0.5147679 -0.09350105
000180 dc 49 6f be 2d bc fa 3e 52 52 7c 3e 5a 20 97 3e
       -0.23368019 0.48971692 0.24640778 0.2951687
000190 1f 93 58 bd ed fa 31 3e 90 8f c6 3e 0f e8 21 3e
       -0.05287468 0.17380877 0.38781404 0.1581118
0001a0 17 dc d2 be 1e 98 e5 3e dd 0d fc bd 28 6e 82 bd
       -0.4118354 0.4484262 -0.12307332 -0.06368667
0001b0 3f fb 4f 3e 06 51 c5 3e 20 a1 9e 3e 7a 5d 7c 3e
       0.20310687 0.38538378 0.30982304 0.24645033
0001c0 8b 0d 2c 3e 67 f9 dc 3e 36 48 bf 3e e5 6a 97 3e
       0.16802041 0.4315903 0.3735978 0.29573742
0001d0 65 ab 03 3d 2e 0e e8 3e fa 30 d3 bd 39 b7 86 bd
       0.032145876 0.45323318 -0.10312076 -0.06577916
0001e0 80 4c b2 3e 0a de 4b be ee ef 08 bd a8 bc bd be
       0.3482399 -0.1990892 -0.03343194 -0.37057996
0001f0 57 21 d5 3e 0f a8 9d 3d 46 e4 fc bd b8 b3 86 3e
       0.41627 0.0769807 -0.12348227 0.2630899

VAE_Decoder.layers.0.linear1.weight f4 [4, 128]
000000 33 a1 a9 3e 29 05 c7 3d fd 55 b5 3e 37 94 39 3e
       0.33130798 0.09717781 0.35417166 0.18122946
000010 e1 0a 5b bd 17 b8 04 be 64 e4 a3 bb c6 fd 5a 3e
       -0.05347717 -0.1296085 -0.0050015915 0.2138587
000020 38 8e 2d 3e 38 d2 7e 3c 4e ec 6d be 8a a6 1c 3d
       0.16948783 0.01555305 -0.23234674 0.03824476
000030 c3 26 c0 bc 8f e1 59 bc 40 ca 6e bd 76 7c a3 3d
       -0.023455983 -0.013298406 -0.05829835 0.079827234
000040 8e 83 1f be 78 0a 59 3d 99 7e 6e be 07 b0 8c bd
       -0.15577528 0.0529885 -0.2329048 -0.06869512
000050 d9 dd b5 ba 11 9c 9f 3d 83 23 0a be 00 d3 be 3d
       -0.001387532 0.07793439 -0.13490109 0.09317589
000060 f7 79 c8 3d 03 a1 1b 3c b7 84 31 3e c0 eb aa bd
       0.09788888 0.009498837 0.17335783 -0.08345747
000070 cb 47 a2 bd c0 11 08 bd 0d 8c c8 3b 15 76 61 3d
       -0.0792385 -0.033220053 0.006120211 0.055044252
000080 42 90 3c 3d 2e 42 aa 3e 23 f9 a5 3d b4 53 67 3e
       0.046036012 0.33253616 0.0810416 0.22590524
000090 6c 16 3a 3e d5 f3 52 bd 44 16 aa 3c 89 a4 d6 3d
       0.18172616 -0.051502068 0.02076257 0.10480601
0000a0 b0 17 09 bd 7c fb 22 bd 27 11 02 3e 98 9e a5 bc
       -0.033469856 -0.039790615 0.12701856 -0.020217225
0000b0 ea 7f a6 3d 8e e7 49 bc e1 61 23 bd 40 ee 8d 3d
       0.081298664 -0.012323273 -0.039888266 0.06930208
0000c0 12 d5 31 bc 19 bf 02 be c4 e2 65 3b 01 f1 0a 3d
       -0.010854023 -0.1276821 0.003507779 0.033921245
0000d0 f8 3c 71 3d e4 8a 63 3d e6 61 1d 3e 8e 36 8d 3e
       0.058896035 0.05555238 0.15369377 0.27580684
0000e0 c7 08 09 be bf 13 af 3d b9 f4 8a bd f1 e3 f8 bd
       -0.13382255 0.08548688 -0.067849584 -0.121528514
0000f0 75 6a 0d be c1 4a 49 be cc 91 bf 3c 16 a2 1a be
       -0.13810141 -0.19657423 0.023384951 -0.15100893
000100 60 37 a4 3c 32 eb 0d 3c c5 2b 7c bd da e7 af bc
       0.020045936 0.008662032 -0.06156518 -0.02147286
000110 7a 46 25 3c 93 82 e7 3b 31 ac 50 be 51 9a a2 3d
       0.010087604 0.007065126 -0.20378186 0.0793959
000120 e1 40 e6 bd 1f 82 38 3c 1c f2 2a be 74 2f bb 3d
       -0.112428434 0.011261492 -0.1669392 0.0913991
000130 4b 32 bd bd 12 a2 1e bd 24 9d 13 be 2a 06 f0 bc
       -0.09238108 -0.03872878 -0.14415413 -0.029299814
000140 40 91 cf 3d 18 48 b0 3e 36 f3 8a 3c 56 01 7e bd
       0.10135126 0.34430003 0.016961675 -0.062012993
000150 c6 e2 16 be 24 91 b8 3c a5 24 4f be 6b 33 17 3d
       -0.14734945 0.022530146 -0.20228823 0.03691427
000160 52 6d 5f be a7 8b d6 bd 50 1b 3d be 35 76 1d 3d
       -0.21819046 -0.10475855 -0.1846745 0.03844281
000170 35 e1 78 3e 2e fb 06 bd bd 9c ae 3e a3 7a 2c bd
       0.2430466 -0.032954387 0.34103957 -0.042109143
000180 e3 5c 82 3d 8d 9f 27 bc 8b b3 14 3e 74 e9 28 3d
       0.06365373 -0.010230911 0.14521615 0.041238263
000190 a6 72 3c bd f7 44 5f 3d 30 b5 04 be ae 21 22 ba
       -0.046007775 0.05450913 -0.12959743 -0.0006184828
0001a0 c9 a0 01 bc 64 3e 90 bd eb 24 6a 3d f1 13 57 3d
       -0.007911869 -0.0704315 0.057164114 0.052509252
0001b0 4b 94 68 3d e9 02 24 3e e2 cb f3 bd 93 a5 56 be
       0.05678205 0.16016735 -0.11904122 -0.20961599
0001c0 98 be 7b 3d e6 ae 1c be 57 f0 68 3d 9b 37 00 3c
       0.06146106 -0.15301093 0.05686983 0.007825757
0001d0 c7 0a 84 bd 34 4d 72 3d 1e 4a 48 3e 09 ad f6 bb
       -0.06447368 0.059155658 0.19559523 -0.0075279516
0001e0 75 b4 b4 3c 87 c9 4d 3e ad 1e 84 be cb e9 ed bd
       0.022058705 0.20096408 -0.25804654 -0.11616858
0001f0 39 40 70 bd 8c b2 3d bb 71 ea c3 bb 08 e0 85 3d
       -0.058654997 -0.0028945534 -0.0059788753 0.06536871
000200 ab 37 93 3d 24 11 17 ba ab 8e a1 3b 25 4f 7e 3c
       0.07188352 -0.0005762747 0.0049303374 0.015521799
000210 00 0e f3 3c 73 be 3f be 1b 81 f1 bd 91 82 42 3d
       0.029669762 -0.18724994 -0.11792203 0.0474878
000220 8e 64 69 bd 87 f1 9a bd 06 c0 08 be dd 9f e9 bc
       -0.056980662 -0.07565599 -0.13354501 -0.028518612
000230 1c 22 52 3d 20 ab 97 bd 1b d9 ad 3c 98 cd b7 bc
       0.05130206 -0.074056864 0.021221688 -0.022436902
000240 ee 39 51 be 8e b1 d4 3d be 21 ab bd 2b 1e cc 3c
       -0.20432255 0.10385428 -0.08356045 0.024916729
000250 98 ed 3a be 75 01 ad bb ac 54 4d bd 59 f4 62 bd
       -0.18254697 -0.0052797147 -0.050129578 -0.05540881
000260 9b ff 99 3d 27 71 39 be 8e af 9f bd 69 f7 4e bd
       0.07519456 -0.1810957 -0.07797156 -0.050528917
000270 77 13 d5 bd c6 15 50 3d 55 57 42 bb 27 dc ff bd
       -0.10404103 0.050802015 -0.0029654105 -0.124931626
000280 1c 89 dd 3d 07 e7 5c 3d 48 50 bc bc 2c 07 9d 3e
       0.10817167 0.053931262 -0.0229875 0.30669534
000290 9e 40 7a 3d 03 35 86 bd b5 36 88 bd 22 f5 ae bc
       0.06109678 -0.0655308 -0.066510595 -0.021357123
0002a0 52 dd 66 bd c9 9b b4 bd 80 41 1e bd 6b 80 f9 bc
       -0.05636341 -0.08818776 -0.038636684 -0.030456742
0002b0 4e 88 b8 bd f0 0b ca bd 32 b4 0a bc 86 db f8 bd
       -0.09010373 -0.09865558 -0.0084658135 -0.12151246
0002c0 0d cd cd 3c 9f 95 69 bd fc 82 8e 3d 16 6a 28 be
       0.02512219 -0.057027455 0.06958577 -0.16446719
0002d0 5b 31 12 be 32 08 a8 bd 99 73 9d 3d 5d a6 87 3d
       -0.1427664 -0.08204688 0.07688064 0.06623528
0002e0 4a 8e 69 bd ee 7e 12 3d 6b d0 f0 3d 95 17 c6 bd
       -0.057020463 0.03576558 0.117585026 -0.09672467
0002f0 3f bc f6 bd ba 8a 61 bd 5e 07 eb bc 81 81 18 bf
       -0.12047624 -0.05506394 -0.028690036 -0.5957261
000300 26 2f 99 3d 69 54 70 bb 0d 79 a0 3d 5b 31 85 bd
       0.07479696 -0.0036671406 0.078355886 -0.065035544
000310 f8 64 22 bd 2d 83 a3 3d b1 70 ea bd 7a 8f c9 be
       -0.039647073 0.07984004 -0.114472754 -0.39367276
000320 8d de 44 be 50 11 c8 bc b0 fd f8 bd 66 1e a7 bb
       -0.19225521 -0.024422318 -0.12157762 -0.0051000593
000330 7d 84 03 be 61 86 97 bd be 33 2c be 3b 8f 19 be
       -0.12843509 -0.073986776 -0.16816613 -0.14996044
000340 84 15 47 3d 03 a8 69 bd d5 8c 11 3d 63 86 08 bc
       0.048604503 -0.057044994 0.0355347 -0.008332822
000350 27 60 cd bd aa 46 71 bd 87 36 60 bd 59 6f cd 3b
       -0.10028105 -0.05890528 -0.0547395 0.006269377
000360 df 6c be bd cb 6a 2b be 9a ad 0b 3c 17 f1 dc 3d
       -0.09298109 -0.16739957 0.008525277 0.10788172
000370 70 ed 1b 3b e7 75 1d bd af a6 03 3e c6 51 a9 bd
       0.0023792647 -0.03844252 0.12856553 -0.0826755
000380 91 0d 45 bd bd 75 b7 3d f1 21 4c 3d 76 3c 2c be
       -0.04810864 0.08958004 0.049837057 -0.16819939
000390 d4 db d8 3d 3e 1a 81 3d 29 56 52 3b 9d e3 06 3d
       0.10588804 0.063038334 0.0032094812 0.032931913
0003a0 ec 8b b1 bc 10 65 f3 bd 29 a5 99 3d dd 48 ac 3d
       -0.021673165 -0.118845105 0.07502205 0.08412335
0003b0 c9 0c 17 be ad 0f b8 3d fe 02 27 3b 51 70 ee bd
       -0.14750971 0.08987365 0.0025483961 -0.116425164
0003c0 5d a6 35 3b b8 54 58 bd cb 71 19 3c 99 81 86 b9
       0.0027717568 -0.05281517 0.009365509 -0.0002565503
0003d0 d1 b0 22 bc d7 e6 ad 3d c4 0c 25 be 83 fe df 3d
       -0.009929852 0.08491295 -0.16118151 0.10937216
0003e0 10 2a b5 3c af a0 f2 3d ff d2 4e be c8 50 9f bd
       0.022114784 0.11847054 -0.20197676 -0.0777908
0003f0 15 73 19 bd 78 f9 93 3b 93 6c fc bd 0a b8 61 bd
       -0.037463266 0.004515823 -0.123253964 -0.055107154

VAE_Decoder.layers.0.linear1.bias f4 [4]
000000 a6 2e a1 3c 3c 11 dc bc de f8 e7 bd 98 3f bb 3d
       0.019675564 -0.026863687 -0.113267645 0.09142989

VAE_Decoder.layers.0.norm1.weight f4 [4]
000000 f8 8e 85 3f a0 52 9b 3f a9 c4 97 3f c7 5e 9e 3f
       1.0434256 1.213459 1.1856891 1.2372674

VAE_Decoder.layers.0.norm1.bias f4 [4]
000000 f9 37 24 3b 2c e1 ce bd b0 d0 b5 3b ed 78 83 3d
       0.0025057776 -0.10101542 0.005548559 0.06419549

VAE_Decoder.layers.1.attention.W_q.weight f4 [4, 4]
000000 17 a2 bb bd 2f 9d 90 be c8 cd 90 3e 5f ba d6 bd
       -0.091617756 -0.28244922 0.28282 -0.10484766
000010 d0 0b f0 be 76 67 a4 3e 31 9d fb 3d 9f 9b db be
       -0.46884012 0.32110184 0.12285841 -0.42892167
000020 b2 a0 fe 3e 8e 35 d7 be 10 80 af bd e2 ea 8b 3d
       0.49731976 -0.42033046 -0.08569348 0.0683191
000030 80 be a2 be 5b aa 37 3e a9 af 31 be 97 c8 5a 3c
       -0.31785965 0.17936079 -0.17352165 0.013353488

VAE_Decoder.layers.1.attention.W_q.bias f4 [4]
000000 4a 63 e7 3c e2 ad d9 bc c2 97 40 bd f9 40 d6 3b
       0.028245587 -0.026572172 -0.047019728 0.006538507

VAE_Decoder.layers.1.attention.W_k.weight f4 [4, 4]
000000 90 57 8c 3d 89 d1 6c 3e 2e c3 02 bf f7 60 1d 3c
       0.06852639 0.23126806 -0.5107907 0.009605638
000010 f7 22 32 be 9f 5b 84 3d 92 8b 22 bc 55 f0 6e bd
       -0.1739615 0.06462788 -0.0099209715 -0.058334667
000020 55 30 20 be a8 a3 04 3f 96 58 4d be 61 05 6f be
       -0.15643437 0.5181222 -0.20053324 -0.23341896
000030 93 06 67 be 96 b6 80 3d 3c 66 f5 3e 01 d3 d0 3e
       -0.22561102 0.062848255 0.4792956 0.40785983

VAE_Decoder.layers.1.attention.W_k.bias f4 [4]
000000 2e 9c 0c 39 8f ab 89 b9 5a 60 37 39 fa 1c ac b8
       0.00013409622 -0.00026258497 0.00017488134 -8.2069964e-05

VAE_Decoder.layers.1.attention.W_v.weight f4 [4, 4]
000000 f6 49 e8 be ae 75 86 bc d7 bb 4f be e7 db 30 be
       -0.45368928 -0.016413536 -0.20286499 -0.17271386
000010 7e 45 75 be fa 78 c4 3e 0e b6 a0 3d 53 1c 56 3e
       -0.2395229 0.38373548 0.07847224 0.20909242
000020 2a d3 b7 3e e4 3e ca be 0a 62 9f 3d 22 4c cf bd
       0.35903293 -0.39501107 0.07782371 -0.10121943
000030 e0 7f 47 3e f5 46 a0 be d7 29 d1 3d 49 5d 7d bc
       0.19482374 -0.31304136 0.102130584 -0.015464135

VAE_Decoder.layers.1.attention.W_v.bias f4 [4]
000000 77 2a 10 bd 77 47 ed bc 3e 12 a6 bd 8e 58 45 3d
       -0.035196748 -0.028964741 -0.08108948 0.048180155

VAE_Decoder.layers.1.linear0.weight f4 [128, 4]
000000 67 51 d5 bd 6c a6 b8 3e 40 9a 9c be d7 40 cd 3e
       -0.10415917 0.3606447 -0.30586433 0.4008853
000010 f7 98 a5 be f7 95 8c be 50 72 14 bf 0a 49 e3 3e
       -0.32343265 -0.27458164 -0.5798693 0.44391662
000020 c9 22 d1 3e 94 46 61 be 63 85 99 bd 2c a0 ec 3e
       0.4084685 -0.2199958 -0.074961446 0.4621595
000030 fa ef 00 be 65 f5 f9 bd 52 2b 27 3f fa cf c0 3d
       -0.12591544 -0.122050084 0.65300477 0.094146684
000040 34 e4 c8 3e 8c db 0b 3f a2 24 91 be f8 46 02 bf
       0.39236605 0.54631877 -0.2834826 -0.5088954
000050 fe e0 c2 bd 2c bd e2 3e ce 2e 07 3e 2c 59 52 3e
       -0.0951557 0.44284952 0.13201448 0.20541829
000060 cd 0e 6c 3e de 1f 88 3e b9 de ea 3e bb ed de be
       0.23052521 0.26586813 0.4587305 -0.4354075
000070 d9 ec 02 3f f7 0f 45 3f 96 a4 ef be b1 50 b9 be
       0.5114265 0.76977485 -0.46805257 -0.36194375
000080 ca 53 56 3f d2 2e b3 3d 58 d9 94 bf 76 1e f0 3e
       0.837216 0.08749165 -1.1628828 0.4689824
000090 04 91 4c 3e bf 03 eb 3c d8 89 fd be ec 61 be be
       0.19977194 0.02868831 -0.4951923 -0.37184083
0000a0 09 87 72 bd 9e e4 09 3e 5b 66 d1 bd b1 15 1d bf
       -0.05921081 0.13466117 -0.10224601 -0.61361223
0000b0 ed 00 c8 be 57 3c df 3d d5 3c ed be d7 0d 06 3f
       -0.39063206 0.10900181 -0.46335474 0.5236487
0000c0 c7 9b d6 3d 18 02 0e 3f c8 20 7c 3e f1 49 3a bf
       0.10478931 0.55471945 0.2462188 -0.72769076
0000d0 52 16 5d be c0 e0 0f bf b8 1f 55 3e cc 0f 36 3e
       -0.21590546 -0.56202316 0.20812881 0.17779464
0000e0 17 32 d5 3e e8 26 c1 be 26 8b c2 bc a7 e9 c0 be
       0.41639778 -0.37724996 -0.023747992 -0.37678263
0000f0 16 35 c8 be 44 73 f5 bd 3d c9 ec bd c5 a1 a7 3b
       -0.39103 -0.11984876 -0.11561821 0.00511572
000100 32 42 05 be 80 4a 0c be 79 f2 c8 3c df 22 43 3e
       -0.13013533 -0.13700294 0.024529682 0.19056271
000110 47 11 bf 3c c6 c4 b4 3e c8 f0 f6 3d a2 a9 f9 bd
       0.023323668 0.35306376 0.12057644 -0.12190558
000120 f3 99 a5 bd 80 d8 d9 be 4f e3 82 be 88 bc 59 3e
       -0.08086004 -0.4254799 -0.25564048 0.21263325
000130 ac 93 af 3e 87 be 87 be c7 61 1e 3f 25 f3 f5 be
       0.34292352 -0.26512548 0.61867946 -0.48037067
000140 8b c3 c2 be 1d c6 f7 3e ea 6f cc be 22 1f f6 3e
       -0.38039812 0.48393336 -0.39929134 0.48070627
000150 ad ae e1 3d dd c6 72 3e b2 9a 16 3d 75 d3 d4 3e
       0.11019645 0.23708673 0.036768623 0.4156758
000160 26 6a ee be 49 04 59 bc 9c cc c8 3e db aa 0b bf
       -0.4656536 -0.013245651 0.39218605 -0.5455758
000170 de b3 37 bd 8c 45 f0 be 9c a3 44 3d af 53 26 bb
       -0.04484927 -0.4692806 0.048007593 -0.002537947
000180 cc c3 34 3f 60 33 14 3f f1 5c b6 be 56 f8 05 bf
       0.7061126 0.5789089 -0.35617784 -0.52332056
000190 0f 61 98 3e 76 a9 a4 be e4 aa 9b be 19 04 07 bf
       0.2976155 -0.32160538 -0.30403817 -0.5274063
0001a0 3d 5a ce 3e d0 e3 dd 3d 9b 93 4c bf e6 3e 59 be
       0.4030322 0.108344674 -0.7991273 -0.212154
0001b0 d7 ee d5 be 01 a8 a4 be 51 0c 71 3e fc 3a 95 3d
       -0.41783783 -0.32159427 0.23539855 0.07286641
0001c0 99 d7 9a be da 8c d4 be b6 7b fd 3e e4 71 0d bf
       -0.30242613 -0.4151371 0.49508446 -0.5525191
0001d0 e0 d3 6d 3d 84 e8 42 3e 11 e6 32 3f 2d d1 51 3e
       0.058063388 0.1903401 0.69882303 0.2048995
0001e0 26 03 66 be 17 13 4d be dd 17 c5 3e e6 56 70 bd
       -0.22462139 -0.20026813 0.3849477 -0.058676623
0001f0 34 e6 2e be 39 28 1e bd 1d 4a b9 3e ac 42 f7 bd
       -0.17080003 -0.038612578 0.36189356 -0.120732635
000200 84 43 87 3e 51 ca 66 3d 34 45 13 3e be a2 f3 be
       0.26418698 0.056345288 0.14381868 -0.475851
000210 b8 00 04 3f da 77 e4 be 89 49 fa 3e 4d cb ba 3e
       0.51563597 -0.4462269 0.48884228 0.3648323
000220 73 a2 fd bc c8 ae 25 3f 78 ec 18 bf 83 c4 2c bf
       -0.03096125 0.6471982 -0.5973582 -0.67487353
000230 c0 c6 bf 3e d7 75 d4 3e 28 ee bb 3e c4 d8 34 be
       0.37456322 0.41496155 0.36705136 -0.17660815
000240 1e 79 90 3d 23 31 e4 bd f8 ab f7 be f6 08 2b 3d
       0.07054351 -0.111421846 -0.4837339 0.041756593
000250 9d d8 01 3f 1a ac c1 be 2a e3 63 be 0b b8 03 3f
       0.5072115 -0.37826616 -0.22254625 0.514527
000260 7c e3 ed be eb ed 1e bf 57 c1 d6 3e de b8 d5 be
       -0.4646262 -0.62081784 0.41944382 -0.41742605
000270 d9 01 00 be 36 e4 b9 bc 1d 17 01 3d ef 28 ec 3e
       -0.12500705 -0.022691827 0.031516183 0.4612498
000280 e0 8f 36 3e 5d d8 ab be 9a c8 d8 3e 31 68 c5 3d
       0.17828321 -0.3356351 0.42340547 0.096390136
000290 db 4c ae be be c9 d6 be b6 82 12 3e 2c 5f 77 bd
       -0.3404301 -0.41950792 0.14307675 -0.060393497
0002a0 42 46 80 3e 87 b5 68 bd d2 1d e5 3e 10 fb f2 be
       0.25053602 -0.056813743 0.44749314 -0.4745717
0002b0 66 6b d5 3e 52 8d 50 bd e3 71 a3 be 1e 89 85 3d
       0.416835 -0.050916024 -0.31922826 0.06520294
0002c0 3b 37 6b be e4 08 04 bf 7b ee 30 3f 36 d6 f9 be
       -0.22970288 -0.51576066 0.6911389 -0.48796242
0002d0 1d bb 77 3e 9d 3c da be ac 91 58 be 70 89 7e 3e
       0.24192472 -0.4262437 -0.2114932 0.24857116
0002e0 e9 f2 64 be f0 1c 02 be ac 88 d7 3e 07 73 b0 bd
       -0.22358288 -0.12706351 0.4209646 -0.0861569
0002f0 e5 11 87 3e 5f 6f 29 bf 2f 1b b5 3e 41 bd 10 3f
       0.2638084 -0.66185564 0.35372302 0.5653878
000300 27 a2 8f 3e e8 91 0b bf 83 d5 08 3f 96 fe b8 3e
       0.280534 -0.5451951 0.53450793 0.36131734
000310 74 4a d0 3e f4 e2 c2 bd f9 dd e4 3e 70 44 1c bf
       0.40681803 -0.09515944 0.44700602 -0.6104193
000320 b6 6c 99 3d b9 1e f1 3e e2 3f a9 bd 8e 25 da 3e
       0.07491438 0.47093752 -0.08264138 0.42606777
000330 64 10 31 bd 83 a9 c0 be a4 8b 04 bf aa a6 89 3e
       -0.043228522 -0.37629327 -0.51775575 0.26884967
000340 c3 f1 b9 3e ae 45 90 be c4 34 ef bd 55 3e 7c be
       0.36317262 -0.2817816 -0.11679986 -0.24633153
000350 3f 94 3f be f3 a0 60 be 99 9d a9 be 6a 07 f9 3e
       -0.18708895 -0.21936397 -0.3312805 0.4863847
000360 aa ab f6 3e 76 e9 73 3d 26 b9 8d 3e 65 95 47 bd
       0.48177844 0.059548818 0.2768032 -0.048726458
000370 cb 51 ca be 04 af 94 be e6 10 16 3f c0 a0 60 be
       -0.39515528 -0.29039776 0.58619535 -0.21936321
000380 dd 4a 99 be 67 26 30 3f af 85 39 be 42 38 2e be
       -0.2993993 0.688086 -0.18117402 -0.17013648
000390 85 13 0e be 5b d7 a1 3e f6 cd 01 bd 08 7e ec 3e
       -0.13874634 0.31609616 -0.03169056 0.46189904
0003a0 4e 39 da 3e b1 91 5f be 5c 80 a4 be af b5 14 3f
       0.42621845 -0.2183292 -0.3212918 0.5808973
0003b0 89 3c 7d be d8 96 dd be 0d 86 fa 3c e5 4e 9b 3e
       -0.24730124 -0.43279147 0.030581499 0.3033363
0003c0 0b 4d 08 bf 25 53 64 be 80 35 9b be 0d 5e fa bd
       -0.5324256 -0.22297342 -0.30314255 -0.1222497
0003d0 ec 98 b9 3e 88 f8 c2 be c6 69 b2 3e cf 61 a2 bd
       0.36249483 -0.3808024 0.34846324 -0.07928812
0003e0 a8 35 11 be 26 79 68 be 92 56 0f bf 4b c3 47 3e
       -0.14180624 -0.22702464 -0.5599147 0.19508092
0003f0 0d 38 64 be 01 c3 ee be af a8 37 be 5d ab c7 3a
       -0.22287007 -0.4663315 -0.17935441 0.0015233565

VAE_Decoder.layers.1.linear0.bias f4 [128]
000000 01 20 4a 3e 77 e1 3b be c2 68 18 be 20 86 d6 3e
       0.19738771 -0.18347727 -0.14883712 0.41899204
000010 74 fc e5 3a d8 38 2c be 8d bf 34 be f1 9d cc bd
       0.001754655 -0.16818559 -0.17651196 -0.099910624
000020 43 3a 6e bd ce 17 e9 3e 71 29 0a 3f 23 37 43 be
       -0.05816103 0.45525974 0.53969485 -0.19064002
000030 72 dd 8e bd 38 d6 11 3f db 49 83 3e 5e fa 91 3d
       -0.06975831 0.56967497 0.25642285 0.07127832
000040 da 62 87 3e 74 11 f4 3e 12 5b 0b 3f 2f 73 97 3d
       0.26442605 0.47669566 0.5443584 0.073950164
000050 a7 1e 04 3f cd a1 0a bd 1c 36 9d be c4 6d 5e be
       0.5160927 -0.03384571 -0.30705345 -0.2172156
000060 ef e1 91 bd 6c a8 94 3e 00 1a f8 3d b2 5c cf 3d
       -0.071231715 0.29034746 0.12114334 0.10125102
000070 fc 93 62 bd 48 7e 87 3e 7c 1c 89 3c 30 9e bb 3e
       -0.05531691 0.26463532 0.016737215 0.36644125
000080 29 f3 cd 3e 84 75 d2 bd f7 7a 42 3d 1e 9f c5 3e
       0.4022458 -0.102763206 0.04748055 0.3859796
000090 b4 02 98 be f7 bb b2 3e 76 0a fa 3e 62 37 99 3e
       -0.29689562 0.3490903 0.48836106 0.29925066
0000a0 65 68 f3 be 24 ef da 3e 54 21 02 3f 72 2d 11 3d
       -0.47540584 0.42760575 0.50832105 0.03544373
0000b0 d4 1a 38 3e 34 28 93 3e e5 61 ad bd f8 cb 1d 3e
       0.17978984 0.2874161 -0.084659375 0.15409839
0000c0 db 8d 74 be 05 51 3a be ab a8 e8 b9 9e 42 61 be
       -0.23882239 -0.18194969 -0.00044376156 -0.21998069
0000d0 d4 81 c4 3e e8 4e 04 3c a3 fc b1 3d 59 0a fe 3d
       0.383803 0.008075453 0.08690765 0.124043174
0000e0 f6 b1 93 3d e8 62 c5 3e f7 6b 53 be d6 c7 c5 3e
       0.07211678 0.38552022 -0.20646654 0.38629025
0000f0 34 25 b7 3e c0 cf 5b be d2 fc 5f 3d 53 6c 8a 3e
       0.3577057 -0.21465969 0.054684468 0.2703577
000100 00 da cd be 6f 6f a5 3e ce a4 17 bf bd ef 1c 3f
       -0.40205383 0.3231158 -0.59235847 0.6130331
000110 f5 bc 42 3d 6a 85 11 3f 74 4a 80 be 72 30 9c 3e
       0.047543485 0.568442 -0.25056803 0.3050571
000120 43 65 65 be 7f 41 ff bd 65 96 e5 3d 20 5c 81 3e
       -0.2240191 -0.12463664 0.11210326 0.25265598
000130 12 72 8c be 0f 37 92 3e 16 5c b3 3e a2 3c 5c be
       -0.2743078 0.2855763 0.35031193 -0.21507505
000140 41 51 d2 3e 69 88 79 be ea 25 cf 3e 8d 88 d1 be
       0.41077617 -0.24368443 0.40458614 -0.40924492
000150 a3 f9 c6 bd 21 52 0e 3f 56 89 e9 3d 17 d5 3e be
       -0.09715583 0.5559407 0.11403148 -0.18635975
000160 c7 b5 92 3e f5 1a ba 3e 97 56 fb 3e 88 c5 8f 3e
       0.2865431 0.36348692 0.490895 0.28080392
000170 6e 0b f2 3e b3 ce 87 be 53 83 78 3e ca a6 96 3e
       0.47274345 -0.26524886 0.24268846 0.29424125
000180 99 67 03 3c 3c d6 be bd 76 d1 55 3e 26 e6 35 be
       0.008020305 -0.09318206 0.20880684 -0.17763576
000190 3a a0 91 bd 38 78 63 be fc c0 ec 3e 50 07 c7 3e
       -0.07110639 -0.22213829 0.46240985 0.38872766
0001a0 ea a3 09 3e 67 5d b4 be bd 37 c9 3e 6a 94 03 3f
       0.13441435 -0.3522751 0.39300337 0.51398337
0001b0 39 80 8e be a7 21 17 3e 0f 30 c3 3d 1a 0e 11 3e
       -0.278322 0.14758931 0.09530651 0.14165536
0001c0 f5 a7 b0 3e 1e 90 63 3d 04 86 ae 3d ec af c8 3d
       0.3450314 0.055557363 0.08521655 0.097991794
0001d0 55 e8 2e 3e e9 23 d5 3c b6 39 ee 3d 15 6f 23 be
       0.17080815 0.0260181 0.11632101 -0.15960343
0001e0 bf fe ae 3d 4d 50 0b 3e 48 68 3b be 2e 6b f7 3d
       0.08544683 0.13604851 -0.18301499 0.1208099
0001f0 4e 48 de be 92 ad bd be 43 b8 58 be 80 86 cf be
       -0.4341454 -0.37046486 -0.2116404 -0.40532303

VAE_Decoder.layers.1.linear1.weight f4 [4, 128]
000000 5f f8 04 3d 69 c1 fa bc 3c 12 e9 bc 4e 6a 4e be
       0.032463428 -0.030609803 -0.028451078 -0.2015774
000010 ce 38 bf 3e 1d 91 c4 bb 6c 47 26 bd b0 30 02 3f
       0.37348026 -0.005998744 -0.040595457 0.5085554
000020 96 86 f8 3e 67 85 4c 3d 03 81 63 bc 68 af 59 3d
       0.4854018 0.04993191 -0.013885739 0.053145796
000030 e7 f6 f2 3d 84 f0 55 bc 81 86 8c 39 f0 5f 3f 3d
       0.11863499 -0.013057832 0.00026803094 0.046722353
000040 3d 06 b1 3c b5 d4 a3 bc 27 25 5a bd d8 df cd bd
       0.02160942 -0.019998888 -0.053258087 -0.100524604
000050 a7 75 ce 3a d3 61 2d 3c 21 46 1e be 8c e7 1c be
       0.0015751616 0.010582405 -0.1545644 -0.15322703
000060 2e e3 31 3f f0 08 bb 3d a5 be 1d 3e da b5 19 be
       0.69487274 0.09132564 0.15404756 -0.15010777
000070 3c 0f 73 be d5 ac 7a be a8 5b a7 bd 0b 75 67 be
       -0.2373628 -0.24479993 -0.08171779 -0.22603242
000080 9c 02 e2 bd e2 46 0f be 48 37 25 3f 9f 5a 1c bd
       -0.11035654 -0.13991883 0.6453748 -0.03817236
000090 0f 9b 52 3e bc 3b 9b bc 04 88 fa bd a5 9a c2 3d
       0.20566963 -0.018949382 -0.12232974 0.09502152
0000a0 55 22 47 bd e6 8b 22 bd e5 9a f5 bd 6d a5 9d 3d
       -0.048616726 -0.0396842 -0.119924344 0.07697568
0000b0 16 30 49 be 15 0e 15 bd 4d 4d b8 bd ad ac 20 bc
       -0.1964725 -0.036390383 -0.08999119 -0.009806794
0000c0 9d fa 63 bc 2e c3 8e bd cd 84 6a 3d 71 46 a3 3d
       -0.013914731 -0.06970821 0.057255555 0.0797242
0000d0 a6 df de bc 06 8d 86 3d 79 94 62 bd f4 4e 31 be
       -0.027206253 0.06569867 -0.055317376 -0.17315274
0000e0 94 eb a9 3e 85 8a 47 3d 07 df 59 3d 67 26 ab bc
       0.33187544 0.048716087 0.05319121 -0.020892335
0000f0 77 b1 f4 3c f1 29 3e bc 7b 57 b7 3c c5 d0 14 bc
       0.029869778 -0.011606679 0.022380581 -0.009082978
000100 a5 1f b3 bd e7 2c ce bc 0c df 8a 3e e7 6f 88 bb
       -0.0874627 -0.025167895 0.27123296 -0.0041637304
000110 25 75 6c 3d 90 6f fe 3d c2 cc 13 3f a3 b7 3e 3c
       0.057728905 0.124236226 0.5773431 0.011640462
000120 69 c4 03 be 0c a2 02 3d 86 5c 7a bd af b2 61 3e
       -0.12867893 0.03189282 -0.061123393 0.22040819
000130 b8 cf d9 3e 02 9d 8f 3d 04 15 97 bd e9 e8 c8 3e
       0.4254129 0.07012369 -0.07377055 0.39240196
000140 3a fd 25 bd de 91 db bd f2 38 86 3c 1f 42 8f bd
       -0.0405247 -0.10721181 0.016384576 -0.069950335
000150 4d 06 38 bd 02 5a c0 3e 3e 7d 95 be 00 1d 86 bd
       -0.044927884 0.3756867 -0.29197115 -0.065485
000160 3b 8b ec bd cb 7a c9 bb cb a7 b3 3c b2 5f 67 3d
       -0.115499936 -0.0061486713 0.021930596 0.056487747
000170 40 95 a4 bd ca bc 1c be 9c a5 2c bd 7b d8 a4 3d
       -0.0803628 -0.15306392 -0.042150125 0.08049103
000180 58 08 e9 3c 88 b0 f2 3e cd ac 6a 3d e5 ed 3d be
       0.028446361 0.47400308 0.057293702 -0.18547781
000190 59 ae 1d be 7e ee 28 bd 97 22 91 3c e9 f5 d8 bd
       -0.1539854 -0.04124307 0.017716689 -0.10593779
0001a0 ed de 2e bc 21 3d 9c 3e a9 74 16 be d8 91 2a bd
       -0.010673267 0.30515388 -0.1469294 -0.041642994
0001b0 24 a7 b4 3e 13 51 b8 be f2 f1 4d 3d b5 4e ed 3e
       0.35283768 -0.35999355 0.050279565 0.4634911
0001c0 19 e2 4e bd 85 7e 4c 3d 33 69 17 be bd 65 9e bd
       -0.050508592 0.049925346 -0.14786224 -0.07734249
0001d0 b4 eb 75 bd e6 37 42 bd b2 af 40 be f4 30 5b bd
       -0.060039237 -0.04741659 -0.18817022 -0.053513482
0001e0 24 cd 5e 3e 62 a0 77 bd e5 51 8e 3d 7b 8f 24 bc
       0.21757942 -0.060455687 0.06949214 -0.010043974
0001f0 76 d1 a8 3e b1 b6 75 be e7 08 15 bc 56 ff 2a be
       0.32972306 -0.23995472 -0.009096361 -0.16698965
000200 ba ba 0a 3d 4a 98 18 be da 78 14 be 73 31 e5 3d
       0.033869483 -0.14901844 -0.14499226 0.11191072
000210 81 f0 a3 bd ae d4 1a 3d 60 0a 40 3d c3 b0 a5 3c
       -0.08004857 0.037800483 0.046884894 0.020225888
000220 2f a4 e6 be 39 bf c4 bd 34 d2 be 3c 5f 27 a4 bd
       -0.45047137 -0.09606785 0.023293592 -0.08015322
000230 3b 86 13 3e 53 08 3f bd 32 26 d5 3c a5 18 e0 bd
       0.14406674 -0.046638798 0.02601919 -0.109422006
000240 8a 13 04 3d 1e a1 93 3d c2 6e 86 bd 5a 65 d5 3d
       0.032245196 0.07208465 -0.06564094 0.10419722
000250 c2 d8 ca bd 5a e8 bc b9 be 34 38 3c a4 b8 b1 3d
       -0.099046245 -0.0003603127 0.0112430435 0.086777955
000260 de 85 83 be ca bb 30 3d 71 65 8c bc 8d b7 58 3d
       -0.2568807 0.04314784 -0.017138215 0.052909423
000270 fb 13 6d 3e 0c 7c 31 3e 43 f4 8d 3c 47 be 93 3d
       0.23152153 0.17332476 0.017328387 0.07214027
000280 1a ed 6f bc aa 94 f2 3c 63 77 06 be 26 d6 e3 bb
       -0.014643932 0.029611904 -0.1313148 -0.0069530187
000290 7f 2b 8c bc 61 23 86 bc c2 e7 02 3e 7e ba e1 bd
       -0.017110584 -0.016374292 0.12783721 -0.11021899
0002a0 3d 4f ea bb 24 d7 01 bd fb c8 f6 3d 87 25 b6 bc
       -0.007150559 -0.031699315 0.12050053 -0.022234691
0002b0 35 ab 3b 3e 3f d8 18 be 76 d2 fa 3c 03 87 63 3c
       0.18327029 -0.14926241 0.030617934 0.01388717
0002c0 c8 4d 79 3d e2 4f 00 3e 4e 36 a8 ba eb 36 26 bd
       0.060865194 0.12530473 -0.0012833567 -0.040579718
0002d0 ce f3 2b 3d 5b cb e1 3a 78 b9 a6 3a 83 8f 58 3d
       0.041980557 0.0017226742 0.0012720069 0.05287124
0002e0 d0 14 4d 3d a7 a8 92 3c 36 1c 31 bd 36 1c f3 3a
       0.050068676 0.017902685 -0.043239795 0.0018547836
0002f0 5a c1 42 bd 8a 1b 95 3d 93 af 1b bd 57 de c0 bd
       -0.047547676 0.07280643 -0.038009237 -0.09417408
000300 99 4e d4 3c ae 7d 49 3d f7 60 36 3f c8 5a 02 bd
       0.025916385 0.049192123 0.71241707 -0.031824857
000310 b4 21 29 3f 7f f2 a1 bd 6e 96 2c be 23 41 b7 bd
       0.6606705 -0.079075806 -0.1685426 -0.08947971
000320 f6 2a c2 3d a8 e8 c2 bd ec 99 bb bd 20 41 ef bd
       0.094808504 -0.09517032 -0.09160218 -0.116823435
000330 e7 15 d5 bc a1 51 a8 bd 2d 85 d5 bd a5 51 68 bd
       -0.02601142 -0.082186945 -0.10425792 -0.056718487
000340 85 18 fe 3c 31 df ed 3c 51 f1 39 bd ea 6c 1c 3d
       0.031017551 0.02903709 -0.045396153 0.038189806
000350 ac 5a 01 3d 92 b7 08 bd dd c3 bc 3e a9 bc 7f 3c
       0.031580612 -0.03337819 0.36868182 0.015608945
000360 ab 7d 97 3d b8 e3 05 3e 1b 64 35 3d f8 ef 01 be
       0.07397016 0.13075149 0.04428492 -0.12689197
000370 58 99 14 bd 39 7e 7e 3d 8f ea bf 3d cf cf b7 bc
       -0.036279052 0.062132094 0.093709104 -0.022437958
000380 bf 31 94 bd f0 0e 75 bd 91 65 ad bc 64 5b 0f 3e
       -0.07236051 -0.0598287 -0.021166595 0.13999707
000390 ac ae e3 3d ad d8 9f 3d bc 38 90 bd 1b c8 da 3d
       0.111173004 0.078049995 -0.07042071 0.10682698
0003a0 51 c7 7b ba cb 5e a4 3d 78 7c b6 bc 0a c9 0e bd
       -0.00096045906 0.08025893 -0.022276148 -0.034859695
0003b0 f3 d3 37 bd 4a da a7 3e 90 be c6 3d 54 0e af bd
       -0.044879865 0.3278373 0.09704316 -0.08547655
0003c0 80 e6 88 3d fc 4a c9 3c 8f 1a d3 3d 5d 47 8a 3c
       0.066845894 0.024571888 0.103078 0.016879732
0003d0 9b b2 2e 3e 89 69 25 bd 54 c4 8c 3e b1 f7 22 be
       0.1706032 -0.04038385 0.27493536 -0.159148
0003e0 88 8d d2 bd b5 7f 19 be b8 88 18 bb 7e a2 59 bd
       -0.10280901 -0.14990123 -0.002327485 -0.05313348
0003f0 2d f8 03 3d 0d b3 af 3d 47 28 8f bd 5e eb 3e 3d
       0.0322191 0.08579073 -0.06990104 0.046611182

VAE_Decoder.layers.1.linear1.bias f4 [4]
000000 2d 62 b9 bd da c9 63 3d 3c 1e 39 be 9b f6 6f bd
       -0.09051929 0.055612423 -0.1807794 -0.05858479

VAE_Decoder.layers.1.norm1.weight f4 [4]
000000 a9 12 90 3f 88 18 af 3f e6 94 b1 3f a4 a3 a2 3f
       1.1255695 1.3679361 1.3873565 1.2706189

VAE_Decoder.layers.1.norm1.bias f4 [4]
000000 cf 88 8b 3b 7b cf 60 be 37 1d 21 3e 1e 65 fb ba
       0.004258252 -0.21954148 0.15733801 -0.0019179916

VAE_Decoder.layers.1.norm0.weight f4 [4]
000000 60 4b 3e 3f ea 65 7f 3f dc e5 7f 3f 2b c3 6b 3f
       0.74333763 0.99764884 0.9996011 0.9209468

VAE_Decoder.layers.1.norm0.bias f4 [4]
000000 19 e1 f2 3c 89 c5 ac bc 03 b0 21 3d b7 c7 3e bc
       0.02964835 -0.021090286 0.0394745 -0.011644295

VAE_Decoder.last_normalization.weight f4 [4]
000000 00 00 80 3f 00 00 80 3f 00 00 80 3f 00 00 80 3f
       1.0 1.0 1.0 1.0

VAE_Decoder.last_normalization.bias f4 [4]
000000 00 00 00 00 00 00 00 00 00 00 00 00 00 00 00 00
       0.0 0.0 0.0 0.0

VAE_Decoder.head.weight f4 [4, 4]
000000 24 2a 6a 3e 78 64 43 3e 80 a3 17 3e 32 80 bc be
       0.22867638 0.19081295 0.14808464 -0.36816555
000010 5e 5c bc 3e 8c 97 14 be 1e 89 b8 be 56 e2 b7 be
       0.3678922 -0.14510936 -0.36042112 -0.35914868
000020 60 04 e7 3d 9a 66 d2 be 30 54 37 3e e8 1b 68 be
       0.11280131 -0.41093904 0.17903209 -0.22666895
000030 08 9e a5 3d 60 44 78 3e 70 35 95 3d 78 d2 16 be
       0.08086783 0.24244833 0.07285583 -0.14728725

VAE_Decoder.head.bias f4 [4]
000000 78 4b f7 be 28 c3 98 bd 50 1f cb 3e 5c e5 11 3e
       -0.48299766 -0.07459098 0.39672327 0.1424765

Detokenizer.weight f4 [10, 4]
000000 4b 41 ce bd b4 69 b4 3e 7a 4b 8c 3e 96 a2 51 be
       -0.100710474 0.35236895 0.27401334 -0.20472178
000010 50 0c c1 3e 6d 07 be bd 38 12 4a be 2a 76 fb bc
       0.37704706 -0.0927876 -0.19733512 -0.030695993
000020 ea 81 98 3e 4b 69 03 3f e7 f1 85 be 21 a9 fe 3e
       0.29786617 0.5133254 -0.2616112 0.4973841
000030 05 66 d1 3d 5f b2 70 3e 47 7a 0a 3e a1 69 44 be
       0.10224537 0.23505543 0.13523208 -0.19180919
000040 32 9c 94 3e ee 35 ab 3e cd 1d c1 bd 8d 5c a0 be
       0.29025418 0.33439583 -0.09429512 -0.3132061
000050 b3 6d d8 3c 2d 63 77 3e 60 f9 26 3c 2f 9c f7 be
       0.026419496 0.24158926 0.010191292 -0.48361346
000060 f4 12 cc 3d db 14 32 3d ed 77 9b 3e 05 59 25 3e
       0.099645525 0.04347692 0.30364934 0.1614724
000070 dd 2f 39 3e 13 49 09 3e 42 cf af 3c 7b ce e6 3e
       0.18084665 0.13406782 0.021461133 0.45079407
000080 dd 67 e5 bd 14 b7 c4 3a 8e f2 a8 be a7 ac 03 3d
       -0.11201451 0.0015008175 -0.32997555 0.032147076
000090 ef 67 5d 3e ca 95 4e 3e c1 34 cd 3c e2 6d 97 3e
       0.21621679 0.20174327 0.02504957 0.2957602

Detokenizer.cat_recons.0.weight f4 [3, 4]
000000 9a 6a 7e 3c 68 8d 92 be 67 d8 b3 3e 11 1d 6e bd
       0.0155283455 -0.2862351 0.3512604 -0.05813319
000010 36 3a 87 be df 60 d7 be f0 95 34 bf ec 7b ce be
       -0.264116 -0.42066094 -0.70541286 -0.4032892
000020 f7 45 4c bf 6c 9e e1 be ad 21 b1 3e 19 80 d5 bd
       -0.7979426 -0.4406618 0.34596005 -0.10424823

Detokenizer.cat_recons.0.bias f4 [3]
000000 78 3b 71 be 16 3e 29 bf 47 4e 88 3e
       -0.23557842 -0.6611036 0.2662222

Detokenizer.cat_recons.1.weight f4 [3, 4]
000000 fe 28 cb 3e 16 26 6c bd 9f f3 93 be 19 22 4e 3e
       0.39679712 -0.05765351 -0.28896806 0.20130195
000010 e6 56 53 3f 25 c0 41 3f 7c 62 b6 bd 8f 62 79 3e
       0.8255447 0.75683814 -0.08905503 0.24354003
000020 68 2a 23 bf fd 30 00 3f ab 9a 03 3e 28 99 a5 3e
       -0.6373658 0.5007475 0.1285197 0.3234341

Detokenizer.cat_recons.1.bias f4 [3]
000000 81 15 12 bd f9 91 ce 3e 85 e1 1b be
       -0.03566504 0.40345743 -0.15222748

Detokenizer.cat_recons.2.weight f4 [9, 4]
000000 fe 11 c7 3e 5d 3c e2 3c 63 83 99 be dd e1 81 be
       0.38880914 0.027616674 -0.29983053 -0.25367633
000010 db 9f 02 bf c0 fe e2 be 68 62 b5 3e d8 6f c4 3e
       -0.5102517 -0.44334984 0.3542664 0.3836658
000020 63 3a cd be f3 c9 7d 3f 5c d3 11 3f c2 63 34 bf
       -0.40083608 0.99136275 0.56963134 -0.7046472
000030 bc dd b8 be 64 4b 46 3f 46 61 29 be 2e 58 ab bd
       -0.3610667 0.77458787 -0.16541013 -0.08366428
000040 5b 98 59 bd 63 b0 db 3e df f1 4a 3f 43 42 59 bf
       -0.053123813 0.4290801 0.79275316 -0.8486673
000050 cc 47 e4 3e 46 75 94 3e b1 6b 28 3f 89 fe 13 3f
       0.44586027 0.28995723 0.65789324 0.57810265
000060 c1 61 d3 be 41 80 9d 3e fa 42 df 3d 5a a8 4a bf
       -0.41285518 0.30761912 0.10901447 -0.79163134
000070 01 3f 10 bf e9 e7 49 be e1 f3 0e 3f d9 bb a4 be
       -0.56346136 -0.19717373 0.5584088 -0.32174566
000080 f5 9f 54 3e 23 de 0a be 35 ff 88 3e 09 d4 4a bf
       0.20764144 -0.13561301 0.26757208 -0.7922979

Detokenizer.cat_recons.2.bias f4 [9]
000000 12 2e 80 be 6a d4 31 3d a9 7c 24 be f8 fe f7 bd
       -0.2503515 0.043415464 -0.16063179 -0.12109178
000010 8d 78 1c 3e 04 1b 06 bf 29 ee ad be e6 55 e7 be
       0.15280361 -0.5238497 -0.33970764 -0.45182723
000020 d0 9a 5d be
       -0.21641088

Detokenizer.cat_recons.3.weight f4 [13, 4]
000000 91 81 82 be e6 c3 70 be e3 a9 cb be 18 73 6c 3d
       -0.25489476 -0.2351223 -0.3977805 0.05772695
000010 e3 79 89 bc 31 68 85 3e 88 28 88 3d f9 6b a8 bf
       -0.016781753 0.26056054 0.06648356 -1.3157951
000020 2b 7e 85 3d 08 23 ff 3e 44 01 2f be 29 d3 78 3f
       0.06518205 0.49831414 -0.17090327 0.97197205
000030 d3 a0 59 3f 9e 5b 74 3e 1e 5c 13 3f 39 6b 2e bf
       0.85011023 0.23863074 0.57562435 -0.6813236
000040 fd dc 6c 3e 29 8c 1e 3f c1 b0 24 3f 5f 73 1b 3f
       0.23131175 0.6193262 0.64332205 0.6072292
000050 b0 65 71 be 2f 1c 41 3e 91 4f 98 3e 30 eb c1 3e
       -0.23573947 0.18858407 0.29748204 0.37874746
000060 d9 37 c6 bd 39 3c 75 3e cd 32 e6 3e dc ed bc 3d
       -0.09678621 0.23948754 0.44960633 0.092250556
000070 c0 01 82 3e 3a 4d 5b 3e 3d e6 2d bd 9a a6 ae 3e
       0.2539196 0.21416178 -0.0424559 0.34111482
000080 5a d8 35 bd b1 66 89 3e 6a 37 28 3e 75 b8 07 3e
       -0.044395782 0.2683616 0.16427389 0.13253959
000090 b6 0b 9b 3e 42 cc d3 bd aa f6 b9 bd 78 b5 d3 3e
       0.30282372 -0.103416935 -0.090802506 0.41349387
0000a0 f3 d6 04 3f 59 b9 fc 3e ea 58 2f 3f 7b 86 8e be
       0.51890486 0.4936016 0.6849505 -0.27836975
0000b0 cd 19 ba bd 39 31 9b 3e 3a 36 33 3e 6a dd 8d bb
       -0.09086952 0.3031099 0.17501155 -0.004329373
0000c0 0d 0d 6e 3e bf 7d 9f bd dc 96 9e 3e 34 c6 74 3c
       0.23247166 -0.07787656 0.30974472 0.014939833

Detokenizer.cat_recons.3.bias f4 [13]
000000 32 c5 14 3d 10 3f 54 3e 25 de 2f bd ee 6d 84 3e
       0.036320873 0.20727181 -0.042936463 0.2586512
000010 46 ab 52 bd e2 8d 4c bd 33 e0 a5 3e a0 31 19 3e
       -0.05143287 -0.049939997 0.32397613 0.14960337
000020 a0 32 89 bd df 4d 35 bf 0b 7d 3d ba 6c 48 35 bf
       -0.06699109 -0.70821947 -0.00072284107 -0.7081363
000030 d9 f0 4a 3d
       0.049546096

Detokenizer.cat_recons.4.weight f4 [6, 4]
000000 48 75 15 bf b4 c0 ec be 85 8b f6 bd b0 85 84 3e
       -0.5838208 -0.4624077 -0.1203833 0.25883245
000010 ef 7e 6f 3f 49 87 50 3e 42 8f 67 be 0b 46 e8 3e
       0.9355306 0.20364107 -0.22613242 0.4536594
000020 7d da c5 be 16 be b8 bc 5f ec 23 3e 4e 14 0a bf
       -0.38643256 -0.022551578 0.16008137 -0.5393723
000030 90 5e e1 3c b6 3d 98 be f8 5a 33 3f c2 cb 0f bf
       0.027510911 -0.29734582 0.7006068 -0.56170285
000040 bc 5a 51 3f 5d 3b 8b be 90 5b 9e 3e 33 89 29 be
       0.81779075 -0.27193728 0.30929232 -0.16556244
000050 d7 60 f7 3e 3a 67 78 be 9a ea 1d 3f c7 84 1e 3e
       0.4831607 -0.24258128 0.616861 0.15480338

Detokenizer.cat_recons.4.bias f4 [6]
000000 90 a0 e4 bd 80 2f ea be 3e 43 3e be ff 09 3d 3e
       -0.11163437 -0.45739365 -0.18580338 0.18460844
000010 5f be 42 3d cd 2f 28 be
       0.047544833 -0.16424485

Detokenizer.cat_recons.5.weight f4 [2, 4]
000000 44 3d e0 be 0a 7c 0f 3e a2 ae 44 3e ea 2c 64 be
       -0.43796742 0.14012161 0.19207242 -0.22282758
000010 c6 16 0f 3d 20 2d 68 bc 44 32 86 be 67 e9 75 3e
       0.034933828 -0.014170915 -0.26210225 0.24014817

Detokenizer.cat_recons.5.bias f4 [2]
000000 d2 b3 cb bc 67 74 fb 3e
       -0.024866018 0.49112245

Detokenizer.cat_recons.6.weight f4 [2, 4]
000000 57 65 10 3e d5 11 0b bf 63 41 bd 3e 89 f1 43 be
       0.14101158 -0.54324085 0.3696395 -0.19135107
000010 1a 46 3d bd 39 e6 2f bf eb ce 52 bf dc 11 8b 3e
       -0.046209432 -0.68710667 -0.8234698 0.27162063

Detokenizer.cat_recons.6.bias f4 [2]
000000 d7 9e 8b be fa a0 c4 bd
       -0.27269623 -0.09601016

Detokenizer.cat_recons.7.weight f4 [2, 4]
000000 eb 44 6f be 81 31 10 3d 7d 55 1b 3f 14 cc 70 be
       -0.23366134 0.03520346 0.6067732 -0.2351535
000010 5d b5 07 3f 35 bc a8 3e a6 85 a4 3e cb dd b9 3e
       0.53011113 0.3295609 0.32133216 0.36302027

Detokenizer.cat_recons.7.bias f4 [2]
000000 ee 9d 6c be a0 1b b2 3d
       -0.2310712 0.08696675

Detokenizer.cat_recons.8.weight f4 [2, 4]
000000 e1 d7 94 be 5f 8b 5f 3e 56 9d 6a be 62 a5 10 3f
       -0.29070953 0.2183051 -0.22911581 0.56502354
000010 0a 8b 5e 3c dc 8f 58 3f fa 98 0b 3f e9 72 10 3f
       0.013582954 0.8459451 0.545303 0.5642534

Detokenizer.cat_recons.8.bias f4 [2]
000000 62 0d ed be f1 33 da bd
       -0.46299273 -0.10654438

Detokenizer.cat_recons.9.weight f4 [2, 4]
000000 b3 80 d3 be 9c fb 0c bf 1b 3f 9d be 20 11 12 3f
       -0.41309127 -0.55071425 -0.30712208 0.5705738
000010 e7 59 57 bf 16 b4 87 3e 48 a9 6a be fc 27 af be
       -0.84121555 0.26504582 -0.22916138 -0.34210193

Detokenizer.cat_recons.9.bias f4 [2]
000000 a8 0f 63 bd 2a 4e 68 3d
       -0.055434853 0.056715168

Detokenizer.cat_recons.10.weight f4 [5, 4]
000000 c9 e6 b5 be ee 30 48 bf a1 2c 02 bf d2 9f ba be
       -0.35527638 -0.7819966 -0.5084935 -0.36450058
000010 16 b8 26 be 5d 5c 1d 3f 23 ab 17 bf 91 bc f1 3e
       -0.1628116 0.6146906 -0.5924551 0.47214177
000020 bd 5f 0e 3f 97 f2 00 bf e6 36 24 3f 1a 88 31 be
       0.55614835 -0.5037016 0.6414627 -0.17337075
000030 79 47 2a be 56 8a c1 3c 2e a8 77 3f a4 0b 9f 3e
       -0.16628827 0.023625534 0.96740997 0.3106357
000040 a9 e7 13 3f 23 41 bd bd 91 4c c6 be be 88 8b 3e
       0.5777536 -0.092409395 -0.3873029 0.27252764

Detokenizer.cat_recons.10.bias f4 [5]
000000 d5 b9 b4 be 06 54 60 3e 81 e8 6d be 42 b9 a6 be
       -0.3529803 0.21907052 -0.23233224 -0.32563215
000010 b9 85 2e bf
       -0.68172795

Detokenizer.cat_recons.11.weight f4 [5, 4]
000000 e3 a0 d5 bb 6f a7 26 3f 4e 75 2d bf 8e 3a e6 bc
       -0.0065194233 0.65099233 -0.6775712 -0.028104093
000010 3c c3 40 3d f2 bf 4f 3f 79 02 17 3f 0d 12 ba 3c
       0.04706119 0.8115226 0.5898815 0.022713685
000020 de e2 33 bf a8 51 25 bf d9 12 5d 3e 90 c9 15 bf
       -0.70268047 -0.6457772 0.21589221 -0.58510685
000030 db 32 ed 3e f3 69 39 bf 98 f1 1f bf 90 b6 6c be
       0.46327862 -0.7242729 -0.6247802 -0.23116517
000040 ea 6f 17 3f b5 5b 66 3d fa f0 3c 3f 42 cd a3 be
       0.5915514 0.056239802 0.738052 -0.31992537

Detokenizer.cat_recons.11.bias f4 [5]
000000 8f 11 12 3f 3f 9f 1b 3e f9 a1 01 bf 54 e3 04 bf
       0.5705804 0.15197466 -0.50637776 -0.51909375
000010 6d ae 29 bd
       -0.04142611

Detokenizer.cat_recons.12.weight f4 [2, 4]
000000 43 a4 0b bf 65 ec 89 3d a3 b2 39 be 14 43 25 3e
       -0.5454752 0.06734542 -0.18134551 0.1613887
000010 20 df 90 3e 13 c1 28 3e 3e f7 8d be fc 8f 3e 3f
       0.2829523 0.16479902 -0.27727693 0.7443845

Detokenizer.cat_recons.12.bias f4 [2]
000000 75 d6 db 3e 0b ad 47 3e
       0.42937055 0.19499604

Detokenizer.cat_recons.13.weight f4 [2, 4]
000000 24 c9 f6 3e 6b 82 b7 3e 94 91 37 3f 79 6a 16 3f
       0.48200333 0.3584169 0.7170651 0.58756214
000010 83 ad a1 be 4b bd be be 1c 77 a9 be 35 2b f8 be
       -0.3157769 -0.37253794 -0.33098686 -0.48470464

Detokenizer.cat_recons.13.bias f4 [2]
000000 23 11 ff 3d d7 82 dd bc
       0.124544404 -0.027039928

Detokenizer.cat_recons.14.weight f4 [2, 4]
000000 9e 6f 20 3f 4d 9a 1b 3f c1 6e 63 3e 5d f7 98 3d
       0.62670314 0.6078232 0.22210218 0.07469056
000010 83 77 50 3c 75 65 f9 be bc c2 fd bd 49 97 da 3e
       0.012723806 -0.48710218 -0.12390658 0.42693546

Detokenizer.cat_recons.14.bias f4 [2]
000000 49 48 c5 be 00 d6 8f 3e
       -0.38531712 0.28092957

Detokenizer.cat_recons.15.weight f4 [2, 4]
000000 e6 2a 85 3e 8b 12 f1 be 90 2a 1b bf ac 82 96 3d
       0.2600929 -0.4708446 -0.6061182 0.073491424
000010 33 8f 9e 3e aa 3d fb bd 52 05 bc bd cf 27 16 bf
       0.30968627 -0.12267621 -0.09180702 -0.58654493

Detokenizer.cat_recons.15.bias f4 [2]
000000 20 08 a4 be b4 e0 72 be
       -0.3203745 -0.2371853

Detokenizer.cat_recons.16.weight f4 [2, 4]
000000 f7 b6 1a bf c1 37 8d 3e 36 f9 07 3f ed 31 a0 3e
       -0.6043543 0.275816 0.5311464 0.3128809
000010 7b 87 9a be 1e 5a 35 be 5e ba 93 be 35 99 4e be
       -0.30181488 -0.17710158 -0.28853124 -0.20175631

Detokenizer.cat_recons.16.bias f4 [2]
000000 4b 22 3b 3e 9f 18 9d 3e
       0.182748 0.30682847

Detokenizer.cat_recons.17.weight f4 [2, 4]
000000 b3 9e ed bd 65 5f 1c bf a2 9e 66 be 98 b9 b4 3d
       -0.11602535 -0.6108306 -0.22521451 0.08824462
000010 12 f4 db bd a2 31 90 be c3 fc 07 3f 42 8c 94 be
       -0.10739912 -0.28162867 0.5312006 -0.29013258

Detokenizer.cat_recons.17.bias f4 [2]
000000 0f 62 e5 3e fd 5f 99 3d
       0.44801375 0.074890114

Detokenizer.cat_recons.18.weight f4 [2, 4]
000000 17 a5 f5 3d 84 83 dc bd a0 d2 2a bf 1a df 6c 3f
       0.11994379 -0.10767272 -0.6672764 0.92527926
000010 55 a7 8c be e5 5b a0 bd 81 f2 bb be 19 bd 0b bf
       -0.27471414 -0.078300275 -0.36708453 -0.54585415

Detokenizer.cat_recons.18.bias f4 [2]
000000 2d 00 74 3e 5b 7f f6 3e
       0.23828192 0.4814404
