restsyn/tabsyn/vae/ckpt/fintech_cond/encoder.pt (torch, 23664 bytes, 33 tensors)

Tokenizer.weight f4 [11, 4]
0.08631644 -0.32303685 -0.07752981 0.4409171 0.024153547 0.12415303 -0.022378974 -0.033536322
-0.08892408 0.2570643 0.29740742 0.16246976 -0.4353804 0.08742597 -0.009028633 0.32934776
0.1416793 0.18305668 -0.2869113 -0.046772256 0.40850416 0.3243561 -0.0062585226 -0.18411826
0.34638324 -0.18780097 0.13794133 -0.34914446 0.081894554 0.3067982 0.12862843 0.114201136
-0.3191685 0.3620179 0.021131307 0.18148316 0.11298098 -0.10473435 0.17480533 0.14513296
-0.041666146 0.38929352 0.19958821 0.03256144
00000000: acc6 b03d 1665 a5be f3c7 9ebd e3bf e13e
00000010: a9dd c53c f243 fe3d 1c54 b7bc 625d 09bd
00000020: d41d b6bd ef9d 833e c945 983e 795e 263e
00000030: 2eea debe 630c b33d d5ec 13bc 45a0 a83e
00000040: 6114 113e 3673 3b3e 0ae6 92be 4494 3fbd
00000050: 7527 d13e 0112 a63e 4b14 cdbb 7f89 3cbe
00000060: 2559 b13e e64e 40be 7e40 0d3e 10c3 b2be
00000070: 55b8 a73d a714 9d3e 2cb7 033e 49e2 e93d
00000080: 0e6a a3be 695a b93e 901b ad3c b9d6 393e
00000090: 9262 e73d f77e d6bd 2b00 333e bc9d 143e
000000a0: 1faa 2abd 7b51 c73e da60 4c3e 255f 053d

Tokenizer.bias f4 [29, 4]
0.3569303 -0.27642503 -0.19806689 -0.17303842 0.030163854 -0.7620804 0.12153404 0.025776759
-0.24489066 -0.6124992 0.3446266 0.3915973 -0.0833516 -0.15698735 -0.31360674 -0.38281566
0.14972371 0.31243977 0.48775357 -0.57226366 0.29507565 0.02463533 -0.18671358 -0.28888437
0.113734 0.2163213 -0.3399462 -0.10951269 0.09701847 0.19391003 -0.8023659 -0.19143611
0.124805 0.5434149 0.65535986 -0.19936907 0.218333 0.2910108 -0.36680156 -0.096104816
0.14051291 0.5756027 -0.3233856 -0.22068475 -0.33339363 0.15870048 0.36234474 0.3023789
0.121892266 -0.12134036 -0.06389871 0.45155594 -0.13179809 -0.15993825 0.10363849 -0.16429663
-0.4332603 -0.08596489 0.20222843 -0.34187227 -0.5245207 0.18520261 -0.005049092 0.0017955089
-0.24585268 0.019345427 -0.26755598 -0.16738822 0.06615888 0.22638656 0.40025112 -0.10708879
-0.13397346 -0.02769231 -0.013607017 0.32704204 0.04273556 0.17866528 -0.63189644 0.51358855
0.12984477 -0.26857123 -0.28377026 0.5101407 -0.31179473 0.08541911 0.37001213 -0.2499965
-0.1873263 -0.03715335 0.33164614 -0.28823924 0.34504342 0.29219463 0.36393258 -0.26669967
0.21245229 0.06340053 0.06571225 -0.26839715 -0.2705839 -0.032513436 0.4461025 -0.35710979
0.22595112 0.19266787 0.37378997 -0.02616216 -0.15163378 0.25787503 -0.103271134 0.2073103
0.21410431 0.17133236 0.34223655 0.4523805
00000000: 91bf b63e 9587 8dbe 0cd2 4abe fc30 31be
00000010: 301a f73c b317 43bf d7e6 f83d c829 d33c
00000020: 9ec4 7abe bfcc 1cbf e672 b03e 717f c83e
00000030: 3eb4 aabd 4bc1 20be 1091 a0be 6a00 c4be
00000040: 2c51 193e 1bf8 9f3e d6ba f93e df7f 12bf
00000050: 2814 973e 08d0 c93c d831 3fbe a7e8 93be
00000060: 5fed e83d 5583 5d3e 6e0d aebe 3048 e0bd
00000070: 9fb1 c63d 5a90 463e da67 4dbf d407 44be
00000080: c499 ff3d 3d1d 0b3f aac5 273f 6827 4cbe
00000090: b092 5f3e 5eff 943e 6acd bbbe 9ad2 c4bd
000000a0: 9ee2 0f3e b35a 133f cc92 a5be 2ffb 61be
000000b0: 92b2 aabe 6182 223e 4085 b93e 68d1 9a3e
000000c0: a7a2 f93d 4b81 f8bd 54dd 82bd 5732 e73e
000000d0: 14f6 06be dac6 23be 6b40 d43d 603d 28be
000000e0: 4bd4 ddbe 5c0e b0bd f814 4f3e e209 afbe
000000f0: fd46 06bf c1a5 3d3e db72 a5bb 4857 eb3a
00000100: cec0 7bbe 4d7a 9e3c 19fd 88be d167 2bbe
00000110: 4f7e 873d e1d1 673e b7ed cc3e 5e51 dbbd
00000120: 5730 09be fcda e2bc f7ef 5ebc 0e72 a73e
00000130: 7c0b 2f3d 08f4 363e f7c3 21bf 8a7a 033f
00000140: 07f6 043e 2b82 89be 564a 91be 9598 023f
00000150: 8fa3 9fbe 37f0 ae3d 3b72 bd3e 15ff 7fbe
00000160: 77d2 3fbe 1c2e 18bd 86cd a93e 1894 93be
00000170: 88a9 b03e 899a 953e 5f55 ba3e dc8c 88be
00000180: 188d 593e 23d8 813d 2594 863d 5a6b 89be
00000190: f989 8abe cf2c 05bd 8c67 e43e 18d7 b6be
000001a0: bb5f 673e ba4a 453e 6661 bf3e 0752 d6bc
000001b0: e345 1bbe 3208 843e d17f d3bd 2749 543e
000001c0: 293e 5b3e c071 2f3e a139 af3e 6b9e e73e

Tokenizer.category_embeddings.weight f4 [68, 4]
-0.13002604 0.34762815 -0.5402189 0.25206065 -0.5254914 -0.61018616 0.034095954 0.51455075
-0.22765742 -0.4710831 -0.06740858 0.06730213 0.054015405 -0.085829996 0.28833014 0.032029916
0.23855942 0.5828665 -0.38263085 -0.046196844 0.40084803 -0.1763478 0.23663516 -0.4092583
-0.14178047 0.083292596 -0.27452073 0.42692968 -0.22166772 -1.0072396 1.0664008 0.13293518
0.42425928 0.49619445 -0.4030373 0.029635176 -0.014179635 0.17589767 0.06187177 -0.23695216
0.03696024 0.5234358 -0.3287203 -0.029306607 -0.56127167 1.2160864 0.57339257 -0.21156587
1.1751025 -0.5804575 -0.15670583 0.17121473 1.3649745 -1.7254549 1.3508222 -0.5114786
-0.14891113 0.10118681 -0.6044974 0.046791382 0.20363687 -0.011940951 0.4963781 0.28444657
0.99997747 -0.75446904 0.77545184 -1.1938056 0.47811007 0.3925646 0.053116422 0.17987984
-0.1758291 1.5885628 -1.0919563 -0.9674835 0.16611582 0.18382369 -0.32418185 -0.23087329
1.2743781 0.34473565 0.39019313 -0.16966967 0.31867245 0.307415 0.4897084 -0.86479217
0.041646454 0.136054 -0.13832448 0.081429236 0.21852857 0.09816893 -0.54046786 0.081639625
-0.5426646 0.48541564 -0.34555268 0.37621263 0.23584989 0.53630924 -0.54461056 -0.88580114
0.63153285 -0.090304635 0.079736196 -0.7304081 0.061297156 0.046451945 -0.21513209 0.30042952
-0.25304222 -0.40629673 -0.11559063 0.0730461 -0.1172713 0.27135235 -0.32345667 0.5074082
0.26181382 -0.21325862 -0.65072006 0.3933131 -0.09410113 0.46872413 -0.992913 -0.65295404
0.24080323 0.23387033 -0.9623627 0.5341488 0.8351314 0.61989975 -0.2980153 -0.31866506
0.40201578 0.06787046 0.08168731 -0.33047444 -0.16479212 0.0659086 -0.13413931 0.14355735
-0.10300062 0.50179565 -0.10822106 0.07366422 0.037713114 -0.68262476 -0.31953132 0.01676701
0.27569628 -0.29544002 0.06939355 0.11815481 -0.17456149 -0.09701169 -0.44274786 0.39075035
-0.25372458 0.14868659 -0.2594898 0.1663601 0.09008869 0.62997997 -0.5243226 -0.3235461
-0.26721805 -0.44653946 -0.010879894 0.4028775 0.17198326 -0.20369962 0.036269177 -0.21362029
-0.055073105 -0.45898187 -0.16973434 -0.35886866 0.060445774 0.28143284 0.1638223 -0.17103559
-0.07687226 0.65404576 -0.463267 -0.19617333 -0.13627198 0.62096405 -0.45709756 -0.55491656
-0.1719444 0.75184125 -0.07235324 0.3576306 -0.30401924 -0.16381 0.009098692 0.09160261
-0.18440503 0.18876055 -0.112982914 -0.016144114 0.6906009 -0.50713426 0.41272667 0.032634415
-0.08905144 -0.10707692 0.21073757 0.49189487 -0.24424148 0.6107721 -0.71099436 0.21076402
0.17525916 -0.32943866 -0.050534394 -0.24742672 -0.66461045 0.22205408 -0.09172755 0.35645235
0.30944726 0.32253382 -0.033882596 0.34376016 -0.7713434 -0.10212785 -0.2820714 0.52628124
0.080921575 0.35039893 0.11779562 0.20184763 -0.5166576 -0.4496075 0.9064953 0.15140109
-0.16669975 -0.0705454 -0.054655425 0.45941895 0.47259104 0.494359 -0.34080413 -0.21492612
-0.25309184 -0.10533045 -0.3967781 -0.2858544 -0.2127701 -0.24994041 -0.14722769 0.069895305
00000000: 8c25 05be 51fc b13e c94b 0abf 180e 813e
00000010: 9b86 06bf 2935 1cbf 33a8 0b3d 99b9 033f
00000020: 071f 69be ce31 f1be 820d 8abd b3d5 893d
00000030: 423f 5d3d a3c7 afbd 02a0 933e cd31 033d
00000040: ec48 743e bd36 153f 31e8 c3be e738 3dbd
00000050: f43b cd3e 8594 34be 7d50 723e 4e8a d1be
00000060: e62e 11be 4f95 aa3d fb8d 8cbe 8796 da3e
00000070: ddfc 62be 3aed 80bf d27f 883f 2920 083e
00000080: 8338 d93e 330d fe3e e85a cebe 78c5 f23c
00000090: b351 68bc 851e 343e 416d 7d3d 96a3 72be
000000a0: 9f63 173d e3ff 053f 074e a8be 6914 f0bc
000000b0: 80af 0fbf b8a8 9b3f dbc9 123f b9a4 58be
000000c0: c269 963f dd98 14bf 7e77 20be ea52 2f3e
000000d0: 7cb7 ae3f b5db dcbf bee7 ac3f 43f0 02bf
000000e0: 297c 18be 083b cf3d 57c0 1abf 52a8 3f3d
000000f0: 2f86 503e fba3 43bc 4525 fe3e fba2 913e
00000100: 86fe 7f3f e224 41bf 0384 463f 9fce 98bf
00000110: d8ca f43e 3afe c83e 9b90 593d 6c32 383e
00000120: 8b0c 34be 0756 cb3f 39c5 8bbf 00ad 77bf
00000130: 441a 2a3e 473c 3c3e 2afb a5be 0c6a 6cbe
00000140: d21e a33f 3181 b03e 65c7 c73e e3bd 2dbe
00000150: 0929 a33e 8065 9d3e 0fbb fa3e 0563 5dbf
00000160: 7995 2a3d bd51 0b3e efa4 0dbe 5fc4 a63d
00000170: f4c5 5f3e cb0c c93d 1a5c 0abf ad32 a73d
00000180: 11ec 0abf 6688 f83e 48ec b0be f19e c03e
00000190: a282 713e 904b 093f 996b 0bbf ddc3 62bf
000001a0: 23ac 213f a3f1 b8bd bb4c a33d 06fc 3abf
000001b0: ba12 7b3d 6544 3e3d 964b 5cbe e6d1 993e
000001c0: c08e 81be 2006 d0be c8ba ecbd 3299 953d
000001d0: ef2b f0bd b2ee 8a3e 1d9c a5be 81e5 013f
000001e0: 760c 863e 7860 5abe 9795 26bf 5660 c93e
000001f0: 18b8 c0bd 9cfc ef3e 8c2f 7ebf ff27 27bf
00000200: 1f95 763e b47b 6f3e 675d 76bf fabd 083f
00000210: 2ccb 553f c0b1 1e3f 7695 98be 1128 a3be
00000220: 03d5 cd3e abff 8a3d ad4b a73d f233 a9be
00000230: 44bf 28be 17fb 863d d15b 09be b300 133e
00000240: fdf1 d2bd ae75 003f 01a3 ddbd 44dd 963d
00000250: 1179 1a3d 7fc0 2ebf 9c99 a3be f85a 893c
00000260: 1028 8d3e ea43 97be 351e 8e3d 26fb f13d
00000270: 3fc0 32be 11ae c6bd d9af e2be 6e10 c83e
00000280: 30e8 81be 4c41 183e d9db 84be 4d5a 2a3e
00000290: 6b80 b83d 5e46 213f 023a 06bf d6a7 a5be
000002a0: ced0 88be d2a0 e4be 9541 32bc f645 ce3e
000002b0: 611c 303e a296 50be fd8e 143d 47bf 5abe
000002c0: 5694 61bd acff eabe d7ce 2dbe a2bd b7be
000002d0: fd95 773d f717 903e 08c1 273e f423 2fbe
000002e0: 346f 9dbd 8b6f 273f 5531 edbe a9e1 48be
000002f0: e28a 0bbe 80f7 1e3f b108 eabe 030f 0ebf
00000300: 3112 30be ab78 403f ef2d 94bd 5c1b b73e
00000310: 69a8 9bbe cfbd 27be ae12 153c 269a bb3d
00000320: acd4 3cbe 724a 413e 9663 e7bd a940 84bc
00000330: 38cb 303f 8dd3 01bf e950 d33e aaab 053d
00000340: 9a60 b6bd 254b dbbd 97cb 573e a5d9 fb3e
00000350: 701a 7abe 8f5b 1c3f ba03 36bf 86d2 573e
00000360: 2377 333e 2fac a8be 27fd 4ebd 6e5d 7dbe
00000370: e923 2abf 2562 633e a7db bbbd ec80 b63e
00000380: df6f 9e3e 2723 a53e 7ac8 0abd 5501 b03e
00000390: c376 45bf 6828 d1bd aa6b 90be 5eba 063f
000003a0: 36ba a53d 7d67 b33e d43e f13d 25b1 4e3e
000003b0: ac43 04bf f432 e6be 1310 683f e308 1b3e
000003c0: 57b3 2abe 1b7a 90bd 5ede 5fbd f638 eb3e
000003d0: 74f7 f13e 9f1c fd3e e17d aebe 9815 5cbe
000003e0: 4195 81be 7eb7 d7bd 8026 cbbe 825b 92be
000003f0: 68e0 59be 61f0 7fbe dbc2 16be 4525 8f3d

VAE_Encoder.layers.0.attention.W_q.weight f4 [4, 4]
-0.26390564 0.2286317 -0.19769494 0.06484984 0.32236734 -0.05564914 -0.5935232 -0.39125234
-0.13025397 0.50104207 -0.0710788 0.4033106 -0.03446795 0.49940255 -0.39579394 0.20572248
00000000: a41e 87be 6e1e 6a3e 8b70 4abe fecf 843d
00000010: 550d a53e 5af0 63bd 23f1 17bf 3a52 c8be
00000020: 4c61 05be 4b44 003f c391 91bd ba7e ce3e
00000030: 442e 0dbd b1b1 ff3e 81a5 cabe eaa8 523e

VAE_Encoder.layers.0.attention.W_q.bias f4 [4]
-0.040656704 0.02543915 -0.21626423 -0.027288174
00000000: a587 26bd c465 d03c 5f74 5dbe 738b dfbc

VAE_Encoder.layers.0.attention.W_k.weight f4 [4, 4]
0.04056986 -0.3896873 -0.37269577 -0.14529116 0.05655134 0.56074727 0.08487037 0.47770983
-0.3871813 0.46679983 -0.106754206 0.48591694 0.028035784 -0.3554524 0.09813073 0.038882677
00000000: 952c 263d 1885 c7be fbd1 bebe 35c7 14be
00000010: 61a2 673d 228d 0f3f 84d0 ad3d 6296 f43e
00000020: a13c c6be 6300 ef3e f3a1 dabd 1bca f83e
00000030: 4dab e53c dbfd b5be c4f8 c83d 7143 1f3d

VAE_Encoder.layers.0.attention.W_k.bias f4 [4]
-1.8544704e-05 0.0001477767 2.3758306e-05 -9.3606795e-05
00000000: 7390 9bb7 81f4 1a39 934c c737 c44e c4b8

VAE_Encoder.layers.0.attention.W_v.weight f4 [4, 4]
-0.068560004 -0.09428432 -0.05832162 0.0025180927 -0.032825973 -0.07368399 -0.020556137 -0.062440787
-0.05920321 -0.08320227 -0.01188399 -0.017174713 -0.0085193645 -0.10063053 -0.02960655 0.07370816
00000000: 3069 8cbd 2318 c1bd a7e2 6ebd 9606 253b
00000010: 8774 06bd a2e7 96bd 5865 a8bc e9c1 7fbd
00000020: 117f 72bd f465 aabd 11b5 42bc fcb1 8cbc
00000030: ce94 0bbc 6117 cebd 6f89 f2bc 4ef4 963d

VAE_Encoder.layers.0.attention.W_v.bias f4 [4]
0.07889735 -0.03508182 -0.033626217 -0.028398316
00000000: ef94 a13d f4b1 0fbd a5bb 09bd 96a3 e8bc

VAE_Encoder.layers.0.linear0.weight f4 [128, 4]
0.29342654 -0.33253047 0.1746442 0.39642522 -0.29040006 0.51501 -0.26425236 -0.06838243
0.34453693 -0.5276035 -0.16278106 -0.23993993 -0.05515948 0.10740037 0.11575981 -0.050607413
-0.6492626 -0.20173655 -0.30826512 -0.3904436 -0.15844019 0.09875684 -0.25656554 -0.55202377
0.3398199 0.5680336 0.39482987 0.46127552 -0.09558439 0.45713416 -0.011761331 -0.03944387
0.063122995 -0.4074105 -0.03125705 -0.4142842 -0.15111725 0.35029158 -0.25971952 -0.3695151
-0.46322685 0.31393453 0.055627823 0.3892926 0.0044456692 0.45596775 -0.39972675 -0.08671124
-0.2686303 0.21114373 0.43818253 -0.5429349 -0.4344776 -0.19120221 0.096949294 0.10954825
0.44784138 -0.17807543 -0.2451524 0.4999208 0.00024695354 0.310538 0.0034523134 0.10594256
-0.46364152 0.40413287 -0.3013913 0.113453306 0.042637687 0.07822992 -0.52825415 0.019428669
-0.50214523 -0.3384688 0.11770735 -0.21834402 -0.1245939 -0.34268782 -0.4149226 0.16428745
-0.25462705 -0.14303274 -0.09191833 -0.22699901 0.009819077 0.44828722 0.35048658 -0.39396542
-0.2746187 0.030711751 -0.42614874 -0.5611027 -0.22890201 -0.37095618 -0.10330606 0.5050992
0.074411884 0.42926526 0.47217387 0.27932337 0.34428045 0.04560545 0.0008893351 -0.39090505
0.32316807 -0.22618032 -0.53995043 0.36314523 0.29365435 0.48703662 -0.11117206 -0.4081584
-0.2509252 0.10938114 0.27209318 -0.0068568015 0.43534365 -0.3810137 -0.35772827 -0.45181686
0.3339347 -0.030297438 0.038200434 0.2610259 0.030425688 -0.19511947 -0.3350781 -0.40847006
0.104767464 0.2610363 -0.49109894 0.06436061 -0.026539316 0.494167 0.16829406 -0.49965945
-0.4615932 0.3741843 0.40798122 0.069453284 -0.23255783 -0.40316275 -0.26539397 0.38054383
0.16562049 -0.3660554 -0.2222273 -0.0058693658 0.02903321 -0.1286082 0.34251615 -0.07341702
0.24207678 0.13529788 -0.07257404 0.3087051 0.24159133 -0.22436088 -0.10640419 -0.051499028
0.313587 0.15102586 -0.025577031 0.46326068 0.103940114 -0.12452539 -0.21038783 -0.37222916
-0.29830664 0.10856253 -0.37888747 0.16040812 -0.13964728 0.43848267 -0.11581464 -0.018114561
-0.27024677 0.17869726 -0.45097664 0.42930824 0.1033922 -0.017494053 0.008585186 0.54637516
-0.44018972 -0.28073105 -0.25003487 0.17373706 0.27182952 -0.083826624 0.35369852 0.31327713
-0.06733684 0.35673663 -0.34017968 0.099013865 -0.2050386 0.19439454 0.100419566 -0.46389455
-0.10158448 0.4352327 0.37258795 -0.41260013 0.14723173 -0.002208075 -0.4284095 -0.3845829
0.39400733 -0.2576598 -0.2483818 0.17174736 0.20047745 -0.45608467 0.35068467 0.06290706
0.014293628 -0.20589148 -0.2503517 -0.32336926 -0.21864966 -0.034609105 0.25002104 -0.20979431
-0.013234938 -0.15110222 0.16666457 -0.4197702 0.21211568 0.08467257 -0.0897359 -0.41356304
0.13125354 0.23567411 0.36105114 -0.19357634 -0.021004377 -0.42806152 0.37710556 -0.21360709
0.015899401 -0.23213668 0.13863297 -0.15291047 0.36053884 -0.3139355 0.25589204 -0.24555261
0.31928307 0.31036958 -0.5067795 0.22543512 0.10833505 -0.75977504 -0.11101376 0.14391752
00000000: 013c 963e 6f41 aabe eed5 323e 3ff8 ca3e
00000010: 51af 94be b2d7 033f 164c 87be 160c 8cbd
00000020: 2567 b03e 0611 07bf 14b0 26be d0b2 75be
00000030: e8ee 61bd baf4 db3d 7b13 ed3d b849 4fbd
00000040: 1336 26bf 0794 4ebe edd4 9dbe 39e8 c7be
00000050: 253e 22be 0741 ca3d 8f5c 83be 6e51 0dbf
00000060: e0fc ad3e a66a 113f 2427 ca3e 4e2c ec3e
00000070: c0c1 c3bd 7d0d ea3e 99b2 40bc e58f 21bd
00000080: a146 813d 1c98 d0be 6407 00bd 0f1d d4be
00000090: 7bbe 1abe 6b59 b33e f5f9 84be 1531 bdbe
000000a0: 122c edbe 07bc a03e 00da 633d 5c51 c73e
000000b0: faac 913b 9b74 e93e fca8 ccbe aa95 b1bd
000000c0: e989 89be 1036 583e 7659 e03e c8fd 0abf
000000d0: d973 debe 83ca 43be 5a8d c63d d55a e03d
000000e0: 774b e53e 6859 36be 3b09 7bbe 9ef5 ff3e
000000f0: 8b79 8139 d6fe 9e3e 3540 623b 6af8 d83d
00000100: 6c62 edbe 81ea ce3e f64f 9abe 355a e83d
00000110: dba4 2e3d 0237 a03d aa3b 07bf df28 9f3c
00000120: 978c 00bf c84b adbe 8d10 f13d 9395 5fbe
00000130: 162b ffbd c774 afbe bc70 d4be f83a 283e
00000140: 7a5e 82be 2d77 12be ad3f bcbd 6e72 68be
00000150: 32e0 203c e785 e53e fa72 b33e d6b5 c9be
00000160: d29a 8cbe 3697 fb3c 2b30 dabe 6da4 0fbf
00000170: 4a65 6abe f8ed bdbe 2192 d3bd 2e4e 013f
00000180: 4265 983d a8c8 db3e c6c0 f13e 7903 8f3e
00000190: 8745 b03e c8cc 3a3d 4522 693a b524 c8be
000001a0: 4976 a53e d09b 67be 313a 0abf 2cee b93e
000001b0: dd59 963e dd5c f93e 2dae e3bd 23fa d0be
000001c0: 4579 80be 3803 e03d cc4f 8b3e 05af e0bb
000001d0: 5de5 de3e 3a14 c3be 2928 b7be 8a54 e7be
000001e0: 7df9 aa3e 5532 f8bc 0f78 1c3d 30a5 853e
000001f0: 4b3f f93c 66cd 47be 5b8f abbe fd22 d1be
00000200: 5390 d63d 8da6 853e 5271 fbbe 7fcf 833d
00000210: fb68 d9bc 7503 fd3e 4755 2c3e 5dd3 ffbe
00000220: f255 ecbe 1695 bf3e eae2 d03e 863d 8e3d
00000230: a423 6ebe 596b cebe b8e1 87be a4d6 c23e
00000240: 6b98 293e 9d6b bbbe 8e8f 63be cf53 c0bb
00000250: 0ed7 ed3c deb1 03be 475e af3e aa5b 96bd
00000260: fae2 773e 878b 0a3e b3a1 94bd 980e 9e3e
00000270: b863 773e dcbe 65be 71ea d9bd a5f0 52bd
00000280: 7a8e a03e 86a6 1a3e ec86 d1bc 8130 ed3e
00000290: 8ede d43d 2b07 ffbd e86f 57be d294 bebe
000002a0: a6bb 98be 0856 de3d 8afd c1be 0742 243e
000002b0: b2ff 0ebe cd80 e03e 3a30 edbd fd64 94bc
000002c0: c95d 8abe 6afc 363e 69e6 e6be 4ace db3e
000002d0: 4abf d33d b04f 8fbc e1a8 0c3c 3edf 0b3f
000002e0: 8c60 e1be fbbb 8fbe 9204 80be 21e8 313e
000002f0: 3d2d 8b3e 4bad abbd f917 b53e dc65 a03e
00000300: e6e7 89bd 2fa6 b63e 082c aebe c8c7 ca3d
00000310: a4f5 51be 5d0f 473e c6a8 cd3d 9683 edbe
00000320: 860b d0bd d2d6 de3e d9c3 be3e 5340 d3be
00000330: eac3 163e 5ab5 10bb 7d58 dbbe 0de8 c4be
00000340: 54bb c93e fceb 83be cc57 7ebe 8ade 2f3e
00000350: f649 4d3e ee83 e9be f18c b33e 6bd5 803d
00000360: d22f 6a3c 37d5 52be 192e 80be a890 a5be
00000370: b2e5 5fbe 47c2 0dbd c202 803e 52d4 56be
00000380: 5ad7 58bc 8aba 1abe 1eaa 2a3e 1fec d6be
00000390: da34 593e d068 ad3d 75c7 b7bd 89be d3be
000003a0: 5467 063e 8e54 713e b2db b83e e038 46be
000003b0: 5f11 acbc e12a dbbe fb13 c13e d1bb 5abe
000003c0: 763f 823c 3db5 6dbe cdf5 0d3e 9094 1cbe
000003d0: 8c98 b83e 27bc a0be 4804 833e 2572 7bbe
000003e0: 1279 a33e c3e8 9e3e 4dbc 01bf 77d8 663e
000003f0: c4de dd3d 9e80 42bf 2f5b e3bd 1d5f 133e

VAE_Encoder.layers.0.linear0.bias f4 [128]
-0.2929606 0.4941553 -0.10951505 0.49346355 -0.27276397 -0.06435502 0.31170166 -0.25964418
-0.06678299 0.378863 0.06656804 -0.21809176 -0.50761515 -0.37991673 -0.28001514 0.24039544
-0.10081332 -0.32851803 -0.27859387 -0.23258446 0.4331426 -0.23475446 -0.082982205 -0.4344272
-0.17830978 0.43726242 -0.40854642 0.08576013 -0.07340539 0.4653552 0.2072348 -0.19302127
-0.43060187 0.29071435 0.3206389 0.3692946 0.22664623 0.0968499 0.38116145 0.33862445
0.27259994 -0.0695942 0.3551097 -0.23568135 0.3518522 -0.15929022 0.33913687 -0.08299096
0.1476584 0.22201973 0.3120084 0.048691355 -0.056657057 0.28840747 0.087910555 0.021591265
0.5416691 -0.23666239 0.042279147 0.19838776 -0.33144706 0.4715087 -0.1788548 -0.33716536
0.040521175 -0.4624658 0.25008664 -0.5066312 -0.062667765 -0.3434305 -0.5587593 0.24489154
-0.10979205 -0.13635181 -0.5445145 0.19595325 -0.3341223 -0.021601874 0.27497086 -0.1261979
0.12865508 -0.52706206 -0.20532534 0.044644456 0.36106452 -0.1346818 0.31434962 -0.12709925
-0.019364128 -0.13419841 0.23947637 -0.19803457 0.4337973 0.3305817 0.07681126 -0.37495238
0.03186942 0.3760307 -0.018544946 0.32071662 -0.47214803 -0.079796575 -0.07293834 0.0840389
0.38478383 0.24295476 0.10124165 0.10068827 -0.045489907 -0.12252843 0.3273396 0.48778117
0.029785004 0.3540117 -0.011134466 0.4196242 0.4851353 0.4736338 0.1896773 -0.14392234
0.17038316 -0.08993017 0.17431116 0.4626288 -0.0674972 -0.4286465 -0.105391726 -0.1553307
00000000: effe 95be ec01 fd3e 6d49 e0bd 41a7 fc3e
00000010: b8a7 8bbe 91cc 83bd 5c97 9f3e 15f0 84be
00000020: 85c5 88bd 55fa c13e d354 883d 7253 5fbe
00000030: 11f3 01bf 7284 c2be 255e 8fbe 392a 763e
00000040: 3777 cebd 8433 a8be dba3 8ebe 9f2a 6ebe
00000050: dec4 dd3e 7963 70be 93f2 a9bd 3e6d debe
00000060: d796 36be dce0 df3e ff2c d1be 02a3 af3d
00000070: 9155 96bd 0943 ee3e 5c35 543e 5ea7 45be
00000080: d977 dcbe 83d8 943e c82a a43e 2f14 bd3e
00000090: f315 683e 3e59 c63d 9827 c33e 2f60 ad3e
000000a0: 3892 8b3e 6787 8ebd f0d0 b53e 7456 71be
000000b0: f925 b43e fa1c 23be 59a3 ad3e 2af7 a9bd
000000c0: c333 173e 2459 633e 91bf 9f3e 9670 473d
000000d0: 3b11 68bd 25aa 933e 730a b43d 2ae0 b03c
000000e0: d3aa 0a3f a057 72be e62c 2d3d 2926 4b3e
000000f0: 6eb3 a9be 9769 f13e b625 37be f0a0 acbe
00000100: 88f9 253d 51c8 ecbe 5b0b 803e 95b2 01bf
00000110: f557 80bd 1fd6 afbe d90a 0fbf d9c4 7a3e
00000120: a8da e0bd cf9f 0bbe 4d65 0bbf f8a7 483e
00000130: 1412 abbe 6af6 b0bc fbc8 8c3e 063a 01be
00000140: 28be 033e 8aed 06bf ce40 52be 1bdd 363d
00000150: 73dd b83e 07ea 09be 6ff2 a03e 4e26 02be
00000160: 85a1 9ebc 4f6b 09be 4b39 753e 93c9 4abe
00000170: ae1a de3e 0142 a93e 394f 9d3d c2f9 bfbe
00000180: 8289 023d 1987 c03e 92eb 97bc f834 a43e
00000190: 63bd f1be 636c a3bd b260 95bd 961c ac3d
000001a0: 6302 c53e 22c9 783e c857 cf3d a735 ce3d
000001b0: a053 3abd 2ff0 fabd 0e99 a73e 74be f93e
000001c0: aeff f33c 0641 b53e 566d 36bc fcd8 d63e
000001d0: a763 f83e 2180 f23e c43a 423e 6160 13be
000001e0: ec78 2e3e 4f2d b8bd a07e 323e afdd ec3e
000001f0: f93b 8abd 8e77 dbbe 9ed7 d7bd 030f 1fbe

VAE_Encoder.layers.0.linear1.weight f4 [4, 128]
-0.108143404 0.096133456 0.03520775 0.037626315 -0.0035972754 -0.04636881 -0.03935859 0.009785988
0.019972607 0.113286406 -0.022660375 0.12030426 0.019780857 0.03990867 0.072183855 0.050735835
0.081138976 0.07644583 -0.0047627515 0.09903006 -0.02255712 0.13437873 -0.052864917 0.049717326
-0.04609731 0.044295613 0.13947411 0.028937021 0.026105462 0.022232763 -0.023284892 0.020974945
0.004610943 0.09103869 0.12452944 -0.0600188 0.04870177 -0.06869341 -0.05468849 0.026395421
0.02349427 -0.0977647 -0.0025170718 0.06181422 0.07988229 0.06146556 -0.07243862 -0.017323045
-0.005980123 0.13043296 0.1689779 0.051734526 -0.10433599 -0.08721482 -0.07545944 0.09483133
-0.012122505 -0.021524245 0.022230163 -0.031960957 0.051581364 -0.11076934 0.03229436 -0.24577734
0.015669838 -0.0089507215 -0.093166046 -0.08174702 0.12199254 -0.090061255 0.036814842 -0.040893096
0.048200466 0.061180957 -0.12323013 -0.03501538 0.07732927 0.042632777 0.01863036 0.1011751
0.01255281 0.0037168376 0.102961615 0.017473347 0.0995695 0.20217493 0.03555483 -0.08752834
0.052362382 -0.0044544516 -0.017195418 0.025958799 0.01131404 -0.017360548 -0.003966538 0.024496695
0.1321494 -0.025289731 0.019982956 -0.047476057 -0.2762928 -0.009968807 -0.03968364 -0.03980884
0.01779567 0.06443809 0.045392603 0.112155735 0.11534265 0.106707096 0.052598625 0.06168894
-0.041261453 0.056571506 0.09204804 0.043143228 -0.04807495 0.047793105 -0.019395621 -0.035849284
0.00092826516 -0.012285509 0.11317076 0.15684423 -0.0032665995 0.050054837 0.05953055 -0.08094859
0.0055103977 0.03677039 -0.04036483 0.080339506 0.107666254 0.08947764 0.05178426 -0.0115084825
0.06854821 0.08082207 0.0070321667 0.008750625 -0.14802773 -0.07203639 0.05403446 0.034831744
0.049930695 -0.11309756 0.098497435 0.15844059 -0.045769375 0.08381348 0.077189215 -0.05286258
0.087736696 0.053390633 0.11183621 -0.04795416 0.14985009 0.05048846 -0.0615542 0.10623805
-0.14469482 0.09781465 -0.08510042 -0.0219103 0.03622367 -0.061159156 0.05810891 0.042019572
-0.006511027 -0.018810736 -0.017313031 -0.014189546 -0.08097422 0.047908206 0.05506141 -0.17308807
0.06839488 0.09957424 0.053839244 0.05577413 0.08315143 0.06589301 -0.009618868 -0.04324421
-0.03558834 -0.009882579 0.1310326 -0.116469376 -0.0629378 0.0131949 -0.035587072 -0.0030963917
0.092586875 -0.07078501 -0.10410481 0.09401819 -0.041740324 -0.08438123 -0.1297563 -0.06063555
0.087292776 0.066506065 0.061219655 0.05430543 0.07632963 -0.08013638 -0.06405616 -0.0027854056
0.021961864 -0.21587005 0.026013847 0.08546739 0.014997918 0.1016119 0.07415091 0.039117068
0.0468631 -0.025200637 0.049844075 -0.11427582 -0.047914322 -0.023182483 -0.042741552 0.00731218
-0.02850257 -0.06454161 -0.0018494013 -0.07365533 0.19990556 0.12092378 0.05071222 0.13063022
0.082463056 0.091196135 0.04957678 -0.07178091 0.06318124 -0.08882171 0.049283173 -0.04985547
0.06252773 0.08911315 0.033218432 0.05348076 0.032838415 -0.06271577 -0.012386661 -0.082162686
-0.024325395 -0.15558344 -0.055076256 0.016011598 0.079192206 0.007099527 0.025234634 -0.06675209
00000000: 4a7a ddbd 9ee1 c43d 0036 103d 0d1e 1a3d
00000010: 44c0 6bbb 39ed 3dbd 7936 21bd 6955 203c
00000020: 989d a33c b402 e83d 40a2 b9bc 1462 f63d
00000030: 770b a23c 4677 233d 21d5 933d 61d0 4f3d
00000040: 312c a63d a28f 9c3d db10 9cbb 46d0 ca3d
00000050: b6c9 b8bc 949a 093e e288 58bd 65a4 4b3d
00000060: 88d0 3cbd 516f 353d 4dd2 0e3e 550d ed3c
00000070: 1fdb d53c 7c21 b63c f5bf bebc a6d3 ab3c
00000080: 6517 973b 7e72 ba3d 4b09 ff3d 46d6 75bd
00000090: 827b 473d 21af 8cbd 0a01 60bd 363b d83c
000000a0: 0e77 c03c dc38 c8bd 75f5 24bb e830 7d3d
000000b0: 5399 a33d 50c3 7b3d b35a 94bd 0fe9 8dbc
000000c0: e8f4 c3bb 3890 053e 8b08 2d3e 95e7 533d
000000d0: 1cae d5bd af9d b2bd 7b8a 9abd ee36 c23d
000000e0: 799d 46bc 9d53 b0bc 081c b63c 7ee9 02bd
000000f0: fb46 533d 09db e2bd 1747 043d 0ead 7bbe
00000100: 085e 803c 0ca6 12bc d7cd bebd fb6a a7bd
00000110: 3ad7 f93d 0972 b8bd 29cb 163d 857f 27bd
00000120: da6d 453d e298 7a3d 1460 fcbd 496c 0fbd
00000130: cf5e 9e3d b59f 2e3d b29e 983c e434 cf3d
00000140: 4daa 4d3c 3096 733b 8add d23d 4424 8f3c
00000150: 18eb cb3d f206 4f3e f1a1 113d 0f42 b3bd
00000160: f079 563d a6f6 91bb 68dd 8cbc 8ca7 d43c
00000170: 865e 393c b537 8ebc bbf9 81bb 4bad c83c
00000180: 2c52 073e 692c cfbc 4cb3 a33c 4176 42bd
00000190: 4076 8dbe 3554 23bc 508b 22bd 980e 23bd
000001a0: 3ac8 913c 1ef8 833d 98ed 393d e8b1 e53d
000001b0: c438 ec3d 4089 da3d a871 573d 8bad 7c3d
000001c0: c501 29bd 86b7 673d af83 bc3d f4b6 303d
000001d0: 3dea 44bd b4c2 433d 91e3 9ebc b3d6 12bd
000001e0: d256 733a 2949 49bc 12c6 e73d c69b 203e
000001f0: 7214 56bb 4d06 4d3d 4ed6 733d 60c8 a5bd
00000200: 9190 b43b 8c9c 163d 9855 25bd 0a89 a43d
00000210: 2080 dc3d 0e40 b73d bb1b 543d 138e 3cbc
00000220: 0163 8c3d 0b86 a53d 176e e63b c85e 0f3c
00000230: 9594 17be d187 93bd 3d53 5d3d bbab 0e3d
00000240: 2184 4c3d b29f e7bd 06b9 c93d 403e 223e
00000250: ab78 3bbd 67a6 ab3d 6115 9e3d 6f86 58bd
00000260: 4caf b33d 23b0 5a3d 620a e53d 956b 44bd
00000270: 4d72 193e fdcc 4e3d 4220 7cbd 5693 d93d
00000280: e12a 14be 0c53 c83d 2149 aebd 3b7d b3bc
00000290: 455f 143d 0682 7abd 9c03 6e3d b71c 2c3d
000002a0: 745a d5bb f918 9abc 0fd4 8dbc 457b 68bc
000002b0: d0d5 a5bd 653b 443d 1388 613d 003e 31be
000002c0: 9d12 8c3d 94ed cb3d 8a86 5c3d 6a73 643d
000002d0: 4c4b aa3d eaf2 863d 7598 1dbc d720 31bd
000002e0: 14c5 11bd 8aea 21bc 692d 063e 7f87 eebd
000002f0: 89e5 80bd 6c2f 583c c0c3 11bd d5ec 4abb
00000300: 309e bd3d bbf7 90bd e734 d5bd 9c8c c03d
00000310: e7f7 2abd 11d0 acbd d6de 04be fc5c 78bd
00000320: 8ec6 b23d 5534 883d 76c1 7a3d 5f6f 5e3d
00000330: b652 9c3d 8b1e a4bd e02f 83bd 5a8b 36bb
00000340: 5ee9 b33c 0a0d 5dbe fe1a d53c 8709 af3d
00000350: d4b9 753c e619 d03d 6fdc 973d 3839 203d
00000360: 86f3 3f3d 9171 cebc 4d29 4c3d 7109 eabd
00000370: cf41 44bd 31e9 bdbc c411 2fbd 039b ef3b
00000380: 397e e9bc 642e 84bd 9c67 f2ba 9bd8 96bd
00000390: 0bb4 4c3e e3a6 f73d 9eb7 4f3d eec3 053e
000003a0: 64e2 a83d 0ac5 ba3d 0611 4b3d df01 93bd
000003b0: 2a65 813d 28e8 b5bd 27dd 493d 4035 4cbd
000003c0: 8a0e 803d f580 b63d 0d10 083d a40e 5b3d
000003d0: 9381 063d 2071 80bd 6cf1 4abc e944 a8bd
000003e0: 0d46 c7bc 4451 1fbe a497 61bd c12a 833c
000003f0: 862f a23d 26a3 e83b ddb8 ce3c 52b5 88bd

VAE_Encoder.layers.0.linear1.bias f4 [4]
-0.022531705 -0.044336613 -0.013849377 -0.13788056
00000000: 6994 b8bc 4f9a 35bd 7fe8 62bc 9030 0dbe

VAE_Encoder.layers.0.norm1.weight f4 [4]
0.99411595 1.0513667 1.1600823 1.0439264
00000000: 627e 7e3f 2f93 863f 947d 943f 619f 853f

VAE_Encoder.layers.0.norm1.bias f4 [4]
-0.00899587 0.09341119 -0.09857762 -0.013872573
00000000: 6a63 13bc 5e4e bf3d 10e3 c9bd ca49 63bc

VAE_Encoder.layers.1.attention.W_q.weight f4 [4, 4]
0.5497095 -0.03124923 -0.5285049 -0.34013203 0.11302667 -0.27853706 -0.52670777 0.37691516
-0.081227824 -0.3622651 0.21316056 -0.32963356 0.08676232 -0.28461042 0.17195435 0.2023839
00000000: c3b9 0c3f 63fe ffbc 194c 07bf c925 aebe
00000010: 877a e73d 699c 8ebe 52d6 06bf 06fb c03e
00000020: c65a a6bd d07a b9be c346 5a3e bbc5 a8be
00000030: 71b0 b13d 75b8 91be cd14 303e ba3d 4f3e

VAE_Encoder.layers.1.attention.W_q.bias f4 [4]
-0.10403815 -0.08793952 0.112419955 -0.07184798
00000000: f411 d5bd a319 b4bd 6f3c e63d 0925 93bd

VAE_Encoder.layers.1.attention.W_k.weight f4 [4, 4]
0.055056013 0.23837014 -0.0112605365 -0.1404595 0.33273694 0.18635546 -0.23235516 0.07827284
-0.1766884 -0.3784241 0.36964247 0.3265008 0.45922264 0.37633014 0.34737894 0.24402541
00000000: 6a82 613d 4d17 743e 1d7e 38bc 9dd4 0fbe
00000010: 7f5c aa3e f7d3 3e3e 83ee 6dbe 834d a03d
00000020: ceed 34be cec0 c1be c741 bd3e 1d2b a73e
00000030: 3b1f eb3e 58ae c03e a7db b13e cce1 793e

VAE_Encoder.layers.1.attention.W_k.bias f4 [4]
9.823463e-05 0.00018666005 8.810288e-06 8.697732e-06
00000000: 5103 ce38 2dba 4339 e6cf 1337 79ec 1137

VAE_Encoder.layers.1.attention.W_v.weight f4 [4, 4]
0.38557622 -0.15830094 0.058932245 0.1177521 -0.22669683 0.30713466 -0.033100627 -0.16784635
-0.4461534 0.45513427 -0.135444 -0.26184377 0.5197215 -0.23846611 0.11345682 0.21050997
00000000: 3f6a c53e a419 22be f062 713d 0328 f13d
00000010: 3723 68be c140 9d3e 8694 07bd eadf 2bbe
00000020: 386e e4be 5c07 e93e d5b1 0abe 6310 86be
00000030: 780c 053f 7630 74be 0d5c e83d ed8f 573e

VAE_Encoder.layers.1.attention.W_v.bias f4 [4]
-0.02673567 0.0027648062 -0.044981282 0.012063504
00000000: c404 dbbc c031 353b 4b3e 38bd 01a6 453c

VAE_Encoder.layers.1.linear0.weight f4 [128, 4]
-0.29446724 0.56625164 -0.19906366 -0.073789254 -0.31112552 0.27904844 -0.43825424 -0.52474385
0.19415802 0.35662267 -0.321385 0.20351984 0.3337921 -0.3556099 -0.47822595 -0.30652764
0.30046397 0.25786394 -0.38816342 0.0028825267 0.004419068 0.08799853 -0.31224334 -0.42102763
0.41214204 0.4689473 -0.10832668 0.34819528 -0.2656477 -0.53345394 -0.24990298 0.107234165
-0.4464051 0.15545861 0.38078618 0.13002017 0.09559718 -0.062054828 0.38382146 -0.23734826
-0.43495774 -0.21257621 -0.3247332 -0.33828068 -0.63161504 -0.28395838 0.08783748 -0.11128871
0.22044116 0.22832052 0.006627333 0.19253439 -0.29629886 -0.019986777 0.33560416 -0.52249295
0.40553772 0.3151103 -0.036914863 0.14142288 -0.009075731 -0.029213082 -0.12641712 -0.13550001
0.51134074 -0.47347012 -0.045555655 -0.17236558 0.5309419 0.5115168 -0.21650423 -0.184402
-0.2916462 0.5117826 -0.25254864 -0.3307415 -0.39585492 0.46185762 -0.044914193 -0.47150624
0.5245252 -0.40084118 0.45552397 -0.34402213 -0.38250527 0.106870815 0.06473478 0.046262853
0.27115467 0.4575301 -0.26900333 -0.06459526 -0.2867958 -0.023486273 0.37996978 0.23744217
0.10980918 0.2083543 0.38963085 -0.1405456 -0.13457239 -0.21199626 -0.17503363 -0.23528963
0.3081403 -0.17136692 -0.3290411 -0.38712165 -0.07928919 0.42335045 0.4933052 -0.07433971
0.44172782 -0.22736737 -0.51619375 0.2861996 -0.29428527 0.17612149 0.32611504 0.19240493
-0.45426485 -0.30794817 -0.3871247 0.20809281 -0.1155364 -0.32047158 0.1788804 -0.498993
0.41484213 0.34037718 0.104979426 -0.44517365 -0.42814243 0.15279129 0.3964823 0.17620447
0.39545247 -0.21999978 -0.025771568 0.38905066 -0.17615004 0.13203344 -0.103743866 0.24158272
-0.21614279 0.54920304 0.24867679 -0.18760236 0.4458156 -0.38774553 0.3265057 0.4724264
0.056797102 -0.011085854 0.019847548 0.05757255 -0.51135916 0.29204535 -0.25053105 -0.25356147
-0.21040213 0.5053009 0.1101381 -0.14389636 -0.48399016 -0.13892177 -0.2906833 -0.25676018
0.0009430335 0.5229504 0.45692983 0.14097027 0.11522056 -0.13848165 0.419873 0.32060012
-0.19366427 -0.12723416 -0.46610048 0.3603862 -0.083999135 -0.29177207 0.1298837 0.025745178
-0.020957008 0.23001768 -0.102339685 0.50111043 -0.38552025 -0.1912808 -0.4663638 -0.0065104975
-0.4096185 -0.42367557 -0.10492358 0.44688994 -0.27964717 0.30327225 -0.21321039 0.20949961
0.0064735557 0.41149062 -0.42286918 -0.29032245 -0.066335104 -0.15613829 -0.10833228 -0.12355328
-0.52937573 0.47420856 -0.1589852 0.11892399 0.16330571 0.035722375 0.026549935 -0.32941222
-0.3964545 -0.05118575 -0.18652742 -0.20842327 0.3460487 0.3502692 -0.10670653 0.2287732
-0.4332285 0.25869074 0.2762504 -0.32608306 0.20409143 -0.04789084 -0.4063498 0.4505671
-0.20410757 0.005188553 0.37764966 -0.293783 0.29420015 0.41435486 -0.37426275 0.31260067
0.049938947 -0.080748014 -0.45078874 -0.2099258 -0.2617367 0.17149818 0.41197926 0.08298973
-0.5081993 -0.3945252 -0.36829695 0.46905437 -0.025077963 0.50377005 -0.30969366 0.23074754
00000000: 69c4 96be def5 103f 58d7 4bbe d21e 97bd
00000010: d84b 9fbe 70df 8e3e dc62 e0be 9d55 06bf
00000020: 5cd1 463e 3f97 b63e 938c a4be 8167 503e
00000030: cce6 aa3e 8012 b6be 08da f4be 31f1 9cbe
00000040: 6ad6 993e be06 843e 5bbd c6be c6e8 3c3b
00000050: d4cd 903b 9338 b43d 5cde 9fbe ef90 d7be
00000060: 4804 d33e dc19 f03e 61da ddbd a746 b23e
00000070: fa02 88be 7090 08bf 91e6 7fbe 969d db3d
00000080: 368f e4be 8b30 1f3e 68f6 c23e 0224 053e
00000090: 74c8 c33d 342d 7ebd 3f84 c43e 6c0b 73be
000000a0: c8b2 debe 94ad 59be 6e43 a6be 2033 adbe
000000b0: 86b1 21bf fe62 91be 23e4 b33d 56eb e3bd
000000c0: 54bb 613e dbcc 693e 192a d93b bc27 453e
000000d0: 7cb4 97be 4fbb a3bc 4fd4 ab3e 19c2 05bf
000000e0: a4a2 cf3e 2356 a13e 0a34 17bd 29d1 103e
000000f0: 60b2 14bc 4650 efbc 7d73 01be 84c0 0abe
00000100: 3ae7 023f ad6a f2be 9198 3abd 9a80 30be
00000110: cfeb 073f c4f2 023f 49b3 5dbe e1d3 3cbe
00000120: a752 95be 2f04 033f 0e4e 81be f356 a9be
00000130: 7fad cabe 9a78 ec3e f2f7 37bd 4469 f1be
00000140: 4947 063f 0e3b cdbe 703a e93e ab23 b0be
00000150: bbd7 c3be 16df da3d ab93 843d 1e7e 3d3d
00000160: c9d4 8a3e 6341 ea3e ceba 89be 854a 84bd
00000170: e6d6 92be 4966 c0bc 668b c23e 0a24 733e
00000180: a3e3 e03d d45a 553e b27d c73e 30eb 0fbe
00000190: 58cd 09be 8c15 59be 043c 33be c4ef 70be
000001a0: 91c4 9d3e cf7a 2fbe 1378 a8be cf34 c6be
000001b0: 5f62 a2bd 64c1 d83e 8092 fc3e 6b3f 98bd
000001c0: 262a e23e fed2 68be 4625 04bf c188 923e
000001d0: 8fac 96be 3159 343e 8df8 a63e cc05 453e
000001e0: 6795 e8be 62ab 9dbe 3535 c6be 4816 553e
000001f0: 599e ecbd da14 a4be 6c2c 373e 037c ffbe
00000200: 3066 d43e eb45 ae3e 74ff d63d cded e3be
00000210: 7c35 dbbe 5275 1c3e baff ca3e f26e 343e
00000220: bf78 ca3e 9f47 61be e51e d3bc a631 c73e
00000230: ad60 34be c633 073e aa77 d4bd 7661 773e
00000240: 8954 5dbe 9298 0c3f 21a5 7e3e d51a 40be
00000250: f141 e43e 9586 c6be c12b a73e e0e1 f13e
00000260: 14a4 683d 71a1 35bc 5397 a23c 32d1 6b3d
00000270: 6fe8 02bf f886 953e 9b45 80be cfd2 81be
00000280: a873 57be 665b 013f 1690 e13d 9159 13be
00000290: 8fcd f7be 8241 0ebe 71d4 94be 1276 83be
000002a0: e835 773a 14e0 053f b5f2 e93e 835a 103e
000002b0: c2f8 eb3d 22ce 0dbe 98f9 d63e b325 a43e
000002c0: ed4f 46be ac49 02be b9a4 eebe 8a84 b83e
000002d0: bd07 acbd 2663 95be 3c00 053e 8de7 d23c
000002e0: 08ae abbc c189 6b3e 7897 d1bd c648 003f
000002f0: e962 c5be 1ddf 43be 3cc7 eebe 0356 d5bb
00000300: 84b9 d1be 01ec d8be 2de2 d6bd c2ce e43e
00000310: ea2d 8fbe 8046 9b3e d353 5abe 1187 563e
00000320: 1f20 d43b e6ae d23e 4f82 d8be 25a5 94be
00000330: b3da 87bd b7e2 1fbe 50dd ddbd 8109 fdbd
00000340: 2b85 07bf 77cb f23e 04cd 22be 6c8e f33d
00000350: 9d39 273e a051 123d 407f d93c b8a8 a8be
00000360: 16fc cabe 26a8 51bd 0b01 3fbe e96c 55be
00000370: 4c2d b13e 7c56 b33e f488 dabd 8643 6a3e
00000380: 20d0 ddbe 1d73 843e b170 8d3e 5cf4 a6be
00000390: 58fd 503e 2f29 44bd 150d d0be bbb0 e63e
000003a0: 9301 51be bd04 aa3b 4c5b c13e ba6a 96be
000003b0: 67a1 963e 5226 d43e 5e9f bfbe 320d a03e
000003c0: c88c 4c3d 375f a5bd c8cd e6be caf6 56be
000003d0: 5a02 86be 389d 2f3e f2ee d23e 85f6 a93d
000003e0: 5919 02bf 35ff c9be 6b91 bcbe e527 f03e
000003f0: 4d70 cdbc 13f7 003f 2b90 9ebe 1549 6c3e

VAE_Encoder.layers.1.linear0.bias f4 [128]
0.4516652 0.2505172 -0.08979618 -0.14281036 0.39133006 -0.21920805 -0.13047463 -0.27420187
-0.051461056 0.15524751 -0.34155107 -0.30745187 0.21888041 0.48368737 -0.3148624 0.3829256
-0.30450553 -0.36077833 -0.23017558 -0.40073833 0.31631786 0.117150135 -0.11900077 -0.17196257
0.3541293 -0.34555167 0.06434426 -0.31316307 0.30750263 0.09308591 -0.06747785 0.46582982
0.14038306 -0.16092758 0.33085498 -0.045277607 -0.19735414 0.3028171 0.4243529 -0.2160226
-0.29082814 -0.07761023 -0.0043999474 0.104430206 0.072525114 -0.021733223 -0.24177948 -0.0018611505
-0.076987706 -0.14461835 0.42518485 0.15217821 0.24088202 0.104964465 0.1355454 0.29741824
0.32892334 -0.07023163 -0.1291246 -0.090980195 0.36825255 -0.5161375 -0.2935944 -0.4505537
-0.1168084 -0.38946044 0.07262785 0.13665207 -0.0074322917 0.43131733 0.36105472 0.05731052
0.53377855 0.12855987 0.043556783 -0.060858864 -0.39157623 0.27705285 -0.00047249874 0.42835382
-0.41815412 -0.12325723 0.3996522 -0.31882176 0.32377788 -0.28625017 -0.39231986 -0.28391054
0.29460555 -0.38491616 0.10479645 0.31220603 0.23346412 -0.13064753 0.20131357 0.36907968
-0.39618942 -0.044574294 0.25465083 -0.36646837 -0.121764235 0.38198125 -0.26274562 -0.31391373
0.0022309376 -0.115005285 -0.092237644 0.20190528 -0.080377676 0.27723426 -0.13946486 0.11204359
-0.21168283 -0.054180007 -0.23691931 -0.3564988 -0.2285834 -0.22338563 0.43547162 0.26992556
0.35749587 0.16550402 0.46638688 0.3572782 -0.30025262 -0.108292945 -0.14685068 0.19918013
00000000: a940 e73e ca43 803e 0fe7 b7bd e13c 12be
00000010: 6a5c c83e 1378 60be 249b 05be 3064 8cbe
00000020: d4c8 52bd 34f9 1e3e c8df aebe 556a 9dbe
00000030: 3022 603e dfa5 f73e a535 a1be d30e c43e
00000040: 26e8 9bbe f0b7 b8be 26b3 6bbe 932d cdbe
00000050: 6af4 a13e 69ec ef3d adb6 f3bd f516 30be
00000060: 7050 b53e 26ec b0be ecc6 833d e956 a0be
00000070: fc70 9d3e d3a3 be3d d431 8abd 3f81 ee3e
00000080: 94c0 0f3e 33ca 24be d365 a93e 0375 39bd
00000090: 3417 4abe d80a 9b3e c944 d93e 0735 5dbe
000000a0: 6de7 94be 1df2 9ebd 6f2d 90bb 81df d53d
000000b0: 0c88 943d df09 b2bc 0a95 77be d9f1 f3ba
000000c0: bbab 9dbd d516 14be d4b1 d93e 9bd4 1b3e
000000d0: c7a9 763e 9cf7 d63d 6acc 0a3e 3447 983e
000000e0: a468 a83e 9ad5 8fbd 3d39 04be d353 babd
000000f0: 998b bc3e 9621 04bf 0152 96be f9ae e6be
00000100: 3e39 efbd 5c67 c7be e9bd 943d 85ee 0b3e
00000110: 958a f3bb a0d5 dc3e 2adc b83e 70be 6a3d
00000120: b6a5 083f 33a5 033e 9968 323d 2547 79bd
00000130: ae7c c8be dfd9 8d3e b5b9 f7b9 3151 db3e
00000140: 4c18 d6be 496e fcbd 379f cc3e 9b3c a3be
00000150: 37c6 a53e 628f 92be 26de c8be b95c 91be
00000160: 8ad6 963e bb13 c5be 859f d63d 78d9 9f3e
00000170: 3811 6f3e 77c8 05be 2525 4e3e 03f8 bc3e
00000180: 57d9 cabe 8993 36bd 9861 823e bea1 bbbe
00000190: 875f f9bd 0c93 c33e 9886 86be 4db9 a0be
000001a0: ec34 123b e487 ebbd 17e7 bcbd 42c0 4e3e
000001b0: 0d9d a4bd a6f1 8d3e e0cf 0ebe 1c77 e53d
000001c0: 62c3 58be dbeb 5dbd fa9a 72be 0387 b6be
000001d0: c411 6abe 34bf 64be 23f6 de3e af33 8a3e
000001e0: b309 b73e e379 293e 43ca ee3e 2bed b63e
000001f0: b6ba 99be b1c8 ddbd 0660 16be e0f5 4b3e

VAE_Encoder.layers.1.linear1.weight f4 [4, 128]
0.012764384 0.04712477 0.084531024 -0.0064552766 0.02667274 -0.15619586 -0.0049120686 0.06772253
0.01907862 0.05158735 -0.035997886 0.0029262966 -0.07171706 -0.0885465 -0.042797945 -0.13593863
-0.007591859 -0.07040992 0.038125027 -0.014860209 -0.07920441 0.078788586 -0.13325885 -0.08293735
-0.005100653 -0.0044054203 -0.00011032043 -0.1299787 -0.014520765 0.1035041 0.09872347 -0.106104285
0.039906863 -0.023870371 -0.0074313018 0.06720165 -0.21808119 0.02791732 0.0012823511 0.043500964
-0.0105821155 0.00854662 0.027530849 0.043054495 0.061732672 -0.054577086 0.11038996 0.088769816
0.022262927 0.08435995 -0.0014209115 -0.027638154 0.016290195 0.0421324 -0.019761225 -0.08901125
0.0047010407 0.07899666 -0.089097634 0.02085448 -0.08208617 0.06740175 -0.004451413 -0.099942036
0.057502057 -0.044932034 -0.046710763 0.0059201 -0.129453 -0.06839287 -0.11723305 0.025384478
0.09737564 0.006667139 -0.088569656 0.062092185 -0.020070244 -0.031498473 0.12404838 -0.011886522
-0.0010180487 0.07150045 0.021395335 0.059362285 0.057317965 0.08527138 0.01709929 0.07645258
-0.08933517 -0.0021028968 -0.11413625 0.010729985 -0.14283857 0.018484559 0.032208506 0.026176585
0.011061364 0.17079574 0.113672085 -0.031216124 0.06324198 -0.09553512 -0.040127378 0.068592496
-0.001775238 -0.026268518 0.14080353 0.04751568 -0.066439286 0.113927424 -0.08361885 -0.01746388
0.022331197 -0.16652983 -0.003602114 -0.035025116 0.045797594 -0.08812672 -0.16048418 0.056512244
-0.013246227 -0.12907939 -0.13525803 0.037035313 0.07319715 -0.0038119943 0.130788 0.051893372
0.06886684 0.076911524 0.06165533 -0.03258804 0.079058126 0.10927931 0.062468667 0.12141802
-0.038277753 -0.053569786 0.072687104 -0.013640568 0.05644503 -0.10243889 0.031070327 -0.0130533045
-0.02927073 0.04483658 0.10959821 -0.0050721196 -0.07594305 -0.07762038 0.09183148 0.051542975
-0.022727491 -0.034648575 -0.07200666 0.27471218 0.014900573 -0.051912505 -0.017581802 -0.030544039
-0.029142657 -0.01531859 -0.05023028 0.06343833 0.1548981 -0.08767361 -0.035147127 -0.017311048
0.21021225 0.021637347 0.27541006 0.012249855 -0.0528469 0.010312201 -0.015131699 -0.051477253
-0.01878969 0.015473123 0.070598155 0.039523304 -0.08864393 -0.061006203 0.08121954 -0.022203205
-0.0687509 -0.06990545 -0.0063360254 0.06172592 -0.0568521 -0.066174716 -0.042984825 -0.10898395
0.037565235 0.030554712 0.018936038 -0.042275045 -0.07963761 0.016569782 0.036552556 0.08253713
0.060901463 0.05267978 0.07088629 0.037820913 0.10737553 0.06454376 -0.03304793 -0.08766447
0.20493843 0.0170487 0.033626843 -0.012868879 -0.09048432 -0.011135092 0.031790696 -0.081059694
-0.07435229 0.10041092 0.027062587 -0.034331013 0.040928602 -0.02191304 0.05982056 0.019196354
-0.017451786 -0.108536646 -0.07124596 -0.009770671 -0.10396312 -0.0222319 -0.115757205 -0.04407239
0.087908074 -0.057053432 0.009953845 0.022880917 0.1850079 0.07440774 -0.05920228 -0.027495509
-0.022002062 -0.04560512 0.019728133 -0.045714833 -0.08344963 0.02237952 0.032701515 0.0063291173
-0.12551795 0.032238834 -0.05130497 -0.012705376 0.01913625 -0.007816449 -0.094756626 -0.049788002
00000000: b521 513c e705 413d 9a1e ad3d c986 d3bb
00000010: ca80 da3c cff1 1fbe 6bf5 a0bb 1cb2 8a3d
00000020: c44a 9c3c 424d 533d 8572 13bd 1cc7 3f3b
00000030: 65e0 92bd de57 b5bd e64c 2fbd 7f33 0bbe
00000040: 21c5 f8bb 1333 90bd fd28 1c3d 3c78 73bc
00000050: ec35 a2bd e95b a13d 0275 08be 0fdb a9bd
00000060: 6123 a7bb 585b 90bb d45b e7b8 2319 05be
00000070: 81e8 6dbc f5f9 d33d 882f ca3d 344d d9bd
00000080: 6175 233d cc8b c3bc 4782 f3bb 05a1 893d
00000090: ad50 5fbe ddb2 e43c 9014 a83a 112e 323d
000000a0: 9c60 2dbc 1f07 0c3c 6088 e13c e959 303d
000000b0: 66db 7c3d 398c 5fbd 2214 e23d f3cc b53d
000000c0: be60 b63c e9c4 ac3d e13d baba 6969 e2bc
000000d0: 0473 853c 0693 2c3d 4be2 a1bc 884b b6bd
000000e0: 300b 9a3b 00c9 a13d d278 b6bd 04d7 aa3c
000000f0: cb1c a8bd ee09 8a3d 29dd 91bb 69ae ccbd
00000100: 4787 6b3d a70a 38bd c953 3fbd 66fd c13b
00000110: 548f 04be 9011 8cbd e217 f0bd 1cf3 cf3c
00000120: e16c c73d 0478 da3b 0264 b5bd 6054 7e3d
00000130: 5a6a a4bc 8b04 01bd 140d fe3d b0bf 42bc
00000140: 0c70 85ba d46e 923d 4545 af3c de25 733d
00000150: 3ec6 6a3d c3a2 ae3d cf13 8c3c 2c93 9c3d
00000160: 5cf5 b6bd c1d0 09bb 44c0 e9bd d2cc 2f3c
00000170: 4644 12be ee6c 973c 11ed 033d 4770 d63c
00000180: b93a 353c 14e5 2e3e e9cc e83d f5b8 ffbc
00000190: 0385 813d eba7 c3bd 9b5c 24bd 397a 8c3d
000001a0: 1aaf e8ba 1331 d7bc cd2e 103e cd9f 423d
000001b0: 5211 88bd c852 e93d 5c40 abbd 6910 8fbc
000001c0: eaef b63c cc86 2abe 7211 6cbb 7f76 0fbd
000001d0: 4296 3b3d c87b b4bd f755 24be 6279 673d
000001e0: b406 59bc 632d 04be 1581 0abe 57b2 173d
000001f0: 63e8 953d a7d2 79bb 4aed 053e 258e 543d
00000200: 0f0a 8d3d ca83 9d3d 4d8a 7c3d 097b 05bd
00000210: 3ae9 a13d d5cd df3d 25df 7f3d 03aa f83d
00000220: 22c9 1cbd fe6b 5bbd fadc 943d b07c 5fbc
00000230: e732 673d 7bcb d1bd 3387 fe3c 87dd 55bc
00000240: 2cc9 efbc 90a6 373d 0775 e03d 0634 a6bb
00000250: 0888 9bbd 6ff7 9ebd 2512 bc3d ba1e 533d
00000260: 012f babc aaeb 0dbd 3a78 93bd 13a7 8c3e
00000270: 8821 743c 35a2 54bd b607 90bc 7e37 fabc
00000280: 95bc eebc d3fa 7abc 44be 4dbd f5eb 813d
00000290: 9c9d 1e3e 398e b3bd 6ff6 0fbd e6cf 8dbc
000002a0: e141 573e ce40 b13c 8c02 8d3e 9eb3 483c
000002b0: fe75 58bd 82f4 283c f2ea 77bc d0d9 52bd
000002c0: d6ec 99bc fb82 7d3c c495 903d 30e3 213d
000002d0: f38a b5bd a4e1 79bd 6e56 a63d 7fe3 b5bc
000002e0: 46cd 8cbd 972a 8fbd 6f9e cfbb 51d4 7c3d
000002f0: bfdd 68bd 9c86 87bd db10 30bd fa32 dfbd
00000300: 01de 193d e04d fa3c c01f 9b3c 9928 2dbd
00000310: 0b19 a3bd 5abd 873c 22b8 153d 3a09 a93d
00000320: d073 793d c1c6 573d d52c 913d 1aea 1a3d
00000330: b4e7 db3d 852f 843d 445d 07bd 6e89 b3bd
00000340: 61db 513e b7a9 8b3c 4dbc 093d fed7 52bc
00000350: d84f b9bd f66f 36bc f636 023d a002 a6bd
00000360: 0346 98bd 3ea4 cd3d 5cb2 dd3c ad9e 0cbd
00000370: c0a4 273d fa82 b3bc 6706 753d ac41 9d3c
00000380: 0cf7 8ebc 7648 debd 67e9 91bd 2a15 20bc
00000390: 9eea d4bd ac1f b6bc 1d12 edbd 4085 34bd
000003a0: 2609 b43d dcb0 69bd 7415 233c c370 bb3c
000003b0: b672 3d3e 1663 983d 177e 72bd 433e e1bc
000003c0: ab3d b4bc 6fcc 3abd e59c a13c 7a3f 3bbd
000003d0: a4e7 aabd 4155 b73c 06f2 053d 7c64 cf3b
000003e0: c787 00be de0c 043d 2925 52bd 362a 50bc
000003f0: a0c3 9c3c 9010 00bc c30f c2bd 81ee 4bbd

VAE_Encoder.layers.1.linear1.bias f4 [4]
-0.10623273 -0.035150167 -0.05333208 0.033932894
00000000: 8c90 d9bd 9ff9 0fbd bd72 5abd 38fd 0a3d

VAE_Encoder.layers.1.norm1.weight f4 [4]
1.0621525 1.0681316 1.0005602 1.0878365
00000000: 9df4 873f 89b8 883f 5b12 803f 3a3e 8b3f

VAE_Encoder.layers.1.norm1.bias f4 [4]
0.06348449 -0.033354785 0.0153513905 -0.021866718
00000000: 2804 823d 079f 08bd 6684 7b3c d521 b3bc

VAE_Encoder.layers.1.norm0.weight f4 [4]
1.0213338 0.9095786 0.91657025 0.8394687
00000000: 11bb 823f 25da 683f 59a4 6a3f 6ce7 563f

VAE_Encoder.layers.1.norm0.bias f4 [4]
0.003419549 -0.02585923 0.02722163 -7.734807e-06
00000000: 831a 603b bcd6 d3bc e5ff de3c bec4 01b7

VAE_Encoder.last_normalization.weight f4 [4]
1.0 1.0 1.0 1.0
00000000: 0000 803f 0000 803f 0000 803f 0000 803f

VAE_Encoder.last_normalization.bias f4 [4]
0.0 0.0 0.0 0.0
00000000: 0000 0000 0000 0000 0000 0000 0000 0000

VAE_Encoder.head.weight f4 [4, 4]
0.036779165 0.31625986 0.28882688 0.34994173 -0.036558986 -0.123590946 -0.0008571744 -0.0760175
-0.33896202 -0.46554732 -0.30374277 0.0421775 0.010740578 -0.23558807 0.37019515 -0.37702602
00000000: c0a5 163d d0ec a13e 1ee1 933e 902b b33e
00000010: e0be 15bd 401d fdbd 00b4 60ba 10af 9bbd
00000020: 6e8c adbe 385c eebe 2c84 9bbe 50c2 2c3d
00000030: 40f9 2f3c 003e 71be 388a bd3e 8e09 c1be

VAE_Encoder.head.bias f4 [4]
0.1631822 0.032354116 -0.3961658 -0.33479118
00000000: 3c19 273e c085 043d 3ed6 cabe c069 abbe
