restsyn/tabsyn/vae/ckpt/fintech_cond/model.pt (torch, 76694 bytes, 132 tensors)

VAE.Tokenizer.weight f4 [11, 4]
0	0x3db0b0d6	0.08627479
1	0xbea561cf	-0.32301185
2	0xbd9ec71b	-0.0775282
3	0x3ee1c161	0.4409285
4	0x3cc5edcd	0.024161244
5	0x3dfe5b25	0.12419728
6	0xbcb742a6	-0.022370648
7	0xbd097a76	-0.033564053
8	0xbdb645f2	-0.0890006
9	0x3e83a39a	0.25710756
10	0x3e984905	0.2974321
11	0x3e26638c	0.16248912
12	0xbedeefdb	-0.4354237
13	0x3db30962	0.08742024
14	0xbc13db81	-0.009024502
15	0x3ea8a0a8	0.3293507
16	0x3e110f74	0.14166051
17	0x3e3b7eab	0.18310039
18	0xbe92e85e	-0.28692907
19	0xbd3f9b49	-0.04677895
20	0x3ed12d45	0.4085485
21	0x3ea61509	0.32437924
22	0xbbcd5965	-0.00626676
23	0xbe3c9286	-0.1841527
24	0x3eb1593c	0.34638393
25	0xbe40559b	-0.18782656
26	0x3e0d5764	0.13802868
27	0xbeb2c1cc	-0.3491348
28	0x3da7d41b	0.08194753
29	0x3e9d18d8	0.30683017
30	0x3e03b8f0	0.12863517
31	0x3de9d216	0.11417024
32	0xbea374b1	-0.31924966
33	0x3eb96123	0.36206922
34	0x3cac61e5	0.021042774
35	0x3e39e12a	0.181523
36	0x3de78271	0.113041766
37	0xbdd6ba8f	-0.10484802
38	0x3e332308	0.17493832
39	0x3e14aad6	0.14518294
40	0xbd2aedf8	-0.04173085
41	0x3ec75d4e	0.38938373
42	0x3e4c58f7	0.19955812
43	0x3d04f7ed	0.032463003

VAE.Tokenizer.bias f4 [29, 4]
0	0x3eb6bc1a	0.35690385
1	0xbe8d85bc	-0.27641094
2	0xbe4ad368	-0.19807208
3	0xbe312c29	-0.17302002
4	0x3cf78e39	0.030219184
5	0xbf4313e2	-0.76202214
6	0x3df8b9bf	0.12144803
7	0x3cd2c06a	0.025726516
8	0xbe7acf27	-0.24493085
9	0xbf1ccaa2	-0.61246693
10	0x3eb06b58	0.34456897
11	0x3ec87d68	0.39158177
12	0xbdaac795	-0.083388485
13	0xbe20b352	-0.15693405
14	0xbea096fc	-0.31365192
15	0xbec40062	-0.38281542
16	0x3e195b78	0.14976299
17	0x3e9ff371	0.3124042
18	0x3ef9b185	0.4876825
19	0xbf127739	-0.5721317
20	0x3e970dec	0.2950281
21	0x3cca48bb	0.024692884
22	0xbe3f2c53	-0.18669252
23	0xbe93e826	-0.28888053
24	0x3de8d720	0.11369157
25	0x3e5d8296	0.21631846
26	0xbeae083c	-0.33990657
27	0xbde04fdc	-0.10952732
28	0x3dc67017	0.09689348
29	0x3e469103	0.19391255
30	0xbf4d6198	-0.8022704
31	0xbe440952	-0.1914418
32	0x3dff9dc0	0.1248126
33	0x3f0b1ad2	0.543378
34	0x3f27c84c	0.65540004
35	0xbe4c1d36	-0.19933018
36	0x3e5f8679	0.21828641
37	0x3e94fc8e	0.29098934
38	0xbebbc76d	-0.36675587
39	0xbdc4c9aa	-0.09608777
40	0x3e0fe2a4	0.140513
41	0x3f135ab3	0.5756027
42	0xbea59a4c	-0.32344282
43	0xbe61fc6d	-0.22068949
44	0xbeaab19a	-0.33338624
45	0x3e228c44	0.1587382
46	0x3eb9981f	0.36248872
47	0x3e9ad0c2	0.30237395
48	0x3df9c173	0.12195101
49	0xbdf888c7	-0.12135463
50	0xbd82fcfb	-0.063959084
51	0x3ee72ed3	0.45152912
52	0xbe06f56f	-0.13179563
53	0xbe23c682	-0.15993693
54	0x3dd44158	0.10364026
55	0xbe283e5c	-0.16430038
56	0xbeddd9c7	-0.43330213
57	0xbdb0025e	-0.085942015
58	0x3e4f0e57	0.20220314
59	0xbeaf0831	-0.34185937
60	0xbf0646fd	-0.5245207
61	0x3e3db1cc	0.18524855
62	0xbba60062	-0.0050659636
63	0x3ae84c92	0.0017723015
64	0xbe7bc3d9	-0.24586429
65	0x3c9e656c	0.019335471
66	0xbe88f94a	-0.26752692
67	0xbe2b6a07	-0.16739665
68	0x3d8770e1	0.06613327
69	0x3e67c67a	0.22634307
70	0x3ecce929	0.40021637
71	0xbddb3627	-0.10703688
72	0xbe092810	-0.13394189
73	0xbce1ae8f	-0.027549056
74	0xbc5d71d7	-0.013515911
75	0x3ea76101	0.32691196
76	0x3d2f3162	0.042771704
77	0x3e36d3bc	0.17854208
78	0xbf21c3ca	-0.63189375
79	0x3f037915	0.5135663
80	0x3e050466	0.12989959
81	0xbe898c14	-0.26864684
82	0xbe914b8b	-0.28377947
83	0x3f029834	0.51013494
84	0xbe9f9bd0	-0.31173563
85	0x3daeebc3	0.08541062
86	0x3ebd7c54	0.37008917
87	0xbe80095f	-0.2500715
88	0xbe3fd25b	-0.18732588
89	0xbd1817c0	-0.037132025
90	0x3ea9c86c	0.33160722
91	0xbe939630	-0.2882552
92	0x3eb0ae6d	0.34508076
93	0x3e959a89	0.29219463
94	0x3eba54a2	0.36392695
95	0xbe888dd9	-0.2667072
96	0x3e598d1a	0.21245232
97	0x3d81d7e9	0.0634001
98	0x3d868d5d	0.06569932
99	0xbe896b5c	-0.2683972
100	0xbe8a8d23	-0.27060804
101	0xbd04f6a7	-0.03246179
102	0x3ee46343	0.4460698
103	0xbeb6dbbe	-0.35714525
104	0x3e6771e3	0.22602038
105	0x3e454a55	0.19266637
106	0x3ebf56e3	0.37370977
107	0xbcd63cc0	-0.026152015
108	0xbe1b4980	-0.15164757
109	0x3e841a4e	0.2580132
110	0xbdd37586	-0.1032515
111	0x3e5427fa	0.20718375
112	0x3e5b48b7	0.21414457
113	0x3e2f67a9	0.17129387
114	0x3eaf446e	0.34231895
115	0x3ee79c2f	0.45236346

VAE.Tokenizer.category_embeddings.weight f4 [68, 4]
0	0xbe05258c	-0.13002604
1	0x3eb1fc54	0.34762824
2	0xbf0a4f55	-0.540273
3	0x3e810de1	0.252059
4	0xbf068ab4	-0.52555394
5	0xbf1c286a	-0.60999167
6	0x3d0bea0f	0.034158763
7	0x3f03b3ef	0.5144643
8	0xbe68eb91	-0.22746111
9	0xbef1127d	-0.47084418
10	0xbd89cf32	-0.067289725
11	0x3d897fb5	0.06713811
12	0x3d5d39a5	0.054010052
13	0xbdafb215	-0.08578888
14	0x3e93ab23	0.28841504
15	0x3d035f39	0.032073233
16	0x3e74590c	0.23862094
17	0x3f1536b6	0.5828661
18	0xbec3bdd9	-0.3823078
19	0xbd3d677f	-0.04624128
20	0x3ecd3b3c	0.40084255
21	0xbe3486a2	-0.17629483
22	0x3e723233	0.23651962
23	0xbed18b40	-0.40926552
24	0xbe112667	-0.14174806
25	0x3daa6aff	0.08321189
26	0xbe8c960e	-0.27458233
27	0x3eda950c	0.4269184
28	0xbe62cd16	-0.22148547
29	0xbf80e5e0	-1.0070152
30	0x3f88855f	1.0665702
31	0x3e0819c3	0.13291077
32	0x3ed943e5	0.42434612
33	0x3efdfe31	0.49607995
34	0xbece6121	-0.40308478
35	0x3cf23b30	0.029569238
36	0xbc660d1a	-0.01404121
37	0x3e341f2e	0.17590019
38	0x3d7d22d4	0.061800793
39	0xbe72b641	-0.23702337
40	0x3d179592	0.037007876
41	0x3f0603d0	0.5234957
42	0xbea837c0	-0.32855034
43	0xbcefad8d	-0.02925756
44	0xbf0fa55c	-0.56111693
45	0x3f9b9be8	1.2156954
46	0x3f12ac29	0.57293946
47	0xbe5866ba	-0.21132937
48	0x3f965e66	1.1747558
49	0xbf14800d	-0.5800789
50	0xbe202470	-0.156389
51	0x3e2f90f1	0.17145135
52	0x3faeaec8	1.3647089
53	0xbfdcd18e	-1.7251451
54	0x3facdd94	1.350512
55	0xbf02ef13	-0.5114605
56	0xbe18739e	-0.14887854
57	0x3dcf56b9	0.10123963
58	0xbf1aaf25	-0.604235
59	0x3d3fa83a	0.046791293
60	0x3e508634	0.20363694
61	0xbc4375ab	-0.01192991
62	0x3efe2545	0.4963781
63	0x3e91a1d4	0.28443778
64	0x3f7fdf7e	0.99950397
65	0xbf410371	-0.75395876
66	0x3f4665bd	0.7749899
67	0xbf98c294	-1.193438
68	0x3ef4b67a	0.4779547
69	0x3ec8f775	0.39251295
70	0x3d59bada	0.05315671
71	0x3e384a0c	0.17996997
72	0xbe338885	-0.17532547
73	0x3fcb4713	1.5881065
74	0xbf8bb5ec	-1.0914893
75	0xbf77ce14	-0.96798825
76	0x3e29eb15	0.16593583
77	0x3e3bf0dc	0.183536
78	0xbea60da9	-0.32432297
79	0xbe6c909a	-0.23102036
80	0x3fa316a8	1.2741289
81	0x3eb08cd1	0.34482434
82	0x3ec7b0ae	0.39001983
83	0xbe2de28b	-0.1698095
84	0x3ea2fb7a	0.31832486
85	0x3e9d4d70	0.30723143
86	0x3efa8c70	0.4893527
87	0xbf5d4b84	-0.8644335
88	0x3d2a9a7c	0.041651234
89	0x3e0b523d	0.1360559
90	0xbe0da591	-0.1383269
91	0x3da6c1a9	0.081424065
92	0x3e5fabfc	0.2184295
93	0x3dc99c93	0.09844317
94	0xbf0a4d08	-0.5402379
95	0x3da75ed9	0.08172388
96	0xbf0ae589	-0.5425649
97	0x3ef89362	0.48549944
98	0xbeb0e982	-0.34553152
99	0x3ec09469	0.37613228
100	0x3e7146d1	0.2356217
101	0x3f093402	0.5359498
102	0xbf0b55c2	-0.5442773
103	0xbf62ac52	-0.8854419
104	0x3f21b8cb	0.63172597
105	0xbdb87096	-0.09005849
106	0x3da2d1ae	0.079501495
107	0xbf3aed90	-0.7301874
108	0x3d7aee0e	0.061262183
109	0x3d3e2cb0	0.046429336
110	0xbe5c4178	-0.2150935
111	0x3e99d6f7	0.30046818
112	0xbe819540	-0.2530918
113	0xbed005cf	-0.40629432
114	0xbdeccd2a	-0.115625694
115	0x3d95a879	0.07307524
116	0xbdf01dc0	-0.11724424
117	0x3e8b1128	0.27161527
118	0xbea5725b	-0.3231381
119	0x3f01d967	0.50722355
120	0x3e861335	0.2618653
121	0xbe5a78a4	-0.21335083
122	0xbf2697a6	-0.6507515
123	0x3ec96462	0.39334399
124	0xbdbffe60	-0.0937469
125	0x3ef026f4	0.4690472
126	0xbf7e1837	-0.992557
127	0xbf272e9e	-0.6530551
128	0x3e76b768	0.24093401
129	0x3e6f6cef	0.23381399
130	0xbf764fab	-0.96215314
131	0x3f08b392	0.53399
132	0x3f55bd52	0.83492005
133	0x3f1eaab0	0.619792
134	0xbe98a2c4	-0.2981168
135	0xbea32c94	-0.31869948
136	0x3ecdc6ce	0.40190738
137	0x3d8b2972	0.067950144
138	0x3da76e72	0.08175363
139	0xbea91f2a	-0.3303159
140	0xbe28be3b	-0.16478817
141	0x3d8712ee	0.065954074
142	0xbe09606b	-0.13415687
143	0x3e12fae9	0.14353527
144	0xbdd2df3b	-0.10296484
145	0x3f0075ae	0.50179565
146	0xbddd8fe2	-0.10818459
147	0x3d96d354	0.073645264
148	0x3d1a597c	0.037682995
149	0xbf2ec07d	-0.68262464
150	0xbea397c6	-0.3195173
151	0x3c896b5a	0.016774822
152	0x3e8d271b	0.27568898
153	0xbe9743ea	-0.29544002
154	0x3d8df5fc	0.069316834
155	0x3df207a8	0.118178666
156	0xbe32c470	-0.17457747
157	0xbdc6c050	-0.097046494
158	0xbee2af72	-0.4427448
159	0x3ec81522	0.39078623
160	0xbe81e292	-0.25368172
161	0x3e185a62	0.14878228
162	0xbe84cd15	-0.25937715
163	0x3e2a3f26	0.16625652
164	0x3db87596	0.09006803
165	0x3f21465e	0.62997997
166	0xbf063a02	-0.5243226
167	0xbea5b0c7	-0.32361433
168	0xbe88e1bb	-0.2673472
169	0xbee4a30a	-0.4465564
170	0xbc324585	-0.010880833
171	0x3ece4215	0.40284792
172	0x3e302880	0.1720295
173	0xbe50b53c	-0.20381635
174	0x3d14a70c	0.03629212
175	0xbe5acb54	-0.21366626
176	0xbd614be7	-0.055004027
177	0xbeeb0827	-0.45904657
178	0xbe2dc392	-0.16969135
179	0xbeb7bcce	-0.35886234
180	0x3d778dbc	0.060437903
181	0x3e901ae2	0.2814551
182	0x3e27c081	0.16382028
183	0xbe2f2597	-0.17104183
184	0xbd9d583d	-0.07682846
185	0x3f27698c	0.65395427
186	0xbeed4850	-0.46344233
187	0xbe48d87a	-0.1961383
188	0xbe0b8b19	-0.1362728
189	0x3f1ef63e	0.62094486
190	0xbeea0c2d	-0.45712414
191	0xbf0e0f2b	-0.55491894
192	0xbe2ff049	-0.17181505
193	0x3f407fec	0.75195193
194	0xbd948609	-0.07252128
195	0x3eb7029a	0.35744172
196	0xbe9ba3bb	-0.30398354
197	0xbe27c374	-0.16383153
198	0x3c14fc74	0.009093393
199	0x3dbb8d0f	0.09157764
200	0xbe3cf3a6	-0.1845232
201	0x3e4167ec	0.188873
202	0xbde744a8	-0.11292392
203	0xbc855459	-0.016275572
204	0x3f30d45b	0.6907403
205	0xbf01d32b	-0.5071284
206	0x3ed35975	0.41279188
207	0x3d064af4	0.032786325
208	0xbdb651b0	-0.089022994
209	0xbddb7435	-0.10715524
210	0x3e580116	0.21094164
211	0x3efbd11d	0.49182978
212	0xbe7a0130	-0.24414515
213	0x3f1c5c80	0.61078644
214	0xbf3610cb	-0.71119374
215	0x3e57bb9b	0.2106766
216	0x3e3378a0	0.17526484
217	0xbea8a8bc	-0.32941234
218	0xbd4f2f01	-0.050581936
219	0xbe7d642f	-0.24745248
220	0xbf2a2b5f	-0.6647243
221	0x3e6320a5	0.22180422
222	0xbdbb4da3	-0.091456674
223	0x3eb6923a	0.35658437
224	0x3e9e7172	0.30945927
225	0x3ea52327	0.32253382
226	0xbd0ac44f	-0.03387862
227	0x3eaffea0	0.3437395
228	0xbf456b31	-0.77116686
229	0xbdd13bf1	-0.10216511
230	0xbe9078c0	-0.28217125
231	0x3f06ba5e	0.52628124
232	0x3da5ba17	0.080921344
233	0x3eb3677d	0.35039893
234	0x3df13caa	0.11779149
235	0x3e4eb0ef	0.20184682
236	0xbf04296d	-0.5162571
237	0xbee66d35	-0.45005193
238	0x3f67f0f9	0.9060207
239	0x3e1b427e	0.15162084
240	0xbe2aba86	-0.16672716
241	0xbd905d87	-0.07049089
242	0xbd60057d	-0.054692734
243	0x3eeb34b6	0.45938653
244	0x3ef1f79c	0.47259223
245	0x3efd07f1	0.4942012
246	0xbeae5009	-0.34045437
247	0xbe5c293b	-0.21500103
248	0xbe818e0d	-0.2530369
249	0xbdd7bec7	-0.10534435
250	0xbecb2e17	-0.396836
251	0xbe925b73	-0.28585395
252	0xbe59c183	-0.21265225
253	0xbe7fe67b	-0.24990265
254	0xbe16d356	-0.14729056
255	0x3d8f288f	0.06990158

VAE.encoder_mu.layers.0.attention.W_q.weight f4 [4, 4]
0	0xbe870a06	-0.26374835
1	0x3e6a1b9f	0.22862099
2	0xbe4a792b	-0.19772784
3	0x3d848142	0.064699665
4	0x3ea4fe0b	0.3222507
5	0xbd641996	-0.055688463
6	0xbf17eaf1	-0.5934287
7	0xbec849eb	-0.39118895
8	0xbe059178	-0.13043773
9	0x3f004375	0.5010293
10	0xbd914f4c	-0.07095203
11	0x3ece8565	0.40336147
12	0xbd0d09e0	-0.034433246
13	0x3effb1fa	0.49940473
14	0xbecaa917	-0.3958213
15	0x3e52a61a	0.20571175

VAE.encoder_mu.layers.0.attention.W_q.bias f4 [4]
0	0xbd2643d6	-0.040592037
1	0x3ccfe64f	0.025378374
2	0xbe5d82bd	-0.21631904
3	0xbcdf26b9	-0.027240144

VAE.encoder_mu.layers.0.attention.W_k.weight f4 [4, 4]
0	0x3d26502a	0.040603794
1	0xbec77ce7	-0.3896248
2	0xbebec859	-0.37262228
3	0xbe14c5ae	-0.14528534
4	0x3d683a2c	0.056696102
5	0x3f0f86ed	0.56065255
6	0x3dadd050	0.08486998
7	0x3ef48268	0.47755742
8	0xbec63c24	-0.3871776
9	0x3eef0938	0.4668672
10	0xbdda92ed	-0.10672555
11	0x3ef8cca4	0.48593628
12	0x3ce63890	0.028103143
13	0xbeb5fddb	-0.3554524
14	0x3dc91d02	0.09819986
15	0x3d1ef040	0.03880334

VAE.encoder_mu.layers.0.attention.W_k.bias f4 [4]
0	0xb79b9080	-1.8544728e-05
1	0x391af488	0.0001477768
2	0x37c74b6d	2.3757771e-05
3	0xb8c44efb	-9.3607196e-05

VAE.encoder_mu.layers.0.attention.W_v.weight f4 [4, 4]
0	0xbd8c78d2	-0.06858982
1	0xbdc12af8	-0.09432024
2	0xbd6efe6b	-0.0583481
3	0x3b277c1b	0.002555615
4	0xbd06805c	-0.032837257
5	0xbd96e5ec	-0.07368073
6	0xbca86282	-0.020554785
7	0xbd8003e6	-0.062507436
8	0xbd72c951	-0.05927402
9	0xbdaa6375	-0.08319751
10	0xbc426493	-0.011864799
11	0xbc8d59a5	-0.01725466
12	0xbc0b2e47	-0.00849492
13	0xbdce26c6	-0.10065989
14	0xbcf2cc73	-0.029638505
15	0x3d972096	0.07379262

VAE.encoder_mu.layers.0.attention.W_v.bias f4 [4]
0	0x3da19479	0.07889647
1	0xbd0fa908	-0.03507331
2	0xbd09c79c	-0.033637628
3	0xbce8b364	-0.028405853

VAE.encoder_mu.layers.0.linear0.weight f4 [128, 4]
0	0x3e9636b0	0.29338598
1	0xbeaa3f3f	-0.33251378
2	0x3e32ce63	0.17461543
3	0x3ecb00df	0.39649102
4	0xbe94b755	-0.2904612
5	0x3f03d6e7	0.5149979
6	0xbe874561	-0.2642012
7	0xbd8c0001	-0.06835938
8	0x3eb06729	0.34453705
9	0xbf071081	-0.5275956
10	0xbe26ba22	-0.16281942
11	0xbe75ab71	-0.23991181
12	0xbd61eb6f	-0.055156168
13	0x3ddbecc0	0.10738516
14	0x3ded16b2	0.115765944
15	0xbd4f4630	-0.050604045
16	0xbf263684	-0.64926934
17	0xbe4e954e	-0.20174143
18	0xbe9dd78a	-0.30828506
19	0xbec7e556	-0.39042157
20	0xbe22374f	-0.15841411
21	0x3dca3df8	0.09875101
22	0xbe836000	-0.2565918
23	0xbf0d515a	-0.5520226
24	0x3eadfc35	0.3398148
25	0x3f116a9b	0.5680329
26	0x3eca2863	0.39483938
27	0x3eec2c08	0.46127343
28	0xbdc39c52	-0.095513
29	0x3eea09d8	0.45710635
30	0xbc40aad0	-0.011759475
31	0xbd2198a5	-0.039452214
32	0x3d813fb0	0.063109756
33	0xbed08e29	-0.4073346
34	0xbcff5ec4	-0.031173117
35	0xbed428bd	-0.4143733
36	0xbe1ab87d	-0.15109439
37	0x3eb35868	0.35028386
38	0xbe850087	-0.25976965
39	0xbebd3141	-0.3695164
40	0xbeed2d16	-0.4632346
41	0x3ea0bfef	0.31396434
42	0x3d63c9a0	0.055612206
43	0x3ec75100	0.38928986
44	0x3b90a248	0.0044138767
45	0x3ee9758a	0.45597488
46	0xbecca615	-0.3997046
47	0xbdb19646	-0.086712405
48	0xbe898cdc	-0.2686528
49	0x3e58205c	0.21106094
50	0x3ee06106	0.43824023
51	0xbf0afb6b	-0.54289883
52	0xbede77f7	-0.434509
53	0xbe43c3bd	-0.19117637
54	0x3dc68f02	0.09695245
55	0x3de05ee8	0.10955602
56	0x3ee54943	0.44782457
57	0xbe365f40	-0.17809772
58	0xbe7afe8a	-0.24511161
59	0x3efff788	0.4999354
60	0x399f036b	0.0003032939
61	0x3e9f00ed	0.31055394
62	0x3b61a85e	0.003443263
63	0x3dd8ce6b	0.10586246
64	0xbeed610b	-0.463631
65	0x3eceea1a	0.4041298
66	0xbe9a470d	-0.30132332
67	0x3de82ea4	0.11337021
68	0x3d2e97e3	0.04262532
69	0x3da02a1c	0.07820532
70	0xbf073ba1	-0.5282536
71	0x3c9f9760	0.01948136
72	0xbf008c0a	-0.5021368
73	0xbead46ff	-0.33843228
74	0x3df10e2d	0.11770282
75	0xbe5fa0b9	-0.21838655
76	0xbdff1e9b	-0.124570094
77	0xbeaf7c3b	-0.34274468
78	0xbed46f2e	-0.41491073
79	0x3e28382d	0.1642768
80	0xbe825ff1	-0.25463822
81	0xbe12733f	-0.14301775
82	0xbdbc3e63	-0.09191587
83	0xbe6873ef	-0.22700475
84	0x3c20bb38	0.009810261
85	0x3ee5850b	0.44828066
86	0x3eb370f8	0.35047126
87	0xbec9b37f	-0.39394757
88	0xbe8c979f	-0.27459428
89	0x3cfb845a	0.030702759
90	0xbeda3103	-0.42615518
91	0xbf0fa507	-0.56111187
92	0xbe6a5612	-0.22884396
93	0xbebdedd3	-0.37095508
94	0xbdd39412	-0.103309765
95	0x3f014c0a	0.5050665
96	0x3d986a23	0.07442119
97	0x3edbc958	0.4292705
98	0x3ef1c090	0.47217226
99	0x3e8f01e0	0.27931118
100	0x3eb047c3	0.3442975
101	0x3d3ad946	0.045617364
102	0x3a62e430	0.00086552184
103	0xbec8265f	-0.39091775
104	0x3ea576d8	0.32317233
105	0xbe67a75f	-0.22622441
106	0xbf0a3883	-0.5399248
107	0x3eb9ec6e	0.36313194
108	0x3e9659cf	0.29365394
109	0x3ef95cf3	0.48703727
110	0xbde3ac3b	-0.11116835
111	0xbed0faa6	-0.4081623
112	0xbe80753d	-0.25089446
113	0x3ddff820	0.10935998
114	0x3e8b4c7c	0.2720679
115	0xbbe05d50	-0.006847061
116	0x3edee721	0.43535712
117	0xbec31531	-0.38102105
118	0xbeb727f4	-0.3577267
119	0xbee75696	-0.45183247
120	0x3eaaf68c	0.33391225
121	0xbcf7f0a5	-0.030266115
122	0x3d1c68e8	0.038185984
123	0x3e85a8f4	0.26105464
124	0x3cf94366	0.030427646
125	0xbe47d4ac	-0.19514722
126	0xbeab8c2c	-0.3350538
127	0xbed1245e	-0.40848058
128	0x3dd68a62	0.10475613
129	0x3e85a38b	0.26101336
130	0xbefb712f	-0.4910979
131	0x3d83ed98	0.06441802
132	0xbcd92a30	-0.026509374
133	0x3efd031d	0.49416438
134	0x3e2c48ce	0.16824648
135	0xbeffd2cf	-0.49965522
136	0xbeec5ac2	-0.46162993
137	0x3ebf96f4	0.37419856
138	0x3ed0dd52	0.40793854
139	0x3d8e6011	0.06951917
140	0xbe6e20d2	-0.23254707
141	0xbece698f	-0.4031491
142	0xbe87e4e9	-0.26541832
143	0x3ec2d570	0.38053465
144	0x3e29965a	0.16561261
145	0xbebb6e45	-0.36607566
146	0xbe638c8c	-0.22221583
147	0xbbbfb128	-0.005849976
148	0x3cedb0b1	0.029014917
149	0xbe03ac81	-0.12858774
150	0x3eaf5d63	0.34250936
151	0xbd965867	-0.0734108
152	0x3e77e725	0.24209268
153	0x3e0a8815	0.13528474
154	0xbd94b47d	-0.07260988
155	0x3e9e1382	0.30874258
156	0x3e776686	0.24160203
157	0xbe65c07a	-0.22436705
158	0xbdd9d240	-0.10635805
159	0xbd532510	-0.051549017
160	0x3ea0906a	0.3136018
161	0x3e1aa1ad	0.15100737
162	0xbcd17649	-0.025569098
163	0x3eed2e40	0.46324348
164	0x3dd4d6d8	0.10392541
165	0xbdfef24e	-0.1244856
166	0xbe5774e9	-0.21040691
167	0xbebe9632	-0.37223965
168	0xbe98bf1c	-0.29833305
169	0x3dde4c86	0.108544394
170	0xbec1ff86	-0.3789026
171	0x3e245808	0.16049206
172	0xbe0efaed	-0.13962908
173	0x3ee07ea7	0.43846628
174	0xbded27f6	-0.115798876
175	0xbc947738	-0.018123254
176	0xbe8a570c	-0.27019536
177	0x3e370662	0.17873529
178	0xbee6f164	-0.4510604
179	0x3edbca98	0.42928004
180	0x3dd3eb42	0.10347606
181	0xbc8fbe88	-0.017546907
182	0x3c0ca95e	0.008585302
183	0x3f0bdcf5	0.5463403
184	0xbee15bd2	-0.44015366
185	0xbe8fbbdf	-0.28073022
186	0xbe800508	-0.2500384
187	0x3e31dc32	0.17369154
188	0x3e8b2f6c	0.27184618
189	0xbdabace9	-0.08382589
190	0x3eb5145f	0.35367104
191	0x3ea065cb	0.31327662
192	0xbd89fce6	-0.0673769
193	0x3eb69ec8	0.35668015
194	0xbeae2817	-0.3401496
195	0x3dcae947	0.09907775
196	0xbe51f81d	-0.20504804
197	0x3e47101b	0.19439737
198	0x3dcda5e6	0.10041408
199	0xbeed8229	-0.46388367
200	0xbdd00830	-0.10157812
201	0x3eded703	0.43523416
202	0x3ebec35b	0.3725842
203	0xbed3410f	-0.41260573
204	0x3e16c651	0.14724089
205	0xbb12398d	-0.0022312135
206	0xbedb57d3	-0.42840442
207	0xbec4e782	-0.38457876
208	0x3ec9b9dd	0.39399615
209	0xbe83ec73	-0.25766334
210	0xbe7e53db	-0.24836676
211	0x3e2fe1f4	0.17176038
212	0x3e4d3fc8	0.20043862
213	0xbee97e4e	-0.45604175
214	0x3eb38df8	0.3506925
215	0x3d80dd43	0.06292202
216	0x3c6a3c04	0.014296535
217	0xbe52d5f8	-0.20589435
218	0xbe802b61	-0.25033095
219	0xbea5925b	-0.32338223
220	0xbe5fc9fe	-0.21854398
221	0xbd0e1b43	-0.034693968
222	0x3e800422	0.25003153
223	0xbe56d86a	-0.20980993
224	0xbc5941b3	-0.013260293
225	0xbe1ab565	-0.15108259
226	0x3e2ab303	0.1666985
227	0xbed6ede2	-0.41978365
228	0x3e593931	0.21213223
229	0x3dad5aa7	0.08464556
230	0xbdb7bede	-0.08971952
231	0xbed3c07a	-0.41357785
232	0x3e0661e2	0.13123277
233	0x3e714e73	0.23565082
234	0x3eb8e021	0.36108497
235	0xbe4634a7	-0.19356023
236	0xbcab9185	-0.020943413
237	0xbedb294b	-0.42804942
238	0x3ec11780	0.37713242
239	0xbe5adb77	-0.21372782
240	0x3c822f7f	0.015891789
241	0xbe6db1b5	-0.23212321
242	0x3e0df5f3	0.13863353
243	0xbe1c989d	-0.15292592
244	0x3eb89c85	0.36056915
245	0xbea0bcfd	-0.31394187
246	0x3e830492	0.25589424
247	0xbe7b7f5c	-0.24560302
248	0x3ea37800	0.3192749
249	0x3e9ed694	0.31023085
250	0xbf01bc68	-0.5067811
251	0x3e670a33	0.22562484
252	0x3ddde066	0.10833816
253	0xbf427f21	-0.75975233
254	0xbde342bf	-0.11096715
255	0x3e13414d	0.14380379

VAE.encoder_mu.layers.0.linear0.bias f4 [128]
0	0xbe95f8f7	-0.29291508
1	0x3efd0099	0.49414518
2	0xbde030aa	-0.10946782
3	0x3efca6b8	0.49345946
4	0xbe8ba880	-0.27276993
5	0xbd83c094	-0.06433216
6	0x3e9f970d	0.3116993
7	0xbe84f433	-0.2596756
8	0xbd889c77	-0.06670468
9	0x3ec1f859	0.37884787
10	0x3d8852ef	0.06656443
11	0xbe5f534a	-0.21809116
12	0xbf01f551	-0.5076495
13	0xbec27f05	-0.37987533
14	0xbe8f6371	-0.28005555
15	0x3e76227a	0.2403659
16	0xbdce8dc9	-0.10085637
17	0xbea83574	-0.32853281
18	0xbe8ea2df	-0.27858636
19	0xbe6e2723	-0.23257117
20	0x3eddc561	0.4331465
21	0xbe706afd	-0.23478313
22	0xbdaa0249	-0.08301217
23	0xbede6c3b	-0.43441948
24	0xbe368e6a	-0.17827764
25	0x3edfdc44	0.43722737
26	0xbed1316e	-0.40858024
27	0x3daf9f73	0.085753344
28	0xbd96352c	-0.073343605
29	0x3eee4314	0.46535552
30	0x3e5434f2	0.20723322
31	0xbe45a9a6	-0.19302997
32	0xbedc7a1e	-0.43061918
33	0x3e94d8ff	0.29071805
34	0x3ea42521	0.32059577
35	0x3ebd1091	0.36926702
36	0x3e681844	0.22665507
37	0x3dc64ca1	0.096825846
38	0x3ec32490	0.38113832
39	0x3ead5f45	0.33861747
40	0x3e8b92b5	0.27260366
41	0xbd8e8a61	-0.069599874
42	0x3eb5c8a6	0.35504645
43	0xbe715adb	-0.23569815
44	0x3eb425e3	0.35185155
45	0xbe2311dc	-0.15924782
46	0x3eada4c7	0.33914778
47	0xbda9dc12	-0.08293928
48	0x3e174315	0.14771684
49	0x3e635314	0.2219966
50	0x3e9fb6d9	0.3119419
51	0x3d4771c2	0.048692472
52	0xbd683f29	-0.05670086
53	0x3e93acde	0.28842825
54	0x3db40b78	0.0879125
55	0x3cb0c471	0.021578046
56	0x3f0aaa19	0.541658
57	0xbe7256dd	-0.23665948
58	0x3d2cfb6e	0.04223197
59	0x3e4b064c	0.19826621
60	0xbea9b171	-0.3314319
61	0x3ef162f8	0.4714582
62	0xbe37309c	-0.17889637
63	0xbeaca6cf	-0.33721015
64	0x3d25d061	0.04048193
65	0xbeecc73c	-0.46245754
66	0x3e80056c	0.25004137
67	0xbf01a86d	-0.5064762
68	0xbd804703	-0.062635444
69	0xbeafd7b8	-0.34344268
70	0xbf0f0b21	-0.55876356
71	0x3e7abe15	0.24486573
72	0xbde0ed57	-0.10982769
73	0xbe0b8e6a	-0.13628545
74	0xbf0b64d5	-0.5445073
75	0x3e489db5	0.1959141
76	0xbeab1135	-0.33411565
77	0xbcb143e3	-0.021638816
78	0x3e8cc73d	0.27495757
79	0xbe01401a	-0.12622109
80	0x3e03b4d5	0.1286195
81	0xbf06edd8	-0.5270667
82	0xbe522bb3	-0.20524482
83	0x3d36f42f	0.044666465
84	0x3eb8da26	0.36103934
85	0xbe09eae3	-0.13468508
86	0x3ea0ef23	0.31432447
87	0xbe022754	-0.12710315
88	0xbc9ee32e	-0.019395437
89	0xbe095e50	-0.13414884
90	0x3e7531d2	0.23944786
91	0xbe4ac722	-0.19802526
92	0x3ede1eee	0.43382972
93	0x3ea94ef4	0.3306805
94	0x3d9d4af5	0.076803125
95	0xbebffc83	-0.3749734
96	0x3d028f5b	0.031874996
97	0x3ec088bc	0.3760432
98	0xbc97e84a	-0.018543381
99	0x3ea42fb3	0.32067642
100	0xbef1b944	-0.4721166
101	0xbda34354	-0.07971826
102	0xbd957329	-0.07297356
103	0x3dac2020	0.08404565
104	0x3ec50109	0.38477352
105	0x3e78cb2f	0.24296258
106	0x3dcf4e15	0.10122315
107	0x3dce2b2f	0.1006683
108	0xbd3a6cd7	-0.045513954
109	0xbdfae94d	-0.1225153
110	0x3ea795a8	0.32731366
111	0x3ef9bcc9	0.48776844
112	0x3cf3fa01	0.029782297
113	0x3eb53ec7	0.35399458
114	0xbc36e920	-0.01116398
115	0x3ed6da6e	0.41963524
116	0x3ef867d2	0.4851671
117	0x3ef27fe2	0.47363192
118	0x3e423f69	0.18969502
119	0xbe136061	-0.14392234
120	0x3e2e5d76	0.1702784
121	0xbdb82872	-0.08992089
122	0x3e327d4a	0.17430606
123	0x3eecd83b	0.4625872
124	0xbd8a45de	-0.06751607
125	0xbedb7473	-0.4286228
126	0xbdd7d653	-0.10538926
127	0xbe1f0fda	-0.1553339

VAE.encoder_mu.layers.0.linear1.weight f4 [4, 128]
0	0xbddd6665	-0.10810546
1	0x3dc4d786	0.0961142
2	0x3d103d89	0.035214934
3	0x3d1a1490	0.037617266
4	0xbb69ed82	-0.0035694544
5	0xbd3def29	-0.04637066
6	0xbd2147ad	-0.039374996
7	0x3c204c65	0.009783839
8	0x3ca3a5fe	0.019976612
9	0x3de7ff87	0.11328035
10	0xbcb9d210	-0.022683173
11	0x3df64f82	0.12026884
12	0x3ca175ef	0.019709555
13	0x3d2359a8	0.039880425
14	0x3d93d552	0.07218422
15	0x3d4fbc45	0.050716657
16	0x3da62427	0.08112364
17	0x3d9c88b0	0.076432586
18	0xbb9cc43d	-0.0047841356
19	0x3dcadc9d	0.0990536
20	0xbcb8d82d	-0.022564018
21	0x3e098f96	0.1343368
22	0xbd5897d5	-0.052879173
23	0x3d4b8c18	0.04969415
24	0xbd3cba8f	-0.046076354
25	0x3d35695b	0.044289928
26	0x3e0ed5b1	0.13948704
27	0x3cecfd39	0.02892934
28	0x3cd5ea48	0.02611269
29	0x3cb62a13	0.02223686
30	0xbcbeaa49	-0.023274558
31	0x3cabd14f	0.02097383
32	0x3b965423	0.0045876666
33	0x3dba6a99	0.09102363
34	0x3dfefc74	0.12450495
35	0xbd75cf3e	-0.060012095
36	0x3d47885a	0.04871402
37	0xbd8cad44	-0.06868985
38	0xbd60057b	-0.054692727
39	0x3cd84f57	0.02640502
40	0x3cc066c3	0.0234865
41	0xbdc83814	-0.09776321
42	0xbb2646e2	-0.002537184
43	0x3d7d407d	0.06182908
44	0x3da38e47	0.079861216
45	0x3d7bbd4c	0.061459824
46	0xbd94534e	-0.072424516
47	0xbc8df661	-0.017329397
48	0xbbc483ae	-0.0059971428
49	0x3e058eaa	0.13042703
50	0x3e2d04da	0.16896382
51	0x3d53e118	0.051728338
52	0xbdd5aef3	-0.104337595
53	0xbdb29a33	-0.087208174
54	0xbd9a8912	-0.07545675
55	0x3dc22ad0	0.09480822
56	0xbc46a103	-0.012123349
57	0xbcb04b16	-0.021520179
58	0x3cb5f767	0.022212697
59	0xbd02e286	-0.03195431
60	0x3d530448	0.051517755
61	0xbde2d6cd	-0.11076126
62	0x3d042bdc	0.03226839
63	0xbe7ba454	-0.24574405
64	0x3c802d05	0.015646467
65	0xbc12bd53	-0.008956271
66	0xbdbec968	-0.09315759
67	0xbda73f49	-0.081663676
68	0x3df9d524	0.121988565
69	0xbdb87316	-0.09006326
70	0x3d16db08	0.03682998
71	0xbd278831	-0.040901367
72	0x3d457509	0.048207317
73	0x3d7a8b7a	0.06116817
74	0xbdfc3efc	-0.12316701
75	0xbd0f733d	-0.03502201
76	0x3d9e60f2	0.077333346
77	0x3d2e96dc	0.04262434
78	0x3c98861e	0.01861864
79	0x3dcf2f39	0.10116429
80	0x3c4d6bb1	0.012537883
81	0x3b6be83e	0.0035996581
82	0x3dd2c81a	0.102920726
83	0x3c8ef8a9	0.017452555
84	0x3dcbe0dd	0.09954999
85	0x3e4f07e7	0.20217858
86	0x3d119cee	0.03555005
87	0xbdb33d4c	-0.08751926
88	0x3d5673f5	0.05235668
89	0xbb91ebc4	-0.0044531543
90	0xbc8cd49f	-0.01719123
91	0x3cd48e5a	0.025946785
92	0x3c398621	0.011323483
93	0xbc8e3b43	-0.017362243
94	0xbb829c04	-0.0039858837
95	0x3cc8351d	0.024439389
96	0x3e074ce2	0.13212922
97	0xbccf25e3	-0.02528662
98	0x3ca3986f	0.019970147
99	0xbd4268ac	-0.047463104
100	0xbe8d6db2	-0.27622753
101	0xbc232f8d	-0.009960067
102	0xbd228117	-0.03967389
103	0xbd2305ad	-0.039800335
104	0x3c91a014	0.017776527
105	0x3d83f48f	0.0644313
106	0x3d39eaf5	0.045390088
107	0x3de5a248	0.11212593
108	0x3dec2b35	0.115316786
109	0x3dda8485	0.10669807
110	0x3d576f31	0.052596275
111	0x3d7ca69b	0.061682325
112	0xbd29036a	-0.04126302
113	0x3d67b319	0.056567285
114	0x3dbc791a	0.09202786
115	0x3d30a714	0.043128088
116	0xbd44f1ff	-0.048082348
117	0x3d43be54	0.047788933
118	0xbc9ecf01	-0.019385817
119	0xbd12d6b3	-0.035849284
120	0x3a702dad	0.00091620797
121	0xbc493d68	-0.012282707
122	0x3de7bb70	0.11315048
123	0x3e2097bb	0.1568288
124	0xbb55c18b	-0.0032616581
125	0x3d4cfc89	0.050045524
126	0x3d73df1d	0.05953895
127	0xbda5cff5	-0.08096305
128	0x3bb43c98	0.0055003874
129	0x3d169341	0.036761526
130	0xbd253e92	-0.040342875
131	0x3da486b0	0.08033502
132	0x3ddc5a79	0.10759444
133	0x3db7416d	0.08948026
134	0x3d541312	0.051776
135	0xbc3cad03	-0.011515859
136	0x3d8c6180	0.06854534
137	0x3da586b1	0.08082331
138	0x3be65a92	0.00702984
139	0x3c0f4a07	0.008745677
140	0xbe179481	-0.14802743
141	0xbd9379a9	-0.07200939
142	0x3d5d503b	0.05403159
143	0x3d0ea38d	0.034823943
144	0x3d4c6459	0.049900386
145	0xbde7a0d7	-0.11309975
146	0x3dc9ad21	0.09847475
147	0x3e2239a7	0.15842305
148	0xbd3b7ca5	-0.045773167
149	0x3daba42a	0.08380921
150	0x3d9e15e5	0.0771902
151	0xbd586472	-0.052830167
152	0x3db3953f	0.08768701
153	0x3d5ab32a	0.05339352
154	0x3de50211	0.11182035
155	0xbd446691	-0.047949377
156	0x3e196673	0.14980488
157	0x3d4ecf0f	0.050490435
158	0xbd7c1a14	-0.061548308
159	0x3dd9947d	0.10624025
160	0xbe142b24	-0.14469582
161	0x3dc8516b	0.09781154
162	0xbdae4b6a	-0.08510478
163	0xbcb37261	-0.021905126
164	0x3d1462a1	0.036226872
165	0xbd7a7ef8	-0.061156243
166	0x3d6e061a	0.058111288
167	0x3d2c1937	0.042016234
168	0xbbd546bd	-0.006508677
169	0xbc9a051d	-0.018801266
170	0xbc8def51	-0.017326029
171	0xbc68a2b4	-0.014198948
172	0xbda5d8cd	-0.08097992
173	0x3d4439fb	0.047906857
174	0x3d617a67	0.055048373
175	0xbe31353d	-0.17305465
176	0x3d8c0920	0.06837678
177	0x3dcbe988	0.09956652
178	0x3d5c7f25	0.053832192
179	0x3d6477de	0.055778377
180	0x3daa4f3c	0.08315894
181	0x3d86ed63	0.06588247
182	0xbc1d8e37	-0.009616426
183	0xbd312652	-0.043249436
184	0xbd11c759	-0.035590503
185	0xbc21cf9e	-0.00987616
186	0x3e062909	0.13101591
187	0xbdee8623	-0.11646678
188	0xbd80dcac	-0.0629209
189	0x3c581f57	0.013191066
190	0xbd11c158	-0.035584778
191	0xbb4da5d8	-0.0031379368
192	0x3dbd9ca0	0.092583895
193	0xbd90ecff	-0.070764534
194	0xbdd5369e	-0.10410808
195	0x3dc06365	0.09393958
196	0xbd2aee88	-0.041731387
197	0xbdacc679	-0.08436293
198	0xbe04e5f9	-0.12978353
199	0xbd784dca	-0.06062106
200	0x3db2b3c7	0.08725696
201	0x3d8828dc	0.06648418
202	0x3d7aae14	0.06120117
203	0x3d5e6235	0.054292876
204	0x3d9c4c4a	0.076317385
205	0xbda424e3	-0.08014848
206	0xbd832e28	-0.06405288
207	0xbb36d1a4	-0.0027895952
208	0x3cb3b6b2	0.021937702
209	0xbe5d072b	-0.21584766
210	0x3cd50aa2	0.026006047
211	0x3daf0a58	0.08546895
212	0x3c75c32d	0.015000147
213	0x3dd01546	0.101603076
214	0x3d97ddb2	0.07415332
215	0x3d20358f	0.039113577
216	0x3d3fdca4	0.04684128
217	0xbcce853e	-0.02521002
218	0x3d4c346a	0.049854673
219	0xbdea13f6	-0.114295885
220	0xbd444a6f	-0.047922548
221	0xbcbdd702	-0.023173813
222	0xbd2f12d2	-0.042742558
223	0x3bf1c1ab	0.0073778233
224	0xbce98e74	-0.02851031
225	0xbd842d2b	-0.064539276
226	0xbaf199eb	-0.0018432712
227	0xbd96d652	-0.07365097
228	0x3e4caeaf	0.19988512
229	0x3df7925c	0.12088463
230	0x3d4fc4f7	0.05072495
231	0x3e05c346	0.13062772
232	0x3da8e020	0.082458735
233	0x3dbac668	0.09119874
234	0x3d4b1648	0.049581796
235	0xbd930d50	-0.071802735
236	0x3d816418	0.063179195
237	0xbdb5ee94	-0.08883396
238	0x3d49cd62	0.049268134
239	0xbd4c3854	-0.049858406
240	0x3d7ff756	0.062491737
241	0x3db6811c	0.089113444
242	0x3d080fc2	0.033218153
243	0x3d5b10c0	0.05348277
244	0x3d067e71	0.032835428
245	0xbd806f92	-0.0627128
246	0xbc4b004f	-0.01239021
247	0xbda844e9	-0.082162686
248	0xbcc748b8	-0.024326667
249	0xbe1f4759	-0.1555456
250	0xbd61a948	-0.05509308
251	0x3c830fe3	0.015998786
252	0x3da22d4b	0.07918795
253	0x3be94172	0.0071183974
254	0x3cce7196	0.025200646
255	0xbd88b30c	-0.066747755

VAE.encoder_mu.layers.0.linear1.bias f4 [4]
0	0xbcb89bc8	-0.02253522
1	0xbd359c26	-0.044338368
2	0xbc62e289	-0.0138479555
3	0xbe0d2ef6	-0.13787445

VAE.encoder_mu.layers.0.norm1.weight f4 [4]
0	0x3f7e7e59	0.9941154
1	0x3f869314	1.0513635
2	0x3f947cc7	1.1600579
3	0x3f859fd2	1.0439398

VAE.encoder_mu.layers.0.norm1.bias f4 [4]
0	0xbc13d244	-0.009022299
1	0x3dbf514a	0.093416765
2	0xbdc9e7f7	-0.09858697
3	0xbc62f41a	-0.013852144

VAE.encoder_mu.layers.1.attention.W_q.weight f4 [4, 4]
0	0x3f0cb9c3	0.5497095
1	0xbd00157f	-0.0312705
2	0xbf074c14	-0.5285046
3	0xbeae25a6	-0.34013098
4	0x3de76545	0.112986125
5	0xbe8e9e5e	-0.278552
6	0xbf06d540	-0.52669144
7	0x3ec10081	0.37695697
8	0xbda64f14	-0.08120552
9	0xbeb97a3f	-0.3622608
10	0x3e5a3e4a	0.21312824
11	0xbea8c5fd	-0.32963553
12	0x3db1a4f5	0.08674041
13	0xbe91b881	-0.28461078
14	0x3e301d07	0.17198573
15	0x3e4f3feb	0.20239227

VAE.encoder_mu.layers.1.attention.W_q.bias f4 [4]
0	0xbdd517fb	-0.104049645
1	0xbdb41f73	-0.08795061
2	0x3de644f4	0.112436205
3	0xbd932170	-0.07184112

VAE.encoder_mu.layers.1.attention.W_k.weight f4 [4, 4]
0	0x3d61696f	0.05503219
1	0x3e74158c	0.23836344
2	0xbc382383	-0.011238935
3	0xbe0fcf24	-0.14043862
4	0x3eaa5c6b	0.33273634
5	0x3e3ed455	0.18635686
6	0xbe6dee83	-0.23235516
7	0x3da04d9c	0.07827303
8	0xbe34eb69	-0.17667927
9	0xbec1c0c7	-0.3784239
10	0x3ebd41cc	0.36964262
11	0x3ea72b13	0.3265005
12	0x3eeb1f77	0.45922443
13	0x3ec0ae69	0.37633064
14	0x3eb1db78	0.34737754
15	0x3e79e047	0.24401961

VAE.encoder_mu.layers.1.attention.W_k.bias f4 [4]
0	0x38ce0336	9.8234435e-05
1	0x3943ba44	0.00018666039
2	0x3713d06a	8.810408e-06
3	0x3711ee75	8.698194e-06

VAE.encoder_mu.layers.1.attention.W_v.weight f4 [4, 4]
0	0x3ec56915	0.38556734
1	0xbe2219d4	-0.15830165
2	0x3d719383	0.05897857
3	0x3df10a39	0.11769528
4	0xbe681f5c	-0.22668213
5	0x3e9d47d1	0.30718854
6	0xbd074bb0	-0.033031166
7	0xbe2bf733	-0.16793518
8	0xbee46fbb	-0.44616494
9	0x3ee90e5e	0.45518774
10	0xbe0ad6f5	-0.13558562
11	0xbe8603c7	-0.26174757
12	0x3f050b92	0.5197078
13	0xbe745824	-0.23861748
14	0x3de878b1	0.11351145
15	0x3e57b186	0.21063814

VAE.encoder_mu.layers.1.attention.W_v.bias f4 [4]
0	0xbcdafe1b	-0.026732495
1	0x3b34b792	0.0027575237
2	0xbd383a8b	-0.044977706
3	0x3c45c5db	0.012071098

VAE.encoder_mu.layers.1.linear0.weight f4 [128, 4]
0	0xbe96c15c	-0.29444396
1	0x3f10f260	0.56619835
2	0xbe4bc707	-0.19900142
3	0xbd972206	-0.07379536
4	0xbe9f4bc8	-0.31112504
5	0x3e8edd30	0.27903128
6	0xbee05ce3	-0.43820867
7	0xbf0655c7	-0.52474636
8	0x3e46d9c4	0.19419008
9	0x3eb68c22	0.35653788
10	0xbea492f7	-0.32143375
11	0x3e506f83	0.20355038
12	0x3eaae52c	0.3337797
13	0xbeb6164e	-0.35563892
14	0xbef4dd00	-0.4782486
15	0xbe9ced37	-0.3064973
16	0x3e99cf9c	0.30041206
17	0x3e8411bd	0.25794783
18	0xbec6bf02	-0.38817602
19	0x3b3deb29	0.0028979278
20	0x3b91e5d0	0.0044524446
21	0x3db4193f	0.08793878
22	0xbe9fdec5	-0.31224647
23	0xbed791a6	-0.42103308
24	0x3ed30696	0.41215962
25	0x3ef00f6a	0.4688676
26	0xbdddeafd	-0.10835836
27	0x3eb24aee	0.34822792
28	0xbe8801f4	-0.2656399
29	0xbf0890c5	-0.533459
30	0xbe7fea7d	-0.24991794
31	0x3ddba188	0.10724169
32	0xbee48b5a	-0.44637567
33	0x3e1f41db	0.15552466
34	0x3ec2fbbe	0.3808269
35	0x3e050c17	0.12992893
36	0x3dc3d50f	0.09562122
37	0xbd7e2301	-0.0620451
38	0x3ec47df0	0.38377333
39	0xbe730d17	-0.23735462
40	0xbedeb2c8	-0.43495774
41	0xbe59ad94	-0.21257621
42	0xbea6436e	-0.3247332
43	0xbead3320	-0.33828068
44	0xbf21addb	-0.6315591
45	0xbe91644f	-0.28396842
46	0x3db3e153	0.087832116
47	0xbde3efcb	-0.11129721
48	0x3e61bb67	0.22044145
49	0x3e69cadc	0.22831291
50	0x3bd9474a	0.006630813
51	0x3e45280c	0.19253558
52	0xbe97b535	-0.29630437
53	0xbca411c9	-0.020028012
54	0x3eabd68e	0.3356213
55	0xbf05c149	-0.52248055
56	0x3ecfa28e	0.40553707
57	0x3ea14f09	0.31505612
58	0xbd170ddc	-0.03687845
59	0x3e10d051	0.14141966
60	0xbc13ed02	-0.009028675
61	0xbcef61c8	-0.02922143
62	0xbe01770b	-0.12643068
63	0xbe0ac21c	-0.1355061
64	0x3f02e6ee	0.5113362
65	0xbef26b6d	-0.47347584
66	0xbd3ab49e	-0.045582406
67	0xbe3077c7	-0.17233191
68	0x3f07ec13	0.53094596
69	0x3f02f22a	0.51150763
70	0xbe5da7b0	-0.21645999
71	0xbe3cd669	-0.18441166
72	0xbe954e38	-0.2916124
73	0x3f030392	0.5117732
74	0xbe81487e	-0.2525062
75	0xbea95a8e	-0.330769
76	0xbecaaf74	-0.39586985
77	0x3eec70c4	0.46179783
78	0xbd37dde4	-0.044889346
79	0xbef167ff	-0.47149655
80	0x3f064793	0.52452964
81	0xbecd3b46	-0.40084285
82	0x3ee93798	0.45550227
83	0xbeb02221	-0.34401038
84	0xbec3d59d	-0.38248911
85	0x3ddaf791	0.10691751
86	0x3d849307	0.06473356
87	0x3d3d4aa1	0.04621375
88	0x3e8ada1e	0.27119535
89	0x3eea3847	0.4574606
90	0xbe89af58	-0.2689159
91	0xbd845aad	-0.064626075
92	0xbe92d075	-0.28674665
93	0xbcc08904	-0.023502834
94	0x3ec28b25	0.37996784
95	0x3e732457	0.23744331
96	0x3de0fa62	0.10985257
97	0x3e556184	0.2083798
98	0x3ec7772f	0.38958117
99	0xbe0fec6e	-0.14055035
100	0xbe09cd58	-0.13457239
101	0xbe59158c	-0.21199626
102	0xbe333c04	-0.17503363
103	0xbe70efc4	-0.23528963
104	0x3e9dc3ac	0.30813348
105	0xbe2f7201	-0.17133333
106	0xbea87fcf	-0.3291001
107	0xbec6335a	-0.38711053
108	0xbda29dc2	-0.07940246
109	0x3ed8c250	0.4233575
110	0x3efc9592	0.49332863
111	0xbd982d96	-0.0743057
112	0x3ee2279f	0.44170853
113	0xbe68c41f	-0.22731064
114	0xbf042399	-0.5161682
115	0x3e92879b	0.28619084
116	0xbe96ad8d	-0.29429284
117	0x3e345d7a	0.17613783
118	0x3ea6fe12	0.32615715
119	0x3e44f189	0.19232763
120	0xbee89567	-0.45426485
121	0xbe9dad0c	-0.30796087
122	0xbec63493	-0.38711986
123	0x3e551d9d	0.20812078
124	0xbdec9dff	-0.11553573
125	0xbea4185f	-0.32049844
126	0x3e372d1c	0.17888302
127	0xbeff7aa9	-0.4989827
128	0x3ed46468	0.41482854
129	0x3eae4637	0.34037945
130	0x3dd72468	0.10504991
131	0xbee3ee54	-0.44517767
132	0xbedb3585	-0.4281427
133	0x3e1c71ca	0.15277782
134	0x3ecb05cc	0.3965286
135	0x3e346190	0.17615342
136	0x3eca79f6	0.39546174
137	0xbe61423b	-0.21997921
138	0xbcd35d9f	-0.025801478
139	0x3ec73025	0.3890392
140	0xbe345433	-0.17610244
141	0x3e072d06	0.13200769
142	0xbdd46ffd	-0.103729226
143	0x3e775b77	0.24155985
144	0xbe5d6954	-0.2162221
145	0x3f0c8e41	0.5490456
146	0x3e7ebe24	0.2487722
147	0xbe40119a	-0.18756714
148	0x3ee444ce	0.44583744
149	0xbec687a9	-0.38775375
150	0x3ea72654	0.3264643
151	0x3ef1e2b3	0.4724327
152	0x3d68c24f	0.056825932
153	0xbc3554c6	-0.011067575
154	0x3ca240d0	0.019806296
155	0x3d6bce36	0.057569705
156	0xbf02e86f	-0.51135916
157	0x3e958016	0.29199284
158	0xbe80420c	-0.2505039
159	0xbe81d259	-0.25355795
160	0xbe5768b2	-0.21036032
161	0x3f015798	0.5052428
162	0x3de1b76d	0.11021314
163	0xbe135d1c	-0.14390987
164	0xbef7c0d7	-0.48389313
165	0xbe0e700d	-0.13909931
166	0xbe94cde7	-0.2906334
167	0xbe8373c8	-0.25674272
168	0x3a76b0f9	0.0009410526
169	0x3f05de38	0.52292204
170	0x3ee9f60e	0.45695537
171	0x3e105b66	0.14097366
172	0x3dec056c	0.11524472
173	0xbe0dd3f4	-0.13850385
174	0x3ed6fbc6	0.41988963
175	0x3ea42202	0.32057196
176	0xbe46515a	-0.1936697
177	0xbe023554	-0.12715656
178	0xbeeead06	-0.4661638
179	0x3eb881ce	0.36036533
180	0xbdabe96a	-0.083941296
181	0xbe9563c1	-0.2917767
182	0x3e04f6a6	0.12984714
183	0x3cd2ec96	0.025747579
184	0xbcab6da1	-0.020926299
185	0x3e6b855f	0.23000096
186	0xbdd1a2d8	-0.10236138
187	0x3f004896	0.5011076
188	0xbec5641f	-0.3855295
189	0xbe43d938	-0.19125831
190	0xbeeec5a4	-0.46635163
191	0xbbd59b5a	-0.0065187635
192	0xbed1b6e5	-0.4095985
193	0xbed8ef5f	-0.42370126
194	0xbdd6c8c4	-0.10487512
195	0x3ee4cc12	0.44686943
196	0xbe8f2583	-0.27958307
197	0x3e9b4277	0.30324146
198	0xbe5a4bf7	-0.21318041
199	0x3e567a9d	0.20945211
200	0x3bd4906e	0.006486944
201	0x3ed2aaa0	0.41145802
202	0xbed8752f	-0.42276904
203	0xbe94a87e	-0.290348
204	0xbd87d4a5	-0.066323556
205	0xbe1fee9c	-0.15618366
206	0xbdddc8e2	-0.10829331
207	0xbdfd096d	-0.123553135
208	0xbf07856a	-0.5293795
209	0x3ef2c91f	0.47419068
210	0xbe22cc2f	-0.15898202
211	0x3df38fe2	0.11892678
212	0x3e273677	0.1632937
213	0x3d127618	0.035757154
214	0x3cd9abab	0.026571115
215	0xbea8a96e	-0.32941765
216	0xbecafaa3	-0.39644346
217	0xbd519e86	-0.05117657
218	0xbe3f0988	-0.1865598
219	0xbe556c46	-0.20842084
220	0x3eb12e01	0.3460541
221	0x3eb3567d	0.35026923
222	0xbdda9204	-0.106723815
223	0x3e6a38fe	0.22873303
224	0xbeddd1ba	-0.4332407
225	0x3e8476fc	0.25872028
226	0x3e8d6925	0.2761928
227	0xbea6f2ab	-0.32607016
228	0x3e50f759	0.20406856
229	0xbd441c01	-0.04787827
230	0xbed00a1d	-0.40632716
231	0x3ee6b0d7	0.45056793
232	0xbe50f7d5	-0.2040704
233	0x3ba9a163	0.0051767095
234	0x3ec15890	0.3776288
235	0xbe966ae3	-0.29378423
236	0x3e96a708	0.2942431
237	0x3ed41dfe	0.41429132
238	0xbebf9ef2	-0.37425953
239	0x3ea00ba1	0.31258872
240	0x3d4c989f	0.04995024
241	0xbda5676a	-0.08076365
242	0xbee6cfb9	-0.45080355
243	0xbe56f66b	-0.20992438
244	0xbe8604da	-0.26175576
245	0x3e2f965e	0.17147204
246	0x3ed2efd8	0.4119861
247	0x3daa148b	0.083046995
248	0xbf02195c	-0.50819945
249	0xbeca00c2	-0.39453703
250	0xbebc8b1f	-0.3682489
251	0x3ef0264a	0.46904212
252	0xbccd4da0	-0.025061429
253	0x3f00f06b	0.5036685
254	0xbe9e8c67	-0.30966493
255	0x3e6c508b	0.230776

VAE.encoder_mu.layers.1.linear0.bias f4 [128]
0	0x3ee73e3d	0.45164672
1	0x3e8044ad	0.25052395
2	0xbdb7c66e	-0.08973394
3	0xbe1241fd	-0.14282985
4	0x3ec857ff	0.39129636
5	0xbe6071f3	-0.21918468
6	0xbe059352	-0.1304448
7	0xbe8c63df	-0.27419946
8	0xbd52dcbe	-0.051480047
9	0x3e1efb30	0.15525508
10	0xbeaedfc8	-0.34155107
11	0xbe9d6aee	-0.30745643
12	0x3e6021e2	0.21887925
13	0x3ef7a7f4	0.48370326
14	0xbea137c0	-0.31487846
15	0x3ec40e6c	0.38292253
16	0xbe9beae5	-0.30452648
17	0xbeb8b7bf	-0.36077687
18	0xbe6bad3f	-0.23015307
19	0xbecd3221	-0.40077308
20	0x3ea1f5aa	0.3163274
21	0x3df0097c	0.11720559
22	0xbdf3ac3c	-0.118980855
23	0xbe3016d6	-0.17196211
24	0x3eb5515e	0.3541364
25	0xbeb0ec26	-0.34555167
26	0x3d83c63c	0.064342946
27	0xbea05bed	-0.31320134
28	0x3e9d7af3	0.30757865
29	0x3dbeb4dc	0.0931184
30	0xbd8a2894	-0.06746021
31	0x3eee8206	0.46583575
32	0x3e0fbf13	0.14037733
33	0xbe24ba4a	-0.16086689
34	0x3ea9663a	0.33085805
35	0xbd39a903	-0.045327198
36	0xbe4a27c0	-0.19741726
37	0x3e9b0aa9	0.3028157
38	0x3ed944c0	0.42435265
39	0xbe5d40bc	-0.21606725
40	0xbe94ec2a	-0.2908643
41	0xbd9ef842	-0.07762195
42	0xbb8fec02	-0.004392148
43	0x3dd5ec26	0.10445432
44	0x3d946f65	0.07247809
45	0xbcb21310	-0.021737605
46	0xbe779bf1	-0.2418058
47	0xbafbd2c3	-0.0019212592
48	0xbd9da218	-0.076969326
49	0xbe142731	-0.14468075
50	0x3ed9b35b	0.4251965
51	0x3e1bd3a5	0.15217455
52	0x3e76acdb	0.24089377
53	0x3dd6f226	0.10495405
54	0x3e0ac980	0.13553429
55	0x3e984a81	0.29744342
56	0x3ea8670b	0.32891116
57	0xbd8fc78e	-0.07020484
58	0xbe04397e	-0.12912557
59	0xbdba503c	-0.09097335
60	0x3ebc8cbb	0.3682612
61	0xbf042178	-0.5161357
62	0xbe9651f7	-0.2935941
63	0xbee6b07d	-0.45056525
64	0xbdef3696	-0.11680333
65	0xbec75049	-0.3892844
66	0x3d94c6fb	0.07264515
67	0x3e0beffe	0.13665769
68	0xbbf41186	-0.007448378
69	0x3edcd737	0.43132946
70	0x3eb8da22	0.36103922
71	0x3d6a985c	0.057274207
72	0x3f08a3e1	0.5337506
73	0x3e039f57	0.12853752
74	0x3d326415	0.043552477
75	0xbd795a01	-0.06087685
76	0xbec87e01	-0.39158633
77	0x3e8dd686	0.2770273
78	0xb9eb62ba	-0.0004489625
79	0x3edb5037	0.42834637
80	0xbed6176c	-0.41814744
81	0xbdfc5830	-0.12321508
82	0x3ecca244	0.3996755
83	0xbea33d6c	-0.318828
84	0x3ea5c8ce	0.32379764
85	0xbe9294cd	-0.2862915
86	0xbec8de26	-0.39231986
87	0xbe916033	-0.28393707
88	0x3e96d765	0.29461208
89	0xbec51867	-0.3849518
90	0x3dd6a092	0.10479845
91	0x3e9fd82a	0.31219608
92	0x3e6f1107	0.23346339
93	0xbe05c535	-0.1306351
94	0x3e4e2250	0.20130277
95	0x3ebcf83c	0.36908138
96	0xbecad957	-0.39618942
97	0xbd36b751	-0.044608418
98	0x3e8262e6	0.2546608
99	0xbebba127	-0.36646387
100	0xbdf9514f	-0.121737115
101	0x3ec39498	0.38199306
102	0xbe86840c	-0.2627262
103	0xbea0c4e1	-0.31400207
104	0x3b1162f7	0.0022184232
105	0xbdeb922f	-0.11502492
106	0xbdbcf15e	-0.09225725
107	0x3e4ec6f2	0.20193079
108	0xbda4a5c5	-0.080394305
109	0x3e8df0b3	0.277227
110	0xbe0ec5df	-0.1394267
111	0x3de58204	0.11206439
112	0xbe58c521	-0.21168949
113	0xbd5e0324	-0.054202214
114	0xbe72a1f6	-0.23694596
115	0xbeb68102	-0.356453
116	0xbe6a02a5	-0.22852571
117	0xbe64c76b	-0.22341697
118	0x3edef1df	0.43543908
119	0x3e8a3068	0.26990056
120	0x3eb70b0d	0.3575062
121	0x3e297a8e	0.16550657
122	0x3eeeca12	0.46638542
123	0x3eb6ef17	0.35729286
124	0xbe99bab6	-0.30025262
125	0xbdddc8db	-0.10829326
126	0xbe1664bb	-0.14686863
127	0x3e4bf212	0.19916561

VAE.encoder_mu.layers.1.linear1.weight f4 [4, 128]
0	0x3c5166bb	0.0127808405
1	0x3d410c75	0.04713102
2	0x3dad1b58	0.08452481
3	0xbbd408d4	-0.006470779
4	0x3cda8943	0.02667678
5	0xbe1fefec	-0.15618867
6	0xbba1555c	-0.0049235057
7	0x3d8aa3ac	0.06769499
8	0x3c9c28a9	0.019062357
9	0x3d534f2f	0.051589187
10	0xbd137285	-0.035997886
11	0x3b3f3c3c	0.002918019
12	0xbd92db71	-0.071707614
13	0xbdb55315	-0.08853737
14	0xbd2f5d8e	-0.04281383
15	0xbe0b344b	-0.13594167
16	0xbbf8e90e	-0.0075961417
17	0xbd9030fd	-0.07040594
18	0x3d1c0ce7	0.038098242
19	0xbc73e326	-0.014885699
20	0xbda234fb	-0.079202615
21	0x3da15fa0	0.07879567
22	0xbe087044	-0.13324076
23	0xbda9e1ad	-0.08294997
24	0xbba6e1ec	-0.00509285
25	0xbb905b58	-0.0044054203
26	0xb9046eaf	-0.00012629734
27	0xbe051d2d	-0.12999411
28	0xbc6e2115	-0.014534255
29	0x3dd3fa73	0.10350504
30	0x3dca3825	0.0987399
31	0xbdd94938	-0.106096685
32	0x3d236c2a	0.039898075
33	0xbcc3ac5d	-0.0238859
34	0xbbf3d6b5	-0.0074413666
35	0x3d89b44a	0.067238405
36	0xbe5f53bd	-0.21809287
37	0x3ce49a2a	0.027905542
38	0x3aa825a7	0.0012828604
39	0x3d323ed1	0.043516938
40	0xbc2dd7f4	-0.010610569
41	0x3c0c6b94	0.0085705705
42	0x3ce1678a	0.027515192
43	0x3d3067e8	0.043067843
44	0x3d7cdf8c	0.06173663
45	0xbd5f80c3	-0.054566156
46	0x3de2283b	0.110428296
47	0x3db5d8e9	0.08879263
48	0x3cb64ef9	0.022254454
49	0x3dace52d	0.08442149
50	0xbab9696a	-0.0014145796
51	0xbce26fbc	-0.02764117
52	0x3c859f3d	0.016311282
53	0x3d2c8e37	0.042127814
54	0xbca1daba	-0.019757617
55	0xbdb643d5	-0.08899657
56	0x3b9a5dc4	0.0047108848
57	0x3da1c804	0.07899478
58	0xbdb66ca9	-0.08907444
59	0x3caad4b3	0.020853376
60	0xbda81f14	-0.08209053
61	0x3d8a09ee	0.06740175
62	0xbb91a4d7	-0.0044446993
63	0xbdcc987f	-0.09990024
64	0x3d6ba43a	0.057529666
65	0xbd380fcd	-0.044936944
66	0xbd3f421c	-0.046693906
67	0x3bc20dc2	0.00592205
68	0xbe04917f	-0.12946127
69	0xbd8c0ec6	-0.06838755
70	0xbdf01a6d	-0.1172379
71	0x3cd0040d	0.025392557
72	0x3dc76d2f	0.09737622
73	0x3bdad899	0.0066786525
74	0xbdb55c12	-0.08855452
75	0x3d7e6e79	0.062117074
76	0xbca47e82	-0.020079855
77	0xbd00dc16	-0.03145989
78	0x3dfe0a15	0.12404267
79	0xbc420c7f	-0.0118438
80	0xba8c0ff3	-0.0010685906
81	0x3d927702	0.07151605
82	0x3caf58b5	0.021404603
83	0x3d73107c	0.059341893
84	0x3d6ac124	0.0573131
85	0x3daea31c	0.085272044
86	0x3c8c3a6b	0.0171177
87	0x3d9c8411	0.07642377
88	0xbdb6f69c	-0.08933756
89	0xbb09ea6c	-0.0021044267
90	0xbde9c19d	-0.11413882
91	0x3c2fbc6b	0.010726075
92	0xbe1247db	-0.14285223
93	0x3c9726cb	0.018451115
94	0x3d03ebcc	0.032207295
95	0x3cd67da5	0.026182959
96	0x3c353ab9	0.011061364
97	0x3e2ef516	0.1708568
98	0x3de8d7af	0.113692634
99	0xbcff3813	-0.031154668
100	0x3d81872b	0.06324609
101	0xbdc3a8d3	-0.09553685
102	0xbd2453d3	-0.040119004
103	0x3d8c7d9f	0.06859898
104	0xbaea2b29	-0.0017865646
105	0xbcd733cd	-0.026269818
106	0x3e102ea4	0.14080292
107	0x3d429ffb	0.04751585
108	0xbd8828ef	-0.066484325
109	0x3de955fe	0.11393355
110	0xbdab3c08	-0.083610594
111	0xbc8f1f92	-0.017471109
112	0x3cb6f11b	0.022331765
113	0xbe2a91fe	-0.16657254
114	0xbb6caf09	-0.0036115071
115	0xbd0f560c	-0.03499417
116	0x3d3bec2e	0.045879535
117	0xbdb47bde	-0.08812688
118	0xbe2454d6	-0.16047987
119	0x3d6796cc	0.056540295
120	0xbc5902a8	-0.013245262
121	0xbe042f12	-0.12908581
122	0xbe0a7f20	-0.13525057
123	0x3d17a9f5	0.037027318
124	0x3d95e863	0.07319715
125	0xbb7778cf	-0.0037761217
126	0x3e05fb33	0.13084106
127	0x3d54909b	0.05189572
128	0x3d8cffee	0.06884752
129	0x3d9d84b3	0.07691326
130	0x3d7c7a8f	0.06164032
131	0xbd058801	-0.032600407
132	0x3da1e695	0.07905308
133	0x3ddfcda9	0.109278984
134	0x3d7fd029	0.062454376
135	0x3df8b24f	0.12143385
136	0xbd1cf50d	-0.038319636
137	0xbd5b6761	-0.053565387
138	0x3d94dcfa	0.072687104
139	0xbc5fefad	-0.013667983
140	0x3d672b4f	0.056437787
141	0xbdd1c893	-0.102433346
142	0x3cfe72d4	0.031060614
143	0xbc55eeea	-0.01305745
144	0xbcefea54	-0.029286541
145	0x3d37a537	0.044835296
146	0x3de06bc8	0.10958058
147	0xbba6541c	-0.0050759446
148	0xbd9b8984	-0.075945884
149	0xbd9f0358	-0.0776431
150	0x3dbc1283	0.09183218
151	0x3d53170b	0.051535647
152	0xbcba2c25	-0.022726128
153	0xbd0debaa	-0.034648575
154	0xbd937bfe	-0.07201384
155	0x3e8cab5b	0.27474484
156	0x3c742955	0.014902432
157	0xbd54b236	-0.051927768
158	0xbc900bb3	-0.017583704
159	0xbcfa3232	-0.030541513
160	0xbceec477	-0.029146416
161	0xbc7b873c	-0.015352067
162	0xbd4dac16	-0.050212942
163	0x3d81dfed	0.063415386
164	0x3e1e9f00	0.15490341
165	0xbdb38ae0	-0.08766723
166	0xbd0ff783	-0.035148155
167	0xbc8dea77	-0.017323716
168	0x3e574318	0.21021688
169	0x3cb007b2	0.021488044
170	0x3e8d04d4	0.27542746
171	0x3c493beb	0.012282352
172	0xbd587468	-0.05284539
173	0x3c296617	0.0103392815
174	0xbc782549	-0.015145608
175	0xbd52ebb5	-0.05149432
176	0xbc99dc48	-0.018781796
177	0x3c7d22e2	0.015450211
178	0x3d9094fc	0.070596665
179	0x3d21e33b	0.039523344
180	0xbdb59a2d	-0.08867297
181	0xbd79e479	-0.061008904
182	0x3da64bd2	0.0811993
183	0xbcb5f110	-0.022209674
184	0xbd8cc835	-0.06874124
185	0xbd8f1ff9	-0.0698852
186	0xbbce2354	-0.0062908325
187	0x3d7ccccd	0.06171875
188	0xbd68e419	-0.056858156
189	0xbd877fce	-0.06616174
190	0xbd300a75	-0.042978723
191	0xbddf2dee	-0.10897432
192	0x3d19d071	0.0375523
193	0x3cfa7cb9	0.03057705
194	0x3c9b6ebc	0.0189737
195	0xbd2d3059	-0.042282436
196	0xbda31b44	-0.07964185
197	0x3c879b71	0.016553612
198	0x3d15b2a0	0.036547303
199	0x3da8fc7b	0.08251282
200	0x3d796c98	0.06089458
201	0x3d57e3e1	0.052707557
202	0x3d91367c	0.0709047
203	0x3d1ad6d1	0.03780252
204	0x3ddbeec7	0.107389025
205	0x3d843a55	0.064564385
206	0xbd0764b4	-0.033055022
207	0xbdb38667	-0.087658696
208	0x3e51d3fa	0.20491019
209	0x3c8b9f4e	0.017043736
210	0x3d09cf76	0.033645116
211	0xbc5353e2	-0.012898417
212	0xbdb94c3f	-0.09047746
213	0xbc356ed6	-0.011073789
214	0x3d023f3a	0.03179858
215	0xbda60762	-0.08106877
216	0xbd98429f	-0.07434582
217	0x3dcd9fc9	0.10040242
218	0x3cddc3b7	0.027070863
219	0xbd0ca137	-0.034333434
220	0x3d279e24	0.0409223
221	0xbcb3759f	-0.021906672
222	0x3d7505b2	0.059819885
223	0x3c9d47a8	0.019199207
224	0xbc8ef70c	-0.017451786
225	0xbdde545c	-0.10855934
226	0xbd91f338	-0.071264684
227	0xbc1f7b73	-0.009734022
228	0xbdd4dfa5	-0.10394219
229	0xbcb62395	-0.022233764
230	0xbded0d17	-0.11574762
231	0xbd344133	-0.04400749
232	0x3db40347	0.087896876
233	0xbd69bf74	-0.05706735
234	0x3c22b355	0.009930451
235	0x3cbb654b	0.022875449
236	0x3e3d7567	0.18501817
237	0x3d985282	0.07437612
238	0xbd726021	-0.059173707
239	0xbce1449f	-0.027498541
240	0xbcb446d9	-0.022006439
241	0xbd3abc51	-0.04558975
242	0x3ca19ec5	0.019729028
243	0xbd3b40f5	-0.045716245
244	0xbdaaefb9	-0.08346505
245	0x3cb74515	0.022371808
246	0x3d05f0e3	0.03270043
247	0x3bd01309	0.0063499254
248	0xbe008769	-0.12551655
249	0x3d040738	0.032233447
250	0xbd522a70	-0.051310003
251	0xbc503ce4	-0.01270983
252	0x3c9c9ad4	0.019116797
253	0xbc004020	-0.007827789
254	0xbdc221ad	-0.094790794
255	0xbd4bf23d	-0.049791563

VAE.encoder_mu.layers.1.linear1.bias f4 [4]
0	0xbdd98f95	-0.10623089
1	0xbd0ffb95	-0.035152037
2	0xbd5a711b	-0.053330522
3	0x3d0af8ad	0.033928562

VAE.encoder_mu.layers.1.norm1.weight f4 [4]
0	0x3f87f49b	1.0621523
1	0x3f88b815	1.0681177
2	0x3f801257	1.0005597
3	0x3f8b3e2e	1.0878351

VAE.encoder_mu.layers.1.norm1.bias f4 [4]
0	0x3d82048f	0.06348526
1	0xbd08b43c	-0.03337501
2	0x3c7b6898	0.015344761
3	0xbcb314ec	-0.021860562

VAE.encoder_mu.layers.1.norm0.weight f4 [4]
0	0x3f82bacb	1.0213255
1	0x3f68e465	0.909735
2	0x3f6aa8ad	0.9166363
3	0x3f56e856	0.83948267

VAE.encoder_mu.layers.1.norm0.bias f4 [4]
0	0x3b6196b4	0.0034422101
1	0xbcd3fb1b	-0.025876572
2	0x3cdf0b43	0.02722705
3	0x3683c1b3	3.926654e-06

VAE.encoder_mu.last_normalization.weight f4 [4]
0	0x3f800000	1.0
1	0x3f800000	1.0
2	0x3f800000	1.0
3	0x3f800000	1.0

VAE.encoder_mu.last_normalization.bias f4 [4]
0	0x00000000	0.0
1	0x00000000	0.0
2	0x00000000	0.0
3	0x00000000	0.0

VAE.encoder_mu.head.weight f4 [4, 4]
0	0x3d16a5c0	0.036779165
1	0x3ea1ecd0	0.31625986
2	0x3e93e11e	0.28882688
3	0x3eb32b90	0.34994173
4	0xbd15bee0	-0.036558986
5	0xbdfd1d40	-0.123590946
6	0xba60b400	-0.0008571744
7	0xbd9baf10	-0.0760175
8	0xbead8c6e	-0.33896202
9	0xbeee5c38	-0.46554732
10	0xbe9b842c	-0.30374277
11	0x3d2cc250	0.0421775
12	0x3c2ff940	0.010740578
13	0xbe713e00	-0.23558807
14	0x3ebd8a38	0.37019515
15	0xbec1098e	-0.37702602

VAE.encoder_mu.head.bias f4 [4]
0	0x3e27193c	0.1631822
1	0x3d0485c0	0.032354116
2	0xbecad63e	-0.3961658
3	0xbeab69c0	-0.33479118

VAE.encoder_logvar.layers.0.attention.W_q.weight f4 [4, 4]
0	0xbea5f8ac	-0.32416284
1	0xbed5738b	-0.41689715
2	0x3eda26e4	0.42607796
3	0xbe8d7664	-0.27629387
4	0x3ef921a0	0.48658466
5	0x3df8c08c	0.121461004
6	0xbe33745b	-0.17524855
7	0x3dda8689	0.10670192
8	0xbec0f44a	-0.37686378
9	0x3ebaa645	0.3645498
10	0xbe67643b	-0.22596829
11	0x3f16899a	0.58803713
12	0x3e6e20f8	0.23254764
13	0xbe2ee925	-0.17081125
14	0x3ed7d6fe	0.42156214
15	0x3f16dfb5	0.589351

VAE.encoder_logvar.layers.0.attention.W_q.bias f4 [4]
0	0xbd353409	-0.044239078
1	0xbd0ac22d	-0.033876587
2	0x3c38dee8	0.011283614
3	0x3d66eb6b	0.056376856

VAE.encoder_logvar.layers.0.attention.W_k.weight f4 [4, 4]
0	0x3efafbe5	0.49020305
1	0xbed32e0e	-0.41246074
2	0x3ea23e3a	0.316881
3	0xbdb1c07b	-0.08679291
4	0x3d8b8762	0.068129316
5	0xbe78a0a7	-0.24280034
6	0xbd942a84	-0.07234672
7	0x3c828a4b	0.015935084
8	0xbef2032f	-0.47268054
9	0x3e8968af	0.2683768
10	0xbe0301a6	-0.12793598
11	0xbead6751	-0.33867887
12	0xbe21607c	-0.15759462
13	0x3e8c638a	0.27419692
14	0xbef74545	-0.48295036
15	0x3e3f4421	0.18678333

VAE.encoder_logvar.layers.0.attention.W_k.bias f4 [4]
0	0x371e5cb2	9.439116e-06
1	0xb755a9e4	-1.2735345e-05
2	0x3788d177	1.6310003e-05
3	0x38111424	3.458945e-05
