restsyn/tabsyn/vae/ckpt/cardio_cond/decoder.pt (torch, 21491 bytes, 33 tensors)

VAE_Decoder.layers.0.attention.W_q.weight f4 [4, 4]
000000 2d 25 b0 be 2f 3e 5b 3e 2d 6d b6 3e 44 36 94 be
       -0.34403363 0.2141044 0.3563017 -0.2894765
000010 d6 d5 e1 3e e6 b7 89 be 0b 5d 4b 3d a5 e6 91 3e
       0.44108456 -0.26898116 0.04964928 0.2849628
000020 9c 30 65 bd 1b 99 49 3e 2d 35 84 3e 47 c2 04 3f
       -0.05595456 0.19687311 0.2582182 0.51858944
000030 76 c2 c1 bd e1 49 a8 be bb 2a 03 be a4 fd 88 be
       -0.094609186 -0.32868865 -0.12809269 -0.26756012

VAE_Decoder.layers.0.attention.W_q.bias f4 [4]
000000 50 6d 0d 3e dc d8 80 3b f2 ab 01 3d 76 ea 61 3d
       0.1381123 0.0039321017 0.03165812 0.05515524

VAE_Decoder.layers.0.attention.W_k.weight f4 [4, 4]
000000 a4 62 99 be d4 20 6e 3e 17 68 30 be fe 6e 6b 3e
       -0.2995807 0.2325471 -0.17227207 0.22991559
000010 72 79 93 3d 32 15 5c 3e 38 bb 36 be 24 fb 80 3e
       0.07200898 0.2149246 -0.17844856 0.25191605
000020 a3 53 9b be e3 a9 0a 3e 27 20 9c 3e e4 e9 77 3e
       -0.30337247 0.13541369 0.3049328 0.24210316
000030 5b ab 46 be a1 1f c9 be de e3 a0 3e de a3 3c be
       -0.19401304 -0.39281943 0.3142385 -0.18421885

VAE_Decoder.layers.0.attention.W_k.bias f4 [4]
000000 81 4f 40 3b b9 fd 12 bb 1e 75 bf 3b 06 de b5 bb
       0.0029344263 -0.0022429063 0.005842819 -0.005550149

VAE_Decoder.layers.0.attention.W_v.weight f4 [4, 4]
000000 39 c1 32 be 7b 9a 55 3e 3e 58 9a be 38 e0 a5 3d
       -0.17456521 0.20859711 -0.30145448 0.08099407
000010 83 8f f9 bd 31 94 80 3e c3 4e 91 be 8e 1c fc 3d
       -0.12185576 0.2511306 -0.28380403 0.12310134
000020 33 eb ee bd 95 f3 97 3d e7 3c 0e 3a be 24 cb 3d
       -0.116659544 0.074195065 0.0005425945 0.099191174
000030 dd 84 3a be 9b 87 18 3d a7 ca 6b be a7 7e 91 bc
       -0.18214746 0.0372387 -0.23026524 -0.017760588

VAE_Decoder.layers.0.attention.W_v.bias f4 [4]
000000 49 28 27 3d 27 f1 bb 3d 1f d8 0d bd 5d 28 89 bd
       0.040809903 0.091768555 -0.034629937 -0.06697152

VAE_Decoder.layers.0.linear0.weight f4 [128, 4]
000000 e3 bb e8 be 1d 65 1f bf 37 fa d6 3d cc be ab be
       -0.45455846 -0.6226366 0.104969434 -0.33544004
000010 0a 8d bc be 53 fc db 3e eb 15 7d 3e af 84 10 be
       -0.36826354 0.42965946 0.24715392 -0.14113115
000020 5c 6c bf 3e 38 35 87 3e 6f f8 d9 3e e2 fc be be
       0.3738736 0.2640779 0.42572352 -0.3730231
000030 7e 35 56 bd 26 17 77 be f0 ba b3 bc 3f b9 56 be
       -0.052297108 -0.24129924 -0.021939725 -0.20969103
000040 2a 92 24 3f 10 b4 6d 3e 58 37 39 3e f5 50 82 be
       0.6428553 0.2321322 0.18087518 -0.2545239
000050 3e f0 14 bf 5c 62 80 3e a2 9f 6d be 85 e7 11 be
       -0.5817908 0.25075042 -0.23205426 -0.14248474
000060 b1 25 59 3e 22 b1 be be 11 cb 15 3a 20 78 d5 3e
       0.21205784 -0.37244517 0.0005714158 0.4169321
000070 57 60 8e be 00 a3 fd be 2d 21 93 3e 27 c6 08 3f
       -0.27807876 -0.49538422 0.2873625 0.53427356
000080 e3 95 e1 be 29 65 db 3e e3 9f f7 bd 6b 8d 92 3d
       -0.44059667 0.42850617 -0.12091043 0.071558796
000090 08 1d a0 3e 10 96 e3 be 06 d7 83 be 9b 1b a4 bc
       0.3127215 -0.44450426 -0.25749987 -0.020032695
0000a0 e1 fc 4d be 6c c8 b9 3e a8 ed b5 3e 69 a3 be 3e
       -0.20115997 0.36285722 0.3553288 0.37234047
0000b0 89 c5 56 3e d1 40 d2 3e aa 4c 99 3d ee ed 47 be
       0.20973791 0.41065076 0.07485326 -0.19524357
0000c0 82 50 dd 3e 03 5c 0e bf 1f 63 9c 3d eb 12 8e 3e
       0.43225485 -0.5560915 0.07636093 0.27748808
0000d0 5b 47 0b bf 8c b9 a1 3e bb 7f c3 bd 12 20 73 bd
       -0.54405755 0.31586874 -0.09545847 -0.059356757
0000e0 1e d6 0b bf 00 60 a4 be 84 ed ae 3e a8 18 e6 3d
       -0.5462359 -0.32104492 0.34165585 0.112351716
0000f0 e9 28 77 3c b4 85 bd be ab e4 89 be bb 25 ab 3c
       0.015085437 -0.3701607 -0.26932272 0.020892015
000100 e4 d3 a7 3e 71 58 f4 3e b8 8a c7 be 2b 2f ee be
       0.32778847 0.47723725 -0.38973022 -0.4652036
000110 89 b5 76 bd d3 15 68 3d ea b0 30 be 24 9d ee 3e
       -0.06023172 0.05666144 -0.17254987 0.46604264
000120 f3 52 bd 3d 56 28 1b bf 8f 9d 1e 3c 76 8c d8 be
       0.09244337 -0.6060842 0.00968112 -0.42294663
000130 6d f1 ac 3e 0c 77 d3 be 07 7d 5e be a3 85 05 3f
       0.33777943 -0.41301763 -0.21727382 0.5215704
000140 11 95 22 3e a2 31 fc bd 8e a7 6c be ed 82 ae 3e
       0.15877177 -0.12314154 -0.23110792 0.34084263
000150 20 17 65 bd 93 23 15 3f 80 b1 c1 3d 97 52 59 3e
       -0.055930257 0.58257407 0.094576836 0.21222912
000160 d8 91 c3 3e 3b d3 06 bf 83 f0 86 3d 81 9b 64 3e
       0.38197207 -0.5266606 0.06588843 0.22324945
000170 71 e7 85 bd 07 75 88 3e 96 65 d0 3e 42 35 90 be
       -0.065382846 0.26651785 0.40702504 -0.28165632
000180 d0 4a ba bd 6a ba 51 be 06 af 88 3e 5d 3b 25 3d
       -0.090963006 -0.20481268 0.26696032 0.040339816
000190 78 9d 11 3d 15 7d 47 be 40 39 0d 3f 8b 19 e3 be
       0.035550565 -0.19481309 0.5516548 -0.44355425
0001a0 e5 95 c7 3e c0 60 ad be 76 17 db be 01 a3 e3 be
       0.38981548 -0.33862877 -0.42791337 -0.444603
0001b0 02 3f 75 3e 2a 1c a2 be 75 5f 0c bf 6b 39 c0 3e
       0.23949817 -0.31662112 -0.54833156 0.37543806
0001c0 3c 65 17 3f f4 48 f6 be 42 37 3b be 68 c1 34 3e
       0.59138846 -0.48102534 -0.18282798 0.17651904
0001d0 5a a6 67 bd e2 a8 a7 be 2d da 0f bf ed 56 cd bd
       -0.05655513 -0.32746035 -0.56192285 -0.100263454
0001e0 bf f8 04 bf a7 d2 3d be 22 de 8c 3e eb 00 d4 be
       -0.51942056 -0.18537389 0.27513224 -0.4140695
0001f0 e1 69 e4 bc 59 18 82 be db ea 42 be 93 cc 2b be
       -0.027882518 -0.254092 -0.19034903 -0.16777258
000200 16 ec 93 be 66 5b 4d bd 71 d6 87 3c d2 c9 05 bf
       -0.28891057 -0.050135992 0.016581746 -0.5226108
000210 30 b4 35 be 6f e0 0e bf cc fb cf 3d 83 25 07 3e
       -0.17744517 -0.5581121 0.10155448 0.13197903
000220 fd f0 97 be 0a e4 c5 3c 27 b6 2b 3e 8e c8 db 3e
       -0.29676047 0.024156589 0.16768704 0.4292645
000230 f3 30 3b bd c7 01 f1 be 69 0d 71 be 9d 02 8b 3e
       -0.04570098 -0.47071669 -0.23540272 0.2715043
000240 24 82 8c bd b2 8f a4 be 80 e0 d8 bd ce da bd bd
       -0.0686076 -0.3214088 -0.10589695 -0.09270249
000250 f7 46 68 be cc 83 e1 3c 56 b7 65 be c3 c7 04 3d
       -0.22683321 0.027528666 -0.22433218 0.03241707
000260 75 ae c1 be a5 3c 5f be e1 e1 cb 3e 1d 5c f4 be
       -0.37828413 -0.21800478 0.3982077 -0.47726527
000270 40 57 31 3d 5b 62 68 3e 7f 86 ca 3d ab 1f a9 be
       0.0432961 0.2269377 0.09888934 -0.33031973
000280 34 ae 0f 3d 2c 09 05 bf 67 d2 50 be da 01 e4 be
       0.035078242 -0.5196712 -0.20392762 -0.44532663
000290 72 6f c2 bd dd 1d 12 3f c0 b6 c4 be bd 30 92 3e
       -0.09493913 0.5707682 -0.38420677 0.2855281
0002a0 26 16 4c 3e b8 e1 f3 3d 03 eb 9d be d7 36 9f be
       0.19930324 0.11908287 -0.30843362 -0.31096527
0002b0 51 fc 19 be b9 19 44 be 05 4f 9f 3e 21 60 d8 bd
       -0.15037657 -0.19150437 0.31114975 -0.1056521
0002c0 af 09 3e 3d dc 44 ca 3e 35 62 8f be 68 10 9c be
       0.046395954 0.3950566 -0.28004614 -0.30481267
0002d0 43 77 b7 bd 22 05 10 3f fd 2c 6e be 7c 03 ce be
       -0.08958294 0.5625783 -0.23259349 -0.40237033
0002e0 fe e3 e7 3e 3f 43 29 be 52 d8 e4 bd 24 9c 64 be
       0.45291132 -0.16529559 -0.11174072 -0.22325188
0002f0 59 07 6d be 6c b1 41 3e ef 76 03 3f 25 91 57 3f
       -0.23147334 0.18915337 0.51353353 0.8420585
000300 5a 73 03 bf 2d b1 3b be fd 22 0f 3f 32 0c 82 3e
       -0.5134789 -0.18329306 0.5591276 0.2539993
000310 3c 6a a5 3e 21 e3 32 3f b9 84 9e be b5 93 93 bd
       0.32307613 0.6987782 -0.30960634 -0.07205907
000320 5a a4 db 3e 1e 0e 70 bc c8 65 c5 3c 7e 19 7a 3d
       0.42898828 -0.014651803 0.024096385 0.061059467
000330 e6 71 e1 bc 65 21 09 bf 43 33 67 3e 7f a6 0c 3e
       -0.027520131 -0.5356658 0.22578149 0.13735388
000340 1b 3b 95 be 3d 20 57 3e e4 ce 27 bd 25 ec 91 3c
       -0.29146656 0.21008392 -0.04096879 0.017812798
000350 af b7 82 3e a8 e1 ff bd fd 03 94 be 92 19 97 be
       0.25530764 -0.124942124 -0.28909293 -0.29511696
000360 5c 0f df be 57 9a 77 be 19 23 1b 3e 0e 8b 58 3e
       -0.43566406 -0.2417997 0.15150107 0.21146795
000370 5f 10 16 bf f3 47 0b 3f 06 25 4b be ab 57 d2 3d
       -0.5861873 0.5440666 -0.19838342 0.102706276
000380 f5 59 0c bf de 00 ca bd 80 b8 22 bf 52 37 15 be
       -0.54824764 -0.09863447 -0.63562775 -0.14571884
000390 de 54 72 3e 47 51 b0 be a2 0d 27 3c a7 82 07 bf
       0.23665187 -0.3443701 0.010196121 -0.52933735
0003a0 d8 45 cc 3e 07 0a f3 3e 47 df d4 be 11 d6 94 bd
       0.39897037 0.47468588 -0.41576597 -0.072673924
0003b0 ae 02 db be d1 90 af 3d a4 86 f9 3e b5 13 57 be
       -0.42775482 0.085725434 0.48735535 -0.21003611
0003c0 4f 02 84 3e 95 f1 bd 3e 07 db 61 bd 30 e0 b9 3d
       0.2578301 0.37098375 -0.05514052 0.090759635
0003d0 63 95 a9 3e 54 13 79 3e 55 0a c8 3e 5f 76 cc 3e
       0.33121786 0.2432378 0.39070383 0.3993406
0003e0 d2 aa 02 bf 8a d1 6a 3d 19 50 8f 3e 0d 5e 1e 3f
       -0.510419 0.05732874 0.27990797 0.6186226
0003f0 d7 d5 c4 3e 9f bd 52 bb 43 86 c5 be ef d3 4e be
       0.38444397 -0.003215648 -0.38578996 -0.20198034

VAE_Decoder.layers.0.linear0.bias f4 [128]
000000 86 c6 7a be b9 a2 f1 3e 1b b8 0c bd a5 b8 4e 3e
       -0.24489793 0.4719446 -0.034355264 0.20187624
000010 ff ad 67 be e1 10 d3 bd 77 9c 26 be 06 55 54 bb
       -0.22624968 -0.10305954 -0.16270624 -0.003239931
000020 99 90 c7 3e b1 91 65 be 67 b4 f6 3e c9 1e cb 3d
       0.38977507 -0.22418858 0.4818451 0.09917981
000030 f3 0e c3 bd 85 de 43 bd a7 f7 38 be 98 59 a0 3e
       -0.09524336 -0.047819633 -0.18063222 0.31318355
000040 3b c2 f5 3e 61 11 3c be 6b c0 6b be d2 9a 05 3f
       0.4799975 -0.18366005 -0.2302262 0.5218936
000050 a4 85 b6 3e 18 dd a2 3e 8e 79 70 3e 8d 75 b1 3d
       0.35648835 0.31809306 0.2348387 0.08664999
000060 d6 05 59 be 27 09 63 be 04 3b 09 be 59 04 6e 3e
       -0.21193632 -0.2217146 -0.13401419 0.23243846
000070 9a a7 f9 bd ba ba 04 bf 61 81 f4 be 67 01 90 3e
       -0.121901706 -0.5184742 -0.47754958 0.2812607
000080 65 4b 90 bd dd c2 2e be 51 90 5e bb ab a5 b2 be
       -0.0704563 -0.17066522 -0.003396053 -0.3489202
000090 e9 79 80 3e ae 10 f8 bd 3c 7b f5 3e b1 f5 2b 3e
       0.2509301 -0.121125564 0.47945583 0.16792943
0000a0 55 ff af 3e 3a e9 ca be 5b 73 c3 39 ef a8 eb bd
       0.3437449 -0.39631063 0.00037279245 -0.11506831
0000b0 ce dd 29 bd c6 b3 31 3e 0a b7 8a bd 14 8a cb be
       -0.041471295 0.17353734 -0.06773193 -0.39753783
0000c0 c0 fd 8c be f2 05 86 be 0c 3e 79 bd cd 4b 0e 3f
       -0.27537346 -0.2617641 -0.060850188 0.5558441
0000d0 78 ab 82 3e 61 cb 69 3e a3 e2 03 3e 24 1e da 3c
       0.25521445 0.22831489 0.12879424 0.0266257
0000e0 08 7e 4d be 67 fd ed bd 02 05 c8 3e aa 52 63 3e
       -0.20067608 -0.11620598 0.3906632 0.22199503
0000f0 f7 23 95 3e 0b f8 02 3f 56 67 76 be cf ec 76 3e
       0.29129001 0.51159734 -0.24062857 0.24113773
000100 63 10 02 3e f3 ea dc be 2a 9b 28 bf 15 70 8c 3d
       0.12701564 -0.43148002 -0.6586176 0.068573155
000110 2d 0d bf be c0 cc a4 3e bb 0a 06 be 40 ac 28 3d
       -0.3731474 0.32187462 -0.13090031 0.041179895
000120 87 76 b1 3e 33 0d d5 bd 84 2e 25 3e e2 64 a9 be
       0.34660742 -0.10402908 0.16131026 -0.3308478
000130 8a e2 ae bd f9 c3 96 3d fa 58 de be 25 17 b0 3e
       -0.08539303 0.073615976 -0.4342726 0.34392658
000140 fe bd 3f 3e f6 41 d9 be cc dc 57 bd a9 52 8f 3e
       0.1872482 -0.42433137 -0.052700803 0.27992752
000150 ad e3 fb bd 3d 69 36 bb 8b 02 0c bf f7 35 f1 3e
       -0.12299285 -0.0027833723 -0.5469138 0.47111484
000160 a4 dc e8 3e c7 13 3b 3e 05 21 d2 bd 17 9b cd be
       0.45480835 0.18269263 -0.10260204 -0.40157387
000170 20 07 f4 be 0c a6 14 be b8 7c d0 be 32 e0 e7 3e
       -0.47661686 -0.14516467 -0.40720153 0.45288235
000180 33 77 ac be 2a 7f 80 be 5c fd a1 be c9 93 82 3d
       -0.33684692 -0.25097018 -0.3163861 0.06375844
000190 5f e1 01 bf 8b 3f c3 be e3 61 03 bf 12 66 c6 3d
       -0.50734514 -0.38134417 -0.5132124 0.09687437
0001a0 11 65 96 3d fb 50 e1 3c d0 fa 47 3e 70 8a a5 3e
       0.07343496 0.027504435 0.19529271 0.32332182
0001b0 41 5b 98 bd 77 40 33 3e f5 ba 10 bf 84 4b 1a be
       -0.0743928 0.1750506 -0.56535274 -0.1506787
0001c0 09 5e 35 3e 3b d4 ac 3e a9 32 d2 3d a3 20 e4 bd
       0.17711653 0.3375567 0.10263569 -0.111390375
0001d0 9a d7 f9 be 0d 3a 3e 3e 6e 07 99 3e 54 25 0b bf
       -0.48797303 0.18576832 0.2988848 -0.54353833
0001e0 d0 85 d7 be ff 36 d1 be 6f 61 6c 3e 7d b3 8a be
       -0.42094278 -0.4086227 0.23084043 -0.27090064
0001f0 b5 06 8a be 4a 7e 43 3e 22 02 81 3d a1 4d ba 3e
       -0.26958242 0.19091144 0.06299235 0.3638735

VAE_Decoder.layers.0.linear1.weight f4 [4, 128]
000000 60 0d 7a 3e 85 43 25 3d fa 77 1b 3d d5 58 06 3d
       0.24419165 0.040347595 0.037956215 0.03279956
000010 50 8c 18 3e c2 10 aa 3c 3f 52 bf 3c b4 99 aa bd
       0.14897275 0.020759944 0.023354648 -0.08330098
000020 7f ea a1 bd 58 06 d9 bd 9e 7e 9d bd 34 e8 f5 3d
       -0.07906055 -0.10596913 -0.07690166 0.1200718
000030 bc 02 5b 3c 49 57 1d 3d 50 b2 50 be cd 78 57 bc
       0.013367351 0.03841332 -0.20380521 -0.01315136
000040 62 58 ea 3d 9f 2b 39 bd b2 9b eb 3d 64 b0 80 bd
       0.11442639 -0.045207616 0.11504306 -0.06283644
000050 12 66 9d bd f8 09 73 bd 5f 8b c1 bd 4d 47 1d 3e
       -0.07685484 -0.05933568 -0.09450411 0.1535923
000060 b2 2d 02 3e 99 9d ef 3d ef 49 a2 bd 1a a3 85 3b
       0.12712744 0.11699981 -0.07924258 0.004078281
000070 a9 fc a7 3b c1 3c e6 bd a0 86 90 3e 99 22 cd 3d
       0.005126555 -0.11242057 0.2822771 0.100163646
000080 13 30 06 3e 9a 67 3b 3d 57 fa fb bd 59 1a 89 bd
       0.13104276 0.0457531 -0.12303608 -0.066944785
000090 40 8e 53 3b 30 81 98 bd 38 07 12 3e 58 29 78 3d
       0.0032280833 -0.074465156 0.14260566 0.060586303
0000a0 71 49 1f bd 18 05 05 3f d8 c3 5a b9 c8 4c 5b 3d
       -0.0388884 0.519609 -0.00020863058 0.05354002
0000b0 c0 da be 3d cf 6c 24 3d e9 91 ca 3c 98 d8 12 bf
       0.09319067 0.04014283 0.024727779 -0.57361746
0000c0 31 ea 66 be 0e 8a 17 3d 9c dd 68 3c ea 5f af bd
       -0.22550274 0.036996894 0.014212992 -0.08563216
0000d0 bc e9 84 bd 7a 6e 9b bd 69 11 77 bd 49 fb e9 bc
       -0.06489894 -0.07589431 -0.060319338 -0.028562205
0000e0 d3 d2 15 bd f1 02 09 bd cc 84 c4 bc de d5 c1 3c
       -0.03657801 -0.03345007 -0.023989104 0.02366155
0000f0 d7 fe de 3d ea 25 49 3d 18 92 0d be e6 2f 99 bd
       0.108884506 0.049108423 -0.13825262 -0.07479839
000100 af 8e 08 be 27 86 d8 3c 98 02 b4 be 79 d8 13 be
       -0.1333568 0.026431156 -0.3515823 -0.14438047
000110 94 8a 3c 3d 05 f1 c7 3d 0f 24 4b 3e 55 51 20 bd
       0.046030596 0.09762768 0.19837974 -0.039140064
000120 ce 13 cc bd 11 47 80 3d 4c 1a b5 3d af 4e 45 bf
       -0.09964715 0.06263555 0.08842906 -0.77073187
000130 cd 0d 4a 3e 81 60 8a 3c a2 b9 8e bc ab 8a 3c 3c
       0.19731827 0.01689172 -0.017422501 0.01150767
000140 ba db 11 bc 90 36 88 bc 18 16 28 3e 22 53 14 3e
       -0.008902485 -0.01662758 0.16414678 0.14484838
000150 2e 2b 5e 3d 55 c6 d3 3d c6 b7 bc bd f2 e3 07 be
       0.054240398 0.10340563 -0.092147395 -0.13270548
000160 08 f7 9c 3c 69 c5 81 3d 90 0c ae bd 06 72 a5 3d
       0.019160762 0.06336481 -0.0849849 0.08078389
000170 eb 09 87 be 65 4a 34 bc c3 96 fc bd e2 29 cd bc
       -0.26374754 -0.011004065 -0.12333443 -0.025044385
000180 c3 64 92 3d 63 93 61 be e7 50 17 bc 77 5d 69 bd
       0.07148125 -0.2202888 -0.009235597 -0.0569739
000190 7e c4 3d 3d e2 fd f2 bd 1b ae de 3d a7 9f 9c bc
       0.046329968 -0.118648306 0.10873052 -0.019119097
0001a0 e7 a3 5a bb 71 7f 40 3c f5 cd cf 3d a0 53 97 bd
       -0.0033361854 0.011749134 0.10146705 -0.07388997
0001b0 71 0e 28 3d bf bc 02 3e 56 bd 91 3d ce c9 06 3e
       0.041029397 0.12767313 0.07116191 0.1316292
0001c0 c9 51 be 39 c7 33 6c bd fd b9 53 bd bf f4 41 3e
       0.0003630056 -0.057666566 -0.051691044 0.1894102
0001d0 4a f6 4b 3d af 70 32 bc 4a b7 8d bd 5f 65 f0 bc
       0.049795426 -0.010891124 -0.06919725 -0.029345213
0001e0 ee 41 f7 3d 2e ca a4 be 48 44 ac 3c eb 53 80 3d
       0.12073122 -0.321855 0.021028653 0.06266006
0001f0 b2 c3 e3 3d 81 80 46 bc ba 4d 1f bd dc 12 11 be
       0.1112131 -0.012115599 -0.038892485 -0.1416735
000200 10 f5 b0 3d 48 69 97 3d 70 66 9f bb d8 a5 b6 bd
       0.08640492 0.07393128 -0.0048645064 -0.08918351
000210 4b 96 c2 3d cc 20 eb 3d 4b 9a 81 bd ca 41 a0 bd
       0.09501322 0.11480865 -0.06328257 -0.07825048
000220 87 08 83 3c e5 18 6f be 30 5a 36 3d 56 47 16 3e
       0.015995277 -0.2334934 0.044519603 0.1467565
000230 41 61 4d be 38 80 d6 3d c8 0e 03 3c 4c bf f8 3c
       -0.2005663 0.104736745 0.00799913 0.030364655
000240 0f 54 df 3d 2c 76 68 3d f7 65 b7 bd 27 dc e0 bd
       0.10904705 0.056753322 -0.08954995 -0.10979491
000250 94 04 9d bc bf 1e 06 bd de 3d 25 be 12 d9 98 3d
       -0.019167222 -0.032744166 -0.16136882 0.07463278
000260 ef 85 78 3d 51 fe 4c 3d 44 0d 79 3d 48 fd 3b bd
       0.060674604 0.050047223 0.060803667 -0.045895845
000270 c7 a2 a4 bd 6c 33 be be 34 88 2a 3d e2 96 28 bc
       -0.0803886 -0.37148607 0.0416338 -0.0102898795
000280 05 9a 05 3d 1a 59 75 bd 61 2e db bc 74 f2 9c 3d
       0.032617588 -0.059899427 -0.026755514 0.07663432
000290 ea de 69 bc c7 07 cd 3c 5c 74 eb 3d c3 ae 28 bd
       -0.014274338 0.025028123 0.11496803 -0.04118229
0002a0 83 cb 08 3d 0b 15 de bc 6b 0b 86 bc 8e d1 51 bd
       0.03339721 -0.027109643 -0.016362866 -0.051225238
0002b0 84 de 65 bd 6b 9f ee bb ec 39 47 3d 43 95 d6 bc
       -0.05612041 -0.0072821877 0.048639223 -0.02619422
0002c0 0d 02 0e bd 18 d6 49 bd 27 14 81 bd 87 e9 e9 ba
       -0.034669925 -0.04927644 -0.06302672 -0.0017846086
0002d0 cd fa cd 3c 1d f4 7d 3c 1d 0c 88 3d 1e 14 42 3c
       0.025144005 0.015500096 0.066429354 0.011845617
0002e0 d1 85 a8 3e d3 f7 8e bc 84 c9 97 3d 4c 6c ab 3d
       0.32914594 -0.017452156 0.07411483 0.08370265
0002f0 4f 20 85 3d 7f b2 58 3d f7 b6 8b bc 75 1b cb bd
       0.06500303 0.052904602 -0.017055018 -0.099173464
000300 26 3d c3 bd 60 c3 56 3d c3 c4 ea bd 14 86 89 3d
       -0.095331475 0.052432418 -0.114633106 0.067150265
000310 ac 08 ec 3d 6f fe 44 bd 66 a0 02 be 5a 45 c3 3d
       0.115250915 -0.04809421 -0.127565 0.09534712
000320 a1 60 86 bd 53 c5 70 3d c0 a3 aa bb 5d e4 a0 3d
       -0.06561399 0.058781933 -0.005207509 0.07856057
000330 f7 65 d2 bd 29 52 c1 3d 6c 16 35 bd d2 9e 88 3d
       -0.102733545 0.09439499 -0.044210836 0.066709176
000340 8e 82 4b 3d ad 7a df bd f2 c6 2b bc b0 de 05 bd
       0.049685054 -0.109120704 -0.010484444 -0.032683074
000350 4f 2f 2b 3d 47 18 a4 bc 26 0d cf bc 51 cc d7 3d
       0.041793164 -0.020031108 -0.025274824 0.10537017
000360 49 38 80 bd 5b 1d b3 bd fb 78 c8 bd f9 77 11 3e
       -0.062607355 -0.087458335 -0.097887 0.14205922
000370 e9 8b 21 3e 72 11 0c 3e 2c 52 6a 3d 80 40 56 bd
       0.15776028 0.1367853 0.05720727 -0.052307606
000380 b4 ff 72 3d db 7b f6 bb 36 90 04 be 9f 5a 5e be
       0.05932589 -0.007522089 -0.12945637 -0.21714257
000390 54 7b 84 3d e5 bd 11 bc 5d 29 84 bc e6 53 0c 3d
       0.064688355 -0.008895372 -0.016133005 0.0342597
0003a0 25 cf 6a 3d 6b be 48 3b bf de be bc 02 11 27 3c
       0.057326455 0.0030631076 -0.023299573 0.010196926
0003b0 e7 e2 22 bd d0 7f 22 bb 27 6b d5 bd b8 4d ed 3d
       -0.039767172 -0.002479542 -0.10420828 0.11587089
0003c0 49 f1 10 be 4a 0c cc bc 8e f1 1c bd 30 a1 23 bb
       -0.14154543 -0.024908204 -0.038316302 -0.0024967901
0003d0 a6 44 96 3d 2e e6 20 bd f3 60 d4 bd 2c b0 9c bd
       0.073373124 -0.039282016 -0.10370054 -0.076507896
0003e0 4a ac c7 3c ca b7 fb bc aa af 99 3c 64 f3 96 3d
       0.024374146 -0.030727286 0.018760521 0.07370642
0003f0 03 39 f9 3d 31 bf 76 3d ac a8 d0 3d 3b 49 a8 3d
       0.12169077 0.060240928 0.101884216 0.082170926

VAE_Decoder.layers.0.linear1.bias f4 [4]
000000 c8 0d c6 3c 19 d4 b8 3c 6d 43 a7 3c 32 b7 4d 3d
       0.024176493 0.022562074 0.020417893 0.050223537

VAE_Decoder.layers.0.norm1.weight f4 [4]
000000 f4 18 8d 3f d4 7e 94 3f 78 64 89 3f 61 21 91 3f
       1.102324 1.1601205 1.0733786 1.1338311

VAE_Decoder.layers.0.norm1.bias f4 [4]
000000 b1 de db bc 34 ee 88 bc d3 c7 b2 3d 98 ca a1 bd
       -0.026839586 -0.016715147 0.0872952 -0.0789997

VAE_Decoder.layers.1.attention.W_q.weight f4 [4, 4]
000000 69 45 87 be 04 0d 2d be b6 d4 c3 be e1 9e e7 be
       -0.26420143 -0.16899496 -0.38248223 -0.45238402
000010 e8 b7 5a be dd 9d 2e 3f cf a5 95 3e 8a 8f 20 be
       -0.21359217 0.6820963 0.29228064 -0.15679756
000020 8c 1d b6 3e cf b1 9d be ca b3 ae be 3d 49 8a 3d
       0.35569417 -0.3079972 -0.34121543 0.0675225
000030 9d 58 9b bd 92 da a5 be 3c 3b b9 3e 68 42 8f 3d
       -0.07585261 -0.32393318 0.36178005 0.06995088

VAE_Decoder.layers.1.attention.W_q.bias f4 [4]
000000 da c8 c8 3d 77 01 b9 3c 14 76 d8 3c e7 1f 0c bb
       0.098039344 0.022583706 0.026423492 -0.002138132

VAE_Decoder.layers.1.attention.W_k.weight f4 [4, 4]
000000 66 a2 1b be b9 72 56 3e 61 a6 ff 3c 99 1a 28 bd
       -0.15198669 0.209422 0.031207265 -0.04104099
000010 c9 63 cd be dd 98 dd 3d 7a 7f 1f be 97 8d 91 b9
       -0.40115193 0.10820172 -0.15575972 -0.00027762048
000020 2e 08 a5 bb 87 65 ce 3e ce 6b 65 be 14 93 cc bd
       -0.0050363755 0.40311834 -0.22404405 -0.099889904
000030 a9 21 fb 3c 37 b8 ab 3d 70 df 0d 3e db 3e 0d 3e
       0.030655699 0.083847456 0.13854766 0.13793509

VAE_Decoder.layers.1.attention.W_k.bias f4 [4]
000000 ce d7 b0 37 af 6e 05 38 85 13 79 38 5d c0 f6 b6
       2.1081327e-05 3.1812753e-05 5.9384405e-05 -7.3537653e-06

VAE_Decoder.layers.1.attention.W_v.weight f4 [4, 4]
000000 29 d0 33 3b 4d 19 84 be 49 9f aa 3e af f3 f1 3d
       0.0027437306 -0.25800553 0.3332465 0.11814057
000010 15 01 75 be 06 aa cd be 25 74 79 3d b2 48 59 be
       -0.23926194 -0.4016878 0.06090178 -0.21219137
000020 a8 bd df bd 87 f5 57 be d5 0d 20 bd bf b0 4d be
       -0.10924846 -0.21089755 -0.03907569 -0.20086955
000030 a5 5f 3e 3d 6f f3 76 bd 06 3a 86 3d fa 24 f5 3c
       0.046477932 -0.06029075 0.06554036 0.029924858

VAE_Decoder.layers.1.attention.W_v.bias f4 [4]
000000 85 53 c1 3c 92 2f 5f 3c 7c a7 ab 3b 85 f8 fa bc
       0.023599396 0.0136221815 0.0052384716 -0.030636081

VAE_Decoder.layers.1.linear0.weight f4 [128, 4]
000000 04 b6 9d be 27 27 63 be f2 c0 8d be 3a 48 9d 3e
       -0.3080293 -0.22182904 -0.27686268 0.30719167
000010 ce 5f f6 bd 2e d6 7b 3d 74 9a e5 be 44 75 e3 3e
       -0.12029992 0.061483555 -0.448444 0.44425404
000020 56 04 74 3e ea 50 b8 be fb ea 0c bf fd e9 fe 3e
       0.23829779 -0.35999233 -0.5504605 0.49787894
000030 d9 21 b3 be 5f 71 dd 3d bf 92 82 3f e0 27 2f 3e
       -0.3498676 0.108126394 1.0201033 0.17105055
000040 1d e2 16 be c6 fb 04 3d 83 88 11 3e d3 00 94 bd
       -0.14734693 0.032466672 0.14212231 -0.0722672
000050 5e 56 af 3e c8 e1 5f 3e 95 c9 89 be 25 0f 1f bf
       0.3424558 0.21863472 -0.26911607 -0.62132484
000060 e6 f6 0b bf cb 85 09 3e 38 85 80 be 3d e0 a7 3e
       -0.5467361 0.13429944 -0.25101638 0.32788268
000070 f4 5f 0d bf 0f f8 67 3e 06 c3 97 be 2f 03 85 3d
       -0.5522454 0.2265322 -0.2964098 0.06494748
000080 02 94 46 be 46 e4 e2 3e e5 01 75 bc d6 21 ee be
       -0.19392398 0.44314784 -0.014954065 -0.4651019
000090 1e 85 02 3e 0e 5a 85 3c a6 a4 69 3c ba 55 34 bc
       0.12746093 0.016278293 0.014260447 -0.011006767
0000a0 ec 1d 1d bf 1e d2 f4 3e 9e e0 d5 3e 04 d7 53 3e
       -0.6137378 0.47816557 0.41772932 0.2068749
0000b0 20 98 73 3e d9 19 83 3e cd ea 0e bf fd 46 90 be
       0.237885 0.25605658 -0.5582703 -0.2817916
0000c0 21 e2 67 3e 3a 6a b6 3e a0 a2 1b be 50 d5 c2 be
       0.22644855 0.3562792 -0.15198755 -0.3805337
0000d0 d7 6d da 3e 10 90 8c bd 59 e5 f8 be e0 ff e7 be
       0.42661926 -0.06863415 -0.48612478 -0.45312405
0000e0 90 a3 fa be 10 3c ba 3d ad 9b e3 3d 2b d2 b5 3e
       -0.48952913 0.09093487 0.11113677 0.35511908
0000f0 60 cd bd be ad 9a 45 be db 68 ea 3d a0 2b d8 3e
       -0.3707075 -0.19297285 0.11445781 0.42220783
000100 42 52 0b 3f 72 21 dd bd c4 72 c2 be 1d b8 88 bd
       0.5442239 -0.10797395 -0.37978184 -0.06675742
000110 9a ff e3 be 64 3c c6 3e a4 6b bb 3d bf 40 df be
       -0.44530946 0.3871795 0.0915139 -0.43604085
000120 d8 32 4d 3e b4 e6 c4 3e b4 cf 80 be ba dd 60 be
       0.20038927 0.38457263 -0.25158465 -0.21959582
000130 e3 20 f0 be 15 13 5c be 44 3e 07 3e 15 2c 02 be
       -0.4690009 -0.21491654 0.13207346 -0.12712128
000140 ab ff 94 be 63 ad ce be 77 9e 63 be bc 6b 9c be
       -0.2910131 -0.4036666 -0.22228418 -0.30550945
000150 d5 7e f0 be aa 86 00 3f 31 f9 cb be a6 3b af be
       -0.46971765 0.5020548 -0.39838555 -0.34225196
000160 b1 ea 81 be f8 99 fc be 8b ec 03 bd 80 7b e0 be
       -0.25374368 -0.4933622 -0.032208007 -0.43844223
000170 3a f7 18 3f 22 d0 bc be e5 48 04 bf 7e 35 9c 3e
       0.5975224 -0.36877543 -0.5167373 0.3050956
000180 dd 2b 5a bc 55 bc d0 be c6 06 36 3d ed e4 e4 3e
       -0.013316122 -0.40768686 0.044440053 0.44705907
000190 fc ef 27 3c cb 99 55 bf c0 24 08 3e b1 a4 1c be
       0.010250088 -0.83437794 0.13295269 -0.152972
0001a0 c3 46 23 3d 8b 29 b4 3e a0 da c8 3d 5e 6e 0d be
       0.039862406 0.35187945 0.098073244 -0.13811633
0001b0 c0 e9 93 3e 16 51 b4 be b9 15 0d bf e5 8b ce 3e
       0.28889275 -0.35218114 -0.5511127 0.40341106
0001c0 f6 2d 02 bf c5 26 e0 3e 06 8f c9 3e 21 15 cf be
       -0.5085138 0.4377958 0.3936693 -0.40445808
0001d0 0d 7f f8 bd b2 4a b9 be d4 9d d8 bd f1 02 c3 be
       -0.12133608 -0.361898 -0.10576978 -0.38088182
0001e0 5f e0 a8 bd 84 b2 4c be 2f 53 da be 18 36 0e 3f
       -0.082459204 -0.19989973 -0.4264159 0.5555129
0001f0 d9 63 a6 3d 0e 7b ff 3e 42 cd c0 bd a7 3b fc be
       0.08124513 0.4989857 -0.0941415 -0.4926426
000200 80 33 b1 be ee e2 a9 3d 92 0e 37 3f 60 4c cb be
       -0.34609604 0.082952365 0.7150661 -0.39706707
000210 9a ad 1d be e9 53 bf be 33 6d 24 3e 6a e3 6c be
       -0.15398255 -0.37368706 0.16057281 -0.23133627
000220 13 1d a1 be 10 8f ef 3e db 0f 13 be 0f ec 17 bd
       -0.31467494 0.46788836 -0.14361517 -0.037090357
000230 4b 2c 86 be 99 a0 4c be bc 0b 19 3d 2b 87 1e 3f
       -0.26205668 -0.19983138 0.037364706 0.61925
000240 07 90 92 be 5c 9b cd be c5 9f 52 bd d6 30 b2 3e
       -0.2862551 -0.40157592 -0.0514219 0.34802884
000250 5d b1 06 bf b6 8e 32 3e ae a8 b4 3e 77 60 28 3e
       -0.52614385 0.17437252 0.35284942 0.16443048
000260 05 c4 de 3e b0 ac c5 3e 82 db 03 3d e9 40 57 3e
       0.43508926 0.38608313 0.03219176 0.21020855
000270 34 87 1e 3f 45 30 c3 bd f8 b2 47 be 06 b4 10 bf
       0.61925054 -0.09530691 -0.19501865 -0.56524694
000280 17 30 f8 bd f0 8a 80 be 18 59 ad be f4 a9 be be
       -0.121185474 -0.25106 -0.33857036 -0.3723904
000290 6f 7c df be e3 4b da bd ab 5f 55 3c e1 ea e0 be
       -0.43649623 -0.106590055 0.013023297 -0.43929198
0002a0 e6 60 a1 3e 94 fe 5c be eb 70 97 bd 66 32 e8 3d
       0.3151924 -0.21581489 -0.07394584 0.11337738
0002b0 35 1c 18 be 18 0b c5 3e fb 03 d8 be bc cd 87 bd
       -0.1485451 0.38485026 -0.42190537 -0.066310376
0002c0 91 9c d1 3e 71 c5 2a bf e3 c8 14 3e b3 c3 25 3d
       0.40939763 -0.6670752 0.14529757 0.040469836
0002d0 d2 ca e5 bd e9 8b 0e 3f e1 7e 6c 3d ef 4d 22 be
       -0.112203255 0.55682236 0.05773819 -0.15850042
0002e0 43 2b 2f 3e 16 66 c2 3d 36 ce 5b 3d 31 1b e9 be
       0.17106347 0.094921276 0.053663455 -0.45528558
0002f0 6b 70 06 3f b1 b6 fa be 5a d0 ba be 9e c5 ef 3e
       0.52515286 -0.48967507 -0.36487085 0.46830457
000300 f4 22 2b bd ec 1a ee bd fd f3 fb 3e 3e 5e 02 3e
       -0.04178138 -0.11626229 0.49209586 0.12731263
000310 2e ed 9f bc c5 62 ae bc 2d 63 dd 3d 47 30 2e be
       -0.019522276 -0.021287331 0.10809932 -0.17010604
000320 0e 5a ed be e7 f1 12 3f 0b a9 d0 3e 9e 0a 05 bf
       -0.4635777 0.57400364 0.4075397 -0.51969326
000330 ef a6 f0 3e 48 60 7f be 1d ab 81 3d 0a f9 d9 bc
       0.4700236 -0.24939072 0.063314654 -0.026608009
000340 59 b8 0c bf 65 01 80 3e 94 64 8e 3c 45 f8 4f 3e
       -0.5496879 0.25001064 0.017381944 0.20309551
000350 bf b9 3f be 96 66 ad 3e a3 b8 99 bd a3 69 b6 3e
       -0.187232 0.3386733 -0.0750592 0.3562747
000360 5c b8 01 be 0a df 32 3e 53 a6 82 bd 68 97 86 be
       -0.12667984 0.17467895 -0.0637938 -0.2628739
000370 48 cc c5 3e 1b ac 9c be 8f ff f4 bd cb 99 87 3e
       0.38632417 -0.30600056 -0.119628064 0.26484522
000380 a4 24 d7 bd dd 2c 16 bf 40 9d 99 3e 99 45 f9 be
       -0.105050355 -0.58662206 0.30002785 -0.4868591
000390 00 16 5a bc f4 bc 4a be 60 31 5e be 88 77 11 be
       -0.013310909 -0.19798642 -0.21698523 -0.14205754
0003a0 5f fc 02 3f ad 76 98 3e 75 7a c6 3d 7f 9a 10 3e
       0.5116634 0.29778042 0.096913256 0.14121436
0003b0 6f c5 e0 be 14 a9 04 bf 55 66 54 3e 00 27 8c 3e
       -0.4390063 -0.5182049 0.20742162 0.27373505
0003c0 06 97 80 3e 61 f9 06 3e 29 91 09 3d a8 03 a7 be
       0.25115222 0.13181068 0.0335857 -0.32619977
0003d0 a4 7e c4 3e 04 d4 26 3d d7 5b 3c 3e f2 83 f1 be
       0.3837787 0.040729538 0.18394409 -0.4717098
0003e0 e7 29 e4 3e 99 8a 3d bf 31 d2 1c 3d 4a ca b2 3b
       0.4456322 -0.7403961 0.03828639 0.0054562436
0003f0 56 02 a6 be c8 7b 08 3f e8 44 13 3e 9e 91 cc be
       -0.32423657 0.53313875 0.14381754 -0.39954847

VAE_Decoder.layers.1.linear0.bias f4 [128]
000000 cf 08 6b bd 31 f1 8e bc e7 7f ff 3e c0 ca b8 be
       -0.057381447 -0.017448993 0.4990227 -0.36092186
000010 79 a9 b6 3e 74 40 2c 3e ad d5 9f 3e ab 89 53 3e
       0.35676172 0.16821462 0.3121771 0.20657985
000020 9f ce d7 3d 4b 55 c2 3e 7e a0 9f 3e db dc d7 be
       0.10537457 0.37955698 0.31177133 -0.42160687
000030 ae 4d 60 ba 25 07 14 3e cb e2 38 3e fb b7 68 3e
       -0.0008556497 0.1445585 0.18055265 0.22726433
000040 7b 75 cc 3e fd de 94 3e ce fc 0a be 29 ad 07 3f
       0.3993338 0.29076377 -0.13573 0.52998596
000050 b7 60 b1 be 03 a7 94 be dd a6 54 3e fb d3 fb 3e
       -0.346441 -0.2903367 0.20766778 0.49185166
000060 bf 7a b5 bd 49 7f bb 3d 55 9e c9 bd c2 10 26 3d
       -0.088613026 0.09155137 -0.098446526 0.040543325
000070 7e ab 06 3e 02 d5 a9 3d 7e b7 90 be 8a 97 96 3e
       0.13151357 0.08292581 -0.28264993 0.2941249
000080 a8 06 ae be 92 43 0e bd 74 95 ad be 55 bf 9b be
       -0.33989453 -0.03473241 -0.33903086 -0.30419412
000090 5e c4 8a 3e 0d f5 f6 3e 8e 82 55 be 97 8e c2 be
       0.2710294 0.48233834 -0.20850584 -0.37999412
0000a0 00 eb 85 3e 55 50 09 3f 6d 55 82 3e 8c 16 17 bd
       0.26155853 0.536382 0.254558 -0.036886737
0000b0 f1 25 33 3e d3 a3 2e bc 70 24 33 be 4d 5c fb 3e
       0.17494942 -0.010659176 -0.17494369 0.49093857
0000c0 f0 d6 1f be 58 4e c8 be d0 c9 19 be c7 4a d0 3e
       -0.15609336 -0.39122272 -0.15018392 0.4068205
0000d0 f6 43 15 be a2 5c 02 be 85 d6 18 3e eb 0b dc 3e
       -0.14576706 -0.12730649 0.14925583 0.42977843
0000e0 b2 e3 54 bd c0 be e6 be ef 33 bb 3e ea 53 d2 be
       -0.05197496 -0.45067406 0.3656306 -0.41079646
0000f0 ab d3 e7 3e ba 0f 60 be 97 8e a9 3e ad 11 42 be
       0.45278677 -0.21880999 0.331166 -0.18952055
000100 ac 9b d3 3e 76 31 02 3e 4f 0a bf 3e 7b b9 b4 3e
       0.41329706 0.1271418 0.37312552 0.3529776
000110 fa 0d cc bc 64 0c 9c 3e 85 39 05 3e b4 7e 0a be
       -0.024909008 0.30478203 0.13010223 -0.13524896
000120 2c ec 0a be ed f5 94 3d 7f 4d ab 3e bb 9d 89 be
       -0.13566655 0.07273469 0.33457562 -0.2687815
000130 e5 3f c8 be 02 88 07 3f 0b 73 6a be 37 5f b4 3e
       -0.39111248 0.52941906 -0.22895448 0.35228893
000140 23 a6 eb 3e fe fe 8a be 6b 74 12 be de b8 0d be
       0.4602519 -0.2714767 -0.14302222 -0.13840052
000150 21 e9 d3 3e e9 b6 cc 3e 31 fd 45 3e 95 1b 53 3e
       0.413888 0.399833 0.19334866 0.2061599
000160 39 37 08 3d b5 be be be 34 20 62 be 32 8e c4 3e
       0.03325579 -0.37254873 -0.22082597 0.38389736
000170 74 cc 0e bf d9 94 20 be 1e 0d a9 3e 76 a9 32 bd
       -0.5578072 -0.15681781 0.3301782 -0.04361864
000180 93 6a 92 3e da e8 ca be 42 79 2f be a8 21 eb 3e
       0.28596935 -0.39630777 -0.171361 0.45924115
000190 93 5f 1e bf e3 10 10 3e ee 59 8f be dd 5c 8d 3d
       -0.61864585 0.14068942 -0.27998298 0.06902478
0001a0 b2 fc a7 be 73 ee c7 bd 6e 39 61 be d4 1e 66 3d
       -0.3280998 -0.097622775 -0.21994564 0.056181744
0001b0 5a 14 9c be a5 0d ce 3e 81 de f0 3e b2 f9 76 3e
       -0.30484277 0.40244785 0.47044757 0.24118689
0001c0 12 18 b1 3e ed db 01 3f 7b 36 af be 51 4f 96 3e
       0.34588677 0.50726205 -0.34221253 0.2935739
0001d0 6c f6 d8 be 3b 8b 63 3d a5 9a ac bd 7e cf ed 3e
       -0.42375505 0.055552702 -0.084279336 0.46447366
0001e0 2b 9e c1 bc 00 d3 b2 be a1 28 92 3e e0 c6 0a be
       -0.02363499 -0.34926605 0.28546622 -0.13552427
0001f0 ea fb 53 be cb 9c 32 3e b9 31 83 be dc 40 f2 bd
       -0.20701566 0.17442624 -0.25623873 -0.11828777

VAE_Decoder.layers.1.linear1.weight f4 [4, 128]
000000 aa ce 12 be 04 92 06 3d 2f f4 fb bd ea a5 8e be
       -0.14336649 0.032854095 -0.12302434 -0.27860957
000010 52 6d 0f 3e 61 90 8b 3d 9f 28 71 3b 20 d9 0b be
       0.14006546 0.068146475 0.0036797894 -0.13657045
000020 e7 24 cf 3c 14 73 44 3d 96 5c ad bd 29 57 07 bd
       0.025286151 0.04796131 -0.08464925 -0.033042107
000030 53 e5 8e 3e f8 d8 64 3d a3 20 ca bd 41 9d 27 bd
       0.27909335 0.05587098 -0.09869506 -0.040921453
000040 c0 c6 19 bd 75 ad e8 bc 98 30 39 3d 23 b4 b5 bd
       -0.03754306 -0.028403023 0.04521236 -0.08872249
000050 0b 77 de 3c 53 0f 2c 3e 54 ca 3f 3e 81 db 0e bd
       0.027156373 0.1680272 0.18729526 -0.034877304
000060 8f 61 3b bd 42 e2 d6 3d df 92 e8 3d d3 dc 18 be
       -0.045747336 0.10492374 0.113561384 -0.14927988
000070 9a f8 4e bc 3a 9e 89 3d 34 d2 1c be 69 21 1f 3e
       -0.012632513 0.067196324 -0.15314561 0.15540089
000080 8f 1d c6 bd 80 bb ea bc 98 21 44 3e e1 41 d7 bd
       -0.096736066 -0.02865386 0.1915344 -0.10510612
000090 2f 79 57 ba 63 3b 3e be 11 75 0a 3d c3 29 ff 3d
       -0.0008219657 -0.18577342 0.03380305 0.12459137
0000a0 63 dc 01 3e cb 97 ca 3d 54 fc 8f 3c 93 3f 7a bd
       0.12681727 0.098922335 0.017576374 -0.061095785
0000b0 00 45 8f 3d 00 c8 eb 3d fe 23 57 3d f6 ab 62 bd
       0.069955826 0.11512756 0.05252456 -0.055339776
0000c0 e8 5f c3 3d 67 5c e7 3c 27 3d 34 bb 83 8a ac 3a
       0.09539777 0.028242303 -0.002750227 0.0013163838
0000d0 0e c9 22 be 9f 30 29 be 6b 47 2d 3e 19 d5 d0 3c
       -0.15897009 -0.16522454 0.16921775 0.025492238
0000e0 1c 15 33 3e 60 14 ca bb 50 10 c7 3d 56 03 74 be
       0.17488521 -0.0061669797 0.09719908 -0.23829398
0000f0 1e b9 03 3e 48 a4 39 3a 9f 70 30 3e 84 60 bc 3d
       0.12863585 0.000708167 0.17230462 0.091980964
000100 82 da 11 bc 82 86 dd 3d cb 54 b3 bd 9c f1 88 3f
       -0.008902194 0.10816671 -0.08756407 1.0698733
000110 bd e7 05 be fe 5a 85 bd c9 09 3d 3e 5e ed 43 bd
       -0.13076682 -0.06511496 0.18460764 -0.047833793
000120 08 de 30 3e 8a 18 a0 bd e1 3d a4 3b 55 7a 56 be
       0.17272198 -0.078171805 0.0050122594 -0.20945103
000130 77 a3 e9 bd 11 9f 12 3d 69 3e c4 bd 9f 52 b5 3d
       -0.114081316 0.03579623 -0.09582216 0.08853649
000140 56 40 2a bd f0 f8 08 3e 31 54 f5 bc 31 b3 8b 3d
       -0.04156526 0.13376212 -0.029947372 0.068212874
000150 fb 09 e0 bd 50 5d dd 3d 64 04 1b 3d 5c 9b 10 be
       -0.109394036 0.108088136 0.037845984 -0.14121765
000160 d2 72 65 3c 0d 9a 43 be ea 9e 33 bb ec fa bd 3c
       0.014004426 -0.19101734 -0.0027407953 0.023190938
000170 07 6c df 3d 95 c5 6f 3d c0 ca a3 bc aa ab ea bc
       0.109092765 0.05853804 -0.01999414 -0.028646309
000180 7c 13 b3 3d 81 a7 29 bd df 91 8c bd 4f b3 76 3c
       0.08743951 -0.04141951 -0.0686376 0.015057399
000190 ee 34 51 3d f3 5b 89 3d 4d 84 a8 3d c1 fc 21 bf
       0.05107587 0.06706991 0.08228359 -0.63276297
0001a0 cc e8 58 3d c4 0b 27 be c4 33 da 3d bf 8e 8a bc
       0.052956387 -0.16313082 0.10654405 -0.01691377
0001b0 c2 37 f7 bd 15 73 f5 bc fb c8 e7 3c 52 8f 98 bd
       -0.12071182 -0.029962102 0.028294077 -0.07449211
0001c0 b7 47 c7 bd a3 a9 c5 bd af 4c 99 bc bd ff 0e 3d
       -0.097304754 -0.09651496 -0.018713323 0.03491186
0001d0 0b 13 14 3d 12 ed 14 3e 9f 75 52 3e 6b b8 dc 3d
       0.036150973 0.1454356 0.20552681 0.107773624
0001e0 72 2b 63 3d b5 7e fb bd b3 ad af bc ce fd 14 bc
       0.055461355 -0.12280027 -0.02144513 -0.009093715
0001f0 3a f0 bf 3d 24 8e 97 3c 20 49 22 3a da 80 5d 3d
       0.093719915 0.018500395 0.0006190706 0.05407796
000200 91 a4 30 bd c6 d5 0b bd 6c d1 1d ba 86 5c 6e 3e
       -0.043125693 -0.034139417 -0.0006020281 0.23277482
000210 d8 0f 43 bd ed 94 64 bd 17 29 e5 3c 1b 65 8e 3d
       -0.04762253 -0.05580609 0.027973695 0.06952878
000220 56 22 0f 3c 6f 9b 04 bd 63 3f d9 3d fa d8 a2 bd
       0.008736214 -0.032374796 0.10607793 -0.07951541
000230 1b 1c 24 be 38 71 94 bd e2 ce 2b bc f9 0b 00 3d
       -0.16026346 -0.07248157 -0.010486336 0.031261418
000240 89 0f 04 be d1 a7 1b 3e b6 5d 12 3c 73 6c 8f 3d
       -0.12896551 0.15200736 0.008933475 0.07003107
000250 03 ec 10 3c f3 d0 e3 3d c5 9d 7b bd 48 f7 09 be
       0.008845332 0.11123838 -0.061429758 -0.13473237
000260 b8 95 00 bd 9f 3f 7f bd 67 a5 31 bd 99 01 9c bd
       -0.031392783 -0.062316533 -0.04337063 -0.07617492
000270 c4 d2 e4 3d 63 fc ea bd 62 8b 3d bd 1d 62 6b 3c
       0.11173013 -0.1147392 -0.046275504 0.014366654
000280 d6 ef 46 3e ae 94 89 3c 3a 64 ef 3b 50 14 65 3d
       0.19427428 0.016794529 0.007305649 0.055927575
000290 3f 05 1c bd 89 ef f6 3d 28 32 a4 bd 3f b6 1d bc
       -0.03809094 0.120574065 -0.08017379 -0.00962597
0002a0 1d 73 1f bd 6b 28 c8 3d 4f 04 4f bb a5 a8 18 3e
       -0.03892814 0.09773334 -0.0031588261 0.14908083
0002b0 2f 67 cf bd 57 be 04 3e 6c 55 0c 3c a1 75 d1 bd
       -0.101271026 0.12963234 0.008565288 -0.10227514
0002c0 e0 58 8a 3d 40 eb c7 3b e8 a0 e0 3d b2 73 6a bd
       0.06755233 0.006101042 0.109681904 -0.057239242
0002d0 49 e6 02 3e e2 77 c5 3d 22 18 d5 3d af 9f 88 bc
       0.1278316 0.096420065 0.104049936 -0.016677706
0002e0 27 bc 01 3d 2f af 83 3c 2f 9a 9a bd f6 d0 a2 bd
       0.031673577 0.016074745 -0.075489394 -0.079500124
0002f0 f4 0c 7f bd 87 19 f3 bd 4a 29 9f bd eb 76 50 bc
       -0.062268212 -0.11870103 -0.07771547 -0.012723665
000300 ee 16 fc bd bb 5b 92 3b 3b 31 ed bd af 2c 98 be
       -0.12309061 0.0044665015 -0.115816556 -0.2972159
000310 51 ab 39 3b e0 39 39 bd ef 01 ad bd 0c 29 57 be
       0.0028330872 -0.04522121 -0.084476344 -0.21011752
000320 52 68 a5 3c 45 f6 f8 3d e5 a0 c6 3d a6 61 a7 be
       0.020191345 0.12156347 0.09698657 -0.32691687
000330 bd 85 c5 3d 80 45 03 be 65 9c c5 3d 73 2d fe bd
       0.09644649 -0.12819481 0.096489705 -0.124110125
000340 ed e7 02 3e 46 55 02 3e 97 3d 87 bd 4f 9f 47 3c
       0.12783785 0.12727842 -0.06603544 0.012183978
000350 97 12 9e 3d 18 d3 99 3d fd 66 7f bd 65 0e 9b bd
       0.077183895 0.07510966 -0.062354077 -0.07571105
000360 ed ec 64 be ce 51 5f 3e da de 18 3d 7e b3 15 bd
       -0.22356005 0.2180855 0.037321903 -0.03654813
000370 85 54 31 3d 95 59 1e 3e 12 d8 7e bd 49 77 27 bc
       0.043293495 0.1546386 -0.06221778 -0.010221311
000380 a3 4d 18 3d d9 f7 4d 3d 70 f2 26 3d 3a e5 15 be
       0.037183415 0.050285194 0.04075855 -0.14638224
000390 25 2f bc be 5a 85 a5 bd 37 09 0b 3d 4e 67 24 3f
       -0.36754718 -0.080820754 0.033944335 0.6422013
0003a0 57 a5 07 3d af 62 85 3c 34 8f 4a bd 8c 65 6f bc
       0.033116665 0.016282408 -0.049452975 -0.014611613
0003b0 11 d3 81 3e 0d ff 26 3b 7c a9 bb 3d 6f 84 00 bd
       0.25356343 0.0025481612 0.09163186 -0.0313763
0003c0 0b a4 b3 bd a7 ac b5 3d e6 97 ac bd 8b 29 2f 3d
       -0.08771523 0.088708214 -0.0842741 0.042764228
0003d0 94 24 7f bd cc 8e 74 bc b4 34 28 bd 8e 9a 64 3c
       -0.062290743 -0.014926624 -0.041065887 0.013952864
0003e0 b2 64 77 be 99 8f 25 3c e4 d0 a7 3d 5b 1f 39 3b
       -0.24159506 0.010105037 0.081941396 0.002824745
0003f0 71 24 8e 3d 1f 0c ac bd 60 9e 66 bd 76 ff 06 be
       0.069405444 -0.084007494 -0.056303382 -0.13183388

VAE_Decoder.layers.1.linear1.bias f4 [4]
000000 da ff 31 bd 8f ec 94 3d 75 bd 71 bd 39 d6 c6 bd
       -0.04345689 0.072716825 -0.05901857 -0.097088285

VAE_Decoder.layers.1.norm1.weight f4 [4]
000000 1b eb 92 3f 2d 1a 9f 3f 61 ee 80 3f ca c4 9a 3f
       1.1477998 1.2429863 1.0072747 1.2091305

VAE_Decoder.layers.1.norm1.bias f4 [4]
000000 77 b8 19 bd 26 b4 98 3d 60 ac b7 3d 12 0e 2f be
       -0.037529435 0.074562356 0.08968425 -0.17095211

VAE_Decoder.layers.1.norm0.weight f4 [4]
000000 7f 3a 5f 3f e5 e7 6f 3f d9 a4 88 3f 7b fc 47 3f
       0.8719863 0.9371322 1.0675308 0.7811963

VAE_Decoder.layers.1.norm0.bias f4 [4]
000000 68 25 ad bc ca ef bd bc e3 e8 db 3b fa 1c 4a bb
       -0.021136 -0.02318563 0.006711112 -0.0030840025

VAE_Decoder.last_normalization.weight f4 [4]
000000 00 00 80 3f 00 00 80 3f 00 00 80 3f 00 00 80 3f
       1.0 1.0 1.0 1.0

VAE_Decoder.last_normalization.bias f4 [4]
000000 00 00 00 00 00 00 00 00 00 00 00 00 00 00 00 00
       0.0 0.0 0.0 0.0

VAE_Decoder.head.weight f4 [4, 4]
000000 52 b7 94 be 34 7c 4f 3e 3c 43 af 3e d0 01 14 be
       -0.29046112 0.20262223 0.34230983 -0.14453816
000010 74 b4 aa 3e 78 e1 1e 3e 56 7f f7 3e 8e 03 ac be
       0.333408 0.15515697 0.48339337 -0.33596462
000020 3c f9 db 3e 74 cb 0d be 60 b6 d7 bc ca 96 c0 be
       0.42963588 -0.13847142 -0.02633208 -0.37615043
000030 54 b0 fb 3e 28 6d e4 be 74 71 f4 be a8 a5 d0 be
       0.49157965 -0.4461453 -0.47742808 -0.40751386

VAE_Decoder.head.bias f4 [4]
000000 ca 8d 8c be 40 a0 bf 3c c0 bc 9f bd dc 20 59 be
       -0.27451926 0.023391843 -0.07799673 -0.21203941

Detokenizer.weight f4 [11, 4]
000000 30 ad 92 3e e0 25 74 3e fc df 77 3e 90 aa 2d 3b
       0.28647757 0.23842573 0.24206537 0.0026499368
000010 26 2d 98 3d 09 61 b6 be 76 0f 11 be fd 1b 96 be
       0.074304864 -0.35620907 -0.14166054 -0.29318228
000020 21 cb 66 be cf ba fa 3e 46 c1 e4 3e 9b 4f ef bd
       -0.22538425 0.4897065 0.44678706 -0.116851054
000030 79 64 ab 3b f8 ff 70 3d 45 f9 95 be 61 ae 1f 3f
       0.005230483 0.05883786 -0.2929174 0.62375456
000040 83 1d b4 3e 77 dc 9c be e5 1b 1c 3e 1e 95 2a 3c
       0.35178766 -0.3063695 0.15245016 0.010411529
000050 6e 84 2c be fb 28 b7 be d8 fe 95 3e 4c 4d c6 be
       -0.16847393 -0.35773453 0.29295993 -0.38730848
000060 63 a7 61 be 26 42 5f bd d3 4d ce be b0 b0 d2 3d
       -0.22036509 -0.054506443 -0.4029375 0.10287607
000070 54 af a3 be c9 ca 63 3e 84 67 3f be f9 8d 75 3e
       -0.31969702 0.22245325 -0.18691832 0.2397994
000080 e6 7d 6f 3e 6e 6d 86 3e d9 b7 75 be 5e a8 d3 3e
       0.2338787 0.26255363 -0.23995914 0.4133939
000090 d6 3d 6f 3e 13 8d a8 be 6b 53 98 3e 39 9e 98 3b
       0.23363432 -0.3292013 0.29751143 0.0046575335
0000a0 8c ab 05 3e 90 04 99 be 84 77 b4 be 21 79 92 be
       0.13053721 -0.29886293 -0.35247433 -0.2860804

Detokenizer.cat_recons.0.weight f4 [3, 4]
000000 4d d8 13 bf 11 a8 54 3f 94 30 f1 be c5 a5 21 3f
       -0.57751924 0.8306895 -0.47107375 0.6314357
000010 5a d3 75 be 5c 35 87 bf fb 3e 1e 3c 58 ce 74 be
       -0.24006405 -1.0563159 0.00965857 -0.23906839
000020 5a fd b4 3f b5 54 24 3f 50 72 a6 3e 8a 49 af 3a
       1.4139817 0.6419175 0.3250909 0.0013373357

Detokenizer.cat_recons.0.bias f4 [3]
000000 f4 85 e3 be c0 8a 0f 3e d3 b0 e1 be
       -0.44438136 0.14017773 -0.4408022
