restsyn/tabsyn/vae/ckpt/cardio_cond/encoder.pt (torch, 22192 bytes, 33 tensors)

Tokenizer.weight f4 [12, 4]
-0.2305845 0.3671496 0.54916286 0.05761712 0.21730544 0.1534405 0.25783554 -0.035224967
0.22292036 -0.1483468 -0.2368009 -0.06466821 -0.24339572 0.27708828 0.561873 0.23375079
-0.35955772 0.021236323 -0.107803755 -0.018954843 0.3690662 0.0902266 0.15799434 0.036386605
0.11348572 -0.28213638 -0.17317666 -0.27804998 0.09126782 -0.2804287 -0.30665424 0.2810959
-0.23264672 0.1725147 0.026224393 0.1489408 -0.14538167 0.21691237 0.18364225 0.0757546
0.22158782 0.08970364 0.08169549 -0.2379978 0.17154135 -0.345833 -0.36172134 -0.15159848
00000000: 581e 6cbe 08fb bb3e f095 0c3f eeff 6b3d
00000010: 5185 5e3e 821f 1d3e 0503 843e 0e48 10bd
00000020: 3c45 643e 39e8 17be ef7b 72be c470 84bd
00000030: ba3c 79be 84de 8d3e e9d6 0f3f 5e5c 6f3e
00000040: f317 b8be ccf7 ad3c 37c8 dcbd 3047 9bbc
00000050: 3ff6 bc3e b9c8 b83d 45c9 213e 1f0a 153d
00000060: 336b e83d 2e74 90be 3955 31be 915c 8ebe
00000070: 9fea ba3d 5a94 8fbe c901 9dbe cdeb 8f3e
00000080: f13a 6ebe b2a7 303e 8ad4 d63c f083 183e
00000090: efde 14be 471e 5e3e b70c 3c3e 3a25 9b3d
000000a0: ebe7 623e 8bb6 b73d f74f a73d b2b5 73be
000000b0: 89a8 2f3e 0611 b1be 8a33 b9be a23c 1bbe

Tokenizer.bias f4 [12, 4]
-0.37496004 -0.57495767 -0.47056863 0.29867107 -0.020018987 -0.13577405 0.26298568 0.13827431
0.12562291 -0.081275016 0.069587015 0.40967786 -0.06980108 0.0027629568 -0.29418418 0.3394745
-0.42261007 0.20777526 -0.34549335 0.41861397 0.12388869 -0.11468551 -0.44815764 -0.33663702
0.38798222 -0.60079443 -0.14567171 0.09010937 -0.06818044 0.3579266 0.32218823 -0.0071194926
-0.17422919 -0.4795107 0.4715891 0.1706399 -0.055639382 0.49426627 0.3541176 -0.07217274
-0.26313013 0.033041596 0.51076096 -0.31849986 0.013067784 -0.36886877 -0.12863575 0.24742928
00000000: c3fa bfbe 6d30 13bf 5fee f0be 6aeb 983e
00000010: dcfe a3bc 5a08 0bbe 0fa6 863e c897 0d3e
00000020: 4ba3 003e 8473 a6bd a383 8e3d 4cc1 d13e
00000030: def3 8ebd b912 353b 4f9f 96be 9acf ad3e
00000040: 5960 d8be 0ac3 543e 81e4 b0be 9254 d63e
00000050: 5ab9 fd3d 3de0 eabd eb74 e5be b05b acbe
00000060: 9ba5 c63e aacd 19bf f72a 15be 438b b83d
00000070: 30a2 8bbd 2842 b73e dbf5 a43e a24a e9bb
00000080: 2369 32be 6d82 f5be 2074 f13e 3abc 2e3e
00000090: 1fe6 63bd 7810 fd3e e74e b53e 4dcf 93bd
000000a0: feb8 86be a056 073d 3bc1 023f 6a12 a3be
000000b0: 421a 563c 5edc bcbe 17b9 03be 1a5e 7d3e

Tokenizer.category_embeddings.weight f4 [3, 4]
-0.39585292 -0.07741771 0.41134354 0.57804066 0.36261544 -0.90774673 -0.4011314 -0.35005137
-0.09325343 0.32010433 0.3074924 -0.32527775
00000000: 3cad cabe 2d8d 9ebd 9f9b d23e 79fa 133f
00000010: bba8 b93e 1762 68bf 1861 cdbe ef39 b3be
00000020: a8fb bebd b7e4 a33e a56f 9d3e ce8a a6be

VAE_Encoder.layers.0.attention.W_q.weight f4 [4, 4]
0.1484162 -0.41567457 0.23678094 0.2647802 0.44627804 -0.2568656 -0.10064219 0.25517562
0.35074413 0.48829964 0.2543026 -0.3083702 0.36730707 -0.44126305 0.17411079 0.12429278
00000000: 6bfa 173e 4cd3 d4be b476 723e 4591 873e
00000010: 8e7e e43e e383 83be 7e1d cebd 61a6 823e
00000020: bc94 b33e 6902 fa3e f333 823e b3e2 9dbe
00000030: ac0f bc3e 3bed e1be 194a 323e 378d fe3d

VAE_Encoder.layers.0.attention.W_q.bias f4 [4]
0.045731723 0.04700648 0.04651745 0.0025336088
00000000: 3051 3b3d de89 403d 1589 3e3d e70a 263b

VAE_Encoder.layers.0.attention.W_k.weight f4 [4, 4]
0.09295376 0.17889827 -0.19017199 0.35050973 -0.45166227 0.21396473 0.2302926 -0.20378481
0.115929514 0.39639544 -0.21526235 0.47024825 0.29961616 -0.42695442 -0.61478305 0.2224205
00000000: 8a5e be3d 1c31 373e 72bc 42be 0376 b33e
00000010: 4740 e7be 9219 5b3e d3d1 6b3e f7ac 50be
00000020: 746c ed3d 58f4 ca3e bc6d 5cbe 61c4 f03e
00000030: 4a67 993e c599 dabe 6c62 1dbf 33c2 633e

VAE_Encoder.layers.0.attention.W_k.bias f4 [4]
0.00012379323 8.204077e-05 -0.0003020304 -3.4056506e-05
00000000: 7ece 0139 4e0d ac38 d659 9eb9 e5d7 0eb8

VAE_Encoder.layers.0.attention.W_v.weight f4 [4, 4]
0.07445452 -0.06289642 0.13433956 -0.06231668 0.05866438 -0.06815088 0.084388204 -0.07718582
0.04167246 0.045150794 -0.025853572 -0.052780192 0.094851136 -0.050981976 0.14338985 -0.031991653
00000000: 9d7b 983d d7cf 80bd 4f90 093e c63f 7fbd
00000010: 104a 703d b092 8bbd b9d3 ac3d 9913 9ebd
00000020: beb0 2a3d 0af0 383d dfca d3bc 0b30 58bd
00000030: 5041 c23d 7ad2 50bd cad4 123e ae09 03bd

VAE_Encoder.layers.0.attention.W_v.bias f4 [4]
0.11389976 0.027744977 -0.2035231 0.11887768
00000000: 4744 e93d 6f49 e33c 5c68 50be 2476 f33d

VAE_Encoder.layers.0.linear0.weight f4 [128, 4]
0.2377449 0.15445732 0.39564732 0.22197175 0.017469225 0.52429485 -0.14034794 0.18037893
0.012629275 0.46943232 0.22959352 -0.43825057 -0.10410043 -0.43705937 0.30724767 0.07483425
0.53235495 0.067745045 0.33729342 -0.24908486 -0.2768482 0.2092605 0.118717745 -0.3549563
0.2895608 0.20292184 -0.5414886 0.33239964 0.4088726 -0.47843006 -0.2785276 0.0077936244
0.3177466 0.5705728 -0.13270691 -0.34375077 0.35819826 -0.053332195 -0.045995113 -0.38076767
0.15773337 0.29731855 0.37028626 0.40772715 -0.020996047 -0.29518747 -0.48095837 -0.43578345
0.19915591 0.1897532 -0.7971698 0.04738072 -0.408296 0.1068088 0.23398069 0.002928438
-0.07902096 0.44295773 -0.33285293 -0.21533671 -0.27461225 0.18117842 0.34605846 0.4357019
-0.20856696 0.3558721 0.06934965 -0.12769142 0.097583994 0.012634579 0.09013521 0.42723176
0.34000126 -0.05221213 -0.10203425 -0.029413601 -0.16535643 0.2127296 0.31326833 -0.1448905
-0.5791227 -0.37140054 -0.03956609 0.45853552 -0.34223694 -0.19839008 -0.111014344 0.2017494
0.23362732 -0.2522823 0.28255224 -0.14498542 -0.4441304 -0.1551141 -0.34229368 0.32760054
0.21929935 0.15993747 -0.5627572 0.19115756 0.105414316 0.15651558 -0.07488381 0.3262416
0.446837 0.368979 -0.20320912 0.3721143 -0.50017554 0.29819444 -0.0022404725 0.2395153
0.5275221 0.18878835 -0.19771747 0.09626023 -0.35739654 -0.03387769 -0.40278557 0.15254422
0.007282908 -0.12956934 0.4766229 0.000649435 0.12794411 -0.32718164 -0.25070184 0.08037245
0.31636083 -0.248557 0.27744913 -0.026006825 -0.1714559 -0.18270227 0.26191026 0.06779877
0.46748394 0.24603024 -0.0041865497 0.4734417 0.23655386 0.41712713 -0.25770003 0.33295876
-0.18691021 0.44075 -0.18720068 0.45465893 -0.00087357924 0.6560608 -0.3882985 -0.09249255
-0.3705843 -0.0076210825 0.24048163 -0.57075095 0.040444028 0.21229406 -0.3375195 -0.2913224
-0.5610657 -0.2553185 -0.20540953 0.084164485 0.32386872 0.043494064 0.20061295 0.36235985
-0.41438255 -0.5010034 0.11710067 0.17245384 -0.26463234 -0.50494075 0.47991142 0.096108235
-0.075249076 0.43389285 0.47472852 0.048690982 -0.12726435 0.33888054 0.46306828 0.14416791
0.42128158 -0.35492498 -0.3124945 -0.19352005 0.51253444 -0.4908271 -0.17339632 -0.34654632
0.31456587 0.009188153 -0.25186884 -0.3734672 0.16337939 -0.35239685 -0.028947806 0.25315586
0.47740433 -0.4279425 -0.30004358 0.1004886 0.3270839 0.10395488 0.3779388 0.36386114
0.31291407 -0.40712872 -0.38744467 0.09804978 0.40961936 0.061431274 -0.4380399 0.069341555
-0.45116484 0.21872132 0.26534975 -0.21475883 0.15390275 -0.32606357 0.26408365 0.21806057
0.016216157 -0.17266794 0.42908248 0.46556035 -0.23898868 0.30296233 -0.39969715 0.2821699
-0.49316934 0.1328603 0.1813914 -0.15709162 -0.40749714 0.6666786 0.57393926 -0.21615426
0.027363958 0.21680963 -0.5518367 0.07481293 0.4345214 0.36955872 0.040284913 0.059630908
0.11390029 -0.37115327 0.06064422 -0.2398041 0.3134703 0.10367628 -0.24407278 -0.085927665
00000000: 6673 733e 0f2a 1e3e 4992 ca3e 904c 633e
00000010: 9f1b 8f3c 3038 063f 5fb7 0fbe 41b5 383e
00000020: 05eb 4e3c 6f59 f03e 901a 6b3e 6162 e0be
00000030: 9b32 d5bd 3fc6 dfbe 914f 9d3e b342 993d
00000040: 6a48 083f eabd 8a3d b9b1 ac3e 1a10 7fbe
00000050: 0cbf 8dbe 6248 563e 4a22 f33d d5bc b5be
00000060: 5041 943e beca 4f3e ff9e 0abf 4930 aa3e
00000070: c057 d13e c9f4 f4be 2b9b 8ebe a961 ff3b
00000080: afaf a23e 0f11 123f 52e4 07be 1a00 b0be
00000090: c365 b73e dc72 5abd 5f65 3cbd fbf3 c2be
000000a0: db84 213e 233a 983e 2996 bd3e 9dc1 d03e
000000b0: e7ff abbc d022 97be 2d40 f6be 021f dfbe
000000c0: 87ef 4b3e aa4e 423e 5213 4cbf 4912 423d
000000d0: 2c0c d1be 92be da3d a298 6f3e 09eb 3f3b
000000e0: bed5 a1bd 5bcb e23e b36b aabe 3a81 5cbe
000000f0: fa99 8cbe d686 393e 932e b13e 5214 df3e
00000100: 9492 55be de34 b63e 3007 8e3d 8ac1 02be
00000110: 1eda c73d 4401 4f3c cf98 b83d 1fbe da3e
00000120: a514 ae3e 63dc 55bd 55f7 d0bd cbf4 f0bc
00000130: 3253 29be cad5 593e b564 a03e 2d5e 14be
00000140: 6341 14bf 3628 bebe 0d10 22bd 2bc5 ea3e
00000150: ae39 afbe c526 4bbe 7d5b e3bd 6597 4e3e
00000160: 003c 6f3e 252b 81be b0aa 903e 0f77 14be
00000170: 0f65 e3be 3bd6 1ebe 1e41 afbe 42bb a73e
00000180: 0290 603e a6c6 233e db10 10bf cfbe 433e
00000190: 76e3 d73d 9f45 203e af5c 99bd 2409 a73e
000001a0: d2c7 e43e d1ea bc3e 0d16 50be c485 be3e
000001b0: 810b 00bf f1ac 983e e4d4 12bb 8043 753e
000001c0: b00b 073f bc51 413e 7376 4abe 1524 c53d
000001d0: aefc b6be 55c3 0abd e939 cebe 8d34 1c3e
000001e0: 76a5 ee3b d3ad 04be eb07 f43e d83e 2a3a
000001f0: c803 033e 5a84 a7be fe5b 80be 509a a43d
00000200: 0cfa a13e ba85 7ebe d00d 8e3e 440c d5bc
00000210: 2392 2fbe 4e16 3bbe 1a19 863e 15da 8a3d
00000220: 0e5a ef3e 5aef 7b3e 532f 89bb f366 f23e
00000230: 2d3b 723e b091 d53e 42f1 83be 9279 aa3e
00000240: 6465 3fbe fca9 e13e 89b1 3fbe 0ec9 e83e
00000250: e900 65ba 9af3 273f 10cf c6be bc6c bdbd
00000260: 3abd bdbe 46ba f9bb d140 763e bc1c 12bf
00000270: a3a8 253d 9d63 593e 5bcf acbe 3628 95be
00000280: 00a2 0fbf 1bb9 82be e056 52be 6e5e ac3d
00000290: 1fd2 a53e d526 323d 7b6d 4d3e 3b87 b93e
000002a0: f329 d4be c241 00bf 7ad2 ef3d bd97 303e
000002b0: e47d 87be cc43 01bf f3b6 f53e 65d4 c43d
000002c0: 301c 9abd 3427 de3e 9e0f f33e 3270 473d
000002d0: 9651 02be c081 ad3e 4917 ed3e c1a0 133e
000002e0: 38b2 d73e bab8 b5be 47ff 9fbe 1f2a 46be
000002f0: 7535 033f b14d fbbe ce8e 31be 856e b1be
00000300: c70e a13e e889 163c f4f4 80be 1837 bfbe
00000310: ed4c 273e 5c6d b4be f323 edbc a59d 813e
00000320: 576e f43e 481b dbbe 509f 99be f8cc cd3d
00000330: 8a77 a73e 4ce6 d43d 3281 c13e 024c ba3e
00000340: 4636 a03e 2d73 d0be 265f c6be 53ce c83d
00000350: a1b9 d13e 5c9f 7b3d c446 e0be f202 8e3d
00000360: 14ff e6be 7bf8 5f3e ecdb 873e bde9 5bbe
00000370: af98 1d3e cef1 a6be f935 873e 454b 5f3e
00000380: bfd7 843c ddcf 30be b3b0 db3e ed5d ee3e
00000390: 73b9 74be e11d 9b3e 1ba5 ccbe 9378 903e
000003a0: b180 fcbe 880c 083e abbe 393e a0dc 20be
000003b0: 77a3 d0be 73ab 2a3f afed 123f 8b57 5dbe
000003c0: 612a e03c 5803 5e3e 2c45 0dbf 8537 993d
000003d0: 9779 de3e cd36 bd3e cb01 253d 8a3f 743d
000003e0: 8e44 e93d cd07 bebe 1366 783d 358f 75be
000003f0: 2e7f a03e 3b54 d43d 37ee 79be d8fa afbd

VAE_Encoder.layers.0.linear0.bias f4 [128]
-0.20888823 -0.08691494 -0.16014205 0.47829106 0.18412802 0.0410834 0.36238623 -0.35646233
-0.30234772 0.4198611 0.3226944 -0.22143933 -0.27290082 0.2684624 0.25952142 -0.2456122
-0.001309933 -0.46922266 -0.06698869 -0.19426954 -0.30080888 0.33635512 0.38470972 0.319399
0.14246133 -0.25257277 0.20394954 0.2226324 0.021806203 0.2922427 0.1689895 0.37270904
0.07283202 -0.05873611 0.093349755 0.16824675 0.3399955 -0.104709655 -0.15651286 0.17458673
-0.45093694 -0.4916278 -0.10446885 -0.3350125 0.13005212 -0.5689077 0.39352977 0.46107224
0.1700095 0.29861185 -0.38604718 0.069213875 -0.030684689 0.20083901 -0.25769588 -0.19590223
-0.33247665 0.40850955 -0.50804526 -0.3078299 0.2666149 -0.02000434 0.34847164 0.41086364
-0.3347155 0.3794466 0.14106978 0.2948676 0.19555752 0.31435883 0.36333272 -0.041128643
-0.22533481 0.42220557 0.04199191 0.12434322 0.14942743 -0.34096885 -0.305902 -0.47076228
0.47257906 0.3051448 -0.44294998 -0.32663614 0.41479817 0.37675697 -0.09459277 0.45804435
-0.51795065 0.18701531 0.06179227 0.29251814 -0.357804 -0.37519342 0.02898667 -0.032008007
-0.17207004 0.08631789 0.059923127 0.20061076 0.49914297 0.2298165 0.32258546 -0.13677742
-0.4195205 -0.34015507 -0.038244672 -0.34125397 0.3169381 0.013812995 0.15759695 0.27473313
-0.31253582 -0.20819888 0.17758673 0.23262548 0.370758 -0.12243167 -0.03341942 -0.48665488
-0.022545194 0.04658783 -0.52072155 0.1024838 0.31766438 0.22588661 0.48452446 0.058245137
00000000: cce6 55be 7600 b2bd 47fc 23be 91e2 f43e
00000010: 0e8c 3c3e 1147 283d b08a b93e 3b82 b6be
00000020: 52cd 9abe 09f8 d63e 3338 a53e fec0 62be
00000030: a8b9 8bbe e773 893e fedf 843e c481 7bbe
00000040: 0fb2 abba f43d f0be 5e31 89bd 98ee 46be
00000050: 9f03 9abe bd36 ac3e acf8 c43e 4488 a33e
00000060: 62e1 113e 3851 81be 26d8 503e bff9 633e
00000070: eca2 b23c d6a0 953e 950b 2d3e b8d3 be3e
00000080: f428 953d 4695 70bd 282e bf3d e048 2c3e
00000090: e413 ae3e 0472 d6bd e844 20be ddc6 323e
000000a0: 35e1 e6be a4b6 fbbe c4f3 d5bd c286 abbe
000000b0: 622c 053e efa3 11bf bc7c c93e a911 ec3e
000000c0: f816 2e3e a7e3 983e faa7 c5be 01c0 8d3d
000000d0: 755e fbbc bea8 4d3e b7f0 83be 989a 48be
000000e0: 613a aabe 2a28 d13e 410f 02bf e19b 9dbe
000000f0: c081 883e 24e0 a3bc e06a b23e b85c d23e
00000100: d45f abbe d346 c23e 9974 103e e3f8 963e
00000110: 3b40 483e a4f3 a03e bf06 ba3e 8276 28bd
00000120: 2bbe 66be 542b d83e b6ff 2b3d a8a7 fe3d
00000130: 8103 193e 7893 aebe 309f 9cbe c107 f1be
00000140: e2f5 f13e f03b 9c3e 57ca e2be da3c a7be
00000150: 6d60 d43e 4ae6 c03e dbb9 c1bd ca84 ea3e
00000160: 6a98 04bf f180 3f3e e419 7d3d f0c4 953e
00000170: 1632 b7be 5a19 c0be 7475 ed3c d41a 03bd
00000180: 2133 30be 6fc7 b03d f471 753d e86c 4d3e
00000190: ab8f ff3e 0455 6b3e ec29 a53e 610f 0cbe
000001a0: 64cb d6be ce28 aebe 72a6 1cbd d7b8 aebe
000001b0: b645 a23e e64f 623c 1861 213e d2a9 8c3e
000001c0: b204 a0be 1632 55be 4cd9 353e 6035 6e3e
000001d0: fed3 bd3e 75bd fabd cde2 08bd d42a f9be
000001e0: b3b0 b8bc e1d2 3e3d 024e 05bf 07e3 d13d
000001f0: e8a4 a23e d24e 673e 9713 f83e 7492 6e3d

VAE_Encoder.layers.0.linear1.weight f4 [4, 128]
0.04312519 0.12877382 0.12698998 -0.02938061 -0.018363846 0.07365011 0.01710669 -0.031867612
0.035471093 -0.020047013 0.032002144 0.021912118 0.03378192 0.0005562863 0.10722087 0.07076646
-0.17943257 -0.10699268 0.09360971 0.029273896 -0.031500526 -0.09012189 -0.06403821 -0.08231775
-0.03225338 -0.012604415 0.08425197 -0.015483173 -0.045122083 -0.022344876 -0.18342328 -0.031993903
-0.02402653 -0.10806388 0.08424267 -0.025565064 -0.111490756 -0.17436244 0.14049727 -0.015749933
0.06471345 0.012066753 -0.05904928 -0.04664079 0.016947027 -0.11271021 -0.038703974 -0.08912983
0.007115994 0.049487326 -0.051672135 -0.07880676 -0.06896619 -0.042422924 -0.037319962 -0.05121756
0.003039222 -0.01503797 -0.051477663 0.033520628 0.08560413 0.049171716 -0.09927298 -0.016613433
0.108502045 0.059110347 -0.02970311 -0.08902732 0.047833122 -0.047184084 -0.053257864 -0.05691017
0.086194135 0.060256515 0.037592035 0.06396553 -0.094391175 0.093521014 -0.034883767 -0.12653546
0.016043637 -0.045806404 -0.1282498 0.07907836 0.087964594 -0.033001866 0.004578192 -0.053764366
-0.09299759 -0.058474366 -0.04945921 -0.0066655884 -0.0058473214 0.23631428 0.024591492 -0.20283669
0.14441039 0.020544564 -0.04858608 0.03075799 0.07816318 0.06306868 -0.0012335267 -0.030850748
-0.19126001 0.14466746 -0.054793995 0.03777359 -0.04339518 -0.10936311 -0.028637154 -0.06236182
0.01254308 0.044898044 0.11774034 0.05844393 -0.05280644 -0.07458289 0.062119525 0.06924962
0.07802653 0.0009955427 -0.056899365 -0.1005015 0.014095359 0.06084398 -0.089263886 -0.0016300954
0.05325573 -0.16899244 -0.12041216 0.0649279 -0.025158273 0.049958285 -0.019433497 -0.05862133
-0.049976528 0.008220001 -0.009497678 0.09537131 0.16248643 -0.059115987 -0.023173753 0.09771134
-0.04551348 0.11248085 -0.0190714 -0.01785276 0.05817768 -0.053403806 -0.043880694 0.11236805
0.045345347 0.004729431 0.017768284 0.053839654 -0.0015250781 0.06254119 0.021978762 -0.03893712
-0.008789879 0.11586144 0.04302871 0.007742322 0.047368336 0.048937585 -0.1708468 0.054457128
0.036749393 0.017587177 -0.0074843233 0.087314524 -0.10081312 -0.059486482 0.06549917 0.065576576
-0.005609207 0.10327759 -0.011702259 0.003517114 -0.042587973 0.022312434 0.0748756 -0.060667753
-0.08524862 0.044360176 0.0569071 0.028338762 0.0034576037 0.08448574 -0.04478797 -0.052148134
0.07363454 -0.00838182 0.10691603 -0.057931148 0.05220495 0.045409095 -0.057412267 0.08554513
-0.2842776 -0.004124996 0.02675119 0.05771264 0.061468847 -0.040132903 0.1639091 0.05173633
-0.024825186 -0.09039503 0.12322303 0.065602064 0.049709193 0.053136766 0.02275684 -0.065814085
0.09017816 0.06774742 0.024523126 0.11054949 0.13699713 -0.21514527 0.11003193 0.28231868
-0.10405578 -0.016782952 0.03175811 0.056097828 -0.095810436 -0.034636095 -0.030373229 0.11318605
0.05031132 -0.21500982 0.059113413 0.035199054 0.006186806 -0.016870767 -0.009232927 0.094129644
-0.05795834 -0.09534413 0.04941927 0.12828608 -0.0038599137 0.104008175 0.023979258 0.08586803
0.03781311 0.015152567 0.027042435 -0.027601654 -0.029883454 -0.003585603 0.0146218585 -0.0075802556
00000000: 0aa4 303d 49dd 033e a909 023e 9baf f0bc
00000010: c76f 96bc ded5 963d 5423 8c3c 9d87 02bd
00000020: 234a 113d a239 a4bc ae14 033d 0b81 b33c
00000030: e95e 0a3d bed3 113a 9e96 db3d 01ee 903d
00000040: 2cbd 37be fa1e dbbd 73b6 bf3d cfcf ef3c
00000050: b206 01bd d391 b8bd 7726 83bd 3596 a8bd
00000060: 1f1c 04bd c082 4ebc 4c8c ac3d 22ad 7dbc
00000070: efd1 38bd 9a0c b7bc 50d3 3bbe 0a0c 03bd
00000080: 49d3 c4bc 9850 ddbd 6c87 ac3d d36d d1bc
00000090: 4455 e4bd 118c 32be 84de 0f3e 0106 81bc
000000a0: 7c88 843d a1b3 453c a8dd 71bd 6a0a 3fbd
000000b0: 7ed4 8a3c 9cd4 e6bd 0f88 1ebd b389 b6bd
000000c0: 492d e93b 39b3 4a3d 29a6 53bd 7065 a1bd
000000d0: 253e 8dbd a9c3 2dbd d1dc 18bd 81c9 51bd
000000e0: af2d 473b d161 76bc 3eda 52bd ed4c 093d
000000f0: 3851 af3d 4868 493d a24f cbbd e518 88bc
00000100: 5236 de3d b11d 723d f053 f3bc f553 b6bd
00000110: aaec 433d 1944 41bd eb24 5abd a31a 69bd
00000120: 8d86 b03d 89cf 763d 1bfa 193d 5c00 833d
00000130: 2950 c1bd f287 bf3d 48e2 0ebd 8392 01be
00000140: f26d 833c 7f9f 3bbd ea53 03be d6f3 a13d
00000150: c826 b43d f72c 07bd a804 963b 0638 5cbd
00000160: 8575 bebd d182 6fbd be95 4abd 026b dabb
00000170: e39a bfbb 5ffc 713e 1974 c93c 6cb4 4fbe
00000180: 51e0 133e 134d a83c 3302 47bd 2ef8 fb3c
00000190: 0414 a03d 272a 813d 4aae a1ba b5ba fcbc
000001a0: aad9 43be b523 143e ab6f 60bd 7bb8 1a3d
000001b0: 25bf 31bd c4f9 dfbd 7798 eabc 1c6f 7fbd
000001c0: 7e81 4d3c 03e7 373d d921 f13d e762 6f3d
000001d0: 914b 58bd eabe 98bd 0b71 7e3d bfd2 8d3d
000001e0: 60cc 9f3d df7c 823a 4f0f 69bd bbd3 cdbd
000001f0: 38f0 663c 8a37 793d fccf b6bd eda8 d5ba
00000200: ae22 5a3d 5b0c 2dbe a79a f6bd ebf8 843d
00000210: b918 cebc 0fa1 4c3d ff32 9fbc eb1c 70bd
00000220: 30b4 4cbd 2fad 063c 269c 1bbc 0952 c33d
00000230: d862 263e 9b23 72bd e2d6 bdbc e21c c83d
00000240: 586c 3abd 5c5c e63d a03b 9cbc f43f 92bc
00000250: b84b 6e3d f3bd 5abd 3ebc 33bd 3821 e63d
00000260: 0bbc 393d 58f9 9a3b cb8e 913c f886 5c3d
00000270: 21e5 c7ba 9815 803d ce0c b43c 887c 1fbd
00000280: 6d03 10bc c348 ed3d df3e 303d 4eb3 fd3b
00000290: 4d05 423d c772 483d 77f2 2ebe 700e 5f3d
000002a0: 8886 163d fc12 903c 0e3f f5bb f5d1 b23d
000002b0: 1c77 cebd 19a8 73bd 6e24 863d 034d 863d
000002c0: 70cd b7bb 3383 d33d d5ba 3fbc 627f 663b
000002d0: ba70 2ebd 91c8 b63c 6158 993d c07e 78bd
000002e0: d496 aebd 04b3 353d 6b17 693d b126 e83c
000002f0: f798 623b dc06 ad3d 9773 37bd 4899 55bd
00000300: b5cd 963d e753 09bc cbf6 da3d 3649 6dbd
00000310: dcd4 553d e3fe 393d 2029 6bbd 4932 af3d
00000320: d58c 91be f92a 87bb 5025 db3c 1764 6c3d
00000330: c2c6 7b3d 6662 24bd cad7 273e 79e9 533d
00000340: 305e cbbc 0821 b9bd 5b5c fc3d 605a 863d
00000350: de9b 4b3d f0a5 593d 8d6c ba3c 89c9 86bd
00000360: 54af b83d 29bf 8a3d b9e4 c83c c567 e23d
00000370: fa48 0c3e 0b4f 5cbe 6c58 e13d 138c 903e
00000380: 321b d5bd 677c 89bc cb14 023d d6c6 653d
00000390: 4338 c4bd 94de 0dbd 47d1 f8bc 16ce e73d
000003a0: 3e13 4e3d 892b 5cbe e820 723d e22c 103d
000003b0: b1ba ca3b 9034 8abc b445 17bc 0bc7 c03d
000003c0: b965 6dbd c943 c3bd dc6b 4a3d 6d5d 033e
000003d0: 9bf6 7cbb 3d02 d53d 2670 c43c 94db af3d
000003e0: ebe1 1a3d 7942 783c 1988 dd3c dd1c e2bc
000003f0: 25ce f4bc 70fc 6abb 8590 6f3c cb63 f8bb

VAE_Encoder.layers.0.linear1.bias f4 [4]
0.0072013033 0.11260336 0.06795059 -0.115964115
00000000: e9f8 eb3b 979c e63d ae29 8b3d 987e edbd

VAE_Encoder.layers.0.norm1.weight f4 [4]
1.0312016 1.1251389 1.0963163 1.023405
00000000: 6afe 833f 8d04 903f 1854 8c3f effe 823f

VAE_Encoder.layers.0.norm1.bias f4 [4]
0.0380367 0.021595977 -0.06097253 0.012767136
00000000: 5fcc 1b3d 0cea b03c 55be 79bd 402d 513c

VAE_Encoder.layers.1.attention.W_q.weight f4 [4, 4]
0.18033451 0.18975613 0.6241844 0.36388338 0.002001229 0.10232483 0.023077749 -0.03097219
-0.5707379 -0.30513316 0.17396608 0.03412459 0.25076175 0.03782559 0.47656584 -0.23554155
00000000: 9ca9 383e 6e4f 423e 8dca 1f3f ec4e ba3e
00000010: 0d27 033b ae8f d13d 8c0d bd3c 64b9 fdbc
00000020: e11b 12bf 6a3a 9cbe 2a24 323e 3ac6 0b3d
00000030: d863 803e 02ef 1a3d 7000 f43e ce31 71be

VAE_Encoder.layers.1.attention.W_q.bias f4 [4]
-0.05912368 0.061259806 0.050552394 0.0076747984
00000000: ac2b 72bd 90eb 7a3d 0710 4f3d e07c fb3b

VAE_Encoder.layers.1.attention.W_k.weight f4 [4, 4]
0.16386895 -0.289612 0.31057456 -0.5628968 -0.5308076 0.13938929 0.17517751 0.4076678
0.26801735 0.37936753 -0.25278014 0.3010568 -0.16693546 0.15013684 0.36674732 -0.2837298
00000000: 43cd 273e 0648 94be a103 9f3e 011a 10bf
00000010: 02e3 07bf 11bc 0e3e bc61 333e d5b9 d03e
00000020: 9239 893e 763c c23e 666c 81be 1e24 9a3e
00000030: 21f1 2abe 79bd 193e 4ec6 bb3e 0845 91be

VAE_Encoder.layers.1.attention.W_k.bias f4 [4]
1.1961698e-05 2.4663677e-05 -0.00029110064 -2.7699578e-05
00000000: 1aaf 4837 d8e4 ce37 de9e 98b9 645c e8b7

VAE_Encoder.layers.1.attention.W_v.weight f4 [4, 4]
-0.30635822 0.2607668 0.25465503 -0.3390816 -0.19084466 0.3327987 0.46446937 -0.12978491
-0.037672967 0.3221509 0.15662415 -0.12215785 0.20657669 0.39564407 0.16216147 0.06812218
00000000: fcda 9cbe 3a83 853e 2562 823e 1a9c adbe
00000010: c86c 43be 9764 aa3e eece ed3e 56e6 04be
00000020: f84e 1abd f6f0 a43e 1562 203e e52d fabd
00000030: d788 533e dc91 ca3e a80d 263e a483 8b3d

VAE_Encoder.layers.1.attention.W_v.bias f4 [4]
0.05146289 -0.00016229032 -0.023864012 -0.00086365273
00000000: c0ca 523d 7a2c 2ab9 767e c3bc c166 62ba

VAE_Encoder.layers.1.linear0.weight f4 [128, 4]
0.3552365 -0.25150993 0.087957524 0.058629274 -0.3290188 0.07366389 0.3478164 -0.23813346
0.47646526 0.22956085 -0.017863745 0.065381095 0.39129975 0.13586347 -0.18003689 -0.40379167
0.36805347 0.09719861 -0.09934798 0.2408772 -0.19858408 -0.29025358 -0.15481335 -0.30520427
0.17948036 -0.3363725 -0.27660137 -0.27518237 -0.48424357 -0.35639188 0.019754425 -0.018276513
-0.48087338 -0.29999986 -0.2204331 0.63575476 -0.4221041 0.2473554 0.27321035 -0.0610976
-0.15942688 0.0024923729 0.37994915 -0.16535015 0.461482 0.22689338 -0.34079248 -0.14973994
0.43081477 0.31042573 0.050177645 -0.33110556 0.3061946 0.4618922 0.03758019 -0.17191078
-0.4283239 -0.0067279367 -0.71861047 0.7786479 0.48785213 -0.32597366 0.03888463 -0.12302263
-0.4054667 -0.37442085 -0.24201539 0.50972813 0.07442849 0.41455403 -0.6495246 -0.19384307
-0.076513045 0.4449454 0.08065063 0.4610031 -0.4243856 -0.02249324 0.3810768 -0.39125207
0.36915603 0.5203433 -0.70088196 -0.011436928 -0.21664637 0.018151037 -0.05875538 -0.43658426
0.1529846 -0.3689682 0.34177345 -0.5173807 0.07063738 -0.37614596 0.24771765 -0.36244044
0.3340091 -0.098966114 -0.3871677 0.044314776 -0.017982405 0.42681584 -0.33634815 -0.04930208
0.18382406 0.3554344 -0.46304354 -0.21356112 0.4214744 0.14815871 0.3841432 -0.35403258
-0.24137048 0.29916024 0.27864724 -0.095463924 -0.061751977 -0.4435216 0.14944173 -0.3913297
-0.42271483 0.27946803 0.13170624 -0.36809406 -0.06054762 -0.48135412 0.15811914 0.45541206
-0.2899109 -0.1862544 -0.055794567 0.05447951 -0.25558445 0.4602704 -0.24413931 -0.24458168
-0.22372901 0.4221019 -0.10582077 0.12173029 0.010177979 -0.16984822 0.461703 -0.29127815
-0.2724793 -0.17807993 -0.053121995 -0.065644726 -0.47354078 0.21234287 -0.17455298 -0.3115521
-0.04353343 -0.3683676 -0.2125927 0.432745 0.5709344 0.18515977 -0.5550009 -0.05180837
-0.10021174 -0.35425407 0.0056710597 0.22556871 -0.36048594 -0.034084372 -0.42930377 0.48937875
-0.1047121 0.2980488 -0.58550614 -0.2778262 -0.272068 0.28633764 0.47263387 -0.071762346
0.31188816 0.35446632 0.4481086 0.45579207 -0.13893901 0.12847881 0.32962522 -0.39285508
-0.54821336 -0.49159676 0.30221054 -0.16650918 0.01569874 -0.44839922 -0.56278604 0.019851709
0.43208718 -0.026538594 -0.0052880314 0.4994095 -0.08156495 0.2640498 0.23191041 -0.3852163
-0.27114365 -0.45908368 0.3582527 -0.24214488 0.12758867 -1.469851 0.071567364 -0.4098226
0.20222548 0.31405753 0.1727887 -0.5171799 -0.32477963 -0.21766394 0.3356167 -0.24535754
-0.080411665 0.33596954 0.12156911 -0.4811918 -0.24284488 -0.24330306 -0.32473344 -0.377181
0.18160965 -0.42724898 -0.08819603 -0.37560147 -0.007966903 0.2010912 0.16038951 -0.44052088
0.10842201 0.4405789 -0.62751853 -0.19317831 0.1349471 0.37681398 0.08596033 0.38575327
0.38725019 -0.09508507 0.3339472 -0.3016458 0.060659207 0.109001756 0.3343416 0.027538087
0.29307416 0.05128046 0.27157655 -0.29078373 0.46887454 -0.03156553 -0.3788282 0.40315872
00000000: 8fe1 b53e e9c5 80be 1323 b43d 4025 703d
00000010: 2775 a8be 18dd 963d fe14 b23e 42d9 73be
00000020: 41f3 f33e 0012 6b3e fd56 92bc 86e6 853d
00000030: 7158 c83e cb1f 0b3e 975b 38be c8bd cebe
00000040: 8171 bc3e 1110 c73d f476 cbbd 83a8 763e
00000050: a059 4bbe 1e9c 94be 6487 1ebe bc43 9cbe
00000060: b3c9 373e 0439 acbe b29e 8dbe b4e4 8cbe
00000070: c6ee f7be ff78 b6be 08d4 a13c a0b8 95bc
00000080: 0935 f6be 9599 99be 37b9 61be d3c0 223f
00000090: 071e d8be bc4a 7d3e 3ae2 8b3e 7a41 7abd
000000a0: cd40 23be 1457 233b b288 c23e 8d51 29be
000000b0: 5e47 ec3e bd56 683e 5a7c aebe 6d55 19be
000000c0: c193 dc3e 1ff0 9e3e 1387 4d3d ab86 a9be
000000d0: 8ac5 9c3e 227d ec3e afed 193d 6109 30be
000000e0: 454d dbbe 0676 dcbb dbf6 37bf 7855 473f
000000f0: c1c7 f93e 05e6 a6be 7d45 1f3d 4af3 fbbd
00000100: 5599 cfbe 17b4 bfbe e2d2 77be 8b7d 023f
00000110: f76d 983d 6d40 d43e 3f47 26bf cc7e 46be
00000120: dfb2 9cbd e2cf e33e 282c a53d 9908 ec3e
00000130: 1249 d9be be43 b8bc 801c c33e 3152 c8be
00000140: 0502 bd3e 3835 053f 006d 33bf f461 3bbc
00000150: 8cd8 5dbe 7cb1 943c 7ba9 70bd f987 dfbe
00000160: ffa7 1c3e 66e9 bcbe eefc ae3e 1073 04bf
00000170: 55aa 903d 3496 c0be b2a9 7d3e cb91 b9be
00000180: 3e03 ab3e bfae cabd d83a c6be 6983 353d
00000190: d64f 93bc 9b87 da3e d335 acbe faf0 49bd
000001a0: 603c 3c3e 7ffb b53e 0b14 edbe c4af 5abe
000001b0: 7ecb d73e ebb6 173e 6bae c43e c243 b5be
000001c0: d329 77be 882b 993e daaa 8e3e 9782 c3bd
000001d0: a4ef 7cbd 4315 e3be 4107 193e 5e5c c8be
000001e0: 146e d8be 6f16 8f3e 00de 063e d376 bcbe
000001f0: c800 78bd 0c74 f6be fce9 213e c52b e93e
00000200: 346f 94be 79b9 3ebe d888 64bd e825 5f3d
00000210: f7db 82be 90a8 eb3e a8ff 79be 9f73 7abe
00000220: 3819 65be be1d d83e 8fb8 d8bd bb4d f93d
00000230: 8ac1 263c b1ec 2dbe 5664 ec3e 6922 95be
00000240: 6882 8bbe 965a 36be 7396 59bd be70 86bd
00000250: f073 f2be 6970 593e 04be 32be c283 9fbe
00000260: 1c50 32bd ae9a bcbe e7b1 59be c190 dd3e
00000270: c228 123f 869a 3d3e 8a14 0ebf 0335 54bd
00000280: d03b cdbd ca60 b5be 4cd4 b93b 7cfb 663e
00000290: 9d91 b8be 0e9c 0bbd b4cd dbbe da8f fa3e
000002a0: 4c73 d6bd da99 983e bbe3 15bf 3c3f 8ebe
000002b0: 7f4c 8bbe d99a 923e 11fd f13e 23f8 92bd
000002c0: ceaf 9f3e 9c7c b53e 7e6e e53e 945d e93e
000002d0: 0746 0ebe f38f 033e a3c4 a83e 4d24 c9be
000002e0: b657 0cbf 92b2 fbbe 57bb 9a3e 6281 2abe
000002f0: a59a 803c 9594 e5be bf12 10bf 0da0 a23c
00000300: 883a dd3e 7767 d9bc 3947 adbb 9ab2 ff3e
00000310: 860b a7bd 8931 873e ec79 6d3e 123b c5be
00000320: 57d3 8abe 040d ebbe e66c b73e d4f4 77be
00000330: 9ba6 023e 1424 bcbf e991 923d 45d4 d1be
00000340: 3214 4f3e 26cc a03e 85ef 303e e765 04bf
00000350: 8449 a6be 4ce3 5ebe f4d5 ab3e 023f 7bbe
00000360: dfae a4bd 3304 ac3e 3af9 f83d c65e f6be
00000370: 54ac 78be 7024 79be 7643 a6be de1d c1be
00000380: e1f7 393e 61c0 dabe 1fa0 b4bd d64e c0be
00000390: 9d87 02bc daea 4d3e 263d 243e f48b e1be
000003a0: 5c0c de3d 8f93 e13e 0ea5 20bf 89d0 45be
000003b0: 932f 0a3e c3ed c03e f80b b03d 7481 c53e
000003c0: a845 c63e f6bb c2bd 21fb aa3e 5171 9abe
000003d0: ca75 783d 503c df3d d22e ab3e 8e97 e13c
000003e0: d10d 963e 760b 523d 150c 8b3e 9be1 94be
000003f0: 5310 f03e db4a 01bd c5f5 c1be d26a ce3e

VAE_Encoder.layers.1.linear0.bias f4 [128]
-0.21518412 -0.39616328 -0.26167804 -0.4278946 0.19661073 -0.3372882 -0.2871851 -0.30122924
-0.11661848 -0.2789776 -0.08349283 -0.5189949 -0.01060438 0.35876346 -0.42077875 -0.31299844
-0.45086014 -0.28422728 -0.4452151 -0.3497052 -0.37221706 -0.2922919 0.28399077 -0.4630832
-0.12061377 0.40373114 0.36423534 -0.04849498 0.2261213 0.4408794 -0.15572713 0.06658515
0.2943146 0.11407546 0.36489016 -0.30885303 0.22886492 0.419989 0.07355428 0.09583947
-0.34358573 -0.04490034 -0.15863548 -0.20629407 -0.31220907 -0.47510687 -0.22877143 0.007129508
-0.38352773 0.13171062 -0.20739728 -0.09773324 -0.16680627 -0.091774315 -0.5667768 -0.25005412
0.29521877 0.2801985 -0.2632311 -0.053069215 -0.30479625 0.1518327 -0.22798568 0.21229517
-0.5418762 0.08427887 -0.1925508 -0.2471819 0.2451668 0.2912536 0.49217615 0.34174976
0.41523293 -0.06904131 0.049847767 0.25504032 -0.37755796 -0.06805532 -0.07868173 0.16819862
0.50353354 0.3211577 -0.016924787 -0.02158478 0.3181471 0.27103153 -0.5060216 0.41333035
0.22230338 -0.31698048 0.27855206 0.38010526 -0.15162271 -0.26983353 0.23518808 -0.45280567
-0.2882701 0.27083522 0.14570962 -0.25203922 -0.22261944 0.29337606 0.16133812 -0.11174054
0.23598802 0.23078862 0.30394274 -0.24344705 0.051647082 -0.18329774 0.45436838 0.44887918
0.1997996 -0.38586828 0.19019349 -0.25198087 -0.25007963 0.053202294 0.48864666 -0.37339824
0.32269144 -0.032098375 0.035977766 -0.18847214 -0.57603145 -0.19196878 0.41744998 -0.36689392
00000000: 3a59 5cbe ead5 cabe aafa 85be 0015 dbbe
00000010: 5354 493e 0ab1 acbe ed09 93be b83a 9abe
00000020: abd5 eebd 27d6 8ebe 4afe aabd dadc 04bf
00000030: febd 2dbc d8af b73e 5070 d7be 5541 a0be
00000040: 24d7 e6be 3d86 91be 3cf3 e3be 8f0c b3be
00000050: 3c93 bebe 49a7 95be 3d67 913e 3e19 edbe
00000060: 5a04 f7bd d9b5 ce3e 0e7d ba3e aca2 46bd
00000070: 588c 673e f2ba e13e ef76 1fbe cc5d 883d
00000080: 67b0 963e 65a0 e93d e2d2 ba3e fc21 9ebe
00000090: 915b 6a3e cc08 d73e a0a3 963d 7c47 c43d
000000a0: 78ea afbe 6be9 37bd 5771 22be c13e 53be
000000b0: ded9 9fbe 3541 f3be 0f43 6abe a69e e93b
000000c0: bf5d c4be 26df 063e f45f 54be 5d28 c8bd
000000d0: 43cf 2abe 2cf4 bbbd 4918 11bf 1807 80be
000000e0: ea26 973e 2e76 8f3e 3ac6 86be 1b5f 59bd
000000f0: 410e 9cbe 087a 1b3e 1475 69be e863 593e
00000100: 66b8 0abf 669a ac3d 092c 45be 411d 7dbe
00000110: 010d 7b3e 311f 953e 83fe fb3e d3f9 ae3e
00000120: 6999 d43e 8865 8dbd 2c2d 4c3d a594 823e
00000130: 474f c1be 9660 8bbd e323 a1bd 423c 2c3e
00000140: 93e7 003f c86e a43e daa5 8abc 91d2 b0bc
00000150: 2de4 a23e a5c4 8a3e a28a 01bf 09a0 d33e
00000160: 7fa3 633e 444b a2be 609e 8e3e 289d c23e
00000170: fc42 1bbe 9f27 8abe 25d5 703e 25d6 e7be
00000180: 2398 93be eaaa 8a3e e734 153e 490b 81be
00000190: 5af6 63be 6335 963e d235 253e 39d8 e4bd
000001a0: d8a6 713e da53 6c3e 629e 9b3e 2f4a 79be
000001b0: e48b 533d 67b2 3bbe f9a2 e83e 7ed3 e53e
000001c0: 4498 4c3e 8790 c5be 15c2 423e a303 81be
000001d0: 700a 80be a6ea 593d e52f fa3e 0e2e bfbe
000001e0: d037 a53e 9679 03bd 6c5d 133d d7fe 40be
000001f0: cc76 13bf 7793 44be 01bc d53e 85d9 bbbe

VAE_Encoder.layers.1.linear1.weight f4 [4, 128]
-0.1173273 0.10781876 0.12796463 0.041366745 0.07401274 -0.05456807 -0.012090374 -0.14639546
0.08501541 0.0054569114 0.12605934 0.05872562 0.09325075 -0.037365258 -0.080761634 -0.088494085
-0.03434774 -0.11389256 -0.040263988 -0.033699587 -0.12017816 -0.015289735 0.100817725 -0.08998912
-0.033857983 -0.049904726 0.096482284 -0.03504237 0.049275678 -0.047263224 0.049624026 -0.027707092
0.015458214 0.095636785 -0.04865879 -0.030920446 -0.0944858 -0.0011696124 -0.022849891 -0.10027218
0.010681767 0.0055876393 -0.073358774 0.091608845 -0.058821004 0.0105052255 -0.120652586 -0.029968241
-0.09441723 0.02098437 0.108004585 -0.57836777 0.09363937 0.06992621 0.07778508 -0.07717366
-0.045884818 -0.05968368 -0.06597892 -0.091354825 -0.034227148 0.04083303 -0.008764475 -0.055935305
0.055463452 -0.06560402 -0.22203943 0.015601021 -0.11140162 -0.014583049 -0.024704011 -0.08214519
0.0050670863 -0.0062358393 -0.0065661976 -0.07989474 -0.017170902 -0.09709483 0.08657253 0.03981405
-0.0705142 -0.07870996 -0.0641977 -0.06367406 0.014264197 0.044774167 0.026549743 -0.051214635
-0.0359809 -0.16602816 0.038296837 -0.025474465 -0.15555094 -0.0009401998 -0.06993001 -0.047089513
-0.017958922 0.0011697826 0.03962747 0.058326453 -0.0738642 -0.011200952 -0.107698314 0.08357663
-0.024658237 0.00042456388 -0.115452975 0.010181806 0.05421375 -0.08988918 0.089191236 -0.0451108
-0.01127038 2.4592512 0.0047548926 -0.13302134 -0.0757794 -0.0012639187 0.019811759 -0.13269562
-0.10782891 0.01522066 0.005792665 0.09018238 0.09510358 -0.048396654 -0.047674775 0.038016643
0.026019942 -0.016804306 -0.10078035 -0.028566003 -0.049971137 0.0058545554 0.022401948 0.33508113
0.11528369 0.076276965 -0.04444922 0.03234319 0.025061289 -0.07370731 -0.17588025 -0.09912608
0.09829498 -0.06691212 -0.13863362 -0.057910055 -0.06846253 0.10972758 -0.099795625 0.11771595
-0.036940113 -0.046705473 -0.10024044 -0.034310725 -0.014557341 -0.052340675 0.043684326 0.027092159
0.071584016 -0.1411483 0.026105834 0.023515457 -0.0024638122 0.07913373 0.017655421 -0.1371587
0.010402261 -0.11226482 -0.026956854 0.07579841 -0.0031590431 -0.0924051 -0.031248262 -0.33325577
-0.05449379 0.007986676 0.11107532 0.17354274 0.085910074 -0.0058416673 0.15611427 -0.07945807
-0.06265384 -0.013344555 -0.061648775 -0.0030482803 -0.019930169 0.023244413 -0.008105064 -0.17053695
0.21684115 0.050879765 -0.38094428 0.09177143 -0.09840681 -0.0015135986 -0.09315912 0.07042409
-0.07376703 -0.018679392 0.084899046 0.006538592 0.072334826 0.13748851 -0.14154479 -0.1855708
0.02578885 -0.07392731 0.083920844 0.039412167 0.024020726 -0.037190095 -0.015562626 0.12694474
-0.18984628 0.12444378 -0.044829074 -0.07926498 0.07114696 -0.26150075 0.014000687 -0.1603398
-0.019506581 0.09323972 -0.04218706 -0.07037404 -0.15820248 -0.111599505 0.020227097 -0.15621795
-0.025735099 -0.076282665 0.058733743 -0.0037136776 0.0014487278 0.1987269 -0.012669613 -0.08812969
0.052906398 -0.71855533 -0.09693071 -0.45587206 0.068718694 0.033791166 -0.17718995 -0.05141744
0.14725444 -0.016481904 0.020127922 -0.037820235 0.10050811 -0.11619604 -0.08351966 -0.4678257
00000000: 4c49 f0bd 15d0 dc3d 2909 033e 2d70 293d
00000010: fe93 973d c582 5fbd b416 46bc b1e8 15be
00000020: 8f1c ae3d e4cf b23b b315 013e 478a 703d
00000030: 40fa be3d 500c 19bd 5b66 a5bd 633c b5bd
00000040: 37b0 0cbd 8140 e9bd daeb 24bd 9408 0abd
00000050: f81f f6bd cc81 7abc 8679 ce3d 374c b8bd
00000060: abae 0abd e668 4cbd 8198 c53d 9788 0fbd
00000070: 4bd5 493d 1597 41bd 9042 4b3d fcf9 e2bc
00000080: 7344 7d3c 38dd c33d 704e 47bd e04c fdbc
00000090: c581 c1bd ae4d 99ba b22f bbbc 805b cdbd
000000a0: 9402 2f3c 8418 b73b 203d 96bd 6b9d bb3d
000000b0: 4bee 70bd 1c1e 2c3c b418 f7bd f57f f5bc
000000c0: d25d c1bd 6ae7 ab3c 8231 dd3d e90f 14bf
000000d0: ffc5 bf3d 7935 8f3d c94d 9f3d 390d 9ebd
000000e0: b8f1 3bbd e076 74bd f51f 87bd 3d18 bbbd
000000f0: c431 0cbd 8940 273d df98 0fbc 6b1c 65bd
00000100: a52d 633d 675b 86bd 4e5e 63be 6d9b 7f3c
00000110: 8826 e4bd beed 6ebc 1160 cabc bd3b a8bd
00000120: cd09 a63b 0356 ccbb 4229 d7bb da9f a3bd
00000130: fea9 8cbc a7d9 c6bd f04c b13d 0f14 233d
00000140: c069 90bd b032 a1bd 157a 83bd 8c67 82bd
00000150: 61b4 693c 1e65 373d d97e d93c 70c6 51bd
00000160: b560 13bd 4903 2abe 25dd 1c3d d3af d0bc
00000170: bf48 1fbe be77 76ba 7737 8fbd efe0 40bd
00000180: 971e 93bc 6453 993a 6a50 223d b8e7 6e3d
00000190: 1d46 97bd 3384 37bc ef90 dcbd 392a ab3d
000001a0: 1200 cabc 0098 de39 9c72 ecbd 97d1 263c
000001b0: 3d0f 5e3d d217 b8bd e5a9 b63d 1ac6 38bd
000001c0: 66a7 38bc 5f64 1d40 eece 9b3b bf36 08be
000001d0: 3b32 9bbd 13aa a5ba 454c a23c 5ce1 07be
000001e0: 67d5 dcbd 1360 793c 65d0 bd3b 8ab1 b83d
000001f0: aac5 c23d 923b 46bd a046 43bd 57b7 1b3d
00000200: c627 d53c 2fa9 89bc ee65 cebd 4003 eabc
00000210: 89ae 4cbd 92d7 bf3b 4a84 b73c c18f ab3e
00000220: db19 ec3d 1937 9c3d 6310 36bd 4b7a 043d
00000230: 554d cd3c dcf3 96bd f419 34be 9d02 cbbd
00000240: e14e c93d 3909 89bd f9f5 0dbe 1833 6dbd
00000250: 1536 8cbd dab8 e03d a661 ccbd 0f15 f13d
00000260: 844e 17bd 3d4e 3fbd dc4a cdbd 6789 0cbd
00000270: ea81 6ebc 2d63 56bd 56ee 323d 60f0 dd3c
00000280: a49a 923d 2e89 10be e7db d53c 7da3 c03c
00000290: e977 21bb dd10 a23d 1aa2 903c 5573 0cbe
000002a0: 3f6e 2a3c 19eb e5bd 9fd4 dcbc 323c 9b3d
000002b0: f307 4fbb e33e bdbd 5bfc ffbc 80a0 aabe
000002c0: e134 5fbd 8cda 023c 757b e33d 30b5 313e
000002d0: 9ff1 af3d 756b bfbb 6bdc 1f3e eaba a2bd
000002e0: a850 80bd 1fa3 5abc 6d83 7cbd a8c5 47bb
000002f0: 9844 a3bc 116b be3c 1acb 04bc 3da1 2ebe
00000300: 9b0b 5e3e 4d67 503d 210b c3be a9f2 bb3d
00000310: 8289 c9bd f163 c6ba 35ca bebd 813a 903d
00000320: 2b13 97bd 8605 99bc 8ddf ad3d af41 d63b
00000330: 4824 943d cac9 0c3e 1ef1 10be 4606 3ebe
00000340: 2343 d33c 3467 97bd b1de ab3d a76e 213d
00000350: 1dc7 c43c a454 18bd 62fa 7ebc cdfd 013e
00000360: 1067 42be 61dc fe3d b19e 37bd ae55 a2bd
00000370: 7fb5 913d 6de3 85be 2363 653c 1e30 24be
00000380: 44cc 9fbc 77f4 be3d 57cc 2cbd 4420 90bd
00000390: d5ff 21be 488e e4bd 4cb3 a53c 99f7 1fbe
000003a0: 6ad2 d2bc 163a 9cbd cb92 703d 2c61 73bb
000003b0: 3de3 bd3a 117f 4b3e 3594 4fbc 577d b4bd
000003c0: 61b4 583d 3ef3 37bf 9c83 c6bd 1068 e9be
000003d0: 63bc 8c3d 9b68 0a3d 4871 35be 189b 52bd
000003e0: dec9 163e 0f05 87bc 50e3 a43c 64e9 1abd
000003f0: 32d7 cd3d 30f8 edbd 5b0c abbd da86 efbe

VAE_Encoder.layers.1.linear1.bias f4 [4]
-0.07218753 0.05813372 -0.08693064 -0.058387518
00000000: 0ed7 93bd a01d 6e3d b108 b2bd c027 6fbd

VAE_Encoder.layers.1.norm1.weight f4 [4]
1.0387709 1.2553173 1.1984953 1.0078236
00000000: 72f6 843f 3dae a03f 4b68 993f 5d00 813f

VAE_Encoder.layers.1.norm1.bias f4 [4]
0.05585664 -0.1140932 -0.06721451 0.07042359
00000000: efc9 643d b2a9 e9bd c3a7 89bd 3e3a 903d

VAE_Encoder.layers.1.norm0.weight f4 [4]
0.8285389 0.8573606 0.963035 0.8754846
00000000: 201b 543f fc7b 5b3f 7689 763f c21f 603f

VAE_Encoder.layers.1.norm0.bias f4 [4]
-0.023634959 -0.011225768 -0.0024604043 -0.001900831
00000000: 1a9e c1bc 49ec 37bc bc3e 21bb 4e25 f9ba

VAE_Encoder.last_normalization.weight f4 [4]
1.0 1.0 1.0 1.0
00000000: 0000 803f 0000 803f 0000 803f 0000 803f

VAE_Encoder.last_normalization.bias f4 [4]
0.0 0.0 0.0 0.0
00000000: 0000 0000 0000 0000 0000 0000 0000 0000

VAE_Encoder.head.weight f4 [4, 4]
0.3881638 0.28620613 -0.13654697 -0.08481908 0.07967377 -0.23165292 -0.16653961 0.4137975
0.19734818 -0.18474436 -0.103533864 -0.18849462 0.17306715 -0.398409 0.102390885 0.2525608
00000000: 68bd c63e 9c89 923e f8d2 0bbe a0b5 adbd
00000010: 002c a33d 6c36 6dbe 5c89 2abe 44dd d33e
00000020: a415 4a3e a02d 3dbe 9009 d4bd bc04 41be
00000030: 8438 313e 44fc cbbe 50b2 d13d a64f 813e

VAE_Encoder.head.bias f4 [4]
0.3372842 -0.19239563 0.06954992 0.26625645
00000000: 84b0 ac3e 5c03 45be 3070 8e3d c452 883e
