restsyn/tabsyn/vae/ckpt/cardio_cond/model.pt (torch, 62313 bytes, 96 tensors)

VAE.Tokenizer.weight f4 [12, 4]
-0.23060893 0.36698386 0.5490034 0.05760185 0.21729517 0.15342024 0.25776675 -0.035433196
0.22288379 -0.14825855 -0.23697364 -0.06477069 -0.24358705 0.27712318 0.56196374 0.23375554
-0.35983983 0.021106536 -0.10781437 -0.019057536 0.3693783 0.09028788 0.15774323 0.036218848
0.113469355 -0.28211278 -0.17325555 -0.27794057 0.091516 -0.28022587 -0.30662364 0.28134787
-0.2331196 0.17248502 0.025959676 0.1489583 -0.1451693 0.21679717 0.18372059 0.075582884
0.2221044 0.08972237 0.08170577 -0.23918284 0.17127721 -0.34605148 -0.3619718 -0.15183729
00000000: bf24 6cbe 4fe5 bb3e 7d8b 0c3f ebef 6b3d
00000010: a082 5e3e 321a 1d3e 01fa 833e 6622 11bd
00000020: a63b 643e 17d1 17be 38a9 72be 7fa6 84bd
00000030: e26e 79be 17e3 8d3e dbdc 0f3f 9d5d 6f3e
00000040: ed3c b8be 9de7 ac3c c8cd dcbd 8d1e 9cbc
00000050: 271f bd3e dae8 b83d 7187 213e 375a 143d
00000060: 9f62 e83d 1671 90be e769 31be 3a4e 8ebe
00000070: be6c bb3d c479 8fbe c6fd 9cbe d40c 903e
00000080: e8b6 6ebe ea9f 303e 63a9 d43c 8688 183e
00000090: 43a7 14be 1400 5e3e 4021 3c3e 33cb 9a3d
000000a0: 566f 633e 5dc0 b73d 5b55 a73d 59ec 74be
000000b0: 4b63 2f3e a92d b1be 5e54 b9be 3c7b 1bbe

VAE.Tokenizer.bias f4 [12, 4]
-0.37497926 -0.5749635 -0.4705332 0.29871085 -0.01979774 -0.13569525 0.2628497 0.13840395
0.12573881 -0.08143218 0.06956043 0.40978387 -0.06987903 0.0028231144 -0.29405254 0.33958408
-0.4224905 0.20765868 -0.34539294 0.4184878 0.12368216 -0.11464389 -0.44758537 -0.33667094
0.38760903 -0.60005695 -0.14553647 0.09010052 -0.06785284 0.35842654 0.3224463 -0.0073092054
-0.17450514 -0.4793258 0.47132176 0.17063323 -0.055641506 0.49426606 0.3529032 -0.07333818
-0.26268253 0.032998085 0.5109071 -0.3189485 0.0131497085 -0.36937496 -0.12888993 0.24758661
00000000: 48fd bfbe cf30 13bf bae9 f0be a1f0 983e
00000010: df2e a2bc b2f3 0abe 3c94 863e c4b9 0d3e
00000020: adc1 003e eac5 a6bd b375 8e3d 31cf d13e
00000030: bd1c 8fbd 0004 393b 0e8e 96be f7dd ad3e
00000040: ad50 d8be 7aa4 543e 58d7 b0be 0844 d63e
00000050: 134d fd3d 6aca eabd e929 e5be 2260 acbe
00000060: b174 c63e 559d 19bf 8307 15be 9f86 b83d
00000070: 6ef6 8abd af83 b73e ae17 a53e 0f82 efbb
00000080: 7ab1 32be 316a f5be 1651 f13e 7aba 2e3e
00000090: 59e8 63bd 7110 fd3e baaf b43e 5432 96bd
000000a0: 537e 86be 0029 073d cfca 023f 384d a3be
000000b0: e071 573c b71e bdbe b9fb 03be 5887 7d3e

VAE.Tokenizer.category_embeddings.weight f4 [3, 4]
-0.39571223 -0.0779725 0.4110462 0.57835895 0.36206824 -0.9081425 -0.39992058 -0.35068566
-0.093580194 0.32076108 0.30704665 -0.32556581
00000000: cb9a cabe 0cb0 9fbd a674 d23e 550f 143f
00000010: 0261 b93e 077c 68bf 64c2 ccbe 128d b3be
00000020: f9a6 bfbd cc3a a43e 3835 9d3e 90b0 a6be

VAE.encoder_mu.layers.0.attention.W_q.weight f4 [4, 4]
0.14761393 -0.4150676 0.23778796 0.26565388 0.44590902 -0.256259 -0.1003612 0.25737864
0.34997162 0.48880932 0.25494033 -0.30721512 0.3669238 -0.44120884 0.17472959 0.12374997
00000000: 1b28 173e be83 d4be b07e 733e c903 883e
00000010: 304e e43e 6134 83be 2c8a cdbd 22c7 833e
00000020: 7b2f b33e 3745 fa3e 8a87 823e 4d4b 9dbe
00000030: 70dd bb3e 20e6 e1be 50ec 323e a070 fd3d

VAE.encoder_mu.layers.0.attention.W_q.bias f4 [4]
0.046285726 0.046711825 0.047055386 0.0025826301
00000000: 1a96 3d3d e654 3f3d 26bd 403d 5841 293b

VAE.encoder_mu.layers.0.attention.W_k.weight f4 [4, 4]
0.09297067 0.17893367 -0.19057232 0.35045028 -0.45068374 0.21392979 0.23161677 -0.20426898
0.1152086 0.39596272 -0.21535704 0.47092825 0.3005029 -0.42793974 -0.61320585 0.22239141
00000000: 6867 be3d 633a 373e 6425 43be 386e b33e
00000010: 05c0 e6be 6910 5b3e f22c 6d3e e32b 51be
00000020: 7df2 eb3d a0bb ca3e 8e86 5cbe 821d f13e
00000030: 84db 993e eb1a dbbe 0ffb 1cbf 93ba 633e

VAE.encoder_mu.layers.0.attention.W_k.bias f4 [4]
0.0001237929 8.2040395e-05 -0.0003020299 -3.4056786e-05
00000000: 67ce 0139 1a0d ac38 c459 9eb9 32d8 0eb8

VAE.encoder_mu.layers.0.attention.W_v.weight f4 [4, 4]
0.074030444 -0.06299798 0.13471931 -0.062230006 0.05842453 -0.06827625 0.084243216 -0.07747721
0.040951077 0.04602001 -0.027034203 -0.053101152 0.094943054 -0.051045403 0.1440779 -0.03138564
00000000: 469d 973d 1605 81bd dcf3 093e e4e4 7ebd
00000010: 8f4e 6f3d 6bd4 8bbd b587 ac3d 5fac 9ebd
00000020: 51bc 273d 7a7f 3c3d d576 ddbc 9880 59bd
00000030: 8171 c23d fc14 51bd 2889 133e 3b8e 00bd

VAE.encoder_mu.layers.0.attention.W_v.bias f4 [4]
0.11390637 0.027748067 -0.20338134 0.11886316
00000000: be47 e93d ea4f e33c 3343 50be 876e f33d

VAE.encoder_mu.layers.0.linear0.weight f4 [128, 4]
0.2377449 0.15445732 0.39564732 0.22197175 0.017328324 0.52427274 -0.14034414 0.18043828
0.012796827 0.46951053 0.22942168 -0.43843707 -0.103751026 -0.43727103 0.30716968 0.07477192
0.5323669 0.06755708 0.33709925 -0.2485087 -0.2768476 0.2089964 0.118965715 -0.35487917
0.28958637 0.20287983 -0.5414829 0.3324 0.4087642 -0.47826654 -0.27871025 0.007869873
0.3179887 0.57049924 -0.13271785 -0.3439874 0.35827515 -0.05356596 -0.046056606 -0.38057667
0.15767023 0.29738986 0.37024993 0.40774885 -0.021102851 -0.29495716 -0.48071834 -0.43618912
0.19937178 0.18968648 -0.7971335 0.047266025 -0.40833145 0.1069436 0.23374681 0.0030680732
-0.07884373 0.44276288 -0.33292186 -0.21524897 -0.27448192 0.18078773 0.34614173 0.4357489
-0.2087574 0.35590133 0.069526225 -0.1277409 0.097860284 0.012237986 0.09025258 0.42721608
0.34004202 -0.052467123 -0.10190785 -0.0295759 -0.16535966 0.2128814 0.3127247 -0.14488941
-0.57886076 -0.37126285 -0.039639372 0.4584811 -0.34222054 -0.19869648 -0.11093778 0.2017693
0.23347762 -0.25220948 0.28257275 -0.14493416 -0.44423985 -0.15504439 -0.3422697 0.32758984
0.21931544 0.15993577 -0.5627241 0.19111064 0.10555876 0.15658066 -0.07489177 0.32619452
0.44672862 0.36893818 -0.20319167 0.3721687 -0.49985847 0.29824117 -0.0024718828 0.23963465
0.52714556 0.18907781 -0.19776899 0.096325316 -0.35742733 -0.033901457 -0.40274897 0.1525344
0.0075023165 -0.13006856 0.476264 0.000800541 0.12791468 -0.327296 -0.25069293 0.0804016
0.31613222 -0.24863185 0.27771848 -0.02595399 -0.17133495 -0.18244362 0.26162508 0.06772127
0.46763232 0.245932 -0.004171378 0.47341213 0.23658487 0.41699228 -0.2576845 0.3329799
-0.18666929 0.44074857 -0.18726295 0.45462433 -0.00095019507 0.6559732 -0.38823628 -0.092464335
-0.37063962 -0.0073936656 0.2398117 -0.57079476 0.04043563 0.21234249 -0.33750716 -0.29137
-0.5609751 -0.25530943 -0.20539773 0.08413315 0.32386872 0.043494064 0.20061295 0.36235985
-0.41404998 -0.50116664 0.117082894 0.17245902 -0.26473325 -0.5046006 0.47973645 0.096243836
-0.07507975 0.43381408 0.47464767 0.048632942 -0.12729688 0.3390205 0.46287236 0.14432353
0.42120436 -0.35483512 -0.31240407 -0.19360162 0.5125381 -0.490868 -0.17339034 -0.34653598
0.31448874 0.009231076 -0.25184274 -0.3733967 0.16343081 -0.3522886 -0.028939102 0.25307348
0.4773684 -0.42781323 -0.30007565 0.10047354 0.32717335 0.10403774 0.37786105 0.3638307
0.3124811 -0.40703872 -0.38731426 0.09805099 0.4093341 0.061694607 -0.4378215 0.06920917
-0.4510884 0.21896411 0.26468995 -0.21502177 0.1536418 -0.3259581 0.26411405 0.21822515
0.015945105 -0.17259744 0.42899975 0.4656277 -0.2389811 0.3029098 -0.39967299 0.28216356
-0.4931607 0.13293156 0.181256 -0.15707724 -0.4074943 0.66637564 0.5742903 -0.21612549
0.02749749 0.21676195 -0.55184317 0.07479374 0.43436354 0.3701087 0.040058173 0.06009882
0.11338133 -0.3710708 0.06074882 -0.23972921 0.3135273 0.10382067 -0.24402261 -0.0860471
00000000: 6673 733e 0f2a 1e3e 4992 ca3e 904c 633e
00000010: 21f4 8d3c bd36 063f 60b6 0fbe d0c4 383e
00000020: c8a9 513c af63 f03e 84ed 6a3e d37a e0be
00000030: 6b7b d4bd fde1 dfbe 5845 9d3e 0522 993d
00000040: 3249 083f 5e5b 8a3d 4698 ac3e 1179 7ebe
00000050: f8be 8dbe 2703 563e 4ca4 f33d b9b2 b5be
00000060: aa44 943e bbbf 4f3e a09e 0abf 5530 aa3e
00000070: 8b49 d13e 5adf f4be 1cb3 8ebe a4f0 003c
00000080: 6acf a23e 3d0c 123f 30e7 07be 1e1f b0be
00000090: d76f b73e fb67 5bbd daa5 3cbd f2da c2be
000000a0: 4e74 213e 7c43 983e 6691 bd3e 75c4 d03e
000000b0: e3df acbc a004 97be b720 f6be 2e54 dfbe
000000c0: 1e28 4c3e 2c3d 423e f110 4cbf 059a 413d
000000d0: d210 d1be 3f05 db3d 535b 6f3e ba11 493b
000000e0: d278 a1bd d1b1 e23e bc74 aabe 3a6a 5cbe
000000f0: e588 8cbe 6b20 393e 7d39 b13e 7b1a df3e
00000100: 80c4 55be b338 b63e c463 8e3d 83ce 02be
00000110: f96a c83d d581 483c 58d6 b83d 11bc da3e
00000120: fd19 ae3e c4e7 56bd 10b5 d0bd 2849 f2bc
00000130: 0b54 29be 95fd 593e 741d a03e e45d 14be
00000140: 3830 14bf 2a16 bebe e55c 22bd 09be ea3e
00000150: 8837 afbe 1777 4bbe 5933 e3bd 9d9c 4e3e
00000160: c214 6f3e 9a21 81be 60ad 903e 9f69 14be
00000170: 6873 e3be f5c3 1ebe f93d afbe dbb9 a73e
00000180: 3a94 603e 34c6 233e b00e 10bf 82b2 433e
00000190: 312f d83d ae56 203e db60 99bd f802 a73e
000001a0: 9db9 e43e 77e5 bc3e 7a11 50be e58c be3e
000001b0: 73ed ffbe 11b3 983e 50ff 21bb c962 753e
000001c0: 03f3 063f 9d9d 413e f483 4abe 3546 c53d
000001d0: b700 b7be 41dc 0abd 1d35 cebe fa31 1c3e
000001e0: fed5 f53b b130 05be e0d8 f33e 66db 513a
000001f0: 11fc 023e 5793 a7be d35a 80be 98a9 a43d
00000200: 15dc a13e 5999 7ebe 1e31 8e3e 769d d4bc
00000210: 6e72 2fbe 80d2 3abe b9f3 853e 73b1 8a3d
00000220: 816d ef3e 99d5 7b3e 0eb0 88bb 1363 f23e
00000230: 4e43 723e 0380 d53e 39ef 83be 577c aa3e
00000240: 3c26 3fbe cca9 e13e dcc1 3fbe 85c4 e83e
00000250: 8316 79ba dced 273f e8c6 c6be f15d bdbd
00000260: 7ac4 bdbe 9046 f2bb 3391 753e 9b1f 12bf
00000270: d59f 253d 4f70 593e bdcd acbe 732e 95be
00000280: 109c 0fbf ebb7 82be c853 52be 004e ac3d
00000290: 1fd2 a53e d526 323d 7b6d 4d3e 3b87 b93e
000002a0: 5cfe d3be 754c 00bf 28c9 ef3d 1999 303e
000002b0: 1e8b 87be 812d 01bf 04a0 f53e 7d1b c53d
000002c0: 69c3 99bd e11c de3e 0505 f33e 5633 473d
000002d0: 1d5a 02be 1894 ad3e 9bfd ec3e 8cc9 133e
000002e0: 19a8 d73e f3ac b5be 6df3 9fbe 813f 46be
000002f0: b235 033f 0d53 fbbe 3d8d 31be 2a6d b1be
00000300: ab04 a13e f03d 173c 88f1 80be da2d bfbe
00000310: 685a 273e 2c5f b4be b211 edbc d992 813e
00000320: a269 f43e 560a dbbe 84a3 99be 12c5 cd3d
00000330: 4483 a73e bd11 d53d 0177 c13e 0448 ba3e
00000340: 86fd 9f3e 6167 d0be 0e4e c6be f5ce c83d
00000350: 3d94 d13e 7cb3 7c3d 242a e0be 8abd 8d3d
00000360: 0ff5 e6be 2138 603e 7185 873e ab2e 5cbe
00000370: 4754 1d3e fbe3 a6be f539 873e 6a76 5f3e
00000380: 4f9f 823c 62bd 30be dba5 db3e c166 ee3e
00000390: 76b7 74be fe16 9b3e f0a1 ccbe be77 903e
000003a0: 8f7f fcbe 361f 083e 2c9b 393e dbd8 20be
000003b0: 18a3 d0be 9897 2a3f b004 133f 0050 5dbe
000003c0: 6b42 e13c d8f6 5d3e 9845 0dbf 762d 993d
000003d0: e664 de3e e37e bd3e 0a14 243d 2e2a 763d
000003e0: 7934 e83d fefc bdbe c1d3 783d 937b 75be
000003f0: a686 a03e ee9f d43d 10e1 79be 7639 b0bd

VAE.encoder_mu.layers.0.linear0.bias f4 [128]
-0.20888823 -0.08665993 -0.16017008 0.47815135 0.18426396 0.04111286 0.3623695 -0.3563962
-0.3026046 0.4198999 0.32274076 -0.2217365 -0.27292964 0.2685557 0.25960684 -0.24560803
-0.001400359 -0.46921182 -0.06699608 -0.19421415 -0.30080315 0.33635035 0.38470817 0.31937698
0.1423832 -0.25262946 0.20401251 0.22282897 0.021786278 0.2921862 0.16898979 0.3726753
0.072616294 -0.05877305 0.09331761 0.16829199 0.34001356 -0.10477927 -0.15638056 0.17448254
-0.45096445 -0.4916278 -0.1045086 -0.3349084 0.12999354 -0.5688042 0.39374942 0.4610604
0.17006314 0.2985544 -0.38607514 0.069073446 -0.03077164 0.20054767 -0.25767952 -0.19595362
-0.33239636 0.4084963 -0.5077317 -0.30780804 0.26660594 -0.01988266 0.34853664 0.41076437
-0.3348301 0.3794088 0.1410072 0.29459196 0.19551627 0.31431687 0.36328247 -0.041260064
-0.22504134 0.42219195 0.041991472 0.1242222 0.14947969 -0.3410925 -0.30583075 -0.47064847
0.47263327 0.30519873 -0.44297168 -0.32663614 0.41483864 0.37672338 -0.0946791 0.45812342
-0.5180084 0.18710315 0.061781686 0.2925056 -0.35791263 -0.3752038 0.02893557 -0.03196813
-0.17219427 0.08629758 0.059901062 0.20048137 0.4990219 0.22975288 0.32244596 -0.13687056
-0.41941175 -0.34002012 -0.03837948 -0.34112275 0.31706384 0.014100222 0.15760927 0.2745378
-0.31256652 -0.20826633 0.17770633 0.2326026 0.37081528 -0.12244483 -0.03349413 -0.48665488
-0.022450406 0.046542086 -0.520807 0.10255504 0.31764624 0.22594306 0.48453176 0.05813182
00000000: cce6 55be c37a b1bd a003 24be 41d0 f43e
00000010: b1af 3c3e f565 283d 7f88 b93e 9079 b6be
00000020: fdee 9abe 1ffd d63e 473e a53e e50e 63be
00000030: 6fbd 8bbe 2280 893e 30eb 843e ac80 7bbe
00000040: 408c b7ba 883c f0be 3e35 89bd 13e0 46be
00000050: df02 9abe 1d36 ac3e 78f8 c43e 6185 a33e
00000060: e7cc 113e a658 81be a8e8 503e 472d 643e
00000070: 2379 b23c 6e99 953e a90b 2d3e 4ccf be3e
00000080: dab7 943d 02bc 70bd 4e1d bf3d bc54 2c3e
00000090: 4216 ae3e 8496 d6bd 3a22 20be 8dab 323e
000000a0: d0e4 e6be a4b6 fbbe 9b08 d6bd 1d79 abbe
000000b0: 071d 053e 279d 11bf 8699 c93e 1c10 ec3e
000000c0: 0825 2e3e 1fdc 983e a4ab c5be 6176 8d3d
000000d0: ce14 fcbc 5e5c 4d3e 92ee 83be 11a8 48be
000000e0: db2f aabe 6d26 d13e b4fa 01bf 0499 9dbe
000000f0: 9380 883e f6e0 a2bc 6573 b23e b54f d23e
00000100: da6e abbe df41 c23e 3164 103e c2d4 963e
00000110: 6b35 483e 24ee a03e 2900 ba3e 5000 29bd
00000120: 3d71 66be 8b29 d83e 40ff 2b3d 3568 fe3d
00000130: 3411 193e ada3 aebe d995 9cbe d6f8 f0be
00000140: fdfc f13e 0243 9c3e 2fcd e2be da3c a7be
00000150: bb65 d43e e3e1 c03e 1ee7 c1bd 278f ea3e
00000160: 339c 04bf f897 3f3e cb0e 7d3d 4bc3 953e
00000170: 5340 b7be b61a c0be 4a0a ed3c 04f1 02bd
00000180: b253 30be c9bc b03d d15a 753d fd4a 4d3e
00000190: cc7f ff3e 5744 6b3e a317 a53e cc27 0cbe
000001a0: 23bd d6be 1e17 aebe cd33 1dbd a4a7 aebe
000001b0: 3156 a23e 9e04 673c 5364 213e 3890 8c3e
000001c0: b808 a0be c543 55be a6f8 353e 602f 6e3e
000001d0: 80db bd3e 5bc4 fabd 2431 09bd d42a f9be
000001e0: eae9 b7bc eaa2 3e3d 9c53 05bf 6008 d23d
000001f0: 87a2 a23e 9e5d 673e 8c14 f83e a21b 6e3d

VAE.encoder_mu.layers.0.linear1.weight f4 [4, 128]
0.04312519 0.12874642 0.12685387 -0.029333629 -0.018389104 0.07355928 0.017116804 -0.03184733
0.035535756 -0.020048786 0.03196955 0.021923458 0.033822674 0.0003940242 0.10721455 0.07063826
-0.17961971 -0.10701557 0.09359928 0.029178347 -0.03138735 -0.090136826 -0.06407055 -0.08231713
-0.03223506 -0.012609084 0.08427479 -0.015464051 -0.04506499 -0.022340834 -0.18311024 -0.031978164
-0.02398483 -0.1077297 0.08425701 -0.025558377 -0.11148925 -0.17433213 0.14037761 -0.015727654
0.064516544 0.012066753 -0.05910675 -0.04611062 0.01675469 -0.112111755 -0.038686078 -0.089123026
0.0071426225 0.04949371 -0.051678807 -0.078723885 -0.06896676 -0.042399846 -0.037233934 -0.051174674
0.0029900193 -0.015024212 -0.051132645 0.033466477 0.08561526 0.04924474 -0.09909196 -0.016580554
0.10844938 0.059113283 -0.029723927 -0.08898345 0.047835663 -0.047174342 -0.05330881 -0.05689584
0.086031884 0.06027721 0.037535604 0.064011335 -0.09436658 0.093695104 -0.034774065 -0.12643176
0.016112553 -0.045752022 -0.12684025 0.07907836 0.08800863 -0.032980956 0.004582715 -0.053771485
-0.093084835 -0.05845283 -0.04962887 -0.006648501 -0.0057344045 0.23594296 0.024588583 -0.20283426
0.14437719 0.020554785 -0.048591863 0.03085443 0.0781861 0.06309644 -0.0011691331 -0.03225899
-0.19096309 0.14432527 -0.054738346 0.037713345 -0.043693908 -0.10915062 -0.02864409 -0.062033072
0.01248146 0.045019284 0.11708635 0.058449116 -0.052926734 -0.074919745 0.062133588 0.06924962
0.078032255 0.001022645 -0.05687629 -0.10040047 0.014117168 0.060832467 -0.08916349 -0.0016010231
0.05325573 -0.16895054 -0.12081997 0.06475793 -0.02504627 0.049871717 -0.019451471 -0.058599405
-0.05017126 0.008246508 -0.009505454 0.095409214 0.16247289 -0.0591298 -0.023158388 0.09771826
-0.045412544 0.11212769 -0.019052492 -0.017902583 0.057929482 -0.05342454 -0.043621298 0.11233451
0.04532446 0.00472665 0.017748863 0.05382701 -0.0015189268 0.062509015 0.02168734 -0.038959466
-0.0086362 0.11544111 0.04301202 0.0077220486 0.04734291 0.048943844 -0.17077862 0.054470092
0.036619104 0.017587177 -0.0073614446 0.086899586 -0.10058211 -0.059012964 0.06550537 0.06560964
-0.0056091715 0.10324186 -0.011697336 0.0033408774 -0.04257837 0.022306131 0.07476795 -0.06040996
-0.08476992 0.044328187 0.056819215 0.028259084 0.003439572 0.08450642 -0.044817362 -0.052153043
0.07372574 -0.008418371 0.10692649 -0.057626024 0.052178472 0.045385897 -0.057413954 0.085523635
-0.284253 -0.004229816 0.026830513 0.057817075 0.06144836 -0.040290784 0.16372946 0.051894337
-0.024810355 -0.09028181 0.12247093 0.065602064 0.049734257 0.053083964 0.022678223 -0.065787636
0.09014126 0.067732826 0.024699612 0.110439904 0.13704623 -0.21459351 0.10998648 0.28231198
-0.10421154 -0.016808018 0.03167659 0.05601934 -0.095806114 -0.034622103 -0.030616634 0.11279422
0.050109196 -0.215367 0.058894448 0.035152733 0.006508187 -0.016861398 -0.00921454 0.09381937
-0.057876587 -0.09552863 0.049530335 0.12826525 -0.003606937 0.10411642 0.023966838 0.08586803
0.03771539 0.015141948 0.026912365 -0.027617807 -0.029871574 -0.0035399855 0.014267757 -0.007583659
00000000: 0aa4 303d 1ad6 033e fbe5 013e 144d f0bc
00000010: bfa4 96bc 3fa6 963d 8a38 8c3c 5972 02bd
00000020: f18d 113d 5a3d a4bc 81f2 023d d398 b33c
00000030: a589 0a3d 0895 ce39 4d93 db3d cbaa 903d
00000040: 3bee 37be fb2a dbbd fbb0 bf3d 6e07 ef3c
00000050: 0690 00bd a899 b8bd 6c37 83bd e295 a8bd
00000060: e908 04bd 5596 4ebc 4398 ac3d ee5c 7dbc
00000070: 1196 38bd 2004 b7bc 4081 3bbe 89fb 02bd
00000080: d67b c4bc 64a1 dcbd f08e ac3d cd5f d1bc
00000090: 7a54 e4bd 1f84 32be 26bf 0f3e 48d7 80bc
000000a0: 4021 843d a1b3 453c eb19 72bd 7dde 3cbd
000000b0: 2241 893c d99a e5bd 4b75 1ebd 2286 b6bd
000000c0: a90c ea3b ebb9 4a3d 28ad 53bd fd39 a1bd
000000d0: 723e 8dbd 76ab 2dbd 9c82 18bd 899c 51bd
000000e0: 33f4 433b 1d28 76bc 7770 51bd 2514 093d
000000f0: 0e57 af3d dab4 493d baf0 cabd f1d3 87bc
00000100: b51a de3d c520 723d 987f f3bc f43c b6bd
00000110: 54ef 433d e239 41bd 575a 5abd 9d0b 69bd
00000120: 7c31 b03d 3ce5 763d efbe 193d 6018 833d
00000130: 4443 c1bd 38e3 bf3d 406f 0ebd 5477 01be
00000140: 79fe 833c 7966 3bbd 69e2 01be d6f3 a13d
00000150: de3d b43d 0a17 07bd 9a2a 963b 7d3f 5cbd
00000160: 43a3 bebd 3c6c 6fbd a447 4bbd abdb d9bb
00000170: ace7 bbbb 089b 713e ff6d c93c c9b3 4fbe
00000180: 9dd7 133e 8262 a83c 4308 47bd 6ec2 fc3c
00000190: 0920 a03d b538 813d 993d 99ba 0122 04bd
000001a0: d48b 43be 01ca 133e 5135 60bd 4f79 1a3d
000001b0: 62f8 32bd 5c8a dfbd 03a7 eabc 6416 7ebd
000001c0: 0a7f 4c3c 2466 383d f8ca ef3d 5768 6f3d
000001d0: b4c9 58bd 866f 99bd ca7f 7e3d bfd2 8d3d
000001e0: 60cf 9f3d 460a 863a 1df7 68bd c39e cdbd
000001f0: b24b 673c 772b 793d 599b b6bd 6cd9 d1ba
00000200: ae22 5a3d 5f01 2dbe 7670 f7bd ce9f 843d
00000210: d62d cdbc 4946 4c3d b158 9fbc ee05 70bd
00000220: 6180 4dbd 5d1c 073c c4bc 1bbc e865 c33d
00000230: 4b5f 263e 1732 72bd a9b6 bdbc 8320 c83d
00000240: 8102 3abd 34a3 e53d f913 9cbc 70a8 92bc
00000250: 7747 6d3d b1d3 5abd 3fac 32bd a30f e63d
00000260: 24a6 393d 04e2 9a3b 1066 913c b679 5c3d
00000270: ba16 c7ba ba04 803d a6a9 b13c f693 1fbd
00000280: d97e 0dbc 646c ec3d 5f2d 303d 3d09 fd3b
00000290: a4ea 413d 5779 483d 97e0 2ebe 081c 5f3d
000002a0: eafd 153d fc12 903c 4638 f1bb 69f8 b13d
000002b0: fefd cdbd 94b7 71bd ae27 863d 595e 863d
000002c0: 24cd b7bb 7870 d33d 2fa6 3fbc 9ff2 5a3b
000002d0: a866 2ebd 59bb b63c f01f 993d 6f70 77bd
000002e0: da9b adbd 7991 353d 44bb 683d 987f e73c
000002f0: 716a 613b b411 ad3d 6992 37bd 6e9e 55bd
00000300: 85fd 963d 35ed 09bc 47fc da3d 4409 6cbd
00000310: 18b9 553d 90e6 393d e52a 6bbd 0427 af3d
00000320: 9c89 91be 459a 8abb aacb db3c 99d1 6c3d
00000330: 47b1 7b3d f307 25bd b2a8 273e 288f 543d
00000340: 163f cbbc abe5 b8bd 0ad2 fa3d 605a 863d
00000350: 26b6 4b3d 926e 593d aec7 b93c abbb 86bd
00000360: fb9b b83d 82b7 8a3d d756 ca3c 512e e23d
00000370: d955 0c3e 67be 5bbe 9740 e13d 328b 903e
00000380: dc6c d5bd f8b0 89bc 50bf 013d 8974 653d
00000390: ff35 c4bd e8cf 0dbd bccf fabc a800 e73d
000003a0: 4d3f 4d3d 2b89 5cbe 4e3b 713d 50fc 0f3d
000003b0: a142 d53b ea20 8abc 95f8 16bc 5f24 c03d
000003c0: 0010 6dbd 84a4 c3bd 52e0 4a3d f757 033e
000003d0: 5c62 6cbb fd3a d53d 1a56 c43c 94db af3d
000003e0: 747b 1a3d ef15 783c 5277 dc3c bd3e e2bc
000003f0: 3bb5 f4bc 1aff 67bb 4fc3 693c 5880 f8bb

VAE.encoder_mu.layers.0.linear1.bias f4 [4]
0.0072155166 0.11258641 0.06794292 -0.115906715
00000000: 2470 ec3b b493 e63d a825 8b3d 8060 edbd

VAE.encoder_mu.layers.0.norm1.weight f4 [4]
1.0310606 1.124998 1.0962656 1.0233848
00000000: cbf9 833f efff 8f3f 6e52 8c3f 46fe 823f

VAE.encoder_mu.layers.0.norm1.bias f4 [4]
0.038045276 0.021710975 -0.060962003 0.012651575
00000000: 5dd5 1b3d 37db b13c 4bb3 79bd 8d48 4f3c

VAE.encoder_mu.layers.1.attention.W_q.weight f4 [4, 4]
0.17942391 0.19030462 0.6229858 0.36404523 0.0020574091 0.101640634 0.024812276 -0.030989848
-0.5690123 -0.3056944 0.17419294 0.033898667 0.25193596 0.03527919 0.47734594 -0.23482312
00000000: e7ba 373e 37df 423e ff7b 1f3f 2364 ba3e
00000010: 99d5 063b f728 d03d 1d43 cb3c 6cde fdbc
00000020: caaa 11bf fa83 9cbe a25f 323e 54d9 0a3d
00000030: c0fd 803e e980 103d b066 f43e 7975 70be

VAE.encoder_mu.layers.1.attention.W_q.bias f4 [4]
-0.058867734 0.06110538 0.050272964 0.008115587
00000000: 4b1f 71bd a349 7a3d 06eb 4d3d 3df7 043c

VAE.encoder_mu.layers.1.attention.W_k.weight f4 [4, 4]
0.16177203 -0.28881168 0.31115365 -0.56050366 -0.5304576 0.13893002 0.17543168 0.40802133
0.26684773 0.3788133 -0.25002632 0.30344185 -0.16753012 0.15066335 0.36608028 -0.2828737
00000000: 91a7 253e 20df 93be 884f 9f3e 2b7d 0fbf
00000010: 12cc 07bf ac43 0e3e 5da4 333e 2ce8 d03e
00000020: 44a0 883e d1f3 c13e 7303 80be bb5c 9b3e
00000030: 048d 2bbe 7e47 1a3e e06e bb3e d2d4 90be

VAE.encoder_mu.layers.1.attention.W_k.bias f4 [4]
1.1961467e-05 2.4664467e-05 -0.00029110035 -2.7700185e-05
00000000: 1cae 4837 8ae6 ce37 d49e 98b9 b25d e8b7

VAE.encoder_mu.layers.1.attention.W_v.weight f4 [4, 4]
-0.3064076 0.26102898 0.25469786 -0.33932725 -0.19154109 0.33265018 0.46522287 -0.12966551
-0.03756775 0.32225466 0.15638588 -0.122205496 0.20705281 0.39540792 0.16188128 0.06822973
00000000: 75e1 9cbe 97a5 853e c267 823e 4dbc adbe
00000010: 5923 44be 2051 aa3e b131 ee3e 09c7 04be
00000020: a4e0 19bd 90fe a43e 9f23 203e e046 fabd
00000030: a705 543e e872 ca3e 35c4 253e 07bc 8b3d

VAE.encoder_mu.layers.1.attention.W_v.bias f4 [4]
0.051394396 -0.00012748971 -0.023801789 -0.00092310685
00000000: ee82 523d c2ae 05b9 f8fb c2bc a7fc 71ba

VAE.encoder_mu.layers.1.linear0.weight f4 [128, 4]
0.35504442 -0.2511618 0.08826466 0.058558136 -0.32896882 0.07378884 0.34781852 -0.2382727
0.4766573 0.2295133 -0.017597595 0.0653038 0.39099854 0.13581868 -0.18002944 -0.40370953
0.3684285 0.09721969 -0.099562414 0.24077366 -0.19858408 -0.29025358 -0.15481335 -0.30520427
0.17939518 -0.33667377 -0.2762178 -0.27521238 -0.48389575 -0.35637227 0.019169603 -0.019515341
-0.48053053 -0.30022106 -0.22049747 0.633876 -0.42235994 0.2474095 0.27312073 -0.061088238
-0.15935221 0.0025005436 0.3799213 -0.16536821 0.46128178 0.22679162 -0.34054908 -0.14962265
0.43061274 0.31047648 0.050265595 -0.33112553 0.30622795 0.46183804 0.03757265 -0.17188011
-0.42768303 -0.0067096674 -0.7187152 0.7758406 0.48774248 -0.3266724 0.03932037 -0.12298807
-0.4054667 -0.37442085 -0.24201539 0.50972813 0.074439846 0.41459784 -0.64856786 -0.19397348
-0.07622368 0.44480366 0.080643065 0.46075672 -0.42414236 -0.022375597 0.3809347 -0.39138427
0.36867306 0.52044004 -0.7004314 -0.0114782145 -0.2167235 0.018240828 -0.058883917 -0.43661043
0.15239422 -0.36884832 0.34191263 -0.5174222 0.07052328 -0.37575322 0.24791351 -0.36253002
0.33383343 -0.09938012 -0.38677168 0.044432804 -0.018373936 0.42680272 -0.33674747 -0.049144283
0.18384014 0.3554207 -0.46303847 -0.21355234 0.42157948 0.14807868 0.38438353 -0.3539982
-0.24132694 0.2991502 0.2787266 -0.0954761 -0.0616813 -0.44341734 0.14921731 -0.39135155
-0.42259943 0.27950633 0.13178098 -0.36817005 -0.06054762 -0.48135412 0.15811914 0.45541206
-0.28987172 -0.1863397 -0.05561438 0.054478675 -0.25553077 0.46026808 -0.24392179 -0.24462612
-0.22385958 0.42213178 -0.10603989 0.12176929 0.010035391 -0.16970463 0.46140218 -0.29121885
-0.27243423 -0.17810754 -0.05317687 -0.06561691 -0.47360015 0.21235679 -0.17456038 -0.31155235
-0.04353343 -0.3683676 -0.2125927 0.432745 0.5708592 0.18507467 -0.5550651 -0.05170091
-0.10021174 -0.35425407 0.0056710597 0.22556871 -0.36010012 -0.0344859 -0.4294335 0.48962364
-0.10456742 0.2980177 -0.58535165 -0.277836 -0.27216405 0.28632778 0.4727804 -0.071748585
0.31188816 0.35446632 0.4481086 0.45579207 -0.13899444 0.1282823 0.32985875 -0.3927558
-0.5479217 -0.49194023 0.3021712 -0.16651364 0.015330953 -0.44826195 -0.5621234 0.019931043
0.43208718 -0.026538594 -0.0052880314 0.4994095 -0.0816186 0.263977 0.23231395 -0.38524458
-0.2710567 -0.45882985 0.35804063 -0.2421705 0.12763752 -1.4693886 0.07122989 -0.40975916
0.20216241 0.3141033 0.17260191 -0.517196 -0.32488656 -0.21763179 0.3356796 -0.24538618
-0.08053245 0.33604872 0.12145067 -0.4812178 -0.24284488 -0.24330306 -0.32473344 -0.377181
0.18145345 -0.42727757 -0.08810882 -0.37555647 -0.007970314 0.20106676 0.16041206 -0.44049856
0.10837628 0.44061214 -0.6265597 -0.19328053 0.13494119 0.37693498 0.086577535 0.3855682
0.38715515 -0.09526048 0.33403906 -0.3015005 0.060717307 0.10885247 0.3348695 0.027543673
0.29381603 0.05089727 0.27129835 -0.2905179 0.46859682 -0.031397484 -0.37894392 0.4033849
00000000: 62c8 b53e 4898 80be 1ac4 b43d a8da 6f3d
00000010: 9a6e a8be 9a1e 973d 4515 b23e c2fd 73be
00000020: 6d0c f43e 8905 6b3e d528 90bc 00be 853d
00000030: f630 c83e 0d14 0b3e a359 38be 04b3 cebe
00000040: a9a2 bc3e 1e1b c73d 61e7 cbbd 5f8d 763e
00000050: a059 4bbe 1e9c 94be 6487 1ebe bc43 9cbe
00000060: 5fb3 373e 8160 acbe 6b6c 8dbe a3e8 8cbe
00000070: 2fc1 f7be 6d76 b6be 9209 9d3c a3de 9fbc
00000080: 1908 f6be 93b6 99be 17ca 61be b345 223f
00000090: 903f d8be ea58 7d3e 7bd6 8b3e a937 7abd
000000a0: 3a2d 23be 29e0 233b 0b85 c23e 4956 29be
000000b0: 202d ec3e 103c 683e 735c aebe ae36 19be
000000c0: 4679 dc3e c6f6 9e3e 4ce3 4d3d 4989 a9be
000000d0: e9c9 9c3e 0976 ec3e c7e5 193d 5701 30be
000000e0: 45f9 dabe c5dc dbbb b8fd 37bf 7d9d 463f
000000f0: 62b9 f93e 9b41 a7be 650e 213d 2be1 fbbd
00000100: 5599 cfbe 17b4 bfbe e2d2 77be 8b7d 023f
00000110: eb73 983d 2b46 d43e 8b08 26bf fca0 46be
00000120: 291b 9cbd 4ebd e33e 3128 a53d 4ee8 eb3e
00000130: 3029 d9be 074d b7bc df09 c33e 8563 c8be
00000140: b7c2 bc3e 8f3b 053f 794f 33bf 1f0f 3cbc
00000150: c4ec 5dbe ca6d 953c 4330 71bd 678b dfbe
00000160: 3b0d 1c3e b0d9 bcbe 2c0f af3e c875 04bf
00000170: 826e 903d ba62 c0be 0add 7d3e 899d b9be
00000180: 37ec aa3e ce87 cbbd f006 c6be 2cff 353d
00000190: f084 96bc e385 da3e 2a6a acbe 844b 49bd
000001a0: 9740 3c3e b4f9 b53e 6113 edbe 77ad 5abe
000001b0: 44d9 d73e f0a1 173e ebcd c43e 413f b5be
000001c0: 691e 77be 372a 993e 41b5 8e3e f988 c3bd
000001d0: 88a5 7cbd 9907 e3be 6ccc 183e 3b5f c8be
000001e0: f45e d8be 741b 8f3e 98f1 063e c980 bcbe
000001f0: c800 78bd 0c74 f6be fce9 213e c52b e93e
00000200: 116a 94be d6cf 3ebe e7cb 63bd 0825 5f3d
00000210: eed4 82be 42a8 eb3e a2c6 79be 457f 7abe
00000220: 723b 65be a821 d83e 712b d9bd 2d62 f93d
00000230: 7b6b 243c 0dc7 2dbe e83c ec3e a31a 95be
00000240: 807c 8bbe d361 36be fdcf 59bd 2962 86bd
00000250: b87b f2be 0f74 593e f5bf 32be ca83 9fbe
00000260: 1c50 32bd ae9a bcbe e7b1 59be c190 dd3e
00000270: d423 123f 3784 3d3e bf18 0ebf 55c4 53bd
00000280: d03b cdbd ca60 b5be 4cd4 b93b 7cfb 663e
00000290: 0b5f b8be 1641 0dbd b5de dbbe f3af fa3e
000002a0: 7227 d6bd c795 983e 9bd9 15bf 8540 8ebe
000002b0: 1659 8bbe 8e99 923e 4610 f23e ecf0 92bd
000002c0: ceaf 9f3e 9c7c b53e 7e6e e53e 945d e93e
000002d0: 8f54 0ebe 6f5c 033e 3fe3 a83e 4a17 c9be
000002e0: 9944 0cbf 97df fbbe 2fb6 9a3e 8d82 2abe
000002f0: ad2e 7b3c 9782 e5be 52e7 0fbf 6d46 a33c
00000300: 883a dd3e 7767 d9bc 3947 adbb 9ab2 ff3e
00000310: a727 a7bd fe27 873e b5e3 6d3e c73e c5be
00000320: f2c7 8abe bfeb eabe 1a51 b73e 8bfb 77be
00000330: 69b3 023e ed14 bcbf fae0 913d f4cb d1be
00000340: aa03 4f3e 26d2 a03e 8ebe 303e f566 04bf
00000350: 8857 a6be deda 5ebe 32de ab3e 8446 7bbe
00000360: 32ee a4bd 940e ac3e 21bb f83d 2e62 f6be
00000370: 54ac 78be 7024 79be 7643 a6be de1d c1be
00000380: efce 393e 20c4 dabe 6672 b4bd f048 c0be
00000390: eb95 02bc 72e4 4d3e 0f43 243e 0789 e1be
000003a0: 62f4 dd3d ea97 e13e 3766 20bf 55eb 45be
000003b0: 062e 0a3e 9ffd c03e 904f b13d 3269 c53e
000003c0: 3339 c63e ed17 c3bd 2b07 ab3e 465e 9abe
000003d0: b6b2 783d 0bee de3d 0474 ab3e 45a3 e13c
000003e0: 0e6f 963e a879 503d 9ee7 8a3e c3be 94be
000003f0: eceb ef3e a69a 00bd f004 c2be 7788 ce3e

VAE.encoder_mu.layers.1.linear0.bias f4 [128]
-0.21510348 -0.39602086 -0.26169413 -0.42793393 0.19624911 -0.3372882 -0.28714213 -0.30151767
-0.11692744 -0.2789381 -0.083468646 -0.51910996 -0.010551127 0.3587171 -0.42085543 -0.3129947
-0.45086014 -0.28413537 -0.44541252 -0.34958702 -0.37214515 -0.29223278 0.28408393 -0.4629873
-0.12073634 0.40357372 0.3642102 -0.04854828 0.22612496 0.44090024 -0.15564369 0.06658515
0.29449067 0.114106946 0.3648886 -0.30891037 0.2288399 0.4199938 0.07355428 0.09571915
-0.34358573 -0.04525738 -0.15864499 -0.20628287 -0.31220907 -0.47523466 -0.2289154 0.006910998
-0.38352773 0.13168609 -0.2074792 -0.09778792 -0.16677526 -0.091644034 -0.56671035 -0.25005412
0.2951883 0.28016847 -0.26315415 -0.052917432 -0.30496567 0.15172388 -0.22827649 0.21218494
-0.5418536 0.08427887 -0.19257095 -0.24697967 0.24532945 0.29129255 0.4920847 0.34162188
0.41492054 -0.069079496 0.049847767 0.2551388 -0.37754685 -0.06781952 -0.079242915 0.16820388
0.50350374 0.32124823 -0.016924787 -0.021609139 0.31813148 0.27103564 -0.5060216 0.41341263
0.22225027 -0.31711474 0.27852836 0.3799875 -0.15178743 -0.26999995 0.23531087 -0.45311105
-0.2881935 0.27193376 0.14555372 -0.25179595 -0.22257075 0.29334855 0.1614095 -0.111279495
0.23610544 0.23093855 0.30383942 -0.24385461 0.051647082 -0.18336372 0.45428377 0.448901
0.1997996 -0.38589054 0.19014284 -0.25192633 -0.25044042 0.05318169 0.48847026 -0.37315363
0.32264185 -0.031942133 0.035982005 -0.18864934 -0.57591724 -0.19194013 0.41747364 -0.36706635
00000000: 1644 5cbe 3fc3 cabe c6fc 85be 281a dbbe
00000010: 87f5 483e 0ab1 acbe 4b04 93be 8660 9abe
00000020: a777 efbd fad0 8ebe 9cf1 aabd 64e4 04bf
00000030: a2de 2cbc c5a9 b73e 5d7a d7be d740 a0be
00000040: 24d7 e6be 317a 91be 1c0d e4be 12fd b2be
00000050: cf89 bebe 899f 95be 7373 913e ac0c edbe
00000060: 9d44 f7bd 37a1 ce3e c279 ba3e 90da 46bd
00000070: 4d8d 673e adbd e13e 0f61 1fbe cc5d 883d
00000080: 7bc7 963e e7b0 e93d aed2 ba3e 8029 9ebe
00000090: 0255 6a3e 6d09 d73e a0a3 963d 6708 c43d
000000a0: 78ea afbe cd5f 39bd d573 22be d13b 53be
000000b0: ded9 9fbe f551 f3be cc68 6abe a775 e23b
000000c0: bf5d c4be b8d8 063e 6d75 54be 0845 c8bd
000000d0: 22c7 2abe deaf bbbd ee13 11bf 1807 80be
000000e0: ec22 973e 3e72 8f3e 24bc 86be f3bf 58bd
000000f0: 7624 9cbe 815d 1b3e 50c1 69be 0247 593e
00000100: ebb6 0abf 669a ac3d 5231 45be 3de8 7cbe
00000110: a537 7b3e 4c24 953e 87f2 fb3e 10e9 ae3e
00000120: 7770 d43e 8d79 8dbd 2c2d 4c3d 8ea1 823e
00000130: d24d c1be f6e4 8abd 1c4a a2bd a33d 2c3e
00000140: 9fe5 003f a67a a43e daa5 8abc a605 b1bc
00000150: 21e2 a23e 2fc5 8a3e a28a 01bf d2aa d33e
00000160: 9395 633e dd5c a2be 459b 8e3e b98d c23e
00000170: 2a6e 1bbe 6f3d 8abe 55f5 703e 2cfe e7be
00000180: 198e 93be e73a 8b3e 090c 153e 66eb 80be
00000190: 96e9 63be c831 963e 8848 253e 81e6 e3bd
000001a0: a0c5 713e 287b 6c3e d790 9b3e 06b5 79be
000001b0: e48b 533d b3c3 3bbe e297 e83e 5ad6 e53e
000001c0: 4498 4c3e 7293 c5be ceb4 423e 7dfc 80be
000001d0: ba39 80be 0bd5 593d c618 fa3e fe0d bfbe
000001e0: 5031 a53e c1d5 02bd de61 133d 4b2d 41be
000001f0: 506f 13bf f48b 44be 1bbf d53e 1ff0 bbbe

VAE.encoder_mu.layers.1.linear1.weight f4 [4, 128]
-0.11694677 0.10785595 0.12843783 0.04117334 0.073984295 -0.05456807 -0.012123304 -0.14554258
0.08350355 0.00550379 0.1260776 0.058636393 0.09325357 -0.03735706 -0.081029594 -0.08835965
-0.03434774 -0.11388805 -0.040371567 -0.03367875 -0.12014639 -0.015288025 0.100820966 -0.09006618
-0.03408268 -0.049898233 0.09648826 -0.035040446 0.049288288 -0.047250994 0.049637485 -0.027707092
0.015360342 0.09564339 -0.048646238 -0.03061825 -0.0944624 -0.0011591483 -0.022849891 -0.10025711
0.010681767 0.0053209397 -0.07335737 0.09162923 -0.058821004 0.010519397 -0.12079996 -0.030860871
-0.09441723 0.020995589 0.10773455 -0.57829636 0.09364088 0.070014626 0.07778843 -0.07717366
-0.045867734 -0.059673514 -0.06597481 -0.09135542 -0.03423629 0.040848136 -0.008805045 -0.055788822
0.05550592 -0.06560402 -0.2220298 0.014862494 -0.11133016 -0.014573403 -0.024695087 -0.082415976
0.005082786 -0.0062221885 -0.0065661976 -0.079886205 -0.017160162 -0.095625035 0.085179515 0.039813317
-0.07029086 -0.07869468 -0.0641977 -0.063662164 0.0142711615 0.044779707 0.026549743 -0.051071096
-0.03597752 -0.16414712 0.038305063 -0.025392018 -0.15405108 -0.0002309541 -0.06989775 -0.047344435
-0.017923124 0.0021152236 0.039632943 0.05688933 -0.07398592 -0.011210832 -0.10766647 0.08243417
-0.024645584 0.0004232201 -0.115445696 0.010139367 0.05421375 -0.089982785 0.088664964 -0.04524444
-0.01127038 2.4597154 0.004763245 -0.13320397 -0.073467545 -0.0012793966 0.01954973 -0.12899342
-0.10771357 0.014983568 0.0058038537 0.09043606 0.09511771 -0.04838751 -0.047673624 0.0377425
0.025470003 -0.016717412 -0.100717105 -0.02841437 -0.049829796 0.0058545554 0.02247378 0.33387864
0.11400606 0.07633229 -0.044442408 0.03241923 0.02508825 -0.073668696 -0.17369969 -0.09909781
0.09829498 -0.06679451 -0.13815498 -0.057887744 -0.06830586 0.10974816 -0.09976522 0.117567
-0.036811315 -0.046642993 -0.10018537 -0.034293287 -0.014519504 -0.052310795 0.043703828 0.027092159
0.0718523 -0.14110424 0.026146121 0.023314819 -0.0023223595 0.07918366 0.017655421 -0.13700499
0.010402261 -0.1118428 -0.026899513 0.07580436 -0.0031590431 -0.09240667 -0.030935153 -0.33137476
-0.05449379 0.008015276 0.11069545 0.17330563 0.08593449 -0.0060368096 0.15613852 -0.07945807
-0.06264836 -0.013315987 -0.06156997 -0.003034746 -0.0199855 0.023261176 -0.008071583 -0.1701913
0.21684721 0.050879765 -0.38082227 0.0903389 -0.098354325 -0.0014631224 -0.0931566 0.0706341
-0.07324824 -0.018607115 0.084899046 0.0066399435 0.07236759 0.137278 -0.13878992 -0.1854909
0.025525587 -0.07379601 0.083920844 0.039441787 0.024072444 -0.037135914 -0.015562626 0.12602308
-0.18977877 0.12251203 -0.044766333 -0.07900129 0.06969517 -0.26152807 0.014203309 -0.16015004
-0.019355938 0.0928144 -0.042166784 -0.070161305 -0.15812205 -0.11149776 0.020345436 -0.15503699
-0.025667524 -0.0762778 0.058632165 -0.0036648999 0.0014487278 0.19866021 -0.012045795 -0.08803907
0.052906398 -0.7194513 -0.09688615 -0.45612255 0.066090845 0.033830784 -0.1770341 -0.052957546
0.14624152 -0.01691697 0.02016339 -0.036425725 0.10053016 -0.116093576 -0.08350513 -0.4676574
00000000: ca81 efbd 95e3 dc3d 3585 033e 60a5 283d
00000010: 1485 973d c582 5fbd d3a0 46bc 1d09 15be
00000020: e903 ab3d 2359 b43b 7d1a 013e b72c 703d
00000030: bafb be3d b703 19bd d8f2 a5bd e7f5 b4bd
00000040: 37b0 0cbd 233e e9bd a85c 25bd bbf2 09bd
00000050: 4f0f f6bd a07a 7abc 397b ce3d 9e74 b8bd
00000060: 489a 0bbd 1762 4cbd a39b c53d 9286 0fbd
00000070: 84e2 493d 428a 41bd ad50 4b3d fcf9 e2bc
00000080: f2a9 7b3c afe0 c33d 4741 47bd 20d3 fabc
00000090: 8175 c1bd 90ee 97ba b22f bbbc 9a53 cdbd
000000a0: 9402 2f3c 475b ae3b 643c 96bd 1ba8 bb3d
000000b0: 4bee 70bd 8d59 2c3c f865 f7bd f0cf fcbc
000000c0: d25d c1bd f1fe ab3c efa3 dc3d 3b0b 14bf
000000d0: cac6 bf3d d463 8f3d 8a4f 9f3d 390d 9ebd
000000e0: cedf 3bbd 376c 74bd cd1d 87bd 8d18 bbbd
000000f0: 5a3b 0cbd 6050 273d 0943 10bc d282 64bd
00000100: 2d5a 633d 675b 86bd c85b 63be d181 733c
00000110: 1101 e4bd 48c5 6ebc 5a4d cabc b5c9 a8bd
00000120: 808d a63b 80e3 cbbb 4229 d7bb 619b a3bd
00000130: 7893 8cbc 0fd7 c3bd 9972 ae3d 4a13 233d
00000140: a8f4 8fbd ad2a a1bd 157a 83bd 4f61 82bd
00000150: 97d1 693c ed6a 373d d97e d93c ed2f 51bd
00000160: 2a5d 13bd 2f16 28be c5e5 1c3d ec02 d0bc
00000170: 91bf 1dbe 452c 72b9 8d26 8fbd 3dec 41bd
00000180: 84d3 92bc 909f 0a3b 2756 223d c904 693d
00000190: ee85 97bd a3ad 37bc 3d80 dcbd 3fd3 a83d
000001a0: 89e5 c9bc a4e3 dd39 cb6e ecbd 961f 263c
000001b0: 3d0f 5e3d e548 b8bd fa95 b53d 3c52 39bd
000001c0: 66a7 38bc fa6b 1d40 ff14 9c3b 9f66 08be
000001d0: 2776 96bd 6db1 a7ba c126 a03c da16 04be
000001e0: ef98 dcbd a47d 753c 412e be3b 8b36 b93d
000001f0: 13cd c23d fb31 46bd 6b45 43bd e197 1a3d
00000200: 78a6 d03c f4f2 88bc c544 cebd 41c5 e8bc
00000210: 541a 4cbd 92d7 bf3b ef1a b83c 24f2 aa3e
00000220: 027c e93d 1b54 9c3d 3e09 36bd 07ca 043d
00000230: e085 cd3c 9ddf 96bd 55de 31be cbf3 cabd
00000240: e14e c93d 8fcb 88bd 8078 0dbe b31b 6dbd
00000250: f1e3 8bbd a5c3 e03d b551 ccbd f8c6 f03d
00000260: 76c7 16bd b90c 3fbd fd2d cdbd 1e77 0cbd
00000270: 37e3 6dbc d843 56bd c902 333d 60f0 dd3c
00000280: 4c27 933d a17d 10be 6430 d63c b8fe be3c
00000290: ba32 18bb 0b2b a23d 1aa2 903c 094b 0cbe
000002a0: 3f6e 2a3c d70d e5bd 5e5c dcbc 513f 9b3d
000002b0: f307 4fbb b53f bdbd b86b fdbc f4a9 a9be
000002c0: e134 5fbd 8152 033c 4cb4 e23d 0877 313e
000002d0: 6cfe af3d 6ed0 c5bb c7e2 1f3e eaba a2bd
000002e0: c94d 80bd 4c2b 5abc cb30 7cbd 97e2 46bb
000002f0: a2b8 a3bc 398e be3c ac3e 04bc a146 2ebe
00000300: 320d 5e3e 4d67 503d 23fb c2be 9a03 b93d
00000310: fe6d c9bd 3ec6 bfba e3c8 bebd 9ca8 903d
00000320: 2c03 96bd f36d 98bc 8ddf ad3d e293 d93b
00000330: 7635 943d 9b92 0c3e f21e 0ebe 54f1 3dbe
00000340: 091b d13c 5d22 97bd b1de ab3d b68d 213d
00000350: 9333 c53c d41b 18bd 62fa 7ebc 320c 013e
00000360: 5e55 42be 96e7 fa3d e75c 37bd 6ecb a1bd
00000370: 57bc 8e3d 02e7 85be ffb4 683c 5ffe 23be
00000380: 5890 9ebc 7a15 be3d 14b7 2cbd bbb0 8fbd
00000390: bfea 21be f058 e4bd 79ab a63c 04c2 1ebe
000003a0: b344 d2bc 8937 9cbd 4828 703d d12e 70bb
000003b0: 3de3 bd3a 956d 4b3e ba5b 45bc d44d b4bd
000003c0: 61b4 583d f62d 38bf 3f6c c6bd e588 e9be
000003d0: a35a 873d 2692 0a3d 6d48 35be 03ea 58bd
000003e0: 56c0 153e 7595 8abc b22d a53c 2433 15bd
000003f0: c2e2 cd3d 78c2 edbd bd04 abbd ca70 efbe

VAE.encoder_mu.layers.1.linear1.bias f4 [4]
-0.07217971 0.058174413 -0.08688152 -0.058423202
00000000: f5d2 93bd 4b48 6e3d f0ee b1bd 2b4d 6fbd

VAE.encoder_mu.layers.1.norm1.weight f4 [4]
1.0385567 1.2553437 1.198424 1.0078026
00000000: 6def 843f 1aaf a03f f565 993f adff 803f

VAE.encoder_mu.layers.1.norm1.bias f4 [4]
0.055832315 -0.11405403 -0.067183144 0.07024497
00000000: 6db0 643d 2995 e9bd 5197 89bd 98dc 8f3d

VAE.encoder_mu.layers.1.norm0.weight f4 [4]
0.8296183 0.85737395 0.9639281 0.87580055
00000000: dd61 543f dc7c 5b3f fec3 763f 7734 603f

VAE.encoder_mu.layers.1.norm0.bias f4 [4]
-0.023625359 -0.011176237 -0.0024167146 -0.001893056
00000000: f889 c1bc 891c 37bc be61 1ebb 6b20 f8ba

VAE.encoder_mu.last_normalization.weight f4 [4]
1.0 1.0 1.0 1.0
00000000: 0000 803f 0000 803f 0000 803f 0000 803f

VAE.encoder_mu.last_normalization.bias f4 [4]
0.0 0.0 0.0 0.0
00000000: 0000 0000 0000 0000 0000 0000 0000 0000

VAE.encoder_mu.head.weight f4 [4, 4]
0.3881638 0.28620613 -0.13654697 -0.08481908 0.07967377 -0.23165292 -0.16653961 0.4137975
0.19734818 -0.18474436 -0.103533864 -0.18849462 0.17306715 -0.398409 0.102390885 0.2525608
00000000: 68bd c63e 9c89 923e f8d2 0bbe a0b5 adbd
00000010: 002c a33d 6c36 6dbe 5c89 2abe 44dd d33e
00000020: a415 4a3e a02d 3dbe 9009 d4bd bc04 41be
00000030: 8438 313e 44fc cbbe 50b2 d13d a64f 813e

VAE.encoder_mu.head.bias f4 [4]
0.3372842 -0.19239563 0.06954992 0.26625645
00000000: 84b0 ac3e 5c03 45be 3070 8e3d c452 883e

VAE.encoder_logvar.layers.0.attention.W_q.weight f4 [4, 4]
0.32153338 0.045469888 -0.2094889 -0.2986708 -0.3118633 0.15173022 -0.44269955 0.39379433
-0.124715544 0.42423654 -0.035149474 -0.33215606 -0.26911867 -0.46770278 0.027841084 0.07857162
00000000: 06a0 a43e a23e 3a3d 4284 56be 61eb 98be
00000010: 8cac 9fbe 2b5f 1b3e 84a9 e2be 699f c93e
00000020: dd6a ffbd 8835 d93e e5f8 0fbd 5c10 aabe
00000030: ecc9 89be bd76 efbe fc12 e43c 28ea a03d

VAE.encoder_logvar.layers.0.attention.W_q.bias f4 [4]
-0.044078443 -0.08504593 0.030037744 0.03366517
00000000: 998b 34bd 902c aebd b711 f63c 7de4 093d

VAE.encoder_logvar.layers.0.attention.W_k.weight f4 [4, 4]
-0.3771749 0.31854144 0.03795518 -0.55975914 -0.092110604 0.34041244 0.2171643 -0.3630013
-0.13784061 0.2813933 0.31630972 0.49142957 -0.3019497 -0.0473939 0.3022236 -0.4409991
00000000: 121d c1be dd17 a33e e476 1b3d 604c 0fbf
00000010: 7ca4 bcbd 8a4a ae3e 5160 5e3e 4edb b9be
00000020: 1726 0dbe c812 903e 59f3 a13e a89c fb3e
00000030: 2799 9abe 1b20 42bd 0dbd 9a3e a2ca e1be

VAE.encoder_logvar.layers.0.attention.W_k.bias f4 [4]
3.0211144e-05 -2.2363543e-05 2.7867185e-05 -5.802637e-06
00000000: f06d fd37 5899 bbb7 53c4 e937 46b4 c2b6

VAE.encoder_logvar.layers.0.attention.W_v.weight f4 [4, 4]
0.3358129 0.0060930895 0.1235344 -0.09312941 0.31312236 -0.05331322 0.17005701 -0.10883669
0.32327107 -0.03693505 0.16081364 -0.10293866 0.33231577 -0.0101161925 0.13445489 -0.09185969
00000000: abef ab3e 8aa8 c73b 9aff fc3d a2ba bebd
00000010: 9351 a03e f75e 5abd 6d23 2e3e c5e5 debd
00000020: c983 a53e 3549 17bd 55ac 243e 81d1 d2bd
00000030: 4b25 aa3e 63be 25bc 8bae 093e ef20 bcbd

VAE.encoder_logvar.layers.0.attention.W_v.bias f4 [4]
0.122913845 -0.059691053 -0.06457416 -0.061374586
00000000: 41ba fb3d 9b7e 74bd 753f 84bd eb63 7bbd

VAE.encoder_logvar.layers.0.linear0.weight f4 [128, 4]
-0.5512194 -0.24994846 -0.32748964 0.16984591 -0.15657827 0.50736976 0.2503819 0.04316696
-0.40288058 0.476908 0.4343967 -0.24254958 -0.37622336 -0.37287828 -0.090183094 0.39001542
-0.47433424 -0.44210723 0.24756218 0.1514928 -0.63463813 -0.40130663 -0.41189018 0.13857825
-0.06612814 -0.27077663 0.21380022 0.09362165 0.07569845 0.7274286 0.71917975 -0.6240722
0.35571268 -0.47289136 -0.08155851 -0.15424608 -0.23021004 -0.31609273 -0.49253663 0.28970894
0.27500683 -0.38047338 -0.22418524 0.35516968 0.09740602 -0.44278765 0.5526454 0.19489518
-0.19327544 0.033702455 0.065951206 0.25325868 0.20398846 0.7668022 -0.08481646 -0.14814663
0.304355 0.05718535 0.091178715 -0.46956053 0.3781979 0.19784556 0.18148887 -0.26752096
0.5344209 -0.6430493 0.16471584 -0.30553454 0.052873623 -0.4991014 0.5064503 -0.4432806
0.35167375 0.14201707 0.37638178 0.2503467 -0.090729654 -0.20934482 0.41650563 0.35011053
0.034327507 -0.35685423 0.54485774 -0.488255 -0.0680314 -0.15696701 -0.19658314 0.3752187
0.09336153 -0.27997285 0.29254398 0.50935024 0.4185311 -0.26308373 0.42315623 -0.076966554
-0.34582385 0.051877275 -0.095906205 -0.0063983486 -0.0017237393 0.086550504 0.3884717 0.57306516
-0.3451547 -0.28319955 0.06742998 0.41897112 0.28040498 0.351715 -0.36120808 0.6372943
0.24977608 -0.51382726 -0.27807197 0.25665617 0.40227705 0.45184648 0.28739518 -0.02774863
0.15178809 0.22086251 0.068048075 -0.5342709 0.22098638 -0.40786886 0.4859684 -0.19749843
-0.32227516 0.09972731 -0.0261023 -0.17349944 0.122001484 0.03538321 0.46800357 -0.18254414
-0.52864236 0.41197276 0.39460152 0.42127094 -0.34700698 -0.019584468 0.2400236 0.23867598
0.44063815 -0.113169156 0.40743867 -0.36760747 -0.41068685 0.14680296 -0.008037331 0.43462566
-0.44295296 -0.3869272 -0.4308276 -0.39713058 -0.10005899 0.25276065 0.55763537 -0.37068063
0.23272443 -0.4557163 0.11947114 0.4494226 0.06284469 0.22265047 0.28856814 -0.420163
-0.6295007 0.20899203 -0.026810814 -0.23277752 -0.50485885 0.3174129 0.19665535 0.06782534
-0.037395187 -0.0475888 -3.827545e-05 0.06085417 -0.45814475 0.052303176 -0.10803931 0.416686
-0.15867178 -0.46860802 0.2362973 0.4865303 0.1448349 0.46424615 -0.66611 0.39489576
-0.43528748 0.3710138 -0.31503385 -0.46597713 0.1809095 0.050898094 -0.26466402 -0.45526546
-0.083289735 -0.20320095 0.254048 0.1511972 -0.2839707 0.08091619 -0.48335758 0.49907553
-0.06492349 -0.3328905 0.06655514 0.4764788 -0.056386653 0.20196927 0.20672937 -0.094570585
-0.20158425 0.09885083 -0.36388195 0.10285962 0.053663526 0.02205901 0.1059577 -0.43382588
0.29540297 0.14166 0.34423253 -0.3242331 0.19562565 -0.22146794 0.43332818 -0.056820508
-0.4235163 0.03837474 0.32730132 0.0066905823 0.14354551 -0.087907165 -0.14160378 -0.32320786
0.0014727216 0.13566978 0.09757735 0.59619117 -0.2719888 -0.35083225 0.5916608 -0.41037136
0.46302798 0.24852332 -0.2719536 -0.22166339 -0.26041713 0.4828063 -0.2814512 -0.30701947
00000000: b71c 0dbf 7df2 7fbe b9ac a7be 16ec 2d3e
00000010: 0e56 20be fce2 013f 0e32 803e d7cf 303d
00000020: 5d46 cebe 492d f43e 3f69 de3e eb5e 78be
00000030: 59a0 c0be e7e9 bebe eab1 b8bd 1ab0 c73e
00000040: f0db f2be e15b e2be f180 7d3e ee20 1b3e
00000050: a577 22bf 1078 cdbe 45e3 d2be 75e7 0d3e
00000060: 316e 87bd 3ca3 8abe 72ee 5a3e b5bc bf3d
00000070: ca07 9b3d c338 3a3f 2a1c 383f 32c3 1fbf
00000080: f91f b63e d11e f2be 2608 a7bd aff2 1dbe
00000090: 2ebc 6bbe e8d6 a1be c32d fcbe bb54 943e
000000a0: b2cd 8c3e 68cd c2be d190 65be cdd8 b53e
000000b0: cf7c c73d 10b5 e2be 2b7a 0d3f 9a92 473e
000000c0: ffe9 45be 960b 0a3d 6d11 873d 1fab 813e
000000d0: 5ae2 503e 264d 443f 41b4 adbd c0b3 17be
000000e0: 6bd4 9b3e 303b 6a3d e8bb ba3d 3d6a f0be
000000f0: 28a3 c13e 0798 4a3e 38d8 393e 82f8 88be
00000100: cfcf 083f e19e 24bf 45ab 283e 066f 9cbe
00000110: 0392 583d 388a ffbe baa6 013f adf5 e2be
00000120: 950e b43e ec6c 113e 1db5 c03e 712d 803e
00000130: 78d0 b9bd 7d5e 56be 3a40 d53e b041 b33e
00000140: 009b 0c3d 99b5 b6be cc7b 0b3f 8ffc f9be
00000150: 0c54 8bbd f6bb 20be 174d 49be aa1c c03e
00000160: 5434 bf3d 9a58 8fbe 53c8 953e c764 023f
00000170: b549 d63e e9b2 86be efa7 d83e a4a0 9dbd
00000180: d30f b1be 447d 543d 796a c4bd 3da9 d1bb
00000190: 18ef e1ba 6441 b13d c3e5 c63e 66b4 123f
000001a0: 1eb8 b0be 88ff 90be bb18 8a3d 6283 d63e
000001b0: 3e91 8f3e fd13 b43e 44f0 b8be b825 233f
000001c0: 4dc5 7f3e 2f8a 03bf 735f 8ebe 7068 833e
000001d0: 42f7 cd3e 6c58 e73e 7625 933e 1851 e3bc
000001e0: 566e 1b3e c829 623e ca5c 8b3d fac5 08bf
000001f0: 414a 623e 30d4 d0be dad0 f83e 073d 4abe
00000200: 4001 a5be d53d cc3d 7ed4 d5bc d6a9 31be
00000210: eadb f93d fced 103d 2a9e ef3e daec 3abe
00000220: 1b55 07bf 18ee d23e 3609 ca3e d3b0 d73e
00000230: e6aa b1be 9b6f a0bc bfc8 753e 7a67 743e
00000240: 539b e13e 3bc5 e7bd cd9b d03e 0c37 bcbe
00000250: 8c45 d2be 8453 163e 02af 03bc 4187 de3e
00000260: bbca e2be 521b c6be 6f95 dcbe b354 cbbe
00000270: baeb ccbd d869 813e 31c1 0e3f dac9 bdbe
00000280: 504f 6e3e a653 e9be 49ad f43d b81a e63e
00000290: b8b4 803d 7cfe 633e 34bf 933e 9b1f d7be
000002a0: f526 21bf 0202 563e 5aa2 dbbc 3b5d 6ebe
000002b0: 6e3e 01bf f283 a23e 0560 493e 03e8 8a3d
000002c0: b22b 19bd 79ec 42bd f489 20b8 3942 793d
000002d0: f391 eabe db3b 563d b743 ddbd de57 d53e
000002e0: db7a 22be 64ed efbe ebf7 713e 801a f93e
000002f0: 9a4f 143e acb1 ed3e 2f86 2abf c72f ca3e
00000300: 00de debe 85f5 bd3e 1e4c a1be 8e94 eebe
00000310: 5740 393e 857a 503d 0b82 87be 8e18 e9be
00000320: cf93 aabd e913 50be 9412 823e 70d3 1a3e
00000330: 9c64 91be 63b7 a53d a57a f7be d486 ff3e
00000340: 9bf6 84bd a070 aabe 104e 883d 07f5 f33e
00000350: b1f5 66bd 08d1 4e3e ddb0 533e 39ae c1bd
00000360: 1a6c 4ebe 4e72 ca3d bc4e babe 10a8 d23d
00000370: 49ce 5b3d 19b5 b43c 5a00 d93d 6d1e debe
00000380: 0f3f 973e 520f 113e 3f3f b03e e201 a6be
00000390: 1752 483e 7ec8 62be 31dd dd3e 9fbc 68bd
000003a0: 21d7 d8be d52e 1d3d 0a94 a73e ac3c db3b
000003b0: 98fd 123e ac08 b4bd 9500 11be 807b a5be
000003c0: 5608 c13a 05ed 0a3e a2d6 c73d fc9f 183f
000003d0: 1e42 8bbe 49a0 b3be 1577 173f 321c d2be
000003e0: 0112 ed3e e67c 7e3e 813d 8bbe bafb 62be
000003f0: 6555 85be 6332 f73e 5f1a 90be a831 9dbe

VAE.encoder_logvar.layers.0.linear0.bias f4 [128]
0.23052822 -0.24598485 0.11728661 -0.26340437 0.49113858 0.47737044 -0.06341138 -0.24038461
0.39183727 0.028954146 -0.35641453 -0.35131484 0.34643435 -0.25185075 0.1791022 0.18058324
-0.022612805 0.018034033 -0.06059612 -0.32138485 -0.3996687 0.33156365 0.24126169 0.14095592
-0.3322373 -0.070914045 -0.18647093 -0.30404773 0.05207615 0.32184973 0.51195115 0.15770559
0.10554332 0.5765096 -0.09160202 -0.35109577 -0.078546785 0.14781809 0.31484252 -0.58009565
-0.27654213 -0.47872478 -0.48307654 0.13305482 0.36300635 -0.17916301 0.45937774 0.25926635
-0.24051051 0.28339946 0.0789186 0.2539499 -0.21379077 -0.12551022 0.27714154 0.118089095
0.10479869 -0.42211697 0.11510459 -0.06785152 0.2522119 0.20561032 0.46465224 -0.037512045
-0.4468623 0.008665963 -0.21419093 0.3739279 0.291886 0.12279516 0.2598536 0.28651544
-0.062202327 0.47710994 -0.019336011 0.30562493 -0.17530605 -0.018327512 0.44625828 -0.051458515
0.09537706 0.22875577 0.07375059 -0.20646203 0.48746744 0.02475228 -0.14244148 0.13415547
0.15448096 0.26072544 -0.52260935 0.15215574 0.0047844523 0.29737824 0.5288958 0.30580294
0.28040075 0.15988657 -0.48177004 -0.10737092 0.388571 -0.19003944 0.27144027 0.094853215
-0.1610052 -0.14945446 0.069130994 0.5737349 0.22848815 0.37857583 0.064546175 -0.45362404
-0.16770856 0.302328 0.31826898 0.2592935 0.1301431 0.5275127 0.01133044 0.54997367
0.02587783 -0.4108632 0.25153476 0.5189675 -0.028020427 0.41167754 0.3888487 0.33268625
00000000: 970f 6c3e 74e3 7bbe f633 f03d f0dc 86be
00000010: 8476 fb3e e669 f43e d3dd 81bd 6227 76be
00000020: e59e c83e 3f31 ed3c f77b b6be 8adf b3be
00000030: d85f b13e 95f2 80be 9166 373e d0ea 383e
00000040: 7d3e b9bc 1cbc 933c a333 78bd 8e8c a4be
00000050: 60a1 ccbe b6c2 a93e 4e0d 773e c056 103e
00000060: 021b aabe 623b 91bd 3cf2 3ebe 25ac 9bbe
00000070: cd4d 553d 7dc9 a43e 3b0f 033f 937d 213e
00000080: 1927 d83d 2296 133f d799 bbbd d3c2 b3be
00000090: 23dd a0bd a05d 173e 0a33 a13e 2681 14bf
000000a0: ee96 8dbe 6a1b f5be cf55 f7be 863f 083e
000000b0: f8db b93e 8276 37be 8f33 eb3e 8fbe 843e
000000c0: 6348 76be bc19 913e 13a0 a13d b905 823e
000000d0: f8eb 5abe c085 00be 7fe5 8d3e b2d8 f13d
000000e0: b2a0 d63d b71f d8be f5bb eb3d bdf5 8abd
000000f0: eb21 813e 838b 523e e6e6 ed3e 3ba6 19bd
00000100: 23cb e4be affb 0d3c de54 5bbe 7a73 bf3e
00000110: 1572 953e 077c fb3d 880b 853e 27b2 923e
00000120: dec7 7ebd c147 f43e 8e66 9ebc df7a 9c3e
00000130: 6e83 33be 9423 96bc f77b e43e 2ac6 52bd
00000140: 0c55 c33d f43e 6a3e 8d0a 973d c86a 53be
00000150: 5595 f93e 4bc5 ca3c 2edc 11be 0d60 093e
00000160: 4230 1e3e ce7d 853e bac9 05bf b7ce 1b3e
00000170: e5c6 9c3b f641 983e b765 073f 3492 9c3e
00000180: b090 8f3e 4eb9 233e 90aa f6be 49e5 dbbd
00000190: c7f2 c63e b399 42be 38fa 8a3e 6742 c23d
000001a0: 8cde 24be 970a 19be 8d94 8d3d 4ae0 123f
000001b0: ccf8 693e b1d4 c13e c930 843d 6941 e8be
000001c0: cbbb 2bbe bcca 9a3e 27f4 a23e 1ec2 843e
000001d0: 3c44 053e 130b 073f 4fa3 393c 13cb 0c3f
000001e0: befd d33c a95c d2be 2ac9 803e 0edb 043f
000001f0: 188b e5bc 66c7 d23e 2d17 c73e da55 aa3e
