restsyn/tabsyn/vae/ckpt/blobs_cond/decoder.pt (torch, 21363 bytes, 33 tensors)

VAE_Decoder.layers.0.attention.W_q.weight f4 [4, 4]
-0.4807001 0.42645213 0.36648333 -0.5188837 -0.30315718 -0.37350613 0.15621689 -0.14207026
0.27780527 0.10667266 0.39953 -0.4488913 -0.43540773 -0.22762574 -0.20198499 0.22675462
00000000: 531e f6be ef57 da3e b4a3 bb3e 90d5 04bf
00000010: 6b37 9bbe 323c bfbe 52f7 1f3e de7a 11be
00000020: 7e3c 8e3e 3277 da3d 328f cc3e 15d5 e5be
00000030: c3ed debe b916 69be 27d5 4ebe 5d32 683e

VAE_Decoder.layers.0.attention.W_q.bias f4 [4]
-0.036503695 0.06642812 0.043895666 -0.30329746
00000000: e684 15bd 770b 883d f1cb 333d ce49 9bbe

VAE_Decoder.layers.0.attention.W_k.weight f4 [4, 4]
-0.3910648 -0.07567214 -0.26230675 -0.2143489 0.011444342 -0.37665597 0.43362936 0.024291648
0.24873652 0.17322922 -0.21238069 0.12767322 -0.105291955 0.22889374 -0.29333973 0.31906295
00000000: a539 c8be fff9 9abd 124d 86be 477e 5bbe
00000010: 0d81 3b3c 0dd9 c0be ab04 de3e 47ff c63c
00000020: c9b4 7e3e 0063 313e 537a 59be c5bc 023e
00000030: 4fa3 d7bd 1f63 6a3e a030 96be 385c a33e

VAE_Decoder.layers.0.attention.W_k.bias f4 [4]
-1.047479e-05 -0.00017780953 0.00020178476 -0.00048273092
00000000: e1bc 2fb7 6272 3ab9 2f96 5339 0c17 fdb9

VAE_Decoder.layers.0.attention.W_v.weight f4 [4, 4]
0.25707853 -0.03782277 -0.04372588 -0.12161531 -0.27318797 0.39097607 -0.056600224 0.35129353
0.3434257 0.4581437 -0.029829895 0.3845387 -0.39477846 0.15965381 -0.020986032 0.22083484
00000000: cc9f 833e 0dec 1abd e919 33bd 7311 f9bd
00000010: 4bdf 8bbe 042e c83e a3d5 67bd bfdc b33e
00000020: 7ed5 af3e d091 ea3e d35d f4bc 42e2 c43e
00000030: 6720 cabe 4a7c 233e e6ea abbc 8722 623e

VAE_Decoder.layers.0.attention.W_v.bias f4 [4]
0.09528291 -0.07835421 -0.041338004 0.035857677
00000000: b023 c33d 2c78 a0bd 0a52 29bd 80df 123d

VAE_Decoder.layers.0.linear0.weight f4 [128, 4]
0.037680212 -0.41651875 -0.38114595 0.4183799 0.3647102 0.18498912 -0.585734 0.45425376
-0.00036870193 0.24484082 0.47941664 0.47464892 0.23865134 0.59443676 -0.001153717 -0.18687011
0.4348604 -0.32655472 -0.037231423 -0.11849481 0.029856473 0.12937744 0.06821319 -0.34102464
0.35530448 -0.20423801 0.40441447 0.3911139 -0.30327228 0.21719229 -0.35358414 0.41849148
0.43799257 -0.31044227 -0.1100104 0.07989008 0.2084568 0.49870375 0.10658431 -0.43213
-0.5452231 -0.3688815 -0.23467882 -0.044029832 0.08761895 -0.51912755 0.38725862 0.09053869
-0.35925344 -0.032596514 0.1259724 0.15471324 -0.036966234 -0.4693557 0.33916312 0.39232695
-0.3373459 -0.18870035 0.15338261 -0.12412982 0.01536656 -0.18127397 0.49121863 -0.4712761
0.2156173 0.30252317 0.423687 -0.2323553 -0.5524814 -0.14920665 0.38961583 -0.29193363
-0.026249463 -0.26075402 -0.350607 0.32795858 -0.5237923 0.330186 -0.103042975 0.19812924
0.36337474 0.019478543 -0.39470887 0.17217308 0.0631323 -0.0010163268 0.023792436 -0.1184754
-0.39166135 0.26662076 -0.43207034 -0.3397443 0.3453931 -0.027153535 0.022060284 0.08431548
-0.08094213 0.36071765 -0.37541386 -0.4798288 0.16727082 -0.13980462 0.21397905 -0.30727652
0.39566708 0.10694279 0.056858964 -0.36363786 0.35615382 -0.3193189 -0.4741817 0.12449332
-0.5175689 -0.2514234 -0.4972231 0.52373356 0.28174916 0.32760978 -0.048706315 0.35371977
-0.20933622 0.030108823 -0.2085271 0.36456254 -0.20403783 -0.38949642 0.22080618 0.48997623
0.041249402 0.44815055 -0.0066501913 -0.23253337 0.21171136 -0.21525319 -0.18960868 -0.022850186
0.3614352 -0.2378296 -0.3032264 -0.25019625 0.3312622 0.055649057 0.31786594 -0.48154318
0.21055058 -0.3417582 -0.11693407 -0.12495676 -0.41065443 -0.16442402 -0.084492795 0.09977932
-0.3737869 0.39495152 -0.17726564 -0.34929585 -0.17661089 -0.18987602 -0.28504658 -0.16458899
-0.16702366 0.24575616 -0.195906 0.3031628 0.078831874 -0.46054846 -0.49735823 0.4632327
-0.36782542 0.018001577 -0.43388447 -0.122334994 0.042369198 0.2761996 -0.40767258 -0.34436393
0.5325323 0.23066813 0.08794934 0.20329541 0.3130323 0.29328972 -0.24065264 0.49839026
-0.20463416 -0.24259003 0.0020820901 -0.26917323 -0.42402634 -0.13242663 -0.1547622 0.036787543
0.6711582 -0.27770966 0.33901635 0.027232014 -0.53314775 0.28976035 0.14717117 -0.18328384
-0.40962842 -0.43881986 0.079115435 0.03308278 -0.43038583 0.04990497 -0.46646032 0.023166835
0.1987017 0.23607627 0.4083706 0.09495945 0.13533096 -0.024116011 -0.300609 0.22314253
0.11308972 0.20381407 -0.43508318 -0.3150788 -0.033281345 -0.46375832 0.572824 -0.37534776
-0.407149 0.1872078 0.42227757 0.3376509 0.3562778 0.06433622 0.18687251 -0.24571839
0.33317062 0.036182556 0.57192826 -0.015880642 -0.033947397 0.13920073 0.115662575 0.20313625
-0.19404036 0.090645194 -0.49437326 -0.41630718 -0.49189463 0.26568648 0.18469463 0.27315512
-0.4437214 -0.21923019 0.044606067 -0.010293772 0.11574156 0.31670946 0.31504706 -0.45385492
00000000: 9156 1a3d f241 d5be 9025 c3be e435 d63e
00000010: 4cbb ba3e ca6d 3d3e aaf2 15bf f393 e83e
00000020: 564e c1b9 8db7 7a3e 1976 f53e 2f05 f33e
00000030: 0461 743e 022d 183f 5238 97ba e15a 3fbe
00000040: 06a6 de3e 2e32 a7be fa7f 18bd 68ad f2bd
00000050: 9095 f43c 857b 043e 5bb3 8b3d c89a aebe
00000060: 78ea b53e c523 51be 6a0f cf3e 1540 c83e
00000070: 8146 9bbe a867 5e3e fb08 b5be 8444 d63e
00000080: 9040 e03e 4af2 9ebe 224d e1bd 699d a33d
00000090: b375 553e 1956 ff3e e048 da3d 2540 ddbe
000000a0: be93 0bbf 09de bcbe a54f 70be a058 34bd
000000b0: 9071 b33d 8be5 04bf c346 c63e 596c b93d
000000c0: 11f0 b7be ec83 05bd e9fe 003e 266d 1e3e
000000d0: e869 17bd 644f f0be caa6 ad3e 14df c83e
000000e0: 9ab8 acbe aa3a 41be 5510 1d3e c637 febd
000000f0: 06c4 7b3c e29f 39be 0281 fb3e 1a4b f1be
00000100: c8ca 5c3e 51e4 9a3e 81ed d83e 8cee 6dbe
00000110: 6c6f 0dbf a1c9 18be ba7b c73e 5378 95be
00000120: 1d09 d7bc 8d81 85be c382 b3be 30ea a73e
00000130: 4117 06bf 240e a93e 3208 d3bd 64e2 4a3e
00000140: 410c ba3e 7791 9f3c 4817 cabe 244e 303e
00000150: 824b 813d 4536 85ba 5be8 c23c 3ba3 f2bd
00000160: d687 c8be 8482 883e 5338 ddbe f7f2 adbe
00000170: 5dd7 b03e 1771 debc c5b7 b43c 98ad ac3d
00000180: fdc4 a5bd fcaf b83e 3f36 c0be 1fac f5be
00000190: 0b49 2b3e f128 0fbe 531d 5b3e 5953 9dbe
000001a0: e094 ca3e d204 db3d f2e4 683d be2e babe
000001b0: cb59 b63e c47d a3be f2c7 f2be 5bf6 fe3d
000001c0: 657f 04bf 91ba 80be 0794 febe 6713 063f
000001d0: 6d41 903e 78bc a73e 4680 47bd c21a b53e
000001e0: 3c5c 56be c7a6 f63c 2188 55be f1a7 ba3e
000001f0: 4bef 50be 136c c7be 041b 623e 2ade fa3e
00000200: 22f5 283d fd73 e53e d9e9 d9bb 3a1d 6ebe
00000210: ddca 583e 556b 5cbe c728 42be 5030 bbbc
00000220: 090e b93e 9a89 73be 7e40 9bbe b919 80be
00000230: 339b a93e 44f0 633d 53bf a23e d48c f6be
00000240: 929a 573e eefa aebe 217b efbd 54e9 ffbd
00000250: 4c41 d2be c55e 28be 8f0a adbd 1a59 cc3d
00000260: ff60 bfbe 1637 ca3e 2085 35be e8d6 b2be
00000270: 7cd9 34be dc6e 42be a0f1 91be 048a 28be
00000280: 4008 2bbe 81a7 7b3e 959b 48be 2838 9b3e
00000290: 9b72 a13d 02cd ebbe bda5 febe d62c ed3e
000002a0: 9d53 bcbe 0b78 933c 1b26 debe c58a fabd
000002b0: 538b 2d3d 096a 8d3e 76ba d0be 7850 b0be
000002c0: 0954 083f 4434 6c3e c91e b43d ac2c 503e
000002d0: c545 a03e 122a 963e a56d 76be 022d ff3e
000002e0: 9e8b 51be 8569 78be ad73 083b 13d1 89be
000002f0: fb19 d9be d99a 07be fb79 1ebe 89ae 163d
00000300: 06d1 2b3f f62f 8ebe 8d93 ad3e ac15 df3c
00000310: 5f7c 08bf 785b 943e 0ab4 163e c2ae 3bbe
00000320: d1ba d1be ffac e0be 4607 a23d cf81 073d
00000330: 885b dcbe 2769 4c3d e3d3 eebe 60c8 bd3c
00000340: 7578 4b3e fabd 713e f415 d13e 1a7a c23d
00000350: 3394 0a3e f18e c5bc 6ce9 99be 7a7f 643e
00000360: 959b e73d a3b4 503e 39c3 debe 0252 a1be
00000370: 0552 08bd bb71 edbe 98a4 123f 952d c0be
00000380: d575 d0be 67b3 3f3e c434 d83e 94e0 ac3e
00000390: 0b6a b63e b5c2 833d 825b 3f3e 9a9d 7bbe
000003a0: 5795 aa3e 2934 143d e469 123f 1f18 82bc
000003b0: 6d0c 0bbd a38a 0e3e 80e0 ec3d f302 503e
000003c0: 84b2 46be 30a4 b93d 7e1e fdbe 3726 d5be
000003d0: 9dd9 fbbe 0f08 883e 9720 3d3e fdda 8b3e
000003e0: 742f e3be e17d 60be dab4 363d 36a7 28bc
000003f0: e909 ed3d be27 a23e d94d a13e ac5f e8be

VAE_Decoder.layers.0.linear0.bias f4 [128]
0.23589338 0.5094001 -0.2225987 -0.42923877 -0.079269506 -0.06669205 0.27445695 -0.36114457
0.24038287 -0.030877966 -0.28130966 0.17120513 -0.090383574 -0.25090042 -0.105989926 -0.4568366
0.17302895 -0.1991872 -0.1456583 -0.05040826 -0.37922144 0.23862997 -0.08682122 0.4478093
0.15893872 -0.44324872 -0.48004526 0.10029516 0.15334958 -0.37945434 0.09835315 0.460413
-0.20589243 -0.4687363 -0.2139516 0.02878606 0.19000584 -0.11848564 -0.40243062 -0.2550881
0.3069845 -0.18665063 -0.28983125 0.09370567 0.39686748 0.41106647 -0.34184098 0.066104725
-0.17060836 -0.035667334 -0.11840033 -0.26439255 -0.07793261 0.53402704 0.44347367 -0.24088845
-0.0026614524 -0.18379122 -0.34560502 -0.3839497 0.4404703 -0.37012225 -0.116563976 -0.09561511
-0.31133133 -0.24565032 0.20587878 0.13816257 -0.13950941 -0.39923948 0.14062744 0.013470297
0.15898164 0.21134047 0.3513169 -0.37484083 0.48334086 -0.19926988 -0.24599013 -0.13991956
-0.05718998 0.0064848927 0.030055199 0.12874514 0.34825617 -0.45117858 -0.26936668 -0.037104312
-0.16879228 -0.18684313 -0.26643297 0.20528111 -0.21743356 0.33954346 -0.046596706 0.33158872
0.45943037 -0.40496698 -0.3283105 0.50623876 0.028685382 0.46118364 -0.23767893 -0.17466167
0.36928993 -0.051337197 -0.16064467 -0.11924967 0.36863816 0.010036271 -0.31488407 0.22358666
0.45673403 0.028684959 0.28037488 -0.34485248 -0.22744304 0.35955986 0.50563365 0.10647967
0.26118392 0.27290353 0.2949372 -0.28382608 0.34385732 -0.48376146 -0.064779796 0.34998167
00000000: 098e 713e 0c68 023f eaf0 63be 2fc5 dbbe
00000010: 0d58 a2bd d795 88bd 9f85 8c3e f1e7 b8be
00000020: ed26 763e caf3 fcbc d207 90be 6650 2f3e
00000030: 061b b9bd 0576 80be 3f11 d9bd 7de6 e9be
00000040: 802e 313e bbf7 4bbe 7327 15be e478 4ebd
00000050: 5029 c2be 6a5b 743e 53cf b1bd 4347 e53e
00000060: d5c0 223e 7ff1 e2be 7ec8 f5be 8d67 cd3d
00000070: ac07 1d3e d747 c2be 606d c93d 41bb eb3e
00000080: 77d5 52be 34fe efbe 2116 5bbe bed0 eb3c
00000090: e490 423e 99a8 f2bd 630b cebe e89a 82be
000000a0: 132d 9d3e 5821 3fbe c364 94be c2e8 bf3d
000000b0: 3732 cb3e 4e77 d23e c805 afbe ea61 873d
000000c0: f5b3 2ebe e917 12bd df7b f2bd 765e 87be
000000d0: 229b 9fbd ffb5 083f fb0e e33e 76ab 76be
000000e0: c36b 2ebb c433 3cbe 24f3 b0be 0e95 c4be
000000f0: 5385 e13e aa80 bdbe 18b9 eebd dbd1 c3bd
00000100: d266 9fbe c28b 7bbe e3d1 523e 7d7a 0d3e
00000110: 8edb 0ebe 1e69 ccbe a400 103e 85b2 5c3c
00000120: 15cc 223e a369 583e cfdf b33e 23eb bfbe
00000130: 7478 f73e 670d 4cbe d6e4 7bbe 1347 0fbe
00000140: 0a40 6abd 397f d43b 5236 f63c c4d5 033e
00000150: a24e b23e e100 e7be 6eea 89be b1fa 17bd
00000160: e2d7 2cbe ce53 3fbe e769 88be 3635 523e
00000170: e7a6 5ebe a4d8 ad3e 30dc 3ebd ffc5 a93e
00000180: 753a eb3e d557 cfbe 5018 a8be dd98 013f
00000190: 9bfd ea3c 4320 ec3e 1b62 73be 82da 32be
000001a0: 9213 bd3e f446 52bd 0980 24be 2c39 f4bd
000001b0: 24be bc3e 2c6f 243c 7c38 a1be e7f3 643e
000001c0: 0bd9 e93e b8fc ea3c 4c8d 8f3e 8190 b0be
000001d0: d4e6 68be 3b18 b83e 3571 013f 0312 da3d
000001e0: e6b9 853e 03ba 8b3e 0202 973e a751 91be
000001f0: 110e b03e 95af f7be 45ab 84bd cc30 b33e

VAE_Decoder.layers.0.linear1.weight f4 [4, 128]
-0.11969573 -0.054492075 -0.14598048 0.07961144 0.06387052 0.08110381 -0.069780715 0.04337628
0.058603805 0.12065746 -0.12952831 -0.025574898 -0.027070565 -0.0822471 -0.060195334 0.0054110517
-0.0041331383 -0.108759664 -0.10476953 0.07643432 -0.02516592 0.074088454 0.06245539 0.0057712845
0.0052856435 -0.11802336 0.0060209883 -0.043140586 -0.07872133 0.034412846 -0.061953656 0.036045406
0.1051566 -0.24469513 -0.10789322 0.045590553 0.014826882 -0.084822536 -0.06355854 0.034801126
-0.1561964 -0.14490518 0.104933955 0.10955489 0.058749884 -0.01491488 0.034595016 -0.14806676
0.0025015604 -0.03229639 -0.09237913 -0.062461812 -0.089613765 0.04207878 -0.023604441 0.08656921
-0.07591324 0.07420025 0.0355624 0.048566326 0.10074677 0.061967526 -0.021801336 -0.047207497
-0.25365838 0.0217432 -0.03678164 0.0453415 -0.06348686 -0.4124568 -0.014380096 0.038659733
-0.06947933 -0.052376322 -0.072352014 -0.0013958795 0.04715904 -0.16330704 -0.11439392 -0.0744673
-0.019327026 -0.062784925 -0.042950124 -0.13278703 0.05254938 0.035257913 0.019981308 -0.102506444
0.12264104 -0.022053365 -0.18512516 0.07803762 0.18942246 0.058435082 -0.048000395 -0.100601055
-0.04974513 -0.14875029 -0.10874686 -0.070537254 -0.0035657068 -0.039396368 0.08153657 0.021360183
0.076754786 0.1272095 -0.043163743 0.0027121895 -0.02675007 -0.08363933 0.036519308 -0.062661216
0.02552651 -0.032584462 -0.096578 0.04909296 0.44534227 -0.046170153 -0.109036736 0.01182421
0.0014927684 -0.017639106 -0.092599034 -0.12960786 -0.08802102 0.011091044 -0.07564898 -0.0010614471
-0.031085916 -0.13517164 -0.061542746 -0.12630863 0.021544797 -0.028626094 0.05550454 -0.0019106247
-0.12269911 -0.011997271 -0.17365068 -0.0035416447 -0.017175397 -0.085804835 0.11039076 0.13173214
0.11475267 0.09274599 -0.14552015 -0.042035397 -0.029212791 -0.013577158 0.08328153 -0.13389833
-0.056680426 0.05086326 -0.009875821 -0.11253862 -0.12298316 -0.06276588 -0.10261343 -0.037764113
0.04709096 -0.15617539 -0.23991185 -0.06350919 0.042134177 -0.05233003 -0.01951767 -0.0048480993
-0.07080653 -0.010204859 0.009325794 -0.08714965 -0.0940786 0.029247511 0.09559069 -0.10214401
0.07140464 -0.028787833 0.038444247 -0.1024964 0.0026210295 -0.110107176 0.048215587 -0.019233892
0.05097057 0.041003913 0.10314753 0.013012695 -0.10152192 -0.074465506 -0.08030874 0.11724686
0.17520633 0.10800698 -0.056776375 -0.027922314 -0.024431512 0.28907567 0.060311098 0.06877647
-0.027705 0.06413868 -0.0652096 0.091393165 -0.054198314 -0.118141346 -0.09585366 -0.001289849
-0.041141525 -0.209708 -0.13732482 -0.030854875 0.019308953 0.05993313 -0.16463134 0.10006037
-0.043357637 -0.03184049 -0.087279476 0.03637459 -0.12899822 0.10387718 0.010565379 -0.1344392
0.019827852 -0.07041192 0.09885069 -0.0057148514 -0.015284339 -0.032967083 0.0076891882 -0.13018797
-0.016052851 0.068220094 0.023140179 -0.08010208 -0.08396895 -0.0070777535 0.112306856 -0.105356656
-0.07925011 -0.06854118 0.077451974 0.12447683 -0.5276403 0.039457396 -0.101995565 -0.07499021
0.077537715 -0.061690267 -0.09819538 -0.13015693 -0.053734105 -0.09728279 0.113877684 0.03914313
00000000: 0923 f5bd 1533 5fbd e87b 15be 530b a33d
00000010: 8cce 823d c119 a63d 31e9 8ebd 54ab 313d
00000020: 8b0a 703d 421b f73d 12a3 04be 7382 d1bc
00000030: 17c3 ddbc 2b71 a8bd 628f 76bd 314f b13b
00000040: 476f 87bb 63bd debd 6891 d6bd 9989 9c3d
00000050: c228 cebc b0bb 973d 39d1 7f3d 0b1d bd3b
00000060: 3133 ad3b 3bb6 f1bd b64b c53b 2fb4 30bd
00000070: a638 a1bd 7cf4 0c3d 1ec3 7dbd 59a4 133d
00000080: 585c d73d 5c91 7abe 1ff7 dcbd 29bd 3a3d
00000090: 73ec 723c 70b7 adbd fb2a 82bd a08b 0e3d
000000a0: f3f1 1fbe 0662 14be 9de7 d63d 505e e03d
000000b0: b8a3 703d 8a5d 74bc 81b3 0d3d d09e 17be
000000c0: 38f1 233b 3849 04bd 4531 bdbd f5d7 7fbd
000000d0: 6c87 b7bd cc5a 2c3d 1a5e c1bc 334b b13d
000000e0: 6778 9bbd 4df6 973d e1a9 113d 7ced 463d
000000f0: 5354 ce3d a9d1 7d3d b798 b2bc a65c 41bd
00000100: 83df 81be cc1e b23c 58a8 16bd 02b8 393d
00000110: 6605 82bd 8a2d d3be 7f9a 6bbc ab59 1e3d
00000120: 2e4b 8ebd 8e88 56bd 4b2d 94bd f2f5 b6ba
00000130: d629 413d f639 27be 5c47 eabd 5082 98bd
00000140: b653 9ebc 6295 80bd 78ec 2fbd 53f9 07be
00000150: 053e 573d 9a6a 103d d7af a33c e6ee d1bd
00000160: 3a2b fb3d 42a9 b4bc 7391 3dbe 30d2 9f3d
00000170: f6f7 413e a059 6f3d 109c 44bd ed07 cebd
00000180: 8dc1 4bbd ff51 18be acb6 debd d675 90bd
00000190: a2ae 69bb 165e 21bd a5fc a63d 8dfb ae3c
000001a0: 9d31 9d3d 3543 023e 77cc 30bd fdbe 313b
000001b0: f622 dbbc 194b abbd 4595 153d 8654 80bd
000001c0: f91c d13c 4977 05bd b0ca c5bd b315 493d
000001d0: e703 e43e ea1c 3dbd a74e dfbd 55ba 413c
000001e0: ffa8 c33a e37f 90bc 90a4 bdbd ecb7 04be
000001f0: 5d44 b4bd 36b7 353c daed 9abd 4120 8bba
00000200: e4a7 febc 6f6a 0abe 3f14 7cbd 0d57 01be
00000210: b77e b03c 4581 eabc bb58 633d ed6d faba
00000220: ac49 fbbd 3490 44bc 7cd1 31be f01a 68bb
00000230: 6bb3 8cbc 72ba afbd 8d14 e23d cae4 063e
00000240: 7303 eb3d 9cf1 bd3d 3c03 15be 4f2d 2cbd
00000250: aa4f efbc ba72 5ebc 828f aa3d a51c 09be
00000260: bc29 68bd fe55 503d 32ce 21bc a67a e6bd
00000270: 98de fbbd 668b 80bd fd26 d2bd 8bae 1abd
00000280: 73e2 403d 71ec 1fbe 74ab 75be 1b11 82bd
00000290: e394 2c3d 0358 56bd 85e3 9fbc cedc 9ebb
000002a0: 0403 91bd 4832 27bc 37cb 183c 847b b2bd
000002b0: 48ac c0bd 7a98 ef3c 0dc5 c33d e130 d1bd
000002c0: 993c 923d 76d4 ebbc b777 1d3d a2e9 d1bd
000002d0: 94c5 2b3b df7f e1bd b57d 453d 6590 9dbc
000002e0: 84c6 503d b8f3 273d 033f d33d 3333 553c
000002f0: b9ea cfbd 5f81 98bd e978 a4bd 1f1f f03d
00000300: 4a69 333e c332 dd3d 588e 68bd 56bd e4bc
00000310: 9824 c8bc ba01 943e c508 773d aeda 8c3d
00000320: 99f5 e2bc 245b 833d 9c8c 85bd 572c bb3d
00000330: 0dff 5dbd 17f4 f1bd ec4e c4bd 2710 a9ba
00000340: 0484 28bd b2bd 56be e19e 0cbe 5dc3 fcbc
00000350: cf2d 9e3c 717c 753d 1e95 28be 74ec cc3d
00000360: c797 31bd 2c6b 02bd 95bf b2bd 86fd 143d
00000370: 1c18 04be 8fbd d43d 691a 2d3c 6eaa 09be
00000380: 056e a23c 2034 90bd 3b72 ca3d a643 bbbb
00000390: 2a6b 7abc 7e08 07bd 96f5 fb3b ff4f 05be
000003a0: 4581 83bc fab6 8b3d 7990 bd3c 8f0c a4bd
000003b0: eaf7 abbd 80ec e7bb 2301 e63d 3bc5 d7bd
000003c0: e24d a2bd 515f 8cbd 249f 9e3d b5ed fe3d
000003d0: 6f13 07bf 149e 213d 0de3 d0bd 7894 99bd
000003e0: 18cc 9e3d efae 7cbd a91a c9bd dc47 05be
000003f0: 4b18 5cbd 333c c7bd b438 e93d 8c54 203d

VAE_Decoder.layers.0.linear1.bias f4 [4]
0.017225683 -0.052262522 -0.023521831 0.08410806
00000000: e01c 8d3c 3a11 56bd dbb0 c0bc d940 ac3d

VAE_Decoder.layers.0.norm1.weight f4 [4]
1.1430355 1.1008483 1.0945631 1.123959
00000000: fd4e 923f 99e8 8c3f a51a 8c3f e3dd 8f3f

VAE_Decoder.layers.0.norm1.bias f4 [4]
0.013189282 -0.09442568 0.03819948 0.11550546
00000000: dc17 583c 4062 c1bd 0f77 1c3d 208e ec3d

VAE_Decoder.layers.1.attention.W_q.weight f4 [4, 4]
0.2735657 0.17723109 0.38547122 0.039338227 0.10397951 0.3156702 -0.047421917 0.2860798
0.37560067 0.021625942 -0.20764619 0.2923981 0.17618419 -0.41817364 0.23074007 0.4836304
00000000: ce10 8c3e 117c 353e 7c5c c53e 1f21 213d
00000010: 36f3 d43d 869f a13e 7c3d 42bd 0d79 923e
00000020: bb4e c03e e328 b13c 34a1 54be 34b5 953e
00000030: a169 343e db1a d6be 2047 6c3e 679e f73e

VAE_Decoder.layers.1.attention.W_q.bias f4 [4]
-0.04380137 -0.07023019 0.042352278 -0.10589283
00000000: 1169 33bd d9d4 8fbd 9579 2d3d 57de d8bd

VAE_Decoder.layers.1.attention.W_k.weight f4 [4, 4]
-0.14598262 0.2616493 0.12414565 0.3829463 -0.5858199 -0.16730994 0.36480767 0.70373964
0.44814956 0.417675 0.10123466 -0.4061223 -0.07180508 0.33083734 -0.164725 0.1836548
00000000: 787c 15be e6f6 853e 1340 fe3d 8a11 c43e
00000010: 4bf8 15bf 4c53 2bbe 12c8 ba3e 4828 343f
00000020: dc73 e53e 7fd9 d53e 1e54 cf3d 43ef cfbe
00000030: 8b0e 93bd 8363 a93e acad 28be 0110 3c3e

VAE_Decoder.layers.1.attention.W_k.bias f4 [4]
3.210655e-05 -3.8902963e-05 -7.866356e-05 8.760799e-06
00000000: 25aa 0638 bd2b 23b8 2df8 a4b8 58fb 1237

VAE_Decoder.layers.1.attention.W_v.weight f4 [4, 4]
-0.4453062 -0.4078442 -0.34120798 -0.20317098 0.26138628 0.4943431 0.2449112 -0.12781206
-0.09734419 0.36846575 -0.30550608 -0.3210331 0.21163157 0.3099957 -0.16813758 -0.0337737
00000000: 2dff e3be f4d0 d0be d0b2 aebe 0e0c 50be
00000010: 6cd4 853e 8a1a fd3e 00ca 7a3e 2ae1 02be
00000020: 645c c7bd 8ba7 bc3e 4b6b 9cbe 735e a4be
00000030: f2b5 583e c2b7 9e3e 422c 2cbe 4b56 0abd

VAE_Decoder.layers.1.attention.W_v.bias f4 [4]
-0.024656031 -0.012211829 -0.025972316 0.014410223
00000000: 72fb c9bc 2014 48bc e5c3 d4bc db18 6c3c

VAE_Decoder.layers.1.linear0.weight f4 [128, 4]
-0.26556855 -0.033635374 -0.3183644 -0.22854948 -0.536397 -0.48085415 0.33059174 0.52907944
-0.23816721 0.049035415 0.045579463 0.030421255 -0.35254744 -0.31475183 0.16288666 0.34818017
-0.50724244 -0.3161153 -0.11652099 0.27119154 0.40760773 0.20570864 -0.23886599 0.030318687
-0.22484548 -0.24432695 0.40251476 0.5928553 -0.21372125 -0.5154615 -0.496164 0.2736911
-0.12535511 0.29952854 0.28293216 0.32572258 0.32045406 -0.41109237 0.5339145 -0.45362917
-0.3335324 -0.16719475 0.42706588 -0.43169618 -0.46095002 0.13845918 0.024198439 0.15280904
-0.30158252 0.34307817 0.3675955 0.42554602 -0.6049111 -0.5673788 0.008366579 0.6120414
0.0010447642 0.22686076 -0.058854498 0.20603357 0.19744428 0.33076027 0.37100238 0.31444794
-0.1430889 0.14544873 0.09510557 -0.2615972 0.046985637 -0.37735575 -0.24561802 0.028079957
-0.46724656 0.3688506 -0.030374788 -0.43479696 -0.21707742 -0.34997156 0.2874705 -0.45504287
-0.31193727 -0.034385297 -0.33361557 -0.101325646 -0.16977467 -0.5431486 0.44806415 0.24823275
-0.17154701 0.45271432 -0.21156591 0.30131984 0.46897838 0.22804289 -0.068378456 0.30159536
0.15829588 0.05743139 0.49829224 0.19282909 -0.46153986 0.19212331 -0.04918714 -0.4447076
0.10360176 0.47745863 0.06034534 0.3581744 0.5654369 -0.490054 -0.43487728 0.08556422
-0.52650434 -0.08100415 0.33392355 0.16711661 0.13726749 -0.4673368 -0.3901251 0.48810965
-0.09397091 0.6277756 0.5598532 -0.20356692 0.25840598 -0.43861103 -0.23615952 0.11061265
-0.46965316 -0.4718828 -0.34918225 0.19258177 0.30965796 -0.3612991 -0.2943339 0.18860921
0.32645708 -0.43896553 -0.34936747 0.023782264 -0.31966567 -0.11807856 -0.45464653 -0.052114602
-0.22286339 -0.24586888 0.42953053 -0.4654562 -0.28886768 0.22418754 0.09200042 -0.46994156
0.1744177 0.023558589 -0.043369457 0.41034928 0.41763696 0.018887436 -0.30729878 -0.041727796
-0.34474283 -0.51322883 -0.052336443 0.4591185 -0.19238415 -0.4122234 -0.329191 0.20420738
-0.37594086 -0.19982874 0.02291722 -0.4454085 -0.3047481 0.23456356 0.4209236 -0.16765215
0.2664835 -0.12787507 -0.41647837 0.1771392 0.21510394 0.20460515 -0.41765916 -0.43124932
-0.10480805 0.204237 0.16528262 -0.20655775 0.1466452 0.027018676 -0.1910782 0.5243862
-0.548519 -0.50846386 0.42627656 0.12128174 0.16528192 -0.5610631 -0.1837952 0.42118615
-0.14949636 -0.3161725 0.46930805 -0.04327678 0.13675475 0.3062591 -0.30110085 -0.34842572
0.24575491 0.19174261 0.231321 -0.16761102 0.26840904 -0.51461875 -0.4096232 0.41945535
0.2839645 -0.3899491 -0.40799356 -0.41872594 -0.5047952 -0.4662414 0.0688712 0.28080946
0.29665577 0.5691804 -0.32755306 -0.20102169 -0.46566755 -0.26683837 0.05317061 0.21328667
-0.33377212 0.37533492 -0.3394126 -0.5208222 -0.46413076 -0.08879123 0.29306713 0.46967432
0.15418316 -0.23956132 -0.14081839 0.11143126 -0.26853684 0.15677296 0.096660815 -0.37922165
0.26168808 0.30591136 0.44971356 0.57838535 -0.19903447 -0.2950435 -0.08743831 0.31269494
00000000: 9af8 87be 3fc5 09bd a900 a3be e008 6abe
00000010: 5051 09bf 8432 f6be 5243 a93e c071 073f
00000020: 1be2 73be 5cd9 483d 88b1 3a3d ff35 f93c
00000030: 1981 b4be 2727 a1be c3cb 263e ac44 b23e
00000040: a4da 01bf ddd9 a1be 8fa2 eebd 9ed9 8a3e
00000050: f6b1 d03e 49a5 523e 4999 74be e55e f83c
00000060: e53d 66be d830 7abe 6a16 ce3e 5dc5 173f
00000070: bed9 5abe 49f5 03bf 3509 febe 3d21 8c3e
00000080: 175d 00be ce5b 993e 7cdc 903e 1cc5 a63e
00000090: 8e12 a43e b37a d2be 9fae 083f 1542 e8be
000000a0: c2c4 aabe 1a35 2bbe 61a8 da3e 4807 ddbe
000000b0: a401 ecbe 3ec8 0d3e ce3b c63c f979 1c3e
000000c0: 0669 9abe f1a7 af3e 7a35 bc3e 2be1 d93e
000000d0: 74db 1abf bd3f 11bf fa13 093c bfae 1c3f
000000e0: 78f0 883a 304e 683e 6a11 71bd 77fa 523e
000000f0: d52e 4a3e 6959 a93e 06f4 bd3e 52ff a03e
00000100: e685 12be 83f0 143e b6c6 c23d 11f0 85be
00000110: 0374 403d c634 c1be 4a83 7bbe f007 e63c
00000120: f13a efbe fcd9 bc3e 8cd4 f8bc b59d debe
00000130: 8b49 5ebe 792f b3be 552f 933e 61fb e8be
00000140: 3eb6 9fbe 99d7 0cbd a9cf aabe d283 cfbd
00000150: 69d9 2dbe c90b 0bbf aa68 e53e ba30 7e3e
00000160: 05aa 2fbe 2cca e73e bca4 58be 9846 9a3e
00000170: ef1d f03e 1384 693e 010a 8cbd b56a 9a3e
00000180: 5118 223e 2d3d 6b3d 2920 ff3e fd74 453e
00000190: f44e ecbe f9bb 443e 7478 49bd b7b0 e3be
000001a0: 292d d43d 7575 f43e ad2c 773d a362 b73e
000001b0: 79c0 103f 5ce8 fabe 3ca8 debe 4b3c af3d
000001c0: fdc8 06bf 81e5 a5bd 07f8 aa3e 9e20 2b3e
000001d0: d98f 0c3e c546 efbe 7abe c7be 82e9 f93e
000001e0: d273 c0bd e7b5 203f 8a52 0f3f d973 50be
000001f0: ca4d 843e a091 e0be cdd3 71be e388 e23d
00000200: 6176 f0be 9f9a f1be 04c8 b2be 2834 453e
00000210: 7d8b 9e3e 32fc b8be efb2 96be c622 413e
00000220: 6225 a73e 17c0 e0be 4be0 b2be 06d3 c23c
00000230: 38ab a3be 2cd3 f1bd 6ec7 e8be 1f76 55bd
00000240: 4d36 64be 0dc5 7bbe 6deb db3e 4650 eebe
00000250: 77e6 93be 6b91 653e b76a bc3d 2e9c f0be
00000260: 8e9a 323e f1fd c03c 2ca4 31bd 4d19 d23e
00000270: 83d4 d53e d3b9 9a3c 4456 9dbe c4ea 2abd
00000280: 2282 b0be f762 03bf bd5e 56bd 9411 eb3e
00000290: 5a00 45be f20e d3be b98b a8be bd1b 513e
000002a0: 527b c0be e89f 4cbe e5bc bb3c 950c e4be
000002b0: f107 9cbe 6e31 703e 4c83 d73e 01ad 2bbe
000002c0: 8670 883e aff1 02be a73c d5be fa63 353e
000002d0: 3544 5c3e 0384 513e 6cd7 d5be b6cc dcbe
000002e0: 9aa5 d6bd 8123 513e d93f 293e e083 53be
000002f0: 292a 163e 4556 dd3c 01aa 43be 2d3e 063f
00000300: be6b 0cbf b02a 02bf ec40 da3e 9062 f83d
00000310: aa3f 293e d5a1 0fbf cf34 3cbe b6a5 d73e
00000320: 9315 19be 5de1 a1be 2549 f03e fe42 31bd
00000330: 7009 0c3e fecd 9c3e e429 9abe db64 b2be
00000340: 2da7 7b3e 2d58 443e 6adf 6c3e 39a2 2bbe
00000350: e96c 893e 0ebe 03bf 22ba d1be dac2 d63e
00000360: cc63 913e 69a7 c7be 88e4 d0be 3f63 d6be
00000370: 423a 01bf 31b7 eebe 580c 8d3d 42c6 8f3e
00000380: 44e3 973e cfb5 113f 09b5 a7be a1d8 4dbe
00000390: fa6b eebe 0a9f 88be 6dc9 593d d267 5a3e
000003a0: 2ee4 aabe e62b c03e 7dc7 adbe 9b54 05bf
000003b0: 8ca2 edbe 2dd8 b5bd e50c 963e 2779 f03e
000003c0: 31e2 1d3e 904f 75be b232 10be 1336 e43d
000003d0: a97d 89be 1789 203e 1bf6 c53d 5729 c2be
000003e0: fbfb 853e 6aa0 9c3e db40 e63e 1011 143f
000003f0: b1cf 4bbe f10f 97be db12 b3bd 8d19 a03e

VAE_Decoder.layers.1.linear0.bias f4 [128]
-0.38433874 -0.34901017 -0.17901264 0.004644011 0.20369527 -0.42746177 0.42893907 0.2638907
0.11112183 -0.21296062 -0.2821822 0.07605145 0.4218503 -0.25230455 -0.2121307 0.30324495
0.41788235 -0.4743353 -0.17677955 0.03168676 -0.25754815 0.34863326 -0.4039999 -0.23895212
0.14494747 -0.4885043 0.3963766 -0.36570436 0.16130036 0.15810367 -0.28158224 0.2810656
0.5182531 -0.35392955 0.36660329 0.25165224 -0.0065099574 -0.30622053 0.36607 -0.16103145
-0.12781289 0.1747713 -0.3830549 0.4416688 0.47012872 -0.2820205 0.5199785 -0.4315948
0.32923725 0.462545 0.28995705 0.39331317 0.2526815 -0.41844657 -0.45634142 0.4164626
-0.20642394 0.46414244 -0.26399833 0.31234953 0.3062073 0.21779223 0.29834986 0.24304223
0.3900689 0.1957064 -0.44274148 -0.03048268 0.24321234 0.17566232 -0.18232502 -0.1855339
-0.3584511 -0.45352188 -0.22631611 0.14056423 0.1385776 -0.3384869 -0.191602 -0.24345025
0.4770816 0.31102413 -0.431427 0.14347242 0.08922257 0.2148666 -0.021198269 0.05510887
0.21952185 -0.18544127 0.1521848 0.13317958 0.006606563 -0.274639 -0.0017993168 -0.007990113
0.10560455 0.36066604 0.047832545 -0.18014254 0.034244083 -0.14801875 0.40077594 -0.40968323
-0.121001154 0.11259436 -0.009768123 -0.2121266 -0.07859054 0.36991888 -0.21845496 0.24659657
0.4448704 -0.3057852 -0.15820718 0.22300388 -0.24526528 0.027538892 0.025397992 -0.08694638
-0.34566253 0.46446636 -0.44554543 -0.20709823 0.3242212 -0.28679729 -0.051485185 -0.38081905
00000000: 0cc8 c4be 76b1 b2be 174f 37be ca2c 983b
00000010: 7e95 503e 45dc dabe e79d db3e af1c 873e
00000020: d893 e33d 5912 5abe 2f7a 90be ddc0 9b3d
00000030: c3fc d73e 102e 81be ca38 59be ec42 9b3e
00000040: adf4 d53e 14dc f2be b305 35be fac9 013d
00000050: 5add 83be 0f80 b23e 13d9 cebe ddaf 74be
00000060: 1c6d 143e 3c1d fabe e0f1 ca3e 9a3d bbbe
00000070: ec2b 253e eee5 213e 8c2b 90be d5e7 8f3e
00000080: 3cac 043f 4136 b5be 6db3 bb3e 90d8 803e
00000090: 7b51 d5bb f0c8 9cbe 876d bb3e 6ee5 24be
000000a0: 62e1 02be 3ff7 323e c61f c4be 6a22 e23e
000000b0: b6b4 f03e fe64 90be 501d 053f fef9 dcbe
000000c0: c991 a83e b3d2 ec3e 4075 943e 5860 c93e
000000d0: 785f 813e a13e d6be 95a5 e9be 963a d53e
000000e0: cc60 53be 14a4 ed3e ca2a 87be 47ec 9f3e
000000f0: 34c7 9c3e ed04 5f3e 50c1 983e 10e0 783e
00000100: 1cb7 c73e 4267 483e 03af e2be d0b6 f9bc
00000110: a80c 793e d3e0 333e 69b3 3abe 99fc 3dbe
00000120: e786 b7be 0534 e8be 69bf 67be 12f0 0f3e
00000130: 49e7 0d3e 284e adbe 5133 44be 064b 79be
00000140: 0a44 f43e 8e3e 9f3e 00e4 dcbe 6fea 123e
00000150: 53ba b63d fd05 5c3e fea7 adbc d7b9 613d
00000160: 56ca 603e 51e4 3dbe 55d6 1b3e 3a60 083e
00000170: de7b d83b 7c9d 8cbe 0ed7 ebba f7e8 02bc
00000180: 3347 d83d 38a9 b83e 0fec 433d 4977 38be
00000190: 8643 0c3d 3a92 17be 8132 cd3e 00c2 d1be
000001a0: 74cf f7bd df97 e63d 7a0a 20bc b737 59be
000001b0: 14f4 a0bd 0266 bd3e a8b2 5fbe d083 7c3e
000001c0: 0ec6 e33e e18f 9cbe 1001 22be 215b 643e
000001d0: d226 7bbe 3e99 e13c 730f d03c f210 b2bd
000001e0: aefa b0be 89ce ed3e 881e e4be 8f11 54be
000001f0: 5200 a63e 18d7 92be 21e2 52bd b7fa c2be

VAE_Decoder.layers.1.linear1.weight f4 [4, 128]
0.044540927 -0.17119685 -0.021137977 -0.14141436 -0.08971692 0.121485434 -0.17852768 -0.20665537
-0.032675076 -0.026704388 -0.01559252 -0.092526406 -0.06980648 -0.104206465 -0.09968257 -0.124101415
-0.02740125 -0.116738185 0.0024989583 -0.09558018 0.020356461 -0.038144387 -0.0020321142 0.07632737
-0.08078054 -0.12834753 -0.024524532 -0.019100804 0.0022543136 -0.17791057 -0.45216984 -0.035454564
-0.079579554 -0.16809039 0.004213733 -0.10021785 0.028232785 -0.066618 -0.07586941 0.06627697
-0.12632638 -0.20044251 -0.0020986686 0.033761963 0.01723572 0.03549089 -0.033895038 -0.28490517
-0.035486918 -0.105392165 -0.11529382 0.14172846 0.009603172 -0.24534324 0.019046422 -0.17453311
0.091235235 -0.037537795 -0.0066451663 -0.021140436 -0.071677856 0.05644435 -0.11439665 -0.19221939
0.03144366 -0.11875005 -0.02780033 -0.1812103 0.046641666 0.0409403 -0.24483462 -0.12876749
0.114699535 0.16291307 -0.07519789 0.045947313 0.014988574 -0.07914368 0.114519864 -0.016758706
-0.16952875 -0.0035821015 -0.28382403 -0.15688996 0.13114852 -0.12377637 -0.0025648798 -0.054375216
0.02755137 -0.1346668 -0.10133632 0.027213015 -0.03842035 -0.089718945 -0.075408794 -0.07184678
-0.18934059 -0.015933998 -0.010398527 0.25123808 0.04126189 0.22195959 -0.03778326 0.022631528
-0.118278034 -0.10258141 0.06562367 0.027134031 -0.093702994 0.003931796 -0.13792028 0.025847854
-0.12789257 -0.15966973 -0.0027202158 -0.009392055 0.041067407 0.028360473 -0.088090256 -0.0603718
-0.036984995 -0.04239834 -0.1391166 -0.08706944 -0.18481487 -0.4706136 -0.17637783 -0.021377923
0.019049626 -0.1633267 -0.028136987 -0.0895238 0.0052773547 -0.54252416 -0.07660888 -0.08842189
-0.024177374 0.0297722 -0.0047255876 -0.0965589 -0.06422651 -0.17126499 0.04268002 -0.010736854
-0.03513207 -0.0007369303 0.110897 0.027786197 -0.12324983 -0.0009299554 -0.048686996 0.02189129
-0.027714059 0.078778416 -0.0662292 0.07219216 -0.13090125 -0.039705995 0.23896177 -0.084941484
-0.058312964 0.06474368 -0.03224646 -0.047105473 0.042888194 0.09905299 -0.01854685 -0.123522654
-0.06147307 -0.14423981 0.07847435 -0.035009734 -0.08423331 -0.066045634 0.11893461 -0.13423876
-0.032992326 -0.10422746 0.05989562 -0.11241978 0.028868703 -0.13171507 0.0039320034 -0.050304964
0.015821012 0.028074034 0.03966262 -0.11860617 -0.118140474 -0.0026042282 -0.12186746 0.0009065913
-0.043233715 0.011541654 -0.039395083 -0.13617189 -0.03858052 0.08601964 -0.15191804 -0.015682109
0.13222854 -0.049278557 -0.077486 -0.070724316 0.053404596 0.12658453 -0.17730048 0.116944276
-0.10903555 0.013824341 0.077847384 -0.11602846 0.05627321 -0.0314525 -0.09174712 -0.0004955689
-0.027134577 -0.003729549 -0.104135275 0.088978425 -0.14127599 -0.0718213 -0.011346154 -0.1439027
-0.09823098 -0.11646596 0.021942873 -0.14664091 0.07849661 -0.10645737 -0.07756787 0.063493766
0.12851137 0.037540756 -0.018365458 -0.08220215 -0.006815358 0.050117485 0.0064235977 0.01178118
-0.10415069 -0.044216424 0.03708072 0.056575123 0.043971237 -0.018792858 -0.09935699 0.19848292
0.10036999 -0.034791823 0.02104186 0.046173748 -0.06574989 -0.25082567 -0.021234438 -0.037704434
00000000: 8c70 363d 3a4e 2fbe 8d29 adbc edce 10be
00000010: 81bd b7bd 5bcd f83d f6cf 36be 779d 53be
00000020: 4dd6 05bd 29c3 dabc c577 7fbc 7c7e bdbd
00000030: b3f6 8ebd 336a d5bd 6026 ccbd e228 febd
00000040: 9678 e0bc 6e14 efbd 90c5 233b 8bbf c3bd
00000050: 98c2 a63c 4a3d 1cbd 382d 05bb 8651 9c3d
00000060: 4570 a5bd 896d 03be ace7 c8bc 4a79 9cbc
00000070: 1bbd 133b 302e 36be ce82 e7be ce38 11bd
00000080: 9bfa a2bd e31f 2cbe 5b13 8a3b 043f cdbd
00000090: 7148 e73c 056f 88bd 6c61 9bbd 38bc 873d
000000a0: b45b 01be cd40 4dbe d189 09bb fc49 0a3d
000000b0: ed31 8d3c e55e 113d 86d5 0abd 17df 91be
000000c0: bb5a 11bd d9d7 d7bd 2b1f ecbd 4421 113e
000000d0: 9f56 1d3c 423b 7bbe 3e07 9c3c cfb8 32be
000000e0: 8ad9 ba3d 3bc1 19bd b2bf d9bb b52e adbc
000000f0: d7cb 92bd 3132 673d ca48 eabd 29d5 44be
00000100: 11cb 003d 3a33 f3bd 85bd e3bc 318f 39be
00000110: 550b 3f3d 04b1 273d edb5 7abe a0db 03be
00000120: 97e7 ea3d afd2 263e 5a01 9abd 4033 3c3d
00000130: a392 753c 1516 a2bd 6489 ea3d 8e49 89bc
00000140: f298 2dbe b1c1 6abb 6251 91be c3a7 20be
00000150: cc4b 063e 777e fdbd 8b17 28bb 8cb8 5ebd
00000160: 69b3 e13c 18e6 09be 6b89 cfbd d4ed de3c
00000170: a85e 1dbd 91be b7bd ed6f 9abd 6824 93bd
00000180: 80e2 41be 0488 82bc 955e 2abc 47a2 803e
00000190: 3a02 293d 6049 633e 9fc2 1abd c165 b93c
000001a0: c13b f2bd 3416 d2bd b465 863d 3048 de3c
000001b0: 5be7 bfbd 4cd6 803b f93a 0dbe e1be d33c
000001c0: 45f6 02be 7680 23be a645 32bb 22e1 19bc
000001d0: 4c36 283d 3954 e83c aa68 b4bd 6c48 77bd
000001e0: 947d 17bd e2a9 2dbd 9574 0ebe 7651 b2bd
000001f0: 1c40 3dbe 44f4 f0be 649c 34be c120 afbc
00000200: f60d 9c3c 1d3f 27be 8a7f e6bc 4158 b7bd
00000210: a9ed ac3b dde2 0abf 1ee5 9cbd 8916 b5bd
00000220: a10f c6bc d4e4 f33c 1ad9 9abb acc0 c5bd
00000230: 3089 83bd 1760 2fbe 3fd1 2e3d a1e9 2fbc
00000240: a5e6 0fbd 8e2e 41ba f71d e33d e19f e33c
00000250: 686a fcbd 40c8 73ba 046c 47bd 5d55 b33c
00000260: 9808 e3bc 9456 a13d 2da3 87bd 7cd9 933d
00000270: fa0a 06be c1a2 22bd 65b2 743e cdf5 adbd
00000280: 93d9 6ebd 5698 843d dd14 04bd abf1 40bd
00000290: 88ab 2f3d 4bdc ca3d 90ef 97bc 72f9 fcbd
000002a0: 30cb 7bbd 9ab3 13be 29b7 a03d 5e66 0fbd
000002b0: 8382 acbd ef42 87bd fd93 f33d e375 09be
000002c0: f622 07bd 3575 d5bd 1c55 753d 573c e6bd
000002d0: 0f7e ec3c 51e0 06be 09d8 803b 940c 4ebd
000002e0: 119b 813c 84fb e53c 4575 223d cbe7 f2bd
000002f0: a2f3 f1bd b3ab 2abb a695 f9bd 50a8 6d3a
00000300: d615 31bd 3519 3d3c bd5c 21bd a570 0bbe
00000310: 9b06 1ebd 112b b03d 6790 1bbe c477 80bc
00000320: eb66 073e 50d8 49bd fbb0 9ebd e9d7 90bd
00000330: c7be 5a3d 609f 013e 428e 35be 7b80 ef3d
00000340: 084e dfbd 7d7f 623c 736e 9f3d 54a0 edbd
00000350: bd7e 663d 56d4 00bd eae5 bbbd 11e9 01ba
00000360: 5549 debc 736b 74bb e044 d5bd 523a b63d
00000370: a7aa 10be 0c17 93bd 38e5 39bc 3b5b 13be
00000380: 532d c9bd b585 eebd 8ac1 b33c 0929 16be
00000390: d5c2 a03d 5206 dabd e7db 9ebd 0509 823d
000003a0: 7c98 033e 56c4 193d 2873 96bc 9a59 a8bd
000003b0: 5e53 dfbb fe47 4d3d 0b7d d23b da05 413c
000003c0: f54c d5bd 481c 35bd f4e1 173d 51bb 673d
000003d0: 2f1b 343d 7bf3 99bc ad7b cbbd 1b3f 4b3e
000003e0: c88e cd3d df81 0ebd fb5f ac3c af20 3d3d
000003f0: e1a7 86bd 396c 80be d8f3 adbc f76f 1abd

VAE_Decoder.layers.1.linear1.bias f4 [4]
0.0027306092 0.046270248 0.0030156316 0.0021445756
00000000: 05f4 323b df85 3d3d e7a1 453b 028c 0c3b

VAE_Decoder.layers.1.norm1.weight f4 [4]
1.2638271 1.1522684 1.069147 1.1914109
00000000: 16c5 a13f 887d 933f cfd9 883f 2780 983f

VAE_Decoder.layers.1.norm1.bias f4 [4]
-0.1362387 -0.059823226 0.0064719855 0.11099403
00000000: 2882 0bbe 3309 75bd f312 d43b d750 e33d

VAE_Decoder.layers.1.norm0.weight f4 [4]
1.0120806 0.9560175 0.90113854 0.9361986
00000000: db8b 813f 90bd 743f 04b1 663f b6aa 6f3f

VAE_Decoder.layers.1.norm0.bias f4 [4]
0.011454024 -0.019678961 0.012667478 0.024449049
00000000: a9a9 3b3c c635 a1bc 418b 4f3c 5f49 c83c

VAE_Decoder.last_normalization.weight f4 [4]
1.0 1.0 1.0 1.0
00000000: 0000 803f 0000 803f 0000 803f 0000 803f

VAE_Decoder.last_normalization.bias f4 [4]
0.0 0.0 0.0 0.0
00000000: 0000 0000 0000 0000 0000 0000 0000 0000

VAE_Decoder.head.weight f4 [4, 4]
0.38582277 0.022915483 0.26682323 0.089958966 0.12581068 0.08171117 0.17710704 -0.32726145
-0.016840756 0.14613473 0.15818834 -0.12681347 0.4833629 -0.02532965 0.0050013065 -0.4755348
00000000: 908a c53e 40b9 bb3c 0e9d 883e 683c b83d
00000010: 84d4 003e 3058 a73d 8c5b 353e d08e a7be
00000020: a0f5 89bc 58a4 153e 20fc 213e 64db 01be
00000030: 587b f73e 2080 cfbc 00e2 a33b 4c79 f3be

VAE_Decoder.head.bias f4 [4]
-0.0038909316 -0.36025292 -0.3858804 0.33730894
00000000: 00ff 7ebb 1273 b8be 1e92 c5be c2b3 ac3e

Detokenizer.weight f4 [2, 4]
-0.09450074 0.26223707 -0.22970001 -0.46901646 -0.01739979 -0.41841206 0.63114774 -0.6301322
00000000: 9b89 c1bd f043 863e 7b36 6bbe ed22 f0be
00000010: 018a 8ebc 1b3a d6be e692 213f 5850 21bf

Detokenizer.cat_recons.0.weight f4 [3, 4]
-0.1581165 -0.10163348 -0.22280625 0.55100495 0.024893308 0.591889 0.5756242 -0.3251921
0.18665679 0.31088915 -0.4360887 -0.4546418
00000000: 4be9 21be 3725 d0bd 5227 64be a90e 0d3f
00000010: 0ded cb3c 0a86 173f 1c5c 133f 947f a6be
00000020: f522 3f3e dd2c 9f3e 0547 dfbe cfc6 e8be

Detokenizer.cat_recons.0.bias f4 [3]
0.51080483 -0.17841245 0.45142448
00000000: 1bc4 023f c1b1 36be 1c21 e73e
