restsyn/tabsyn/vae/ckpt/blobs_cond/model.pt (torch, 61929 bytes, 96 tensors)

VAE.Tokenizer.weight f4 [3, 4]
000000 84 5c e8 be 2b 05 af be cd c8 1c 3d 3b 9b 78 be
       -0.45383084 -0.3418363 0.038277436 -0.24277966
000010 ee ac e6 3d de 5b 09 3e df 9e 93 be f4 64 1f 3b
       0.112634525 0.13413951 -0.28832147 0.0024321647
000020 b3 7c 2d be 18 39 b3 3e 84 a7 4e bd 6d 84 0c bf
       -0.169421 0.35004497 -0.050452724 -0.54889566

VAE.Tokenizer.bias f4 [3, 4]
000000 1b f0 f5 3e 87 9f 10 be 86 65 c1 3d d3 cf d4 bd
       0.48034748 -0.14123355 0.09443192 -0.10391202
000010 92 ed 7f 3e 20 9a 86 be 24 d8 7d 3e bd 88 79 3d
       0.2499297 -0.26289463 0.24789482 0.06092142
000020 80 81 ea be 27 1c e1 be 4c a1 c7 be bd e9 2c bd
       -0.45801926 -0.4396679 -0.38990247 -0.042215098

VAE.Tokenizer.category_embeddings.weight f4 [3, 4]
000000 b5 e7 4f 3e 67 a7 d9 be 02 ac fb 3e 2a ed f9 bd
       0.20303233 -0.4251053 0.4915467 -0.122034386
000010 3c 8a d1 3e 36 aa 7f be be e1 22 be 03 55 af bb
       0.40925777 -0.24967274 -0.15906426 -0.0053507104
000020 88 ff 59 3e f3 a4 ce 3e a0 69 a1 3e a4 64 27 3e
       0.21288884 0.4036022 0.31525898 0.16346985

VAE.encoder_mu.layers.0.attention.W_q.weight f4 [4, 4]
000000 9f df e8 3e b3 39 2d bf 46 b2 c3 be ca 2e 6d 3e
       0.4548311 -0.6766617 -0.3822195 0.2316238
000010 8c a9 78 3e 3a 0e 21 bf cb a9 45 3f 61 27 27 3b
       0.24283427 -0.62912333 0.7721221 0.002550565
000020 62 18 cd bd 72 cc 1b bd 90 68 24 3f c5 ad ab bd
       -0.10014416 -0.03803677 0.6422205 -0.08382753
000030 93 a8 07 3f 6c 8d c4 bd f0 e6 25 3f 94 48 12 3f
       0.529916 -0.095972866 0.6480551 0.57141995

VAE.encoder_mu.layers.0.attention.W_q.bias f4 [4]
000000 1d 4f 32 3e ac b8 6e 3e 80 e3 03 3e c9 51 5b 3e
       0.17412992 0.23312634 0.12879753 0.21417917

VAE.encoder_mu.layers.0.attention.W_k.weight f4 [4, 4]
000000 db bf f9 bd cf d8 a6 3b cd 64 0a bf b7 b4 ac be
       -0.12194797 0.0050917636 -0.5406006 -0.33731624
000010 f8 50 fa 3e 74 c1 1c 3f 5d 11 2e bf ee 33 03 bf
       0.488899 0.61232686 -0.67995244 -0.51251113
000020 54 7c 4b 3f f9 af c2 3e 47 48 60 be f4 f9 28 3f
       0.79486585 0.3802488 -0.21902572 0.660064
000030 3b c4 21 3c f1 84 24 3f 70 64 3b bf a0 2c 86 3e
       0.009873445 0.6426535 -0.7320013 0.2620592

VAE.encoder_mu.layers.0.attention.W_k.bias f4 [4]
000000 9e ef 4f b9 f7 35 1f 38 7c 2e 0c 39 c3 4d be b9
       -0.00019830323 3.7958813e-05 0.00013368757 -0.0003629756

VAE.encoder_mu.layers.0.attention.W_v.weight f4 [4, 4]
000000 77 34 84 3d 9d f3 a5 be ed c7 72 3e a1 96 38 3e
       0.064553194 -0.32412425 0.23709078 0.1802621
000010 47 4e a9 3d 64 57 f5 be 2b 1f 18 be 5a 8b 37 bd
       0.08266883 -0.47918236 -0.1485564 -0.04481063
000020 21 16 cb bd 71 fa 25 be ab c6 b0 be ca 0b bb 3d
       -0.0991633 -0.16208817 -0.34526572 0.09133108
000030 26 85 a0 be a7 00 01 3e fd b2 ac be b5 40 b6 3e
       -0.31351584 0.12597905 -0.33730307 0.35596243

VAE.encoder_mu.layers.0.attention.W_v.bias f4 [4]
000000 ab 7b 08 3d 42 06 52 3d c0 8d 08 bd ce e9 3c bd
       0.033321064 0.0512755 -0.03333831 -0.04612141

VAE.encoder_mu.layers.0.linear0.weight f4 [128, 4]
000000 86 f6 12 3e 36 fa cd be 94 0a ee be 6b 85 cf be
       0.14351854 -0.40229958 -0.46492445 -0.40531477
000010 2c 1c be 3e 23 a4 ec 3e 2a 46 6a be 79 61 2a be
       0.37130868 0.46218976 -0.22878328 -0.16638745
000020 ee ca 1a bf 39 d7 82 3e 3b 9a 63 3d 33 a4 8a 3e
       -0.60465896 0.25554827 0.055567008 0.270784
000030 d0 51 26 be f7 13 57 be e1 5c 58 3e 0d 6b d6 be
       -0.16242146 -0.2100371 0.2112918 -0.41878548
000040 16 12 d6 3d be 7d b1 be 1a b0 94 bc 05 0a 99 be
       0.10452668 -0.34666246 -0.018150378 -0.29890457
000050 94 cc d7 3e 9f 6f d6 be 40 67 ba be 62 78 71 be
       0.42148268 -0.41882035 -0.36406898 -0.23581079
000060 db d2 b3 be c2 a5 df bd bb 8a 91 3d 4e f2 c1 3e
       -0.35121807 -0.10920288 0.07106539 0.37880176
000070 cd 22 c0 3e 7b a5 1d bd c0 99 29 3e 02 13 f1 bd
       0.3752655 -0.038487893 0.16562557 -0.117712036
000080 88 9a 57 be 11 42 35 be cb 1f 86 be 0f 07 fd be
       -0.21055043 -0.17700984 -0.2619613 -0.49419448
000090 be 4c 6a be 85 0a ec bd 3f 99 5e 3e 4c 2d d9 be
       -0.22880837 -0.11525444 0.21738146 -0.4241737
0000a0 cc 14 48 bc 52 b0 70 be ae 96 cc be d5 2b e5 bd
       -0.01221199 -0.23504761 -0.3995871 -0.11190001
0000b0 e3 51 bb be e1 98 58 3e 25 91 df 3e 28 42 d2 be
       -0.36585912 0.21152069 0.43665424 -0.41066098
0000c0 c4 bf 86 be 9b 7f db be 1c 88 47 be 54 dc d5 3e
       -0.2631818 -0.42870793 -0.19485515 0.4176966
0000d0 d0 f2 72 3e 84 22 05 bf cd fe 78 3d 1d 61 c9 3e
       0.23725438 -0.5200579 0.060789872 0.39331904
0000e0 9b 34 b5 be 77 bc 4d be 02 c6 22 be d0 d9 b2 be
       -0.35391697 -0.20091425 -0.15895846 -0.34931803
0000f0 30 b6 98 3e d2 f6 43 bd 9b 1e c3 be c4 24 de be
       0.29826498 -0.047842808 -0.38109288 -0.43387425
000100 ae fc 41 3e c5 09 1c 3e c2 86 da be 6d 2d 97 3d
       0.18944046 0.15238102 -0.42680937 0.07381711
000110 9a b7 5a be 17 c1 ad 3e aa 5e 10 bf 1d cb 89 be
       -0.21359101 0.33936378 -0.56394446 -0.26912776
000120 1f 30 04 3f 05 c0 87 bd b2 af 9f 3c 19 0c df 3d
       0.51635927 -0.06628422 0.019492958 0.10890979
000130 b9 c1 bc 3e 82 97 e0 be e3 3a ff 3e 8d 3a 2e be
       0.3686655 -0.4386559 0.49849615 -0.17014523
000140 38 d8 f1 be e7 c5 00 3f 92 ba bd be 00 6e 8e 3c
       -0.47235274 0.50301975 -0.37056404 0.017386436
000150 27 2b 84 3e e3 6e 87 be 25 b4 8a be d5 e9 b5 be
       0.25814173 -0.26451787 -0.27090564 -0.35529962
000160 ff ee 18 3e 81 44 ed be 89 ae c0 3e d8 f9 d4 3e
       0.1493492 -0.46341327 0.3763316 0.41596866
000170 06 cd 16 bc 5e 7a 5f be 0b 2a 09 be 9e 39 41 3e
       -0.009204155 -0.21824023 -0.13394944 0.18869635
000180 21 4a 39 be c6 cd 5f 3d c6 57 a7 3e cb 98 cb be
       -0.18094684 0.0546396 0.32684153 -0.3976501
000190 91 c8 e6 bd a7 04 bb be a1 a5 cb be 39 4f 85 3e
       -0.11268724 -0.36526987 -0.39774802 0.26037005
0001a0 bd 4f fd be a8 a3 01 3e 0c e0 81 3e c5 55 fb be
       -0.49474898 0.12660086 0.25366247 -0.49088874
0001b0 72 6e c7 be 79 ca 68 3e 7f 45 60 3e 81 a2 80 3e
       -0.3895145 0.22733487 0.2190151 0.2512398
0001c0 9a 10 6b be 14 f1 6a 3f 7d 7d f2 be f8 43 f2 3e
       -0.22955552 0.91774106 -0.47361365 0.4731748
0001d0 95 4a cf 3e 66 67 3f 3e 34 82 63 3e ff 3e d0 3d
       0.4048659 0.18691787 0.22217637 0.101682656
0001e0 f2 54 72 3c 1b 25 7b 3e f9 32 af 3e 11 a2 9d be
       0.01479076 0.24525873 0.34218577 -0.3078771
0001f0 b5 a4 7c be 6c 44 60 be 45 66 52 3d 2a e1 2c 3f
       -0.24672206 -0.21901101 0.051367063 0.67531073
000200 7b d7 b1 3e 17 80 87 be 65 20 a8 bc e9 53 a9 be
       0.3473471 -0.26464912 -0.02052326 -0.3307183
000210 e8 d1 33 3e 3d 17 59 be f2 4e 76 bd b2 2b df 3e
       0.17560542 -0.21200271 -0.060133882 0.43588024
000220 c8 11 01 3e b8 93 74 be ac 9e 80 3e b2 33 04 3f
       0.1260444 -0.23884475 0.25121057 0.5164138
000230 1e 5f a7 3d 46 e6 e6 3e 54 0b 72 3d ac 5d 7e 3e
       0.08172439 0.4509756 0.059092835 0.2484042
000240 9c c0 b5 be 5e ab c9 3e 14 b3 da be d2 8f 79 3e
       -0.35498512 0.39388555 -0.4271475 0.2437127
000250 0d 55 96 3e 19 44 ad be 99 8c f2 3d 48 78 f4 3d
       0.29361764 -0.33841017 0.11843223 0.11937004
000260 62 a9 d4 3e 9c aa 12 be 07 ed 8a be 38 af 98 3d
       0.4153548 -0.14322895 -0.27133963 0.07455295
000270 0f 07 d6 be d6 80 9e 3e 8b 7c 76 be 97 34 d7 bd
       -0.4180226 0.3095767 -0.24070947 -0.105080776
000280 aa 6a 01 bf af 9d f6 3e 95 aa 8a be 94 cb b7 be
       -0.5055338 0.48167178 -0.2708327 -0.35897505
000290 42 31 e9 be e5 7e a6 be 60 44 6c 3e 9f a6 ac 3e
       -0.45545393 -0.32518688 0.23072958 0.33720872
0002a0 9d 8b 34 3e 41 9d 79 3e 79 f4 c9 be c6 59 04 3f
       0.17631383 0.24376394 -0.3944433 0.51699483
0002b0 eb a9 6d 3e d3 67 58 3e 50 6f b5 be 33 3a 30 3e
       0.2320935 0.21133356 -0.35436487 0.17209701
0002c0 d6 0b 04 bf 63 1e ce 3e e3 b0 3d 3e 14 ea 92 be
       -0.5158056 0.40257558 0.18524508 -0.28694212
0002d0 20 6e 9a be 5b 69 00 bf a9 4c 2d be 06 13 41 3d
       -0.30162144 -0.5016076 -0.16923775 0.047137283
0002e0 43 cc ab be 96 36 97 bd 3b 11 81 3d ab a6 ef be
       -0.33554277 -0.07383458 0.063021146 -0.46806845
0002f0 54 8a 09 be 3b 7e d7 be bf 4d 8c bd 25 fd b2 be
       -0.13431674 -0.42088494 -0.068507664 -0.3495876
000300 96 2a 4b 3c 6a 53 aa bd a0 e0 e8 be a7 c4 3c bd
       0.01240029 -0.08316691 -0.45483875 -0.04608598
000310 a5 9e 79 be 80 9f 2f be 82 1d 79 be 6c 9a c4 3d
       -0.24376924 -0.17150688 -0.24327663 0.09599766
000320 74 fb 81 3e 83 a4 06 3d aa b1 ae 3e 30 08 ea be
       0.25387156 0.032871734 0.34119922 -0.45709372
000330 a7 97 15 bf 1a bf a0 3e 0c 42 73 3e 90 f8 52 be
       -0.5843453 0.313958 0.23755664 -0.20602632
000340 49 3d 34 be 64 ee 10 be d6 1b c6 be 54 e0 86 3e
       -0.17601503 -0.14153439 -0.38693112 0.26343024
000350 24 71 99 be f2 a1 c1 be 34 c6 19 bf fe 38 09 3e
       -0.29969132 -0.37818867 -0.6006806 0.13400647
000360 92 48 bd be e4 93 aa bd e3 3d 69 3e 0c a1 6d 3c
       -0.3696943 -0.08328989 0.22777514 0.014503729
000370 16 5e c4 bd 3f 7f a7 be e7 2d 67 3d d0 be e5 be
       -0.09588258 -0.3271427 0.05644026 -0.4487214
000380 b7 a8 b7 3e 99 7b b2 3e 98 19 c1 bc 0a 69 bb be
       0.35870907 0.34859923 -0.023571774 -0.36603576
000390 9f 6b a7 be 31 2b eb be da a7 81 3c f9 b8 84 3e
       -0.32699296 -0.4593139 0.015827108 0.25922373
0003a0 9a 6b af bc 4e 13 a9 be f9 0d be bd b1 a5 97 3e
       -0.021413613 -0.3302254 -0.09280009 0.296186
0003b0 fa 06 e3 3c 82 24 bd 3e 67 4a d3 be c6 e0 cd be
       0.027713288 0.36941916 -0.41267702 -0.4021055
0003c0 56 a6 1a bf 06 f9 1f 3f ea c6 0e bf 68 be dd 3e
       -0.6041006 0.62489355 -0.5577227 0.4330933
0003d0 e9 bb 68 bd c1 da 2a 3e 30 1f 10 3e bc c1 36 be
       -0.05681983 0.1668501 0.14074397 -0.17847341
0003e0 38 be 2e 3e 1e ee 96 be 5c b2 ca be 41 dd 24 bc
       0.1706475 -0.29478544 -0.39589202 -0.010062517
0003f0 27 ca 47 bd a0 bb 90 be 3f e8 ed bd 18 9b 8b 3e
       -0.048776772 -0.28268147 -0.11616563 0.27266765

VAE.encoder_mu.layers.0.linear0.bias f4 [128]
000000 95 15 ca 3e fa 84 20 3e 8f 68 7d 3e 7f 8d 4c be
       0.3946959 0.15675727 0.24746917 -0.19975851
000010 28 8d 84 3c e1 6d 9d 3b 87 67 f9 3e fe d0 86 3e
       0.01618059 0.0048043584 0.48711798 0.26331323
000020 2c 6e c9 be 3a 8c 98 3d 59 ce 91 bd 9a 20 a1 3e
       -0.39341867 0.07448621 -0.07119436 0.31470186
000030 5a a7 0a 3e 3f a8 9a be 52 67 d8 3e 67 62 cc 3e
       0.13540402 -0.30206487 0.42266327 0.39918825
000040 31 ea a4 3d 85 99 8a 3c 0d 8f 17 be 0e 89 c1 3e
       0.08052481 0.016918907 -0.14800663 0.37799877
000050 01 39 12 bd a0 a0 c7 3e 3e de bc 3e b0 29 b2 bc
       -0.035698894 0.38989735 0.36888307 -0.021748394
000060 44 e3 4d 3e 65 03 85 bd 06 ac dc 3e c0 bc 4b 3e
       0.20106226 -0.06494788 0.43099993 0.19896221
000070 ec 3f 90 3e 54 92 6d bd 55 87 80 be 13 a7 26 be
       0.2817377 -0.058000877 -0.2510325 -0.16274671
000080 9e 51 2d be d9 65 b0 3e 7f 7d 34 bd 69 00 71 3e
       -0.16925666 0.34452704 -0.044064995 0.23535313
000090 70 c6 ad 3e 9e a1 97 3d 95 25 08 3d db c5 b0 be
       0.33940458 0.07403873 0.033238966 -0.34525952
0000a0 9c 89 f5 3e 64 ca 8f 3c 37 06 d9 be fe 9a d2 3d
       0.4795655 0.017552562 -0.42387554 0.10283469
0000b0 fb a9 af 3d ac 63 10 3e 7f 89 37 be f6 bd 8c 3d
       0.08577343 0.14100522 -0.17923544 0.0687217
0000c0 ef 06 35 be 45 16 c7 3d 5e 2a af be 38 54 86 bd
       -0.17678426 0.097210445 -0.3421201 -0.06559032
0000d0 b3 f2 91 3e ed 0b 21 be 42 65 b7 3e 27 79 f1 3e
       0.28505477 -0.15727206 0.3581944 0.47162744
0000e0 bd 33 80 3c 8d d2 c4 be a4 25 04 bf 3b cd b0 3c
       0.01564967 -0.38441887 -0.51619935 0.021582237
0000f0 30 69 b8 3c 20 db a5 3e 00 21 67 be ab a7 c8 3d
       0.022511095 0.32393742 -0.22571182 0.09797605
000100 cf 46 b0 bd 35 75 ce be b6 68 87 be 0e bb 7f bd
       -0.08607256 -0.40323797 -0.26447076 -0.06243425
000110 0c b2 0a 3e 2a dc 81 bd 6b 8c 8f bd 98 82 c2 be
       0.13544482 -0.06340821 -0.070092045 -0.3799026
000120 bb 5e 27 be 70 32 8c be 6b e9 a2 3e 44 8f 27 3d
       -0.1634473 -0.2738223 0.3181871 0.040908113
000130 02 be 4a 3e 70 0f d1 3e 80 2d 14 be 23 25 03 3e
       0.19799045 0.4083209 -0.14470482 0.12807135
000140 72 c2 a3 3d 15 4b ee 3e 22 d8 20 be fe cc e5 3e
       0.07996072 0.46541658 -0.15707448 0.4488296
000150 45 0f ce be ed c0 87 be e9 ab 2b 3e 7d 92 5e be
       -0.40246025 -0.26514378 0.16764797 -0.21735568
000160 58 f3 18 be d7 1f ae be 00 9b c0 3e fc f7 9e be
       -0.14936578 -0.34008667 0.37618256 -0.31048572
000170 b3 ae 2e 3c f4 a4 19 be 05 c6 8e be 9e cd 67 bd
       0.010661769 -0.15004331 -0.27885452 -0.056592576
000180 2f 1a 7b 3e 55 b5 d3 3e 00 fb 30 be 6c 96 a9 3e
       0.24521707 0.41349283 -0.17283249 0.33122575
000190 84 03 ed bd d2 cc 87 be f1 2f dd be da cc 05 bf
       -0.11572936 -0.26523453 -0.4320064 -0.52265704
0001a0 dd b9 b4 3e 10 c1 c8 3d 26 4a 8c bc c8 4f 3c 3d
       0.35298052 0.09802449 -0.0171252 0.045974523
0001b0 ac 27 92 3d d6 a8 02 be 85 99 b5 bd 67 2c ad 3e
       0.07136473 -0.12759718 -0.08867172 0.3382294
0001c0 cc 6f 42 bd 4d 9b 4a 3d 2d 91 d6 3e 73 cd 2a be
       -0.0474699 0.049464513 0.41907635 -0.16679935
0001d0 dd 5f a5 3c 6c 70 63 be 29 b4 09 bf d0 de b5 bd
       0.020187313 -0.22210854 -0.5379053 -0.08880389
0001e0 fd 77 e5 3e df 4c d3 3d 0f 20 e4 3d 0d ff 7b 3e
       0.44818106 0.103173964 0.11138927 0.24609013
0001f0 39 99 09 bd 45 2b 08 bc f9 16 a9 bd e1 65 d0 bd
       -0.03359339 -0.0083110975 -0.08256335 -0.10175682

VAE.encoder_mu.layers.0.linear1.weight f4 [4, 128]
000000 db ad 83 3c db a4 db bc 32 c7 34 3d 47 dc 1d bc
       0.016074112 -0.026812008 0.04413528 -0.009635038
000010 3a 54 a1 3d ef df 20 bd 74 60 26 bc a7 12 5d 3d
       0.07877393 -0.03927606 -0.010154832 0.053972866
000020 98 73 37 3d 04 55 22 bd 1e 63 0f 3d 09 a7 0c 3d
       0.044787973 -0.03963186 0.035006635 0.034338985
000030 51 03 c2 bb 8b c0 ce bd bf 86 eb 3d 1c 5e 49 bd
       -0.0059208055 -0.100953184 0.1150031 -0.049162015
000040 05 0e c6 bd dc e7 28 3d 1f 8e cd bd 36 2d 04 3d
       -0.09670643 0.041236743 -0.10036873 0.03226968
000050 b2 68 88 3d b6 16 5a bd 14 80 ae 3d 5a 7a b7 3c
       0.06660594 -0.053244315 0.08520523 0.022397209
000060 d3 fd 35 3d 46 0d b9 bd 6c ed 72 3d 71 6a a6 bd
       0.04443152 -0.09035735 0.059308454 -0.08125771
000070 8d b6 88 be 6d f3 bc 3d ac e1 75 3d 4e 6b 00 be
       -0.26701775 0.09226117 0.06002967 -0.12540933
000080 e3 f2 93 3d 85 64 82 bd 59 fa c1 bd 3f 8f 2e 3d
       0.07224061 -0.06366829 -0.09471578 0.04261708
000090 c3 08 b1 3c b8 14 83 bd f2 c4 bb bd ff 26 b4 3b
       0.021610623 -0.06400436 -0.09168424 0.0054978128
0000a0 32 a7 91 3d 77 53 08 bd 14 44 30 bd 75 55 9a bc
       0.07111968 -0.033282723 -0.043033674 -0.018839577
0000b0 f0 0d f4 3c 0d 30 35 ba 29 2e dc 3d 7d fc 57 bd
       0.029791802 -0.0006911762 0.10750992 -0.052731026
0000c0 40 f2 b8 bd 38 fe f2 bd 18 47 26 3d 28 8d 6c bd
       -0.090305805 -0.11864895 0.040595144 -0.057751805
0000d0 b4 ed e7 bd f5 e7 2f be 80 95 0f bd 4e 4c e5 3c
       -0.11324635 -0.17178328 -0.035054684 0.027990486
0000e0 f1 e3 5e 3d 00 9a 73 bc ca c6 7b be 17 ec 07 3d
       0.0544166 -0.014868259 -0.24587551 0.033184137
0000f0 0b f7 0d bd 14 f2 5e bc 93 3a 9e 3c 7e fa d0 bd
       -0.034659427 -0.013607521 0.01931504 -0.102040276
000100 3d 43 1a bd 9a f3 bc 3c 71 a4 77 3d 87 d3 d6 bd
       -0.03766178 0.023065377 0.060459558 -0.104895644
000110 f4 b5 37 bd c8 ae e9 bc 02 7d 23 3d 4d b6 09 bb
       -0.04485126 -0.028525725 0.03991414 -0.00210132
000120 37 00 56 bc 94 5b e0 bc 10 04 8f bd ab f9 b7 bd
       -0.013061575 -0.027387418 -0.06983197 -0.08983167
000130 37 0d 53 3b 62 01 96 3c 46 6d 77 3d e9 ee e6 3c
       0.0032203922 0.018311206 0.060406946 0.028190093
000140 85 a5 61 bd 97 21 b8 3d d9 76 c8 bd 55 5d 06 bc
       -0.055089492 0.08990782 -0.097882934 -0.008200963
000150 2c e5 50 be bf 92 55 be 3b 57 26 bc 91 8c 84 bc
       -0.20399922 -0.2085676 -0.010152633 -0.016180309
000160 6a 8c d8 3d 01 48 70 3a 8f 9e 14 bb ff 7c c9 3d
       0.10573657 0.0009166003 -0.0022677516 0.09838294
000170 e7 2b 13 3d 07 a0 80 bc 83 d6 74 be ea 6d 81 3e
       0.03593054 -0.015701307 -0.23909955 0.2527917
000180 0e 62 cd bb e8 30 97 bc e1 36 6d be 2e a1 c0 3d
       -0.0062677925 -0.018455938 -0.23165466 0.094057426
000190 be 40 80 3d 02 ca 34 be 34 c8 70 be c3 9e 22 3c
       0.062623486 -0.17655185 -0.23513871 0.009925547
0001a0 c2 7a 1d bd 1a fa 53 3c d5 e9 ff 3b 3b bc 1d 3d
       -0.03844715 0.012938047 0.0078098574 0.03850959
0001b0 ae f8 cf 3c 6a 92 1f bd 72 62 d3 bd f1 1a 5f 3c
       0.025387134 -0.03895799 -0.10321511 0.013617263
0001c0 24 5f 96 3d 8c f9 17 3c 61 fc d9 3c a2 6b 85 be
       0.073423654 0.009275805 0.026609601 -0.2605868
0001d0 38 37 c3 3d 87 67 0e 3d 80 b3 09 3d a6 f0 76 bc
       0.095320165 0.0347667 0.03361845 -0.0150720235
0001e0 6d a9 a3 3d 03 b6 e1 bd 92 1d b0 bd 16 0b b5 bc
       0.079913 -0.11021044 -0.0859939 -0.022100013
0001f0 7b a8 aa bb f6 82 dd bd cb f8 f9 bd 9a f9 79 3d
       -0.0052080727 -0.108159944 -0.122056566 0.061029054
000200 a6 0e 82 bd c1 38 35 bc 2b 28 33 bb c1 3d 35 bd
       -0.0635045 -0.0110608945 -0.0027337174 -0.044248346
000210 7a 1a 3f 3d 66 c2 0c 3d 72 5b d0 3d 2b c7 29 3d
       0.04665611 0.03436508 0.10173692 0.041449707
000220 17 f5 2e be b3 30 89 bd 2a a3 fc 3c 24 b5 9c 3c
       -0.17085682 -0.06698742 0.030839521 0.019129343
000230 6c 26 a1 3d 4c bb ee 3c 96 37 82 bd e0 8b ab 3d
       0.078686565 0.029142044 -0.063582584 0.083762884
000240 7a 60 73 3c b0 46 ad bd fd 12 8c bd 12 ed 37 bd
       0.014854545 -0.08460748 -0.06839559 -0.044903822
000250 57 80 e6 bd bc af 7f bd 4a ee f1 3c cd c5 96 3d
       -0.11254948 -0.062423453 0.02953257 0.07361946
000260 79 13 96 3c be b8 1f 3d 82 54 23 bd 81 1d b4 bc
       0.018319832 0.038994543 -0.039875515 -0.021986725
000270 39 ea da be 4b 79 8d bd 10 18 85 bd c7 17 52 bd
       -0.42756823 -0.069079004 -0.0649873 -0.051292207
000280 f8 c8 b5 bd 97 d3 c1 3d d1 be 27 bd 18 23 da 3c
       -0.08876222 0.09464186 -0.04095346 0.026628062
000290 d9 dd 11 3d 59 a9 59 3d 49 a4 34 3d 1c 1f 31 bd
       0.03561196 0.053140018 0.044101987 -0.04324256
0002a0 84 34 aa 3d 73 93 8d 3d 40 30 30 3e 91 95 9e 3b
       0.08310798 0.06912889 0.17205906 0.004839607
0002b0 3d 59 53 3d fd fe 91 3c 28 be 35 bd f5 42 a4 bd
       0.051598776 0.017821783 -0.0443708 -0.080205835
0002c0 5e bc 13 3e a3 5d 02 bc 77 12 49 3d 52 07 bc bc
       0.14427325 -0.007956895 0.049089875 -0.02295271
0002d0 d5 ef bc 3d d5 28 65 3e c8 36 02 3d 16 5f 26 bd
       0.09225432 0.22378857 0.031790525 -0.040618025
0002e0 c3 de e8 bb 10 4d 7c 3b 79 cf 50 bd 49 4b cf bd
       -0.0071066334 0.0038498081 -0.05097911 -0.101217814
0002f0 58 bc a4 bd 7c 13 20 bd 11 77 cc 3b 85 a5 25 3d
       -0.08043736 -0.03908108 0.0062397798 0.040441055
000300 a5 bc 77 bd 47 55 10 3d 0d 18 b9 bd b4 fa e3 3d
       -0.06048264 0.035237577 -0.090377904 0.11131802
000310 b7 c8 a5 bc dc 59 da bc d6 43 a2 3b 1c 06 b3 bd
       -0.02023731 -0.026654176 0.0049519343 -0.087414
000320 9d ef 3c 3d 93 54 42 bc c2 09 af 3d 09 cb 8e bc
       0.04612695 -0.011860984 0.08546783 -0.0174308
000330 7a f3 a4 3c 8f a8 b0 3d d9 8c 06 bc c5 75 81 3d
       0.02013563 0.086259 -0.008212292 0.06321291
000340 09 c8 9e bd 2f a4 52 3d 5e 63 35 3d b6 7e 2b bd
       -0.077529974 0.05142611 0.044284217 -0.041868888
000350 d1 00 28 3e ce fd 83 bc 75 b7 b7 bd 50 a9 ad 3d
       0.16406561 -0.016112234 -0.089705385 0.084795594
000360 28 10 27 bc 96 ae 1c 3d 67 36 a0 3d ce fe 14 3d
       -0.010196723 0.038252436 0.078228764 0.036375813
000370 56 3a 9c 3d 16 bf cd 3d 8b cc a8 bd 37 1b be be
       0.07628314 0.100462124 -0.082421385 -0.37130138
000380 55 7d cd bc cd 79 4d bc 00 9f 80 3d 69 b5 ba bd
       -0.025084177 -0.012541247 0.06280327 -0.091166325
000390 0c 8a e0 3c 64 15 e4 3c 23 7b 59 3d 26 d8 90 3d
       0.027409576 0.027842231 0.053095948 0.07072477
0003a0 4a 8a cd bc 06 01 97 3c bd 20 c9 3c 38 0b 12 3a
       -0.025090355 0.018433105 0.024551744 0.000557113
0003b0 ee c8 3c bc f2 41 0f 3e 3f 71 17 3e 40 8d 39 3d
       -0.011522515 0.1399 0.14789294 0.045300722
0003c0 28 b8 e2 3d 05 ad 85 3d 53 b3 97 3d 6d c8 06 be
       0.11070281 0.065271415 0.0740725 -0.13162394
0003d0 83 b1 7c bd 60 21 84 bd d5 6f be 3d ec 00 81 3d
       -0.061692726 -0.06451678 0.09298674 0.06299004
0003e0 5f 94 0b 3c 60 ea 5a 3d c9 af 0f 3e f4 96 5f bd
       0.008519261 0.053446174 0.140319 -0.05458732
0003f0 db c8 2f 3c 53 95 03 3d c9 8f d1 3d 39 9a 16 bd
       0.01072904 0.03212483 0.10232503 -0.036768172

VAE.encoder_mu.layers.0.linear1.bias f4 [4]
000000 4a c9 6c bd 5e 36 bc bc 47 fb 5c 3c 1d 03 89 bc
       -0.05780915 -0.022975143 0.013487644 -0.016725117

VAE.encoder_mu.layers.0.norm1.weight f4 [4]
000000 b7 77 85 3f a1 03 83 3f 96 74 84 3f f1 a5 85 3f
       1.0427159 1.0235482 1.0348079 1.0441266

VAE.encoder_mu.layers.0.norm1.bias f4 [4]
000000 d4 67 46 bc 85 cb c3 3c 2b d3 6a bd b6 f1 35 3a
       -0.0121097155 0.023900757 -0.05733029 0.000694062

VAE.encoder_mu.layers.1.attention.W_q.weight f4 [4, 4]
000000 83 92 70 be f4 8f fc bc 2e c9 2a bc 5c 31 24 bf
       -0.2349339 -0.030830361 -0.010423942 -0.64137816
000010 d3 a6 da bd c2 2e d9 3e d3 98 71 be 3d f7 1e 3f
       -0.106763504 0.42418486 -0.23593454 0.62096006
000020 01 06 0b be 56 25 a1 bc ef 47 fb be de dc ed be
       -0.13576509 -0.019671123 -0.49078318 -0.4645757
000030 fc 29 cd bb b7 13 f4 3e 08 1d f7 be 01 88 01 bf
       -0.0062611084 0.4767129 -0.48264337 -0.5059815

VAE.encoder_mu.layers.1.attention.W_q.bias f4 [4]
000000 59 41 5c 3d 67 a6 ff bd e7 83 05 3e ad 5c fa 3d
       0.053773258 -0.124829106 0.13038598 0.12224708

VAE.encoder_mu.layers.1.attention.W_k.weight f4 [4, 4]
000000 1a f0 f4 3e 05 db 5c bd fb 67 0c bf 13 e0 ec be
       0.47839433 -0.05391981 -0.5484616 -0.46264705
000010 34 49 b6 be 91 8f bf be bb 16 52 3c 6f 5d c2 3d
       -0.35602725 -0.3741422 0.012822802 0.09490477
000020 a7 16 9f bd 57 b6 87 bd c7 d8 8d be 2f dd 01 bf
       -0.077679925 -0.066265754 -0.2770445 -0.50728124
000030 8d c0 96 3e 3c e1 00 3f 4d 1c 9c bd 03 6d f2 be
       0.2944378 0.5034368 -0.076225854 -0.47348794

VAE.encoder_mu.layers.1.attention.W_k.bias f4 [4]
000000 fb b9 4f 39 63 9f e1 b7 44 5a 13 b9 64 98 ce 3a
       0.00019810341 -2.689631e-05 -0.00014052639 0.0015761969

VAE.encoder_mu.layers.1.attention.W_v.weight f4 [4, 4]
000000 60 71 76 be 10 cb bf 3e 19 77 f6 3e 73 3d c9 be
       -0.24066687 0.37459612 0.4813774 -0.39304695
000010 71 aa c6 be b7 e1 3a be fc 85 96 be aa 8d 49 3e
       -0.3880191 -0.18250166 -0.29399097 0.19682947
000020 f4 04 50 3b dd 38 32 3e b5 56 f0 3d 43 fd f7 3d
       0.0031741234 0.17404504 0.11735288 0.12108853
000030 3b 1f 43 3e c1 63 be bd f9 a9 b6 3e 7e 85 59 3d
       0.19054882 -0.0929637 0.35676554 0.053105824

VAE.encoder_mu.layers.1.attention.W_v.bias f4 [4]
000000 66 14 51 bb 2f 88 b6 3b f1 a7 36 bd de 3a 63 3c
       -0.0031903028 0.0055704336 -0.044593755 0.0138690155

VAE.encoder_mu.layers.1.linear0.weight f4 [128, 4]
000000 2f 91 96 3d 92 5a b0 be e2 bd 6f 3d 82 6b 93 be
       0.0735191 -0.344441 0.058530696 -0.2879296
000010 61 72 f2 bd 81 5b 40 be 17 c1 4c be da 46 1d be
       -0.11838222 -0.18784906 -0.19995533 -0.15359059
000020 72 91 92 3e 9c b6 5a be d5 94 89 3e 89 81 9d 3e
       0.2862659 -0.21358722 0.26871362 0.3076289
000030 a8 a9 5d be e9 4e cb be 8b d3 9a be e9 88 f2 be
       -0.2164675 -0.3970864 -0.3023952 -0.4737008
000040 27 7e 8e be db 05 23 3d 4a 37 c8 be 91 8f ab 3e
       -0.27830622 0.039800506 -0.39104682 0.3350797
000050 a0 97 8d be 9c 3b 94 3e 41 1c 8a be 6b 8f a6 be
       -0.27654743 0.28951728 -0.2697468 -0.32531294
000060 1d 31 f2 3e d5 a1 d1 be 75 70 d4 3e 3d d7 fd be
       0.47303095 -0.4094378 0.41492048 -0.49578276
000070 b7 0c e7 3c 05 f8 ce 3e 55 1e a8 be 59 f3 57 be
       0.028204305 0.404236 -0.32835642 -0.21088924
000080 f0 ed ab 3e 75 d1 95 be 6e 2a bb be e4 85 b1 3e
       0.3357997 -0.29261366 -0.3655581 0.34672463
000090 61 e7 77 be 59 e1 a8 be 5a 5b d0 3e 22 8e 95 3e
       -0.24209358 -0.32984427 0.40694696 0.2921
0000a0 fb 4d 79 be d3 5b 66 3e 13 1b a5 3e e4 d9 fc 3e
       -0.24346153 0.22495966 0.32247218 0.49384987
0000b0 16 89 6f be 53 31 32 be a4 68 1a be 91 b3 7e 3e
       -0.23392138 -0.17401628 -0.1507898 0.24873187
0000c0 2a 56 9c 3e 4a 6a 7a be b8 de 1f be da c1 0d 3e
       0.30534488 -0.24454609 -0.15612304 0.1384348
0000d0 81 54 89 3e 70 ae 8f 3e 39 4a 1f 3d 98 36 2c 3e
       0.26822284 0.28062773 0.038889144 0.16817701
0000e0 6e 3f 85 be 43 bb b3 be 56 a0 04 3f 98 2b 5e 3e
       -0.26024956 -0.35103807 0.51807153 0.21696317
0000f0 50 6f 13 3e 13 f0 29 bd e5 cb d7 3e 10 82 f8 be
       0.14397931 -0.04148872 0.42147747 -0.4853673
000100 9f 5e ca 3e af 56 b8 be 16 cf de 3e 5e 47 ca be
       0.39525315 -0.36003634 0.4351737 -0.39507574
000110 d7 5f 87 3d bb 02 67 3f 42 7f f1 be 47 6f 53 be
       0.06610077 0.9023854 -0.47167403 -0.20647918
000120 8d d4 ae 3e 9e 4d 73 3e b4 a2 03 bf 1e 86 a0 bd
       0.34146538 0.23760077 -0.5142014 -0.07838081
000130 49 45 0a bf a0 43 eb 3e cd b1 bb be 47 e6 85 be
       -0.5401197 0.4595003 -0.3665909 -0.2615225
000140 1e 3c 0b be 91 2a b8 bd ff 8e b6 be 30 d3 00 3f
       -0.13597152 -0.08992494 -0.35655972 0.50322247
000150 ab 76 57 be b6 c8 24 3f e2 2d 48 3e 2a fa 9c 3e
       -0.21041362 0.6436876 0.19548753 0.3065961
000160 49 0e c6 be 6c 87 e0 be 12 cf ef 3e 6f 7b 02 bf
       -0.38682774 -0.4385332 0.4683767 -0.50969595
000170 46 a2 d8 3e 09 42 ed 3d 2c 9f 4f be 52 b0 f0 be
       0.42311305 0.11584861 -0.20275563 -0.47009522
000180 7c 4d b6 be 5a 47 68 3d 5e 79 07 3f eb d5 f2 3e
       -0.3560599 0.05670867 0.52919567 0.4742883
000190 2a c2 f2 3d cb af b2 be a1 95 d4 be 6b c7 1e 3e
       0.1185344 -0.34899744 -0.41520408 0.1550576
0001a0 0a f2 f7 be 58 72 6b bb 3a 23 09 3e fe ae 87 3d
       -0.4842685 -0.0035926308 0.13392344 0.06625174
0001b0 a7 56 24 bf f6 a7 12 3e 22 cd 20 be f4 b0 88 be
       -0.6419472 0.14321885 -0.15703252 -0.26697505
0001c0 f5 09 aa be 02 57 b4 be fd b2 d0 be b4 e6 aa 3e
       -0.33210722 -0.35222632 -0.40761557 0.33379138
0001d0 7f ce a6 bc db 5a 22 3f 59 02 8b be 77 90 88 3c
       -0.020362137 0.63419884 -0.2715023 0.016670449
0001e0 8d a6 6c be 39 48 eb bd b1 fa d5 be 95 52 97 be
       -0.23110409 -0.11488385 -0.41792825 -0.29555193
0001f0 6f c7 d0 3e 88 91 7d 3d 37 05 47 ba 48 e9 30 be
       0.40777156 0.061906368 -0.00075920246 -0.1727649
000200 ef 31 be 3b 31 8a e1 be a3 9f c0 3e 25 b6 15 bf
       0.0058042924 -0.44050744 0.37621793 -0.58481055
000210 c0 26 69 3e 26 c2 56 3f 19 b0 9e be 51 81 01 bf
       0.22768688 0.83889997 -0.30993727 -0.50587946
000220 df aa b4 3e 48 02 28 be b3 4d b5 be 41 12 ce be
       0.35286614 -0.1640712 -0.35410842 -0.40248302
000230 fe 62 e3 3e 13 cb 05 bf 14 84 77 3e d0 7f 41 3e
       0.44411463 -0.5226299 0.24171478 0.18896413
000240 b8 d8 af be c2 5c 84 be c8 24 d5 3e 20 a3 84 be
       -0.3434503 -0.2585202 0.41629624 -0.25905704
000250 1e 24 0e be bc 6f 29 be 14 fc 06 3f 50 fb be 3e
       -0.13880965 -0.1654653 0.5272839 0.3730111
000260 93 0e cb 3d 00 ce b0 be 1e 89 3c 3e 80 44 ca be
       0.09914889 -0.34532166 0.18411681 -0.39505386
000270 9c aa 08 bf 7e 00 e8 3c 16 0e 54 3e a4 59 3c 3e
       -0.5338533 0.028320547 0.20708498 0.1839357
000280 4f f0 7d be 44 01 c7 3e c1 51 d4 3e 48 1d c8 3e
       -0.24798702 0.38868153 0.41468623 0.3908484
000290 34 ae f1 3e fd 12 1b bd 91 f2 64 3e 8f 20 3b 3e
       0.4720322 -0.037859906 0.22358157 0.18274139
0002a0 7b 1c 02 bf 15 1b f7 3e 4d 13 bc 3e fa c3 99 3d
       -0.5082471 0.4826285 0.36733475 0.07508083
0002b0 06 ec 93 3d 90 31 5d 3e e1 e4 e4 be 56 af 8f 3e
       0.07222752 0.21600938 -0.4470587 0.28063458
0002c0 5e b1 8b bd ec e2 d2 be 70 6c bc bc d6 b2 2f 3e
       -0.068209395 -0.41188753 -0.023000926 0.17158064
0002d0 dd 3e ba be 87 46 03 be ca b4 3d 3e e5 ae 53 be
       -0.36376086 -0.12819873 0.18525997 -0.20672186
0002e0 c2 8d 71 3e aa df b2 bb 14 0c ce be f5 68 87 bd
       0.23589233 -0.0054587917 -0.4024359 -0.06611816
0002f0 00 d0 d4 3e 79 40 e8 be de da ea be 73 9c 1a bd
       0.4156494 -0.4536169 -0.45870107 -0.037746858
000300 04 2e 9a 3d 6a 5b 8d 3e 01 e6 e1 3e 12 6e 30 3e
       0.07528308 0.27608806 0.44120792 0.17229488
000310 3f 97 c1 be eb b5 0b 3e ee 37 45 bf f6 3c 1a bf
       -0.37810704 0.13643615 -0.77038467 -0.6024927
000320 df a8 a3 bc 69 02 d6 3e 29 20 ac 3e 76 9e 88 be
       -0.019977985 0.41798714 0.33618286 -0.26683396
000330 c3 66 80 3e 9e d9 a5 be ae e8 97 be c8 f0 e0 3d
       0.250784 -0.3239259 -0.29669708 0.109834254
000340 b8 be fc bd 2a 21 c0 bd a5 4a 09 3e 88 a0 09 3e
       -0.12341064 -0.093813255 0.13407381 0.13440144
000350 fd e2 7e be eb 04 d0 be b2 b1 93 bd f6 0a 44 3e
       -0.24891277 -0.40628752 -0.07211627 0.19144806
000360 59 15 48 3e 84 b4 ed bd 81 59 d1 bc 5a 3d 28 3e
       0.19539393 -0.11606696 -0.025555374 0.16429654
000370 f5 44 87 be f2 99 d6 be 4b ba 52 3e 30 2f 59 3e
       -0.26419798 -0.41914326 0.20578878 0.21209407
000380 9f bf 81 be 6c 96 22 bd 39 b2 98 3e 65 09 f5 3e
       -0.25341508 -0.039694235 0.29823473 0.4785873
000390 d2 4a 96 3e a5 d5 46 be fa 9d 58 be e4 e4 49 be
       0.29353958 -0.19417436 -0.21154013 -0.19716221
0003a0 73 0f dc 3e f6 9d 0d be 46 5d 0f be 6f ac d6 3e
       0.42980537 -0.13829789 -0.14000425 0.4192843
0003b0 a6 c1 7b 3e 1c fd d7 bd a2 87 94 bd 6c 2d bd 3e
       0.2458559 -0.10546324 -0.072524324 0.36948717
0003c0 4d b1 bf 3e 76 ed d3 3e 82 cd b2 be 5e de f6 be
       0.37439957 0.41392106 -0.34922415 -0.48216528
0003d0 0a 8c 5a 3c aa 5b 8b 3e 27 7e 16 be c2 c5 25 3e
       0.013339052 0.27218372 -0.14696561 0.1618872
0003e0 55 8b 97 be ac eb 33 3f a5 ff 08 bd 12 1a 89 3e
       -0.2959849 0.7028148 -0.033446927 0.26777703
0003f0 b0 4c 24 bf 35 87 92 3e ea 1c b3 3e 60 88 bd bd
       -0.64179516 0.2861878 0.34982997 -0.09254527

VAE.encoder_mu.layers.1.linear0.bias f4 [128]
000000 d8 a3 ac be 78 e8 6c 3c fd 5a af 3b a5 22 e2 3e
       -0.33718753 0.014459722 0.005351423 0.44167057
000010 c1 d0 3f be 2f 36 c8 3e 54 c1 ef be 03 6d cc 3d
       -0.18731977 0.3910384 -0.46827185 0.0998173
000020 4c 4c 63 be 69 89 11 3d 9f 76 33 3e a5 be 37 3e
       -0.22197074 0.035531435 0.17525719 0.17943819
000030 bf 20 07 bf bb d7 c5 be 44 86 93 3e 8c 65 56 3e
       -0.5278434 -0.38641152 0.28813374 0.20937175
000040 25 c7 3e 3e b5 c9 83 be 8d 0d d0 3e ca 48 a0 3c
       0.18630655 -0.25739828 0.40635338 0.019565959
000050 b7 26 89 3e 8e 8f bf be 78 ed e8 be 65 a2 d4 be
       0.2678735 -0.3741421 -0.45493674 -0.41530147
000060 38 fd e3 3e 57 85 e7 3c a1 6b ea 3e 33 8a 4c be
       0.44529128 0.028261824 0.4578524 -0.19974594
000070 56 25 36 3e 48 f6 55 3e 5e 07 6f be 28 bf 0a 3e
       0.1778768 0.2089473 -0.23342654 0.13549483
000080 9d cb c0 be 71 02 56 be f2 d2 f8 be 02 e4 4c 3e
       -0.37655345 -0.20899369 -0.48598439 0.20008853
000090 ee 2a 6b 3d 3a 76 59 3e 5f ea 9f be a3 ed 0e bd
       0.057413988 0.21236506 -0.31233498 -0.034894597
0000a0 d3 84 08 be 59 97 cb be b3 ec ce be d5 44 c7 be
       -0.13331918 -0.39763907 -0.40414962 -0.38919702
0000b0 04 32 8c 3e 09 3b 30 3e 09 b4 4d be f9 fd 88 be
       0.2738191 0.1721002 -0.20088209 -0.26756266
0000c0 60 c3 d8 3d c2 39 94 bd ac 69 78 3e 69 5f b7 3e
       0.1058414 -0.07237579 0.2425906 0.3581498
0000d0 af a7 ad be f6 e6 ea be 9f f2 21 be ac fc 43 be
       -0.33916995 -0.45879334 -0.15815209 -0.19139355
0000e0 97 72 91 be 1a d4 a4 be ce 83 be be a2 c3 55 be
       -0.28407738 -0.3219307 -0.37209934 -0.20875409
0000f0 bb ae b0 3e ee ad b0 3d 6a c2 f3 be f6 4c b1 be
       0.3450831 0.086269245 -0.47609264 -0.3462903
000100 ba b8 35 be e3 07 57 be 7f 2f 22 be f5 3b 3c be
       -0.17746249 -0.20999102 -0.15838431 -0.18382247
000110 c7 d0 f3 3e 68 ec 16 3e b0 d6 c2 3d 4a 5f e3 3e
       0.47620222 0.1473862 0.09513605 0.44408637
000120 fb ff 78 3d d3 7b 9f 3d 32 01 2c 3d d8 e9 40 bd
       0.060790997 0.077872895 0.041993327 -0.04709801
000130 c8 0e 3c be d1 52 3d 3e bd 96 02 be 18 2e 37 bd
       -0.18365014 0.18488623 -0.12752815 -0.044721693
000140 a0 b7 a6 be 61 45 c3 3e 1e 88 8a 3e 18 ba eb 3e
       -0.3256197 0.3813887 0.27056974 0.46040416
000150 19 85 32 be f9 c8 09 be 29 f1 0c bd 1c 71 a0 3e
       -0.17433585 -0.13455571 -0.034409676 0.31336296
000160 7f 88 6c bd d0 6f e1 be b6 70 a7 3e 9c 7a c9 be
       -0.05774736 -0.4403062 0.3270318 -0.39351356
000170 f6 21 38 be b5 73 9a 3e f4 ef 4b bd 04 2e 24 bd
       -0.17981705 0.30166402 -0.049789384 -0.040082946
000180 75 0b 71 3d a2 ae 11 3e e6 a5 8e 3d 31 d1 e9 3e
       0.058848817 0.14226773 0.06965236 0.45667413
000190 4c 94 01 3f bc f1 cb be 17 ec dd 3e 41 3e 06 3f
       0.5061691 -0.39832866 0.43344185 0.5243874
0001a0 9c d4 cb be 2b d7 99 3e af 1a c5 3d 53 25 c5 3e
       -0.39810646 0.30046973 0.0962423 0.3850504
0001b0 5f ff 9d 3e fe 59 44 be f7 dc 15 bd fa d1 fa be
       0.30858895 -0.19174954 -0.03658768 -0.48988324
0001c0 29 66 4b 3d 03 99 1b 3e 2d 89 2d 3e 44 b9 cc 3e
       0.049657974 0.15195088 0.1694686 0.39985096
0001d0 e1 cd 0b 3c 79 cd 01 bf a3 4d 0b 3e 5c 17 dd bd
       0.008532972 -0.5070415 0.13603835 -0.10795471
0001e0 bc b0 de 3c c0 fd 65 3e 7a 93 cb be 3d a4 b9 bd
       0.027183883 0.22460079 -0.39760953 -0.09064529
0001f0 09 ba 28 3c 54 8f 04 be bf a8 f3 be 21 e3 e5 3e
       0.0102982605 -0.129453 -0.4758968 0.44899848

VAE.encoder_mu.layers.1.linear1.weight f4 [4, 128]
000000 70 67 e2 bc cf 76 9c 3c 62 c9 bf bc 7e c1 89 bc
       -0.027637213 0.019099621 -0.023411456 -0.016815897
000010 52 2c 81 bc 06 7e 13 bd ba 47 98 3d fe 92 00 bd
       -0.015768204 -0.036008857 0.07435556 -0.031390183
000020 40 13 31 bd 92 30 4a bc d0 2a 93 3c bb 2a 97 b8
       -0.04323125 -0.012340682 0.01796475 -7.2082e-05
000030 96 a4 64 bd 9d 98 71 3d a6 2e c3 3b 8e 12 3d 3d
       -0.055821024 0.058983434 0.0059564887 0.046160273
000040 4d 9d ce 3c 6c e5 34 be 62 c3 ef bd 02 72 47 3e
       0.025221491 -0.17665642 -0.11707188 0.19477084
000050 0f 9d cd bd 0b 3e 22 3e 87 77 aa bd 13 3c bf bd
       -0.10039722 0.1584398 -0.08323579 -0.0933763
000060 8d af 3b bd 27 fa 96 3d 3e b9 3c 3b 84 0f b0 3d
       -0.045821715 0.073719315 0.0028796936 0.08596709
000070 9b d9 9f bd ee ed d4 3d 2f bb 93 bd df bf d7 3c
       -0.07805177 0.10396944 -0.07213437 0.026336608
000080 1f a8 1b bd ed 06 43 be 16 03 16 ba 04 fa 55 3c
       -0.03800213 -0.1904561 -0.0005722506 0.013060097
000090 25 d7 ba 3c 4e 9e 03 bd 68 22 31 3d ab 10 0e bc
       0.022807667 -0.032133393 0.043245703 -0.008670966
0000a0 dd 16 1f bc ac 6e 1e bc fb db c9 3e d3 68 05 3e
       -0.009710041 -0.009669941 0.39425644 0.13028269
0000b0 d3 47 5b bd 28 c7 51 bd 00 32 bb bd 6d 75 2f 3d
       -0.053535294 -0.05121532 -0.09140396 0.042836595
0000c0 1a 72 0e bc f2 c4 ab 3d 39 4f 04 3d 3b 0f 4a bd
       -0.008694196 0.08387174 0.032302115 -0.04933093
0000d0 3e e0 39 3d d1 20 49 bd 90 30 04 3e 5c b1 7a 3d
       0.04537987 -0.04910356 0.1290915 0.0612043
0000e0 8f c9 0c be e6 bb 8f bc a2 46 19 bd 02 1e 39 bc
       -0.13748764 -0.017545652 -0.037420876 -0.011298658
0000f0 b4 bd 9d bc a5 f8 81 3d c3 fe 69 3e 0a 6f 5b 3e
       -0.019255497 0.06346253 0.2285109 0.21429077
000100 af c6 12 3e f2 ec b2 3d 0b 8a b2 bc 92 98 2d be
       0.14333604 0.087366 -0.02179434 -0.16952732
000110 9a 55 2b b9 a3 c2 b8 bd fb b1 8a 3d 3b 9d 0b bc
       -0.0001633972 -0.09021499 0.06772228 -0.008521373
000120 59 98 32 3d be 6e 96 3d cd 72 0e 3d 39 c8 2e 3e
       0.04360232 0.07345341 0.03477745 0.17068566
000130 b3 fc 85 bd 5a 12 b8 bd 90 58 ec 3a a3 9b 79 3d
       -0.06542339 -0.08987875 0.0018031765 0.060939442
000140 b4 82 8c 3d b8 f8 a7 3c 29 a4 7f ba d0 53 84 bd
       0.06860867 0.02050434 -0.000975194 -0.064612985
000150 0f 27 34 bd fb 90 e2 bd fa 45 ae 3d 90 4a 26 bd
       -0.04398256 -0.11062809 0.08509441 -0.040598452
000160 6d 46 34 bd eb e0 d0 bb 54 e0 24 bd 72 85 fb bd
       -0.044012476 -0.0063744686 -0.040253 -0.12281312
000170 45 ed 29 3d 89 8d 89 3d d3 33 bd 3b d3 c1 24 bd
       0.041486043 0.06716449 0.005774 -0.040223908
000180 09 fb af bd c0 91 27 bd b2 d1 ad 3d 75 ab 50 3b
       -0.08592803 -0.040910482 0.08487262 0.0031840478
000190 e6 ab 08 be 1c bc e4 3c fd 36 b5 bd 31 82 4e 3d
       -0.13346824 0.027921729 -0.08848379 0.05041713
0001a0 c0 55 97 bd b6 38 ee bd 7c a2 40 bd 8a d6 af bd
       -0.073894024 -0.116319105 -0.047029957 -0.08585842
0001b0 13 c1 64 bc 72 0e 3a bd c7 ca 97 3d 64 4b a5 3a
       -0.013962048 -0.045423932 0.074117236 0.0012610969
0001c0 d5 5b 90 3d 63 86 87 bc 1d bf b5 3d f3 b4 cb bd
       0.070487656 -0.016543573 0.088743426 -0.09946623
0001d0 65 2a 72 bd b7 9d b3 bf 01 e6 9f bd 19 55 0f be
       -0.05912246 -1.4032506 -0.07807542 -0.13997306
0001e0 d8 a4 ce bd 5c 51 27 3b 8f 8c e9 bd 73 b7 d9 3d
       -0.10090035 0.0025530672 -0.114037625 0.10630693
0001f0 49 ef 33 3d 11 44 2b bd af 79 2f 3c f2 ec 75 bc
       0.043929372 -0.04181296 0.010710164 -0.015010105
000200 18 8e 5e 3b e3 6a c5 bd 08 b1 14 3d 61 06 af bd
       0.0033959206 -0.09639528 0.036301643 -0.085461386
000210 6f 42 fc 3d 00 79 ee bc 3f 01 64 3b 8a 71 f4 3d
       0.12317359 -0.029110432 0.0034790782 0.11935718
000220 10 23 59 3c 62 5b 7c 3d d8 0f 72 bd 58 ed 70 3d
       0.013252988 0.061610587 -0.05909714 0.0588201
000230 1e 47 e8 bc 7c 0c 80 bd 10 d6 49 bd 23 ba 60 3c
       -0.028354224 -0.06252381 -0.04927641 0.013716253
000240 97 fa 71 3d 35 40 f7 3e 4f 0b d8 3d d9 16 96 be
       0.05907687 0.48291174 0.10549032 -0.29314306
000250 a1 68 d0 3c 22 d8 f0 be ac 79 f8 3c 42 21 ca 3d
       0.025440516 -0.47039896 0.030331455 0.09869625
000260 58 aa 07 bd 96 58 b0 3d fb b7 e0 bb 75 1e 88 be
       -0.033121437 0.086106464 -0.0068578697 -0.26585737
000270 be 5e 06 bd 4b 1c f8 3c 5a e7 6e 3c c9 ad 9f 3c
       -0.032805197 0.030286929 0.014581526 0.019492047
000280 33 27 9f 3d 50 eb 7b ba 81 44 36 3d 93 50 d4 bd
       0.077711485 -0.00096099544 0.044498924 -0.10366931
000290 31 f0 d4 bc f0 c1 4b 3d 81 3d 02 3d 90 1d 84 bd
       -0.025993438 0.0497455 0.031796936 -0.06450951
0002a0 b8 37 eb bd 02 5b 3d bd dd b9 1d bf 3e f1 26 3e
       -0.11485237 -0.04622937 -0.6161173 0.16302964
0002b0 43 94 2e bb 05 3b a4 bd 57 20 8a 3d 56 66 06 3b
       -0.0026638664 -0.080190696 0.067444496 0.0020507774
0002c0 b2 18 9b bd 36 a2 ce 3e 2f d6 f1 3c f1 76 37 3d
       -0.0757307 0.40358132 0.029521076 0.044791166
0002d0 7d a5 7e 3d ee c9 42 3d a4 ba 07 bc d8 96 5b bc
       0.06216954 0.047555856 -0.008284245 -0.013402663
0002e0 07 ff 50 3c 6c 58 97 3d 2a 06 b4 bd 97 c2 21 bc
       0.012756116 0.07389912 -0.08790238 -0.009873054
0002f0 1d 5a 50 3d 53 cb c2 3d d7 b3 ef be 49 b2 18 be
       0.05086719 0.09511437 -0.46816894 -0.1491176
000300 3c 62 ff bc 89 0c c3 bd 06 23 a4 3c 4b 69 b9 3d
       -0.031174771 -0.09523875 0.020036232 0.09053286
000310 f1 7e 3c 3d c7 9c ab 3d 82 3e 32 3c 28 c9 31 3c
       0.0460195 0.08379512 0.010879161 0.010851182
000320 5d ef 9b 3c a7 61 f1 3d b4 db 16 3e 63 6d de 3d
       0.019035036 0.11786204 0.14732248 0.108607076
000330 d2 85 aa 3d 83 bc 09 3d dc 34 5d bd f2 e2 04 3d
       0.083263054 0.033627044 -0.05400549 0.032442994
000340 ed 0b 5d bc 6a ab 2e 3d d1 b5 66 bd c1 ce 20 3d
       -0.013491613 0.042643942 -0.056325737 0.039259676
000350 09 bb c6 3d d2 96 27 3e 46 77 b5 bc 72 d5 63 3d
       0.09703643 0.16366127 -0.0221516 0.05562348
000360 5a f1 37 bd 98 1d c9 bb 9c 3e dc 3d cf ac 7a 3d
       -0.044907905 -0.006137561 0.10754129 0.06119996
000370 46 d7 40 3c 80 a1 b7 bd 24 c8 74 bd 4f 4f 0e 3d
       0.011770075 -0.089663506 -0.05976118 0.034743603
000380 ed da 1e 3d 9f b2 c4 bd b9 14 1e bd e8 b1 bf 3c
       0.038783003 -0.09604382 -0.03859398 0.023400262
000390 10 d5 1f 3e 7b 4c 3f 3d eb 46 4a 3d 6c d5 b4 bc
       0.1560862 0.046703797 0.04938404 -0.022074424
0003a0 0b 5e 72 3d a1 46 15 3d 85 42 c8 3d 1d 29 5f 3d
       0.059171718 0.03644431 0.097783126 0.054482568
0003b0 bc 81 8d 3d 58 2a e5 3d 7d 69 f4 3c 3e a3 b7 3c
       0.069095105 0.11189717 0.029835457 0.022416707
0003c0 dd ce 7a 3c 74 cc 98 bd d0 05 1f 3e ec 6d c4 bd
       0.015308109 -0.07460871 0.15529561 -0.095912784
0003d0 6e 78 55 bb 63 fb 97 3f 55 cc a4 bb c3 32 3e bd
       -0.0032573002 1.1873592 -0.005029241 -0.04643513
0003e0 a8 53 aa 3d 97 81 80 3d a8 06 ae 3b 2b a4 f6 bc
       0.083167374 0.06274717 0.005310852 -0.030107578
0003f0 63 95 9a 3d 22 97 c1 3c 9e d4 5f 3d 62 bf 76 3d
       0.075480245 0.023631636 0.054646127 0.06024111

VAE.encoder_mu.layers.1.linear1.bias f4 [4]
000000 cc a1 a9 bd cf 14 3e 39 62 50 60 3d 08 09 cf ba
       -0.082828134 0.00018127564 0.05476416 -0.0015795538

VAE.encoder_mu.layers.1.norm1.weight f4 [4]
000000 48 7a 87 3f 5b 64 8c 3f 4d 3d 8d 3f 44 15 88 3f
       1.0584192 1.0968126 1.1034333 1.063149

VAE.encoder_mu.layers.1.norm1.bias f4 [4]
000000 f5 c9 01 bd 46 f1 79 bc 6d 17 2d 3d eb 6b f6 3c
       -0.03168674 -0.015255278 0.04225867 0.030080756

VAE.encoder_mu.layers.1.norm0.weight f4 [4]
000000 4a 14 74 3f 43 89 83 3f 13 98 80 3f a4 fa 89 3f
       0.9534346 1.0276264 1.0046409 1.0779614

VAE.encoder_mu.layers.1.norm0.bias f4 [4]
000000 24 db c5 ba 4f 30 4f bc ac 47 07 bd ae ce 83 bd
       -0.0015095216 -0.012645795 -0.033027336 -0.064359054

VAE.encoder_mu.last_normalization.weight f4 [4]
000000 00 00 80 3f 00 00 80 3f 00 00 80 3f 00 00 80 3f
       1.0 1.0 1.0 1.0

VAE.encoder_mu.last_normalization.bias f4 [4]
000000 00 00 00 00 00 00 00 00 00 00 00 00 00 00 00 00
       0.0 0.0 0.0 0.0

VAE.encoder_mu.head.weight f4 [4, 4]
000000 5c 59 9e 3e 70 6f 90 be e2 b0 e2 be 78 62 a9 3d
       0.3092755 -0.2821002 -0.44275576 0.082707345
000010 24 3c 11 be 74 95 72 be 80 25 72 be 50 fc 41 be
       -0.14183098 -0.23689824 -0.23647118 -0.18943906
000020 e0 46 04 3e 7a 81 83 3e a8 8f f9 3e fa 11 e4 be
       0.12917662 0.2568472 0.48742414 -0.44544965
000030 08 e5 2c 3e c4 f8 74 3e 60 29 24 be 50 a6 d5 bd
       0.16884243 0.23923022 -0.16031408 -0.10432112

VAE.encoder_mu.head.bias f4 [4]
000000 18 11 f3 3d 98 71 52 be 10 ed 91 3d 94 24 7b be
       0.11868495 -0.20551145 0.07125294 -0.24525672

VAE.encoder_logvar.layers.0.attention.W_q.weight f4 [4, 4]
000000 e3 0f d2 3d 95 23 77 3d 11 3b 10 be 0f f5 c0 3e
       0.102569364 0.060336668 -0.14085032 0.37686965
000010 53 ce ac bd a3 8a b2 3c aa 11 79 3e 10 bb 49 bd
       -0.08437791 0.021794623 0.24323145 -0.049250662
000020 d1 11 e2 3e 13 a5 33 be 21 54 06 3c 70 e2 85 be
       0.44154218 -0.1754344 0.008198769 -0.2614932
000030 5f 9f cf 3e 7b 43 f0 be 1b da 85 3e 41 ef b9 be
       0.40551278 -0.46926484 0.26142964 -0.3631535

VAE.encoder_logvar.layers.0.attention.W_q.bias f4 [4]
000000 0c ba 4a 3d 27 19 25 3d 9c 93 0b bd a8 f8 82 3d
       0.049493834 0.04030719 -0.03407632 0.06395084

VAE.encoder_logvar.layers.0.attention.W_k.weight f4 [4, 4]
000000 25 75 be be 7d a5 bc 3d 8e bd 41 be 24 f8 c6 3d
       -0.3719875 0.09211252 -0.18919966 0.09715298
000010 e1 75 c1 bd e4 41 b7 3e bb ef 87 3d b4 4f 15 be
       -0.09446312 0.35792458 0.06637522 -0.14581186
000020 cd 97 d7 3d 79 53 80 3e 44 aa 36 3f ed 3c 82 3e
       0.105270006 0.25063685 0.71353555 0.25437108
000030 25 ed 8d 3d ff 42 c7 be d0 7c 11 bd 80 a0 84 be
       0.06929997 -0.389183 -0.03551942 -0.25903702

VAE.encoder_logvar.layers.0.attention.W_k.bias f4 [4]
000000 7b 5b cf 38 93 31 ba b6 65 36 89 38 09 ae b7 37
       9.887569e-05 -5.549003e-06 6.542801e-05 2.1896341e-05

VAE.encoder_logvar.layers.0.attention.W_v.weight f4 [4, 4]
000000 45 dd c5 3e 46 ae 2c be 1a 67 98 3d b5 90 d0 3e
       0.38645378 -0.16863355 0.0744154 0.40735403
000010 5d 4b 65 3e 7b b5 92 3e 8e 68 5c be a1 9b b4 be
       0.2239203 0.28654084 -0.2152426 -0.35274985
000020 e7 b7 95 3e 01 a2 e5 3e 85 97 14 be 0f 85 90 3e
       0.2924187 0.44850162 -0.14510925 0.28226516
000030 8d 9d b0 3d a1 bc 33 be f6 f4 82 be 7b 03 fd bd
       0.086238004 -0.17552425 -0.25577515 -0.123541795

VAE.encoder_logvar.layers.0.attention.W_v.bias f4 [4]
000000 cd 6c c3 bc 76 b3 ae bc 00 b1 2a bd ac 15 eb 39
       -0.023855591 -0.021325808 -0.041672707 0.0004483884

VAE.encoder_logvar.layers.0.linear0.weight f4 [128, 4]
000000 2c ac 01 bf 77 b1 a8 bd df a3 e4 3e 67 c7 1e be
       -0.5065334 -0.08236974 0.44656274 -0.15505753
000010 de 6b 9e be e0 60 e2 3d b1 c1 96 be 32 bb 4e 3e
       -0.3094167 0.11053634 -0.2944465 0.20188597
000020 4d 96 e8 be bb b7 de 3e bc 63 30 be d7 89 aa 3e
       -0.4542717 0.4349955 -0.17225546 0.33308288
000030 38 d0 ce 3e dc d6 59 be cc a4 dd 3d 3d c1 96 3e
       0.40393233 -0.21273369 0.10822448 0.29444304
000040 0d c7 29 3e cc 2a 1c bc 70 5a bd 3d f0 3c 76 be
       0.16579838 -0.009531688 0.09245765 -0.24046683
000050 22 7f b9 be af d4 8e 3d f7 f3 04 be 35 15 7d be
       -0.36229807 0.0697416 -0.1298369 -0.24715121
000060 e1 2f 30 3e 8e ba d9 3e cb ba d7 be f8 fa 4d 3e
       0.17205764 0.42525142 -0.421347 0.20115268
000070 94 bd 2a be 94 43 da 3e 13 c7 90 3e 79 66 b8 3e
       -0.16673881 0.42629683 0.28276882 0.3601568
000080 b4 0a ce 3e 8b 4c ea 3e a1 68 92 3c 86 50 9a 3e
       0.4024254 0.45761523 0.017872157 0.3013956
000090 1c b5 dc 3e e1 c1 12 3d af af 4f 3e 9a 7b 5c be
       0.43106925 0.03582943 0.20281862 -0.21531525
0000a0 3c 86 31 be 76 f5 8f 3e a3 02 f6 3e 86 9b d8 3e
       -0.17336363 0.2811696 0.48048887 0.42306155
0000b0 f7 94 88 be d1 e3 7b 3e 8b 6c 69 be df 56 d6 be
       -0.2667615 0.24598624 -0.22795312 -0.41863152
0000c0 53 a3 a5 be 85 c1 e2 be a3 4d bb 3c c1 b0 4e 3e
       -0.3235117 -0.4428827 0.022864169 0.20184614
0000d0 2b 7a c3 be 52 26 9d be 1c 69 e3 3e 8f a8 06 bf
       -0.38179144 -0.306933 0.4441613 -0.5260095
0000e0 ef e2 47 be 3d 67 0f be 64 02 ea 3d fe d1 f9 3d
       -0.19520162 -0.14004226 0.11426237 0.12198256
0000f0 ae 12 a6 be b7 41 72 be 60 d0 82 bd 2e cc b5 be
       -0.32436126 -0.2365788 -0.063874006 -0.3550734
000100 1a c4 e0 be c6 3f 5b bd 82 d5 7d 3d e9 32 4a 3e
       -0.43899614 -0.053527616 0.061971195 0.19745983
000110 97 ac f5 3d 6a de 26 be f0 b4 b6 be 70 6b 8c 3d
       0.119958095 -0.16295782 -0.3568492 0.068564296
000120 c1 47 c5 3e d7 7e 80 3e dd 25 f7 3e aa 72 0a bf
       0.38531306 0.2509677 0.48271075 -0.54081213
000130 c0 d3 c3 3e 5c 4d a6 be 7d 67 a9 be b3 43 9e 3c
       0.3824749 -0.32480896 -0.33086768 0.01931939
000140 b1 5c fc be eb 31 87 3e d5 6d f5 be 4f 7e 7d be
       -0.49289468 0.26405272 -0.47935358 -0.24755214
000150 11 ea d1 3c 86 30 33 3e f6 6b 86 3d 72 d7 59 3e
       0.025624307 0.17498979 0.06563561 0.21273592
000160 02 37 3c 3e d1 fc da bd 9f 55 ff bd 10 e3 91 be
       0.18380359 -0.10692752 -0.12467503 -0.28493547
000170 0f a9 9c 3e 81 93 36 be e8 d7 af be 4f d3 d0 3e
       0.3059773 -0.17829706 -0.3434441 0.40786216
000180 94 6e 3e 3c 40 7d eb be ea 04 14 3d 6f 54 13 be
       0.011623044 -0.45993996 0.0361375 -0.14387678
000190 c7 82 96 3e f6 0d d9 be 1e 1e 07 3d 3b 04 21 bd
       0.2939665 -0.42393464 0.032987706 -0.039310675
0001a0 0b e0 9a be cc cd 0f 3e 37 8e 68 3d 0b ca be be
       -0.30249056 0.14043349 0.05677625 -0.37263522
0001b0 d1 ee dc be 73 50 72 be ec 77 db be 4e 21 4f 3d
       -0.43150952 -0.23663501 -0.4286493 0.05056887
0001c0 76 f7 67 3e 5c d1 f8 be bd 17 5f be ab 8e 82 3e
       0.22652993 -0.4859723 -0.21786399 0.25499472
0001d0 42 ba 4b be 92 a4 1e 3d d7 25 dc 3e c6 10 ba bd
       -0.1989527 0.038731165 0.4299762 -0.090852305
0001e0 19 36 25 3e 56 77 8f bd aa 94 f6 3e 29 03 ac be
       0.16133918 -0.070051834 0.48160297 -0.3359616
0001f0 3b 6d 77 3e cb f1 d7 be 68 9d d7 bd 67 f8 a2 be
       0.24162762 -0.4217666 -0.1052807 -0.3183014
000200 31 d4 a1 bc ed 90 af 3d c8 4d 13 3e 9e 9c e2 3e
       -0.019754501 0.08572564 0.1438514 0.44260114
000210 d5 4e ee 3e fb ad cd be 85 bd 99 3e e5 56 e5 3d
       0.4654452 -0.401718 0.30027404 0.111982144
000220 28 ab eb 3e 0e 9f 45 be 82 83 3e 3d d7 ec b2 be
       0.4602902 -0.19298956 0.046512134 -0.3494632
000230 c9 db 65 be d3 c6 21 3e d6 d2 a0 be 81 f9 e1 3e
       -0.22447123 0.15798502 -0.31410855 0.4413567
000240 cb c0 01 3e 3e 75 24 be a3 d6 0f be 92 ea be be
       0.12671201 -0.1606035 -0.14046721 -0.37288338
000250 74 6f ee 3e ff 35 70 3d 91 f5 c3 be 4b 2b 51 bd
       0.46569407 0.058645245 -0.3827329 -0.051066678
000260 95 76 8d be 9d 0a 06 be 59 ac 64 b8 8d cd e7 3e
       -0.27629533 -0.13089986 -5.4519947e-05 0.4527401
000270 c6 81 de be 3d 61 e7 be a8 c4 7f 3e 14 ba 88 3d
       -0.43458384 -0.45191374 0.24977362 0.066761166
000280 61 ad dd 3d c9 65 e8 3e fa 13 c5 be 53 30 d3 bd
       0.10824085 0.45390156 -0.38491803 -0.103119515
000290 67 cc 8b bc eb 5f fe 3e c9 55 a9 be 93 76 b8 be
       -0.01706524 0.49682555 -0.3307326 -0.36027965
0002a0 0b 8f cf 3d 80 13 83 bd a6 50 cb be 9c a3 fe 3d
       0.10134705 -0.06400204 -0.39709967 0.1243355
0002b0 70 d4 c6 3e 28 33 e1 be 91 3a 86 3e 4c 15 ee 3e
       0.38833952 -0.43984342 0.26216558 0.46500623
0002c0 1d a4 16 bd 04 bf f4 3d e3 d8 fa 3e 6c 6b c1 3e
       -0.036777604 0.11950496 0.48993596 0.3777727
0002d0 97 69 0a bc a6 2d d3 bd 69 98 ba bd d4 3a 6d 3e
       -0.008448026 -0.10311441 -0.09111101 0.23166972
0002e0 2a f8 fc be a5 71 b1 3c 83 83 d6 bd 5c c1 f1 bd
       -0.49408084 0.021660635 -0.104743026 -0.118044585
0002f0 5c 2c 76 3e a3 28 a3 3e 8b b6 b3 3e 0c a1 5d be
       0.2404036 0.3186694 0.35100207 -0.21643466
000300 c8 89 6c be c2 62 00 3d 40 0c 9f be 79 f3 25 be
       -0.23099434 0.031344183 -0.31064034 -0.16206159
000310 0d d6 4d be fa ca 90 3e 44 4f d3 be c4 61 f7 bd
       -0.20101185 0.2827986 -0.41271412 -0.12079194
000320 d2 44 bc be 1e 03 a7 be f9 29 13 be ac ad 92 be
       -0.36771256 -0.32619566 -0.1437148 -0.28648126
000330 5b 4a 19 be 7b 40 a7 3e 02 29 ce 3e c6 da ac 3e
       -0.1496977 0.32666382 0.4026566 0.3376066
000340 08 f2 7b 3d ac f1 da be ff 99 7c 3e 32 16 9f bd
       0.061510116 -0.42762506 0.2466812 -0.07767905
000350 d0 c4 d6 be f7 dd a8 3e 57 08 2f 3e 40 d7 34 3e
       -0.4194703 0.32981846 0.17093025 0.17660236
000360 41 16 83 3e cc 3b f4 be c8 db bb be fa 60 fd bc
       0.25602916 -0.4770187 -0.36691117 -0.030930031
000370 8e de 7f 3e b1 d5 1b be 4f d1 1b be 6c 03 3b 3d
       0.24987242 -0.15218236 -0.15216564 0.04565756
000380 eb d8 ef 3d cf 53 c7 3e 2d 2b 9b 3d 7b ff b6 3e
       0.11711296 0.38931128 0.075765945 0.3574179
000390 0a 5a 89 3e c0 7d 2e 3e 4e 7e 24 bd 3a e1 f3 3e
       0.26826507 0.17040157 -0.040159516 0.47632772
0003a0 e9 21 f7 bd a7 5e c1 be 3e 22 4f be ae 9e fb 3d
       -0.12067015 -0.37767527 -0.20227906 0.12286125
0003b0 4a 0f 42 be 7b c6 99 3e 61 13 31 bc d0 99 5a 3e
       -0.18951145 0.3003424 -0.010807843 0.21347737
0003c0 05 85 17 3e b2 1b 89 3e 91 74 c7 3e 39 f4 87 3e
       0.14796837 0.26778942 0.3895612 0.26553515
0003d0 a2 fd 4d 3c f8 9b ad 3e 40 17 ab be d8 c9 ff 3d
       0.012572678 0.33908057 -0.33416176 0.124896705
0003e0 67 df 8f 3d 7f 89 c6 be 87 90 00 be c3 6d 18 be
       0.070250325 -0.38776776 -0.12555133 -0.14885621
0003f0 4a 74 d3 3d 17 2f cd be 8c 6c 06 3e fc 62 de 3e
       0.10324915 -0.4007499 0.13127345 0.43434894
