restsyn/tabsyn/vae/ckpt/adult_cond/encoder.pt (torch, 22960 bytes, 33 tensors)

Tokenizer.weight f4 [6, 4]
0	0xbd78d7a4	-0.060752526
1	0x3d49220f	0.049104746
2	0x3deba614	0.11506286
3	0x3e74058e	0.23830244
4	0x3c1525e5	0.009103273
5	0xbf00c28b	-0.5029685
6	0xbd90c159	-0.07068128
7	0x3e145a02	0.1448746
8	0xbf13e11a	-0.5776535
9	0xbc2d4c57	-0.010577283
10	0xbec29485	-0.38003936
11	0x3d078544	0.033086076
12	0x3ebeb4f6	0.37247437
13	0xbe58f741	-0.2118807
14	0xbcb47275	-0.022027234
15	0x3e682fae	0.22674438
16	0xbec6b392	-0.38808876
17	0x3e7a94d1	0.24470831
18	0xbe9bcdbd	-0.30430403
19	0x3ed6907e	0.41907114
20	0xbd195b7b	-0.03744076
21	0x3e506595	0.2035125
22	0xbee303aa	-0.44338733
23	0xbd6894ca	-0.05678252

Tokenizer.bias f4 [14, 4]
0	0xbec2e42d	-0.3806471
1	0xbde4f219	-0.11178989
2	0x3f390d6e	0.7228612
3	0xbec64d28	-0.3873074
4	0x3f26dc71	0.65180117
5	0xbcb8a89c	-0.022541337
6	0xbe979f75	-0.29613844
7	0x3f149ce2	0.58051884
8	0x3e8ae361	0.271266
9	0x3e0a7fb6	0.1352528
10	0xbef3d917	-0.47626564
11	0xbe81c828	-0.2534802
12	0x3f36eefb	0.71458405
13	0x3f042093	0.51612204
14	0xbe0429bc	-0.12906545
15	0x3ecaafd5	0.39587274
16	0xbf0db640	-0.55356216
17	0x3f01f6ba	0.507671
18	0x3ea4fc45	0.32223716
19	0xbef2ddd6	-0.47434872
20	0x3e22d8b6	0.15902981
21	0xbe1ab766	-0.15109023
22	0xbec33085	-0.38122955
23	0x3ec71700	0.38884735
24	0x3de3ed7f	0.11129283
25	0xbeafc44a	-0.34329444
26	0x3e885daa	0.2663396
27	0x3e1fac71	0.15593125
28	0xbe5040eb	-0.20337264
29	0x3c8cb9fc	0.017178528
30	0xbe18feb4	-0.14940912
31	0x3e5a45ba	0.21315661
32	0xbe74c681	-0.23903848
33	0xbed74214	-0.420426
34	0xbd1b212b	-0.03787343
35	0xbd09fe98	-0.033690065
36	0x3e9b9528	0.30387235
37	0xbeea9505	-0.45816818
38	0x3e50ed4f	0.20403026
39	0xbeec8f3d	-0.46203032
40	0xbed28978	-0.41120505
41	0x3df27f73	0.11840715
42	0x3d30eaba	0.043192603
43	0x3ecf2a55	0.40461984
44	0x3ebd404f	0.36963126
45	0xbe33cc04	-0.17558295
46	0xbc53cb35	-0.012926866
47	0xbe8a3945	-0.26996818
48	0xbd67c8df	-0.05658805
49	0xbe650da8	-0.2236849
50	0xbe242988	-0.16031468
51	0x3e93db39	0.2887819
52	0xbe88ece8	-0.26743245
53	0x3e794e5c	0.24346298
54	0xbdbfd445	-0.09366659
55	0x3ea24444	0.31692708

Tokenizer.category_embeddings.weight f4 [50, 4]
0	0xbda95a77	-0.08269208
1	0x3e121059	0.14264049
2	0x3f162cd0	0.5866213
3	0xbaf0a5ee	-0.0018359998
4	0x3e709ab7	0.23496519
5	0x3e806540	0.25077248
6	0xbe548261	-0.2075286
7	0xbeb8e9dc	-0.3611592
8	0xbf3006b2	-0.68760216
9	0x3f20af4b	0.62767476
10	0xbd9e2ba5	-0.07723168
11	0xbe3a00e5	-0.18164404
12	0x3ea56535	0.32303777
13	0x3df0b218	0.11752719
14	0xbdbc7332	-0.09201659
15	0x3f34e917	0.70668167
16	0xbefa9fb6	-0.48949975
17	0x3e6f8a99	0.23392715
18	0xbeb45dbc	-0.35227764
19	0x3dc08516	0.09400384
20	0xbef8ee5b	-0.4861935
21	0x3ef69241	0.48158458
22	0xbef6d5fc	-0.48210132
23	0x3e504ad4	0.20341045
24	0x3f003cc2	0.5009271
25	0x3f1b1c67	0.60590214
26	0x3d4e6c37	0.05039617
27	0xbf65d08f	-0.8977136
28	0xbee9983a	-0.45623952
29	0xbe22f4d4	-0.15913707
30	0xbe136ab2	-0.1439617
31	0x3e9811b6	0.29701012
32	0xbf8f387f	-1.1189116
33	0x3ebdb245	0.3705007
34	0x3e3147da	0.17312565
35	0xbdb03ef6	-0.08605759
36	0x3f341d03	0.7035677
37	0x3df29736	0.118452474
38	0x3e7c5d0a	0.24644867
39	0xbf50bbf3	-0.8153679
40	0xbec5c544	-0.38627064
41	0xbe73744f	-0.23774837
42	0xbe200a53	-0.15628938
43	0xbe3c9333	-0.18415527
44	0x3f68d242	0.9094583
45	0xbf0f2ccf	-0.5592775
46	0xbd9cb6f0	-0.0765208
47	0xbd45666b	-0.048193377
48	0x3f1996ca	0.5999571
49	0x3de5f4bc	0.1122832
50	0xbceb33ef	-0.028711287
51	0xbe86bfdf	-0.2631826
52	0xbf126ec4	-0.57200265
53	0xbe8eb89d	-0.27875224
54	0x3df03c60	0.117302656
55	0xbbc67e5b	-0.006057543
56	0x3f3935b4	0.7234757
57	0xbed4998d	-0.415234
58	0x3e800359	0.25002554
59	0xbf57141b	-0.84015054
60	0xbd31757d	-0.043324936
61	0xbefc90e2	-0.49329287
62	0x3eb962ed	0.36208287
63	0x3e619cff	0.22032546
64	0x3e835b3a	0.25655538
65	0xbdcd0d20	-0.10012269
66	0xbf1bd63a	-0.6087376
67	0xbde18c08	-0.11013037
68	0xbe8bc943	-0.27301988
69	0xbe894710	-0.2681203
70	0xbd17ea68	-0.03708878
71	0xbc716dd8	-0.014735661
72	0xbf496961	-0.7867642
73	0x3ec5bc84	0.38620389
74	0xbeb74a4a	-0.35798866
75	0x3e7666ea	0.24062696
76	0x3ecce1ff	0.4001617
77	0x3e57a10f	0.21057533
78	0xbe9e83a1	-0.309598
79	0xbd89146b	-0.066933475
80	0x3f2b6919	0.6695724
81	0x3eb6b71c	0.35686576
82	0x3e71749b	0.23579638
83	0xbcd18107	-0.02557422
84	0xbf20acf8	-0.6276393
85	0x3e2a3934	0.16623384
86	0x3e0a8855	0.13528569
87	0xbe9af1e5	-0.30262676
88	0x3f0c0b5c	0.54704833
89	0x3f08fc0c	0.53509593
90	0xbd4995e7	-0.049215224
91	0xbe96f6e2	-0.29485232
92	0xbe3c1bca	-0.18369976
93	0xbe7c4c12	-0.24638394
94	0x3f3de7b3	0.7418167
95	0x3c74fcad	0.014952821
96	0x3f2c733d	0.6736334
97	0xbedddf24	-0.43334305
98	0xbf064caf	-0.5246076
99	0x3f7f304d	0.99683076
100	0x3f20954c	0.6272781
101	0xbf51efc4	-0.8200648
102	0x3ea48025	0.32129017
103	0x3f2cc8c9	0.67493874
104	0x3f0f2d5c	0.5592859
105	0xbd408a14	-0.04700668
106	0xbe99673a	-0.29961568
107	0x3e1820dc	0.14856285
108	0x3e900b91	0.28133824
109	0x3e0bef64	0.13665539
110	0x3e109947	0.1412097
111	0xbf2c8ecc	-0.6740539
112	0xbefab545	-0.48966423
113	0x3ea87825	0.32904163
114	0xbed2210f	-0.41040847
115	0x3e57349a	0.2101616
116	0xbe846f85	-0.25866333
117	0xbe48af2c	-0.19598073
118	0xbdb197ce	-0.086715326
119	0x3d9d6191	0.07684625
120	0x3e88375c	0.26604736
121	0x3edf6bfd	0.43637076
122	0xbef08b85	-0.46981445
123	0x3eb91e2f	0.3615584
124	0x3f8a2693	1.0793022
125	0x3ee89960	0.45429516
126	0x3ee88d59	0.4542034
127	0xbf1c442b	-0.61041516
128	0x3ece1f0c	0.40258062
129	0xbcd54f81	-0.026038887
130	0xbe801fc1	-0.25024226
131	0x3f0ef0ac	0.55835986
132	0x3e8b5d65	0.27219692
133	0x3edda74d	0.43291703
134	0xbf00659f	-0.5015506
135	0x3ebaa0d5	0.3645083
136	0xbf132bbc	-0.5748861
137	0x3bec573a	0.0072125467
138	0xbe0e1c0b	-0.13877885
139	0x3f546211	0.8296214
140	0xbdd43ddc	-0.10363361
141	0x3eed9009	0.46398953
142	0x3e376712	0.17910412
143	0xbebec35a	-0.37258416
144	0xbe8fc747	-0.28081724
145	0xbd18d347	-0.037310865
146	0x3f0adf12	0.5424663
147	0xbd9b7b87	-0.0759192
148	0x3cf81fc7	0.03028859
149	0x3f0493f3	0.5178825
150	0xbe8ab0dc	-0.27088058
151	0xbe10c9a8	-0.14139426
152	0x3e77b34d	0.24189492
153	0xbe1a030c	-0.15040225
154	0x3d348f5d	0.044082034
155	0x3d9e7b12	0.077383175
156	0xbef446b9	-0.47710207
157	0x3d90427e	0.070439324
158	0x3f063119	0.5241867
159	0xbd8710a6	-0.06594972
160	0xbded17e6	-0.11576824
161	0x3eb98afa	0.36238843
162	0xbe791026	-0.24322566
163	0x3ea2f0ed	0.31824437
164	0x3e9d552a	0.30729038
165	0xbec9b984	-0.3939935
166	0x3ed944e1	0.42435363
167	0x3eb3c5ce	0.3511185
168	0xbe820acf	-0.2539887
169	0x3e7cd425	0.24690302
170	0x3cbab2c1	0.022790315
171	0x3d5f9e93	0.054594588
172	0x3dc28932	0.09498824
173	0x3e9b1a5e	0.30293554
174	0xbf047985	-0.51747924
175	0x3f09b1be	0.5378684
176	0xbc5c322d	-0.013439697
177	0x3e2308ff	0.159214
178	0x3eddee8c	0.4334606
179	0xbc78d181	-0.015186668
180	0x3e5327f2	0.20620707
181	0xbd235eb8	-0.039885253
182	0x3ed22607	0.41044638
183	0x3e4a617f	0.19763754
184	0xbee32c3e	-0.44369692
185	0x3efc0ce3	0.49228582
186	0x3e854022	0.26025492
187	0xbe134f93	-0.14385824
188	0x3efb3548	0.49064088
189	0x3d2f03db	0.042728286
190	0xbd13433d	-0.035952795
191	0x3e81b65a	0.25334436
192	0xbf1ce8b2	-0.61292565
193	0x3dbfd00f	0.09365856
194	0xbdb967cb	-0.09053
195	0x3e8ecc93	0.27890453
196	0xbc2ce66e	-0.010552986
197	0xbf23f6e1	-0.6404858
198	0x3e3e9a17	0.18613468
199	0x3deaa955	0.11458079

VAE_Encoder.layers.0.attention.W_q.weight f4 [4, 4]
0	0xbe8df049	-0.27722386
1	0x3d2a3a97	0.041559782
2	0x3e97ee83	0.29674158
3	0xbf09f516	-0.53889596
4	0x3e75f20f	0.2401812
5	0xbd23032b	-0.039797943
6	0xbd693ea2	-0.056944497
7	0x3e416d06	0.18889245
8	0xbeea8f28	-0.45812345
9	0xbe919008	-0.284302
10	0xbeddbf9e	-0.43310255
11	0xbedc8d71	-0.4307666
12	0x3e3a1090	0.1817038
13	0x3dd7314c	0.105074495
14	0x3e514df3	0.20439892
15	0x3e80bf6a	0.25146037

VAE_Encoder.layers.0.attention.W_q.bias f4 [4]
0	0xbe34ef83	-0.17669491
1	0xbdba68ca	-0.09102018
2	0x3d182e36	0.037153445
3	0x3db44252	0.08801712

VAE_Encoder.layers.0.attention.W_k.weight f4 [4, 4]
0	0xbdd68862	-0.10475232
1	0x3e46538c	0.19367808
2	0xbe0cef6d	-0.13763209
3	0xbde97a79	-0.11400313
4	0x3ea5cd42	0.32383162
5	0xbdfb1844	-0.12260488
6	0xbdd8ab62	-0.10579564
7	0xbe18e064	-0.14929348
8	0x3e6221fe	0.2208328
9	0xbeeefac9	-0.4667571
10	0x3eb9284f	0.36163566
11	0xbecb5a84	-0.39717495
12	0xbe244ef4	-0.16045743
13	0xbeb5a4df	-0.3547735
14	0xbec6c596	-0.3882262
15	0xbe04ef68	-0.12981951

VAE_Encoder.layers.0.attention.W_k.bias f4 [4]
0	0x3b325089	0.0027208647
1	0xbad169a7	-0.0015976921
2	0x3b4c7aa6	0.0031201034
3	0xbb154ba3	-0.0022780679

VAE_Encoder.layers.0.attention.W_v.weight f4 [4, 4]
0	0x3db26f75	0.08712665
1	0x3e24147e	0.16023442
2	0x3ea704e9	0.32620934
3	0x3ea9fcc0	0.33200645
4	0xbcd83380	-0.026391745
5	0xbda79f9b	-0.08184739
6	0x3e3d8519	0.18507804
7	0x3d8f9aad	0.07011924
8	0xbd8ecb36	-0.06972353
9	0xbe1a034d	-0.15040322
10	0x3e558516	0.2085155
11	0x3c9ebfa8	0.019378498
12	0xbd5f90a9	-0.054581318
13	0xbe4f3ac7	-0.20237266
14	0x3dd2873f	0.102797024
15	0xbcee4613	-0.029086148

VAE_Encoder.layers.0.attention.W_v.bias f4 [4]
0	0xbd57e986	-0.05271294
1	0xbd291bf5	-0.041286428
2	0x3db5d1dd	0.08877919
3	0x3d742057	0.059601154

VAE_Encoder.layers.0.linear0.weight f4 [128, 4]
0	0x3e9a0d25	0.30088153
1	0x3e486ea6	0.19573459
2	0x3e74435d	0.23853822
3	0xbe455f6b	-0.1927468
4	0x3eb61bf0	0.3556819
5	0xbe19d8e6	-0.15024146
6	0xbe94473a	-0.28960592
7	0xbeaeab41	-0.3411503
8	0xbee02028	-0.43774533
9	0x3ed1dd8c	0.4098934
10	0xbe03cb88	-0.1287061
11	0x3eacd776	0.33758134
12	0x3df00548	0.11719757
13	0x3e5752ec	0.21027726
14	0x3df58868	0.11988908
15	0x3d813ef0	0.063108325
16	0x3ec0fee9	0.3769448
17	0x3e8467a9	0.25860336
18	0x3f0df6b2	0.5545455
19	0x3ed3a2d3	0.41335163
20	0x3e0802a3	0.13282256
21	0x3dafcfc5	0.08584551
22	0xbd0ddcf3	-0.03463454
23	0xbd4f2a2a	-0.05057732
24	0x3d01cf2b	0.03169171
25	0xbdd917fe	-0.10600279
26	0xbd8ac8bd	-0.06776569
27	0x3ec8b374	0.39199412
28	0x3e959192	0.29212624
29	0xbc643377	-0.013928286
30	0x3e9e719f	0.3094606
31	0xbe8095e6	-0.25114363
32	0x3ef61425	0.48062244
33	0x3e827374	0.2547871
34	0xbe112f71	-0.14178254
35	0x3f039bc0	0.5140953
36	0x3f0aa405	0.54156524
37	0x3ea922ef	0.33034465
38	0x3e797823	0.24362235
39	0x3bb88853	0.0056314855
40	0xbedcf5f8	-0.4315641
41	0xbd8a4ec9	-0.06753308
42	0x3e81eaef	0.25374553
43	0xbeed0835	-0.46295324
44	0xbe4aa2ea	-0.1978871
45	0xbee0b792	-0.43890053
46	0x3ecca651	0.3997064
47	0xbdfbf7d8	-0.12303132
48	0xbecd0c50	-0.40048456
49	0xbf091320	-0.5354481
50	0xbe4e5479	-0.20149411
51	0x3c90265f	0.017596422
52	0xbea795eb	-0.32731566
53	0x3ee695ae	0.45036072
54	0xbef13e67	-0.47117922
55	0x3f100d21	0.56270033
56	0xbdbe98b9	-0.09306473
57	0xbebe9701	-0.37224582
58	0xbd8f025b	-0.06982871
59	0x3e885128	0.26624417
60	0xbe8f8374	-0.28029978
61	0x3dbd1e43	0.092342876
62	0x3eb6c094	0.356938
63	0xbee7983d	-0.45233336
64	0xbe82b123	-0.2552577
65	0xbc7da610	-0.015481487
66	0xbeb0434b	-0.3442634
67	0xbea95349	-0.33071354
68	0xbdf4827b	-0.1193895
69	0xbe9974a7	-0.2997181
70	0xbe82d6a4	-0.25554383
71	0xbee2bb31	-0.4428344
72	0x3e6ec84f	0.23318599
73	0xbebd1068	-0.3692658
74	0xbee65281	-0.4498482
75	0x3d055219	0.032548998
76	0x3e845124	0.25843155
77	0x3ea78490	0.32718325
78	0xbf6bdea6	-0.9213661
79	0xbf15ea9c	-0.5856111
80	0xbd225b50	-0.039637864
81	0xbda5b900	-0.080919266
82	0x3e287b48	0.16453278
83	0xbebadaef	-0.36495158
84	0x3d4631ba	0.048387267
85	0x3ea81b13	0.32833156
86	0x3e4a2053	0.19738893
87	0xbd19fbd8	-0.037593693
88	0xbedc9bdc	-0.4308766
89	0xba061437	-0.00051147066
90	0xbd43992e	-0.047753505
91	0xbe68dc27	-0.22740231
92	0x3d60c3af	0.05487412
93	0xbee0fdf7	-0.4394376
94	0xbd8b90bb	-0.068147145
95	0x3ee76328	0.45192838
96	0xbe8e1f08	-0.2775805
97	0xbca182f3	-0.019715762
98	0xbec84735	-0.39116827
99	0xbdf03172	-0.11728181
100	0xbeacb2e3	-0.3373023
101	0xbf18628e	-0.5952538
102	0xbec6e721	-0.38848212
103	0x3e9b319e	0.30311292
104	0xbec797f9	-0.38983133
105	0x3ea5f74e	0.3241524
106	0xbedb3354	-0.42812598
107	0xbeffc4b6	-0.49954766
108	0xbd0d4b2b	-0.034495514
109	0x3eba38e9	0.36371544
110	0xbe4ab5f6	-0.19795975
111	0x3c14d508	0.009083994
112	0xbeea0e50	-0.45714045
113	0xbecfbde2	-0.40574557
114	0xbe9ace58	-0.30235553
115	0xbeb7e45c	-0.35916412
116	0x3ec680a4	0.3877002
117	0xbebd3ba6	-0.3695957
118	0xbeffc384	-0.49953854
119	0xbcaf2127	-0.021378113
120	0xbdbc1a42	-0.09184696
121	0x3e48b260	0.19599295
122	0x3e8ed061	0.27893355
123	0xbebd2c5e	-0.36947912
124	0x3e97831d	0.2959222
125	0xbe819f8a	-0.2531703
126	0x3e7e9d38	0.24864662
127	0x3d9f6208	0.0778237
128	0xbebe555d	-0.37174502
129	0xbd988d0c	-0.074487776
130	0xbf056caa	-0.52118933
131	0xbec00fdd	-0.37512103
132	0x3df01643	0.11722996
133	0x3ef75bf3	0.4831234
134	0x3edb561b	0.4283913
135	0xbc742cc8	-0.014903255
136	0xbdced277	-0.10098737
137	0xbed3b236	-0.41346902
138	0x3f0c0a72	0.5470344
139	0xbe88da70	-0.26729155
140	0xbd5adfb8	-0.05343601
141	0x3e597782	0.21236995
142	0x3d4e0db8	0.050306052
143	0xbcef4011	-0.029205354
144	0xbea67b37	-0.3251588
145	0xbe3383c1	-0.17530729
146	0x3ebbdda6	0.36692542
147	0xbd18a682	-0.03726817
148	0xbeb737b4	-0.35784686
149	0xbede5201	-0.4342194
150	0x3ea8d274	0.32973063
151	0xbe511176	-0.20416817
152	0xbec3ddc1	-0.38255122
153	0x3e47659a	0.19472352
154	0xbecae423	-0.3962718
155	0xbec3e76b	-0.38262495
156	0xbea732f8	-0.32656074
157	0xbe1cca0a	-0.15311447
158	0xbf06f518	-0.52717733
159	0xbede25f3	-0.43388328
160	0xbe8faf81	-0.28063586
161	0x3e348aab	0.17631023
162	0x3d6c9309	0.05775741
163	0x3ea43099	0.32068327
164	0x3ee4c2b1	0.44679788
165	0x3e2744ae	0.16334793
166	0xbef99481	-0.48746112
167	0xbe5fb965	-0.21848066
168	0x3f17f149	0.59352547
169	0x3e90ecee	0.28305763
170	0x3d8b5663	0.06803586
171	0x3eb66b5e	0.3562879
172	0xbe6c3b23	-0.23069434
173	0xbe6c9249	-0.23102678
174	0xbdc98d7e	-0.098414406
175	0x3cabcc93	0.020971572
176	0x3e321632	0.1739128
177	0x3f025f80	0.5092697
178	0xbe42e73c	-0.19033521
179	0xbe3ffc77	-0.18748651
180	0x3bf4911f	0.007463589
181	0x3d573fb7	0.052550998
182	0x3efdb205	0.4954988
183	0xbe133c1b	-0.14378397
184	0xbed4de45	-0.41575828
185	0x3e2d628c	0.16932124
186	0x3e2ebce9	0.17064251
187	0xbec977be	-0.3934917
188	0xbeaf75bb	-0.3426951
189	0x3d46d9a5	0.048547406
190	0x3e7c9ae2	0.24668458
191	0x3ec190f9	0.37805918
192	0xbdf09dbe	-0.11748837
193	0x3e94dde6	0.29075545
194	0xbecebc1a	-0.40377885
195	0xbe977ab4	-0.29585803
196	0xbe8a769c	-0.27043617
197	0x3ec18e03	0.3780366
198	0x3e60e48d	0.21962185
199	0xbea534e7	-0.32266924
200	0x3eebadb8	0.46030974
201	0x3e6b19c9	0.22959055
202	0x3e8add1e	0.27121824
203	0xbe71750c	-0.23579806
204	0x3e5c74dc	0.21528953
205	0xbec1f572	-0.37882572
206	0xbd55746b	-0.052112978
207	0xbeece180	-0.46265793
208	0xbe482a39	-0.19547357
209	0x3eb8e81f	0.36114594
210	0x3e3dc6c3	0.18532853
211	0xbde6b558	-0.11265057
212	0xbe8417e8	-0.2579949
213	0xbe050cbe	-0.12993142
214	0x3eca10a3	0.39465818
215	0x3dbdbc4e	0.09264432
216	0xbeccb285	-0.3997995
217	0xbe8e7be7	-0.27828905
218	0x3d713448	0.05888775
219	0xbc756a0d	-0.014978898
220	0x3e2233b9	0.15840043
221	0x3ecb9d5a	0.39768487
222	0x3e829037	0.25500652
223	0xbe845b83	-0.25851068
224	0xbf32c682	-0.6983415
225	0x3e05d550	0.13069654
226	0x3d99e4ad	0.075143196
227	0x3eb25513	0.3483053
228	0x3ee01a8e	0.4377026
229	0x3e3f99f9	0.1871108
230	0xbeceee03	-0.40415964
231	0xbe8d0b20	-0.2754755
232	0x3f04ef85	0.5192798
233	0x3eab169e	0.33415693
234	0xbef5f8f6	-0.48041505
235	0x3ea2d53f	0.3180332
236	0xbeeaf67f	-0.45891187
237	0x3ecb7eb5	0.39745107
238	0x3ebcfd54	0.36912024
239	0xbe03a591	-0.12856127
240	0xbcd871ea	-0.026421506
241	0xbccfb35f	-0.025354085
242	0xbf00b7d3	-0.50280493
243	0x3e4308ae	0.1904628
244	0xbcfd2571	-0.030901643
245	0xbed185a5	-0.40922275
246	0x3ef8871d	0.48540583
247	0x3ef4242e	0.47683853
248	0xbf3a18d7	-0.7269415
249	0xbec6268e	-0.3870129
250	0xbe25adcf	-0.16179584
251	0xbde95e19	-0.11394901
252	0xbe85f68d	-0.26164666
253	0x3e7bf505	0.24605186
254	0xbe652c53	-0.2238019
255	0xbeb0ea6a	-0.34553844

VAE_Encoder.layers.0.linear0.bias f4 [128]
0	0xbed53c36	-0.416475
1	0xbe802a75	-0.25032392
2	0x3edf77ce	0.4364609
3	0xbeba11a0	-0.36341572
4	0x3ee496c5	0.44646278
5	0xbea3b3e6	-0.3197319
6	0x3edd5359	0.43227652
7	0xbe058630	-0.1303947
8	0x3e91bb44	0.28463185
9	0x3eceeb05	0.4041368
10	0xbec47e4f	-0.38377616
11	0x3ec3da70	0.38252592
12	0xbeccacb6	-0.39975518
13	0xbe7de0f7	-0.24792849
14	0xbd8c1027	-0.06839018
15	0x3ee76e8f	0.45201537
16	0x3eb34f98	0.35021663
17	0x3edb2b97	0.42806694
18	0x3e30bd4b	0.1725971
19	0xbef09d8c	-0.469952
20	0xbe847715	-0.25872102
21	0x3e74f085	0.23919876
22	0x3edfe2e7	0.437278
23	0xbe84a276	-0.25905198
24	0x3e834c77	0.25644276
25	0xbe0138be	-0.12619302
26	0x3e3a8f4b	0.18218724
27	0x3e898090	0.26855898
28	0xbe989fa2	-0.2980929
29	0xbe683052	-0.22674683
30	0x3dc89f16	0.09795968
31	0x3eb08211	0.34474233
32	0xbee6d2b3	-0.45082626
33	0x3e911167	0.2833359
34	0x3e11484f	0.1418774
35	0xbe4166a8	-0.18886817
36	0xbdeb606d	-0.11493001
37	0xbee5ad03	-0.4485856
38	0x3dec3df5	0.11535255
39	0xbe92fae8	-0.2870705
40	0xbe3a9726	-0.18221721
41	0x3efdc785	0.49566284
42	0x3e460ef3	0.1934164
43	0xbee30d53	-0.44346103
44	0xbd9c3c75	-0.07628719
45	0x3ea4bec1	0.32176784
46	0x3c199103	0.009372952
47	0xbb4b0619	-0.0030978976
48	0x3ed85dd5	0.42259088
49	0x3e8cde6d	0.27513447
50	0xbefd028b	-0.49416003
51	0xbf011c70	-0.5043402
52	0x3d4ac2b6	0.049502097
53	0xbd22822f	-0.039674934
54	0xbedbe27c	-0.4294623
55	0xbf020869	-0.5079408
56	0xbef9d59b	-0.4879578
57	0xbf034be4	-0.51287675
58	0xbd0fb066	-0.035080336
59	0xbea5e2fe	-0.32399744
60	0x3d9c3aaa	0.07628377
61	0x3e91943d	0.2843341
62	0xbefb303c	-0.49060237
63	0xbec0a2c4	-0.3762418
64	0x3ddd4a3c	0.10805175
65	0xbea2d96e	-0.3180651
66	0xbe4c70d2	-0.19964913
67	0xbecf4212	-0.40480095
68	0xbed39515	-0.41324678
69	0x3da30f7e	0.07961939
70	0x3e82279b	0.25420842
71	0xbdc8106e	-0.09768759
72	0xbda9374d	-0.08262501
73	0x3e8965a6	0.26835364
74	0xbdfb38f0	-0.12266719
75	0xbe42bdd7	-0.1901773
76	0x3e04da94	0.12974006
77	0xbca87370	-0.020562857
78	0x3ec4f9bd	0.38471785
79	0xbc8f4e0f	-0.017493276
80	0x3d9bccdf	0.076074354
81	0x3eb6894a	0.35651618
82	0xbe414cd8	-0.1887697
83	0x3ed66365	0.41872707
84	0xbeb012dd	-0.34389392
85	0x3e2457e8	0.16049159
86	0x3ed5b3e6	0.41738814
87	0x3e01a9d3	0.12662439
88	0x3d3e081c	0.046394452
89	0xbee353fe	-0.44400018
90	0x3ca2bafc	0.019864552
91	0xbeaaaefe	-0.33336633
92	0x3e90ab52	0.28255707
93	0x3d8b6358	0.06806058
94	0x3d5bf6bc	0.0537021
95	0xbed34fa1	-0.4127169
96	0x3e83d61a	0.25749284
97	0x3d6bd697	0.057577696
98	0x3eb9a96a	0.36262065
99	0xbdd4c473	-0.10389032
100	0xbd3af9cc	-0.04564838
101	0xbe3b4129	-0.18286575
102	0x3e38fc8a	0.18065086
103	0x3e7d205a	0.24719372
104	0xbebec8ea	-0.3726266
105	0xbed223fb	-0.41043076
106	0xbcb2cc0b	-0.02182581
107	0xbe35b9b1	-0.17746617
108	0x3ee2c479	0.44290522
109	0xbc6ce07a	-0.014457816
110	0x3cfd6966	0.030934047
111	0x3e77aaa5	0.2418619
112	0x3e4e712e	0.20160362
113	0x3ea54d25	0.3228542
114	0xbed5ff3b	-0.41796288
115	0xbf050518	-0.519609
116	0xbe7e4033	-0.24829178
117	0x3ebc1479	0.3673437
118	0xbe306c44	-0.172288
119	0x392497cb	0.00015696806
120	0xbdafbe7d	-0.08581255
121	0xbdb9e99f	-0.09077763
122	0xbc1bcc60	-0.009509176
123	0x3e02e6e5	0.12783392
124	0x3ef001b4	0.468763
125	0xbeb42768	-0.35186315
126	0x3e4643c2	0.19361785
127	0xbdaf0c72	-0.08547296

VAE_Encoder.layers.0.linear1.weight f4 [4, 128]
0	0x3d8bf68e	0.06834136
1	0xbd4aef38	-0.049544543
2	0x3d50da41	0.050989393
3	0xbd17494c	-0.036935136
4	0xbc09a1cb	-0.008400391
5	0x3d95b4c9	0.07309873
6	0x3cbb28db	0.02284663
7	0x3d1a38a4	0.037651673
8	0x3cbd2503	0.023088938
9	0xbb2c95a1	-0.0026334303
10	0x3c9193a6	0.0177706
11	0x3cb84ac8	0.022496596
12	0xbe68e044	-0.227418
13	0xbd9b6f1e	-0.07589553
14	0x3dedacf1	0.116052516
15	0x3d326db2	0.043561645
16	0xbdb76313	-0.08954444
17	0xbcfc2534	-0.030779459
18	0x3b3a2457	0.0028403008
19	0x3f2abc8d	0.66693956
20	0xbd20c042	-0.03924585
21	0xba0379b6	-0.000501539
22	0xbbeca912	-0.007222303
23	0x3d8485dd	0.06470845
24	0x3d68b258	0.056810707
25	0x3dda4698	0.10657996
26	0x3d6f65c8	0.058446676
27	0xbd15e54f	-0.03659564
28	0x3d5315b5	0.051534373
29	0xbe08bffb	-0.13354485
30	0x3c2427d2	0.0100192595
31	0x3d96560b	0.0734063
32	0xbf2758e2	-0.6537
33	0xbdc34e92	-0.095364705
34	0xbe1c7ded	-0.15282412
35	0xbc46e8e9	-0.012140491
36	0x3ccdbe4b	0.025115153
37	0x39fa2d12	0.00047717296
38	0xbc690cd5	-0.014224251
39	0xbca8d5e6	-0.020609807
40	0xbe3a8003	-0.18212895
41	0xbd1b72ed	-0.0379514
42	0xbdb0081b	-0.08595296
43	0x3d371d4d	0.044705678
44	0x3d94db42	0.072683826
45	0xbd2e57e1	-0.042564277
46	0xbcea455b	-0.028597524
47	0x3a355b5d	0.0006918216
48	0xbdac5e32	-0.08416404
49	0x3d38163d	0.044943083
50	0xbc344141	-0.011001886
51	0xbdc1e2a5	-0.09467057
52	0xbda495a1	-0.08036352
53	0xbc617e07	-0.013762957
54	0x3e4d24ef	0.2003362
55	0x3b8c3180	0.004278362
56	0xbd28074f	-0.041022595
57	0x3daa6afd	0.08321188
58	0xbe2e94f0	-0.17049003
59	0xbc94ba83	-0.018155342
60	0xbd5b5788	-0.053550273
61	0x3dc5beeb	0.09655555
62	0xbeda02f5	-0.4258038
63	0xbd8624a2	-0.06549956
64	0xbd2a84da	-0.041630603
65	0x3d526f12	0.051375456
66	0xbd19ff31	-0.037596885
67	0xbbf7dad0	-0.0075639263
68	0x3dc3e228	0.0956462
69	0xbdd308ab	-0.10304388
70	0xbd079e1c	-0.03310977
71	0x3c68a752	0.0142000485
72	0xbd8ba093	-0.068177365
73	0xbd613961	-0.05498636
74	0xbc9e2418	-0.01930432
75	0x3e1cfdbb	0.15331165
76	0x3d3716a3	0.044699322
77	0xbd6ccb78	-0.05781123
78	0xbe0426b0	-0.12905383
79	0xbdddfc31	-0.10839117
80	0x3cc9a117	0.024612946
81	0xbd32ba70	-0.043634832
82	0x3d438dbf	0.0477426
83	0x3d865c64	0.06560591
84	0xbdb370f3	-0.08761778
85	0xbd1bc642	-0.03803087
86	0xbcca7c21	-0.024717392
87	0xbd92924d	-0.07156811
88	0xbbc468b8	-0.0059939288
89	0xbe921313	-0.28530177
90	0xbc8d4f12	-0.017249618
91	0x3cd6472b	0.026156982
92	0x3d5ec6e7	0.054388907
93	0xbdd695c6	-0.10477786
94	0xbd87c9d4	-0.066302925
95	0xbd8534d9	-0.065042205
96	0xbc4ffc91	-0.012694494
97	0x3d8ad2c1	0.06778479
98	0x3dd125a5	0.10212258
99	0xbe156a5d	-0.14591356
100	0xbcdbcad3	-0.026830113
101	0x3dd6c07a	0.10485931
102	0xbd888d23	-0.06667545
103	0xbd647015	-0.055770952
104	0xbc603afe	-0.01368594
105	0xbdafbbff	-0.08580779
106	0xbe761922	-0.24033025
107	0xbe13dcac	-0.14439648
108	0xbcf93b4e	-0.030423786
109	0x3e51997b	0.20468704
110	0x3e0f9676	0.1402224
111	0xbdc7b2d4	-0.09750906
112	0xbcbbe774	-0.022937514
113	0xbd7de0fc	-0.06198214
114	0xbd9f9d6e	-0.07793699
115	0xbd993e50	-0.07482588
116	0x3d8bc2f7	0.06824296
117	0xbd651e23	-0.055936944
118	0x3d3121b8	0.043245047
119	0x3c4b16b6	0.012395551
120	0xbc1a5efe	-0.009422062
121	0xbc1f4c11	-0.0097227255
122	0xbdb1ccdb	-0.08681651
123	0xbd8f6928	-0.07002479
124	0x3c6632fc	0.014050242
125	0x3e467053	0.19378786
126	0xbd8eff73	-0.06982317
127	0x3dd8df9a	0.105895236
128	0x3d485777	0.048911538
129	0xbe08d204	-0.13361365
130	0x3d1f7e40	0.03893876
131	0x3d4f872a	0.050666012
132	0xbcbdf4b0	-0.023187965
133	0x3cab1983	0.020886188
134	0xbdc043aa	-0.09387906
135	0x3d809bc6	0.062797114
136	0xbc4ed1df	-0.012623279
137	0xbd13b64e	-0.03606253
138	0xbc8c8ad5	-0.017156044
139	0x3d726e02	0.059186943
140	0x3e6d09f9	0.23148336
141	0xbd8de0d4	-0.06927648
142	0x3deb2236	0.114811346
143	0x3dd48463	0.10376813
144	0xbd80efd4	-0.062957436
145	0xbd063af1	-0.032771055
146	0xbdf091ec	-0.117465824
147	0x3eb9f234	0.363176
148	0x3dad67f8	0.08467096
149	0xbd529c78	-0.05141875
150	0xbd7c9055	-0.061661083
151	0x3df9b0fe	0.12191962
152	0xbd369359	-0.044574115
153	0x3da96c49	0.08272607
154	0xbd873ccf	-0.06603395
155	0x3d244deb	0.04011337
156	0xbd83b7d3	-0.06431546
157	0xbdf0f766	-0.117659375
158	0x3d5b99b8	0.053613394
159	0xbd45524f	-0.0481742
160	0x3fe6343d	1.7984692
161	0x3dce368e	0.10068999
162	0xbbc264e2	-0.0059324363
163	0x3e1728b5	0.14761622
164	0x3cd51199	0.026009368
165	0xbd50033e	-0.050784342
166	0x3d560156	0.052247368
167	0x3e229260	0.1587615
168	0xbaba05d3	-0.001419241
169	0x3ae08f7d	0.0017132607
170	0xbd992c33	-0.074791335
171	0x3db85803	0.09001162
172	0x3da22005	0.079162635
173	0xbcb67e10	-0.022276908
174	0x3d66fc69	0.05639306
175	0xbdb17e08	-0.08666617
176	0xbdb0b6a1	-0.08628584
177	0x3c960e88	0.018317476
178	0x3dce7338	0.1008057
179	0x3d099987	0.03359368
180	0xbcbf5108	-0.023354068
181	0xbdba09ad	-0.09083877
182	0xbe02a82e	-0.12759468
183	0xbda61b69	-0.08110697
184	0xbc01531b	-0.007893349
185	0xbe9ebb3c	-0.31002223
186	0xbe019590	-0.1265471
187	0xbd9c8a94	-0.07643619
188	0x3d090ebe	0.033461325
189	0x3c8f1658	0.017466709
190	0x3ec027d1	0.37530378
191	0x3cc310fc	0.02381181
192	0xbd708ead	-0.058729816
193	0x3d3380c5	0.043823976
194	0x3d618bd7	0.055065002
195	0xbdaaa6ff	-0.08332633
196	0x3d588835	0.052864272
197	0x3c2ab946	0.010420149
198	0x3b7103ea	0.0036776015
199	0xbb943af6	-0.0045236303
200	0x3d09372a	0.033499874
201	0xbd78d937	-0.060754027
202	0x3d858668	0.065197766
203	0x3dc3d634	0.095623404
204	0x3d775ff0	0.060394228
205	0x3c73efb1	0.01488869
206	0xbdad063e	-0.08448456
207	0x3e05568c	0.13021296
208	0xbb72e9b1	-0.003706556
209	0xbda47402	-0.08029939
210	0xbd586e39	-0.05283949
211	0x3d7d82e4	0.061892405
212	0x3c436a33	0.011927175
213	0x3c8d7a89	0.017270343
214	0xbd67631b	-0.056491
215	0xbcce14d6	-0.02515642
216	0xbc075afb	-0.0082614375
217	0x3e466693	0.19375066
218	0x3d58b7d6	0.052909695
219	0xbcc59a88	-0.024121538
220	0xbd9ea2fc	-0.077459306
221	0x3c0026d0	0.007821754
222	0x3d4a2c65	0.049358744
223	0xba13f11a	-0.0005643532
224	0xbd82288f	-0.06355392
225	0x3dd7b3d9	0.1053235
226	0xbdb2efcc	-0.08737144
227	0xbb8c91d6	-0.004289846
228	0xbd916f73	-0.071013354
229	0x3c68d04d	0.014209819
230	0xbd9c85e1	-0.07642723
231	0xbd2af4df	-0.041737434
232	0x3d981701	0.07426263
233	0x3d2d0a24	0.042246
234	0xbc35bcb4	-0.011092354
235	0xbe76a2f7	-0.24085604
236	0xbc85767d	-0.016291851
237	0xbca31265	-0.019906232
238	0xbe1375e1	-0.14400436
239	0x3da4e813	0.08052077
240	0x3d62d53b	0.055379134
241	0xbe6250d7	-0.2210115
242	0x3dbf316d	0.09335599
243	0x3d463546	0.04839065
244	0xbdf08c3e	-0.11745499
245	0xbdd80383	-0.10547545
246	0x3c892902	0.016743187
247	0xbd2057e6	-0.039146326
248	0xbde82589	-0.11335284
249	0xbc5be499	-0.013421201
250	0x3ca9e6b3	0.020739889
251	0xbb8d6933	-0.0043155192
252	0x3d5dbd7f	0.054135796
253	0xbdc46712	-0.095899716
254	0x3d38ed7f	0.04514837
255	0x3dfeb4ef	0.12436854

VAE_Encoder.layers.0.linear1.bias f4 [4]
0	0x3d2a3801	0.041557316
1	0x3b60f7a7	0.00343273
2	0x3e15bb31	0.14622189
3	0x3dada312	0.08478369

VAE_Encoder.layers.0.norm1.weight f4 [4]
0	0x3f8209ef	1.0159281
1	0x3f80bd45	1.005776
2	0x3f900535	1.1251589
3	0x3f897ab9	1.0740577

VAE_Encoder.layers.0.norm1.bias f4 [4]
0	0x3cf68fee	0.030097928
1	0x3d42c315	0.047549326
2	0xbbc427f1	-0.0059862067
3	0xbd5a0e52	-0.053236313

VAE_Encoder.layers.1.attention.W_q.weight f4 [4, 4]
0	0x3e6b8c0f	0.23002647
1	0x3e5c5090	0.21515107
2	0xbeb240df	-0.34815118
3	0x3eba4341	0.36379436
4	0xbe482072	-0.19543627
5	0xbf14484c	-0.57922816
6	0xbedb191b	-0.4279259
7	0x3d4d3187	0.05009606
8	0xbe80ea2c	-0.2517866
9	0xbef9cf26	-0.48790854
10	0x3ddede73	0.108822726
11	0x3edde91b	0.43341908
12	0xbba78616	-0.00511242
13	0x3d79585e	0.06087529
14	0x3e605e54	0.21910983
15	0x3e17fae0	0.14841795

VAE_Encoder.layers.1.attention.W_q.bias f4 [4]
0	0xbf17a638	-0.59238005
1	0xbefdca49	-0.49568394
2	0x3d4f3dcf	0.050596055
3	0xba96c6a5	-0.0011503292

VAE_Encoder.layers.1.attention.W_k.weight f4 [4, 4]
0	0x3e41c40c	0.18922442
1	0x3e9934dc	0.2992314
2	0xbf10df23	-0.5659048
3	0x3eac6d09	0.33676937
4	0x3eb872fa	0.3602522
5	0x3eb6da4f	0.3571343
6	0xbe9e4b49	-0.30916813
7	0x3ed58882	0.4170571
8	0xbd139a50	-0.036035836
9	0xbec54788	-0.38531137
10	0x3ea12186	0.3147089
11	0x3ea00b2c	0.31258523
12	0xbf14a1f3	-0.58059615
13	0xbed11ee0	-0.40843868
14	0xbe616137	-0.22009741
15	0x3b89645e	0.004192873

VAE_Encoder.layers.1.attention.W_k.bias f4 [4]
0	0x39634a33	0.00021676048
1	0x38e41784	0.00010876267
2	0x3820541e	3.8225313e-05
3	0xb7bc2582	-2.2428812e-05

VAE_Encoder.layers.1.attention.W_v.weight f4 [4, 4]
0	0xbda49c57	-0.08037632
1	0x3d93a515	0.07209221
2	0xbd5a3ec6	-0.05328252
3	0xbda17754	-0.07884088
4	0x3dce7d95	0.100825466
5	0x3dfa48fc	0.12220952
6	0x3e1028d7	0.14078079
7	0x3cc4f445	0.024042258
8	0x3ec8becd	0.3920807
9	0x3e6dc7c9	0.23220743
10	0x3ec9436a	0.39309245
11	0x3e5a4733	0.21316223
12	0xbc8bc58d	-0.017061973
13	0x3dbcbbea	0.09215529
14	0x3dd5fea1	0.10448957
15	0x3aefe0d4	0.0018301257

VAE_Encoder.layers.1.attention.W_v.bias f4 [4]
0	0xbce85b9d	-0.028363997
1	0x3db9f71c	0.090803355
2	0xbd123efd	-0.0357046
3	0x3c08dc11	0.008353249

VAE_Encoder.layers.1.linear0.weight f4 [128, 4]
0	0xbd5ff3dd	-0.054675926
1	0x3e6323ad	0.22181578
2	0xbed9e392	-0.42556435
3	0x3d573ff6	0.052551232
4	0x3e847ed8	0.25878024
5	0xbdbbcf22	-0.09170367
6	0xbe30bad6	-0.17258772
7	0x3ed9160d	0.42399636
8	0xbefd6814	-0.49493468
9	0xbca08b60	-0.01959771
10	0x3e7b7cf7	0.24559389
11	0x3ea416f3	0.3204876
12	0xbd9c2615	-0.07624451
13	0xbf2df958	-0.67958593
14	0x3dd37e26	0.10326795
15	0xbe04e53e	-0.12978074
16	0x3eaf003c	0.34179866
17	0xbdc34914	-0.09535423
18	0x3e72681e	0.2367253
19	0xbe18dfc2	-0.14929107
20	0xbe5ef465	-0.21772917
21	0xbeec2938	-0.46125197
22	0x3e8e5199	0.2779663
23	0x3f044b4f	0.5167741
24	0xbe99d89f	-0.3004808
25	0x3ee75330	0.45180655
26	0xbd45b2cb	-0.048266213
27	0xbd91655a	-0.070994094
28	0x3e3b2c5a	0.18278638
29	0xbddb5ac6	-0.10710673
30	0x3ed9bb2c	0.42525613
31	0xbe560029	-0.20898499
32	0xbe8f64dd	-0.2800664
33	0x3e701062	0.2344375
34	0x3f0e0ae5	0.55485374
35	0xbf03f6fc	-0.51548743
36	0x3e998a8e	0.2998852
37	0x3eb9618a	0.3620723
38	0x3e8ad857	0.2711818
39	0xbe9e9d46	-0.30979365
40	0xbea90f45	-0.33019462
41	0xbedd2c8c	-0.4319805
42	0x3eb95137	0.36194775
43	0x3e8b4a17	0.27204964
44	0x3efdbedb	0.49559674
45	0xbed1a8eb	-0.40949187
46	0x3e624ff7	0.22100817
47	0xbeca54ba	-0.39517766
48	0x3ea56207	0.3230135
49	0xbeb14f2d	-0.3463072
50	0xbeb5944d	-0.35464707
51	0xbe067bfe	-0.13133237
52	0x3dc65b23	0.09685352
53	0x3ed53166	0.4163925
54	0x3eb188ec	0.34674776
55	0x3d9f49df	0.07777762
56	0xbd8539f1	-0.06505192
57	0x3ebcb7a0	0.36858845
58	0x3ef55a98	0.4792068
59	0xbe7925cf	-0.24330829
60	0xbcdabbc9	-0.026700871
61	0xbe69ba17	-0.22824894
62	0x3ec033d2	0.37539536
63	0xbe763220	-0.24042559
64	0x3eec6762	0.46172625
65	0x3e90821c	0.28224266
66	0xbe542142	-0.20715812
67	0xbec8497c	-0.39118564
68	0xbeaea4be	-0.34110063
69	0x3f0579f4	0.5213921
70	0xbd7975a5	-0.06090321
71	0x3dbda563	0.09260061
72	0xbf05a136	-0.52199113
73	0x3e99f4e3	0.30069646
74	0x3ce34698	0.027743623
75	0x3dcafe10	0.0991174
76	0xbcccb9e0	-0.024990976
77	0x3e984e9b	0.2974747
78	0x3f022c29	0.50848633
79	0xbd4eeb58	-0.05051741
80	0x3e9cb986	0.30610293
81	0x3e21bc82	0.15794566
82	0x3d7badd9	0.06144509
83	0xbdbda76c	-0.09260449
84	0x3e861050	0.2618432
85	0x3e7fd875	0.24984916
86	0x3e747c25	0.23875482
87	0xbebc2a2e	-0.3675093
88	0x3e8f46b7	0.2798364
89	0xbefa758a	-0.489178
90	0xbe9aee04	-0.30259717
91	0x3dd0db77	0.101981096
92	0x3edc569c	0.43034828
93	0xbe91cbcc	-0.28475797
94	0x3df57b0b	0.11986359
95	0xbe3603a7	-0.17774831
96	0xbdd8f552	-0.10593666
97	0xbe21214f	-0.15735362
98	0x3e4658ee	0.19369861
99	0x3ecc6d26	0.39927024
100	0xbf0a1f5e	-0.5395411
101	0xbe9ad459	-0.30240133
102	0x3e21045f	0.15724324
103	0x3e61c16f	0.22046445
104	0x3e335700	0.17513657
105	0x3e1892e7	0.14899789
106	0xbe9aabdb	-0.3020924
107	0x3ed62bc0	0.41830254
108	0x3ddc6edd	0.10763333
109	0xbee5cf48	-0.44884706
110	0xbe94eeb3	-0.29088363
111	0xbe47d842	-0.1951609
112	0x3e39c504	0.18141562
113	0xbecccd3c	-0.4000033
114	0xbecf18bf	-0.40448567
115	0xbc9c9018	-0.019111678
116	0x3f2f65a0	0.6851444
117	0x3ecd9ec0	0.4016018
118	0x3d4a1e15	0.049345095
119	0xbaea00ce	-0.0017853023
120	0xbdf826e3	-0.12116792
121	0x3ee30f98	0.44347835
122	0xbe1778a5	-0.14792116
123	0x3e37f3a9	0.17964043
124	0x3e295b43	0.1653872
125	0xbde06171	-0.109560855
126	0x3e14be4d	0.14525719
127	0x3e99d7a9	0.30047348
128	0x3ebbf227	0.36708185
129	0xbe882325	-0.26589313
130	0x3e076bbd	0.13224693
131	0xbe6fe507	-0.23427211
132	0x3f055ba7	0.52092975
133	0xbf40294f	-0.7506303
134	0xbd6f6c02	-0.058452614
135	0xbe80005a	-0.25000268
136	0xbe320fbf	-0.17388819
137	0x3edf9d5d	0.43674746
138	0xbd93a430	-0.07209051
139	0x3f4082c4	0.7519953
140	0xbeca23ff	-0.39480588
141	0x3dc59f30	0.09649503
142	0xbd987063	-0.07443311
143	0xbe62374f	-0.22091411
144	0xbe8daf46	-0.27672786
145	0xbce281fc	-0.027649872
146	0x3ed3a14b	0.41333994
147	0xbe3496ee	-0.176357
148	0x3d559a40	0.052149057
149	0x3d2350d6	0.039872013
150	0x3e1e9c9b	0.15489428
151	0xbef3b943	-0.4760228
152	0xbdd123d6	-0.10211913
153	0x3edc00a4	0.4296924
154	0xbe78dfc2	-0.24304107
155	0x3d5c6d32	0.053815074
156	0x3e966deb	0.29380736
157	0x3eafa3db	0.343047
158	0x3e241b1c	0.16025966
159	0xbe4f6f21	-0.20257236
160	0xbdeaac75	-0.11458675
161	0xbf024c24	-0.5089743
162	0xbd15e3bd	-0.03659414
163	0xbec31329	-0.38100556
164	0x3e0e7ccf	0.13914798
165	0xbdb275c7	-0.087138705
166	0x3e8546b5	0.26030508
167	0x3f10ff33	0.56639403
168	0xbcb2b772	-0.02181599
169	0x3e01b694	0.12667304
170	0x3ebee869	0.3728669
171	0x3e0cb3f1	0.13740517
172	0x3eaa2b73	0.33236274
173	0xbe0a2ea5	-0.13494356
174	0x3e0f08d7	0.13968216
175	0x3ef9cb61	0.48787978
176	0xbe83676d	-0.25664845
177	0x3ed2e4d3	0.41190204
178	0xbf091b2c	-0.53557086
179	0x3ecb6e05	0.39732376
180	0x3e0ffbcb	0.14060895
181	0xbed16466	-0.4089691
182	0xbd2a3ecd	-0.041563798
183	0x3edc541a	0.43032914
184	0xbec2cea1	-0.3804827
185	0x3d3ec90f	0.046578463
186	0x3dd93524	0.10605839
187	0x3e67cf5d	0.22637697
188	0x3ed0e41a	0.40799028
189	0xbe2b0aa6	-0.16703281
190	0x3c3b1d91	0.011420623
191	0x3e8aab51	0.2708383
192	0x3dae84eb	0.08521446
193	0x3c17bf14	0.009261865
194	0x3ec22696	0.37920064
195	0xbe7c2212	-0.24622372
196	0xbea4da76	-0.32197922
197	0x3edc89b1	0.430738
198	0xbe58af9a	-0.21160737
199	0x3e384aa8	0.17997229
200	0xbea91c15	-0.33029237
201	0x3ec0235e	0.37526983
202	0xbeae0dd7	-0.33994934
203	0x3eeeb2c8	0.46620774
204	0xbed3677e	-0.41289896
205	0xbe03914c	-0.12848395
206	0xbe85db2b	-0.26143774
207	0xbe238d44	-0.15971857
208	0xbc0c98bd	-0.0085813375
209	0xbea034f9	-0.31290415
210	0xbf36a265	-0.71341544
211	0x3e4c0f01	0.19927599
212	0xbf2df5f8	-0.67953444
213	0x3ec680d5	0.38770166
214	0x3e7d8182	0.24756435
215	0xbeac71fb	-0.3368071
216	0xbf4a425d	-0.7900751
217	0x3ee7bfcb	0.45263514
218	0x3f05dc2f	0.522891
219	0x3d006d12	0.031354018
220	0xbe8345c3	-0.2563916
221	0xbdc045fa	-0.09388347
222	0xbe860661	-0.26176742
223	0xbf0ef165	-0.5583709
224	0xbe54faa4	-0.20798737
225	0xbf116fa1	-0.5681096
226	0xbe962021	-0.29321387
227	0x3efc1d85	0.49241272
228	0x3df35243	0.118809246
229	0xbe7f55ec	-0.2493512
230	0x3e8d8313	0.27639064
231	0x3f0df8ea	0.5545794
232	0x3eb6a3ae	0.35671753
233	0x3e8eacd2	0.27866226
234	0x3d2630ed	0.040574003
235	0x3e577740	0.21041584
236	0xbeb9b882	-0.3627358
237	0x3caa30f0	0.020775288
238	0x3ec9eb69	0.39437416
239	0xbedb2ce9	-0.428077
240	0xbdf2944b	-0.11844691
241	0x3e07c6d2	0.13259438
242	0x3e98ab70	0.29818296
243	0x3e8f129f	0.27943894
244	0xbed88a3a	-0.42292958
245	0x3ec02714	0.37529814
246	0x3e1e5f3b	0.15466015
247	0x3e1a2811	0.15054347
248	0x3edbde69	0.42943123
249	0x3e91c057	0.28467056
250	0x3ee6f182	0.4510613
251	0xbec48225	-0.38380542
252	0x3d9e70fa	0.07736392
253	0xbd79065a	-0.060797073
254	0x3e821e75	0.25413862
255	0xbe8eb1e6	-0.278701

VAE_Encoder.layers.1.linear0.bias f4 [128]
0	0x3f0d4329	0.55180603
1	0xbda32369	-0.07965738
2	0xbecd1ef2	-0.40062672
3	0xbec2461d	-0.37944117
4	0x3de4ae0e	0.11166011
5	0xbd9d6fa7	-0.076873116
6	0x3e153d25	0.14574106
7	0xbe21833a	-0.15772715
8	0xbe1734bf	-0.14766215
9	0x3e9e98ae	0.3097586
10	0xbf1b005f	-0.6054744
11	0xbebc55f5	-0.3678433
12	0x3e7e882b	0.24856631
13	0xbe07e2a3	-0.13270049
14	0x3ea16513	0.31522426
15	0xbdca1a46	-0.098682925
16	0xbde0a963	-0.10969808
17	0xbc9bdd72	-0.019026492
18	0x3eda306c	0.42615068
19	0xbdf0eedb	-0.11764308
20	0x3ea9a60d	0.331345
21	0x3ef9642e	0.48709244
22	0x3cf72de2	0.030173246
23	0xbeb7d85b	-0.35907254
24	0x3e29b861	0.16574241
25	0xbdfc9502	-0.123331085
26	0x3e944511	0.28958943
27	0x3e0a5944	0.13510615
28	0x3ee0b948	0.43891358
29	0xbeb0863b	-0.3447741
30	0xbde9727c	-0.11398789
31	0xbe866b97	-0.2625396
32	0x3d8f64b9	0.07001633
33	0x3eacd0c5	0.3375303
34	0xbf18d96d	-0.59706765
35	0x3ec48d69	0.38389137
36	0xbd6d4a6a	-0.057932295
37	0xbe99d12e	-0.30042404
38	0x3e553ccf	0.20823978
39	0xbefd7fce	-0.4951157
40	0xbd01112b	-0.031510513
41	0x3e7b95d8	0.2456888
42	0x3ece318d	0.4027218
43	0xbc300294	-0.010742802
44	0xbdb9f7f4	-0.090804964
45	0x3ec70996	0.388745
46	0xbe8375f3	-0.25675926
47	0x3da19853	0.07890382
48	0x3e1c8cda	0.15288106
49	0xbf23510d	-0.6379555
50	0xbe701f1f	-0.23449372
51	0xbefbf881	-0.4921303
52	0xbbc0eda6	-0.005887705
53	0xbce00c64	-0.027349658
54	0xbd497dce	-0.049192242
55	0x3d72b976	0.0592589
56	0xbe55bc02	-0.208725
57	0xbefc94e6	-0.4933235
58	0x3f008bc5	0.5021327
59	0xbeb43949	-0.35199955
60	0xbd4d02e3	-0.05005158
61	0x3e8f2623	0.27958784
62	0xbecc32af	-0.3988242
63	0xbd979b46	-0.07402663
64	0x3e4dbcb0	0.2009151
65	0x3e606c19	0.21916236
66	0xbd505777	-0.050864663
67	0xbeddcd10	-0.43320513
68	0x3eb9319e	0.36170667
69	0x3d00c801	0.03144074
70	0xbee701f0	-0.45118666
71	0xbee4f459	-0.44717672
72	0x3ea9fc1e	0.33200163
73	0x3ee9f5d7	0.45695373
74	0xbf0ccbcd	-0.54998475
75	0x3d7d8f1f	0.06190407
76	0x3e0d6f81	0.13812067
77	0xbe14b204	-0.14521033
78	0xbe535910	-0.20639443
79	0xbe26e0a3	-0.1629663
80	0x3ed1d13e	0.40979952
81	0x3eb7a81d	0.35870448
82	0x3edfa0c1	0.43677333
83	0x3e951916	0.29120702
84	0xbf19693c	-0.599262
85	0x3e529207	0.20563518
86	0x3e22d60a	0.15901962
87	0xbef285ae	-0.47367615
88	0x3c4eee4f	0.012630059
89	0xbeaaaf55	-0.33336893
90	0x3d5bd77d	0.053672303
91	0xbe687b54	-0.22703296
92	0xbe8a5dac	-0.2702459
93	0xbd541a7d	-0.051783074
94	0xbdc45b3e	-0.095877156
95	0x3e3ac88d	0.18240567
96	0xbe94c304	-0.29055035
97	0x3e0220fd	0.12707897
98	0x3dff9a0d	0.12480555
99	0x3eb18cef	0.34677836
100	0xbeee53b3	-0.46548232
101	0xbd74d7ae	-0.059776
102	0xbe7e9809	-0.24862684
103	0x3d798d27	0.06092563
104	0xbedb5853	-0.42840824
105	0xbeaff068	-0.34363103
106	0x3ea8725b	0.32899746
107	0x3c1ec720	0.00969103
108	0x3ee7f3c4	0.45303166
109	0xbe44c26a	-0.19214788
110	0xbee4b503	-0.4466935
111	0x3ed9eb9c	0.42562568
112	0x3ee0ef52	0.43932587
113	0xbefbfe1b	-0.49217305
114	0xbb7aade9	-0.0038250631
115	0xbe93c97e	-0.28864664
116	0xbe21dd2f	-0.15807031
117	0x3e1de9e7	0.15421258
118	0x3eb7fcd2	0.35935074
119	0xbeb47dd4	-0.3525225
120	0x3d8d18e8	0.06889516
121	0x3e18c313	0.14918165
122	0xbef83fcb	-0.4848617
123	0xbed36578	-0.41288352
124	0x3ef1aa68	0.47200322
125	0xbe78eb93	-0.24308614
126	0xbd667c0e	-0.05627065
127	0x3ebda079	0.37036493

VAE_Encoder.layers.1.linear1.weight f4 [4, 128]
0	0xbda46e23	-0.080288194
1	0xbe348399	-0.17628326
2	0xbd4381b2	-0.04773111
3	0xbd3df900	-0.046380043
4	0xbdc20a8d	-0.09474669
5	0x3e4b62a6	0.1986185
6	0xbd4e6951	-0.050393406
7	0x3cabfb74	0.020993926
8	0xbd8517ab	-0.06498655
9	0x3d0ff5e5	0.035146613
10	0x3ea38d78	0.3194387
11	0x3d82fa52	0.06395401
12	0x3d101b04	0.035182014
13	0xbd6ff0fe	-0.058579437
14	0xbdab439e	-0.08362506
15	0xbc83f0e7	-0.016106082
16	0x3dbab623	0.09116771
17	0xbd91ea7c	-0.071248025
18	0xbdcd776a	-0.10032542
19	0xbdba6643	-0.09101536
20	0x3d4d55d8	0.050130695
21	0xbbcafd47	-0.006194744
22	0x3e325d54	0.17418414
23	0xbdcae343	-0.09906628
24	0x3dbd839f	0.0925362
25	0xbd2c8156	-0.04211553
26	0xbdc9bc9c	-0.098504275
27	0xbc991e33	-0.018691158
28	0x3d6cb253	0.05778725
29	0xbdccbd72	-0.09997071
30	0xbc1fce58	-0.009753786
31	0xbd5e5d2a	-0.054288067
32	0x3d613096	0.054977976
33	0xbf23bb27	-0.63957447
34	0xbe4e1e66	-0.20128784
35	0x3ce35955	0.027752558
36	0xbc30a079	-0.010780447
37	0xbd7045cb	-0.05866031
38	0xbd988710	-0.07447636
39	0x3e72bfb8	0.23705947
40	0xbdc2508d	-0.0948802
41	0x3d2348e9	0.039864454
42	0x3b118a59	0.0022207706
43	0x3e12dbe7	0.14341699
44	0xbe3bae36	-0.18328175
45	0x3e112d2c	0.14177388
46	0xbdeef219	-0.1166727
47	0x3c02d58b	0.007985483
48	0x3c03fba4	0.008055601
49	0xbf5448b6	-0.8292345
50	0xbe4c02d3	-0.19922952
51	0x3d9356fe	0.07194327
52	0xbe572222	-0.21009114
53	0x3ed10e57	0.40831253
54	0x3ea4b895	0.32172075
55	0xbc996844	-0.018726476
56	0xbd470118	-0.048585027
57	0x3e81ee92	0.25377327
58	0xbc065fee	-0.008201582
59	0x3bee0ac4	0.007264467
60	0xbcf6a0dc	-0.030106
61	0xbdbed3c7	-0.09317737
62	0xbd22c94b	-0.03974275
63	0x3c247a7e	0.01003897
64	0x3c8646d7	0.016391201
65	0x3d93f6e4	0.07224825
66	0x3e087f52	0.13329819
67	0x3e0f0e7e	0.13970372
68	0x3cc14ba7	0.023595644
69	0xbb7f4ad5	-0.0038954515
70	0x3d03c52e	0.032170467
71	0x3e35a3dc	0.17738289
72	0xbd143c4b	-0.036190312
73	0x3ba5b8c4	0.005057426
74	0x3f043d86	0.5165638
75	0xbe2ff36a	-0.17182699
76	0x3cc949bf	0.024571298
77	0x3c1781ff	0.009247302
78	0x3b9577e4	0.004561411
79	0x3d82bff1	0.06384266
80	0x3d159452	0.036518402
81	0xbbbe9f0c	-0.0058172997
82	0x3abe9428	0.0014540004
83	0x3dbe429c	0.092900485
84	0xbdc70d06	-0.09719281
85	0xbe1d8313	-0.15382032
86	0x3cde4c59	0.027136015
87	0x3dbe3873	0.092881106
88	0xbc8ee389	-0.017442482
89	0xbd6ab07d	-0.05729722
90	0x3d24c32b	0.04022519
91	0x3f2023ef	0.6255483
92	0x3c5b72c0	0.013394058
93	0x3cb2919b	0.021797946
94	0x3dd73e4a	0.105099276
95	0x3c82f612	0.015986476
96	0x3d5b8b8b	0.053599875
97	0xbd1d2ce0	-0.038372874
98	0x3cfbad88	0.030722395
99	0xbe6221e1	-0.22083236
100	0xbd069bf2	-0.032863565
101	0x3d53785b	0.05162845
102	0x3c11e60a	0.008904943
103	0xbd98c7a3	-0.07459953
104	0x3eba0b07	0.36336538
105	0xbd9323a4	-0.07184532
106	0xbc964a11	-0.018345864
107	0xbd542f07	-0.05180266
108	0xbbc480ea	-0.005996813
109	0xbd1ef4c4	-0.038807645
110	0xbd8b0e01	-0.067897804
111	0xbd8b33c3	-0.06796982
112	0x3d4a15bc	0.049337134
113	0xbe2683e6	-0.16261253
114	0xbce5ac52	-0.02803627
115	0xbd9b1128	-0.07571632
116	0x3d685f39	0.056731436
117	0x3d5966d2	0.053076573
118	0x3df4238a	0.11920841
119	0xbc6107e1	-0.013734789
120	0x3dbe937a	0.09305473
121	0x3d185fc0	0.03720069
122	0xbde3e72b	-0.11128076
123	0x3ccc00d1	0.024902733
124	0x3d4fdd0c	0.050747916
125	0xbdb0a755	-0.08625666
126	0xbc9e7bef	-0.019346206
127	0xbbe90f2f	-0.0071124057
128	0x3de331b7	0.11093467
129	0xbce1bb19	-0.027555035
130	0x3e56b24f	0.20966457
131	0xbe2873cf	-0.16450427
132	0x3d63de68	0.055632025
133	0xbd00f1db	-0.03148065
134	0x3cf9c7f7	0.030490858
135	0xbcd0e10d	-0.025497938
136	0xbccbd85c	-0.024883442
137	0xb8ee2b45	-0.00011356784
138	0x3c1bef71	0.0095175365
139	0xbd41b602	-0.047292717
140	0x3b247ec0	0.0025099963
141	0xbca7046e	-0.020387854
142	0x3cbeb97a	0.023281801
143	0xbccd72cc	-0.025079153
144	0xbca99ecd	-0.020705605
145	0xbcd2218b	-0.02565076
146	0x3da013e7	0.07816296
147	0xbd21fac6	-0.039545797
148	0x3ca9f068	0.020744517
149	0xbd83462c	-0.064098686
150	0x3cc76f53	0.024345076
151	0x3dac8257	0.08423298
152	0x3d5892c5	0.052874345
153	0x3dac47d4	0.08412138
154	0xbdc00680	-0.0937624
155	0xbd07d31a	-0.033160307
156	0xbd4e08ef	-0.05030149
157	0xbd41b966	-0.04729595
158	0xbd525373	-0.051349115
159	0x3ddcefb5	0.10787908
160	0x3d419230	0.047258556
161	0x3e0dc53d	0.13844772
162	0xbdb29724	-0.08720234
163	0xbc0b7e5d	-0.008514014
164	0xbda8f782	-0.08250333
165	0xbd04ce4d	-0.032423306
166	0x3d29df75	0.04147287
167	0x3d58b3f7	0.052906003
168	0xbdae8b0a	-0.08522613
169	0xbcf956d1	-0.030436905
170	0xbbae8aaf	-0.005326591
171	0xbc5ae865	-0.013361071
172	0xbdc56cc7	-0.09639888
173	0x3cd3c084	0.025848635
174	0x3e2b0d41	0.16704275
175	0x3db45824	0.08805874
176	0xbdaf8886	-0.08570962
177	0x3e9861c4	0.2976209
178	0x3d9b19e6	0.07573299
179	0x3ca5d02d	0.020240868
180	0x3cb4171a	0.021983672
181	0x3dcb7832	0.09935035
182	0x3e18eadb	0.1493334
183	0x3cc92a84	0.024556406
184	0x3d08ce87	0.033400085
185	0x3d746d70	0.05967468
186	0xbcca293f	-0.02467787
187	0x3d059f91	0.032622878
188	0xba45c765	-0.0007544666
189	0x3d6532a8	0.055956513
190	0x3c465700	0.012105703
191	0xbd5fc875	-0.05463453
192	0x3c410d3c	0.0117829405
193	0xbd6809ac	-0.05664985
194	0xbd826000	-0.06365967
195	0xbe160f64	-0.14654309
196	0xbd41f7c6	-0.047355436
197	0xbd3f590b	-0.046715777
198	0xbda73f7b	-0.08166405
199	0xbecb5127	-0.39710352
200	0x3c45440e	0.012040151
201	0xbd867e7b	-0.06567093
202	0xbe2e8f9a	-0.17046967
203	0x3d643533	0.055714797
204	0x3d16b721	0.03679574
205	0x3db6347c	0.08896729
206	0x3dd2c03f	0.10290574
207	0xbd0200a6	-0.0317389
208	0xbd0017f2	-0.031272836
209	0xbc6fdce9	-0.014640071
210	0x3e1666fb	0.14687721
211	0x3df50db0	0.11965501
212	0x3c0f21e0	0.008736104
213	0x3e2865bb	0.16445057
214	0x3d058a0c	0.032602355
215	0xbd1a042b	-0.03760163
216	0x3ca7b39e	0.02047139
217	0x3d82e72b	0.06391748
218	0x3da868e4	0.08223131
219	0x3f263acd	0.6493347
220	0xbd894f3a	-0.067045644
221	0x3cd7c1a0	0.026337445
222	0xbc91f5b4	-0.017817356
223	0x3d5d90d5	0.0540932
224	0x3ca37c9a	0.019956876
225	0xbd4ad89e	-0.04952299
226	0x3d8fb0e7	0.07016163
227	0x3bcc2924	0.0062304903
228	0x3d4bd0c0	0.049759626
229	0xbb6a861f	-0.0035785509
230	0xbda92bac	-0.08260283
231	0xbd5b35bd	-0.053518046
232	0xbb9c56d6	-0.004771094
233	0xbcbc6dc3	-0.023001557
234	0xbbe4b622	-0.0069797197
235	0x3daab101	0.08334542
236	0x3d44cc7e	0.04804658
237	0x3e182dd1	0.14861228
238	0x3e223ce7	0.15843545
239	0xbd2fe2f6	-0.042941056
240	0x3c72ef2e	0.014827533
241	0x3e2a1c72	0.16612414
242	0xbd7f55d2	-0.062337704
243	0x3dbea1c7	0.093082
244	0xbd1bee80	-0.03806925
245	0x3c191b2c	0.009344857
246	0xbdb263bf	-0.08710431
247	0x3cdbf266	0.026848983
248	0xbba7e1c0	-0.005123347
249	0xbd0a5615	-0.0337735
250	0xbdc1ad2d	-0.09456859
251	0xbca3542a	-0.019937593
252	0xbd6dfd9c	-0.05810319
253	0xbcd85cb2	-0.026411388
254	0x3d6b1b9b	0.057399374
255	0xbd39aa7f	-0.045328613

VAE_Encoder.layers.1.linear1.bias f4 [4]
0	0x3b76f2b3	0.003768128
1	0xbaaf011e	-0.0013351773
2	0xbe1b228f	-0.15149902
3	0xbb85da05	-0.004084828

VAE_Encoder.layers.1.norm1.weight f4 [4]
0	0x3f8b4b64	1.0882382
1	0x3f927835	1.1442934
2	0x3f82feff	1.0234069
3	0x3f8753a5	1.0572401

VAE_Encoder.layers.1.norm1.bias f4 [4]
0	0x3d7866fb	0.060645085
1	0x3be5d1ee	0.007013551
2	0xbc81411f	-0.015778122
3	0xbdac5688	-0.08414942

VAE_Encoder.layers.1.norm0.weight f4 [4]
0	0x3f2dd7fa	0.6790768
1	0x3f675cc1	0.90375906
2	0x3f67675b	0.9039208
3	0x3f51829c	0.8183992

VAE_Encoder.layers.1.norm0.bias f4 [4]
0	0xbaf806e0	-0.0018922947
1	0x3b7cadbb	0.00385557
2	0x3e3bd08c	0.18341273
3	0x3aa0d5b6	0.0012270722

VAE_Encoder.last_normalization.weight f4 [4]
0	0x3f800000	1.0
1	0x3f800000	1.0
2	0x3f800000	1.0
3	0x3f800000	1.0

VAE_Encoder.last_normalization.bias f4 [4]
0	0x00000000	0.0
1	0x00000000	0.0
2	0x00000000	0.0
3	0x00000000	0.0

VAE_Encoder.head.weight f4 [4, 4]
0	0x3ee0d3e4	0.4391166
1	0x3ee747a6	0.4517185
2	0x3e978168	0.29590917
3	0x3e05e8e0	0.13077116
4	0x3db0de00	0.08636093
5	0xbe273fd4	-0.16332942
6	0xbedfb022	-0.43689066
7	0x3dfeb670	0.12437141
8	0x3e40c4ec	0.1882512
9	0xbeba5f60	-0.3640089
10	0xbebd1a9e	-0.3693437
11	0xbe4d08cc	-0.20022887
12	0xbe51310c	-0.20428866
13	0xbe54ee08	-0.20793927
14	0xbd8d8b30	-0.069113135
15	0x3eaef8a2	0.34174067

VAE_Encoder.head.bias f4 [4]
0	0xbef3c2e2	-0.4760962
1	0x3e626a28	0.22110808
2	0xbee2054a	-0.4414466
3	0xbea1ef7a	-0.3162802
