restsyn/tabsyn/vae/ckpt/adult_cond/model.pt (torch, 69030 bytes, 112 tensors)

VAE.Tokenizer.weight f4 [6, 4]
-0.18065003 0.43951482 -0.31043792 -0.28008497 -0.023499178 -0.018874072 -0.40226448 -0.46545902
-0.021746617 0.14905117 -0.31032285 0.07743913 -0.42333275 -0.3895551 0.13100637 -0.32701805
0.14057486 -0.08847931 -0.35771033 -0.09548426 0.06326405 0.083025336 -0.25699604 0.11260675
00000000: 52fc 38be 1608 e13e b8f1 9ebe 4c67 8fbe
00000010: 5981 c0bc cc9d 9abc 9cf5 cdbe a550 eebe
00000020: f625 b2bc dfa0 183e a3e2 9ebe 6898 9e3d
00000030: 12bf d8be c473 c7be 8926 063e e96e a7be
00000040: dbf2 0f3e a434 b5bd cf25 b7be 408d c3bd
00000050: 9590 813d 3009 aa3d fc94 83be 5e9e e63d

VAE.Tokenizer.bias f4 [14, 4]
-0.31626225 -0.16363426 -0.3806957 -0.45350775 0.23783568 0.017571958 0.38062564 0.047624804
0.30128372 0.3670146 -0.054430958 0.38028497 -0.24261157 -0.14241935 -0.18500732 0.3612409
0.25319567 0.48888382 0.020930594 -0.031566735 0.46025157 -0.33967692 0.35251817 -0.20339376
-0.49613523 0.4664974 -0.094091944 0.3831814 -0.13789307 -0.2695913 -0.034347426 0.4450488
0.4661178 0.40645117 0.1179919 -0.2550883 0.2535255 -0.20195548 0.06843345 -0.39707828
-0.14523691 0.08723616 -0.50744706 -0.30404016 -0.4541023 0.23937309 -0.15289035 -0.01714362
-0.45583093 0.45111692 0.13269483 0.42516163 0.39666033 -0.084857985 0.02783901 0.22018823
00000000: 20ed a1be bd8f 27be 8cea c2be 2b32 e8be
00000010: 328b 733e 11f3 8f3c 5de1 c23e 3a12 433d
00000020: dc41 9a3e 56e9 bb3e fff2 5ebd b6b4 c23e
00000030: 2b6f 78be 61d6 11be 8f72 3dbe 91f4 b83e
00000040: dda2 813e fb4e fa3e a376 ab3c 1f4c 01bd
00000050: 18a6 eb3e 22ea adbe 437d b43e 7446 50be
00000060: 7005 febe bfd8 ee3e 47b3 c0bd 5a30 c43e
00000070: d733 0dbe df07 8abe e3af 0cbd 70dd e33e
00000080: fea6 ee3e 5e1a d03e bda5 f13d ef9a 82be
00000090: 18ce 813e 6bcd 4ebe d626 8c3d d84d cbbe
000000a0: fcb8 14be dfa8 b23d 0de8 01bf 27ab 9bbe
000000b0: 1980 e8be 381e 753e 4a8f 1cbe c770 8cbc
000000c0: ac62 e9be ccf8 e63e 27e1 073e c9ae d93e
000000d0: 1017 cb3e 06ca adbd a30e e43c 0679 613e

VAE.Tokenizer.category_embeddings.weight f4 [50, 4]
0.15153351 0.2024527 -0.1349635 0.44356415 0.05476784 0.06593843 -0.41369796 0.17937116
0.14833905 -0.1685024 -0.4928648 0.38155025 0.01886365 0.36516425 0.43400165 -0.07918048
-0.46879414 0.29653203 -0.07241792 0.44543594 0.3674199 -0.21397778 -0.4273911 0.33911574
0.38023776 -0.45178768 0.18643166 -0.18181796 0.005630139 -0.04763094 -0.3364354 -0.4607512
-0.22450869 0.014854181 0.47361374 0.12790462 0.3762688 -0.44973192 -0.14819546 -0.14325665
-0.44433373 0.2371142 0.38025555 -0.10255945 -0.0644291 -0.4226582 -0.30811623 -0.18457657
0.35866052 0.3684484 0.05620031 0.40844467 -0.23766421 0.0028548418 -0.30549818 -0.33252457
-0.15692252 0.4071153 0.1666331 -0.16707839 -0.25245553 0.19088629 -0.3333474 -0.24080186
0.39898852 -0.16092409 -0.20599997 0.2177363 -0.09216006 -0.092870034 0.2192275 0.2895663
0.051124126 -0.05673867 -0.3213124 -0.0945166 0.2034143 -0.30368266 0.41942096 0.4808397
-0.20463039 0.48643318 0.123577766 -0.38389072 -0.4182752 0.0045704297 -0.40378255 0.09675866
0.19928008 0.38256344 -0.18470237 -0.31965172 0.23066404 0.14581788 0.0023898676 -0.10396465
-0.3020947 0.10493554 -0.10067107 0.49404916 0.44859132 0.14879832 0.22688834 0.16424042
0.17563003 -0.05714998 0.031976044 -0.42421862 -0.006584567 0.27145746 -0.08876236 -0.34113285
0.14337745 0.22024007 0.41151583 -0.40715566 -0.27396938 0.09514504 0.43311507 -0.2061164
-0.30548987 0.47694093 0.0731002 0.00724604 -0.25984678 -0.32829013 -0.12924112 -0.029565983
0.30302307 0.22735922 0.20595714 -0.108969346 0.017362319 0.43202066 -0.29484138 0.49992898
0.09166426 -0.10020499 0.38917968 -0.031309217 -0.09800028 0.49671072 -0.4102532 0.19407235
-0.27328137 0.30413917 -0.0026594375 -0.049211018 -0.15378575 0.43543735 0.35177687 0.1628471
-0.084481776 -0.37214816 0.10107832 0.007378458 -0.4935535 -0.4189624 -0.25167683 -0.07340106
0.13400711 0.24628656 0.23862347 0.4675812 0.45656532 0.16048108 -0.13118142 0.26327172
-0.33753034 -0.0022797731 0.38467026 -0.23550214 -0.2779504 0.3193909 0.20738906 0.43065932
-0.26520458 0.27642846 0.02707846 -0.09569407 -0.17992483 -0.3531842 -0.3372755 0.021062588
0.36975643 0.040971834 0.08105497 -0.42774695 -0.24968652 -0.061548088 0.16831067 0.21426813
0.058943484 0.31911233 0.049601488 0.19145691 -0.30479506 0.30437842 0.20661159 0.33060172
00000000: 9a2b 1b3e c34f 4f3e df33 0abe d71a e33e
00000010: 3e54 603d ba0a 873d 38d0 d3be 13ad 373e
00000020: 31e6 173e e58b 2cbe c658 fcbe 8e5a c33e
00000030: f187 9a3c cff6 ba3e 7735 de3e 6029 a2bd
00000040: c905 f0be 0cd3 973e d94f 94bd 2e10 e43e
00000050: 761e bc3e fe1c 5bbe 02d3 dabe 94a0 ad3e
00000060: 86ae c23e b750 e7be f1e7 3e3e 7d2e 3abe
00000070: 077d b83b a918 43bd 4341 acbe 95e7 ebbe
00000080: 9be5 65be f35e 733c 807d f23e 6ef9 023e
00000090: 4ea6 c03e 4343 e6be 8dc0 17be dfb1 12be
000000a0: b67f e3be 11ce 723e dbb0 c23e b00a d2bd
000000b0: 67f3 83bd a866 d8be 69c1 9dbe a401 3dbe
000000c0: 5aa2 b73e 45a5 bc3e 4c32 663d a91f d13e
000000d0: 3f5e 73be 4c18 3b3b 426a 9cbe a940 aabe
000000e0: 4cb0 20be 6b71 d03e dea1 2a3e 9916 2bbe
000000f0: da41 81be b277 433e 83ac aabe c394 76be
00000100: 3948 cc3e 49c9 24be a8f1 52be 44f6 5e3e
00000110: 6abe bcbd a532 bebd 2c7d 603e 0942 943e
00000120: 8867 513d cf66 68bd 0f83 a4be eb91 c1bd
00000130: d74b 503e 4b7c 9bbe 58be d63e 9f30 f63e
00000140: a18a 51be c50d f93e 5716 fd3d 538d c4be
00000150: 2b28 d6be 8bc3 953b 96bc cebe 6829 c63d
00000160: 1410 4c3e 5bdf c33e 9e22 3dbe 64a9 a3be
00000170: 3233 6c3e 4851 153e 539f 1c3b 6beb d4bd
00000180: 28ac 9abe 72e8 d63d a22c cebd 03f4 fc3e
00000190: c3ad e53e 965e 183e 6b55 683e a42e 283e
000001a0: 5cd8 333e 1916 6abd 50f9 023d 2f33 d9be
000001b0: 5ac3 d7bb 79fc 8a3e 0ac9 b5bd f7a8 aebe
000001c0: 8ad1 123e 9d86 613e 34b2 d23e b576 d0be
000001d0: b745 8cbe 67db c23d 42c1 dd3e 2d10 53be
000001e0: 2b69 9cbe 9a31 f43e 8fb5 953d 3070 ed3b
000001f0: a30a 85be a515 a8be c957 04be 5c34 f2bc
00000200: d725 9b3e dbd0 683e 6ee6 523e 522b dfbd
00000210: 6c3b 8e3c d031 dd3e 73f5 96be b1f6 ff3e
00000220: 79ba bb3d 4638 cdbd 8f42 c73e 183e 00bd
00000230: 5fb4 c8bd de50 fe3e b50c d2be e7ba 463e
00000240: 89eb 8bbe 21b8 9b3e f549 2ebb 7e91 49bd
00000250: 037a 1dbe a5f1 de3e 191c b43e 64c1 263e
00000260: c804 adbd 348a bebe 2602 cf3d fec6 f13b
00000270: 0bb3 fcbe 3d82 d6be c9db 80be 4c53 96bd
00000280: 2939 093e 8b32 7c3e b659 743e ce66 ef3e
00000290: eec2 e93e 2755 243e 6c54 06be 8dcb 863e
000002a0: c7d0 acbe 3f68 15bb 80f3 c43e 7927 71be
000002b0: 844f 8ebe 3487 a33e cc5d 543e 617f dc3e
000002c0: e5c8 87be 0888 8d3e a6d3 dd3c 41fb c3bd
000002d0: 373e 38be 8fd4 b4be 60af acbe 738b ac3c
000002e0: b750 bd3e 15d2 273d 2600 a63d a601 dbbe
000002f0: d3ad 7fbe d919 7cbd a259 2c3e 1b69 5b3e
00000300: b96e 713d b162 a33e ee2a 4b3d 480d 443e
00000310: 190e 9cbe 7dd7 9b3e fd91 533e a144 a93e

VAE.encoder_mu.layers.0.attention.W_q.weight f4 [4, 4]
0.4223383 -0.19357128 -0.21557468 0.10392538 -0.021513833 0.30608326 -0.44311422 -0.29200113
-0.07523572 0.0380005 -0.49530444 0.11126614 -0.3553227 0.22196005 -0.28606796 0.0525344
00000000: ba3c d83e 8d37 46be 9cbf 5cbe d4d6 d43d
00000010: c73d b0bc f2b6 9c3e dedf e2be 2c81 95be
00000020: 2f15 9abd 6aa6 1b3d 8b98 fdbe 81df e33d
00000030: dbec b5be 7f49 633e 8077 92be 502e 573d

VAE.encoder_mu.layers.0.attention.W_q.bias f4 [4]
0.0074397377 0.0059161903 -0.007720609 0.0072396547
00000000: 0bc9 f33b 9adc c13b 2afd fcbb a03a ed3b

VAE.encoder_mu.layers.0.attention.W_k.weight f4 [4, 4]
-0.21822485 0.24348995 -0.49369258 0.1513271 -0.0050081755 0.41490054 0.102581695 -0.40441486
0.4058965 -0.27602643 -0.054665625 -0.3723308 -0.48806605 0.050495993 0.37369087 -0.031980608
00000000: 5676 5fbe 6e55 793e 46c5 fcbe 7ef5 1a3e
00000010: 9f1b a4bb d86d d43e 5a16 d23d 770f cfbe
00000020: abd1 cf3e 5653 8dbe 10e9 5fbd 25a2 bebe
00000030: cbe3 f9be e3d4 4e3d 6954 bf3e 19fe 02bd

VAE.encoder_mu.layers.0.attention.W_k.bias f4 [4]
0.00031983887 0.0003360145 0.00022874938 1.7715718e-05
00000000: 0cb0 a739 1a2b b039 72dc 6f39 379c 9437

VAE.encoder_mu.layers.0.attention.W_v.weight f4 [4, 4]
0.42312142 -0.14188725 0.17793313 -0.2880292 -0.11895738 0.31895778 -0.32985738 -0.36159682
0.16920087 -0.43958643 0.48976225 -0.24940424 0.42467374 0.44162366 -0.20311904 -0.41958028
00000000: 5fa3 d83e e44a 11be 1a34 363e 9078 93be
00000010: ed9f f3bd 6f4e a33e 11e3 a8be 3823 b9be
00000020: fe42 2d3e 7911 e1be 1ec2 fa3e d363 7fbe
00000030: d66e d93e 7f1c e23e 70fe 4fbe 3ad3 d6be

VAE.encoder_mu.layers.0.attention.W_v.bias f4 [4]
-0.0067840214 0.0072882134 -0.0052905576 -0.007925594
00000000: 7f4c debb f7d1 ee3b 6a5c adbb 5ada 01bc

VAE.encoder_mu.layers.0.linear0.weight f4 [128, 4]
0.07847728 -0.344624 0.1947458 0.45277694 0.44292474 -0.08434968 -0.2201584 -0.39092445
0.33861658 0.354465 -0.47076538 0.0007205685 0.12553158 0.18680382 0.39789188 -0.3726917
0.10223446 -0.15944248 0.46566713 -0.22164236 -0.056146335 -0.16336633 -0.28450963 -0.1923664
0.06531727 -0.0063057593 -0.02090124 0.4991328 0.2157153 0.025536347 -0.09725874 -0.025247643
0.19621897 0.4845416 0.40534753 0.3894636 0.048181646 -0.23236345 -0.20286466 -0.0008014759
-0.11105809 -0.28600237 -0.28504106 -0.44706967 0.04838681 0.3708538 0.5021297 -0.21644068
-0.3873078 -0.108676195 0.098149195 0.20562892 0.4779969 -0.42921537 0.2732049 -0.077683195
0.087858036 -0.3572994 -0.2909549 -0.39684576 -0.4653126 0.059891067 0.17037936 -0.20160116
-0.47882864 -0.48641455 -0.035459485 0.3758435 -0.2645787 0.2782557 0.29580867 0.07942837
0.09617656 -0.02259284 0.27438933 0.3154444 0.43348438 -0.42764962 0.5047875 -0.46579322
0.40663186 0.108893745 -0.3720549 -0.28864086 0.25277403 -0.10251002 0.15774865 0.4744836
0.10317817 -0.4801436 0.23346011 -0.28157967 0.35618708 0.34669694 0.021829134 0.47648272
-0.22294615 0.2270546 0.21946715 -0.13674365 -0.34640458 -0.11463689 0.12092915 0.2818136
-0.15545523 -0.41955686 -0.45083347 0.36906528 -0.27931297 -0.48023325 0.044143204 0.31509766
-0.19123499 0.49094263 -0.38483396 -0.20051935 -0.0003502495 0.26868656 0.2982927 -0.13728528
-0.4193242 0.04206309 -0.29407328 -0.256139 0.24446781 -0.06388089 -0.009185326 0.12585728
0.36009496 0.04991912 0.03699299 -0.33226386 -0.49149486 0.17646055 -0.320011 0.18627433
0.11761385 0.2506704 -0.18770313 0.38913265 0.267085 0.080670826 0.032034293 0.22839293
0.24370055 0.35251415 0.0133845005 0.23742308 0.0756274 0.012239559 0.45173234 0.022326909
-0.10560449 0.1442884 0.16821586 0.19454002 0.025245294 0.2443415 0.25565284 0.09658426
0.16028465 -0.23700404 -0.38989422 0.47824192 0.32246745 -0.22040272 -0.31661516 -0.05718884
0.28809586 -0.10868434 -0.2814639 -0.09002482 0.27240336 -0.13037534 -0.112527125 -0.29281574
-0.20126505 0.48620307 0.046574507 -0.4456461 -0.03841574 -0.48433298 0.41631034 -0.32591125
-0.20627876 0.16630092 0.061295085 -0.17363715 -0.30185917 -0.456198 -0.1900315 -0.40645206
0.09750948 -0.49224102 -0.23420976 0.11835386 0.13847035 0.39091727 0.27121145 -0.38888308
0.46159488 0.4485394 -0.21384816 -0.27914402 -0.26304483 0.3985472 -0.38174084 -0.18924868
0.27564475 -0.38732767 0.16857208 -0.3487793 -0.4510101 -0.1433156 -0.42200804 0.032274015
-0.0017092673 -0.27338853 -0.06353712 0.43595892 0.18210195 0.44170615 0.13863873 0.38709572
0.13199927 -0.15075947 0.2319046 0.07741731 0.049432233 0.38071695 0.18390562 -0.0051629413
-0.27428275 -0.47374314 0.1134159 0.006249894 -0.16433817 0.39613518 0.3189701 -0.17086099
0.2685995 -0.017701834 -0.3476265 0.13335578 -0.17423157 -0.38034582 0.35350057 -0.066092074
0.39895433 -0.34500894 -0.050452624 0.201988 -0.38078618 0.325406 0.3116424 0.30247158
00000000: b2b8 a03d 8f72 b0be 716b 473e 61d2 e73e
00000010: 08c7 e23e 86bf acbd 3471 61be 4027 c8be
00000020: 275f ad3e 707c b53e 2908 f1be 89e4 3c3a
00000030: 5a8b 003e 8049 3f3e 7cb8 cb3e 72d1 bebe
00000040: 4d60 d13d e444 23be ec6b ee3e 37f6 62be
00000050: b3f9 65bd 8149 27be 3fab 91be b3fb 44be
00000060: 10c5 853d 8ba0 cebb 1439 abbc 568e ff3e
00000070: 79e4 5c3e 9a31 d13c 972f c7bd 25d4 cebc
00000080: a0ed 483e d615 f83e b689 cf3e c667 c73e
00000090: 1e5a 453d aff0 6dbe c1bb 4fbe 231a 52ba
000000a0: 6d72 e3bd e76e 92be e7f0 91be 51e6 e4be
000000b0: 3f31 463d 8de0 bd3e 928b 003f a0a2 5dbe
000000c0: 354d c6be a091 debd 7202 c93d 6390 523e
000000d0: 02bc f43e 1ec2 dbbe 83e1 8b3e 5e18 9fbd
000000e0: eaee b33d f2ef b6be 0af8 94be 5e2f cbbe
000000f0: 743d eebe 5650 753d ed77 2e3e 8970 4ebe
00000100: 0729 f5be 540b f9be f73d 11bd 8f6e c03e
00000110: dc76 87be 8877 8e3e 3c74 973e 57ab a23d
00000120: 37f8 c43d 9f14 b9bc c27c 8c3e ee81 a13e
00000130: aaf1 dd3e e4f4 dabe c139 013f 737c eebe
00000140: 0d32 d03e af03 df3d fb7d bebe bcc8 93be
00000150: 996b 813e c6f0 d1bd dd88 213e 84ef f23e
00000160: 144f d33d 62d5 f5be 2b10 6f3e 362b 90be
00000170: 275e b63e 4382 b13e 03d3 b23c 8bf5 f33e
00000180: ff4b 64be 0081 683e ffbb 603e 8706 0cbe
00000190: f15b b1be bfc6 eabd b4a9 f73d df49 903e
000001a0: a82f 1fbe 28d0 d6be a5d3 e6be 20f6 bc3e
000001b0: 1c02 8fbe 22e1 f5be 81cf 343d 7b54 a13e
000001c0: 1bd3 43be d55c fb3e f508 c5be f254 4dbe
000001d0: b1a1 b7b9 4991 893e d2b9 983e 8394 0cbe
000001e0: a9b1 d6be 594a 2c3d c690 96be a724 83be
000001f0: c555 7a3e fcd3 82bd 0d7e 16bc bbe0 003e
00000200: 5e5e b83e fe77 4c3d f685 173d 7d1e aabe
00000210: 37a5 fbbe 13b2 343e 7bd8 a3be b3be 3e3e
00000220: 88df f03d df57 803e 4035 40be 653c c73e
00000230: 5dbf 883e bf36 a53d 6436 033d d6df 693e
00000240: a38c 793e bc7c b43e aa4a 5b3c 091f 733e
00000250: 8ae2 9a3d 6e88 483c 7649 e73e ece6 b63c
00000260: 2b47 d8bd 57c0 133e c740 2c3e 8035 473e
00000270: 38cf ce3c a834 7a3e eee4 823e f8cd c53d
00000280: a921 243e 30b1 72be 37a0 c7be 20dc f43e
00000290: 741a a53e 40b1 61be 621b a2be d83e 6abd
000002a0: 4d81 933e e595 debd 091c 90be ef5e b8bd
000002b0: 7478 8b3e 1d81 05be 9f74 e6bd f2eb 95be
000002c0: 6d18 4ebe 9cef f83e e9c4 3e3d ba2b e4be
000002d0: d359 1dbd 7efa f7be a126 d53e d7dd a6be
000002e0: bd3a 53be ca4a 2a3e 8e10 7b3d f0cd 31be
000002f0: 498d 9abe c992 e9be 9e97 42be 7c1a d0be
00000300: 0db3 c73d 0407 fcbe afd4 6fbe 8263 f23d
00000310: 2ccb 0d3e 4f26 c83e 3adc 8a3e af1b c7be
00000320: 2a56 ec3e f5a6 e53e 03fb 5abe f7eb 8ebe
00000330: d0ad 86be 610e cc3e 8973 c3be 68ca 41be
00000340: 4f21 8d3e d04f c6be 299e 2c3e 3393 b2be
00000350: ccea e6be 53c1 12be 7011 d8be c231 043d
00000360: 7e09 e0ba 95f9 8bbe c01f 82bd 0236 df3e
00000370: ef78 3a3e 4f27 e23e 50f7 0d3e 6931 c63e
00000380: d12a 073e b160 1abe 6678 6d3e f78c 9e3d
00000390: 7479 4a3d 55ed c23e c151 3c3e e42d a9bb
000003a0: ca6e 8cbe 768e f2be 9846 e83d e9cb cc3b
000003b0: 4448 28be 3bd2 ca3e 0d50 a33e 2ff6 2ebe
000003c0: e085 893e 7003 91bc 1afc b1be 6b8e 083e
000003d0: c369 32be b0bc c2be 07fe b43e 485b 87bd
000003e0: be43 cc3e 03a5 b0be 69a7 4ebd f1d5 4e3e
000003f0: 68f6 c2be 9d9b a63e 988f 9f3e 8edd 9a3e

VAE.encoder_mu.layers.0.linear0.bias f4 [128]
-0.016294938 -0.22806263 -0.043722663 -0.24031304 -0.4177569 0.23945819 0.19146775 0.04474585
-0.46747333 0.061247934 -0.35063317 0.4470806 -0.40335417 -0.37417722 0.2388247 -0.2587595
-0.37402937 -0.40691862 -0.50156385 0.025118425 -0.10475284 -0.27686608 -0.29056513 -0.25867143
0.322847 -0.20403099 -0.37734362 -0.14099297 0.33551422 0.19018814 -0.06843598 0.45266342
0.39598635 -0.104112424 0.061345708 0.02332706 0.11182491 0.42709675 -0.341706 0.30823228
0.22757044 0.06725046 -0.26437274 0.38215175 -0.41201097 -0.05837588 0.41609833 -0.042772897
0.2269788 -0.3757054 -0.15944315 0.3993126 -0.096447185 0.09500068 0.14591676 0.4851782
0.4765864 -0.35709417 0.37342903 0.3858542 -0.35439935 -0.24486752 0.49722204 0.22519742
-0.36445084 0.37925163 0.41720325 -0.27358004 0.0051737274 0.41204557 -0.16478367 -0.11433393
-0.22251324 0.14477468 0.32429677 -0.11278649 -0.41690612 0.12226958 -0.37125784 -0.22052188
-0.34529746 -0.026538786 -0.07121772 -0.4816975 -0.035117656 -0.20480157 -0.06936799 0.19116187
-0.3130567 0.17892306 0.29933563 -0.05108202 -0.28636476 -0.35207286 -0.43681148 -0.27098918
-0.22882585 0.30421752 -0.0803317 0.08498608 0.40940937 0.46046856 0.09238998 0.37000948
0.26636568 0.30419067 0.05393642 -0.16477902 -0.23525307 -0.13554071 -0.26417106 0.2729278
0.30433187 0.30441758 0.3885961 -0.18341433 -0.236703 0.30244377 -0.10419499 -0.14377725
-0.48660702 -0.14932002 0.37146157 0.032839566 0.4965679 -0.08581333 -0.42701712 0.40140152
00000000: f67c 85bc 4089 69be 8916 33bd 9f14 76be
00000010: 3be4 d5be 8734 753e 1f10 443e 6d47 373d
00000020: aa58 efbe 1ddf 7a3d 3186 b3be c0e7 e43e
00000030: 7084 cebe 2894 bfbe 768e 743e 207c 84be
00000040: c780 bfbe a357 d0be 7d66 00bf 28c5 cd3c
00000050: a888 d6bd 64c1 8dbe f4c4 94be 9570 84be
00000060: 344c a53e 80ed 50be 2f33 c1be 7660 10be
00000070: 85c8 ab3e aec0 423e 2a28 8cbd 80c3 e73e
00000080: b9be ca3e e538 d5bd a345 7b3d 6418 bf3c
00000090: 7504 e53d 6dac da3e 17f4 aebe 9fd0 9d3e
000000a0: 3a08 693e 9cba 893d dd5b 87be 65a9 c33e
000000b0: 1af3 d2be 8c1b 6fbd d70a d53e a232 2fbd
000000c0: 216d 683e 755c c0be 1145 23be b372 cc3e
000000d0: 1a86 c5bd b78f c23d 346b 153e 4769 f83e
000000e0: 2203 f43e 0cd5 b6be 1732 bf3e af8e c53e
000000f0: d573 b5be 8dbe 7abe e393 fe3e 279a 663e
00000100: 4d99 babe 452d c23e aa9b d53e af12 8cbe
00000110: 5f88 a93b a3f7 d23e 0dbd 28be e827 eabd
00000120: 83da 63be d03f 143e 3a0a a63e 9afc e6bd
00000130: b874 d5be 7968 fa3d 8215 bebe 7dd0 61be
00000140: d4ca b0be de67 d9bc 99da 91bd 0ea1 f6be
00000150: 88d7 0fbd 81b7 51be ce10 8ebd f0bf 433e
00000160: f848 a0be 9b37 373e 8542 993e 613b 51bd
00000170: 679e 92be e542 b4be c1a5 dfbe 18bf 8abe
00000180: 5351 6abe 66c2 9b3e f284 a4bd 2f0d ae3d
00000190: 1b9e d13e 89c2 eb3e f536 bd3d e271 bd3e
000001a0: 1561 883e e1be 9b3e 6fec 5c3d d5bb 28be
000001b0: 2ee6 70be 2fcb 0abe 6e41 87be 31bd 8b3e
000001c0: 63d1 9b3e 9fdc 9b3e 11f6 c63e f7d0 3bbe
000001d0: 4562 72be e9d9 9a3e 2f64 d5bd 583a 13be
000001e0: 8e24 f9be 59e7 18be 3630 be3e c882 063d
000001f0: 263e fe3e e6be afbd fda1 dabe 8084 cd3e

VAE.encoder_mu.layers.0.linear1.weight f4 [4, 128]
-0.002031708 0.028014515 -0.078093946 0.06931464 0.0401554 -0.012826719 -0.040709842 0.017918896
0.08108874 -0.046428476 -0.06458382 0.0009734365 0.051509984 -0.004960895 0.040066168 -0.04916586
-0.09053553 0.035168666 -0.060260523 -0.09572978 0.014560293 0.02781709 -0.0655205 -0.078969575
-0.07902152 -0.039853383 0.054455243 -0.08721079 -0.08383243 -0.0844172 -0.028348006 0.032920744
0.014479176 -0.025065908 0.032790218 -0.028489666 -0.083873145 0.06394355 -0.08787949 -0.044203263
0.073587604 -0.06840577 0.004938599 0.010584436 0.041676782 -0.064288616 -0.053028915 -0.0877112
0.04092225 0.0117506245 0.034951724 0.03599888 -0.042256918 0.0014185448 -0.09288487 -0.011276179
0.06980032 -0.015829772 -0.08005738 -0.06224032 -0.032584094 0.009027471 -0.051626984 -0.064709604
-0.081020705 0.038736485 -0.040653482 0.05149805 -0.08924322 0.03355023 -0.09011269 0.009573513
0.028229833 -0.014012036 -0.05656951 -0.058252554 -0.053033073 0.04797167 -0.027368058 -0.020473795
-0.07887084 0.06998437 -0.0456008 -0.039754387 -0.05800397 -0.07793748 -0.0735993 0.055792853
0.036440376 -0.04875726 0.07871326 0.06469219 -0.00050102785 -0.015549302 -0.019725798 -0.084939316
0.044318426 0.07212628 -0.0076429644 0.021313531 -0.07473273 -0.07240457 -0.0727704 -0.027388044
0.057808824 0.0040236963 0.063251525 0.07700335 -0.06513899 -0.055567704 -0.01948881 0.044879366
0.06159418 -0.012093678 -0.080411196 0.059127275 0.030083073 -0.005659226 -0.050659075 0.007929807
0.023844333 -0.030508269 0.037353884 0.018064879 0.07026296 0.048125166 0.008095925 0.019647207
-0.008814135 0.056254283 -0.03139711 -0.026228521 -0.007569978 -0.04365817 0.07977463 0.0493794
-0.07390794 -0.04464012 -0.05464978 -0.03643136 0.082941316 0.040742215 -0.05467319 -0.015254582
0.014467302 0.004819072 0.07310859 0.07940701 0.012129923 0.027947515 0.050363082 -0.059222627
0.05960339 0.024086203 -0.004509443 0.021093674 -0.06729872 0.039601155 -0.019121192 0.08949545
0.049651932 0.08805071 -0.071088165 -0.074171215 0.059896987 -0.0799108 -0.047842834 -0.074100144
0.04525088 0.03237427 0.012548519 -0.069024175 -0.0017742421 0.038668636 0.0019253871 0.013461705
-0.057235215 -0.0012251955 0.038252715 0.013727199 0.058437012 0.0875603 -0.05381953 0.05141966
-0.013055242 -0.06517861 -0.011849345 -0.04834982 0.036355354 0.08903778 -0.012055699 -0.07867772
-0.037244197 -0.057696737 -0.042280897 0.005525004 -0.07957389 0.05644746 -0.042531222 -0.053183742
-0.0074431635 0.0053191846 -0.020685365 -0.010576028 0.08074318 0.04211021 -0.018838821 0.029740209
-0.03074508 -0.020498028 0.043285754 -0.05978774 -0.062623285 -0.010654233 -0.006845332 -0.0767466
0.092291266 0.08081836 -0.029309772 -0.04335465 -0.045488562 0.0026123954 0.018786723 0.04440107
0.05390091 -0.051927995 0.0007172429 -0.026044924 -0.015000757 -0.078112885 -0.006590741 -0.07069191
0.06605985 0.037535146 -0.020384429 -0.03276937 -0.05411425 -0.01337425 0.018198073 -0.041954596
0.05354678 0.013011796 0.07899509 0.052530605 -0.06313258 -0.0145782055 0.04094774 -0.04739103
-0.034125358 0.07540151 0.07429078 0.081956334 0.073680915 -0.036026776 0.010454728 0.039419528
00000000: 6726 05bb b27e e53c b8ef 9fbd d5f4 8d3d
00000010: fd79 243d 2927 52bc 5dbf 26bd a6ca 923c
00000020: da11 a63d c92b 3ebd 8644 84bd 382e 7f3a
00000030: 22fc 523d 018f a2bb 6c1c 243d 2462 49bd
00000040: b16a b9bd 050d 103d bdd3 76bd fa0d c4bd
00000050: 4c8e 6e3c aae0 e33c 9d2f 86bd cdba a1bd
00000060: 09d6 a1bd 4d3d 23bd 760c 5f3d 929b b2bd
00000070: 56b0 abbd ede2 acbd 143a e8bc e7d7 063d
00000080: 113a 6d3c 0557 cdbc 094f 063d 2963 e9bc
00000090: afc5 abbd d6f4 823d 29fa b3bd 7b0e 35bd
000000a0: 19b5 963d 5318 8cbd f9d3 a13b 586a 2d3c
000000b0: 46b5 2a3d c0a9 83bd d934 59bd eea1 b3bd
000000c0: 179e 273d b185 403c 8a29 0f3d 9073 133d
000000d0: 9715 2dbd 77ee b93a 6c3a bebd b9bf 38bc
000000e0: 78f3 8e3d 70ad 81bc 20f5 a3bd b5ef 7ebd
000000f0: e676 05bd f5e7 133c d176 53bd 7886 84bd
00000100: 2fee a5bd 26aa 1e3d 4484 26bd 9fef 523d
00000110: 26c5 b6bd f76b 093d 018d b8bd 39da 1c3c
00000120: 4042 e73c bd92 65bc 6eb5 67bd 3b9a 6ebd
00000130: 3539 59bd f17d 443d fa32 e0bc a9b8 a7bc
00000140: 0987 a1bd f753 8f3d e8c7 3abd 7fd5 22bd
00000150: 9295 6dbd af9d 9fbd 3bbb 96bd 0c87 643d
00000160: 8142 153d b1b5 47bd 6b34 a13d 577d 843d
00000170: 6957 03ba 80c2 7ebc ff97 a1bc aaf4 adbd
00000180: 3d87 353d f1b6 933d d571 fabb b799 ae3c
00000190: 790d 99bd d948 94bd a608 95bd e45c e0bc
000001a0: f2c8 6c3d 36d9 833b 048a 813d efb3 9d3d
000001b0: 9767 85bd f69a 63bd ffa6 9fbc 6dd3 373d
000001c0: 2e4a 7c3d 9024 46bc a0ae a4bd 712f 723d
000001d0: c770 f63c 0771 b9bb e47f 4fbd 05ec 013c
000001e0: 3155 c33c 7aec f9bc 6300 193d ccfc 933c
000001f0: 07e6 8f3d e51e 453d c5a4 043c 2ef3 a03c
00000200: 2969 10bc e46a 663d 429a 00bd 32dd d6bc
00000210: 940d f8bb e9d2 32bd e260 a33d 0e42 4a3d
00000220: 0c5d 97bd 8fd8 36bd 73d8 5fbd 0d39 15bd
00000230: 23dd a93d 4fe1 263d fff0 5fbd 5bee 79bc
00000240: 4308 6d3c 4ee9 9d3b f5b9 953d 24a0 a23d
00000250: 96bc 463c 30f2 e43c 8549 4e3d 6d93 72bd
00000260: af22 743d 6e50 c53c f3c3 93bb a4cc ac3c
00000270: e9d3 89bd d234 223d 0ca4 9cbc 6449 b73d
00000280: d35f 4b3d ee53 b43d ac96 91bd 14e7 97bd
00000290: 8b56 753d 46a8 a3bd d9f6 43bd d1c1 97bd
000002a0: fd58 393d e29a 043d 4e98 4d3c 8c5c 8dbd
000002b0: b08d e8ba 0163 1e3d 455d fc3a 7c8e 5c3c
000002c0: 796f 6abd bd96 a0ba e1ae 1c3d 0ce8 603c
000002d0: a65b 6f3d d152 b33d de71 5cbd 6c9d 523d
000002e0: a7e5 55bc 5d7c 85bd c123 42bc 760a 46bd
000002f0: 5ae9 143d 7159 b63d 4485 45bc c921 a1bd
00000300: 5f8d 18bd 6a53 6cbd bc2e 2dbd 180b b53b
00000310: a3f7 a2bd 7435 673d 3835 2ebd 32d7 59bd
00000320: c8e5 f3bb 8e4c ae3b 5b74 a9bc 1447 2dbc
00000330: ae5c a53d c17b 2c3d df53 9abc bda1 f33c
00000340: 1bdd fbbc 7beb a7bc 674c 313d fde3 74bd
00000350: a340 80bd 188f 2ebc cf4e e0bb 522d 9dbd
00000360: 3403 bd3d 1984 a53d 0c1b f0bc a594 31bd
00000370: 3752 3abd b934 2b3b 9de6 993c e5dd 353d
00000380: 33c7 5c3d 73b2 54bd 5b05 3c3a 2a5c d5bc
00000390: bcc5 75bc a6f9 9fbd 25f7 d7bb ecc6 90bd
000003a0: 634a 873d 74be 193d 3ffd a6bc 2d39 06bd
000003b0: e7a6 5dbd ac1f 5bbc 2014 953c 95d8 2bbd
000003c0: de53 5b3d 6e2f 553c 2ec8 a13d 552a 573d
000003d0: a74b 81bd 6dd9 6ebc d1b8 273d 191d 42bd
000003e0: 08c7 0bbd 1b6c 9a3d c425 983d b9d8 a73d
000003f0: 05e6 963d d090 13bd 4f4a 2b3c 5f76 213d

VAE.encoder_mu.layers.0.linear1.bias f4 [4]
0.027790094 0.07052552 0.067231156 0.042437054
00000000: 0da8 e33c af6f 903d 7db0 893d 7ad2 2d3d

VAE.encoder_mu.layers.0.norm1.weight f4 [4]
1.0080407 1.0052948 1.0078825 0.99377775
00000000: 7a07 813f 80ad 803f 4b02 813f 3868 7e3f

VAE.encoder_mu.layers.0.norm1.bias f4 [4]
0.005750334 -0.007584708 -0.0075665964 0.005718266
00000000: 4c6d bc3b 2489 f8bb 36f1 f7bb 4b60 bb3b

VAE.encoder_mu.layers.1.attention.W_q.weight f4 [4, 4]
-0.48108473 -0.33927694 0.23062432 0.44605893 -0.049115825 -0.32593903 -0.24294312 0.33634123
0.061001718 0.2739439 -0.14144847 0.45664364 0.08298299 0.5052008 0.19320382 0.4213701
00000000: bd50 f6be b5b5 adbe c828 6c3e d661 e43e
00000010: ad2d 49bd 7be1 a6be 15c6 78be eb34 ac3e
00000020: f0dc 793d 6042 8c3e ded7 10be 32cd e93e
00000030: fcf2 a93d d754 013f 39d7 453e d2bd d73e

VAE.encoder_mu.layers.1.attention.W_q.bias f4 [4]
-0.007322708 0.008018701 0.0070666648 0.006856922
00000000: 54f3 efbb df60 033c 7b8f e73b 08b0 e03b

VAE.encoder_mu.layers.1.attention.W_k.weight f4 [4, 4]
0.2773255 -0.13529798 0.32268384 0.25565144 0.2411549 0.11718364 -0.48483047 0.41520065
0.12436515 0.29939455 -0.35783643 -0.35554457 -0.124393284 0.09633562 -0.02577594 -0.34586117
00000000: 9cfd 8d3e 8e8b 0abe d136 a53e bfe4 823e
00000010: 4ff1 763e fafd ef3d b33b f8be 2e95 d43e
00000020: 28b3 fe3d 3e4a 993e 5636 b7be f009 b6be
00000030: e8c1 febd 9c4b c53d 1028 d3bc b714 b1be

VAE.encoder_mu.layers.1.attention.W_k.bias f4 [4]
-4.821603e-05 1.136742e-05 6.6556368e-06 -3.61023e-05
00000000: 913b 4ab8 b2b6 3e37 7c53 df36 8d6c 17b8

VAE.encoder_mu.layers.1.attention.W_v.weight f4 [4, 4]
-0.1989853 -0.31489208 0.40909594 -0.5025938 0.058134787 -0.45730594 -0.30115598 -0.08917124
-0.35132888 0.38511348 0.29404286 -0.18240692 0.34571213 -0.04526662 0.42060664 -0.1765271
00000000: cdc2 4bbe 8939 a1be 0675 d13e fda9 00bf
00000010: be1e 6e3d 0124 eabe 1e31 9abe 699f b6bd
00000020: 61e1 b3be 982d c53e c98c 963e e1c8 3abe
00000030: 2e01 b13e 7e69 39bd c159 d73e 85c3 34be

VAE.encoder_mu.layers.1.attention.W_v.bias f4 [4]
-0.007592517 -0.007586009 0.007563853 -0.007798322
00000000: a6ca f8bb 0e94 f8bb 33da f73b 1189 ffbb

VAE.encoder_mu.layers.1.linear0.weight f4 [128, 4]
0.015501485 0.04939035 0.0138504235 -0.41348052 0.1367544 0.007242497 -0.40934137 0.018693587
0.4533212 -0.27836955 -0.16091672 0.45877182 0.2504263 0.0129829645 0.35936108 0.47303447
0.2736438 -0.15840344 -0.40367782 0.09806273 0.27878723 0.16313232 -0.1755931 -0.39728665
-0.29015028 -0.3585569 -0.061091926 -0.2801754 0.14588319 -0.34889793 -0.3968498 -0.24285094
0.32371962 -0.2082466 -0.28412038 0.041164413 0.14302681 -0.1527746 0.003834183 0.35178727
0.43481573 0.10691683 -0.4930678 0.44411266 0.4195476 0.49167004 0.33701873 -0.15529661
0.013552836 0.25827336 0.12435737 0.2670286 -0.07243803 -0.44950154 0.19271904 -0.025537588
-0.17933446 0.12944022 -0.41633058 0.069203995 0.17516734 0.09861832 -0.1804543 -0.41671935
-0.30982518 0.14004073 -0.38538337 0.21700095 -0.051374234 -0.11970687 -0.2893333 -0.046385024
-0.3140336 -0.27030495 0.14354326 0.11262499 -0.36626238 -0.07906067 0.09958918 0.40159267
0.3472455 -0.44946986 -0.17711629 0.18114783 -0.49749652 -0.2112383 -0.035681743 -0.42488724
0.092535414 -0.25486875 0.18733025 0.3774395 0.30072668 0.11951872 -0.19219643 0.07752161
0.07746238 -0.12573941 0.14094852 0.025767315 -0.4192159 0.22619529 0.029690394 -0.18188015
-0.41796944 0.3567124 -0.2842166 0.30281648 -0.15829 0.44454306 0.41729867 0.1791796
-0.46006408 -0.4330269 -0.44236863 -0.34620354 -0.35878885 -0.36412582 0.043298107 -0.28975737
-0.49792284 0.4630635 -0.17899223 -0.4841353 0.31834993 0.062474262 0.07227095 -0.4044135
-0.4733 -0.47402555 -0.36974883 0.1501083 0.39747348 -0.46458247 0.09753781 0.48128837
-0.32330906 -0.42351097 0.36327732 0.13885014 0.36791176 -0.007722579 0.022357749 -0.1003346
-0.18173468 0.052759387 0.0047297236 -0.30859995 -0.086790636 -0.41978186 -0.31010422 0.19733278
0.036764793 0.04440886 -0.15711603 0.4781238 -0.043527693 -0.29871753 0.1302704 0.12816603
0.14645904 -0.2021006 0.25688627 0.472983 -0.46215424 -0.034501296 -0.4338192 -0.05352262
0.07284677 -0.34308282 0.3160942 -0.33946106 0.37521976 0.49236032 0.36204317 0.20122412
-0.274077 -0.38547298 -0.2873592 0.110310905 0.3919929 -0.12031267 0.31790796 0.3261161
0.08439854 -0.023638116 -0.09632543 -0.4349159 0.15525609 -0.15519871 -0.4701818 -0.08435989
0.24105795 -0.48366025 0.09277929 0.2979732 -0.001778609 0.2819961 0.16748291 0.35623413
0.46865723 0.5015518 -0.36686933 -0.34474388 0.23614053 -0.07982467 0.3741098 0.38320735
0.41389832 -0.2381738 0.20430142 -0.33365715 0.43463907 0.04461822 0.3481461 -0.07916466
-0.437525 0.07595238 0.34388876 0.211212 0.025216602 0.00046547147 -0.28597733 -0.02992851
-0.21382888 0.27533582 0.34074214 -0.38108212 0.07460989 0.23487765 0.00642026 -0.15913077
-0.26613945 -0.4199657 -0.44885942 0.14658551 -0.08963617 0.42712048 0.2746612 0.4166197
-0.012374933 0.27688992 0.43430164 0.2476129 0.024200356 -0.3709264 0.372683 -0.3219197
-0.48778662 -0.03803069 -0.13293058 0.17811568 -0.32258385 0.34849185 -0.15045972 0.26112396
00000000: f1f9 7d3c 894d 4a3d e3ec 623c b8b3 d3be
00000010: 5809 0c3e 7852 ed3b 3195 d1be 4b23 993c
00000020: b719 e83e 7486 8ebe 5ac7 24be 24e4 ea3e
00000030: e037 803e 80b6 543c 2dfe b73e 9331 f23e
00000040: 0a1b 8c3e 8334 22be dcae cebe 1dd5 c83d
00000050: 33bd 8e3e 290c 273e adce 33be 2869 cbbe
00000060: 948e 94be c594 b7be 873b 7abd 2673 8fbe
00000070: 6762 153e c0a2 b2be e62f cbbe ebad 78be
00000080: 94be a53e 993e 55be 3a78 91be 049c 283d
00000090: 9f75 123e f270 1cbe eb46 7b3b 761d b43e
000000a0: 2ba0 de3e 36f7 da3d 6273 fcbe bc62 e33e
000000b0: f1ce d63e 2dbc fb3e b88d ac3e 1306 1fbe
000000c0: b70c 5e3c 683c 843e 14af fe3d f9b7 883e
000000d0: 645a 94bd 1125 e6be 2458 453e 3434 d1bc
000000e0: 74a3 37be fa8b 043e 4829 d5be d3ba 8d3d
000000f0: 115f 333e 67f8 c93d 03c9 38be 3d5c d5be
00000100: 68a1 9ebe d666 0f3e f850 c5be 7f35 5e3e
00000110: ca6d 52bd e028 f5bd 7f23 94be 39fe 3dbd
00000120: 03c9 a0be 6965 8abe 01fd 123e eea7 e63d
00000130: be86 bbbe 90ea a1bd 69f5 cb3d 8e9d cd3e
00000140: 2aca b13e ea20 e6be f95d 35be d17e 393e
00000150: ddb7 febe da4e 58be 0527 12bd d28a d9be
00000160: 3583 bd3d 287e 82be 80d3 3f3e c03f c13e
00000170: d9f8 993e 3bc6 f43d 24cf 44be a6c3 9e3d
00000180: 99a4 9e3d d5c1 00be cf54 103e fa15 d33c
00000190: 77a3 d6be bd9f 673e 4539 f33c ca3e 3abe
000001a0: 1700 d6be 02a3 b63e d784 91be c30a 9b3e
000001b0: c616 22be 269b e33e 2ca8 d53e db7a 373e
000001c0: 858d ebbe b4b5 ddbe 247e e2be 9741 b1be
000001d0: 2cb3 b7be b36e babe 5b59 313d 145b 94be
000001e0: beef febe a916 ed3e bd49 37be 95e0 f7be
000001f0: c3fe a23e 03e5 7f3d cb02 943d 490f cfbe
00000200: 6154 f2be 7ab3 f2be b84f bdbe fdb5 193e
00000210: a581 cb3e c1dd edbe e7c1 c73d 6e6b f63e
00000220: c488 a5be 6ed6 d8be 7cff b93e bb2e 0e3e
00000230: ee5e bc3e b00d fdbb 9927 b73c 3a7c cdbd
00000240: a818 3abe 3a1a 583d ccfb 9a3b d000 9ebe
00000250: 4abf b1bd a6ed d6be fbc5 9ebe 9b11 4a3e
00000260: ae96 163d 11e6 353d 06e3 20be a5cc f43e
00000270: 184a 32bd 81f1 98be 9b65 053e f53d 033e
00000280: 5cf9 153e 76f3 4ebe 9986 833e d42a f23e
00000290: 7b9f ecbe 3b51 0dbd 8d1d debe 893a 5bbd
000002a0: b030 953d 8da8 afbe 19d7 a13e d7cd adbe
000002b0: ce1c c03e a716 fc3e b95d b93e b20d 4e3e
000002c0: d253 8cbe b75c c5be bf20 93be afea e13d
000002d0: 4bb3 c83e 7d66 f6bd d5c4 a23e b1f8 a63e
000002e0: 24d9 ac3d b9a4 c1bc 4446 c5bd 4cad debe
000002f0: 74fb 1e3e 69ec 1ebe abbb f0be e1c4 acbd
00000300: e5d7 763e 51a2 f7be 1203 be3d f18f 983e
00000310: 3720 e9ba cb61 903e a480 2b3e 5264 b63e
00000320: d7f3 ef3e b365 003f 4cd6 bbbe 4582 b0be
00000330: d3ce 713e 1e7b a3bd 528b bf3e c133 c43e
00000340: 7bea d33e d5e3 73be 6434 513e 1cd5 aabe
00000350: 0389 de3e 98c1 363d 3540 b23e 1521 a2bd
00000360: 4703 e0be ec8c 9b3d 3012 b03e f547 583e
00000370: 0c93 ce3c 860a f439 9f6b 92be a22c f5bc
00000380: f5f5 5abe d1f8 8c3e c175 ae3e 321d c3be
00000390: 12cd 983d c483 703e 0b61 d23b 2df3 22be
000003a0: 6e43 88be bf05 d7be e7d0 e5be 831a 163e
000003b0: 2b93 b7bd 89af da3e 65a0 8c3e 2d4f d53e
000003c0: 3bc0 4abc 84c4 8d3e c95c de3e 3c8e 7d3e
000003d0: d33f c63c 11ea bdbe 4ed0 be3e a9d2 a4be
000003e0: 2bbf f9be 12c6 1bbd f41e 08be f563 363e
000003f0: b629 a5be 866d b23e 1d12 1abe 0ab2 853e

VAE.encoder_mu.layers.1.linear0.bias f4 [128]
0.14087194 -0.379871 -0.3269799 -0.3610349 -0.046615716 0.15059488 0.37070888 -0.43597478
0.31514972 0.467481 -0.2510723 0.22743323 0.10059214 -0.32523692 0.2082722 -0.25593248
0.030250715 0.11387949 0.06782216 -0.075700015 0.44058758 -0.45711184 -0.49268034 -0.049757298
-0.26227662 0.365212 -0.42635405 -0.12510163 -0.12872271 0.50228316 0.41483405 -0.4320096
0.46170443 -0.4949777 0.15198162 -0.16106012 0.38333023 0.34515935 -0.4964201 0.072364256
-0.0659606 0.29754266 -0.022811186 -0.088827886 0.2732495 0.037590403 -0.16961192 -0.3887014
-0.23855303 -0.3742965 -0.15541603 0.17385148 0.39255553 -0.47422785 -0.37563038 -0.2367402
-0.33962026 0.28395104 -0.305899 0.25481603 -0.2658224 0.3627507 -0.0032642018 0.3646035
-0.1886382 -0.109016925 0.33045292 -0.11010268 0.40333456 -0.45997813 0.30196697 0.31570095
-0.091925755 0.11945104 0.11234324 -0.090292655 -0.0880097 0.33589956 -0.0075189797 0.46347916
0.11368474 0.34265074 0.39929563 -0.27060375 -0.41442037 -0.23213837 0.12862888 -0.3281017
-0.11945104 -0.4926536 -0.458022 -0.37986654 0.26272175 -0.3233738 -0.27704695 0.08083869
-0.14815871 -0.18883815 0.5040007 0.20592527 -0.006145727 -0.369298 -0.033978887 0.20155846
-0.05103824 -0.12781817 -0.17526302 -0.25489372 -0.22633718 0.010898688 0.46626785 0.07770744
0.3114955 -0.06621964 -0.36223453 0.007307791 -0.102142304 0.116153315 0.29826173 -0.16532058
0.32879466 0.36969644 0.33591664 0.009280881 0.4221028 -0.321495 -0.4321359 0.25021127
00000000: bc40 103e 747e c2be e969 a7be 91d9 b8be
00000010: 1ff0 3ebd 8b35 1a3e 8ecd bd3e 1638 dfbe
00000020: 4e5b a13e ab59 ef3e 8c8c 80be 42e4 683e
00000030: 4003 ce3d 7485 a6be 4f45 553e 9509 83be
00000040: 59d0 f73c a639 e93d 58e6 8a3d 9c08 9bbd
00000050: b294 e13e 900a eabe 9940 fcbe 4fce 4bbd
00000060: 1f49 86be 11fd ba3e 144b dabe a41a 00be
00000070: e3cf 03be a195 003f 2165 d43e 5d30 ddbe
00000080: 8664 ec3e b86d fdbe 12a1 1b3e f2ec 24be
00000090: dc43 c43e bab8 b03e c62a febe b633 943d
000000a0: 5a16 87bd 8357 983e 86de babc 65eb b5bd
000000b0: 5ce7 8b3e 65f8 193d bfae 2dbe df03 c7be
000000c0: 3f47 74be caa3 bfbe 6125 1fbe 1f06 323e
000000d0: 0afd c83e fecd f2be a052 c0be 066c 72be
000000e0: b5e2 adbe 0862 913e cb9e 9cbe 3f77 823e
000000f0: e019 88be 76ba b93e 38ec 55bb 4fad ba3e
00000100: 5f2a 41be 4444 dfbd 2031 a93e 847d e1bd
00000110: de81 ce3e 4182 ebbe 6a9b 9a3e 8ea3 a13e
00000120: 9243 bcbd bfa2 f43d 3614 e63d 5beb b8bd
00000130: 6e3e b4bd 07fb ab3e c661 f6bb 244d ed3e
00000140: 8cd3 e83d eb6f af3e 7a70 cc3e 938c 8abe
00000150: e82e d4be aeb5 6dbe 4ab7 033e f2fc a7be
00000160: bfa2 f4bd 183d fcbe dc81 eabe de7d c2be
00000170: 7783 863e 4091 a5be 19d9 8dbe c18e a53d
00000180: ebb6 17be ca5e 41be 3106 013f 13de 523e
00000190: 1862 c9bb a114 bdbe 722d 0bbd 5765 4e3e
000001a0: 790d 51bd c4e2 02be 2678 33be 6e81 82be
000001b0: efc4 67be 6990 323c a9ba ee3e 1425 9f3d
000001c0: 577c 9f3e 2a9e 87bd ce76 b9be 3276 ef3b
000001d0: fc2f d1bd cae1 ed3d c3b5 983e cc49 29be
000001e0: c657 a83e da48 bd3e 44fd ab3e d60e 183c
000001f0: dc1d d83e fe9a a4be eb40 ddbe b11b 803e

VAE.encoder_mu.layers.1.linear1.weight f4 [4, 128]
-0.00025105977 -0.025315676 -0.008496175 0.045542393 -0.06685673 0.02747617 -0.07769076 0.033701487
0.049256556 0.012132245 0.06257049 -0.0715654 0.05930458 -0.08777325 0.030785697 0.030410549
-0.017050803 -0.016760124 -0.041614912 -0.028939147 -0.07772633 0.0024971585 -0.034205552 -0.073939815
-0.04089403 -0.017068006 0.050665423 0.009268184 -0.058287907 0.064184465 0.091300026 -0.05760135
0.02625482 0.0026741459 0.037061308 0.03057101 -0.065183684 0.022623496 0.0374341 -0.021198615
0.06908207 0.03082839 0.022772586 0.05462964 0.01868632 -0.066928245 -0.0021187377 -0.02114183
-0.08671109 -0.069871105 0.076145716 0.039022963 0.01159362 0.07290645 0.011456652 -0.010617707
0.0038192545 -0.034341827 -0.0640583 0.08022056 0.04696155 -0.0126415845 0.031494364 -0.0068332804
0.04025814 0.036633953 -0.06013054 0.03186567 0.0051564635 -0.02408431 0.045108747 -0.09207039
-0.02836809 -0.05140857 -0.018795691 0.045011513 -0.07799481 -0.06185613 0.051201846 0.017143575
-0.015219359 -0.086432874 0.015969124 0.0015111677 0.031345494 0.066062465 -0.046070505 -0.03154434
-0.032103766 0.030659929 -0.000635311 0.03455654 -0.0145384865 -0.038566053 0.002077904 0.018369526
0.037975445 0.01847841 -0.038367905 -0.065289184 -0.026339175 0.03756043 -0.09606378 -0.011627234
0.0036851985 -0.053478595 0.038823027 0.040202133 -0.061259504 0.0265244 -0.045952722 0.07857143
-0.0748957 -0.08575325 0.07938288 0.069640025 0.028410863 0.03279968 0.08960385 -0.04199154
-0.024473393 0.036969922 0.021226434 -0.034319036 -0.056872718 0.0618414 -0.079063915 0.0825321
0.07591066 -0.069694325 -0.029550184 -0.04675048 0.058092173 -0.0010012436 -0.060124364 0.0676922
-0.049805272 -0.06783512 0.04788067 -0.039369635 -0.011079024 -0.08310608 0.04601219 -0.03532466
0.016340703 0.041086588 -0.0015056694 -0.07656737 -0.031979073 0.019947292 -0.033206515 -0.07864688
0.022208301 -0.03901889 0.044536717 -0.07296846 0.05150855 -0.086520456 -0.05304943 -0.027266525
0.072685756 0.033142444 0.06613664 -0.07700574 -0.08857484 -0.053823754 0.04283036 -0.05810101
0.07013543 -0.0023317325 0.02688791 0.021291262 0.043302257 -0.056695182 0.021791779 -0.04238119
0.05164171 -0.087813675 0.032856356 0.05220254 -0.060407422 -0.010367847 -0.08008207 0.0054119322
0.05407127 0.038319282 -0.038599443 0.06918918 -0.052125588 0.022099199 -0.027085003 0.045534745
-0.026970467 0.017554034 -0.048318338 0.05535062 0.03297002 0.029477077 -0.017699264 0.015807088
-0.07683525 0.02005927 0.056083694 0.010905322 -0.008708621 0.010027119 -0.09314438 -0.08386686
0.038266126 -0.06854844 0.02942048 0.007237812 0.0039343177 0.011503723 0.018629711 0.033001807
-0.029233783 0.07633223 -0.03220311 -0.050316337 -0.09196146 0.04347503 0.047672704 0.07684631
0.005977446 0.07383774 0.07713535 0.0433228 -0.06235735 -0.08216324 0.06341636 -0.00046357547
-0.07961276 0.027118854 -0.069461465 -0.038248315 0.0376579 -0.07483877 -0.0003893208 -0.019057482
0.060466036 -0.012545968 0.06916856 -0.016880266 -0.056558732 0.05832921 0.05668027 0.06153473
0.009002083 -0.004727827 -0.007769105 0.039367117 0.036176194 0.0001999426 0.026493873 0.0347175
00000000: aca0 83b9 d262 cfbc 8a33 0bbc a98a 3a3d
00000010: 2eec 88bd b415 e13c 551c 9fbd 920a 0a3d
00000020: 3ec1 493d 53c6 463c f524 803d e190 92bd
00000030: 5ce9 723d 76c2 b3bd 4932 fc3c 8b1f f93c
00000040: 20ae 8bbc 874c 89bc 6674 2abd ca11 edbc
00000050: fb2e 9fbd 5ea7 233b 1f1b 0cbd c26d 97bd
00000060: 8080 27bd 34d2 8bbc 8c86 4f3d 95d9 173c
00000070: 4dbf 6ebd 2573 833d 82fb ba3d 65ef 6bbd
00000080: 5914 d73c b940 2f3b 99cd 173d 0e70 fa3c
00000090: 067f 85bd e954 b93c 8054 193d b8a8 adbc
000000a0: e67a 8d3d d28b fc3c 938d ba3c 54c3 5f3d
000000b0: 0e14 993c ad11 89bd 85da 0abb a231 adbc
000000c0: 9595 b1bd 9518 8fbd 49f2 9b3d 8bd6 1f3d
000000d0: 2bf3 3d3c fa4f 953d aeb4 3b3c e4f5 2dbc
000000e0: 754c 7a3b 04aa 0cbd ff30 83bd ad4a a43d
000000f0: c15a 403d a61e 4fbc 3c00 013d b6e9 dfbb
00000100: b8e5 243d 7c0d 163d 714b 76bd 9485 023d
00000110: 8df7 a83b 754c c5bc f3c3 383d 678f bcbd
00000120: 3264 e8bc cb91 52bd 6cf9 99bc fe5d 383d
00000130: bebb 9fbd da5c 7dbd 07b9 513d af70 8c3c
00000140: 9e5a 79bc b803 b1bd aed1 823c 6012 c63a
00000150: 2264 003d c24b 873d 6db4 3cbd a334 01bd
00000160: 3d7f 03bd 882a fb3c 008b 26ba 298b 0d3d
00000170: d532 6ebc 70f7 1dbd 722d 083b b07b 963c
00000180: 248c 1b3d 0960 973c aa27 1dbd 56b6 85bd
00000190: 41c5 d7bc f7d8 193d 16bd c4bd 2780 3ebc
000001a0: 5f83 713b 5f0c 5bbd e504 1f3d feaa 243d
000001b0: 3feb 7abd b349 d93c ec38 3cbd 0fea a03d
000001c0: eb62 99bd 669f afbd 7e93 a23d 6e9f 8e3d
000001d0: e6bd e83c f558 063d 3982 b73d 52ff 2bbd
000001e0: 6d7c c8bc c66d 173d 0fe3 ad3c 1e92 0cbd
000001f0: 5ef3 68bd 684d 7d3d 43ec a1bd 9706 a93d
00000200: 0c77 9b3d e6bb 8ebd 3a13 f2bc 6e7d 3fbd
00000210: 0ff2 6d3d 293c 83ba f744 76bd 35a2 8a3d
00000220: 9d00 4cbd 24ed 8abd 851e 443d 0e42 21bd
00000230: cb84 35bc 8533 aabd 4777 3c3d 97b0 10bd
00000240: f0dc 853c 694a 283d e259 c5ba 5acf 9cbd
00000250: 7dfc 02bd 8168 a33c 8e03 08bd 9e11 a1bd
00000260: 2fee b53c 46d2 1fbd 226c 363d 7d70 95bd
00000270: a1fa 523d a331 b1bd 5c4a 59bd 0c5e dfbc
00000280: 45dc 943d 5fc0 073d a672 873d 2fb5 9dbd
00000290: ba66 b5bd 4c76 5cbd e36e 2f3d 53fb 6dbd
000002a0: 2aa3 8f3d fbcf 18bb 0944 dc3c 036b ae3c
000002b0: b55d 313d 3539 68bd ac84 b23c e697 2dbd
000002c0: 4286 533d a8d7 b3bd 6394 063d 55d2 553d
000002d0: c66d 77bd e7dd 29bc 1102 a4bd 9456 b13b
000002e0: d679 5d3d aef4 1c3d 731a 1ebd 0fb3 8d3d
000002f0: a481 55bd 6109 b53c 5ee1 ddbc a482 3a3d
00000300: 2bf1 dcbc 7acd 8f3c 73e9 45bd 55b7 623d
00000310: 920b 073d e979 f13c 0cfe 90bc de7d 813c
00000320: cd5b 9dbd 5753 a43c 04b8 653d 3cac 323c
00000330: 9bae 0ebc c948 243c 7bc2 bebd 63c2 abbd
00000340: f1bc 1c3d 2063 8cbd 3803 f13c 2b2b ed3b
00000350: 73eb 803b 1d7a 3c3c 569d 983c e72c 073d
00000360: b07b efbc 1254 9c3d 69e7 03bd 8118 4ebd
00000370: 4a56 bcbd e012 323d 7444 433d 9961 9d3d
00000380: 74de c33b 3e38 973d 23f9 9d3d 4073 313d
00000390: 6c6a 7fbd 3345 a8bd 70e0 813d 0c0c f3b9
000003a0: 040c a3bd 5c28 de3c d041 8ebd 44aa 1cbd
000003b0: 2c3f 1a3d 1245 99bd c11d ccb9 701e 9cbc
000003c0: 3cab 773d 9b8d 4dbc 3fa8 8d3d 7c48 8abc
000003d0: 21aa 67bd 9cea 6e3d 9229 683d d70b 7c3d
000003e0: 797d 133c e3eb 9abb fa93 febb 6a3f 213d
000003f0: 7d2d 143d afa7 5139 ae09 d93c f033 0e3d

VAE.encoder_mu.layers.1.linear1.bias f4 [4]
-0.041965306 -0.08719057 -0.002689128 0.02542761
00000000: d0e3 2bbd f890 b2bd 153c 30bb 904d d03c

VAE.encoder_mu.layers.1.norm1.weight f4 [4]
1.0077419 1.0079516 0.9960925 0.9971562
00000000: b0fd 803f 8f04 813f ebff 7e3f a145 7f3f

VAE.encoder_mu.layers.1.norm1.bias f4 [4]
-0.0078078844 -0.0076870862 -0.0033407246 -0.007573964
00000000: 48d9 ffbb f4e3 fbbb 0ff0 5abb 042f f8bb

VAE.encoder_mu.layers.1.norm0.weight f4 [4]
1.0079662 0.99786526 0.9921658 1.0074894
00000000: 0905 813f 1974 7f3f 94fe 7d3f 6af5 803f

VAE.encoder_mu.layers.1.norm0.bias f4 [4]
-0.007759988 0.0075525027 -0.007918789 0.007926774
00000000: 7f47 febb fc7a f73b cfbd 01bc 4ddf 013c

VAE.encoder_mu.last_normalization.weight f4 [4]
1.0 1.0 1.0 1.0
00000000: 0000 803f 0000 803f 0000 803f 0000 803f

VAE.encoder_mu.last_normalization.bias f4 [4]
0.0 0.0 0.0 0.0
00000000: 0000 0000 0000 0000 0000 0000 0000 0000

VAE.encoder_mu.head.weight f4 [4, 4]
0.1647563 -0.20406574 -0.45423794 -0.46745837 0.05519092 0.05650592 0.48140788 0.013881266
-0.34341025 0.012369692 0.14611638 -0.33729297 -0.08040464 -0.49664474 -0.10001457 -0.2879917
00000000: e0b5 283e 9cf6 50be e091 e8be b456 efbe
00000010: e00f 623d c072 673d 187b f63e 406e 633c
00000020: 78d3 afbe 40aa 4a3c 889f 153e aab1 acbe
00000030: 30ab a4bd 3848 febe 70d4 ccbd a673 93be

VAE.encoder_mu.head.bias f4 [4]
-0.09682846 0.49493986 0.3299095 0.12183517
00000000: 004e c6bd c268 fd3e e6e9 a83e b884 f93d

VAE.encoder_logvar.layers.0.attention.W_q.weight f4 [4, 4]
0.21500841 -0.0019095155 0.31126025 0.40164578 -0.26838845 0.44346118 -0.50489366 -0.03497976
0.343154 -0.38998494 -0.3084221 0.37668303 0.34026837 0.0061312327 -0.25023326 -0.2179619
00000000: 2a2b 5c3e b548 faba 815d 9f3e 84a4 cd3e
00000010: 366a 89be 580d e33e b640 01bf f046 0fbd
00000020: e2b1 af3e 1bac c7be 80e9 9dbe 99dc c03e
00000030: a837 ae3e 82e8 c83b 931e 80be 6831 5fbe

VAE.encoder_logvar.layers.0.attention.W_q.bias f4 [4]
-0.0069800327 -0.006930514 0.006913944 0.006784173
00000000: c2b8 e4bb 5d19 e3bb 5e8e e23b c54d de3b

VAE.encoder_logvar.layers.0.attention.W_k.weight f4 [4, 4]
-0.17634039 0.24337012 -0.29598856 0.4088096 0.47689003 0.38814303 -0.21502079 0.20976649
-0.26923782 -0.31262624 0.2719818 -0.22471726 -0.11956117 -0.19981351 0.28141177 -0.1192577
00000000: 9392 34be 0436 793e d08b 97be 7e4f d13e
00000010: ee2a f43e afba c63e 692e 5cbe 07cd 563e
00000020: 8ad9 89be 8c10 a0be 3341 8b3e 481c 66be
00000030: 7ddc f4bd ea9b 4cbe 3415 903e 623d f4bd

VAE.encoder_logvar.layers.0.attention.W_k.bias f4 [4]
-0.00010692867 7.4503846e-06 -5.0302853e-05 -3.8521197e-05
00000000: e53e e0b8 51fe f936 47fc 52b8 d291 21b8

VAE.encoder_logvar.layers.0.attention.W_v.weight f4 [4, 4]
0.25724414 0.14914192 -0.08938648 -0.17763968 -0.08042173 0.14457166 -0.3896981 -0.3380303
-0.30814028 0.00036079303 0.4634874 0.3217435 0.04050026 0.37365672 0.44104868 -0.064110465
00000000: 81b5 833e a9b8 183e 4210 b7bd 2de7 35be
00000010: 26b4 a4bd 980a 143e 8286 c7be 4f12 adbe
00000020: 90c4 9dbe d228 bd39 384e ed3e 90bb a43e
00000030: 9ae3 253d ef4f bf3e 22d1 e13e 594c 83bd

VAE.encoder_logvar.layers.0.attention.W_v.bias f4 [4]
-0.0070788325 0.0055548404 -0.007856671 -0.0075953165
00000000: 8df5 e7bb 6105 b63b 44b9 00bc 22e2 f8bb

VAE.encoder_logvar.layers.0.linear0.weight f4 [128, 4]
-0.43021616 -0.42102516 0.20413665 -0.36925143 -0.2206135 -0.039910085 -0.38157353 0.38370308
0.087314226 0.3857593 0.055575736 -0.08413212 -0.16571724 0.0183729 0.1840573 0.4477579
0.36482516 -0.3413969 0.37991664 0.44672304 -0.41263622 -0.26341474 -0.021831192 -0.22420274
0.020724712 -0.33531234 -0.37011847 0.37297451 0.33700243 0.17742267 0.39895764 0.14363615
-0.13392675 0.42540014 -0.470909 0.39610654 -0.24508744 0.3978505 0.14125468 -0.12360451
0.25960097 -0.18481423 0.03134875 -0.15278052 -0.3743972 0.15655476 -0.1348453 -0.46087933
0.42826962 0.029495083 -0.08409466 0.5027098 0.18214975 0.20138754 -0.39769712 0.45022294
0.2846343 0.06362521 0.23193285 0.0028699853 0.46824634 -0.16779386 0.1543314 0.36016792
0.1332538 0.07162199 -0.18229467 -0.0037442474 -0.35717288 0.28395405 0.10484579 -0.4599651
-0.10370913 -0.32818842 0.25566795 -0.18914697 -0.09005128 -0.1231317 0.37735137 0.2061729
0.017294895 0.36732522 -0.2874264 0.068535276 -0.16641349 0.32794055 0.1942736 0.08700197
-0.4299949 -0.45675445 -0.5047611 -0.4062268 -0.33269772 -0.46526888 0.19990203 -0.38407674
-0.08677324 -0.13599013 0.21929778 0.3527076 0.13948834 0.12014723 0.025866508 0.17956465
0.2670872 0.098080315 -0.0027719568 -0.08271378 0.46072862 -0.25728312 0.34292045 -0.033729285
0.3760608 -0.18349351 -0.23830406 0.4868946 0.46859086 0.27672896 0.2612021 -0.2534203
-0.46397993 0.44716367 0.4518312 0.076839775 0.14648117 0.35962832 -0.00066611316 0.4828478
0.49581876 0.044179108 -0.2062974 -0.5023682 -0.326013 0.35877684 -0.056147255 -0.13989553
-0.15551753 0.26048738 0.45553243 0.32143152 0.13426882 -0.068416275 0.04046059 0.13719249
0.18438128 0.08226625 0.058290157 0.17724189 -0.39704052 0.38717854 -0.30281493 0.4675354
-0.10719341 0.088407375 -0.04756859 -0.31076616 -0.49689126 0.4108842 -0.15488395 0.19892685
0.047706824 -0.2641456 -0.20423718 -0.14119263 0.27119142 0.08724336 -0.42478427 -0.0071313703
-0.10169627 -0.020682652 0.24881881 -0.4340609 0.28045323 -0.33256173 -0.19789375 -0.055003215
0.4300454 -0.1026207 -0.15946102 -0.25696468 0.12698755 -0.2634734 -0.43504643 0.392023
-0.23448414 -0.23296432 -0.47553602 0.16700561 -0.41151947 -0.44962963 0.46232334 0.3214269
-0.38789684 0.107683554 0.40916246 0.14379193 0.16474761 -0.33542246 0.056969337 -0.11721088
-0.48187488 -0.07623312 -0.293148 -0.28042382 0.29946092 -0.21659996 -0.04325318 0.21665455
-0.2928994 -0.030977368 -0.09697099 0.3801932 -0.11766598 -0.25264838 0.23250511 0.17770784
-0.051600445 -0.3674277 0.4759362 0.088567786 0.23827088 0.09619652 -0.09274899 0.21682478
-0.04669606 0.046213374 0.18933071 -0.12640056 -0.40036345 0.27142414 0.35031524 -0.31152016
-0.031621322 -0.015484124 0.0034685861 -0.020899735 -0.25039017 0.44132018 0.30585086 -0.21991782
-0.17147699 0.2872493 0.22010906 -0.2522011 -0.38432175 -0.4636374 0.04967588 -0.3354193
0.17869954 -0.029766772 -0.42579916 -0.4785241 -0.4452276 0.29165828 -0.33848864 0.20714681
00000000: 4b45 dcbe 9c90 d7be 3309 513e 860e bdbe
00000010: 81e8 61be c278 23bd 9b5d c3be bb74 c43e
00000020: cdd1 b23d 3e82 c53e 62a3 633d 764d acbd
00000030: c8b1 29be c482 963c 8479 3c3e 8640 e53e
00000040: 5dca ba3e 93cb aebe 6f84 c23e e2b8 e43e
00000050: 0e45 d3be 4cde 86be 54d7 b2bc 6795 65be
00000060: dfc6 a93c 0fae abbe 2b80 bdbe 84f6 be3e
00000070: 958b ac3e 4aae 353e 2d44 cc3e 5b15 133e
00000080: 1824 09be 0cce d93e fc1a f1be 7ace ca3e
00000090: 34f8 7abe 10b3 cb3e 11a5 103e 5d24 fdbd
000000a0: 6bea 843e f13f 3dbe 8c67 003d 7f72 1cbe
000000b0: fdb0 bfbe e44f 203e e314 0abe 60f8 ebbe
000000c0: 2846 db3e ac9f f13c d239 acbd 97b1 003f
000000d0: 7785 3a3e 8938 4e3e f59e cbbe 9f83 e63e
000000e0: 96bb 913e ef4d 823d ce7f 6d3e 5d16 3c3b
000000f0: fcbd ef3e 27d2 2bbe 0d09 1e3e ee67 b83e
00000100: af73 083e 8dae 923d 74ab 3abe 0c62 75bb
00000110: 5ddf b6be 6d62 913e 64b9 d63d 8c80 ebbe
00000120: 7465 d4bd 5008 a8be e9e6 823e beaf 41be
00000130: ce6c b8bd 792c fcbd 3334 c13e fd1e 533e
00000140: 06ae 8d3c 0d12 bc3e 8e29 93be 395c 8c3d
00000150: 4c68 2abe d3e7 a73e a9ef 463e 172e b23d
00000160: 4b28 dcbe b8db e9be 0638 01bf f6fc cfbe
00000170: 5b57 aabe b937 eebe 1eb3 4c3e b5a5 c4be
00000180: 2bb6 b1bd ff40 0bbe 998f 603e 1796 b43e
00000190: 08d6 0e3e c00f f63d 00e6 d33c ccdf 373e
000001a0: a7bf 883e 55de c83d b8a9 35bb d865 a9bd
000001b0: 9fe4 eb3e 9dba 83be 4593 af3e b827 0abd
000001c0: 0b8b c03e b9e5 3bbe fb05 74be 404a f93e
000001d0: 24eb ef3e 6baf 8d3e 48bc 853e 4ec0 81be
000001e0: c78e edbe a3f2 e43e 6b56 e73e 2c5e 9d3d
000001f0: 29ff 153e 3421 b83e 199e 2eba d437 f73e
00000200: f5db fd3e 27f5 343d a03f 53be 349b 00bf
00000210: 2deb a6be 99b1 b73e aafa 65bd c640 0fbe
00000220: fd3f 1fbe 9a5e 853e 8c3b e93e ac92 a43e
00000230: c47d 093e d51d 8cbd 01ba 253d 307c 0c3e
00000240: 72ce 3c3e 357b a83d a9c1 6e3d e67e 353e
00000250: e548 cbbe 443c c63e 8f0a 9bbe cd60 ef3e
00000260: 3888 dbbd ed0e b53d 48d7 42bd be1c 9fbe
00000270: 8868 febe 6a5f d23e e699 1ebe 7bb3 4b3e
00000280: 3b68 433d 183e 87be 8d23 51be cd94 10be
00000290: 9ad9 8a3e a6ac b23d 537d d9be 45ae e9bb
000002a0: 2246 d0bd aa6e a9bc 5cca 7e3e 3b3d debe
000002b0: 9197 8f3e 8845 aabe a9a4 4abe 0d4b 61bd
000002c0: e92e dc3e cd2a d2bd c049 23be e090 83be
000002d0: 0609 023e fce5 86be 68be debe 3db7 c83e
000002e0: 9c1c 70be 338e 6ebe 7579 f3be 8503 2b3e
000002f0: aeb2 d2be db35 e6be a5b5 ec3e 1192 a43e
00000300: 6a9a c6be 3289 dc3d be7d d13e 313e 133e
00000310: 99b3 283e 7ebc abbe ae58 693d 420c f0bd
00000320: 4eb8 f6be 1c20 9cbd 7f17 96be b693 8fbe
00000330: f152 993e 61cc 5dbe 3f2a 31bd b1da 5d3e
00000340: e9f6 95be 40c4 fdbc ba98 c6bd afa8 c23e
00000350: dcfa f0bd 215b 81be d215 6e3e 0bf9 353e
00000360: fd5a 53bd 7c1f bcbe e9ad f33e 0763 b53d
00000370: 48fd 733e ae02 c53d 2ff3 bdbd 5107 5e3e
00000380: 5e44 3fbd 3c4a 3d3d e9df 413e 266f 01be
00000390: 70fc ccbe 1bf8 8a3e 855c b33e 927f 9fbe
000003a0: 5c85 01bd 20b1 7dbc 3851 633b ec35 abbc
000003b0: 2433 80be b8f4 e13e 7c98 9c3e 2332 61be
000003c0: aa97 2fbe 5712 933e 4564 613e 8120 81be
000003d0: d2c5 c4be e261 edbe f078 4b3d 14bc abbe
000003e0: 03fd 363e 72d9 f3bc 5902 dabe 1c01 f5be
000003f0: dff4 e3be 3c54 953e 624e adbe 4b1e 543e
