restsyn/tabsyn/vae/ckpt/adult_nocond/decoder.pt (torch, 27523 bytes, 49 tensors)

VAE_Decoder.layers.0.attention.W_q.weight f4 [4, 4]
-0.051998466 -0.43258518 -0.39829507 0.47318697 -0.073852845 -0.48354644 0.17128369 -0.1154628
-0.20260875 -0.17150474 -0.039576903 -0.33285978 0.25258976 -0.37865484 0.54581547 -0.37020162
00000000: 58fc 54bd ce7b ddbe 55ed cbbe 9045 f23e
00000010: 2940 97bd 6693 f7be fe64 2f3e c377 ecbd
00000020: ab78 4fbe f09e 2fbe 641b 22bd 996c aabe
00000030: 7253 813e 0cdf c1be 90ba 0b3f 118b bdbe

VAE_Decoder.layers.0.attention.W_q.bias f4 [4]
0.185948 -0.2804232 -0.20209701 -0.084190115
00000000: 2769 3e3e a193 8fbe 85f2 4ebe de6b acbd

VAE_Decoder.layers.0.attention.W_k.weight f4 [4, 4]
-0.2000933 -0.04857453 -0.20241635 0.40215155 -0.25969315 -0.14075823 0.3637345 -0.28630075
0.06480919 0.03809766 0.15220799 0.2799487 0.532144 0.04369207 -0.009797415 0.21520002
00000000: 42e5 4cbe 16f6 46bd 3b46 4fbe cfe6 cd3e
00000010: 80f6 84be ed22 10be 693b ba3e 0396 92be
00000020: aeba 843d 4b0c 1c3d 69dc 1b3e 7055 8f3e
00000030: 973a 083f 75f6 323d 5685 20bc 655d 5c3e

VAE_Decoder.layers.0.attention.W_k.bias f4 [4]
-0.0011761278 0.00017489148 0.00079020567 0.0013341417
00000000: 4d28 9aba 1363 3739 ce25 4f3a 5ede ae3a

VAE_Decoder.layers.0.attention.W_v.weight f4 [4, 4]
0.4035835 0.046192095 0.08601435 0.22214769 -0.23680963 -0.012377122 -0.09931679 -0.12814315
0.35047388 0.040020913 0.07399734 0.19017181 0.17908587 0.02807185 0.028661497 0.09896424
00000000: 7fa2 ce3e ec33 3d3d 4b28 b03d af7a 633e
00000010: 397e 72be 6ac9 4abc 9a66 cbbd f537 03be
00000020: 5071 b33e f8ec 233d eb8b 973d 66bc 423e
00000030: 4962 373e f0f6 e53c 84cb ea3c c3ad ca3d

VAE_Decoder.layers.0.attention.W_v.bias f4 [4]
-0.052609935 -0.015264689 0.0064934487 -0.0010844924
00000000: 847d 57bd bf18 7abc ffc6 d43b 8725 8eba

VAE_Decoder.layers.0.linear0.weight f4 [128, 4]
0.47128892 -0.23572811 -0.076284304 -0.25852743 -0.27136722 0.38556868 -0.24630706 0.028229482
-0.13829075 0.35376707 -0.080917776 -0.014001514 -0.52080655 -0.04527797 0.06966743 -0.0012980041
0.44149607 -0.25190783 -0.33163387 -0.04899334 0.28427508 -0.38226247 -0.11823142 0.2977305
-0.07409942 0.26170462 -0.19069764 0.35283738 -0.57081866 0.5134825 -0.1362267 -0.3213541
-0.30279988 -0.48769182 0.61073625 -0.6376831 0.3913791 -0.18483396 0.39444616 -0.33166817
0.05374368 -0.0011396604 0.45448354 0.041367088 -0.18865639 -0.33720443 0.20760381 0.107795194
0.44272387 -0.21468836 -0.53044236 0.14162765 -0.014945195 -0.10839054 -0.25332114 0.3361206
-0.46681964 0.43763074 -0.24417995 -0.5848932 0.26582205 0.28821862 0.366406 0.4229368
-0.65903735 -0.36076668 -0.025956012 0.5471864 -0.6753129 0.37101993 -0.40197873 0.47823566
0.30993292 0.61995435 0.4529035 -0.46295416 -0.3288054 0.56797665 -0.4390119 0.10221406
0.23381062 -0.0507557 -0.10324405 0.40647614 -0.35209242 0.5978476 -0.268432 -0.1448437
-0.3348715 -0.41880128 -0.036360785 0.50018495 -0.29906848 0.40378374 -0.50927514 0.42788243
-0.10109705 0.31490126 0.32596293 0.32825598 -0.35434428 -0.22707854 0.09002528 0.39734378
-0.2216126 0.0010107072 0.008155287 -0.17183062 0.14436525 -0.40164578 0.6876074 -0.20872982
-0.04128224 -0.57205874 0.39442936 0.16112772 0.6168058 -0.33331838 0.9078479 -0.5258969
0.6648086 -0.39061806 -0.12810758 -0.46464077 -0.32094893 0.34546533 0.88014215 -0.67519563
-0.11272155 -0.19655074 0.5179039 0.57360077 0.17472613 -0.069954194 -0.4049696 -0.028572876
0.60674477 -0.44401044 -0.34696856 -0.07594557 0.24294883 -0.35300007 -0.3245282 -0.17832364
-0.1108636 0.50511086 0.20224318 -0.034262676 -0.36620724 0.5669632 -0.0270328 0.27998188
-0.5689311 0.5398147 -0.050005354 0.11620937 0.2958053 0.38075677 0.0037202237 0.61087245
0.1279273 0.25646427 -0.20496678 0.3642928 0.102077365 -0.10009951 -0.30016866 0.37991762
0.049664132 -0.36728248 0.123780556 -0.0053673866 -0.38837782 0.28032082 0.46102637 -0.4407578
0.37884545 0.7259761 -0.8602606 -0.36945227 0.056726582 0.07472131 -0.18433753 0.04994666
-0.3327447 0.09745218 0.6266054 -0.5616256 -0.31020385 0.042926684 0.109283015 0.13178481
0.045773022 0.62055224 -0.40311238 0.55601543 0.36816865 -0.20488587 0.26194894 -0.54078877
-0.52654976 0.29791147 0.23337784 0.20123853 0.122026674 0.13680837 -0.45499507 -0.24338162
-0.53017205 0.52337044 -0.5535185 0.6256441 0.23573259 0.002792885 -0.2627519 0.1622291
-0.07865141 0.58596504 0.09717551 0.60912687 -0.1852332 0.17086211 0.4741992 -0.42874733
0.20509182 0.5312232 -0.61436146 -0.27357855 -0.46973687 0.10069396 0.17292017 0.39906147
-0.46885535 0.32354826 -0.4467762 -0.9563224 -0.3917131 0.037337594 -0.58393717 0.14478326
0.5039407 0.1496089 0.3520451 0.21324112 -0.67442834 0.35705766 -0.61507106 -0.04383707
-0.09381171 -0.37250343 -0.025915962 -0.5401283 -0.5272447 -0.05706302 0.27184147 0.61644316
00000000: c84c f13e b662 71be f23a 9cbd b55d 84be
00000010: a5f0 8abe 4269 c53e eb37 7cbe 8441 e73c
00000020: 179c 0dbe f520 b53e 38b8 a5bd 9b66 65bc
00000030: 9453 05bf 6575 39bd ccad 8e3d ca21 aaba
00000040: c60b e23e 10fa 80be eacb a9be 3ead 48bd
00000050: 818c 913e e8b7 c3be 5123 f2bd 2270 983e
00000060: 70c1 97bd 26fe 853e 3e46 43be 1aa7 b43e
00000070: 2c21 12bf 9773 033f 037f 0bbe 8688 a4be
00000080: 9608 9bbe beb2 f9be 3659 1c3f 333f 23bf
00000090: d762 c83e 1d45 3dbe d9f4 c93e 69d0 a9be
000000a0: 5522 5c3d a860 95ba 11b2 e83e 8970 293d
000000b0: 242f 41be 0fa6 acbe 1896 543e bac3 dc3d
000000c0: b4ac e23e 44d7 5bbe 12cb 07bf d706 113e
000000d0: b1dc 74bc dcfb ddbd 4fb3 81be 0018 ac3e
000000e0: fc02 efbe 2311 e03e 4f0a 7abe 90bb 15bf
000000f0: d419 883e 6491 933e 9199 bb3e 2c8b d83e
00000100: acb6 28bf 69b6 b8be b4a1 d4bc 6814 0c3f
00000110: 4ee1 2cbf 53f6 bd3e 28d0 cdbe 4edb f43e
00000120: 87af 9e3e 54b5 1e3f f8e2 e73e 5408 edbe
00000130: 2e59 a8be eb66 113f 2bc6 e0be 9b55 d13d
00000140: 0d6c 6f3e 35e5 4fbd 9e71 d3bd a41d d03e
00000150: 7545 b4be 8a0c 193f eb6f 89be e851 14be
00000160: 4774 abbe 1f6d d6be 0cef 14bd 1f0c 003f
00000170: 811f 99be bebc ce3e db5f 02bf 6813 db3e
00000180: f80b cfbd bd3a a13e 9de4 a63e 2b11 a83e
00000190: 9d6c b5be 4787 68be 2d5f b83d a570 cb3e
000001a0: 6aee 62be b579 843a c19d 053c 5ef4 2fbe
000001b0: 7cd4 133e 84a4 cdbe 0a07 303f 45bd 55be
000001c0: 9117 29bd 7172 12bf a5f2 c93e aafe 243e
000001d0: fce6 1d3f b5a8 aabe b868 683f 2ea1 06bf
000001e0: e530 2a3f 17ff c7be a22e 03be 65e5 edbe
000001f0: 6b53 a4be d5e0 b03e ff50 613f 9fd9 2cbf
00000200: 8eda e6bd 9944 49be 5a95 043f 80d7 123f
00000210: 68eb 323e 2544 8fbd 2d58 cfbe aa11 eabc
00000220: a053 1b3f 5655 e3be dda5 b1be 5a89 9bbd
00000230: 94c7 783e 6dbc b4be 8f28 a6be 799a 36be
00000240: 750c e3bd f24e 013f d618 4f3e 0557 0cbd
00000250: 847f bbbe 8024 113f e473 ddbc c959 8f3e
00000260: 78a5 11bf 4c31 0a3f 6ad2 4cbd 2eff ed3d
00000270: cb73 973e 8df2 c23e ffce 733b 2362 1c3f
00000280: 60ff 023e 494f 833e d0e2 51be 9684 ba3e
00000290: f00d d13d f900 cdbd b5af 99be 9084 c23e
000002a0: 9e6c 4b3d 730c bcbe a980 fd3d e7e0 afbb
000002b0: 75d9 c6be 3686 8f3e a60b ec3e 02ab e1be
000002c0: 08f8 c13e 92d9 393f 0a3a 5cbf d928 bdbe
000002d0: 225a 683d 7c07 993d fac2 3cbe de94 4c3d
000002e0: 835d aabe 0295 c73d 3669 203f b2c6 0fbf
000002f0: 0ad3 9ebe e4d3 2f3d c6cf df3d 99f2 063e
00000300: 7e7c 3b3d 83dc 1e3f bf64 cebe 0757 0e3f
00000310: 9a80 bc3e 9acd 51be 2c1e 863e 2271 0abf
00000320: f7cb 06bf da87 983e 9afa 6e3e 7911 4e3e
00000330: 1fe9 f93d 7e17 0c3e 1df5 e8be 0839 79be
00000340: 5bb9 07bf 9bfb 053f 63b3 0dbf 362a 203f
00000350: e263 713e d608 373b 6b87 86be 631f 263e
00000360: fe13 a1bd ce01 163f f403 c73d bdef 1b3f
00000370: c6ad 3dbe 7af6 2e3e 3dca f23e c584 dbbe
00000380: 9703 523e 3efe 073f cb46 1dbf 7d12 8cbe
00000390: 5a81 f0be a338 ce3d fc11 313e c951 cc3e
000003a0: cf0d f0be 1ea8 a53e dabf e4be 8bd1 74bf
000003b0: 9f8e c8be 4eef 183d e87c 15bf 1042 143e
000003c0: 4202 013f 1333 193e 413f b43e e15b 5a3e
000003d0: 56a7 2cbf 43d0 b63e 4c75 1dbf 808e 33bd
000003e0: 5b20 c0bd c5b8 bebe b64d d4bc d945 0abf
000003f0: 82f9 06bf eaba 69bd ce2e 8b3e 38cf 1d3f

VAE_Decoder.layers.0.linear0.bias f4 [128]
-0.22987764 0.09444814 0.3666907 0.19044906 -0.6046953 0.4713566 -0.41938007 -0.020157738
-0.014221017 7.8263045e-05 0.42336306 0.2944033 -0.069935925 0.17620043 -0.11658188 0.4494546
0.5658099 0.44232595 0.41916433 0.3053512 0.36528596 0.39848182 -0.20318887 -0.37750018
-0.08860597 0.015569562 0.3196888 0.36352184 -0.22697835 -0.064955115 0.26097652 0.043969348
0.36001617 -0.2647844 0.43962973 -0.30288318 -0.0684441 -0.16155009 0.36688572 0.3427678
0.19987486 0.28430417 0.46008724 0.40485105 -0.43445724 -0.29110715 -0.16283104 0.35813573
-0.3486813 0.48926318 -0.20586476 -0.31889853 -0.07032815 0.29350442 0.34436688 0.10805515
-0.2646594 0.13213927 -0.4153884 0.3370976 -0.0061995974 0.031754564 0.008577203 0.54592973
0.038146645 0.4363511 0.33317345 -0.17261708 0.42062843 0.1468803 0.017106028 -0.4511519
0.6463235 0.4933172 0.45985353 0.2815487 -0.10800679 -0.312487 -0.13332963 -0.31599206
-0.13489442 0.31453314 -0.016148338 -0.21399428 -0.48004186 0.5754955 0.5447559 0.18431377
0.3425462 0.34120706 -0.38076454 -0.17711991 0.30014575 -0.11863297 -0.35294425 -0.24399331
-0.3609048 0.33799654 -0.12148322 0.4328173 0.13458195 0.4965031 0.29958624 0.15916736
-0.1055993 0.2607122 -0.3802188 -0.11192589 0.11548227 0.08575043 -0.2498477 0.19303237
-0.16145806 0.41810504 0.045855097 -0.18346964 -0.032221247 0.5110502 0.0032697145 -0.022375911
0.09463806 -0.5132625 -0.03282248 0.008631674 0.24207519 0.25200865 0.21677181 0.3246597
00000000: 0b65 6bbe 076e c13d e2be bb3e 1405 433e
00000010: 50cd 1abf a755 f13e fcb8 d6be d721 a5bc
00000020: 45ff 68bc 2721 a438 0bc3 d83e 08bc 963e
00000030: 913a 8fbd e36d 343e 7bc2 eebd ea1e e63e
00000040: ebd8 103f 8c78 e23e b59c d63e fe56 9c3e
00000050: c306 bb3e cf05 cc3e be10 50be b447 c1be
00000060: 0c77 b5bd 7a17 7f3c 40ae a33e 891f ba3e
00000070: 036d 68be 3007 85bd b79e 853e 3419 343d
00000080: 0a54 b83e d291 87be 2617 e13e 8113 9bbe
00000090: 6c2c 8cbd 636d 25be 72d8 bb3e 437f af3e
000000a0: ffab 4c3e 5190 913e 8e90 eb3e a348 cf3e
000000b0: 2e71 debe ff0b 95be 2ebd 26be 915d b73e
000000c0: 5b86 b2be b480 fa3e 36ce 52be ab46 a3be
000000d0: 3508 90bd 3646 963e db50 b03e 054c dd3d
000000e0: 7081 87be 844f 073e caad d4be 0e98 ac3e
000000f0: fe25 cbbb 1311 023d 6687 0c3c 0dc2 0b3f
00000100: a83f 1c3d 6969 df3e b695 aa3e 88c2 30be
00000110: 9c5c d73e ca67 163e f121 8c3c 62fd e6be
00000120: 7575 253f 1294 fc3e ec71 eb3e 2727 903e
00000130: aa32 ddbd 4cfe 9fbe 9087 08be b6c9 a1be
00000140: c321 0abe 7d0a a13e 8549 84bc 5121 5bbe
00000150: 0cc8 f5be ac53 133f 1f75 0b3f c0bc 3c3e
00000160: 3762 af3e b1b2 ae3e 92f3 c2be ec5e 35be
00000170: b4ac 993e d8f5 f2bd 1cb5 b4be 62d9 79be
00000180: 84c8 b8be e20d ad3e 32cc f8bd 3b9a dd3e
00000190: dacf 093e a835 fe3e 5e63 993e c5fc 223e
000001a0: 7244 d8bd 127c 853e 0aac c2be 6739 e5bd
000001b0: f881 ec3d ec9d af3d 13d8 7fbe 47aa 453e
000001c0: 4355 25be dd11 d63e 8ed2 3b3d 77df 3bbe
000001d0: 6dfa 03bd 30d4 023f b548 563b b04d b7bc
000001e0: 99d1 c13d 2c65 03bf dd70 06bd dd6b 0d3c
000001f0: 8fe2 773e 4707 813e 6ef9 5d3e cc39 a63e

VAE_Decoder.layers.0.linear1.weight f4 [4, 128]
0.017000636 -0.051807296 -0.008119776 -0.31530315 0.036939614 -0.08162767 -0.11333158 -0.08151439
0.11842333 0.027754003 -0.0044983467 0.014725191 0.09753355 0.0019955975 0.067459755 -0.101748236
-0.18920024 -0.15441555 0.1988891 -0.15750737 0.036156192 -0.0042560366 -0.017351177 -0.040454824
-0.413436 -0.04996454 -0.0045171175 -0.039290044 -0.070051 0.23636773 0.18998545 0.096642815
-0.029095246 -0.06782915 0.07131672 -0.035621993 0.014637761 -0.06283752 -0.14788672 -0.14982064
0.008434855 -0.036417905 0.021267194 0.017325537 -0.13054064 -0.0019941307 -0.01682971 -0.11160351
-0.14490154 0.18113525 -0.28254557 -0.0061113257 -0.11171899 0.010288274 -0.19158529 0.03608543
-0.056999292 -0.05978517 0.5889728 -0.044633187 0.055231046 -0.14482355 0.07155706 -0.18963498
-0.029821647 -0.09678875 -0.18286999 -0.049635407 0.029372327 0.13167554 0.035089184 -0.0069737467
0.10068618 -0.081324376 0.08965815 -0.025267083 -0.30220652 -0.021840943 0.012229874 -0.03390752
-0.11357393 0.030156557 -0.12566496 -0.08266639 0.07276643 -0.06538963 -0.025580667 -0.07298142
-0.13612449 0.15225439 0.07115657 -0.064900905 -0.17945436 -0.039147858 -0.17369649 -0.05647315
0.008256963 0.16488 -0.23265676 -0.14727463 0.6960949 0.107837915 -0.026077189 -0.032034513
-0.10716899 -0.17807662 -0.008260022 0.22218351 -0.19968107 0.0042968434 -0.035337634 0.082994156
-0.005623866 -0.14391904 0.0841507 -0.064731166 0.022863295 -0.21737272 0.03559251 0.015132249
-0.00445366 -0.068821274 0.26234654 -0.3934006 -0.15009603 0.35814202 -0.044828825 -0.025641315
-0.19650526 0.13083927 0.02676822 -0.088953294 0.14085314 -0.025103116 -0.13046418 0.21351136
0.010044335 0.0065666023 -0.023207381 -0.036305618 0.06917425 -0.12372679 0.18009247 -0.08599569
-0.0805782 -0.06390994 0.19590367 0.12005814 -0.015938273 0.12631617 -0.087694734 -0.09591954
0.05320785 -0.013596695 0.021348512 -0.21532178 -0.24839911 -0.08218159 -0.077831544 0.27775082
-0.19746388 0.09451358 -0.099591896 -0.053804167 0.08257714 0.09064059 0.08656589 -0.07109246
0.056164067 0.010497603 -0.15037079 0.13341434 -0.30950084 -0.0040261233 0.32105818 -0.019027276
-0.13473669 -0.044955507 0.06362948 -0.05291846 -0.027173173 -0.038861163 0.064835854 0.1512517
-0.08270075 0.031436216 0.42416996 -0.063553885 -0.117482066 0.05444882 -0.08392576 -0.098287076
0.2791731 -0.038642734 -0.18454383 -0.077610776 0.00252833 0.14717522 -0.05328177 0.25007656
-0.13388875 0.024900405 -0.16773888 -0.115634926 0.18084168 -0.018256282 -0.091334276 0.06080638
0.014382932 -0.08280107 0.14421456 -0.017727666 -0.06319215 0.008624416 -0.050284203 -0.012797542
0.027523492 0.108370185 -0.27055672 0.018630983 -0.036207646 -0.28580883 0.018009903 0.13371812
-0.069688074 -0.07927338 -0.15770659 0.006292281 -0.26169163 0.045784436 0.028574184 -0.11775304
0.06356015 -0.10464095 0.11572696 -0.32053965 0.02439104 0.20643198 -0.16651377 -0.122889094
-0.1975195 0.07255979 -0.09137679 -0.075617895 -0.049141563 0.07071263 -0.1627491 0.6279342
0.2709466 -0.555903 0.35613248 -0.16444674 0.15955059 0.30303535 -0.011655864 0.07138545
00000000: eb44 8b3c e333 54bd cf08 05bc 6a6f a1be
00000010: fe4d 173d 682c a7bd 631a e8bd 04f1 a6bd
00000020: ee87 f23d 5d5c e33c de66 93bb ed41 713c
00000030: abbf c73d 92c8 023b 5728 8a3d 6161 d0bd
00000040: b5bd 41be 1c1f 1ebe 96a9 4b3e 9d49 21be
00000050: 8418 143d 3976 8bbb 0e24 8ebc f5b3 25bd
00000060: e2ad d3be 9ea7 4cbd 5404 94bb 99ee 20bd
00000070: e676 8fbd 620a 723e 8c8b 423e abec c53d
00000080: 2759 eebc 02ea 8abd 800e 923d 5ee8 11bd
00000090: 38d3 6f3c f5b0 80bd 9e6f 17be 956a 19be
000000a0: 5932 0a3c f12a 15bd 8a38 ae3c 49ee 8d3c
000000b0: 72ac 05be f6af 02bb 76de 89bc 6290 e4bd
000000c0: 1261 14be 857b 393e d0a9 90be 8441 c8bb
000000d0: edcc e4bd 2690 283c ef2e 44be 51ce 133d
000000e0: 1778 69bd 4be1 74bd ecc6 163f 4ad1 36bd
000000f0: f339 623d a04c 14be 828c 923d ac2f 42be
00000100: 874c f4bc 2e39 c6bd 4542 3bbe 7f4e 4bbd
00000110: 3c9e f03c f4d5 063e adb9 0f3d 0784 e4bb
00000120: 8e34 ce3d 658d a6bd b19e b73d eafc cebc
00000130: d0ba 9abe c7eb b2bc cf5f 483c 9de2 0abd
00000140: 7399 e8bd e20a f73c 51ae 00be ff4c a9bd
00000150: 9106 953d 00eb 85bd 8c8e d1bc 4877 95bd
00000160: 3864 0bbe 93e8 1b3e 89ba 913d c4ea 84bd
00000170: e2c2 37be 8159 20bd 7edd 31be 6450 67bd
00000180: 3748 073c 4dd6 283e 933d 6ebe 29cf 16be
00000190: 4633 323f 20da dc3d d49f d5bc 9f36 03bd
000001a0: 6a7b dbbd b859 36be 0b55 07bc 1384 633e
000001b0: 3279 4cbe 89cc 8c3b 32be 10bd d7f8 a93d
000001c0: 6848 b8bb 835f 13be 3457 ac3d c691 84bd
000001d0: ce4b bb3c f496 5ebe 74c9 113d 41ed 773c
000001e0: 02f0 91bb 2bf2 8cbd 4952 863e ce6b c9be
000001f0: c6b2 19be 645e b73e 6e9e 37bd bc0d d2bc
00000200: ad38 49be bbfa 053e 0749 db3c 252d b6bd
00000210: ce3b 103e 0da5 cdbc 6798 05be b9a2 5a3e
00000220: ff90 243c a72c d73b 681d bebc 33b5 14bd
00000230: 3bab 8d3d 7964 fdbd 296a 383e 821e b0bd
00000240: 2f06 a5bd 37e3 82bd f99a 483e 0be1 f53d
00000250: fb90 82bc 0759 013e 4c99 b3bd 7771 c4bd
00000260: 79f0 593d acc4 5ebc 13e3 ae3c 507d 5cbe
00000270: 565c 7ebe d24e a8bd 2566 9fbd 5b35 8e3e
00000280: f933 4abe 5690 c13d d6f6 cbbd c261 5cbd
00000290: 341e a93d c6a1 b93d 7549 b13d ec98 91bd
000002a0: 4b0c 663d 23fe 2b3c cdfa 19be c59d 083e
000002b0: e576 9ebe 92ed 83bb bd61 a43e 17df 9bbc
000002c0: 6af8 09be 4423 38bd 2c50 823d 07c1 58bd
000002d0: 469a debc e22c 1fbd a9c8 843d bae1 1a3e
000002e0: 035f a9bd 43c3 003d ce2c d93e 8a28 82bd
000002f0: 709a f0bd ba05 5f3d 45e1 abbd bc4a c9bd
00000300: c7ef 8e3e d847 1ebd 0ff9 3cbe 66f2 9ebd
00000310: 57b2 253b 1ab5 163e fc3d 5abd 090a 803e
00000320: 221a 09be effb cb3c bec3 2bbe 01d2 ecbd
00000330: 902e 393e 338e 95bc 770d bbbd 1c10 793d
00000340: 64a6 6b3c 9b93 a9bd fbac 133e 9c39 91bc
00000350: e36a 81bd 6c4d 0d3c cff6 4dbd c8ac 51bc
00000360: f278 e13c 30f1 dd3d 6986 8abe 01a0 983c
00000370: 784e 14bd 8955 92be 8189 933c 67ed 083e
00000380: 9fb8 8ebd 155a a2bd d67d 21be 7b2f ce3b
00000390: 72fc 85be 7688 3b3d 6814 ea3c 8128 f1bd
000003a0: d32b 823d ff4d d6bd 4202 ed3d c61d a4be
000003b0: b8cf c73c e862 533e 9682 2abe 47ad fbbd
000003c0: 8d42 4abe 3a9a 943d c123 bbbd 8edd 9abd
000003d0: aa48 49bd c9d1 903d b3a7 26be 4cc0 203f
000003e0: 83b9 8a3e a94f 0ebf ff56 b63e ba64 28be
000003f0: 3b61 233e 7327 9b3e 3df8 3ebc 8932 923d

VAE_Decoder.layers.0.linear1.bias f4 [4]
0.024518576 -0.0059466646 -0.090755604 -0.033801623
00000000: 2edb c83c 3ddc c2bb 13de b9bd 9273 0abd

VAE_Decoder.layers.0.norm1.weight f4 [4]
1.3680227 1.4421802 1.3526951 1.2650766
00000000: 5e1b af3f 5c99 b83f 1d25 ad3f 08ee a13f

VAE_Decoder.layers.0.norm1.bias f4 [4]
-0.1978673 0.142094 0.13249514 -0.0018982642
00000000: ba9d 4abe 1781 113e ceac 073e 2dcf f8ba

VAE_Decoder.layers.1.attention.W_q.weight f4 [4, 4]
0.20307846 -0.3919155 -0.27792263 0.18750979 -0.39991438 0.44046283 -0.25556612 -0.03934392
0.25732288 0.30556965 0.037162665 -0.17316969 -0.4692985 -0.021621535 0.14997254 0.33930764
00000000: cdf3 4f3e 26a9 c8be e04b 8ebe 9102 403e
00000010: 94c1 ccbe 5884 e13e 90d9 82be 1727 21bd
00000020: d3bf 833e a073 9c3e e137 183d 6553 31be
00000030: e547 f0be a51f b1bc 6792 193e bbb9 ad3e

VAE_Decoder.layers.1.attention.W_q.bias f4 [4]
0.088810876 0.15636644 -0.0368698 -0.017733801
00000000: 7ae2 b53d 861e 203e ca04 17bd 7a46 91bc

VAE_Decoder.layers.1.attention.W_k.weight f4 [4, 4]
-0.0851491 0.03613154 -0.07738216 0.27622753 0.42168695 -0.58087415 -0.28121886 0.02379587
-0.32366315 -0.16696486 0.51032066 0.40050024 -0.40836537 -0.5221707 0.4381332 0.46351707
00000000: a762 aebd aafe 133d 8a7a 9ebd b26d 8d3e
00000010: 5ae7 d73e 2bb4 14bf ebfb 8fbe 8eef c23c
00000020: 2db7 a5be d6f8 2abe 60a4 023f 5e0e cd3e
00000030: 4415 d1be fbac 05bf ff52 e03e 1c52 ed3e

VAE_Decoder.layers.1.attention.W_k.bias f4 [4]
6.360354e-05 -0.00022937857 7.534433e-05 3.9586408e-05
00000000: e462 8538 5785 70b9 2e02 9e38 9509 2638

VAE_Decoder.layers.1.attention.W_v.weight f4 [4, 4]
-0.1535191 0.2854845 -0.014187293 -0.1736273 0.091562435 -0.45029584 -0.13319032 0.114675134
-0.2776135 -0.018386653 -0.21462256 -0.34861466 -0.14373924 0.17405704 -0.04317658 -0.17074616
00000000: 1c34 1dbe 062b 923e d271 68bc 5bcb 31be
00000010: 1685 bb3d 2d8d e6be 0b63 08be ccda ea3d
00000020: 5b23 8ebe 9b9f 96bc 04c6 5bbe 9f7d b2be
00000030: 6130 13be 023c 323e edd9 30bd 15d8 2ebe

VAE_Decoder.layers.1.attention.W_v.bias f4 [4]
-0.043503795 0.010784886 -0.026217422 -0.021156628
00000000: 0931 32bd 17b3 303c ebc5 d6bc aa50 adbc

VAE_Decoder.layers.1.linear0.weight f4 [128, 4]
0.3830589 -0.50693834 0.029328106 0.08703981 -0.6237451 0.14101025 -0.38443828 -0.22907002
-0.14973521 0.76056033 0.4379442 -0.44480586 -0.27174756 0.22468184 0.67594355 -1.1486944
-0.07054143 -0.6562224 0.6869562 -0.17034718 -0.28785583 0.43564078 -0.17769387 0.12327557
0.003628903 -0.4775826 0.15383698 0.09669866 -0.33838668 -0.5969209 0.535609 0.076229244
-0.035947885 0.21356693 0.549681 -0.6330766 0.53493595 -0.15735632 0.13550994 0.4276231
-0.47229764 -0.1641824 -0.34182063 -0.6082779 0.46823704 0.0030465971 -0.17637658 0.11882798
-0.53585017 0.22770084 -0.598641 0.033958517 0.9685158 -0.27332965 0.3063001 -0.7372412
-0.42876005 0.46868336 -0.4800324 0.2304274 0.4234804 0.516802 -0.21478483 -0.28590098
-0.43371153 0.44000804 -0.41469163 0.39605147 -0.075013176 0.5404239 0.022552857 -0.3424916
-0.4371268 -0.24650007 0.16289492 -0.0958544 0.43174174 0.37857974 -0.47666472 0.034219705
-0.25525624 0.65047544 0.22587886 -1.0214353 -0.39633024 -0.6392352 0.16481145 -0.1351414
-0.42256585 0.14148743 0.47489104 0.40899682 0.3365034 -0.3646798 -0.6508789 -0.17345864
-0.41838852 0.31318715 -0.18186522 0.25284094 0.22150826 -0.42697912 -0.64759034 -0.34732002
0.3946215 0.34631905 -0.26197308 0.41325748 0.494311 -0.3101387 -0.3974105 0.045287825
0.080153376 0.15755178 -0.56594604 0.47502604 0.44015425 0.10957072 0.3928718 -0.63050985
-0.47047356 -0.15492117 0.1382087 -0.5073226 -0.68146485 -0.057725303 0.4444759 0.28930196
-0.37026042 -0.22982164 -0.15378061 -0.3260212 0.15812002 0.42432994 -0.31262597 -0.45160833
0.59617704 -0.12164548 0.41313452 -0.5631075 0.68461746 -0.5022328 0.5425157 -0.38697907
-0.10884585 -0.019335719 -0.16451283 0.4739955 -0.44717637 -0.08667052 -0.51316345 0.4117967
0.11935241 0.02994788 -0.42152148 -0.7031497 -0.45091873 0.30313006 0.21370572 0.39947027
0.38091528 -0.4161459 -0.05131552 -0.7852146 -0.3986363 -0.35735646 -0.09239631 0.50521153
-0.37368396 0.44510388 0.1511154 0.10267485 0.60599506 -0.23639819 -0.07788962 -0.64691645
-0.3987997 -0.42241743 0.32955986 -0.0030203278 0.4724126 0.29086012 0.45867437 -0.11248486
-0.23358282 -0.78932756 0.6772739 -0.14894888 -0.13703926 0.481094 -0.16161485 -0.0021969797
-0.07632574 0.6503236 0.06923159 0.43282837 0.010228245 0.47220188 0.20080948 0.5735308
-0.58197504 0.58607453 0.028847715 -0.47035354 -0.47509372 -0.830002 0.8922354 -0.18417251
0.093923755 -0.8127391 0.36111823 0.55714655 -0.16961052 -0.2418707 0.58443326 0.42687604
0.24771594 -0.64236647 -0.36626214 0.21492243 -0.20459852 -0.25451618 -0.45102224 0.513609
0.48194402 -0.8910143 -0.26947254 -0.0002696847 -0.07379451 -0.70439714 0.3355425 -0.16847558
0.4509258 -0.4673585 -0.061031558 0.32901558 -0.49062124 0.5474109 -0.310602 0.53892475
0.489834 0.34025764 0.022098297 0.21247387 0.7816239 0.4125652 -1.2418028 -1.5176256
0.04875437 0.17601714 -0.089686 0.4959163 -0.33654186 0.33411497 -0.5940742 -0.0706646
00000000: 4c20 c43e b6c6 01bf 7f41 f03c ee41 b23d
00000010: c2ad 1fbf fe64 103e 18d5 c4be 5591 6abe
00000020: 3054 19be 15b4 423f 393a e03e 98bd e3be
00000030: 7f22 8bbe ff12 663e a30a 2d3f 6b08 93bf
00000040: 0678 90bd 31fe 27bf 5ddc 2f3f 7e6f 2ebe
00000050: d761 93be 4f0c df3e 62f5 35be e777 fc3d
00000060: e4d2 6d3b b585 f4be 7187 1d3e f209 c63d
00000070: 0541 adbe cfcf 18bf ac1d 093f 141e 9c3d
00000080: 173e 13bd 4ab1 5a3e e5b7 0c3f 4f11 22bf
00000090: 90f1 083f 0422 21be 1ec3 0a3e 6af1 da3e
000000a0: ffd0 f1be 6e1f 28be 1d03 afbe 1ab8 1bbf
000000b0: c4bc ef3e 6ba9 473b 109c 34be 155c f33d
000000c0: 7a2d 09bf 692a 693e 8940 19bf 1618 0b3d
000000d0: a7f0 773f ddf1 8bbe 5ed3 9c3e d7bb 3cbf
000000e0: 7086 dbbe 44f7 ef3e cfc6 f5be 29f5 6b3e
000000f0: 6cd2 d83e 234d 043f 8ef0 5bbe 9d61 92be
00000100: 700f debe bc48 e13e 7652 d4be 42c7 ca3e
00000110: 82a0 99bd 3959 0a3f c5c0 b83c 0f5b afbe
00000120: 15cf dfbe 846a 7cbe edcd 263e 504f c4bd
00000130: 410d dd3e 34d5 c13e 660d f4be f629 0c3d
00000140: f2b0 82be 8f85 263f ca4c 673e 64be 82bf
00000150: cceb cabe eba4 23bf 55c4 283e 8262 0abe
00000160: 8d5a d8be 15e2 103e eb24 f33e 0868 d13e
00000170: 2c4a ac3e 50b7 babe 00a0 26bf 249f 31be
00000180: 0537 d6be 115a a03e e03a 3abe 5e74 813e
00000190: 10d3 623e 029d dabe 7bc8 25bf eed3 b1be
000001a0: d40b ca3e bb50 b13e 5621 86be 7c96 d33e
000001b0: 5516 fd3e 80ca 9ebe 6479 cbbe ba7f 393d
000001c0: 7427 a43d 4155 213e d7e1 10bf 9d36 f33e
000001d0: e65b e13e 9d66 e03d 7e26 c93e 1869 21bf
000001e0: e9e1 f0be a8a3 1ebe 9586 0d3e e5df 01bf
000001f0: 7b74 2ebf 5e71 6cbd 5892 e33e 631f 943e
00000200: c692 bdbe 5d56 6bbe aa78 1dbe 40ec a6be
00000210: 37ea 213e c641 d93e 8310 a0be 3539 e7be
00000220: 0f9f 183f 4421 f9bd 5e86 d33e d027 10bf
00000230: 1743 2f3f 5492 00bf 4fe2 0a3f 1f22 c6be
00000240: 93ea debd f165 9ebc 0d76 28be 8aaf f23e
00000250: 4df4 e4be 5080 b1bd ae5e 03bf 04d7 d23e
00000260: 096f f43d 4255 f53c aad1 d7be 9e01 34bf
00000270: d2de e6be dd33 9b3e acd5 5a3e 5e87 cc3e
00000280: 5407 c33e 1311 d5be 3930 52bd d303 49bf
00000290: 0f1a ccbe 6df7 b6be 473a bdbd 8b55 013f
000002a0: 8153 bfbe a8e4 e33e ffbd 1a3e 3147 d23d
000002b0: 7e22 1b3f 5e12 72be 9884 9fbd 519c 25bf
000002c0: 792f ccbe 1947 d8be 12bc a83e b1f0 45bb
000002d0: 10e0 f13e 9eeb 943e 5ed7 ea3e 765e e6bd
000002e0: 5630 6fbe 5f11 4abf d361 2d3f 0e86 18be
000002f0: 0554 0cbe f451 f63e 5d7e 25be 34fb 0fbb
00000300: ab50 9cbd 9c7b 263f 4bc9 8d3d ae9b dd3e
00000310: 5e94 273c 72c4 f13e 00a1 4d3e ead2 123f
00000320: 51fc 14bf fb08 163f 0b52 ec3c 2ed2 f0be
00000330: 7c3f f3be 037b 54bf 8a69 643f b897 3cbe
00000340: 195b c03d ab0f 50bf 7de4 b83e 28a1 0e3f
00000350: 61ae 2dbe f4ac 77be 6b9d 153f 7f8f da3e
00000360: 3fa9 7d3e 2172 24bf b686 bbbe a014 5c3e
00000370: 4682 51be f24f 82be 63ec e6be e17b 033f
00000380: 5ec1 f63e 8319 64bf 4ef8 89be 7864 8db9
00000390: 9321 97bd 5f53 34bf 3acc ab3e dd84 2cbe
000003a0: bfdf e63e 9d49 efbe 3afc 79bd bb74 a83e
000003b0: b532 fbbe 1f23 0c3f 3a07 9fbe f9f6 093f
000003c0: 86cb fa3e 4036 ae3e 7d07 b53c c092 593e
000003d0: 8118 483f bf3b d33e 65f3 9ebf 8e41 c2bf
000003e0: aab2 473d d63d 343e 4bad b7bd bee8 fd3e
000003f0: 374f acbe 1e11 ab3e 3f15 18bf 9ab8 90bd

VAE_Decoder.layers.1.linear0.bias f4 [128]
0.18409033 0.015626485 0.34792268 0.3962154 0.41085106 -0.116319835 0.13791217 -0.08867572
0.40392825 0.1180849 -0.025913887 0.28028637 -0.26633644 0.046566036 -0.3201876 0.14180455
-0.35168046 0.39311254 0.295825 -0.19533975 -0.17087018 0.04328348 0.17695034 0.12495278
-0.2905818 -0.13196622 0.2845927 0.124214716 0.55075604 0.5738512 0.41911635 0.43354538
-0.48011684 -0.084840395 -0.30294546 -0.067884095 -0.20043561 0.32931125 -0.03249901 -0.2895046
0.3679333 -0.10378348 0.36707303 0.2968163 0.20652284 0.32514858 0.445855 0.1966233
-0.24766597 -0.062249053 -0.17822656 0.043950614 0.009857323 0.16680668 0.15516874 0.35061744
0.018388085 0.38765404 -0.11135364 0.36176202 -0.09116326 -0.25579834 0.39481628 0.3660391
-0.35977793 0.40106755 -0.1116683 0.45508823 0.28132564 -0.09895785 0.5263793 -0.16331261
0.0039885286 -0.31116122 -0.48050797 0.5557417 -0.31628844 0.60590684 0.19061528 -0.3897364
0.30123785 -0.069330566 0.41129148 0.2798993 -0.2052463 -0.23715763 -0.10226787 0.6999842
0.32063168 0.3167555 -0.28307256 -0.16926993 0.5086162 0.52587706 0.0075367675 0.17799664
-0.008470899 0.010716088 -0.49821976 -0.31905067 0.26988012 0.31753466 -0.27635065 0.28796202
0.47701505 -0.5014616 0.006014549 -0.0038589695 0.24903265 0.16484478 -0.32314843 0.17031047
0.06234866 0.542762 -0.43826318 0.12687641 0.09695201 0.48687476 0.2709358 0.07611376
0.46275842 -0.28577602 -0.3405766 -0.17474274 -0.021059258 0.12800615 -0.09925104 0.124480344
00000000: 2d82 3c3e 1d03 803c ec22 b23e bfdc ca3e
00000010: 125b d23e 1839 eebd d938 0d3e 9e9b b5bd
00000020: afcf ce3e 7fd6 f13d 5c49 d4bc b281 8f3e
00000030: 405d 88be 07bc 3e3d a1ef a3be 3635 113e
00000040: 760f b4be 0c46 c93e 6076 973e 2507 48be
00000050: 98f8 2ebe 054a 313d 7832 353e 3ee7 ff3d
00000060: 23c7 94be 2722 07be 22b6 913e 4964 fe3d
00000070: 59fe 0c3f eae7 123f 6b96 d63e a9f9 dd3e
00000080: e0d1 f5be cdc0 adbd ab1b 9bbe d106 8bbd
00000090: fe3e 4dbe 7c9b a83e af1d 05bd f239 94be
000000a0: c161 bc3e 6f8c d4bd fff0 bb3e 4ef8 973e
000000b0: b97a 533e e079 a63e 1b47 e43e 9e57 493e
000000c0: 269c 7dbe ddf8 7ebd 0681 36be 8f05 343d
000000d0: 9c80 213c 5fcf 2a3e 8ee4 1e3e 2184 b33e
000000e0: 9ca2 963c 977a c63e 610d e4bd df38 b93e
000000f0: ceb3 babd 00f8 82be 5c25 ca3e 7a69 bb3e
00000100: d034 b8be ba58 cd3e 5ab2 e4bd 5301 e93e
00000110: ea09 903e 6aaa cabd cbc0 063f 6c3b 27be
00000120: 34b2 823b 8650 9fbe 2405 f6be 1745 0e3f
00000130: 8ff0 a1be b61c 1b3f a730 433e 888b c7be
00000140: d93b 9a3e 2ffd 8dbd cc94 d23e f64e 8f3e
00000150: 162c 52be 73d9 72be d171 d1bd 2a32 333f
00000160: d629 a43e c72d a23e e3ee 90be 1955 2dbe
00000170: ac34 023f e19f 063f fdf6 f63b c044 363e
00000180: 87c9 0abc 8892 2f3c a916 ffbe 9c5a a3be
00000190: ba2d 8a3e e793 a23e d57d 8dbe c26f 933e
000001a0: 513b f43e ca5f 00bf b215 c53b c4e6 7cbb
000001b0: 6a02 7f3e 12cd 283e b673 a5be de65 2e3e
000001c0: 4f61 7f3d 73f2 0a3f 0864 e0be e4eb 013e
000001d0: c78e c63d a647 f93e 19b8 8a3e 88e1 9b3d
000001e0: acee ec3e 3c51 92be 0e60 aebe c3ef 32be
000001f0: 7784 acbc 0b14 033e 2144 cbbd 8def fe3d

VAE_Decoder.layers.1.linear1.weight f4 [4, 128]
0.04380364 -0.23057051 0.0039721215 0.18865126 0.047857378 -0.23566248 0.04756085 -0.10827519
0.046285324 0.00749171 0.07215326 0.029665519 -0.17866205 0.5765261 -0.058232572 0.108321555
-0.023421317 0.05796608 -0.032928724 0.0946681 0.06840665 -0.10334777 -0.36362892 0.013480243
-0.028833877 0.089652136 -0.080759786 0.031357814 -0.120508716 0.20069605 -0.06664445 -0.30649278
-0.08869616 0.16343404 0.09995394 0.38135046 -0.016971875 -0.14016739 0.2730452 -0.07193719
0.15596458 -0.11607688 -0.09809007 0.20433034 -0.14696816 0.18906395 -0.041105032 -0.07580548
-0.23880295 -0.08971322 -0.087537095 -0.054187987 -0.012935928 -0.06693925 -0.048973683 -0.10773265
0.10882657 -0.06453946 -0.03113089 -0.038529832 0.030692942 0.4375756 -0.12898502 -0.04017159
-0.060247768 -0.07033659 -0.15342629 -0.0721475 0.12238334 -0.09362675 -0.054134548 -0.082280844
0.40711015 0.004915263 -0.06142973 -0.086418554 0.018369598 -0.18942419 -0.08195012 0.15122044
-0.026628984 -0.092685126 -0.11697142 0.10821303 -0.040286414 -0.090148784 0.23666441 0.15363415
-0.023630079 -0.02192964 0.12889288 -0.35625416 0.17117393 -0.0230962 0.029193373 -0.11023336
-0.17760965 -0.18979798 -0.15682495 0.041148834 -0.032430764 -0.03395307 0.106870495 0.091249794
-0.05661542 -0.028996743 0.0050534615 -0.027450047 -0.065477446 0.12507866 -0.08867744 0.09093649
0.2622639 -0.11291685 -0.004415853 0.005489461 0.01567885 -0.073513076 0.0046114367 -0.03445345
-0.007681246 0.49668488 -0.012083999 0.10977374 0.11706417 -0.025742825 0.19082591 0.383648
-0.08276025 0.045518085 0.28057334 0.5406887 -0.18854381 0.23988722 -0.09927947 -0.28416905
0.18460484 0.11020479 0.19395795 -0.07761248 0.17374216 -0.19455476 0.12738667 0.10601762
0.021236638 0.22088857 -0.09076736 0.010394359 0.6412958 -0.2586271 -0.14768477 -0.109281175
0.08917942 -0.1300123 0.14277585 -0.02773101 0.06353133 0.035157498 0.1433586 -0.11292573
-0.041168444 0.16701427 0.059776284 -0.28754666 -0.07398861 -0.07014212 -0.010317979 0.028125517
-0.03328583 -0.15014994 -0.012145775 0.008510804 -0.23448344 0.10176638 -0.20592509 0.028562471
0.102329 -0.0058085667 0.22648244 -0.3566778 -0.20590733 -0.23763144 0.045054298 -0.04524422
-0.11470784 -0.15452035 0.087253146 0.062137324 -0.0040355893 -0.31537607 0.026400875 0.13186929
0.029933166 -0.16186942 -0.0644867 -0.09897323 0.19619595 0.08349482 0.10379698 0.08710031
1.0047331 -0.061454657 0.053952206 -0.0031854652 -0.026401225 0.005153233 -0.036364406 -0.029687466
-0.02270591 0.07368297 0.11891688 0.53061426 0.17333901 -0.041221507 0.09005125 0.019037602
-0.14308646 0.06413178 0.5730778 -0.60945594 0.062858485 -0.11223018 0.11131709 0.09468643
-0.18383673 -0.07156468 0.0019250662 -0.099845946 0.1457393 0.06542835 0.06622084 -0.012720907
0.07362414 -0.062277596 -0.07467428 0.015668128 0.0016431231 -0.0077925823 0.2817893 0.36012426
0.011974394 -0.13649477 -0.056444038 -0.19352694 -0.040550254 0.050757274 0.15282609 -0.22279769
0.023868373 0.249275 0.111138396 0.5682093 0.010509678 -0.13273443 -0.11726501 -0.021731716
00000000: 726b 333d ad1a 6cbe 9228 823b cc2d 413e
00000010: 1906 443d 8151 71be 2acf 423d 62bf ddbd
00000020: ae95 3d3d 057d f53b 17c5 933d 1a05 f33c
00000030: 2ff3 36be 3797 133f 4785 6ebd b1d7 dd3d
00000040: 10de bfbc d76d 6d3d 45e0 06bd 59e1 c13d
00000050: c918 8c3d ffa7 d3bd 922d babe 3ddc 5c3c
00000060: 0635 ecbc 8a9b b73d 6365 a5bd 0d71 003d
00000070: 46cd f6bd 4483 4d3e e37c 88bd 9fec 9cbe
00000080: 55a6 b5bd 415b 273e a7b4 cc3d 5e40 c33e
00000090: 9a08 8bbc 0a88 0fbe 95cc 8b3e ce53 93bd
000000a0: 2eb5 1f3e b7b9 edbd 72e3 c8bd f93b 513e
000000b0: d27e 16be fb99 413e c05d 28bd e73f 9bbd
000000c0: c388 74be 91bb b7bd a646 b3bd 39f4 5dbd
000000d0: 37f1 53bc 7217 89bd a198 48bd f0a2 dcbd
000000e0: 77e0 de3d 442d 84bd 3506 ffbc 75d1 1dbd
000000f0: c46f fb3c e909 e03e a614 04be f78a 24bd
00000100: 5dc6 76bd a10c 90bd c81b 1dbe 12c2 93bd
00000110: 1ea4 fa3d 62bf bfbd 30bc 5dbd dc82 a8bd
00000120: be70 d03e 3710 a13b be9d 7bbd 36fc b0bd
00000130: d77b 963c 6af8 41be 77d5 a7bd 88d9 1a3e
00000140: 0725 dabc b3d1 bdbd b68e efbd cb9e dd3d
00000150: 5e03 25bd ed9f b8bd 2858 723e 4552 1d3e
00000160: de93 c1bc caa5 b3bc 7ffc 033e f266 b6be
00000170: 3848 2f3e 3e34 bdbc f126 ef3c 07c2 e1bd
00000180: 4edf 35be 675a 42be b896 20be ae8b 283d
00000190: 1fd6 04bd 6012 0bbd ebde da3d 2ce1 ba3d
000001a0: 92e5 67bd 948a edbc 8297 a53b ecde e0bc
000001b0: 0a19 86bd 9f14 003e 859c b5bd e93c ba3d
000001c0: 7447 863e f340 e7bd dcb2 90bb f0e0 b33b
000001d0: ee70 803c 068e 96bd 891b 973b 101f 0dbd
000001e0: f6b2 fbbb 7b4d fe3e f7fb 45bc 0ed1 e03d
000001f0: 57bf ef3d 9ee2 d2bc de67 433e 836d c43e
00000200: 357e a9bd 2c71 3a3d 4fa7 8f3e 936a 0a3f
00000210: a111 41be ffa4 753e 0953 cbbd 9b7e 91be
00000220: 0d09 3d3e 0db3 e13d ea9c 463e 4bf3 9ebd
00000230: 77e9 313e 5d39 47be a771 023e c41f d93d
00000240: 75f8 ad3c 9d30 623e 3de4 b9bd 1a4d 2a3c
00000250: f62b 243f c56a 84be ad3a 17be cfce dfbd
00000260: b3a3 b63d f221 05be d533 123e 252c e3bc
00000270: b71c 823d 4f01 103d 99cc 123e 9b45 e7bd
00000280: 3ea0 28bd ca05 2b3e fad7 743d 5139 93be
00000290: 5787 97bd aca6 8fbd be0c 29bc 7c67 e63c
000002a0: b956 08bd e8c0 19be 13ff 46bc e670 0b3c
000002b0: 6d1c 70be e46a d03d 07de 52be d8fb e93c
000002c0: de91 d13d ca55 bebb 03eb 673e 799e b6be
000002d0: 5fd9 52be a855 73be db8a 383d 0152 39bd
000002e0: f2eb eabd 953a 1ebe c7b1 b23d b583 7e3d
000002f0: fa3c 84bb f978 a1be a646 d83c be08 073e
00000300: 6636 f53c 19c1 25be 9a11 84bd 7ab2 cabd
00000310: 97e7 483e 55ff aa3d 8393 d43d a661 b23d
00000320: 189b 803f e1b7 7bbd fdfc 5c3d 3dc3 50bb
00000330: 6247 d8bc 74dc a83b d8f2 14bd 2133 f3bc
00000340: bf01 babc 19e7 963d b18a f33d 56d6 073f
00000350: c87f 313e e2d7 28bd ca6c b83d bff4 9b3c
00000360: 4285 12be 8657 833d 3ab5 123f 4e05 1cbf
00000370: f3bb 803d f0d8 e5bd 37fa e33d f6ea c13d
00000380: b23f 3cbe 8190 92bd 8152 fc3a 087c ccbd
00000390: af3c 153e 4cff 853d cb9e 873d 5a6b 50bc
000003a0: 41c8 963d cb16 7fbd d4ee 98bd 725a 803c
000003b0: 105e d73a eb58 ffbb b046 903e 3562 b83e
000003c0: 4030 443c 49c5 0bbe dd31 67bd ed2b 46be
000003d0: 0618 26bd dce6 4f3d 717e 1c3e 1425 64be
000003e0: 9b87 c33c f241 7f3e 879c e33d 2a76 113f
000003f0: c930 2c3c 89eb 07be a328 f0bd b606 b2bc

VAE_Decoder.layers.1.linear1.bias f4 [4]
0.008778261 0.11212895 0.0308995 -0.005352191
00000000: b2d2 0f3c dda3 e53d f320 fd3c 6f61 afbb

VAE_Decoder.layers.1.norm1.weight f4 [4]
1.3617432 1.6285571 1.2728714 1.330429
00000000: 9a4d ae3f 8f74 d03f 73ed a23f 7f4b aa3f

VAE_Decoder.layers.1.norm1.bias f4 [4]
-0.004585381 0.008408985 0.051487263 -0.08434778
00000000: f740 96bb d7c5 093c 4fe4 523d 87be acbd

VAE_Decoder.layers.1.norm0.weight f4 [4]
1.0873376 0.9051735 0.8986897 0.83841264
00000000: e12d 8b3f 73b9 673f 8710 663f 36a2 563f

VAE_Decoder.layers.1.norm0.bias f4 [4]
0.044422086 -0.03899589 0.021518702 0.03311515
00000000: eff3 353d 28ba 1fbd fd47 b03c c0a3 073d

VAE_Decoder.last_normalization.weight f4 [4]
1.0 1.0 1.0 1.0
00000000: 0000 803f 0000 803f 0000 803f 0000 803f

VAE_Decoder.last_normalization.bias f4 [4]
0.0 0.0 0.0 0.0
00000000: 0000 0000 0000 0000 0000 0000 0000 0000

VAE_Decoder.head.weight f4 [4, 4]
0.051759362 -0.17886472 0.34011292 0.41495413 -0.4897805 0.4539382 0.16676778 0.12773377
-0.043214917 0.019144416 -0.3102352 0.10781062 0.27949458 0.045712054 0.07102054 0.050025642
00000000: a001 543d 5028 37be 4823 ae3e de74 d43e
00000010: 82c4 fabe 966a e83e 2cc5 2a3e a4cc 023e
00000020: 2002 31bd c0d4 9c3c 26d7 9ebe d0cb dc3d
00000030: ea19 8f3e 903c 3b3d 3873 913d b0e7 4c3d

VAE_Decoder.head.bias f4 [4]
-0.2532422 0.3239807 -0.087180495 0.036549807
00000000: f6a8 81be cce0 a53e b08b b2bd 40b5 153d

Detokenizer.weight f4 [5, 4]
-0.40323007 0.28293875 0.26882085 0.6377973 0.26530868 0.0018759533 0.12106933 -0.22488634
0.27380463 -0.091729805 0.07574969 -0.44486803 0.05762632 0.12426442 0.11667841 0.37155157
-0.27377096 -0.048256606 0.41047555 -0.0500729
00000000: 2c74 cebe 59dd 903e e3a2 893e af46 233f
00000010: 8ad6 873e 8ce2 f53a 32f3 f73d 9b48 66be
00000020: 1f30 8c3e d6dc bbbd a722 9b3d bec5 e3be
00000030: 9309 6c3d 587e fe3d 17f5 ee3d 023c be3e
00000040: b52b 8cbe b8a8 45bd da29 d23e 3e19 4dbd

Detokenizer.cat_recons.0.weight f4 [2, 4]
-0.14560476 -0.12210611 0.11789283 0.14636397 0.7043046 0.29522339 -0.72305363 -0.5607396
00000000: 6a19 15be c512 fabd cc71 f13d 70e0 153e
00000010: 4e4d 343f 8527 973e 0b1a 39bf a18c 0fbf

Detokenizer.cat_recons.0.bias f4 [2]
0.08300654 -0.16967088
00000000: 55ff a93d 34be 2dbe

Detokenizer.cat_recons.1.weight f4 [7, 4]
-0.24585408 -0.31817198 -0.8982626 0.06294069 0.19238593 0.6344548 -0.17189828 -0.8345418
0.07258004 0.6725196 0.51529634 0.084650286 -0.76767296 0.67199165 -0.25526175 0.37229863
0.58400315 -0.19828957 0.3862324 0.7627602 -0.6651156 -0.5739903 0.3390251 0.024661494
0.9280263 0.06309713 -0.22039464 -0.30995315
00000000: 2cc1 7bbe 70e7 a2be 8af4 65bf 0ce7 803d
00000010: d100 453e a16b 223f 1a06 30be 88a4 55bf
00000020: d8a4 943d 3f2a 2c3f 76ea 033f 215d ad3d
00000030: 3786 44bf a507 2c3f abb1 82be ed9d be3e
00000040: 3b81 153f 6c0c 4bbe 41c0 c53e 4144 433f
00000050: 0445 2abf 07f1 12bf b394 ad3e e706 ca3c
00000060: 2293 6d3f 1139 813d 22af 61be 2eb2 9ebe

Detokenizer.cat_recons.1.bias f4 [7]
0.30299237 -0.53873533 0.1967339 0.38157132 0.24546795 0.5031282 0.277379
00000000: d121 9b3e 8fea 09bf 9d74 493e 515d c33e
00000010: f35b 7b3e 02cd 003f 9f04 8e3e

Detokenizer.cat_recons.2.weight f4 [16, 4]
1.2327957 -0.15597938 -0.022292743 0.00972084 -0.8073032 -0.3394566 -1.528712 1.6362605
-0.2003617 -1.5057003 -0.23193716 0.7975158 -1.6828507 0.12030065 0.6224806 -0.1440644
-0.6700471 -1.0353729 -1.4507062 -1.194247 -1.5579007 0.5329415 -1.0092256 0.23917551
0.7966246 -1.3124577 -0.94432664 0.08534861 -0.80013835 1.1609421 0.35426956 -0.13524081
0.7139035 -0.6277765 0.7900489 0.6664867 0.65077597 0.7453977 0.59018093 0.34469745
-1.4564445 -1.4966274 -0.4779855 -0.45311216 -0.7656542 0.6545008 -0.69588774 -1.3596092
0.7271841 0.10320065 -0.7627172 -1.0349478 -0.3823693 0.2602944 1.3041428 0.17608058
0.1276215 0.9808715 -0.12244397 -0.6567115 -0.5597101 -1.162437 0.9959271 -0.34683737
00000000: 40cc 9d3f 0fb9 1fbe 459f b6bc 2844 1f3c
00000010: 6cab 4ebf 41cd adbe d6ac c3bf fc70 d13f
00000020: 9e2b 4dbe caba c0bf ef80 6dbe ff29 4c3f
00000030: a767 d7bf 3060 f63d e35a 1f3f 9e85 13be
00000040: 3588 2bbf 1987 84bf beb0 b9bf 16dd 98bf
00000050: 4a69 c7bf db6e 083f 4e2e 81bf 6dea 743e
00000060: 97ef 4b3f 9dfe a7bf 64bf 71bf 41cb ae3d
00000070: ded5 4cbf c099 943f d262 b53e 917c 0abe
00000080: 61c2 363f f6b5 20bf a540 4a3f df9e 2a3f
00000090: 4199 263f 62d2 3e3f 1916 173f 2f7c b03e
000000a0: c66c babf 7d91 bfbf 84ba f4be 51fe e7be
000000b0: ea01 44bf 5d8d 273f b325 32bf ad07 aebf
000000c0: bd28 3a3f dd5a d33d 6f41 43bf 2b79 84bf
000000d0: e9c5 c3be 4f45 853e 27ee a63f 784e 343e
000000e0: 36af 023e 651a 7b3f e7c3 fabd 3f1e 28bf
000000f0: 2949 0fbf bcca 94bf 14f5 7e3f ab94 b1be

Detokenizer.cat_recons.2.bias f4 [16]
-0.6187123 0.36118013 0.1402596 0.14851034 -0.44733626 -0.175115 -1.0246507 -0.73255783
0.21932447 -0.22084747 -0.288103 -0.48016703 0.36874482 -0.18551928 0.17378514 0.32137382
00000000: ee63 1ebf 9aec b83e 36a0 0f3e 1813 183e
00000010: 4209 e5be 5951 33be c127 83bf e988 3bbf
00000020: 9896 603e d725 62be 3d82 93be 74d8 f5be
00000030: 1fcc bc3e c4f8 3dbe bbf4 313e 1c8b a43e

Detokenizer.cat_recons.3.weight f4 [5, 4]
-0.20832899 -0.70226747 0.36443385 0.031080058 0.42605144 0.5566513 0.22596379 0.07212598
0.46357742 -0.20414674 -0.5245797 0.16269922 -0.3508677 0.39553207 -0.3362178 -0.09296161
0.7240701 -0.32717016 0.3752519 -0.23163964
00000000: 3254 55be cdc7 33bf 1397 ba3e 9b9b fe3c
00000010: 6a23 da3e b380 0e3f 0d63 673e c9b6 933d
00000020: 055a ed3e d80b 51be db4a 06bf a09a 263e
00000030: eea4 b3be 2e83 ca3e bd24 acbe a862 bebd
00000040: a85c 393f d982 a7be 0421 c03e f132 6dbe

Detokenizer.cat_recons.3.bias f4 [5]
-0.21843348 0.118146054 0.32433513 0.10251787 -0.64185035
00000000: 07ad 5fbe 8ff6 f13d 410f a63e e4f4 d13d
00000010: 4e50 24bf

Detokenizer.cat_recons.4.weight f4 [7, 4]
0.57582855 0.38008115 -0.31715292 -0.76743793 -0.56687355 0.019022401 -0.3306613 -0.05142863
-0.14606951 0.43005228 0.6798352 -0.19947651 0.66334903 -0.35213804 0.70785326 0.23383845
0.9964113 -0.230698 -0.6971328 0.07147796 1.11902 0.466939 0.21416503 0.05420547
-0.14039709 -1.0380969 0.009336335 0.2898411
00000000: 8069 133f ff99 c23e de61 a2be d076 44bf
00000010: a01e 11bf ded4 9b3c 704c a9be d4a6 52bd
00000020: 3f93 15be d02f dc3e ae09 2e3f 9243 4cbe
00000030: 3ed1 293f 704b b4be df35 353f 5973 6f3e
00000040: d014 7f3f 193c 6cbe 4c77 32bf 0963 923d
00000050: 0c3c 8f3f a112 ef3e 144e 5b3e 8e06 5e3d
00000060: 41c4 0fbe 5ce0 84bf 6df7 183c 0d66 943e

Detokenizer.cat_recons.4.bias f4 [7]
0.10520393 0.3696115 0.54748523 -0.08130681 -0.19784513 -0.6201688 0.16332938
00000000: 2875 d73d b83d bd3e fe27 0c3f 2f84 a6bd
00000010: ea97 4abe 62c3 1ebf d13f 273e

Detokenizer.cat_recons.5.weight f4 [5, 4]
-0.5473057 0.13927928 -0.2594511 -0.24694337 0.5400923 -0.42351875 0.30447608 0.7386318
0.25859618 0.33861798 0.2919289 -0.341352 -0.5489526 -0.7417885 0.66209096 -0.4139298
0.49221784 -0.5876232 -0.6124284 -0.040194005
00000000: 3a1c 0cbf 3a9f 0e3e c6d6 84be b9de 7cbe
00000010: 7d43 0a3f 73d7 d8be 4ae4 9b3e f916 3d3f
00000020: b866 843e 565f ad3e b477 953e b0c5 aebe
00000030: 2888 0cbf dae5 3dbf cb7e 293f 9bee d3be
00000040: fa03 fc3e 796e 16bf 1cc8 1cbf 78a2 24bd

Detokenizer.cat_recons.5.bias f4 [5]
-0.35062966 -0.24393325 0.00910313 0.17522593 -0.10368658
00000000: bb85 b3be a3c9 79be 4b25 153c 6d6e 333e
00000010: a159 d4bd

Detokenizer.cat_recons.6.weight f4 [3, 4]
-0.24765371 -0.45803636 -0.67887276 0.26727006 0.4855642 0.50478476 0.8608187 0.26402405
0.3270999 0.09426365 0.083851166 -0.9001085
00000000: ef98 7dbe be83 eabe 9bca 2dbf 9fd7 883e
00000010: df9b f83e 9339 013f 9d5e 5c3f 292e 873e
00000020: a379 a73e 4d0d c13d 29ba ab3d 836d 66bf

Detokenizer.cat_recons.6.bias f4 [3]
-0.109211035 -0.04183314 -0.21108308
00000000: 09aa dfbd 3a59 2bbd 2a26 58be

Detokenizer.cat_recons.7.weight f4 [2, 4]
-0.4693034 -0.2535949 -0.48531577 -0.16713893 -0.39388373 -0.5456022 0.5040306 -0.25455976
00000000: 8948 f0be 31d7 81be 4f7b f8be 7826 2bbe
00000010: 21ab c9be 96ac 0bbf 2608 013f a855 82be

Detokenizer.cat_recons.7.bias f4 [2]
0.19116466 -0.04498684
00000000: abc0 433e 1f44 38bd

Detokenizer.cat_recons.8.weight f4 [2, 4]
0.48788697 -0.5289538 0.33185884 -0.39248878 -0.25012803 -0.16929428 -0.79528147 0.26213557
00000000: 52cc f93e 8469 07bf 67e9 a93e 4af4 c8be
00000010: c810 80be 7b5b 2dbe 9197 4bbf a236 863e

Detokenizer.cat_recons.8.bias f4 [2]
0.39031485 -0.3958361
00000000: 59d7 c73e 08ab cabe
