restsyn/tabsyn/vae/ckpt/adult_nocond/encoder.pt (torch, 22960 bytes, 33 tensors)

Tokenizer.weight f4 [6, 4]
0	0x3e68d1b1	0.22736241
1	0x3f148f57	0.5803122
2	0xbe3f9d0b	-0.18712251
3	0xbed524cc	-0.41629636
4	0x3ec7e0b0	0.3903861
5	0x3e2ae2a9	0.16688026
6	0x3e54bd1e	0.20775267
7	0x3ea2ac71	0.31772187
8	0xbd7946fe	-0.06085872
9	0x3e3d0689	0.18459524
10	0x3e6a0e45	0.22857006
11	0xbe1e82ad	-0.15479536
12	0xbdc39b3b	-0.09551092
13	0xbd906526	-0.070505425
14	0xbb8e8fcc	-0.004350638
15	0xbd810f19	-0.06301708
16	0x3eb353b3	0.35024795
17	0x3eab1e64	0.33421624
18	0x3e87f085	0.2655069
19	0xbd99fb5c	-0.07518646
20	0x3df8acf2	0.12142362
21	0x3de865f7	0.11347573
22	0x3ddafc6b	0.10692676
23	0xbd941313	-0.072302006

Tokenizer.bias f4 [14, 4]
0	0x3e8f24ba	0.27957708
1	0xbf038df0	-0.51388454
2	0x3f0b0159	0.5429893
3	0x3d5d5ea3	0.05404533
4	0xbd1c55bb	-0.038167696
5	0xbf07169c	-0.52768874
6	0x3e870a55	0.2637507
7	0x3e2737bc	0.16329855
8	0xbe8e10ff	-0.27747342
9	0xbdc354c9	-0.09537656
10	0xbed1126a	-0.4083436
11	0xbd200802	-0.039070137
12	0x3edba067	0.42895815
13	0x3e2acc2c	0.16679448
14	0x3cfe16c6	0.031016719
15	0xbe0c7b72	-0.13718966
16	0x3c0f2426	0.008736646
17	0x3e6e6e6f	0.23284315
18	0xbf121791	-0.5706721
19	0x3ea0a25e	0.31373876
20	0x3e919512	0.28434044
21	0xbe976db1	-0.29575875
22	0x3e86a120	0.26294804
23	0xbb0b8270	-0.0021287464
24	0x3e32a084	0.17444044
25	0x3efd33a8	0.49453473
26	0x3e0b656e	0.13612911
27	0xbec5897b	-0.38581452
28	0xbe04b22c	-0.12958592
29	0x3d0d5b91	0.034511153
30	0x3e07c2fc	0.13257974
31	0xbe007f75	-0.12548621
32	0x3ede62ca	0.43434745
33	0x3e20fd2e	0.1572158
34	0x3daa21d6	0.08307235
35	0xbc56de03	-0.013114455
36	0x3e8d6dde	0.27622885
37	0x3eaade6c	0.3337282
38	0x3d145fd3	0.036224198
39	0x3c0b260e	0.00849296
40	0xbd93e2e2	-0.07221009
41	0x3e6a760d	0.22896595
42	0x3d852003	0.065002464
43	0xbe8a79ed	-0.27046147
44	0xbe9d5127	-0.30725977
45	0xbda0d4b4	-0.0785307
46	0xbd6e1f25	-0.05813517
47	0xbe10d164	-0.14142376
48	0xbeedb21d	-0.46424952
49	0xbe935fec	-0.2878412
50	0xbdb5adad	-0.08871017
51	0xbe2ecb4a	-0.17069736
52	0x3c3aafe4	0.011394475
53	0x3f20ff31	0.6288939
54	0x3e1e7869	0.1547562
55	0x3e7f1ab7	0.24912535

Tokenizer.category_embeddings.weight f4 [49, 4]
0	0x3ee3ba04	0.44477856
1	0xbec6c255	-0.3882014
2	0x3e685bf6	0.2269133
3	0xbc3cb04f	-0.011516645
4	0xbef51fe0	-0.4787588
5	0xbdb5d8e5	-0.0887926
6	0x3e9dda66	0.30830687
7	0x3f079482	0.5296098
8	0xbe593b66	-0.21214065
9	0xbf3f479d	-0.7471865
10	0xbea22088	-0.31665444
11	0x3ef6dd1d	0.4821557
12	0xbea0ca6d	-0.3140444
13	0xbd7dee33	-0.061994743
14	0xbe2f176d	-0.1709878
15	0x3f1ca154	0.6118367
16	0x3e096e33	0.13420944
17	0x3e63ea35	0.22257312
18	0xbe6dba2a	-0.23215547
19	0xbea4139d	-0.32046214
20	0x3e9cf592	0.30656105
21	0x3e9ad860	0.30243206
22	0xbe6c0557	-0.23048912
23	0x3f382989	0.7193838
24	0x3d60b94f	0.054864224
25	0xbe896042	-0.2683125
26	0x3eb74bd2	0.35800034
27	0x3dc6c232	0.097050086
28	0x3d8fba88	0.07018
29	0xbf0166d1	-0.5054751
30	0x3b296bd8	0.0025851633
31	0x3e889865	0.26678768
32	0xbf21cb3b	-0.6320073
33	0xbec39fd8	-0.3820789
34	0x3ea5fabf	0.32417867
35	0x3f00b4ad	0.5027569
36	0xbf068804	-0.52551293
37	0xbd3e0071	-0.04638714
38	0x3e26ed17	0.1630138
39	0xbe63eaa4	-0.22257477
40	0x3d1db1c6	0.038499616
41	0xbf4a1d89	-0.7895132
42	0xbf0a6e6e	-0.5407475
43	0x3e0cc002	0.1374512
44	0x3e9dff1a	0.3085869
45	0xbf388c00	-0.72088623
46	0xbd45a771	-0.048255388
47	0xbe15cae1	-0.14628173
48	0x3d9ade25	0.07561902
49	0xbdfca036	-0.12335245
50	0xbed2a639	-0.41142443
51	0xbe8b563f	-0.27214238
52	0xbeb58fe3	-0.3546134
53	0xbf3abec7	-0.72947353
54	0xbefe1b09	-0.4963
55	0x3ee8c319	0.45461348
56	0x3ee0350e	0.43790478
57	0x3ed2bb68	0.41158605
58	0xbf145bc3	-0.5795252
59	0x3f02a451	0.51031977
60	0xbe4025d3	-0.18764429
61	0xbea6bd89	-0.3256648
62	0xbdaefbda	-0.085441306
63	0x3cac6cd0	0.02104798
64	0x3e9f9c31	0.31173852
65	0x3f071ac1	0.527752
66	0xbeb1bae6	-0.34712905
67	0xbc9ca1ae	-0.019120064
68	0x3e903e90	0.2817273
69	0x3e337d04	0.17528158
70	0x3ea51832	0.32245022
71	0xbe8c828b	-0.27443346
72	0x3e256704	0.16152579
73	0x3f01b466	0.5066589
74	0x3d72e668	0.059301764
75	0xbd7e30cc	-0.062058255
76	0x3f1fa540	0.62361526
77	0xbf14401b	-0.5791032
78	0xbe3268d7	-0.17422806
79	0x3d6e6fea	0.0582122
80	0xbeba0da1	-0.36338523
81	0x3e166248	0.14685929
82	0xbee09220	-0.43861485
83	0x3e8bd1fe	0.2730865
84	0xbea6cd22	-0.3257838
85	0x3d5f4fbb	0.054519396
86	0x3d97b710	0.07407963
87	0x3e9b9f99	0.303952
88	0x3eaa3f9a	0.3325165
89	0x3ea7e969	0.32795265
90	0xbde01635	-0.10941736
91	0xbee62254	-0.44948065
92	0x3db8e3c1	0.090278156
93	0x3e94c819	0.29058912
94	0xbdbd1663	-0.092327856
95	0x3e873c2e	0.264131
96	0x3e04b836	0.12960896
97	0xbea3be86	-0.31981295
98	0xbe2c70ff	-0.1683998
99	0xbf113cd0	-0.5673342
100	0x3d2d7333	0.04234619
101	0xbe1b0a97	-0.15140758
102	0x3e3fd1df	0.18732403
103	0xbdc0baf5	-0.09410659
104	0xbeb8a117	-0.36060402
105	0x3e9ace20	0.30235386
106	0xbd5cfc45	-0.05395152
107	0x3c01cb19	0.007921957
108	0xbf1d7a30	-0.6151457
109	0xbdeec051	-0.11657775
110	0x3ea03b70	0.31295347
111	0x3eba4815	0.3638312
112	0x3f0c43d0	0.54790974
113	0xbe9fa9e8	-0.31184316
114	0xbe76627e	-0.2406101
115	0x3f1b89c3	0.6075708
116	0xbf55561a	-0.83334506
117	0xbe8d1c78	-0.27560782
118	0x3f86b500	1.0523987
119	0xbf9171eb	-1.136289
120	0xbe96f0ea	-0.29480678
121	0x3e8e360a	0.27775604
122	0x3dd786bf	0.10523748
123	0x3ef1cc64	0.4722625
124	0x3e196f82	0.14983943
125	0x3e0c63e9	0.13709988
126	0xbeeb738e	-0.459866
127	0x3eededc0	0.4647045
128	0xbdd5298a	-0.104083136
129	0x3d3711b8	0.044694632
130	0xbdac477b	-0.08412071
131	0xbdbecc89	-0.09316356
132	0xbdb78eeb	-0.08962806
133	0xbe0d7ba3	-0.13816695
134	0x3ebf3bd3	0.3735033
135	0xbf1c9e67	-0.611792
136	0xbf0f5c23	-0.55999964
137	0xbebba18a	-0.36646682
138	0x3ef8ebe1	0.4861746
139	0x3e91ce1d	0.28477564
140	0xbdbc4c3d	-0.09194229
141	0x3f2a24f7	0.66462654
142	0x3ebb5d44	0.36594594
143	0xbeee1e8e	-0.46507686
144	0x3e0ee5bd	0.13954826
145	0xbf5b9120	-0.8576832
146	0x3d89682d	0.06709323
147	0xbe1eb91c	-0.15500301
148	0x3eb5576a	0.35418254
149	0x3eb24655	0.34819284
150	0xbd92a90d	-0.0716115
151	0x3f3c2ebd	0.73508817
152	0x3c815a72	0.015790198
153	0xbe3dde0f	-0.1854174
154	0x3e1dab59	0.15397395
155	0xbe87fb95	-0.2655913
156	0xbd26070b	-0.04053406
157	0x3e734312	0.23756054
158	0xbe097a67	-0.13425599
159	0x3d510a14	0.051035002
160	0x3dd0851b	0.10181638
161	0xbeb3d856	-0.3512599
162	0xbdf73a39	-0.12071652
163	0xbde7902d	-0.11306796
164	0xbf05c431	-0.5225249
165	0xbf1ab38b	-0.6043021
166	0x3d901194	0.07034603
167	0x3e9dc875	0.30817
168	0x3efc1081	0.4923134
169	0x3e9ae3ad	0.30251828
170	0xbf1980f1	-0.59962374
171	0x3efc9809	0.49334744
172	0x3dd14e79	0.102200456
173	0x3eb539aa	0.35395557
174	0xbea1365d	-0.31486788
175	0xbeafdc52	-0.3434778
176	0x3db0d9f5	0.08635322
177	0x3ec68f47	0.38781187
178	0xbde0d3f6	-0.10977928
179	0x3e9857a4	0.29754364
180	0xbedc70a7	-0.43054697
181	0xbea52c93	-0.3226057
182	0x3dfb68bd	0.122758366
183	0x3e1b3d57	0.15160118
184	0x3df4dc15	0.1195604
185	0x3db2de00	0.087337494
186	0xbe631283	-0.2217503
187	0xbef37fc2	-0.4755841
188	0xbd8793f3	-0.06620016
189	0x3e446411	0.19178797
190	0x3c73edd3	0.014888245
191	0xbe7451e1	-0.2385936
192	0xbdc7f961	-0.09764362
193	0xbdd2388f	-0.10264694
194	0xbeabb072	-0.33533055
195	0x3e0d8be6	0.13822898

VAE_Encoder.layers.0.attention.W_q.weight f4 [4, 4]
0	0x3de6cdb0	0.112697005
1	0xbe0023ba	-0.12513629
2	0x3e95ad92	0.29233986
3	0x3efb099c	0.4903077
4	0x3ecdfaff	0.40230557
5	0xbd868d7f	-0.06569957
6	0xbb895264	-0.00419073
7	0xbeddbda8	-0.4330876
8	0x3e08e35d	0.13367982
9	0xbea32a63	-0.31868276
10	0xbd527ade	-0.051386707
11	0xbeb4427d	-0.35206977
12	0x3deeb3a4	0.116553575
13	0x3e2171bf	0.15766047
14	0xbd5381e9	-0.051637564
15	0x3e57d567	0.210775

VAE_Encoder.layers.0.attention.W_q.bias f4 [4]
0	0x3cd65215	0.026162187
1	0xbe8fb673	-0.28068885
2	0xbe15095e	-0.14554355
3	0x3e532932	0.20621184

VAE_Encoder.layers.0.attention.W_k.weight f4 [4, 4]
0	0xbec76ace	-0.38948673
1	0x3ef0dcc9	0.47043446
2	0xbe3c6fc1	-0.18402006
3	0x3e9805c6	0.29691905
4	0x3e8e1be1	0.27755645
5	0x3edee9e5	0.43537822
6	0x3eead47c	0.45865238
7	0xbd884b2e	-0.066549644
8	0x3eedadc3	0.46421632
9	0x3da9e13e	0.08294915
10	0x3ee55b11	0.4479604
11	0xbeb0850a	-0.344765
12	0xbd944c65	-0.072411336
13	0x3e572fb8	0.21014297
14	0xbecdd916	-0.40204686
15	0xbe97780c	-0.29583776

VAE_Encoder.layers.0.attention.W_k.bias f4 [4]
0	0x396481b2	0.0002179209
1	0xb6c75e4f	-5.941641e-06
2	0xb83fcf39	-4.573094e-05
3	0x380c7337	3.3485903e-05

VAE_Encoder.layers.0.attention.W_v.weight f4 [4, 4]
0	0xbe3ab471	-0.18232895
1	0x3e2d2548	0.16908753
2	0xbd89ed4f	-0.06734716
3	0x3d43e093	0.047821593
4	0xbe7b0df8	-0.24517047
5	0x3e8798a9	0.26483658
6	0xbdde32ef	-0.108495586
7	0x3d8b0418	0.0678789
8	0xbe377c42	-0.17918494
9	0x3e1d7216	0.15375552
10	0xbd62b07e	-0.055344097
11	0x3d28b5b3	0.041188907
12	0xbe5d6fe6	-0.21624717
13	0x3e5a11ae	0.21295807
14	0xbdaaf1e3	-0.083469175
15	0x3d62974f	0.05532008

VAE_Encoder.layers.0.attention.W_v.bias f4 [4]
0	0xbcf968aa	-0.030445416
1	0x3bed9145	0.0072499835
2	0x3c0c29cc	0.008554887
3	0xbb95ff66	-0.004577565

VAE_Encoder.layers.0.linear0.weight f4 [128, 4]
0	0x3ebbc7c3	0.36675844
1	0x3ea4807e	0.32129282
2	0x3ed1ea8f	0.40999267
3	0xbe401a4d	-0.18760033
4	0xbec0aee8	-0.37633443
5	0x3dff376b	0.12461742
6	0x3e57a01c	0.2105717
7	0xbec99ee3	-0.39379033
8	0x3ef41d0a	0.47678405
9	0xbe52acd7	-0.20573746
10	0x3cce8961	0.025211992
11	0xbe959d9b	-0.29221806
12	0x3efeca0e	0.4976353
13	0x3e730b4d	0.2373478
14	0x3aae9d9d	0.0013322119
15	0x3eb52bd3	0.35384998
16	0xbef1b107	-0.47205374
17	0xbdfd31af	-0.12362992
18	0x3ef1389c	0.47113502
19	0xbe899c4a	-0.26877052
20	0x3e607740	0.2192049
21	0xbeee98d8	-0.46600986
22	0xbeb277d9	-0.34857062
23	0x3e4319ea	0.19052854
24	0x3dd28321	0.10278917
25	0x3e2f5c09	0.17124952
26	0xbec324f9	-0.38114145
27	0xbeec6e3a	-0.46177846
28	0xbdb1a30d	-0.086736776
29	0xbedafdad	-0.42771664
30	0xbebf30c9	-0.37341908
31	0xbcb533db	-0.022119453
32	0xbe7f5128	-0.24933302
33	0xbe9f2b36	-0.31087655
34	0x3e56561c	0.20931286
35	0x3e37b10e	0.17938635
36	0x3b139c05	0.0022523415
37	0xbec91764	-0.39275658
38	0x3ef4051e	0.47660154
39	0xbe3727a4	-0.17886215
40	0xbdc05520	-0.09391236
41	0x3ef017bd	0.4689311
42	0x3d489e59	0.048979137
43	0x3de025b4	0.10944691
44	0xbee3d424	-0.44497788
45	0x3e49c4af	0.19703935
46	0xbdcc4bf3	-0.09975424
47	0xbecab987	-0.3959467
48	0xbeecc4f2	-0.46244007
49	0xbe5325a9	-0.20619835
50	0x3ea92131	0.33033136
51	0xbeb29854	-0.34881842
52	0xbe7162d4	-0.23572856
53	0x3e6e3c71	0.23265244
54	0xbc4b5e1f	-0.012412577
55	0xbe8a0612	-0.26957756
56	0x3d75572d	0.05989759
57	0xbee2d3b6	-0.44302148
58	0x3e0ce963	0.13760905
59	0x3eee31ff	0.4652252
60	0xbf1baa39	-0.60806614
61	0xbe89f8bb	-0.2694758
62	0x3e99d2ff	0.3004379
63	0x3edaae9b	0.42711338
64	0x3e8ee6e6	0.27910537
65	0x3d14ef20	0.03636086
66	0x3f0ea3e8	0.5571885
67	0x3ed3cbd7	0.41366455
68	0xbc0cf569	-0.008603432
69	0x3e0e06e4	0.13869816
70	0x3efcc8f3	0.49372062
71	0xbe0c8d58	-0.13725793
72	0xbe347ec0	-0.17626476
73	0x3e8eda20	0.2790079
74	0x3d8aed20	0.06783509
75	0x3e6a40ce	0.22876284
76	0x3d841b55	0.06450526
77	0xbecbfb4b	-0.3984016
78	0x3e9c715f	0.30555245
79	0xbef8a760	-0.48565197
80	0x3ecbd3a9	0.3980992
81	0xbe42f4b4	-0.1903866
82	0xbdf0ad07	-0.11751752
83	0x3ed554a0	0.41666126
84	0x3e3a9933	0.18222503
85	0xbeb7c50a	-0.35892516
86	0x3e25a766	0.16177139
87	0x3e862411	0.2619939
88	0x3e7975cc	0.24361342
89	0xbf009792	-0.5023128
90	0xbebb4d5e	-0.36582464
91	0xbf17c795	-0.59288913
92	0xbe012244	-0.12610728
93	0x3d93501b	0.07193013
94	0x3e685ae0	0.22690916
95	0xbeed222f	-0.46315143
96	0x3e997549	0.29972294
97	0x3deadb34	0.11467591
98	0xbeb53136	-0.35389107
99	0x3e2660b9	0.16247834
100	0xbe90219b	-0.2815064
101	0xbf042aae	-0.51627624
102	0x3e8c24a0	0.27371693
103	0x3ed63809	0.41839626
104	0x3e69b334	0.22822267
105	0xbeb9f886	-0.3632242
106	0xbeadec70	-0.3396945
107	0xbe372377	-0.17884623
108	0x3f0666b6	0.52500474
109	0xbe52a8ec	-0.20572251
110	0x3e7d9f92	0.24767902
111	0xbeb8aca7	-0.36069223
112	0x3e3b300e	0.1828005
113	0xbeb61c46	-0.35568446
114	0xbdf9f7cc	-0.12205467
115	0x3e5f8f44	0.21831995
116	0x3dd0e3de	0.10199712
117	0xbd5fbd0e	-0.054623656
118	0xbe501841	-0.20321752
119	0xbe4cae15	-0.19988282
120	0xbed68176	-0.41895646
121	0xbebd4838	-0.3696916
122	0xbebbef09	-0.36705807
123	0xbd8003e0	-0.06250739
124	0x3eb74902	0.35797888
125	0xbe49da0c	-0.19712085
126	0xbcf6a48a	-0.030107755
127	0xbed85a83	-0.42256555
128	0x3baf002c	0.0053405967
129	0x3dd6f2e4	0.104955465
130	0x3e2e7983	0.1703854
131	0x3e4fb95e	0.20285556
132	0x3e6cd5d7	0.23128448
133	0xbebbe800	-0.3670044
134	0x3ed9aacc	0.4251312
135	0x3e621cf7	0.22081362
136	0xbe889730	-0.26677847
137	0xbddca78e	-0.10774146
138	0x3ef0da85	0.47041717
139	0xbc4deafa	-0.01256823
140	0x3dda7d28	0.10668403
141	0x3cd4aaa8	0.025960281
142	0xbe4fcea2	-0.20293668
143	0xbde78079	-0.11303801
144	0xbecbaca9	-0.39780167
145	0xbeffc320	-0.49953556
146	0x3ed22941	0.410471
147	0x3d8c1188	0.06839281
148	0x3e764488	0.2404958
149	0x3edf6b17	0.4363639
150	0xbe3b124e	-0.18268701
151	0xbd9200f0	-0.07129085
152	0x3e570964	0.20999676
153	0xbe894d17	-0.26816627
154	0xbf0950a0	-0.5363865
155	0xbed356fa	-0.41277295
156	0xbe408991	-0.18802477
157	0x3e93c003	0.2885743
158	0x3e283ba7	0.16429006
159	0xbe70c9a1	-0.23514415
160	0x3ed22c23	0.410493
161	0x3e94c9f4	0.29060328
162	0xbebdbc0e	-0.37057537
163	0x3e7d2bac	0.24723691
164	0x3ed20d6d	0.41025868
165	0x3cbc7568	0.023005202
166	0x3e320828	0.17385924
167	0x3e87c40c	0.2651676
168	0xbec2730f	-0.37978408
169	0x3dc00019	0.093750186
170	0xbe452bcc	-0.19254988
171	0x3e758fda	0.23980656
172	0xbe900ca0	-0.28134632
173	0xbea639d0	-0.32465982
174	0xbe0859e6	-0.13315544
175	0x3cff1c53	0.031141436
176	0xbecb93a5	-0.3976108
177	0xbd97301d	-0.07382224
178	0xbe98a3bd	-0.29812422
179	0x3ee0cdb0	0.43906927
180	0xbd545a5d	-0.05184399
181	0x3eaf0264	0.3418151
182	0xbee0e195	-0.43922105
183	0xbee02d3a	-0.43784505
184	0x3e71d0f6	0.23614869
185	0x3de66b62	0.112509504
186	0xbf115d3d	-0.56782895
187	0xbeca9166	-0.39564055
188	0x3eed84c4	0.46390355
189	0x3ca7c264	0.020478435
190	0x3e90e33f	0.28298375
191	0xbe5ccc36	-0.21562275
192	0x3e9e9d70	0.3097949
193	0xbef1bd59	-0.47214773
194	0x3ee0a886	0.43878573
195	0xbe946eb4	-0.2899071
196	0xbf0608b6	-0.5235704
197	0xbd6754af	-0.056477245
198	0x3e374bfb	0.17900078
199	0x3e0b8c41	0.13627721
200	0xbe77ebeb	-0.2421109
201	0x3ebfcc2d	0.3746046
202	0x3e614ade	0.22001216
203	0x3ed34688	0.4126475
204	0x3d58f3c2	0.05296684
205	0x3e34a8fa	0.17642584
206	0xbddd6a62	-0.108113065
207	0xbd71835e	-0.058963172
208	0x3b35393c	0.0027652523
209	0x3ee0256e	0.43778557
210	0x3e365265	0.17804869
211	0x3ec0c10b	0.3764728
212	0x3efa6850	0.4890771
213	0xbd92b241	-0.071629055
214	0xbe6fecf3	-0.23430233
215	0xbf017fd8	-0.505857
216	0xbef9ad4f	-0.48765036
217	0x3eec3eff	0.46141812
218	0x3d43fb3d	0.04784702
219	0xbf01d93e	-0.5072211
220	0xbd1c073c	-0.038092837
221	0xbed69b28	-0.4191525
222	0x3e885bcc	0.26632535
223	0xbdd94fba	-0.1061091
224	0x3e1599ca	0.14609447
225	0x3ea4a43e	0.32156557
226	0x3e38663e	0.18007752
227	0xbeac55e5	-0.33659282
228	0x3ed56968	0.4168198
229	0x3ef64236	0.4809739
230	0xbe5654a0	-0.2093072
231	0xbf127ee1	-0.5722485
232	0xbdc3e91c	-0.095659465
233	0x3d35e186	0.04440453
234	0x3e8be012	0.2731939
235	0x3e2b2821	0.16714527
236	0x3dd9a8fc	0.10627934
237	0x3c551fee	0.013008101
238	0x3e819d6e	0.25315422
239	0xbda01ee0	-0.07818389
240	0x3e3da3b6	0.18519482
241	0xbdab2037	-0.08355754
242	0xbe52e6fe	-0.20595929
243	0x3de89a28	0.11357528
244	0x3ec2f784	0.38079464
245	0x3dd3bf2b	0.10339197
246	0x3e0323b0	0.12806582
247	0x3ee2bdc7	0.44285414
248	0x3ec84d81	0.3912163
249	0x3ef0000e	0.46875042
250	0xbdd00bf2	-0.101585284
251	0xbe8cd35e	-0.2750501
252	0xbeb992b5	-0.3624474
253	0xbe27cdbb	-0.16387074
254	0xbc1eef94	-0.009700675
255	0x3d2ae83d	0.041725386

VAE_Encoder.layers.0.linear0.bias f4 [128]
0	0xbd9042cf	-0.07043993
1	0xbe0be5f9	-0.13661946
2	0xbe31ac72	-0.17350939
3	0x3ee537a0	0.44769
4	0x3e0a8745	0.13528164
5	0x3ea00254	0.31251776
6	0x3ef94e6a	0.48692638
7	0xbe06873c	-0.13137525
8	0xbd05b797	-0.032645788
9	0x3ef4eecf	0.47838446
10	0x3dc8bf43	0.09802105
11	0xbea26d27	-0.31723902
12	0xbecbb30b	-0.39785036
13	0xbe791efb	-0.24328224
14	0xbbc8a711	-0.0061234315
15	0x3a292af5	0.00064532395
16	0xbe2ae149	-0.16687502
17	0x3d315ddd	0.043302406
18	0x3e4a19b1	0.19736363
19	0xbe82ac1f	-0.25521943
20	0x3ea4eb0d	0.3221058
21	0xbe98c7cf	-0.29839942
22	0xbdea6523	-0.114450715
23	0x3e6a77a5	0.22897203
24	0xbeaab270	-0.33339262
25	0xbe684491	-0.22682406
26	0xbc22cf18	-0.00993707
27	0xbee5fbcb	-0.44918665
28	0x3de27456	0.110573456
29	0x3e87766f	0.26457545
30	0xbea0e31c	-0.3142327
31	0xbe0b170c	-0.1358301
32	0xbd59a156	-0.053132378
33	0x3ec733b8	0.38906646
34	0xbecb3b34	-0.39693606
35	0x3ebc145a	0.36734277
36	0xbda93381	-0.08261777
37	0x3e6d1017	0.23150669
38	0x3d06f87f	0.032951828
39	0xbcc2dea9	-0.023787813
40	0xbee621c7	-0.44947645
41	0xbd611d82	-0.05495978
42	0x3e9d118b	0.30677447
43	0x3eac2c5f	0.33627602
44	0x3eb0b67f	0.34514233
45	0x3e8c54fa	0.27408582
46	0xbd142d41	-0.03617597
47	0xbe9c3ec1	-0.30516627
48	0xbdaaee48	-0.0834623
49	0x3ebca885	0.3684732
50	0xbdc09f95	-0.09405438
51	0x3eac6759	0.33672598
52	0x3eaedea5	0.3415424
53	0xbeecc628	-0.4624493
54	0xbecc14bd	-0.39859572
55	0xbdbe7587	-0.0929976
56	0x3e90349e	0.28165144
57	0x3c243d52	0.0100243855
58	0x3dabd6e1	0.08390594
59	0x3dc58664	0.096447736
60	0x3e9eb72a	0.30999118
61	0xbd35808d	-0.04431205
62	0x3da84701	0.08216668
63	0xbe8e5ac9	-0.2780364
64	0xbdd1b405	-0.10239414
65	0xbdcf11dc	-0.10110828
66	0x3d00d94a	0.031457223
67	0xbea42004	-0.32055676
68	0x3eb4bb3c	0.35299098
69	0x3e82a4e5	0.2551643
70	0x3ee9d3fb	0.4566954
71	0xbe8a0f8c	-0.26964986
72	0xbeba73f0	-0.36416578
73	0xbe2826a9	-0.16420998
74	0xbe0a15ee	-0.13484928
75	0x3e818b35	0.2530152
76	0xbef80f60	-0.4844923
77	0xbec6afb3	-0.38805923
78	0x3c7cbe9a	0.015426302
79	0x3e6a34d5	0.22871716
80	0xbe548184	-0.20752531
81	0xb6277268	-2.4951532e-06
82	0x3ca1005b	0.01965349
83	0x3e04205b	0.12902968
84	0xbd192b61	-0.037394885
85	0x3acdd224	0.0015702886
86	0x3eae321d	0.34022608
87	0x3ea8a4f0	0.32938337
88	0xbe6a6b3d	-0.2289247
89	0xbe8a35fc	-0.26994312
90	0x3d88703c	0.06662032
91	0xbed9a02d	-0.42505017
92	0xbdaa581f	-0.08317589
93	0x3e493586	0.19649324
94	0x3eb3bacd	0.35103455
95	0xbba0f2d1	-0.0049117585
96	0xbde49982	-0.11162092
97	0xbe102076	-0.14074883
98	0x3e915d7e	0.2839164
99	0xbd34b50c	-0.044117972
100	0x3ebb2693	0.36552867
101	0x3ec1bf8a	0.37841445
102	0x3eddc0ed	0.43311253
103	0xbea0653b	-0.31327233
104	0x3d9d2e71	0.076748736
105	0x3e150330	0.14551997
106	0xbe2bd5ce	-0.16780779
107	0x3e483340	0.195508
108	0xbd157620	-0.036489606
109	0x3e893af7	0.268028
110	0x3e0cdb67	0.1375557
111	0x3c7df7c3	0.0155009655
112	0x3e0099e0	0.12558699
113	0xbe75f45b	-0.24018995
114	0x3ef96c08	0.48715234
115	0xbc7eacbd	-0.015544114
116	0x3e92f329	0.2870114
117	0x3e924b0b	0.28572878
118	0x3e673855	0.22580083
119	0x3e2cefd9	0.1688837
120	0x3def167a	0.11674209
121	0xbedd0b4c	-0.4317268
122	0x3e3278f6	0.17428955
123	0xbeae1d93	-0.34006938
124	0x3ec37e79	0.38182428
125	0x3e9f5422	0.31118876
126	0xbdb1ceb0	-0.08682001
127	0x3e00dd89	0.12584509

VAE_Encoder.layers.0.linear1.weight f4 [4, 128]
0	0x3d26419a	0.040589906
1	0x3dc38586	0.09546952
2	0xbd09d96d	-0.03365462
3	0x3cb6b6d4	0.022303976
4	0x3c7578cb	0.014982413
5	0xbd1f26cf	-0.03885537
6	0xbb500035	-0.0031738405
7	0x3ddfb21e	0.10922645
8	0x3df78095	0.12085072
9	0x3dcdabbf	0.100425236
10	0x3d2e3134	0.042527393
11	0x3b06280e	0.0020470652
12	0x3e30b7e9	0.17257656
13	0x3cfb2c75	0.030660847
14	0xbbddd23b	-0.006769446
15	0xbc280dea	-0.010257224
16	0x3e2a6af5	0.16642363
17	0x3df4e411	0.11957563
18	0xbd861da9	-0.06548626
19	0x3d0ce849	0.034401212
20	0xbd96017a	-0.073245004
21	0x3d3fe65a	0.04685054
22	0xbd65a920	-0.056069493
23	0x3caa9446	0.020822655
24	0xbd9a5355	-0.075354256
25	0x3ac5487c	0.0015051509
26	0xbd513671	-0.05107731
27	0xbe220bf6	-0.15824875
28	0x3db3451f	0.08753418
29	0xbdd6acd3	-0.10482182
30	0x3c68c616	0.014207384
31	0xbde1130b	-0.1098996
32	0xbdcdbbf4	-0.10045615
33	0x3d81ee69	0.06344301
34	0x3e0aa6b5	0.13540156
35	0x3c92048a	0.01782443
36	0x3de4b285	0.111668624
37	0xbb282524	-0.0025656903
38	0xbdb4191d	-0.087938525
39	0x3df80306	0.12109952
40	0x3caeccc8	0.021337882
41	0xbbcd0725	-0.006256955
42	0xbdadc348	-0.084845126
43	0x3dc3abf9	0.095542856
44	0x3bd7a4b9	0.006580916
45	0xbc0238bb	-0.007948096
46	0xbb456553	-0.0030120208
47	0xbd3ea4db	-0.046543937
48	0x3dd6f7ab	0.10496458
49	0xbcf96552	-0.030443821
50	0xbda48fe7	-0.0803526
51	0xbd22180c	-0.039573714
52	0xbd3dff8d	-0.04638629
53	0x3c19ac0a	0.009379396
54	0xbcdade09	-0.026717203
55	0x3d8f03d0	0.06983149
56	0x3d2a252c	0.041539356
57	0xbdf5aff2	-0.119964495
58	0x3dc7b22d	0.09750781
59	0xbd55744a	-0.052112855
60	0x3d2831ea	0.041063227
61	0x3d9bae7d	0.076016404
62	0xbd8cf62e	-0.068828925
63	0xbe1ebc09	-0.15501417
64	0xbdb6c41b	-0.08924123
65	0x3e19e3f1	0.15028359
66	0xbd3de079	-0.046356652
67	0x3df0796e	0.11741911
68	0x3c39df3e	0.011344729
69	0xbcb2a5d4	-0.021807589
70	0x3d4d0172	0.050050206
71	0xbd34b10b	-0.044114154
72	0xbd9efeca	-0.07763441
73	0x3cd60b87	0.026128544
74	0xbd892003	-0.06695559
75	0x3d5db758	0.05412993
76	0xbdd70a45	-0.10500006
77	0xbd522df2	-0.051313348
78	0x3df87339	0.12131352
79	0x3d5b77ae	0.053580932
80	0xbe527c14	-0.20555145
81	0xbdf3da96	-0.11906926
82	0xbe246620	-0.16054583
83	0xbd4847f0	-0.04889673
84	0xbdeddc9c	-0.116143435
85	0xbd9b82d4	-0.07593313
86	0x3d23db80	0.040004253
87	0x3d5eacb6	0.05436393
88	0xbef1c36e	-0.47219414
89	0x3c834281	0.016022922
90	0x3d196f64	0.037459746
91	0x3cfd29cf	0.030903725
92	0x3e1bc930	0.15213466
93	0x3db82b9d	0.089926936
94	0x3dc335c3	0.095317386
95	0x3d963629	0.07334549
96	0xbe2bf77b	-0.16793625
97	0xbcd7e310	-0.026353389
98	0xbd606f67	-0.05479374
99	0x3cca8e7a	0.024726141
100	0xbdaab49e	-0.08335231
101	0x3d8e7b03	0.069570564
102	0xbd76d5e2	-0.06026257
103	0x3d354654	0.044256523
104	0x3d7c5445	0.061603803
105	0x3db580eb	0.0886248
106	0x3dc66f1a	0.0968916
107	0x3dc37a63	0.09544828
108	0x3c6273fe	0.0138216
109	0x3d46c01b	0.04852305
110	0x3ccea283	0.025223976
111	0xbcf80526	-0.030275892
112	0x3de95f32	0.1139511
113	0x3c8bd565	0.017069528
114	0x3cb8dbcc	0.022565745
115	0x3da1cfbd	0.07900951
116	0xbbcf2612	-0.006321677
117	0x3dd1d87b	0.102463685
118	0x3b16b21e	0.002299435
119	0x3db73618	0.089458644
120	0x3cbfd729	0.023418026
121	0xbc9bab40	-0.019002557
122	0xbc6ae5a6	-0.014336979
123	0x3cf6cbfe	0.030126568
124	0x3d1524e5	0.03641214
125	0x3d7627da	0.0600966
126	0x3da4f5e5	0.08054713
127	0xbde81009	-0.113311835
128	0xbe35b984	-0.1774655
129	0x3d829fa9	0.06378109
130	0xbd66a934	-0.05631371
131	0xbdb8dbc0	-0.09026289
132	0x3d5cafdc	0.05387865
133	0x3db0e24f	0.08636915
134	0xbcba0273	-0.022706246
135	0xbcdc7ce3	-0.02691502
136	0x3d95493e	0.072893605
137	0xbd94834f	-0.072516076
138	0x3db4960b	0.08817681
139	0x3e41af54	0.18914539
140	0xbdb623b8	-0.088935316
141	0x3e6c6ade	0.23087642
142	0xbc233d93	-0.009963411
143	0xba5471e1	-0.00081041275
144	0x3da7cdfa	0.08193584
145	0xbd8550bb	-0.06509539
146	0xbc514b8c	-0.012774359
147	0xbdb7c30f	-0.08972751
148	0x3d8c05cb	0.068370424
149	0x3d5d0593	0.053960394
150	0x3d8ac0ae	0.06775032
151	0xbd1d77fc	-0.038444504
152	0x3ce8b726	0.028407644
153	0x3bd2f5e4	0.006438004
154	0xbd349035	-0.04408284
155	0xbdf32509	-0.11872298
156	0xbc2bc6b6	-0.010484388
157	0x3c24b605	0.010053162
158	0xbda97929	-0.082750626
159	0xbd6a17d3	-0.057151627
160	0x3caf6c17	0.021413846
161	0xbdbf1eae	-0.093320236
162	0x3d69740f	0.056995448
163	0x3d18df2b	0.037322205
164	0x3d2aaef7	0.041670766
165	0x3d6b7186	0.05748131
166	0x3d50b730	0.05095595
167	0x3dba8d5e	0.09108995
168	0xbd2a69c4	-0.041604772
169	0x3d891a8d	0.06694517
170	0xbd1de093	-0.03854425
171	0x3ba000e4	0.0048829187
172	0xbd5f5150	-0.054520905
173	0xbdb94bb7	-0.090476446
174	0xbd411013	-0.04713447
175	0xbd701a8e	-0.058619075
176	0xbd8ad946	-0.06779723
177	0x3d9a58d6	0.07536475
178	0x3d36a0b3	0.04458685
179	0xbd5e36aa	-0.05425135
180	0xbd23cadc	-0.039988384
181	0xbdd7d7fe	-0.10539244
182	0x3e507e30	0.20360637
183	0xbdcc498c	-0.099749655
184	0xbd13a84c	-0.036049172
185	0xbca3bce9	-0.01998754
186	0x3cf11dae	0.029433098
187	0xbe9d3972	-0.3070789
188	0xbd870a39	-0.06593747
189	0x3d740c93	0.059582304
190	0xbd6d6484	-0.057957187
191	0x3ca94aa8	0.020665482
192	0x3a8b49b9	0.001062683
193	0x3d301f25	0.04299845
194	0xbdb413ce	-0.0879284
195	0xbd8b08f7	-0.06788819
196	0xbd90d98d	-0.070727445
197	0x3d2562fd	0.040377606
198	0xbc207f54	-0.009795982
199	0x3dd72c55	0.105065025
200	0xbc86e220	-0.016465247
201	0xbd9041df	-0.07043814
202	0xbcf6b0e7	-0.03011365
203	0xbcdb1865	-0.02674503
204	0x3d49fb4e	0.04931193
205	0x3d4fbae8	0.050715357
206	0xbdbba70a	-0.091627195
207	0xbdb5e949	-0.08882386
208	0xbd07d9bd	-0.033166636
209	0xbd01219c	-0.031526193
210	0xbdbac341	-0.09119273
211	0x3d8d90f7	0.069124155
212	0x3dcca0fc	0.09991643
213	0xbdcf9d19	-0.10137386
214	0x3d835db2	0.06414355
215	0x3c44cca7	0.012011684
216	0xbe33ab4a	-0.1754581
217	0x3e567590	0.20943284
218	0x3d72166d	0.05910342
219	0xbd75506a	-0.059891142
220	0xbd39bc97	-0.04534587
221	0x3da60591	0.081065305
222	0xbd7f6b97	-0.062358465
223	0xbd79fa35	-0.06102963
224	0xbd860ba4	-0.06545189
225	0xbcc7af95	-0.024375716
226	0xbd38e011	-0.04513556
227	0x3d809bbb	0.06279703
228	0xbd599452	-0.053119965
229	0xbccc15a6	-0.024912667
230	0xbbec333b	-0.0072082556
231	0xbc7c0dff	-0.015384196
232	0x3d8d1833	0.06889381
233	0x3d8e112b	0.06936868
234	0x3bd0a29c	0.006367041
235	0xbd033024	-0.032028332
236	0x3d120b8a	0.035655536
237	0x3d10b90b	0.03533272
238	0xbd205e24	-0.03915228
239	0xbda1f558	-0.07908124
240	0x3ddd4f3a	0.10806127
241	0xbd8c2d9f	-0.06844639
242	0x3d873f5b	0.06603881
243	0x3db5b18e	0.088717565
244	0xbd5c9e8f	-0.05386215
245	0xbd03a05f	-0.032135364
246	0x3d80d139	0.06289906
247	0x3dba69cd	0.09102211
248	0x3db07683	0.08616354
249	0x3dd612e9	0.104528256
250	0xbd272c8b	-0.040813964
251	0x3e0de175	0.13855536
252	0x3d0b7783	0.034049522
253	0x3a6ebaaa	0.00091067946
254	0xbd811c2f	-0.06304204
255	0x3d3c0537	0.04590341

VAE_Encoder.layers.0.linear1.bias f4 [4]
0	0x3d6f869e	0.05847799
1	0xbd15ae96	-0.03654345
2	0x3d4c282e	0.049843006
3	0x3ccfeb7f	0.025380848

VAE_Encoder.layers.0.norm1.weight f4 [4]
0	0x3f88651a	1.0655854
1	0x3f88940d	1.0670182
2	0x3f89cc1f	1.0765418
3	0x3f84d577	1.0377644

VAE_Encoder.layers.0.norm1.bias f4 [4]
0	0xbcedce6d	-0.029029096
1	0xbd5fcfd3	-0.054641556
2	0x3d2fc51c	0.042912588
3	0xbda0cbd5	-0.07851378

VAE_Encoder.layers.1.attention.W_q.weight f4 [4, 4]
0	0x3e4c8902	0.1997414
1	0x3ebd35fa	0.36955243
2	0x3d0e9404	0.034809127
3	0xbe6d19cf	-0.23154376
4	0xbe8b3f31	-0.2719665
5	0xbc9c28ce	-0.019062426
6	0xbc12ecfd	-0.008967635
7	0xbe82fc96	-0.25583333
8	0x3d822dbd	0.0635638
9	0xbe24d6a2	-0.16097501
10	0xbe6cdb61	-0.23130561
11	0xbe3ba979	-0.18326367
12	0xbc319d16	-0.010840675
13	0xbe928b34	-0.2862183
14	0xbe7452d2	-0.23859718
15	0x3ec66501	0.38748935

VAE_Encoder.layers.1.attention.W_q.bias f4 [4]
0	0xbe14b028	-0.14520323
1	0x3e455932	0.19272307
2	0xbe51da09	-0.2049333
3	0xbe27b9f2	-0.16379526

VAE_Encoder.layers.1.attention.W_k.weight f4 [4, 4]
0	0xbb56e1a8	-0.003278831
1	0x3e4bdc1c	0.19908184
2	0x3d6762a4	0.056490555
3	0x3ed0a534	0.4075104
4	0x3eab5b0d	0.33467904
5	0xbe7ea465	-0.24867399
6	0xbe5cf417	-0.21577488
7	0xbf0563a4	-0.52105165
8	0xbf19ef09	-0.60130364
9	0x3de32d32	0.11092605
10	0xbc9f156e	-0.019419398
11	0xbe822706	-0.25420398
12	0xbf09231f	-0.53569216
13	0xbe0bcb32	-0.13651732
14	0x3e02145f	0.12703083
15	0xbc16515c	-0.009174671

VAE_Encoder.layers.1.attention.W_k.bias f4 [4]
0	0xb807057a	-3.219161e-05
1	0x3889f05a	6.577438e-05
2	0xb8755db6	-5.8499827e-05
3	0x37e71936	2.7549086e-05

VAE_Encoder.layers.1.attention.W_v.weight f4 [4, 4]
0	0xbeb819f5	-0.35957304
1	0x3e6a2005	0.22863777
2	0xbe0144eb	-0.12623946
3	0x3df54bed	0.11977372
4	0x3e8ec324	0.27883255
5	0xbeccbacb	-0.39986262
6	0x3e6d44c9	0.2317077
7	0xbe2fb4af	-0.17158769
8	0x3e203cb3	0.15648155
9	0x3d914b50	0.07094443
10	0x3e71ee17	0.2362598
11	0x3e03fd18	0.12889516
12	0xbd3ceb25	-0.04612269
13	0xbdfc8296	-0.12329595
14	0x3cd31117	0.025764985
15	0xbd8be494	-0.06830707

VAE_Encoder.layers.1.attention.W_v.bias f4 [4]
0	0xbb878cd7	-0.0041366625
1	0x3c905630	0.017619222
2	0xbd8eb353	-0.06967797
3	0xbd055879	-0.032555077

VAE_Encoder.layers.1.linear0.weight f4 [128, 4]
0	0x3da4b3fa	0.0804214
1	0x3ece0e95	0.402455
2	0x3ec90f6e	0.39269584
3	0xbee69e13	-0.45042476
4	0x3edbbf7a	0.42919523
5	0x3f2b2b61	0.66863066
6	0x3ee994b2	0.45621258
7	0xbee556d4	-0.44792807
8	0xbe501f65	-0.20324476
9	0xbed7f9cd	-0.4218277
10	0xbe874a5b	-0.26423916
11	0xbec8d6cd	-0.3922638
12	0xbe158f10	-0.14605355
13	0x3eeca856	0.4622218
14	0xbdc318d6	-0.095262215
15	0x3e5efa60	0.21775198
16	0xbe9efd64	-0.31052697
17	0x3eac55b5	0.3365914
18	0x3e858be6	0.26083297
19	0xbed55cb6	-0.41672295
20	0xbe3a09af	-0.18167756
21	0xbefbeee7	-0.49205706
22	0xbd3342f1	-0.043765012
23	0x3f040f96	0.5158628
24	0xbe929e77	-0.28636524
25	0xbced781b	-0.028987935
26	0x3d960029	0.07324249
27	0x3edf328f	0.4359326
28	0xbef76319	-0.48317793
29	0xbe52d004	-0.20587164
30	0xbeb4087d	-0.35162726
31	0x3eb9e104	0.36304486
32	0xbec7bd95	-0.39011827
33	0xbedaa4eb	-0.42703947
34	0x3ecfb46a	0.40567333
35	0x3d8dba2c	0.06920275
36	0xbefaa6af	-0.48955294
37	0x3f1aa935	0.6041444
38	0x3ecdd6d2	0.40202957
39	0x3ea20b46	0.31649226
40	0xbe4efa1f	-0.20212601
41	0x3e90c4f5	0.28275266
42	0x3ddfd5f2	0.10929479
43	0xbd0564f9	-0.032567
44	0x3f0a6944	0.5406687
45	0xbc77658b	-0.015099893
46	0xbd8b6294	-0.06805912
47	0x3ed5ef9e	0.41784376
48	0xbeaaa395	-0.33327928
49	0xbeb97bb9	-0.36227205
50	0x3ee82afa	0.4534529
51	0x3e60b642	0.21944526
52	0xbd8e097c	-0.06935403
53	0xbd6bd8e5	-0.057579894
54	0xbf0244e0	-0.50886345
55	0x3e1978ce	0.1498749
56	0x3dc0291e	0.093828425
57	0x3daa87bf	0.08326673
58	0x3eea0857	0.45709488
59	0x3f064e4e	0.52463233
60	0x3e8ada09	0.27119473
61	0xbd849666	-0.06473999
62	0x3e9dd0fd	0.30823508
63	0xbea21c0b	-0.3166202
64	0x3e369076	0.17828545
65	0x3e849c38	0.25900435
66	0xbee1acd7	-0.4407718
67	0x3eedf35c	0.4647473
68	0x3ed88ff6	0.42297333
69	0x3e8ff819	0.2811897
70	0xbe8e3130	-0.27771902
71	0xbe132f24	-0.14373451
72	0xbd49e93c	-0.049294695
73	0x3eb2da34	0.349321
74	0x3eedd55c	0.46451843
75	0x3ecb562d	0.39714184
76	0xbe45cd41	-0.1931658
77	0x3e7767d2	0.24160698
78	0x3d7c96de	0.061667316
79	0xbbf0c71e	-0.0073479554
80	0xbe3fb7bf	-0.18722437
81	0x3e8becdf	0.27329156
82	0x3ed7fc13	0.42184505
83	0xbee138a7	-0.43988535
84	0x3e66484e	0.2248852
85	0xbdceaa4b	-0.100910746
86	0x3d34c2e8	0.04413119
87	0xbee3de56	-0.44505566
88	0xbea72723	-0.32647046
89	0xbc4133a2	-0.011792095
90	0xbec62027	-0.38696405
91	0xbe5d5496	-0.21614298
92	0xbe38aa50	-0.18033719
93	0x3f0d7496	0.5525602
94	0x3cbc92ef	0.023019282
95	0x3d8ac048	0.06774956
96	0xbed0d85f	-0.40790078
97	0xbe01ebf8	-0.12687671
98	0xbe1768ed	-0.1478612
99	0xbe3b701d	-0.18304487
100	0xbd0a2bed	-0.033733297
101	0x3e0fd4d4	0.14046031
102	0xbe779089	-0.2417623
103	0xbf0d6f95	-0.55248386
104	0x3d421bcc	0.04738979
105	0xbe10637d	-0.14100452
106	0xbd3ed9e9	-0.046594534
107	0xbe82e680	-0.25566483
108	0x3eb9fa56	0.36323804
109	0xbbb46a50	-0.0055058375
110	0xbede28ba	-0.43390447
111	0x3e2a7ba9	0.16648735
112	0x3e182cff	0.14860915
113	0xbe9fce15	-0.31211916
114	0x3e72e83f	0.23721407
115	0x3c69c7e1	0.014268846
116	0x3f263367	0.64922184
117	0xbe1dbb81	-0.15403558
118	0x3e8312b5	0.2560021
119	0xbe77374c	-0.24142188
120	0x3e5b40a0	0.21411371
121	0xbed0e955	-0.40803018
122	0xbefd8b76	-0.49520463
123	0xbe85e361	-0.2615004
124	0x3e381fd7	0.17980896
125	0x3e4e9dc5	0.20177372
126	0x3d3aa112	0.045563765
127	0x3ed780cd	0.42090455
128	0xbe4bc741	-0.19900228
129	0x3bb418db	0.005496127
130	0xbea25e64	-0.3171264
131	0x3ea8acbf	0.32944295
132	0x3dad1649	0.08451516
133	0x3f105a98	0.56388235
134	0xbf48f205	-0.7849429
135	0xbdc5d2b0	-0.09659326
136	0xbdab0158	-0.08349866
137	0xbe650468	-0.22364962
138	0xbe9e499f	-0.30915543
139	0x3efef8c2	0.49799162
140	0xbe89720c	-0.26844823
141	0xbe678e11	-0.22612788
142	0x3de2b74e	0.11070119
143	0x3eba2362	0.3635512
144	0xbea01082	-0.31262594
145	0xbdc35a49	-0.09538705
146	0xbd226f8a	-0.039657153
147	0x3df2705c	0.11837837
148	0x3eabf280	0.3358345
149	0x3ecffcae	0.40622467
150	0xbe439fd7	-0.19103943
151	0xbd9f69e7	-0.07783871
152	0xbee7b4a9	-0.4525502
153	0xbe95a2e6	-0.29225844
154	0x3bfef42b	0.007780572
155	0xbe8adfbf	-0.2712383
156	0xbe9e8d5b	-0.3096722
157	0x3cee20ef	0.029068438
158	0xbe3962c8	-0.18104088
159	0xbe78520c	-0.24250048
160	0x3eea0071	0.45703462
161	0xbe88ab07	-0.26692984
162	0x3d76b19b	0.06022797
163	0x3e58bc2c	0.21165532
164	0x3e6f6eb0	0.23382068
165	0xbf13c06a	-0.57715476
166	0x3ec0a707	0.37627432
167	0x3ee0e243	0.43922624
168	0xbedab68e	-0.42717403
169	0x3e94b50c	0.29044378
170	0x3eb5a592	0.35477883
171	0xbeef67a1	-0.4675875
172	0x3e6e21af	0.23255037
173	0xbeb4c658	-0.35307574
174	0xbea42705	-0.3206102
175	0x3ea8eff1	0.3299556
176	0xbef57ddb	-0.47947583
177	0xbea05184	-0.3131219
178	0x3ed36b31	0.41292718
179	0xbe376773	-0.17910556
180	0x3e502bd8	0.20329225
181	0xbe757266	-0.23969421
182	0x3d884b71	0.06655014
183	0x3e343aac	0.17600507
184	0xbeaf189c	-0.34198463
185	0x3ebdda1e	0.37080473
186	0x3dfa9682	0.12235738
187	0x3ead4764	0.3384353
188	0xbebb6d4b	-0.3660682
189	0xbe9a5f58	-0.30150867
190	0x3eb740e2	0.3579169
191	0x3ce14e24	0.02750308
192	0xbe4ae728	-0.19814742
193	0x3eea5128	0.45765042
194	0xbbbf28d7	-0.005833726
195	0xbe33237e	-0.17494008
196	0xbe43d431	-0.19123913
197	0x3e687ec2	0.22704604
198	0x3e5bae02	0.21453097
199	0xbee413b9	-0.44546297
200	0x3e7d5be7	0.24742089
201	0x3d06ef99	0.032943342
202	0x3dddb66f	0.10825812
203	0xbd4a5469	-0.049396906
204	0x3ec0dd3d	0.3766879
205	0x3ecd6c37	0.40121624
206	0x3ec859d6	0.3913104
207	0xbc7b65e6	-0.015344119
208	0x3e89051c	0.2676171
209	0x3eacc494	0.33743727
210	0x3e94c5ec	0.29057252
211	0xbed71e11	-0.42015126
212	0xbe4a39ad	-0.19748564
213	0xbed42db2	-0.41441113
214	0xbed6cda4	-0.41953766
215	0x3e5df850	0.21676755
216	0x3e0b6c60	0.1361556
217	0x3e5dcf4c	0.21661109
218	0xbee5c639	-0.44877794
219	0x3e0f24af	0.13978837
220	0x3e673437	0.22578512
221	0xbdc284eb	-0.09498008
222	0x3e8879a3	0.266553
223	0x3f04015a	0.5156456
224	0xbefdd92b	-0.4957975
225	0xbbf93566	-0.0076052425
226	0xbeedd8fe	-0.46454614
227	0x3e457085	0.19281204
228	0x3ed75a9c	0.42061317
229	0x3e944dba	0.2896555
230	0x3ea39f24	0.31957352
231	0x3ec062a8	0.3757527
232	0x3d76bd7e	0.060239308
233	0x3eb673be	0.3563518
234	0xbe5c31c0	-0.21503353
235	0x3e0f8985	0.14017303
236	0x3dd69a36	0.10478632
237	0xbec94904	-0.3931352
238	0xbec20c2c	-0.3789991
239	0x3de8e2cd	0.11371384
240	0xbeaf763b	-0.3426989
241	0x3eb7a903	0.35871133
242	0xbe2d59c7	-0.16928779
243	0xbef156ee	-0.47136635
244	0xbee7bd2d	-0.45261517
245	0x3ecfefcb	0.40612635
246	0xbe1598ff	-0.14609145
247	0xbe6156d1	-0.22005774
248	0xbdc71f33	-0.09722748
249	0x3e4c9c6a	0.19981542
250	0x3e1cf50c	0.15327853
251	0xbeb5d9f3	-0.35517845
252	0x3f014536	0.5049623
253	0xbee0b647	-0.43889067
254	0x3e400b6e	0.1875436
255	0xbed6583e	-0.41864198

VAE_Encoder.layers.1.linear0.bias f4 [128]
0	0xbd8b92a0	-0.06815076
1	0x3e949a2c	0.29023874
2	0x3ec6c35a	0.38820916
3	0xbdd871d7	-0.10568588
4	0xbe1a64da	-0.15077534
5	0xbe9a1300	-0.3009262
6	0x3dc5cb0f	0.09657871
7	0x3dc40f10	0.095731854
8	0x3cd972fa	0.026544083
9	0x3ea404e3	0.32034978
10	0x3eaa8500	0.33304596
11	0x3e4f77a6	0.20260486
12	0x3f08a0fe	0.53370655
13	0x3e39d10f	0.18146156
14	0x3e66cf0a	0.22539917
15	0x3db306c8	0.08741528
16	0x3e01446a	0.12623754
17	0x3dd34bac	0.10317168
18	0xbd36b834	-0.044609264
19	0xbe1ea9aa	-0.15494409
20	0x3dc7fffe	0.097656235
21	0xbdc098b7	-0.09404128
22	0x3e44db5f	0.19224308
23	0x3e919c34	0.28439486
24	0xbe98bab3	-0.2982994
25	0xbefd4818	-0.49469066
26	0xbc0f1be4	-0.008734677
27	0x3ef6ab25	0.48177448
28	0x3dc262b8	0.09491485
29	0x3dff7dfa	0.124752
30	0xbd305661	-0.043051127
31	0x3f03f011	0.5153819
32	0xbdee6629	-0.11640579
33	0x3dca4934	0.09877244
34	0xbd7d5644	-0.061849847
35	0x3ed1b3aa	0.40957385
36	0xbe4585a1	-0.19289257
37	0x3e634bcf	0.22196887
38	0x3e2af8b8	0.16696441
39	0xbe998978	-0.29987693
40	0xbe872b99	-0.2640045
41	0xbea108fc	-0.31452167
42	0xbe984c19	-0.29745558
43	0xbebde059	-0.37085226
44	0xbe412746	-0.18862638
45	0x3e0788a1	0.13235714
46	0xbe5936c4	-0.21212298
47	0x3df1d7a9	0.11808712
48	0x3e1cf088	0.1532613
49	0xbeaaabf2	-0.3333431
50	0x3d6454b0	0.055744827
51	0x3cc3f6fe	0.023921486
52	0xbead02b9	-0.3379114
53	0xbe8d31bd	-0.2757701
54	0xbe60018b	-0.21875589
55	0xbedd535e	-0.43227667
56	0x3ef59b92	0.47970253
57	0xbecc6b1c	-0.39925468
58	0x3eea041a	0.45706254
59	0x3eb222f1	0.34792283
60	0x3ebf5517	0.37369606
61	0x3eb53029	0.35388306
62	0xbe0ae402	-0.1356354
63	0xbe772cfb	-0.24138252
64	0x3ed0ebec	0.40804994
65	0x3c90a082	0.017654661
66	0xbd717608	-0.058950454
67	0x3e0767e6	0.13223228
68	0x3e7381dd	0.23780008
69	0x3a8d7fb9	0.0010795511
70	0xbef49ea0	-0.4777727
71	0x3d85691e	0.0651419
72	0xbef85d27	-0.4850857
73	0xbee1499b	-0.4400147
74	0x3ebd1334	0.36928713
75	0xbb976d2c	-0.0046211686
76	0xbe289a77	-0.16465174
77	0x3ee7f5cc	0.45304716
78	0xbe5adf3a	-0.21374217
79	0xbd1d2832	-0.03836841
80	0xbe443555	-0.1916097
81	0x3de445b1	0.11146105
82	0xbf29392a	-0.6610285
83	0x3eebf03c	0.46081722
84	0x3e71db16	0.23618731
85	0xbe79ee92	-0.24407414
86	0x3e1604c1	0.14650251
87	0x3e27a519	0.16371574
88	0x3ddc1ddd	0.107478835
89	0x3ea551d2	0.32288986
90	0x3ed03aee	0.4066996
91	0xbe8af875	-0.27142683
92	0xbde37b26	-0.11107473
93	0x3ecbd311	0.39809468
94	0xbeab33ba	-0.33437902
95	0x3e9a177b	0.3009604
96	0x3eaa2fc5	0.3323957
97	0x3ea081ff	0.3134918
98	0xbe7a3c10	-0.24436975
99	0x3e0179ce	0.12644121
100	0xbe7c16f3	-0.2461813
101	0x3e72ade2	0.23699144
102	0x3efd8192	0.49512917
103	0xbe9d57a1	-0.30730918
104	0xbe4ce377	-0.20008646
105	0x3ebb97ea	0.3663934
106	0xbdf59671	-0.11991585
107	0x3e8ac1ff	0.27101132
108	0xbe58f198	-0.2118591
109	0x3eb62426	0.35574454
110	0x3dfcd846	0.123459384
111	0xbbe032fe	-0.0068420162
112	0x3ee23879	0.4418371
113	0xbbcbfb6f	-0.0062250416
114	0xbe84231b	-0.25808033
115	0x3e666509	0.2249948
116	0xbe549c40	-0.2076273
117	0xbddcee15	-0.10787598
118	0xbefe103a	-0.49621755
119	0x3c4c0bd7	0.012453995
120	0xbdba6d77	-0.0910291
121	0x3e4efec9	0.2021438
122	0xbe02975f	-0.12753056
123	0x3ec36f08	0.38170648
124	0xbf02c83d	-0.5108679
125	0x3f0638b3	0.52430266
126	0xbd84a614	-0.064769894
127	0xbeb9f3dd	-0.36318865

VAE_Encoder.layers.1.linear1.weight f4 [4, 128]
0	0x3d2d2523	0.042271744
1	0x3d97b951	0.07408393
2	0xbb0b675e	-0.0021271328
3	0x3ddc88fa	0.10768314
4	0x3cbb069d	0.022830302
5	0xbd8c34c7	-0.06846004
6	0xba68ea65	-0.0008885025
7	0xbda35140	-0.079744816
8	0xbd6bb125	-0.057541985
9	0x3d9ad65d	0.07560418
10	0xbc84c27b	-0.016206017
11	0xbde85912	-0.11345114
12	0xbd1c189a	-0.0381094
13	0x3e03732b	0.12836902
14	0xbdb1d6ec	-0.08683571
15	0x3b069fa1	0.0020541924
16	0xbcf57046	-0.029960763
17	0xbc5ebbda	-0.013594592
18	0x3d0bae2d	0.034101654
19	0x3920b230	0.00015325169
20	0xbc0abb45	-0.0084675
21	0x3c988e30	0.018622488
22	0xb7d54717	-2.5424682e-05
23	0x3de6c89b	0.11268731
24	0xbca6f4e2	-0.020380441
25	0xbde762f0	-0.11298168
26	0xbd44db2f	-0.048060592
27	0xbda925ee	-0.08259188
28	0xbdb7e50c	-0.08979234
29	0xbc827f07	-0.015929712
30	0xbe4dff3f	-0.201169
31	0xbc62184e	-0.01379974
32	0x3d7f0c33	0.062267493
33	0x3e4de7a5	0.20107897
34	0xbe193cc9	-0.14964594
35	0xbda9c861	-0.08290172
36	0xbdc3478a	-0.09535129
37	0x3e02a009	0.12756361
38	0xbc4e73f0	-0.012600884
39	0xbca0c45e	-0.019624885
40	0xbdb6dc25	-0.08928708
41	0x3d8d12fc	0.068883866
42	0xbd74f4f3	-0.059803914
43	0xbde71ec2	-0.112851635
44	0xbc21b373	-0.009869444
45	0x3ceb638e	0.028733995
46	0xbc429d91	-0.011878387
47	0xbdfe6cd2	-0.124230996
48	0x3db11e8c	0.086484045
49	0xbd698aa4	-0.057016984
50	0xbda49bc1	-0.0803752
51	0x3d31da4d	0.04342108
52	0x3d0a9637	0.033834662
53	0xbe62d65f	-0.22152089
54	0x3e01efc6	0.12689123
55	0xbc143f5e	-0.009048311
56	0x3c46d749	0.012136289
57	0x3c76beb0	0.015060112
58	0x3c67c8cc	0.014146995
59	0xbd5a792b	-0.05333821
60	0x3df4d7cc	0.119552225
61	0x3d797848	0.060905725
62	0xbceb5273	-0.028725838
63	0x3cd43881	0.02590585
64	0xbcb791b7	-0.02240835
65	0xbc3166c4	-0.010827724
66	0x3d479da4	0.048734322
67	0x3d1598f3	0.036522817
68	0x3c76b075	0.015056719
69	0xbd926b87	-0.071494155
70	0xbc50648b	-0.012719284
71	0x3d49c1d0	0.0492571
72	0xba504674	-0.00079450686
73	0xbd6be30f	-0.057589587
74	0xbdd8faf4	-0.105947405
75	0x3d0de4f8	0.03464219
76	0xbd846e34	-0.06466332
77	0xbcccafd5	-0.024986187
78	0xbd2bfc8c	-0.041988894
79	0x3dffdd47	0.12493377
80	0xbdc9c5be	-0.098521695
81	0x3e4f0192	0.20215443
82	0xbea03995	-0.31293932
83	0xbd0f3f59	-0.034972522
84	0xbd3cdf61	-0.04611147
85	0xbe180791	-0.14846636
86	0xbde48ae3	-0.11159303
87	0x3d3601f0	0.04443544
88	0x3d0c5d43	0.03426863
89	0x3da175b4	0.07883778
90	0x3c813c99	0.015775966
91	0x3d842a6d	0.064534046
92	0xbd2e17d1	-0.04250318
93	0x3d5e1bf9	0.054225896
94	0x3cfb5ea8	0.030684784
95	0xbd8b8cf6	-0.068139955
96	0xbd13c2c2	-0.036074407
97	0x3cd321be	0.025772925
98	0x3c6e8924	0.014559064
99	0x3da13192	0.07870783
100	0xbd8e998a	-0.06962879
101	0xbdbf0b3d	-0.093283154
102	0x3a950a38	0.0011370843
103	0xbdcbacd0	-0.09945071
104	0xbcb6d6bf	-0.022319196
105	0xbc0ee6b0	-0.008721992
106	0xbdca63ed	-0.098823406
107	0xbd0d91fe	-0.034563057
108	0xbd24dd34	-0.04025002
109	0xbbd20d01	-0.0064102416
110	0xbc678ee7	-0.014133192
111	0x3da2355d	0.079203345
112	0xbda47053	-0.08029237
113	0x3cae6182	0.02128673
114	0x3d369616	0.044576727
115	0xbcd6994a	-0.02619614
116	0x3d2ca39b	0.042148214
117	0xbcc2cd00	-0.023779392
118	0xbc8d6243	-0.017258769
119	0x3a75361a	0.000935407
120	0x3cbec48b	0.023287078
121	0x3ce7f46b	0.02831479
122	0x3d58b121	0.0529033
123	0xbdb22f64	-0.08700445
124	0x3d891c8e	0.066948995
125	0xbc03e920	-0.008051187
126	0xbd02d2df	-0.031939384
127	0xbd1e4f01	-0.038649563
128	0x3c818aa8	0.015813187
129	0xbc6c50bb	-0.0144235445
130	0xbda6515a	-0.08120985
131	0x3d6f6112	0.058442183
132	0x3c048b02	0.008089783
133	0xbd4f3db5	-0.050595958
134	0x3c806d39	0.015677081
135	0x3d948e0f	0.07253658
136	0xbce85bd4	-0.0283641
137	0x3caee3fb	0.021348944
138	0x3d707873	0.05870862
139	0xbdaea50e	-0.085275754
140	0x3d193fd4	0.037414387
141	0xbccd562d	-0.025065506
142	0xbd413e8e	-0.047178797
143	0xbd7ad64d	-0.06123953
144	0xbd78b741	-0.06072164
145	0xbc77f98e	-0.015135182
146	0xbd4ca0e0	-0.04995811
147	0xbd1b2676	-0.037878476
148	0xbddd9a8e	-0.108204946
149	0xbdaac2d5	-0.083379425
150	0x3de7b093	0.11312976
151	0x3d6453a2	0.05574382
152	0xbc4890ef	-0.012241586
153	0xbc861b1b	-0.016370347
154	0xbde1da1f	-0.110279314
155	0x3d1fc91a	0.039010145
156	0x3cb488d9	0.02203791
157	0xbdc5574f	-0.096357934
158	0x3e0bbff5	0.13647445
159	0x3d9b6f2a	0.07589562
160	0xbd2734c3	-0.040821802
161	0x3ebacb49	0.3648322
162	0xbd416a3a	-0.047220446
163	0xbdbd635b	-0.09247466
164	0x3dd743fd	0.105110146
165	0xbd69e299	-0.057100866
166	0x3d856fbf	0.065154545
167	0xbd6e6d2b	-0.05820958
168	0x3e1479f9	0.14499654
169	0x3e598351	0.212415
170	0xbd9d706e	-0.0768746
171	0xbd175c0e	-0.036953025
172	0x3d9c5462	0.07633282
173	0x3d968723	0.07349994
174	0x3d0ea976	0.03482958
175	0x3ca1e394	0.019761838
176	0xbcfba4f3	-0.030718302
177	0x3d6510d5	0.055924255
178	0x3d22ce24	0.039747372
179	0xbd55adde	-0.052167766
180	0xbe166e90	-0.14690614
181	0x3d4cda16	0.05001267
182	0x3d5ca44e	0.05386763
183	0xbd902e4b	-0.0704008
184	0xbcbb712a	-0.02288111
185	0x3d9f4583	0.0777693
186	0x3d8587e1	0.065200575
187	0x3d83520b	0.06412133
188	0xbc460d4f	-0.012088134
189	0x3db9c0f8	0.09070009
190	0x3d0ee36a	0.034884848
191	0xbdb38b41	-0.08766795
192	0x3c2d37c9	0.010572382
193	0xbd203cb2	-0.039120384
194	0x3dbaa06a	0.09112628
195	0x3c3fdfb4	0.01171105
196	0x3c34e5a4	0.011041079
197	0xbd550d39	-0.052014563
198	0xbd1c2aa1	-0.03812659
199	0x3d105a92	0.035242625
200	0x3da664ff	0.08124732
201	0xbe0dfa89	-0.13865103
202	0x3d1a02ee	0.03760045
203	0xbcff194c	-0.031139992
204	0xbe137ac6	-0.14402303
205	0x3d9d4c69	0.0768059
206	0x3d6f676d	0.058448244
207	0x3e891f40	0.26781654
208	0xbd17dcca	-0.037075795
209	0x3da63716	0.081159756
210	0x3e86fadd	0.26363268
211	0x3cb5a5a7	0.022173716
212	0xbc031b43	-0.008002105
213	0x3e2e7455	0.17036565
214	0xbd682bf4	-0.056682542
215	0xbdba70be	-0.09103535
216	0x3dd921b4	0.106021315
217	0xbd6bd0d6	-0.05757221
218	0x3dadeea1	0.084927805
219	0x3cd56925	0.026051113
220	0xbdc9e639	-0.098583646
221	0x3d01e9aa	0.03171698
222	0xbdea22bf	-0.114324085
223	0x3d8c07d2	0.06837429
224	0xbdb7ed22	-0.08980776
225	0x3c085814	0.008321781
226	0xbd23d885	-0.04000141
227	0x3de0c007	0.10974126
228	0xbe2739c2	-0.16330627
229	0xbd29af9e	-0.041427247
230	0x3d6a46a3	0.05719627
231	0x3e6aaa6e	0.22916576
232	0x3d683ef5	0.056700666
233	0xbd96a4a1	-0.07355619
234	0x3d27b1f4	0.040941194
235	0xbd07ec02	-0.03318406
236	0xbd3a87e1	-0.04553974
237	0x3d882bb9	0.066489644
238	0xbd276701	-0.040869717
239	0x3d785187	0.060624626
240	0xbd6ccfe7	-0.05781546
241	0x3d7a6cf4	0.061139062
242	0xbdd62416	-0.104561016
243	0x3b935706	0.004496458
244	0x3bdcfcb3	0.0067439913
245	0x3bcb9b26	0.0062135635
246	0xbd90823d	-0.07056091
247	0xbd4ae782	-0.04953719
248	0xbd8e99c6	-0.06962924
249	0xbdabc6a5	-0.08387498
250	0xbdd3eacc	-0.10347518
251	0xbd815f9a	-0.06317063
252	0x3bbafe2f	0.0057065706
253	0xbdc444f1	-0.09583462
254	0x3d7e57f5	0.0620956
255	0xbe033544	-0.12813288

VAE_Encoder.layers.1.linear1.bias f4 [4]
0	0xbccc2b95	-0.024923125
1	0x3d1aaa15	0.03775986
2	0xbcc11a57	-0.02357213
3	0x3d61df5b	0.05514465

VAE_Encoder.layers.1.norm1.weight f4 [4]
0	0x3f84b0f4	1.0366502
1	0x3f911559	1.133464
2	0x3f85e359	1.0460006
3	0x3f83a092	1.0283377

VAE_Encoder.layers.1.norm1.bias f4 [4]
0	0xbcab5c71	-0.020918103
1	0xbd34d7d6	-0.04415115
2	0xbde3a5db	-0.11115619
3	0x3c8e1f4e	0.017348912

VAE_Encoder.layers.1.norm0.weight f4 [4]
0	0x3f6af025	0.9177268
1	0x3f4c928e	0.79911125
2	0x3f5e2bb4	0.86785436
3	0x3f62773a	0.88463175

VAE_Encoder.layers.1.norm0.bias f4 [4]
0	0xbc32150c	-0.010869276
1	0xbd3db6c9	-0.046316896
2	0x3c47f71a	0.01220491
3	0xbc9889b2	-0.018620346

VAE_Encoder.last_normalization.weight f4 [4]
0	0x3f800000	1.0
1	0x3f800000	1.0
2	0x3f800000	1.0
3	0x3f800000	1.0

VAE_Encoder.last_normalization.bias f4 [4]
0	0x00000000	0.0
1	0x00000000	0.0
2	0x00000000	0.0
3	0x00000000	0.0

VAE_Encoder.head.weight f4 [4, 4]
0	0x3e859854	0.2609278
1	0xbe951986	-0.29121035
2	0x3e4a6f54	0.19769031
3	0x3ed62c86	0.41830844
4	0x3ecf7aa4	0.40523255
5	0xbe54553c	-0.2073564
6	0xbe6d745c	-0.23188919
7	0xbe4fe5bc	-0.2030248
8	0xbd929988	-0.0715819
9	0xbc0665c0	-0.00820297
10	0xbe1db21c	-0.15399975
11	0xbea21314	-0.3165518
12	0xbdc07c38	-0.09398693
13	0x3ea30900	0.31842804
14	0xbd0b76e0	-0.034048915
15	0xbed43ef6	-0.41454285

VAE_Encoder.head.bias f4 [4]
0	0x3eaff838	0.34369063
1	0x3de45650	0.11149275
2	0xbe147c80	-0.14500618
3	0x3dd755c0	0.105144024
