restsyn/tabsyn/vae/ckpt/adult_nocond/model.pt (torch, 69030 bytes, 112 tensors)

VAE.Tokenizer.weight f4 [6, 4]
0	0x3e68d8a7	0.22738896
1	0x3f148f81	0.5803147
2	0xbe3f9ef9	-0.18712987
3	0xbed5248d	-0.4162945
4	0x3ec7e1d5	0.39039484
5	0x3e2ae09b	0.16687243
6	0x3e54ba71	0.20774247
7	0x3ea2abcb	0.31771693
8	0xbd794e7f	-0.060865875
9	0x3e3d0785	0.184599
10	0x3e6a0f58	0.22857416
11	0xbe1e83a1	-0.154799
12	0xbdc398d2	-0.095506325
13	0xbd9066a0	-0.07050824
14	0xbb8e8202	-0.004348994
15	0xbd81108d	-0.06301985
16	0x3eb355db	0.3502644
17	0x3eab1ee1	0.33421996
18	0x3e87f100	0.26551056
19	0xbd99fce2	-0.07518937
20	0x3df8abfb	0.12142178
21	0x3de865cd	0.11347542
22	0x3ddafcea	0.10692771
23	0xbd9412f1	-0.07230175

VAE.Tokenizer.bias f4 [14, 4]
0	0x3e8f23b2	0.2795692
1	0xbf038ceb	-0.513869
2	0x3f0b01bc	0.5429952
3	0x3d5d64d3	0.05405123
4	0xbd1c4ecd	-0.038161088
5	0xbf07160a	-0.52768004
6	0x3e870944	0.26374257
7	0x3e27358a	0.16329017
8	0xbe8e10a3	-0.27747068
9	0xbdc355f5	-0.095378794
10	0xbed112bb	-0.40834603
11	0xbd20053b	-0.03906749
12	0x3edb9fb9	0.42895296
13	0x3e2ace93	0.16680364
14	0x3cfe08ac	0.031009994
15	0xbe0c7bf5	-0.13719161
16	0x3c0f1aa0	0.008734375
17	0x3e6e6eb7	0.23284422
18	0xbf121707	-0.57066387
19	0x3ea0a217	0.31373665
20	0x3e919a08	0.2843783
21	0xbe977164	-0.29578698
22	0x3e86a3eb	0.26296934
23	0xbb07d9d3	-0.0020729199
24	0x3e329c31	0.17442395
25	0x3efd3397	0.49453422
26	0x3e0b71d1	0.13617636
27	0xbec588b0	-0.38580847
28	0xbe04b5b2	-0.12959936
29	0x3d0d41cb	0.034486573
30	0x3e07c4c3	0.13258652
31	0xbe0089d5	-0.12552579
32	0x3ede64c2	0.43436247
33	0x3e20ffcd	0.1572258
34	0x3daa21f2	0.08307256
35	0xbc56e35b	-0.013115729
36	0x3e8d6e1a	0.27623063
37	0x3eaade96	0.33372945
38	0x3d145e3a	0.036222674
39	0x3c0b2ac1	0.00849408
40	0xbd93e597	-0.07221525
41	0x3e6a782b	0.22897403
42	0x3d85229d	0.065007426
43	0xbe8a7c53	-0.27047977
44	0xbe9d66c4	-0.30742466
45	0xbda08ec1	-0.07839728
46	0xbd6e4f29	-0.05818096
47	0xbe10c10b	-0.1413614
48	0xbeedb1fc	-0.46424854
49	0xbe93629b	-0.28786168
50	0xbdb5abd8	-0.08870667
51	0xbe2ecbba	-0.17069903
52	0x3c3a603a	0.011375481
53	0x3f20ffc1	0.6289025
54	0x3e1e795e	0.15475985
55	0x3e7f19f0	0.24912238

VAE.Tokenizer.category_embeddings.weight f4 [49, 4]
0	0x3ee3be6c	0.44481218
1	0xbec6c800	-0.38824463
2	0x3e6861b4	0.22693521
3	0xbc3bec1f	-0.01146987
4	0xbef519e3	-0.47871312
5	0xbdb5cb88	-0.08876711
6	0x3e9ddde4	0.30833352
7	0x3f079dd0	0.5297518
8	0xbe5937ee	-0.21212742
9	0xbf3f4781	-0.7471848
10	0xbea21e59	-0.31663778
11	0x3ef6ed2b	0.4822782
12	0xbea0c5d8	-0.31400943
13	0xbd7db2b1	-0.06193799
14	0xbe2f0f24	-0.1709562
15	0x3f1ca533	0.61189574
16	0x3e0973bb	0.13423054
17	0x3e63ddca	0.22252575
18	0xbe6db447	-0.23213302
19	0xbea417a9	-0.320493
20	0x3e9cf6f9	0.30657175
21	0x3e9ad833	0.30243072
22	0xbe6c05ad	-0.2304904
23	0x3f382842	0.7193643
24	0x3d608f58	0.054824203
25	0xbe895d28	-0.26828885
26	0x3eb75559	0.35807303
27	0x3dc6d085	0.09707741
28	0x3d8fb34d	0.07016621
29	0xbf01680d	-0.50549394
30	0x3b293652	0.002581973
31	0x3e8898d6	0.26679105
32	0xbf21c6b4	-0.6319382
33	0xbec39f1d	-0.3820733
34	0x3ea5f518	0.32413554
35	0x3f00b442	0.5027505
36	0xbf0689a8	-0.52553797
37	0xbd3e1aa1	-0.046412114
38	0x3e26e883	0.16299634
39	0xbe63e4ae	-0.22255203
40	0x3d1d76ff	0.03844356
41	0xbf4a1619	-0.7893997
42	0xbf0a6d60	-0.54073143
43	0x3e0c8de3	0.13726
44	0x3e9dfd1c	0.3085717
45	0xbf388f8e	-0.7209405
46	0xbd45b7c3	-0.048270952
47	0xbe15cc56	-0.14628729
48	0x3d9ac1d9	0.07556505
49	0xbdfcd084	-0.12344459
50	0xbed2b093	-0.4115034
51	0xbe8b62d3	-0.27223834
52	0xbeb57f12	-0.3544851
53	0xbf3abae2	-0.7294141
54	0xbefe1e83	-0.49632654
55	0x3ee8b485	0.45450225
56	0x3ee02754	0.43780005
57	0x3ed2b450	0.41153193
58	0xbf145d87	-0.5795521
59	0x3f029ff1	0.510253
60	0xbe401047	-0.1875621
61	0xbea6c85b	-0.32574734
62	0xbdaf1ba9	-0.08550198
63	0x3caccb6c	0.021093093
64	0x3e9f9fe9	0.3117669
65	0x3f071de2	0.5277997
66	0xbeb1bd1e	-0.34714597
67	0xbc9c86d1	-0.019107254
68	0x3e903bb8	0.28170562
69	0x3e338032	0.17529371
70	0x3ea51e15	0.32249513
71	0xbe8c7ed8	-0.27440524
72	0x3e255b45	0.16148098
73	0x3f01b52a	0.5066706
74	0x3d73490d	0.05939584
75	0xbd7e5ca2	-0.06210006
76	0x3f1fa8a8	0.62366724
77	0xbf14464e	-0.57919776
78	0xbe32748b	-0.1742727
79	0x3d6e604a	0.058197297
80	0xbeba394f	-0.36371848
81	0x3e165e46	0.146844
82	0xbee09d86	-0.4387018
83	0x3e8bda16	0.27314824
84	0xbea6c665	-0.32573238
85	0x3d5f330f	0.054492053
86	0x3d97bff7	0.07409661
87	0x3e9b9ef9	0.30394724
88	0x3eaa4484	0.33255398
89	0x3ea7f0c0	0.32800865
90	0xbde02e97	-0.10946386
91	0xbee62958	-0.44953418
92	0x3db8c291	0.090214856
93	0x3e94c816	0.29058903
94	0xbdbd0b24	-0.092306405
95	0x3e873ac0	0.2641201
96	0x3e04bfb7	0.12963758
97	0xbea3bf0c	-0.31981695
98	0xbe2c7bc0	-0.16844082
99	0xbf114349	-0.56743294
100	0x3d2da331	0.04239196
101	0xbe1b1373	-0.15144138
102	0x3e3fd117	0.18732105
103	0xbdc0bb2c	-0.094107
104	0xbeb8a56b	-0.36063704
105	0x3e9ad641	0.30241588
106	0xbd5d0014	-0.053955153
107	0x3c01ecab	0.007929961
108	0xbf1d658f	-0.6148309
109	0xbdeed7d8	-0.11662263
110	0x3ea03555	0.3129069
111	0x3eba48ef	0.3638377
112	0x3f0c443d	0.54791623
113	0xbe9faa5c	-0.3118466
114	0xbe765da4	-0.24059159
115	0x3f1b8920	0.6075611
116	0xbf554b74	-0.8331826
117	0xbe8d2f8d	-0.2757534
118	0x3f86b500	1.0523987
119	0xbf9171f0	-1.1362896
120	0xbe97063a	-0.29496938
121	0x3e8e460f	0.27787825
122	0x3dd7d86d	0.10539327
123	0x3ef1e6f5	0.4724652
124	0x3e196df7	0.14983355
125	0x3e0c5a5c	0.13706344
126	0xbeeb7764	-0.45989525
127	0x3eede541	0.4646397
128	0xbdd52680	-0.10407734
129	0x3d371023	0.044693124
130	0xbdac46b7	-0.08411925
131	0xbdbecd49	-0.09316499
132	0xbdb75c96	-0.08953206
133	0xbe0d7ce8	-0.13817179
134	0x3ebf34ff	0.3734512
135	0xbf1ca6fa	-0.61192286
136	0xbf0f5836	-0.55993974
137	0xbebba958	-0.36652637
138	0x3ef8f515	0.48624483
139	0x3e91cad1	0.2847505
140	0xbdbcc467	-0.09217148
141	0x3f2a3ec5	0.6650203
142	0x3ebb5f6d	0.36596242
143	0xbeee4ceb	-0.4654306
144	0x3e0ee8a2	0.1395593
145	0xbf5b967d	-0.857765
146	0x3d8955bb	0.06705805
147	0xbe1ebc09	-0.15501417
148	0x3eb54dc3	0.3541089
149	0x3eb23e96	0.34813374
150	0xbd92b4ee	-0.07163416
151	0x3f3c3252	0.7351428
152	0x3c8135dd	0.015772754
153	0xbe3ddc4e	-0.18541071
154	0x3e1db091	0.15399386
155	0xbe87f334	-0.26552737
156	0xbd26022e	-0.040529422
157	0x3e73401d	0.23754926
158	0xbe096ebe	-0.13421151
159	0x3d510069	0.05102578
160	0x3dd07f83	0.10180571
161	0xbeb3d6f3	-0.3512493
162	0xbdf7380b	-0.12071236
163	0xbde7a09a	-0.11309929
164	0xbf05ba8e	-0.52237785
165	0xbf1ab561	-0.6043301
166	0x3d8fb663	0.070172094
167	0x3e9dba30	0.30806112
168	0x3efc1866	0.49237365
169	0x3e9ad2f1	0.3023906
170	0xbf198090	-0.59961796
171	0x3efc8f7b	0.49328217
172	0x3dd0ed75	0.10201541
173	0x3eb5525e	0.35414404
174	0xbea13e7a	-0.31492978
175	0xbeafd256	-0.3434016
176	0x3db1327f	0.086522095
177	0x3ec68bfe	0.3877868
178	0xbde0c266	-0.109745786
179	0x3e98590e	0.29755443
180	0xbedc59d7	-0.43037292
181	0xbea5268a	-0.32255965
182	0x3dfb4b29	0.12270195
183	0x3e1b0e64	0.15142208
184	0x3df4d5ec	0.11954865
185	0x3db2c519	0.08729
186	0xbe631289	-0.2217504
187	0xbef37f9c	-0.47558296
188	0xbd87e7bc	-0.06635997
189	0x3e446302	0.19178393
190	0x3c744570	0.014909133
191	0xbe74519c	-0.23859257
192	0xbdc7f85c	-0.09764168
193	0xbdd23c11	-0.10265363
194	0xbeabb328	-0.33535123
195	0x3e0d8b4f	0.13822673

VAE.encoder_mu.layers.0.attention.W_q.weight f4 [4, 4]
0	0x3de752fe	0.112951264
1	0xbdffda78	-0.124928415
2	0x3e95d013	0.2926031
3	0x3efb0430	0.49026632
4	0x3ecdf978	0.40229392
5	0xbd8670cb	-0.06564482
6	0xbb84c6dd	-0.0040520267
7	0xbedde86a	-0.4334138
8	0x3e08b740	0.13351154
9	0xbea33455	-0.31875864
10	0xbd52ed66	-0.051495932
11	0xbeb45f58	-0.35228992
12	0x3def204a	0.116760805
13	0x3e21ab9a	0.15788117
14	0xbd52bf47	-0.051451948
15	0x3e57c017	0.2106937

VAE.encoder_mu.layers.0.attention.W_q.bias f4 [4]
0	0x3cd5d908	0.026104465
1	0xbe8f9a17	-0.2804725
2	0xbe14dda5	-0.14537676
3	0x3e531d4a	0.20616642

VAE.encoder_mu.layers.0.attention.W_k.weight f4 [4, 4]
0	0xbec77326	-0.3895504
1	0x3ef0e796	0.47051686
2	0xbe3ca0cc	-0.18420714
3	0x3e983c68	0.29733586
4	0x3e8dfcf4	0.2773205
5	0x3edf0bc1	0.43563655
6	0x3eeacc41	0.45858958
7	0xbd88d191	-0.066805966
8	0x3eedbc7c	0.46432865
9	0x3da9b682	0.08286764
10	0x3ee567d3	0.44805774
11	0xbeb07e44	-0.34471333
12	0xbd945546	-0.07242827
13	0x3e57550f	0.21028541
14	0xbecde4a0	-0.4021349
15	0xbe9773aa	-0.29580432

VAE.encoder_mu.layers.0.attention.W_k.bias f4 [4]
0	0x396481b2	0.0002179209
1	0xb6c75ef2	-5.9417152e-06
2	0xb83fcf39	-4.573094e-05
3	0x380c7337	3.3485903e-05

VAE.encoder_mu.layers.0.attention.W_v.weight f4 [4, 4]
0	0xbe3ab038	-0.18231285
1	0x3e2d230d	0.16907902
2	0xbd89dfc3	-0.06732132
3	0x3d4393ae	0.04774826
4	0xbe7b1967	-0.24521409
5	0x3e87a393	0.26491985
6	0xbdde35cc	-0.10850105
7	0x3d8ad9ce	0.06779824
8	0xbe3775d4	-0.17916042
9	0x3e1d6bf8	0.15373218
10	0xbd628200	-0.05529976
11	0x3d285785	0.04109909
12	0xbe5d757e	-0.21626851
13	0x3e5a1e72	0.21300676
14	0xbdaaebc3	-0.08345749
15	0x3d624415	0.05524071

VAE.encoder_mu.layers.0.attention.W_v.bias f4 [4]
0	0xbcf96edc	-0.03044837
1	0x3bedce0a	0.007257228
2	0x3c0c2fc3	0.008556309
3	0xbb960ceb	-0.0045791767

VAE.encoder_mu.layers.0.linear0.weight f4 [128, 4]
0	0x3ebbc533	0.3667389
1	0x3ea4805c	0.3212918
2	0x3ed1ebdb	0.41000256
3	0xbe401c28	-0.18760741
4	0xbec0b1a8	-0.3763554
5	0x3dff3c8d	0.12462721
6	0x3e579edc	0.21056694
7	0xbec99ce8	-0.39377522
8	0x3ef41976	0.47675675
9	0xbe52aeb3	-0.20574455
10	0x3cceb62d	0.025233353
11	0xbe959def	-0.29222056
12	0x3efec965	0.49763027
13	0x3e730bdc	0.23734993
14	0x3aae6e00	0.0013307929
15	0x3eb52c06	0.3538515
16	0xbef1b26a	-0.47206432
17	0xbdfd30f6	-0.12362854
18	0x3ef139ce	0.47114414
19	0xbe899d5c	-0.26877868
20	0x3e607d01	0.21922685
21	0xbeee97e2	-0.46600252
22	0xbeb27919	-0.34858015
23	0x3e431877	0.19052301
24	0x3dd28bf2	0.10280599
25	0x3e2f5b54	0.17124683
26	0xbec324b0	-0.38113928
27	0xbeec6eb7	-0.4617822
28	0xbdb1a729	-0.086744614
29	0xbedafed5	-0.42772546
30	0xbebf2fd4	-0.37341177
31	0xbcb53a09	-0.0221224
32	0xbe7f5217	-0.24933659
33	0xbe9f2b20	-0.3108759
34	0x3e5655a0	0.20931101
35	0x3e37b1d5	0.17938931
36	0x3b10d382	0.0022098725
37	0xbec914e7	-0.3927376
38	0x3ef4047f	0.4765968
39	0xbe372787	-0.17886172
40	0xbdc04f1b	-0.09390088
41	0x3ef01829	0.46893433
42	0x3d488b6d	0.04896109
43	0x3de02bd8	0.109458625
44	0xbee3d319	-0.44496992
45	0x3e49c497	0.197039
46	0xbdcc5408	-0.09976965
47	0xbecab8b1	-0.39594033
48	0xbeecc44a	-0.46243507
49	0xbe53265e	-0.20620105
50	0x3ea921d6	0.33033627
51	0xbeb29ac1	-0.34883693
52	0xbe715f66	-0.23571548
53	0x3e6e3de5	0.23265798
54	0xbc4bbbd7	-0.012434921
55	0xbe8a059a	-0.269574
56	0x3d75571f	0.05989754
57	0xbee2d3a3	-0.4430209
58	0x3e0ce7dd	0.13760324
59	0x3eee3321	0.46523383
60	0xbf1baa21	-0.6080647
61	0xbe89f898	-0.26947474
62	0x3e99d199	0.30042723
63	0x3edab092	0.42712837
64	0x3e8ee858	0.2791164
65	0x3d14f17a	0.036363102
66	0x3f0ea512	0.5572063
67	0x3ed3c976	0.4136464
68	0xbc0cdd3d	-0.008597669
69	0x3e0e0621	0.13869525
70	0x3efcc913	0.49372157
71	0xbe0c8dc4	-0.13725954
72	0xbe347cb9	-0.17625703
73	0x3e8eda9d	0.27901164
74	0x3d8ae7bc	0.06782481
75	0x3e6a424b	0.22876851
76	0x3d841bbd	0.06450603
77	0xbecbfbb3	-0.3984047
78	0x3e9c70e4	0.3055488
79	0xbef8a635	-0.48564306
80	0x3ecbd3d5	0.39810053
81	0xbe42f2f8	-0.19037998
82	0xbdf0b00c	-0.11752328
83	0x3ed5551a	0.4166649
84	0x3e3a9493	0.18220739
85	0xbeb7c521	-0.35892585
86	0x3e25ab16	0.16178545
87	0x3e86233f	0.26198766
88	0x3e79753e	0.2436113
89	0xbf009707	-0.5023045
90	0xbebb4f7b	-0.36584076
91	0xbf17c763	-0.59288615
92	0xbe011a13	-0.12607603
93	0x3d934a63	0.071919225
94	0x3e6859d7	0.22690521
95	0xbeed2247	-0.46315214
96	0x3e9976a4	0.29973328
97	0x3deadc17	0.1146776
98	0xbeb530a4	-0.35388672
99	0x3e265ec4	0.16247088
100	0xbe902060	-0.281497
101	0xbf042ac0	-0.5162773
102	0x3e8c261f	0.27372834
103	0x3ed635aa	0.41837817
104	0x3e69b4ac	0.22822827
105	0xbeb9f9e4	-0.36323464
106	0xbeadec52	-0.3396936
107	0xbe3721a2	-0.17883924
108	0x3f066448	0.5249677
109	0xbe52a50b	-0.20570771
110	0x3e7da16b	0.24768607
111	0xbeb8ad4c	-0.36069715
112	0x3e3b2d70	0.18279052
113	0xbeb61bfd	-0.35568228
114	0xbdf9f846	-0.122055575
115	0x3e5f904d	0.2183239
116	0x3dd0e504	0.10199931
117	0xbd5fcaa5	-0.054636616
118	0xbe5018f7	-0.20322023
119	0xbe4caaf8	-0.19987094
120	0xbed682b9	-0.41896608
121	0xbebd464c	-0.36967695
122	0xbebbf219	-0.36708143
123	0xbd7ff6c2	-0.062491186
124	0x3eb74897	0.3579757
125	0xbe49d83f	-0.19711398
126	0xbcf6b3de	-0.030115064
127	0xbed85a3b	-0.4225634
128	0x3baf05e6	0.0053412793
129	0x3dd6fea1	0.10497785
130	0x3e2e7a31	0.170388
131	0x3e4fb502	0.20283893
132	0x3e6cd945	0.23129757
133	0xbebbe7c9	-0.36700276
134	0x3ed9aa1b	0.42512593
135	0x3e621ca5	0.2208124
136	0xbe889699	-0.26677397
137	0xbddcabae	-0.10774933
138	0x3ef0db5b	0.47042355
139	0xbc4df2ce	-0.012570096
140	0x3dda7938	0.10667652
141	0x3cd4b6ac	0.025966011
142	0xbe4fcff2	-0.20294169
143	0xbde77d41	-0.11303187
144	0xbecbad20	-0.3978052
145	0xbeffc329	-0.49953583
146	0x3ed22993	0.41047344
147	0x3d8c113a	0.06839223
148	0x3e763f35	0.24047549
149	0x3edf6d7d	0.4363822
150	0xbe3b10bb	-0.18268101
151	0xbd91ffbe	-0.07128857
152	0x3e570e15	0.21001466
153	0xbe894eb2	-0.26817852
154	0xbf095010	-0.5363779
155	0xbed35801	-0.4127808
156	0xbe40888d	-0.1880209
157	0x3e93c228	0.28859067
158	0x3e283701	0.16427232
159	0xbe70c7d1	-0.23513724
160	0x3ed22d83	0.41050348
161	0x3e94c99e	0.29060072
162	0xbebdbbdd	-0.3705739
163	0x3e7d2aee	0.24723408
164	0x3ed20c35	0.41024938
165	0x3cbc95e7	0.023020698
166	0x3e32052a	0.17384782
167	0x3e87c40a	0.26516753
168	0xbec271c1	-0.37977412
169	0x3dbffaf0	0.093740344
170	0xbe452e1c	-0.1925587
171	0x3e759300	0.23981857
172	0xbe900de3	-0.28135595
173	0xbea63abf	-0.32466695
174	0xbe0858bc	-0.133151
175	0x3cff2178	0.031143889
176	0xbecb9109	-0.3975909
177	0xbd973266	-0.073826596
178	0xbe98a3d5	-0.29812494
179	0x3ee0cd6c	0.43906724
180	0xbd54608a	-0.05184988
181	0x3eaf028f	0.3418164
182	0xbee0e137	-0.43921825
183	0xbee02d8e	-0.43784755
184	0x3e71d235	0.23615344
185	0x3de66ae9	0.1125086
186	0xbf115d1a	-0.56782687
187	0xbeca91ef	-0.39564463
188	0x3eed8390	0.46389437
189	0x3ca7e0a5	0.020492861
190	0x3e90e258	0.28297687
191	0xbe5cd0f6	-0.21564087
192	0x3e9e9fdb	0.30981335
193	0xbef1bdb9	-0.4721506
194	0x3ee0a788	0.43877816
195	0xbe946e17	-0.28990242
196	0xbf06095b	-0.52358025
197	0xbd675e85	-0.056486625
198	0x3e374d20	0.17900515
199	0x3e0b8e69	0.13628544
200	0xbe77f002	-0.2421265
201	0x3ebfc93e	0.37458223
202	0x3e614e09	0.22002424
203	0x3ed34709	0.41265133
204	0x3d58efbf	0.052963015
205	0x3e34a825	0.17642267
206	0xbddd6951	-0.10811103
207	0xbd7182ad	-0.058962513
208	0x3b3530a7	0.0027647407
209	0x3ee02265	0.4377624
210	0x3e36534a	0.1780521
211	0x3ec0c30a	0.37648803
212	0x3efa64d9	0.48905066
213	0xbd92b805	-0.07164005
214	0xbe6fe400	-0.23426819
215	0xbf018092	-0.5058681
216	0xbef9aa93	-0.4876295
217	0x3eec40eb	0.46143278
218	0x3d43da1b	0.047815423
219	0xbf01d925	-0.5072196
220	0xbd1be9f9	-0.03806493
221	0xbed69ac7	-0.4191496
222	0x3e885b56	0.26632184
223	0xbdd9585a	-0.10612555
224	0x3e15b4d9	0.14619769
225	0x3ea4a5f5	0.32157865
226	0x3e386238	0.18006217
227	0xbeac5bfb	-0.33663926
228	0x3ed56dfa	0.41685468
229	0x3ef64271	0.48097566
230	0xbe5657e6	-0.20931968
231	0xbf127e18	-0.57223654
232	0xbdc3e101	-0.095644005
233	0x3d35d9e3	0.044397246
234	0x3e8be042	0.27319533
235	0x3e2b2837	0.1671456
236	0x3dd9b3e2	0.10630013
237	0x3c555b96	0.013022324
238	0x3e819b91	0.25314
239	0xbda029fd	-0.07820509
240	0x3e3da363	0.18519358
241	0xbdab25bd	-0.083568074
242	0xbe52e5d0	-0.20595479
243	0x3de89c97	0.11357992
244	0x3ec2ef31	0.38073114
245	0x3dd3ba5b	0.10338279
246	0x3e0329a9	0.12808861
247	0x3ee2bf80	0.44286728
248	0x3ec8493f	0.39118382
249	0x3ef0043e	0.46878237
250	0xbdd025ad	-0.10163436
251	0xbe8ccb7e	-0.27499002
252	0xbeb98cb7	-0.3624017
253	0xbe27cfd1	-0.1638787
254	0xbc1f317c	-0.009716388
255	0x3d2ae20d	0.041719485

VAE.encoder_mu.layers.0.linear0.bias f4 [128]
0	0xbd90407f	-0.07043552
1	0xbe0be433	-0.1366127
2	0xbe31ab41	-0.17350484
3	0x3ee53715	0.44768587
4	0x3e0a855b	0.13527434
5	0x3e9ffe2b	0.31248602
6	0x3ef94e04	0.48692334
7	0xbe06836f	-0.13136075
8	0xbd05b7f6	-0.032646142
9	0x3ef4f17a	0.47840482
10	0x3dc8b59b	0.098002635
11	0xbea26df6	-0.3172452
12	0xbecbb280	-0.39784622
13	0xbe791d1d	-0.24327512
14	0xbbc87db7	-0.006118502
15	0x3a2a6691	0.0006500269
16	0xbe2ae639	-0.16689385
17	0x3d3160f5	0.043305356
18	0x3e4a19fa	0.19736472
19	0xbe82ac3e	-0.25522035
20	0x3ea4e7de	0.3220815
21	0xbe98c6cf	-0.2983918
22	0xbdea66fd	-0.11445425
23	0x3e6a7ac9	0.22898401
24	0xbeaab34a	-0.33339912
25	0xbe684725	-0.2268339
26	0xbc2279ed	-0.009916765
27	0xbee5fb61	-0.4491835
28	0x3de27261	0.11056972
29	0x3e8776d6	0.26457852
30	0xbea0e027	-0.31421015
31	0xbe0b17ac	-0.13583249
32	0xbd59914b	-0.053117078
33	0x3ec732ec	0.38906038
34	0xbecb3ac4	-0.39693272
35	0x3ebc1385	0.36733642
36	0xbda93493	-0.08261981
37	0x3e6d1102	0.23151019
38	0x3d06f9e0	0.032953143
39	0xbcc2fa08	-0.023800865
40	0xbee62202	-0.4494782
41	0xbd612ef5	-0.054976422
42	0x3e9d1219	0.3067787
43	0x3eac2bf1	0.33627275
44	0x3eb0b61e	0.34513944
45	0x3e8c5507	0.2740862
46	0xbd143184	-0.036180034
47	0xbe9c3ec0	-0.30516624
48	0xbdaaf0db	-0.08346721
49	0x3ebca792	0.36846596
50	0xbdc09fd4	-0.09405485
51	0x3eac67ca	0.33672935
52	0x3eaedff0	0.34155226
53	0xbeecc597	-0.462445
54	0xbecc1509	-0.398598
55	0xbdbe7709	-0.09300048
56	0x3e902d9f	0.28159806
57	0x3c2476c7	0.010038084
58	0x3dabd837	0.08390849
59	0x3dc58218	0.09643954
60	0x3e9eb686	0.3099863
61	0xbd357ce2	-0.04430855
62	0x3da85f6c	0.08221325
63	0xbe8e5a5b	-0.2780331
64	0xbdd1b419	-0.10239429
65	0xbdcf1097	-0.10110586
66	0x3d00da77	0.031458344
67	0xbea42336	-0.32058114
68	0x3eb4bd15	0.35300508
69	0x3e82a4f6	0.2551648
70	0x3ee9d3f2	0.45669514
71	0xbe8a1205	-0.26966873
72	0xbeba73d2	-0.3641649
73	0xbe282f99	-0.16424407
74	0xbe0a124e	-0.13483545
75	0x3e818b66	0.25301665
76	0xbef80fb9	-0.48449495
77	0xbec6affc	-0.3880614
78	0x3c7c959a	0.015416527
79	0x3e6a359e	0.22872016
80	0xbe547f8e	-0.20751783
81	0xb7150e65	-8.884444e-06
82	0x3ca1167b	0.01966404
83	0x3e041c25	0.12901361
84	0xbd1922b9	-0.03738663
85	0x3acfd435	0.0015856089
86	0x3eae3217	0.3402259
87	0x3ea8a3c6	0.3293745
88	0xbe6a6a5f	-0.2289214
89	0xbe8a336f	-0.26992366
90	0x3d8868c7	0.0666061
91	0xbed9a0f6	-0.42505616
92	0xbdaa59e7	-0.08317929
93	0x3e493697	0.1964973
94	0x3eb3bce2	0.35105044
95	0xbba11c60	-0.0049167126
96	0xbde499a6	-0.111621186
97	0xbe102018	-0.14074743
98	0x3e915dbd	0.2839183
99	0xbd349f5e	-0.044097297
100	0x3ebb23ce	0.36550754
101	0x3ec1bcee	0.37839454
102	0x3eddc131	0.43311456
103	0xbea064b7	-0.3132684
104	0x3d9d2e5a	0.076748565
105	0x3e1503c0	0.14552212
106	0xbe2bd4f0	-0.16780448
107	0x3e483147	0.19550048
108	0xbd156eac	-0.036482498
109	0x3e893b8f	0.26803252
110	0x3e0cdb90	0.13755631
111	0x3c7df2a3	0.015499744
112	0x3e0099e5	0.12558706
113	0xbe75f967	-0.2402092
114	0x3ef96bfd	0.487152
115	0xbc7e5ff8	-0.01552581
116	0x3e92f2cd	0.28700867
117	0x3e924b9f	0.2857332
118	0x3e673877	0.22580133
119	0x3e2cf006	0.16888437
120	0x3def1eeb	0.11675819
121	0xbedd0b81	-0.4317284
122	0x3e3278e0	0.17428923
123	0xbeae1c32	-0.34005886
124	0x3ec37eea	0.38182765
125	0x3e9f581a	0.31121904
126	0xbdb1d1b6	-0.08682577
127	0x3e00dc97	0.12584148

VAE.encoder_mu.layers.0.linear1.weight f4 [4, 128]
0	0x3d264654	0.040594414
1	0x3dc38221	0.095463045
2	0xbd09c0af	-0.033631023
3	0x3cb6a978	0.022297606
4	0x3c75bdca	0.0149988625
5	0xbd1f2ad5	-0.038859207
6	0xbb50206b	-0.0031757604
7	0x3ddfaa60	0.10921168
8	0x3df77e58	0.12084645
9	0x3dcdaf07	0.100431494
10	0x3d2e315c	0.04252754
11	0x3b0580eb	0.002037103
12	0x3e30bd7e	0.17259786
13	0x3cfb20f8	0.03065537
14	0xbbdde0da	-0.006771189
15	0xbc284085	-0.010269289
16	0x3e2a6b65	0.1664253
17	0x3df4ede9	0.1195944
18	0xbd861c4a	-0.065483645
19	0x3d0cf5b9	0.034414027
20	0xbd96033c	-0.07324836
21	0x3d3fe6ca	0.046850957
22	0xbd659d85	-0.056058425
23	0x3caa958c	0.020823263
24	0xbd9a51c7	-0.07535129
25	0x3ac49185	0.0014996981
26	0xbd514799	-0.05109367
27	0xbe220618	-0.15822637
28	0x3db342e4	0.08752993
29	0xbdd6ace5	-0.10482196
30	0x3c68b115	0.014202376
31	0xbde108f4	-0.10988036
32	0xbdcd99ee	-0.100391254
33	0x3d81ed91	0.0634414
34	0x3e0aaada	0.13541737
35	0x3c91fcc8	0.01782073
36	0x3de4b36e	0.11167036
37	0xbb286e83	-0.0025700636
38	0xbdb423f3	-0.08795919
39	0x3df7fa35	0.1210827
40	0x3caed0a3	0.02133972
41	0xbbcd29a5	-0.006261068
42	0xbdadc2d7	-0.084844284
43	0x3dc3aabb	0.09554049
44	0x3bd7965a	0.0065792026
45	0xbc0250db	-0.007953848
46	0xbb4621a9	-0.0030232465
47	0xbd3e8643	-0.04651476
48	0x3dd6fd4c	0.10497531
49	0xbcf96c23	-0.030447071
50	0xbda48f5f	-0.08035158
51	0xbd221831	-0.039573852
52	0xbd3dff66	-0.046386145
53	0x3c191625	0.009343659
54	0xbcdae872	-0.026722167
55	0x3d8f05fe	0.06983565
56	0x3d2a21d9	0.041536186
57	0xbdf5b65b	-0.11997672
58	0x3dc7af4b	0.09750231
59	0xbd556601	-0.05209923
60	0x3d282b8b	0.04105715
61	0x3d9ba709	0.07600219
62	0xbd8cfe8a	-0.06884487
63	0xbe1ea656	-0.1549314
64	0xbdb6c3a5	-0.08924035
65	0x3e19e332	0.15028074
66	0xbd3de778	-0.046363324
67	0x3df07afb	0.11742207
68	0x3c39c8c8	0.011339374
69	0xbcb2b220	-0.021813452
70	0x3d4d00c7	0.05004957
71	0xbd34b453	-0.044117283
72	0xbd9efbda	-0.077628806
73	0x3cd60132	0.026123617
74	0xbd891eea	-0.066953495
75	0x3d5db17b	0.054124337
76	0xbdd6f21a	-0.10495396
77	0xbd522fb0	-0.05131501
78	0x3df874d9	0.12131662
79	0x3d5b6bc7	0.05356958
80	0xbe525bc8	-0.20542824
81	0xbdf3d7c4	-0.119063884
82	0xbe24652e	-0.16054222
83	0xbd4844f4	-0.048893884
84	0xbdeddd4f	-0.11614477
85	0xbd9b82e9	-0.075933285
86	0x3d23e08b	0.040009063
87	0x3d5eb307	0.054369953
88	0xbef1bff1	-0.47216752
89	0x3c835ec6	0.016036402
90	0x3d196e0e	0.037458472
91	0x3cfd53e8	0.030923799
92	0x3e1bc836	0.15213093
93	0x3db82e60	0.0899322
94	0x3dc33413	0.09531417
95	0x3d96367b	0.0733461
96	0xbe2bf1b1	-0.16791417
97	0xbcd7c5be	-0.026339408
98	0xbd606cee	-0.054791383
99	0x3cca9304	0.024728306
100	0xbdaab87f	-0.08335971
101	0x3d8e72c2	0.06955482
102	0xbd76d9f7	-0.06026646
103	0x3d35493c	0.044259295
104	0x3d7c3de8	0.061582476
105	0x3db57ed3	0.088620804
106	0x3dc66a60	0.09688258
107	0x3dc37bce	0.09545098
108	0x3c62ab02	0.013834717
109	0x3d46bd9b	0.048520666
110	0x3cce8f57	0.025214834
111	0xbcf809c3	-0.030278092
112	0x3de95f64	0.113951474
113	0x3c8bc2e4	0.017060705
114	0x3cb8caad	0.02255758
115	0x3da1ca4d	0.07899914
116	0xbbcf2168	-0.006321121
117	0x3dd1d8c5	0.10246424
118	0x3b169baa	0.0022980967
119	0x3db734bd	0.08945606
120	0x3cbfe6ad	0.023425424
121	0xbc9b6e06	-0.018973362
122	0xbc6b1518	-0.014348291
123	0x3cf6c574	0.03012345
124	0x3d151b0c	0.036402747
125	0x3d761808	0.06008151
126	0x3da4f6cd	0.08054886
127	0xbde8154b	-0.11332186
128	0xbe35bb63	-0.17747264
129	0x3d82a011	0.063781865
130	0xbd66a10e	-0.056305937
131	0xbdb8dbc9	-0.09026296
132	0x3d5cbaef	0.05388921
133	0x3db0dec9	0.08636243
134	0xbcba07d5	-0.022708813
135	0xbcdc87a2	-0.026920144
136	0x3d954ed3	0.07290425
137	0xbd9480b5	-0.072511114
138	0x3db495dd	0.08817647
139	0x3e41adc6	0.18913946
140	0xbdb614d8	-0.088906944
141	0x3e6c67f7	0.23086534
142	0xbc23243f	-0.009957372
143	0xba4fb2b7	-0.0007923054
144	0x3da7d224	0.08194378
145	0xbd855153	-0.06509652
146	0xbc51266e	-0.01276551
147	0xbdb7c0de	-0.08972333
148	0x3d8c0265	0.06836394
149	0x3d5cfe3b	0.05395339
150	0x3d8ac3ca	0.06775625
151	0xbd1d7e6e	-0.03845065
152	0x3ce8a916	0.028400939
153	0x3bd3432e	0.0064472174
154	0xbd349683	-0.04408885
155	0xbdf32597	-0.11872404
156	0xbc2bdd01	-0.010489703
157	0x3c24a837	0.010049871
158	0xbda97863	-0.08274915
159	0xbd6a154e	-0.057149224
160	0x3cb01e44	0.021498807
161	0xbdbf1cc3	-0.09331658
162	0x3d69939a	0.05702553
163	0x3d18dc59	0.037319515
164	0x3d2abde1	0.04168499
165	0x3d6b712b	0.057480972
166	0x3d50c0f1	0.050965253
167	0x3dba8f82	0.09109403
168	0xbd2a7001	-0.04161072
169	0x3d891483	0.066933654
170	0xbd1ddae1	-0.038538817
171	0x3ba0354e	0.004889167
172	0xbd5f4d02	-0.0545168
173	0xbdb94b5b	-0.09047576
174	0xbd4111df	-0.047136184
175	0xbd7013c6	-0.058612607
176	0xbd8ad855	-0.06779543
177	0x3d9a628e	0.07538329
178	0x3d36b07b	0.0446019
179	0xbd5e377f	-0.054252144
180	0xbd23c61b	-0.03998385
181	0xbdd7cb9c	-0.10536882
182	0x3e507c40	0.20359898
183	0xbdcc45ed	-0.09974275
184	0xbd13996f	-0.036034998
185	0xbca3b817	-0.019985242
186	0x3cf14925	0.029453823
187	0xbe9d3919	-0.30707625
188	0xbd870b71	-0.06593979
189	0x3d7406e1	0.059576873
190	0xbd6d6c0c	-0.05796437
191	0x3ca9a85a	0.02071016
192	0x3a8b812b	0.0010643353
193	0x3d301e4e	0.04299765
194	0xbdb4131c	-0.08792707
195	0xbd8b0d67	-0.06789666
196	0xbd90da86	-0.0707293
197	0x3d255e8c	0.04037337
198	0xbc205ff2	-0.0097885
199	0x3dd72ad7	0.10506218
200	0xbc86e02f	-0.016464321
201	0xbd903f6a	-0.07043345
202	0xbcf6a418	-0.030107543
203	0xbcdb2479	-0.02675079
204	0x3d49fbd6	0.049312435
205	0x3d4fb565	0.0507101
206	0xbdbba4a9	-0.09162266
207	0xbdb5eb92	-0.08882822
208	0xbd0787de	-0.033088557
209	0xbd0116e1	-0.03151596
210	0xbdbac2ed	-0.091192104
211	0x3d8d9320	0.069128275
212	0x3dcca01e	0.099914774
213	0xbdcf9c9c	-0.10137293
214	0x3d835bc4	0.06413987
215	0x3c44eb19	0.012018942
216	0xbe33aa84	-0.17545515
217	0x3e566b62	0.20939401
218	0x3d721575	0.059102494
219	0xbd7538aa	-0.059868492
220	0xbd39c676	-0.045355283
221	0x3da60d1c	0.08107969
222	0xbd7f632f	-0.06235045
223	0xbd79f6cd	-0.061026383
224	0xbd860884	-0.06544593
225	0xbcc78340	-0.024354577
226	0xbd38d832	-0.045128055
227	0x3d809856	0.06279056
228	0xbd599588	-0.05312112
229	0xbccc1184	-0.024910696
230	0xbbec4185	-0.007209959
231	0xbc7c1abe	-0.015387235
232	0x3d8d1b98	0.06890029
233	0x3d8e13ac	0.06937346
234	0x3bd01f59	0.006351393
235	0xbd0332b9	-0.032030795
236	0x3d12097d	0.03565358
237	0x3d10b90a	0.035332717
238	0xbd205371	-0.039142076
239	0xbda1f54e	-0.07908116
240	0x3ddd57c8	0.108077586
241	0xbd8c1cef	-0.06841456
242	0x3d874850	0.066055894
243	0x3db5affb	0.08871456
244	0xbd5c9ed3	-0.053862404
245	0xbd039a44	-0.03212954
246	0x3d80d4dd	0.062906004
247	0x3dba6e4b	0.09103068
248	0x3db075bb	0.08616205
249	0x3dd5f300	0.10446739
250	0xbd272a84	-0.04081203
251	0x3e0ddf3c	0.13854688
252	0x3d0b8b84	0.0340686
253	0x3a7060c5	0.0009169693
254	0xbd811fdf	-0.06304907
255	0x3d3c0361	0.04590166

VAE.encoder_mu.layers.0.linear1.bias f4 [4]
0	0x3d6f858f	0.05847698
1	0xbd15ab60	-0.03654039
2	0x3d4c26a2	0.04984153
3	0x3ccff0ac	0.025383316

VAE.encoder_mu.layers.0.norm1.weight f4 [4]
0	0x3f8864e4	1.0655789
1	0x3f889415	1.0670191
2	0x3f89cc0d	1.0765396
3	0x3f84d57e	1.0377653

VAE.encoder_mu.layers.0.norm1.bias f4 [4]
0	0xbcedd042	-0.02902997
1	0xbd5fd15c	-0.05464302
2	0x3d2fc4d9	0.042912338
3	0xbda0cda1	-0.078517206

VAE.encoder_mu.layers.1.attention.W_q.weight f4 [4, 4]
0	0x3e4c9345	0.19978054
1	0x3ebd3e24	0.36961472
2	0x3d0e7751	0.034781758
3	0xbe6d2435	-0.23158343
4	0xbe8b40c2	-0.27197844
5	0xbc9ca701	-0.019122602
6	0xbc126a9a	-0.008936549
7	0xbe82fa82	-0.25581747
8	0x3d821e26	0.063534066
9	0xbe24c569	-0.16090931
10	0xbe6cdfd5	-0.2313226
11	0xbe3ba969	-0.18326344
12	0xbc31a52c	-0.010842603
13	0xbe928421	-0.2861643
14	0xbe745c2b	-0.23863284
15	0x3ec6653c	0.3874911

VAE.encoder_mu.layers.1.attention.W_q.bias f4 [4]
0	0xbe148fab	-0.1450793
1	0x3e453ca9	0.19261421
2	0xbe51c65a	-0.20485821
3	0xbe27a016	-0.16369662

VAE.encoder_mu.layers.1.attention.W_k.weight f4 [4, 4]
0	0xbb561f3d	-0.0032672428
1	0x3e4be3a1	0.19911052
2	0x3d66f888	0.05638936
3	0x3ed0a989	0.40754345
4	0x3eab536d	0.33462086
5	0xbe7e9401	-0.24861147
6	0xbe5cf119	-0.21576346
7	0xbf055cd6	-0.5209478
8	0xbf19eadc	-0.6012399
9	0x3de30de5	0.110866345
10	0xbc9fa5ef	-0.019488303
11	0xbe822bdc	-0.25424087
12	0xbf092151	-0.5356646
13	0xbe0bd677	-0.1365603
14	0x3e021dc0	0.12706661
15	0xbc17ae8b	-0.009257923

VAE.encoder_mu.layers.1.attention.W_k.bias f4 [4]
0	0xb807057a	-3.219161e-05
1	0x3889f058	6.5774366e-05
2	0xb8755db6	-5.8499827e-05
3	0x37e718f4	2.7548966e-05

VAE.encoder_mu.layers.1.attention.W_v.weight f4 [4, 4]
0	0xbeb820ec	-0.35962617
1	0x3e6a2b91	0.22868182
2	0xbe013f94	-0.1262191
3	0x3df54565	0.119761266
4	0x3e8ebdcd	0.27879182
5	0xbeccc923	-0.39997205
6	0x3e6d5726	0.23177776
7	0xbe2fb475	-0.17158683
8	0x3e2031ee	0.15644047
9	0x3d9122c3	0.070867084
10	0x3e71f56e	0.2362878
11	0x3e040381	0.12891962
12	0xbd3d2bfd	-0.04618453
13	0xbdfc771c	-0.12327406
14	0x3cd37bad	0.02581581
15	0xbd8bf58d	-0.068339445

VAE.encoder_mu.layers.1.attention.W_v.bias f4 [4]
0	0xbb8759db	-0.0041305847
1	0x3c902ea0	0.017600358
2	0xbd8eab6f	-0.06966292
3	0xbd055e32	-0.032560535

VAE.encoder_mu.layers.1.linear0.weight f4 [128, 4]
0	0x3da4afe9	0.08041365
1	0x3ece121e	0.40248197
2	0x3ec90fb5	0.39269796
3	0xbee69f1d	-0.4504327
4	0x3edbbff0	0.42919874
5	0x3f2b2b95	0.66863376
6	0x3ee99451	0.4562097
7	0xbee55791	-0.4479337
8	0xbe501d81	-0.20323755
9	0xbed7fb0b	-0.42183718
10	0xbe874c6b	-0.2642549
11	0xbec8d55e	-0.39225286
12	0xbe159350	-0.14606977
13	0x3eeca9e3	0.46223363
14	0xbdc3099d	-0.09523318
15	0x3e5ef652	0.21773651
16	0xbe9efb1b	-0.31050953
17	0x3eac572b	0.33660254
18	0x3e858951	0.26081327
19	0xbed55f5a	-0.4167431
20	0xbe3a0701	-0.18166734
21	0xbefbed30	-0.49204397
22	0xbd334abc	-0.043772444
23	0x3f040cf4	0.51582265
24	0xbe929e8d	-0.2863659
25	0xbced5d69	-0.028975205
26	0x3d95ff18	0.07324046
27	0x3edf30e2	0.43591982
28	0xbef76262	-0.48317248
29	0xbe52d462	-0.2058883
30	0xbeb4087d	-0.35162726
31	0x3eb9e228	0.36305356
32	0xbec7bddf	-0.39012048
33	0xbedaa547	-0.42704222
34	0x3ecfb677	0.40568897
35	0x3d8daf81	0.0691824
36	0xbefaa696	-0.4895522
37	0x3f1aa997	0.60415024
38	0x3ecdd5ad	0.40202084
39	0x3ea20ca9	0.31650284
40	0xbe4efa63	-0.20212702
41	0x3e90c32a	0.28273898
42	0x3ddfdafb	0.10930439
43	0xbd05630a	-0.032565154
44	0x3f0a6946	0.54066885
45	0xbc778de8	-0.015109517
46	0xbd8b6abf	-0.068074696
47	0x3ed5f0c0	0.4178524
48	0xbeaaa2ba	-0.33327276
49	0xbeb97a6e	-0.3622622
50	0x3ee82b4e	0.4534554
51	0x3e60b06f	0.21942304
52	0xbd8e09db	-0.069354735
53	0xbd6be08c	-0.05758719
54	0xbf0244a9	-0.5088602
55	0x3e197be7	0.14988671
56	0x3dc028e4	0.09382799
57	0x3daa7b55	0.08324305
58	0x3eea0874	0.45709574
59	0x3f065012	0.5246593
60	0x3e8ad691	0.27116826
61	0xbd8496d2	-0.06474079
62	0x3e9dd2b8	0.30824828
63	0xbea2198b	-0.31660113
64	0x3e368c32	0.17826918
65	0x3e849d7a	0.25901395
66	0xbee1ac93	-0.44076976
67	0x3eedf7b2	0.4647804
68	0x3ed8913e	0.4229831
69	0x3e8ff720	0.2811823
70	0xbe8e2e7e	-0.27769846
71	0xbe1332a4	-0.14374787
72	0xbd49eaf2	-0.049296327
73	0x3eb2d98b	0.34931597
74	0x3eedd4d8	0.4645145
75	0x3ecb5834	0.3971573
76	0xbe45ce5f	-0.19317006
77	0x3e77698a	0.24161354
78	0x3d7c95b2	0.061666198
79	0xbbf0b77e	-0.0073460927
80	0xbe3fb6a1	-0.18722011
81	0x3e8beb32	0.27327877
82	0x3ed7f84f	0.42181632
83	0xbee135db	-0.439864
84	0x3e664a13	0.22489195
85	0xbdcea942	-0.10090877
86	0x3d34ae5e	0.044111602
87	0xbee3dd8c	-0.44504964
88	0xbea727b7	-0.32647488
89	0xbc416f20	-0.011806279
90	0xbec620de	-0.3869695
91	0xbe5d4f02	-0.2161217
92	0xbe38ab8d	-0.18034191
93	0x3f0d74d3	0.55256385
94	0x3cbc6c78	0.02300094
95	0x3d8ad92b	0.06779703
96	0xbed0d85c	-0.4079007
97	0xbe01ed4c	-0.12688178
98	0xbe1767c0	-0.14785671
99	0xbe3b70cc	-0.18304747
100	0xbd0a4099	-0.03375301
101	0x3e0fd89d	0.14047475
102	0xbe7793fa	-0.24177542
103	0xbf0d6e7a	-0.552467
104	0x3d422327	0.047396805
105	0xbe10628b	-0.14100091
106	0xbd3ef028	-0.04661575
107	0xbe82e61b	-0.25566182
108	0x3eb9f930	0.36322927
109	0xbbb42e90	-0.0054987147
110	0xbede2ac8	-0.43392015
111	0x3e2a7ea5	0.16649874
112	0x3e182bb0	0.14860415
113	0xbe9fce50	-0.3121209
114	0x3e72ef8a	0.2372419
115	0x3c69a5fd	0.014260766
116	0x3f2633b6	0.64922655
117	0xbe1db195	-0.15399773
118	0x3e831306	0.2560045
119	0xbe773c12	-0.24144009
120	0x3e5b40bb	0.21411411
121	0xbed0e905	-0.4080278
122	0xbefd8b9e	-0.49520582
123	0xbe85e39e	-0.2615022
124	0x3e381fd1	0.17980887
125	0x3e4e9bec	0.20176667
126	0x3d3aa1df	0.04556453
127	0x3ed78120	0.42090702
128	0xbe4bca77	-0.19901453
129	0x3bb4570f	0.0055035423
130	0xbea25cb8	-0.31711364
131	0x3ea8ac97	0.32944176
132	0x3dad01a2	0.08447577
133	0x3f105b9b	0.5638978
134	0xbf48f1a7	-0.7849373
135	0xbdc5c8df	-0.09657454
136	0xbdaaf5d0	-0.08347666
137	0xbe651299	-0.22370376
138	0xbe9e3c65	-0.30905452
139	0x3efef2a8	0.49794507
140	0xbe8971fc	-0.26844776
141	0xbe679bde	-0.22618052
142	0x3de2afdb	0.11068698
143	0x3eba3201	0.36366275
144	0xbea00fea	-0.3126214
145	0xbdc35f9e	-0.09539722
146	0xbd226f51	-0.03965694
147	0x3df26fb6	0.118377134
148	0x3eabf480	0.33584976
149	0x3ecffb67	0.40621492
150	0xbe439f34	-0.191037
151	0xbd9f6e44	-0.077847034
152	0xbee7b2d2	-0.45253617
153	0xbe95a19c	-0.2922486
154	0x3bff2bcd	0.007787204
155	0xbe8ae410	-0.27127123
156	0xbe9e8dc9	-0.30967548
157	0x3cee20c0	0.02906835
158	0xbe395f9e	-0.18102881
159	0xbe78527c	-0.24250215
160	0x3eea0090	0.45703554
161	0xbe88aa6d	-0.26692525
162	0x3d76e1b9	0.06027386
163	0x3e58b6a4	0.21163422
164	0x3e6f67d6	0.23379454
165	0xbf13bf66	-0.57713926
166	0x3ec0a623	0.37626752
167	0x3ee0e5fc	0.43925464
168	0xbedab66e	-0.42717308
169	0x3e94b2e4	0.29042733
170	0x3eb5a60f	0.35478255
171	0xbeef65f8	-0.46757483
172	0x3e6e1c41	0.23252966
173	0xbeb4b819	-0.35296705
174	0xbea4332c	-0.3207029
175	0x3ea8f2cf	0.32997748
176	0xbef57ea2	-0.47948176
177	0xbea04f16	-0.31310338
178	0x3ed36d77	0.41294453
179	0xbe376fe5	-0.17913778
180	0x3e502942	0.20328239
181	0xbe756edc	-0.23968071
182	0x3d884397	0.06653517
183	0x3e343e3b	0.17601864
184	0xbeaf19ce	-0.34199375
185	0x3ebddc15	0.37081972
186	0x3dfa975c	0.12235901
187	0x3ead475f	0.33843514
188	0xbebb766c	-0.36613786
189	0xbe9a5744	-0.30144703
190	0x3eb73e0f	0.35789534
191	0x3ce1f9f8	0.027585015
192	0xbe4aec95	-0.19816811
193	0x3eea51e8	0.45765615
194	0xbbbe1f64	-0.005802082
195	0xbe332389	-0.17494024
196	0xbe43d620	-0.19124651
197	0x3e68773f	0.22701739
198	0x3e5bb53e	0.21455857
199	0xbee413be	-0.44546312
200	0x3e7d5bff	0.24742125
201	0x3d06ed53	0.032941174
202	0x3dddb2eb	0.108251415
203	0xbd4a501d	-0.04939281
204	0x3ec0dbfb	0.37667832
205	0x3ecd6bb9	0.40121248
206	0x3ec859af	0.39130923
207	0xbc7b3327	-0.01533202
208	0x3e890767	0.2676346
209	0x3eacbe9c	0.33739173
210	0x3e94c4e0	0.29056454
211	0xbed71c50	-0.42013788
212	0xbe4a409b	-0.19751208
213	0xbed42a70	-0.41438627
214	0xbed6ca97	-0.4195144
215	0x3e5df6c7	0.2167617
216	0x3e0b6991	0.13614489
217	0x3e5dc5f5	0.21657546
218	0xbee5c1f1	-0.44874528
219	0x3e0f29bf	0.13980769
220	0x3e6750e9	0.22589459
221	0xbdc2375e	-0.09483217
222	0x3e886820	0.2664194
223	0x3f03f85c	0.5155084
224	0xbefdd99a	-0.4958008
225	0xbbf8ef1d	-0.007596864
226	0xbeedda0c	-0.4645542
227	0x3e457487	0.19282733
228	0x3ed75a9c	0.42061317
229	0x3e944dba	0.2896555
230	0x3ea39f24	0.31957352
231	0x3ec062a8	0.3757527
232	0x3d76a8f8	0.060219735
233	0x3eb677ba	0.3563822
234	0xbe5c338d	-0.2150404
235	0x3e0f8d56	0.14018759
236	0x3dd693e2	0.10477425
237	0xbec950ae	-0.39319366
238	0xbec20ec7	-0.379019
239	0x3de8f14c	0.11374149
240	0xbeaf78ec	-0.34271944
241	0x3eb7ae9d	0.35875407
242	0xbe2d5c2d	-0.16929694
243	0xbef1551a	-0.4713524
244	0xbee7c378	-0.45266318
245	0x3ecff0b1	0.4061332
246	0xbe158d76	-0.14604744
247	0xbe6155af	-0.22005342
248	0xbdc720a5	-0.09723023
249	0x3e4c9961	0.19980384
250	0x3e1cf50e	0.15327856
251	0xbeb5d7dc	-0.3551625
252	0x3f014597	0.5049681
253	0xbee0b38b	-0.4388698
254	0x3e400bfc	0.18754572
255	0xbed659c0	-0.4186535

VAE.encoder_mu.layers.1.linear0.bias f4 [128]
0	0xbd8b8dce	-0.068141565
1	0x3e94991e	0.2902307
2	0x3ec6c301	0.3882065
3	0xbdd86bf8	-0.105674684
4	0xbe1a60d7	-0.15076004
5	0xbe9a1359	-0.30092886
6	0x3dc5caf9	0.096578546
7	0x3dc40d18	0.0957281
8	0x3cd9918e	0.026558664
9	0x3ea40419	0.32034376
10	0x3eaa84fd	0.33304587
11	0x3e4f771d	0.20260282
12	0x3f08a189	0.53371483
13	0x3e39c854	0.18142825
14	0x3e66cc7a	0.22538939
15	0x3db30b32	0.0874237
16	0x3e013962	0.12619546
17	0x3dd348f9	0.10316653
18	0xbd36c1a1	-0.044618253
19	0xbe1ea9f0	-0.15494514
20	0x3dc7fa07	0.09764486
21	0xbdc09bdb	-0.09404727
22	0x3e44d9f0	0.19223762
23	0x3e919a4a	0.28438026
24	0xbe98bac4	-0.2982999
25	0xbefd49d8	-0.494704
26	0xbc0f2838	-0.008737616
27	0x3ef6aaa4	0.48177063
28	0x3dc26927	0.094927125
29	0x3dff84fe	0.12476538
30	0xbd30531c	-0.04304801
31	0x3f03efd4	0.51537824
32	0xbdee660b	-0.11640557
33	0x3dca4658	0.09876698
34	0xbd7d698e	-0.061868243
35	0x3ed1b12a	0.40955478
36	0xbe458857	-0.19290291
37	0x3e6348c3	0.22195725
38	0x3e2afc99	0.16697921
39	0xbe998951	-0.29987577
40	0xbe8729b6	-0.2639901
41	0xbea10a0d	-0.3145298
42	0xbe984c3b	-0.2974566
43	0xbebde491	-0.37088445
44	0xbe41210d	-0.18860264
45	0x3e078753	0.13235216
46	0xbe593683	-0.21212201
47	0x3df1bed9	0.118039794
48	0x3e1cedde	0.15325114
49	0xbeaaab49	-0.33333805
50	0x3d645470	0.05574459
51	0x3cc3ef9b	0.023917964
52	0xbead03d6	-0.3379199
53	0xbe8d32aa	-0.27577716
54	0xbe600909	-0.21878447
55	0xbedd646b	-0.43240675
56	0x3ef59b3d	0.4797
57	0xbecc6b1c	-0.39925468
58	0x3eea024b	0.45704874
59	0x3eb22036	0.347902
60	0x3ebf5281	0.37367633
61	0x3eb52d08	0.3538592
62	0xbe0ae503	-0.13563924
63	0xbe772b29	-0.24137558
64	0x3ed0eb0b	0.40804324
65	0x3c90a42b	0.017656406
66	0xbd716f36	-0.05894395
67	0x3e07684c	0.1322338
68	0x3e737f77	0.23779093
69	0x3a8e7349	0.0010868098
70	0xbef496ff	-0.4777145
71	0x3d856b65	0.065146245
72	0xbef85bc9	-0.48507527
73	0xbee148d5	-0.4400088
74	0x3ebd1595	0.36930528
75	0xbb97f325	-0.0046371394
76	0xbe2893af	-0.16462587
77	0x3ee7f478	0.45303702
78	0xbe5adcd1	-0.21373297
79	0xbd1d38d4	-0.038384274
80	0xbe442e7f	-0.19158362
81	0x3de4409a	0.11145134
82	0xbf293a0a	-0.66104186
83	0x3eebf1f6	0.4608304
84	0x3e71db3b	0.23618786
85	0xbe79ead3	-0.24405985
86	0x3e160697	0.14650951
87	0x3e27a30b	0.1637079
88	0x3ddc1589	0.10746295
89	0x3ea553a3	0.32290372
90	0x3ed03a23	0.40669355
91	0xbe8af941	-0.2714329
92	0xbde3649d	-0.11103175
93	0x3ecbd29b	0.39809117
94	0xbeab3373	-0.3343769
95	0x3e9a181b	0.30096516
96	0x3eaa2fed	0.3323969
97	0x3ea081e6	0.31349105
98	0xbe7a414e	-0.24438974
99	0x3e017ac4	0.12644488
100	0xbe7c155b	-0.24617521
101	0x3e72b06d	0.23700114
102	0x3efd8102	0.49512488
103	0xbe9d5564	-0.3072921
104	0xbe4ce0fb	-0.20007698
105	0x3ebb9850	0.36639643
106	0xbdf59511	-0.11991323
107	0x3e8ac3a1	0.27102378
108	0xbe58f2ae	-0.21186325
109	0x3eb624b7	0.35574886
110	0x3dfcdbf7	0.123466425
111	0xbbe04d47	-0.0068451497
112	0x3ee23826	0.44183463
113	0xbbcc170a	-0.0062283324
114	0xbe842130	-0.2580657
115	0x3e6663b2	0.22498968
116	0xbe54a22d	-0.2076499
117	0xbddcf5fc	-0.10789105
118	0xbefe149b	-0.49625096
119	0x3c4bf8f7	0.012449495
120	0xbdba6c00	-0.091026306
121	0x3e4efed2	0.20214394
122	0xbe029675	-0.12752707
123	0x3ec37173	0.38172492
124	0xbf02c84e	-0.5108689
125	0x3f0635e5	0.52425987
126	0xbd84a172	-0.06476106
127	0xbeb9f3b2	-0.36318737

VAE.encoder_mu.layers.1.linear1.weight f4 [4, 128]
0	0x3d2d30c5	0.04228284
1	0x3d97bdd0	0.07409251
2	0xbb0bc725	-0.0021328416
3	0x3ddc8be7	0.10768872
4	0x3cbb09c4	0.022831805
5	0xbd8c60c9	-0.06854398
6	0xba69b73b	-0.0008915548
7	0xbda351df	-0.079746
8	0xbd6bbe71	-0.057554666
9	0x3d9ad678	0.07560438
10	0xbc84bcdd	-0.016203338
11	0xbde85c5f	-0.113457434
12	0xbd1c1f58	-0.03811583
13	0x3e036c5e	0.12834308
14	0xbdb1dbfb	-0.08684536
15	0x3b0677e8	0.0020518247
16	0xbcf5a231	-0.029984565
17	0xbc5ec6b5	-0.01359718
18	0x3d0bab36	0.034098826
19	0x3922f894	0.00015542126
20	0xbc0abb20	-0.008467466
21	0x3c9891f5	0.018624285
22	0xb78a94d8	-1.6520193e-05
23	0x3de6cc49	0.11269433
24	0xbca6f5bf	-0.020380853
25	0xbde7520c	-0.11294946
26	0xbd44dacc	-0.048060223
27	0xbda92737	-0.08259433
28	0xbdb7ec11	-0.08980573
29	0xbc82866c	-0.015933238
30	0xbe4e005c	-0.20117325
31	0xbc622b5f	-0.013804286
32	0x3d7f04e5	0.062260527
33	0x3e4dea31	0.20108868
34	0xbe192c9b	-0.14958422
35	0xbda9cc68	-0.082909405
36	0xbdc349a8	-0.09535533
37	0x3e029e2c	0.1275565
38	0xbc4e98d4	-0.012609679
39	0xbca0cab7	-0.019627912
40	0xbdb6d6ff	-0.08927726
41	0x3d8d1209	0.068882056
42	0xbd74ebf1	-0.059795324
43	0xbde71c57	-0.11284702
44	0xbc21d0a2	-0.009876402
45	0x3ceb595b	0.028729131
46	0xbc42a01e	-0.011878995
47	0xbdfe7069	-0.12423784
48	0x3db122fc	0.08649251
49	0xbd697c27	-0.057003167
50	0xbda49bdc	-0.0803754
51	0x3d31de05	0.043424625
52	0x3d0a9b7f	0.0338397
53	0xbe62a123	-0.22131781
54	0x3e01e918	0.12686574
55	0xbc14b91b	-0.009077336
56	0x3c46ca1f	0.01213315
57	0x3c76beb0	0.015060112
58	0x3c67d7ae	0.014150543
59	0xbd5a7aa1	-0.053339604
60	0x3df4dc0e	0.119560346
61	0x3d798067	0.06091347
62	0xbceb4d3f	-0.028723357
63	0x3cd432a5	0.025903055
64	0xbcb795c7	-0.022410287
65	0xbc317f3b	-0.010833557
66	0x3d47a39d	0.04874002
67	0x3d159212	0.036516257
68	0x3c76d09e	0.015064387
69	0xbd926edc	-0.07150051
70	0xbc509459	-0.012730681
71	0x3d49c4b6	0.049259864
72	0xba4f02a5	-0.00078968174
73	0xbd6c1057	-0.05763277
74	0xbdd901ad	-0.10596023
75	0x3d0de005	0.03463747
76	0xbd847c37	-0.064690046
77	0xbcccc0ec	-0.024994336
78	0xbd2c02e0	-0.04199493
79	0x3dffe082	0.12493993
80	0xbdc9c246	-0.09851508
81	0x3e4f0355	0.20216115
82	0xbea035d9	-0.31291083
83	0xbd0f4807	-0.0349808
84	0xbd3ce749	-0.04611901
85	0xbe1807bd	-0.14846702
86	0xbde48d5f	-0.11159777
87	0x3d35fb00	0.044428825
88	0x3d0c6339	0.034274314
89	0x3da1756b	0.07883724
90	0x3c813dbc	0.015776508
91	0x3d842ac6	0.06453471
92	0xbd2e1b1e	-0.04250633
93	0x3d5e1893	0.054222655
94	0x3cfb5555	0.030680338
95	0xbd8b8df9	-0.068141885
96	0xbd13c656	-0.03607782
97	0x3cd3223c	0.02577316
98	0x3c6e7fb2	0.014556812
99	0x3da13026	0.07870512
100	0xbd8eb704	-0.06968501
101	0xbdbf0eac	-0.0932897
102	0x3a9565ab	0.0011398097
103	0xbdcbaa4c	-0.09944591
104	0xbcb6d517	-0.022318406
105	0xbc0eec63	-0.008723351
106	0xbdca7ace	-0.098867044
107	0xbd0d9deb	-0.03457443
108	0xbd24e6f5	-0.04025932
109	0xbbd21e32	-0.006412291
110	0xbc679339	-0.014134222
111	0x3da232f7	0.07919877
112	0xbda47302	-0.080297485
113	0x3cae5931	0.021282764
114	0x3d36b015	0.04460152
115	0xbcd6a672	-0.026202414
116	0x3d2c35d9	0.04204354
117	0xbcc2d298	-0.02378206
118	0xbc8d57cd	-0.01725378
119	0x3a7472bb	0.00093249575
120	0x3cbebf37	0.023284538
121	0x3ce7f163	0.028313344
122	0x3d58b086	0.05290272
123	0xbdb2320b	-0.08700951
124	0x3d891602	0.06693651
125	0xbc03e9c8	-0.008051343
126	0xbd02d92d	-0.031945396
127	0xbd1e4fbb	-0.038650256
128	0x3c81b24b	0.015832087
129	0xbc6c29f5	-0.0144143
130	0xbda650d4	-0.081208855
131	0x3d6f572d	0.058432747
132	0x3c04dcd6	0.008109292
133	0xbd4f20e6	-0.050568484
134	0x3c805625	0.015666077
135	0x3d9487ba	0.0725245
136	0xbce85e06	-0.028365146
137	0x3caee486	0.021349203
138	0x3d707e19	0.058714006
139	0xbdaeadd5	-0.085292496
140	0x3d1940b3	0.037415218
141	0xbccd1f50	-0.025039345
142	0xbd41401b	-0.047180276
143	0xbd7ace06	-0.061231636
144	0xbd789620	-0.060690045
145	0xbc782283	-0.015144947
146	0xbd4ca6eb	-0.049963873
147	0xbd1b2f59	-0.03788695
148	0xbddd902c	-0.10818514
149	0xbdaac39d	-0.083380915
150	0x3de7a8f0	0.11311519
151	0x3d6454ba	0.055744864
152	0xbc492aac	-0.01227824
153	0xbc862e4d	-0.0163795
154	0xbde1daec	-0.11028084
155	0x3d1fba4e	0.038996033
156	0x3cb48e7f	0.022040604
157	0xbdc55c13	-0.096367024
158	0x3e0bbc1e	0.1364598
159	0x3d9b6910	0.075883985
160	0xbd271a89	-0.04079679
161	0x3ebac945	0.3648168
162	0xbd412cc3	-0.04716183
163	0xbdbd63a9	-0.09247524
164	0x3dd73153	0.10507455
165	0xbd69efee	-0.05711358
166	0x3d85768a	0.0651675
167	0xbd6e6303	-0.058199894
168	0x3e146db6	0.14494976
169	0x3e597e4a	0.21239582
170	0xbd9d654e	-0.07685338
171	0xbd1760ee	-0.036957674
172	0x3d9c5744	0.07633832
173	0x3d96736b	0.07346233
174	0x3d0e901e	0.03480541
175	0x3ca1ec79	0.01976608
176	0xbcfba530	-0.030718416
177	0x3d6531fa	0.055955864
178	0x3d22c96b	0.03974287
179	0xbd55a4b3	-0.052159023
180	0xbe166b67	-0.14689408
181	0x3d4d4ded	0.050123144
182	0x3d5cb236	0.053880893
183	0xbd902681	-0.07038594
184	0xbcbb8117	-0.022888703
185	0x3d9f4583	0.0777693
186	0x3d858312	0.0651914
187	0x3d834b83	0.06410887
188	0xbc45f2f1	-0.0120818475
189	0x3db9c07b	0.09069916
190	0x3d0ef7c6	0.034904264
191	0xbdb38f76	-0.087675974
192	0x3c2d084b	0.010561059
193	0xbd20478e	-0.03913074
194	0x3dbaa301	0.09113122
195	0x3c40108d	0.011722696
196	0x3c354672	0.011064159
197	0xbd55155a	-0.052022316
198	0xbd1c2c06	-0.03812792
199	0x3d10627b	0.03525017
200	0x3da662aa	0.081242874
201	0xbe0df63d	-0.13863464
202	0x3d19fd3f	0.03759503
203	0xbcfed60f	-0.03110793
204	0xbe1374c5	-0.14400013
205	0x3d9d477d	0.07679651
206	0x3d6f8593	0.058476996
207	0x3e891ae8	0.2677834
208	0xbd17ab8a	-0.037028827
209	0x3da634dc	0.08115551
210	0x3e86faff	0.2636337
211	0x3cb5bef1	0.022185775
212	0xbc030918	-0.007997774
213	0x3e2e7047	0.17035018
214	0xbd683b87	-0.056697395
215	0xbdba72b6	-0.091039106
216	0x3dd91891	0.10600389
217	0xbd6bcef8	-0.057570428
218	0x3dade98c	0.08491811
219	0x3cd56ec5	0.026053796
220	0xbdc9e8db	-0.09858867
221	0x3d01e601	0.03171349
222	0xbdea2352	-0.11432518
223	0x3d8c031e	0.06836532
224	0xbdb7f09b	-0.08981439
225	0x3c0867c1	0.008325518
226	0xbd23fb19	-0.040034387
227	0x3de0bacd	0.109731294
228	0xbe273cb5	-0.16331752
229	0xbd29b118	-0.041428655
230	0x3d6a3ec7	0.057188775
231	0x3e6a9fab	0.22912471
232	0x3d6825a0	0.056676507
233	0xbd96a7fd	-0.0735626
234	0x3d27af37	0.040938582
235	0xbd07e3ca	-0.03317622
236	0xbd3a7c61	-0.045528773
237	0x3d882590	0.066477895
238	0xbd2773d5	-0.04088195
239	0x3d78423f	0.060610052
240	0xbd6cc297	-0.057802763
241	0x3d7a7b65	0.061152834
242	0xbdd61f34	-0.1045517
243	0x3b9387d0	0.004502274
244	0x3bde4bb1	0.0067839255
245	0x3bcba0e3	0.0062142476
246	0xbd907fa2	-0.07055594
247	0xbd4af1e6	-0.0495471
248	0xbd8e9ee2	-0.06963898
249	0xbdabbf96	-0.083861515
250	0xbdd3e7b6	-0.1034693
251	0xbd8160c6	-0.06317286
252	0x3bbbeeb0	0.005735241
253	0xbdc440ab	-0.09582647
254	0x3d7e4c3d	0.062084425
255	0xbe033740	-0.12814045

VAE.encoder_mu.layers.1.linear1.bias f4 [4]
0	0xbccc3313	-0.024926698
1	0x3d1aab62	0.0377611
2	0xbcc10efa	-0.023566712
3	0x3d61e0a3	0.05514587

VAE.encoder_mu.layers.1.norm1.weight f4 [4]
0	0x3f84b0fb	1.036651
1	0x3f911531	1.1334592
2	0x3f85e37c	1.0460048
3	0x3f83a0a6	1.0283401

VAE.encoder_mu.layers.1.norm1.bias f4 [4]
0	0xbcab54fd	-0.020914549
1	0xbd34e75e	-0.04416596
2	0xbde39a5f	-0.11113428
3	0x3c8e0a3c	0.017338865

VAE.encoder_mu.layers.1.norm0.weight f4 [4]
0	0x3f6aef84	0.9177172
1	0x3f4c9ccd	0.7992676
2	0x3f5e31bd	0.86794645
3	0x3f6278bb	0.8846547

VAE.encoder_mu.layers.1.norm0.bias f4 [4]
0	0xbc322d8d	-0.010875118
1	0xbd3d93e5	-0.04628362
2	0x3c47ebbf	0.012202202
3	0xbc984879	-0.018589245

VAE.encoder_mu.last_normalization.weight f4 [4]
0	0x3f800000	1.0
1	0x3f800000	1.0
2	0x3f800000	1.0
3	0x3f800000	1.0

VAE.encoder_mu.last_normalization.bias f4 [4]
0	0x00000000	0.0
1	0x00000000	0.0
2	0x00000000	0.0
3	0x00000000	0.0

VAE.encoder_mu.head.weight f4 [4, 4]
0	0x3e859854	0.2609278
1	0xbe951986	-0.29121035
2	0x3e4a6f54	0.19769031
3	0x3ed62c86	0.41830844
4	0x3ecf7aa4	0.40523255
5	0xbe54553c	-0.2073564
6	0xbe6d745c	-0.23188919
7	0xbe4fe5bc	-0.2030248
8	0xbd929988	-0.0715819
9	0xbc0665c0	-0.00820297
10	0xbe1db21c	-0.15399975
11	0xbea21314	-0.3165518
12	0xbdc07c38	-0.09398693
13	0x3ea30900	0.31842804
14	0xbd0b76e0	-0.034048915
15	0xbed43ef6	-0.41454285

VAE.encoder_mu.head.bias f4 [4]
0	0x3eaff838	0.34369063
1	0x3de45650	0.11149275
2	0xbe147c80	-0.14500618
3	0x3dd755c0	0.105144024

VAE.encoder_logvar.layers.0.attention.W_q.weight f4 [4, 4]
0	0x3e8af45a	0.2713955
1	0x3ebeafda	0.3724354
2	0x3e107550	0.14107251
3	0xbdcf946f	-0.10135733
4	0xbd4d1888	-0.050072223
5	0xbf89aed6	-1.0756481
6	0xbec234bd	-0.3793086
7	0xbf4be9a9	-0.7965341
8	0x3dc12699	0.0943119
9	0x3ec894f8	0.39176154
10	0x3ef4470b	0.4771045
11	0x3f384939	0.7198673
12	0xbeb52131	-0.35376886
13	0xbe2ec98e	-0.17069075
14	0x3ef69544	0.48160756
15	0x3ed11999	0.40839842

VAE.encoder_logvar.layers.0.attention.W_q.bias f4 [4]
0	0x3e312903	0.17300801
1	0xbcb91e12	-0.022597346
2	0x3e359553	0.17732744
3	0x3dd64c7c	0.10463807

VAE.encoder_logvar.layers.0.attention.W_k.weight f4 [4, 4]
0	0x3c037261	0.0080228755
1	0xbef8c7e7	-0.48590013
2	0xbe051bdf	-0.12998913
3	0xbe1dae61	-0.15398552
4	0x3f204547	0.6260571
5	0xbab39cca	-0.0013703343
6	0x3e3b7c13	0.1830905
7	0xbd933588	-0.07187945
8	0xbed3cbcc	-0.41366422
9	0xbf10b0f8	-0.5652003
10	0xbf3f03c2	-0.7461511
11	0x3ec3ea40	0.38264656
12	0xbf0c56d2	-0.5481998
13	0xbedcb5c3	-0.43107423
14	0xbef1e0c0	-0.47241783
15	0xbe19574e	-0.1497471

VAE.encoder_logvar.layers.0.attention.W_k.bias f4 [4]
0	0x37e0aed3	2.678429e-05
1	0xb787cbf8	-1.6188234e-05
2	0xb8398dc3	-4.4239463e-05
3	0xb83279e8	-4.255204e-05

VAE.encoder_logvar.layers.0.attention.W_v.weight f4 [4, 4]
0	0x3d9f4874	0.07777491
1	0x3e087dfa	0.13329306
2	0x3dd543c0	0.10413313
3	0xbe32803a	-0.17431727
4	0x3cf69a7d	0.030102963
5	0x3d8f4e90	0.069974065
6	0xbc912b4c	-0.01772084
7	0xbe126a0b	-0.14298265
8	0xbc0dd77e	-0.008657334
9	0x3dcafe57	0.09911793
10	0x3c94490b	0.018101236
11	0xbe390f24	-0.18072182
12	0xbc801c9f	-0.015638648
13	0x3cd7d85f	0.026348291
14	0x3d86872a	0.06568749
15	0xbe4e0e61	-0.20122673

VAE.encoder_logvar.layers.0.attention.W_v.bias f4 [4]
0	0xbdeef66f	-0.11668097
1	0xbdb189e7	-0.08668881
2	0x3d40dde0	0.047086596
3	0x3e0178ef	0.12643789
