restsyn/tabsyn/vae/ckpt/sevenblobs/decoder.pt (torch, 21363 bytes, 33 tensors)

VAE_Decoder.layers.0.attention.W_q.weight f4 [4, 4]
00000000: 3cbb 9cbe c8a0 31bd fbc3 b33e 4399 2bbe
00000010: 0409 36bd 4b5b d23e 5812 263f 3837 06bd
00000020: 4022 a7be 67d3 a23e 05b1 093f 42ee 77bb
00000030: 4995 efbc c020 143e 1ed3 a6be a950 f3be
-0.30611598 -0.043366224 0.3511046 -0.16757683 -0.04444219 0.41085276 0.6487174 -0.032767504
-0.32643318 0.31801912 0.53785735 -0.0037831222 -0.02924599 0.14465618 -0.32582945 -0.47522476

VAE_Decoder.layers.0.attention.W_q.bias f4 [4]
00000000: f9f0 c4bc c05d f2bc 85b5 6bbd 83a4 203d
-0.024040686 -0.02958572 -0.057546157 0.03921939

VAE_Decoder.layers.0.attention.W_k.weight f4 [4, 4]
00000000: d6a9 403e 895d dc3e 68dd c3be 4cc0 91be
00000010: 111e 013e 5050 8c3e 7d65 c9be 84ce 3f3e
00000020: 1869 70bd 72e8 263e 3164 08bf 1a33 433d
00000030: d666 c9bc 5795 c8bd 0d42 a03e aad8 1fbd
0.18814787 0.43040112 -0.38254857 -0.28467023 0.12609126 0.27405024 -0.39335242 0.18731123
-0.058693975 0.16299608 -0.5327788 0.047656156 -0.024585169 -0.09794109 0.31300393 -0.039024986

VAE_Decoder.layers.0.attention.W_k.bias f4 [4]
00000000: 1dc7 d5b8 794d d2b9 fefc a2b9 1e65 5339
-0.00010193719 -0.00040112043 -0.00031087542 0.00020160197

VAE_Decoder.layers.0.attention.W_v.weight f4 [4, 4]
00000000: ecb6 a1be 8388 a3be 216d 233e 2a03 acbe
00000010: 90f7 58be e88f 05bf 7a79 2f3e 9bfc 9fbc
00000020: 1771 a13e 4b02 c63e 0e06 4ebd 5c99 883e
00000030: 5d97 373e fa8e debe 3c46 1dbd c641 16be
-0.3158487 -0.31940088 0.15959598 -0.33596164 -0.21188188 -0.5217271 0.17136183 -0.019529631
0.31531593 0.38673624 -0.050298743 0.26679504 0.17928834 -0.43468457 -0.03839706 -0.14673528

VAE_Decoder.layers.0.attention.W_v.bias f4 [4]
00000000: 42a4 a33c 5220 a63c 2833 00bd 8ba1 223c
0.019975785 0.020279083 -0.031298786 0.00992621

VAE_Decoder.layers.0.linear0.weight f4 [128, 4]
00000000: 9ab8 2a3d 145f 803e c135 fd3d 49c8 cb3e
00000010: 37a9 b9be 3f7c 3dbe cfcc d5be a28e 063e
00000020: 370a 51be 8bcd 203e 52ce 01be 8415 063f
00000030: 376e 633c a85b 95be 5742 823e 1d3a b33e
00000040: fbb6 ec3e 7925 f23d da36 ac3e 3776 d43e
00000050: 9ce6 c0bd 5152 9ebe 8f95 90be 3cb1 b33e
00000060: 9fb3 cebe ba24 f13e d0fd 0a3e c4de 59be
00000070: bdc3 87be 01df cabe 5d7b 973e e6b0 0d3e
00000080: 1fa9 9c3e 2070 0cbe 59de 88be 670b 6cbd
00000090: 6f6f fdbe 58ca 07be d7b8 ecbe 3561 49be
000000a0: cc25 a5be c39e 65bd d484 aebe 4292 d63e
000000b0: 34be f13e 829c b03e 7546 45be a78c 81be
000000c0: 20f9 f1be b3c5 883e bb05 f13d d612 493e
000000d0: 0ddb 473e 40e4 e33e a579 b2be 4a49 99bd
000000e0: 52b9 d13e fbde b53e 5cea 013e 9651 6d3e
000000f0: 4c46 bfbe 9efe 1d3e 0ce1 afbe d3a7 533e
00000100: d84c e9bd 9e31 82be 24b6 2abe 2d11 a13e
00000110: fdb6 95be 5841 ef3e 271e 71bc 5b27 ee3e
00000120: 2e9f 2e3e 3962 89be a1bf 8abe 261b 973b
00000130: 8260 13be a5a8 57bd c97e 8d3e db5d c03e
00000140: 4eab 2ebc 765c 32be 041b d5be 7587 fcbd
00000150: 82ea a9be 5e44 f63e 7e7c 9cbe 0775 cebe
00000160: 4966 c43e b70c c33e 867f 83be 9b2f 353e
00000170: b472 f7be e05b acbe e085 adbe 74fe d3bc
00000180: 822e 7e3e 063a 333e c63e db3e c7fa 4c3e
00000190: 0b0a 263e 0d3c f23e f53c 403c 7e8e d9be
000001a0: 25e0 cabe e926 ae3e 0d17 e4be 0ae3 d3bd
000001b0: f176 b7be 2efa 333e bea2 94bd 107a 42be
000001c0: 7675 613e e2ec c33e 35ae cbbe 12d2 2ebd
000001d0: 619c c7be 329a bfbd 2843 04be 7e45 e2be
000001e0: d39f 44bd e52b 81be 01c6 dcbe d15b 513e
000001f0: be32 fcbe ece4 ff3e f637 033f 9e58 2e3e
00000200: 9fb2 f53e bab7 b43c b55c 2a3e fbd2 cdbe
00000210: 7033 8a3e 6b49 4ebe c2f9 15bd 8c5f e73d
00000220: 250b 5b3d 3fbd 87be 736c 97bd b4ac 60be
00000230: 7268 b93e 6a30 c73d 44ae f5be 7b71 27bd
00000240: ec53 993e 8edd e43e 528b 683e ffbc 97be
00000250: ede1 233e 95fa 0bbf 4245 6e3e c7cd 6fbe
00000260: 1e64 afbe 5445 5bbe 7b2a 33be 6fc1 083f
00000270: 85d4 5ebe c02a bebe b917 f33e 3972 76bd
00000280: 87a0 65be d4c0 cbbd 0afc 313e dfcc 19be
00000290: fe44 5abd 2a8e 443e c3c6 93be 0489 45bc
000002a0: 7b35 09bf e549 58be ad29 153e d2cb ab3c
000002b0: da02 3abe 02fb 13bf 2746 263e 8eec 573e
000002c0: db6d 43be 6a49 6abe 4f49 023e 5ff4 833c
000002d0: 126f 26bb 3fa2 c5bd 48da cf3d 6ccc be3e
000002e0: df15 323e 793d 21be 3328 e73b 67fb 11bd
000002f0: 546f b43e 695f 883e 0c49 fdbe 0cc0 783e
00000300: 2195 fd3d f68b 88be 6e72 08be 5593 793e
00000310: fae7 fe3e d5b2 07bf 70c1 253e d28c afbe
00000320: e05f 9bbe 5475 f9be 0680 debd 82f2 f93d
00000330: 104d 553e 2613 f93b cef4 d4bd bc14 e2be
00000340: 8ea6 a1be f309 b13e 0c64 883d 4d3f f0be
00000350: bb66 c0be 8b10 a23e 63bc 46be 4ecb 893d
00000360: 55be fc3e d1be d8bd b906 c43d 9d44 7fbe
00000370: 862d 683e d313 fc3e 8eb6 8d3e 233c 5ebd
00000380: 031f d83e bd94 2bbe e801 46be 768c fbbe
00000390: 44ea d0be 944c fe3e 70d4 083f 783e c53e
000003a0: 505a 113e f0f9 ebbd 9845 f93d cccb 043e
000003b0: 05cf 293e a5e2 013f 3d9a ec3d 1f52 293d
000003c0: 2ee7 debe a907 743e b9e1 57be 45ca cebe
000003d0: 8464 85be 3dc1 4b3d f808 9cbe 1e50 343e
000003e0: 01c9 c0be c1d9 0f3f 451c 00bf 1104 36be
000003f0: 9248 ea3d d695 48be a6cf 0d3f 1e67 ac3e
0.041679956 0.2507254 0.12363768 0.39801243 -0.36261913 -0.18504427 -0.4175782 0.13140348
-0.20414053 0.15703408 -0.12676361 0.5237658 0.013881258 -0.2917149 0.25441238 0.35005274
0.46233353 0.118235536 0.33635598 0.4149644 -0.09418985 -0.30922177 -0.28239104 0.35096157
-0.40371415 0.47098333 0.13573384 -0.21276385 -0.26516524 -0.39623263 0.29586306 0.13837013
0.3059778 -0.13714647 -0.26732138 -0.05762806 -0.4949908 -0.13260782 -0.46234772 -0.19665988
-0.322554 -0.05605961 -0.34085715 0.4190846 0.47215426 0.34494406 -0.19265158 -0.25302622
-0.4726038 0.26713333 0.11768671 0.19636092 0.19517155 0.44510078 -0.34858432 -0.07484682
0.409617 0.35521683 0.12687057 0.23175654 -0.3735832 0.1542916 -0.34351385 0.20669489
-0.1139161 -0.2542848 -0.16671044 0.31458417 -0.2924117 0.4672954 -0.014716662 0.465144
0.1705291 -0.2683275 -0.27099326 0.0046113906 -0.14392284 -0.052651066 0.27635792 0.37571606
-0.010660959 -0.17418084 -0.41622174 -0.12330524 -0.33186728 0.48099035 -0.3056373 -0.4032366
0.38359287 0.38095638 -0.2568323 0.17693941 -0.483297 -0.33663845 -0.338912 -0.025878169
0.24822429 0.17502603 0.4282133 0.20017539 0.16214769 0.4731144 0.011733283 -0.42491525
-0.39624134 0.3401406 -0.44548836 -0.10346039 -0.35832933 0.17575905 -0.07257603 -0.18991876
0.22017464 0.38266665 -0.39781347 -0.042680807 -0.38986495 -0.09355582 -0.12916243 -0.44193643
-0.048003983 -0.252288 -0.43119815 0.20445181 -0.49257463 0.4997934 0.51257265 0.17025992
0.4798784 0.022060264 0.16636927 -0.40200028 0.2699237 -0.20145194 -0.03661514 0.11297521
0.053477425 -0.2651157 -0.07393732 -0.21940881 0.36212498 0.09726031 -0.47984517 -0.040879708
0.2994684 0.44700283 0.22709396 -0.2963638 0.16004153 -0.5467923 0.23268607 -0.23418342
-0.3425607 -0.21413165 -0.17496674 0.53420156 -0.21760757 -0.3714199 0.47479036 -0.060167525
-0.22424518 -0.099488884 0.17381302 -0.15019558 -0.053288452 0.19194856 -0.2886258 -0.012056593
-0.5359723 -0.21121939 0.1456668 0.020971213 -0.1816515 -0.5780488 0.16237698 0.21086332
-0.19084875 -0.22879568 0.12723278 0.016107736 -0.0025395793 -0.096500866 0.10149056 0.37265337
0.17391156 -0.15746106 0.0070543527 -0.035640147 0.35241187 0.26635292 -0.49469793 0.2429201
0.1238196 -0.26669282 -0.13324901 0.24372609 0.4978636 -0.5300725 0.16187072 -0.34287125
-0.30346584 -0.48722327 -0.10864262 0.12204458 0.20830178 0.0076011596 -0.10398255 -0.44156444
-0.31572384 0.34577903 0.066597074 -0.46923295 -0.37578377 0.31653246 -0.19407801 0.067282304
0.49363962 -0.1058327 0.09571595 -0.24928518 0.22673616 0.49233875 0.2767834 -0.05425657
0.4221116 -0.16755958 -0.19336665 -0.491306 -0.4080373 0.496678 0.53449154 0.38524222
0.14194608 -0.11522281 0.12171477 0.12968367 0.16582878 0.5073646 0.11552856 0.041338082
-0.4353575 0.23831047 -0.210822 -0.40388694 -0.2605325 0.049744833 -0.30475593 0.17608687
-0.37653354 0.5619164 -0.50043136 -0.17774989 0.11439623 -0.19588408 0.5539497 0.33672422

VAE_Decoder.layers.0.linear0.bias f4 [128]
00000000: d8b1 84be dd44 853e 6a03 aebe 65e9 9c3e
00000010: 6fc3 c03e 14c7 8fbe a19a 0ebe bf31 0e3e
00000020: 02e4 bb3e d437 bdbe 4284 a7be 8b92 e1bd
00000030: 8d63 9fbd 4b7e 91bc 7e64 493e 0f3e 96be
00000040: 3273 54be b349 83bd d757 b83e 2e5d db3e
00000050: 1cc2 4c3e d4be cc3e 611a 96bd 6170 8b3e
00000060: 2cbf d5be 456a f73e 2f9c 103e 98fc d5bc
00000070: 5883 8f3e 2eaa a63e 4f8c b5be ebf1 ea3d
00000080: d56a b5bd f96e 03bd 0b95 90bd f5d7 e8be
00000090: a004 ca3d adf5 b5bc de72 30be 214f 00bf
000000a0: f1ef c23e a643 013f 1e46 98be bf20 81be
000000b0: 17d6 6bbd 8971 363e 4337 913e 9356 11be
000000c0: ef33 f13c 303d b63d 74b6 903e 764c 65bd
000000d0: 45cc 6fbe d940 2f3d 0756 b3be b4a2 c33e
000000e0: f232 773e 4bcf 8b3d 5254 e3be dd77 8a3e
000000f0: 8cb5 acbe 9174 b3be 83e5 ff3e a7a4 f4bc
00000100: d5dc b6be 5e82 393e ccd1 f7be 7dd1 10be
00000110: e612 c73e 1ecb d43d 2404 013e 8756 9dbd
00000120: 1cf7 313e ae33 2bbe 0ceb 073f 65e9 d4be
00000130: eba0 993e d009 c1be 663e ef3d 6625 93bb
00000140: a85a 3a3e c675 83be 00eb 14bd 2eaf f5be
00000150: 5c78 debe eac3 0bbe b509 933e 07c6 a0be
00000160: 9162 873d 821a dbbe 51bc ec3e 4ca4 bfbd
00000170: 90fb bd3d 628b 493e 2651 b0be 3c0d d7be
00000180: 901c e23e 169b e0be b06e 993e 4c5f c1bd
00000190: 8101 ec3e 8c24 f93e bfdf debe eb0d a2be
000001a0: a7be e03d 376f 2fbe a991 0abe 7311 383e
000001b0: 2432 b9be 8336 ba3e adeb a3bd 0941 51be
000001c0: cc91 bb3d d165 3ebd 0d8c 6ebe 7db8 70be
000001d0: 07c5 84be 2d6b eebd 8287 093e a7cb 89be
000001e0: bc6f aa3e beec 813d b81a 163e 0c34 e2ba
000001f0: 7050 69bd 6ef2 e93e 2533 d1be 06b3 84bc
-0.25916934 0.260291 -0.3398698 0.30646816 0.37649104 -0.28081572 -0.13926174 0.13886164
0.36697394 -0.36956656 -0.32718092 -0.11014279 -0.0778266 -0.017760416 0.19667241 -0.29344222
-0.20747069 -0.064105414 0.36004516 0.42844528 0.19995922 0.3998934 -0.0732925 0.27234176
-0.41747415 0.48323265 0.1412208 -0.026121423 0.28029895 0.32551712 -0.3545861 0.114719234
-0.08858267 -0.032088254 -0.07059678 -0.45477262 0.098641634 -0.022211874 -0.17231318 -0.5012074
0.38073686 0.5049385 -0.29740995 -0.25220296 -0.05757722 0.17816748 0.28362474 -0.14193182
0.02944371 0.08898389 0.282642 -0.055981122 -0.23417766 0.042786453 -0.3502657 0.3821007
0.24140528 0.06826647 -0.4440027 0.27044573 -0.3373226 -0.3504987 0.4997979 -0.029863669
-0.35715356 0.18116137 -0.4840225 -0.14142413 0.38881606 0.10390304 0.12599236 -0.076825194
0.17379421 -0.16718933 0.5309303 -0.41584316 0.30005583 -0.377028 0.116818234 -0.004490542
0.18198645 -0.25675792 -0.036356926 -0.47985214 -0.43451202 -0.13648954 0.28718343 -0.31401083
0.06610597 -0.4279366 0.46237424 -0.09357509 0.09276497 0.19682077 -0.3443691 -0.42002285
0.44162416 -0.4386832 0.2996726 -0.094420046 0.46094897 0.48660696 -0.4353008 -0.31651244
0.10973864 -0.17132269 -0.13532127 0.17975406 -0.36171067 0.36369714 -0.08003936 -0.20434965
0.09158668 -0.04648382 -0.23295613 -0.23507877 -0.2593157 -0.11641536 0.13430598 -0.26913187
0.33288372 0.06343983 0.1465863 -0.0017257943 -0.056961477 0.45692772 -0.40859333 -0.016198646

VAE_Decoder.layers.0.linear1.weight f4 [4, 128]
00000000: 9018 04bd d7cc f8bc 93ee 843d c712 263c
00000010: 4854 683d 73ac 7cbd b355 c6bc 45cd db3c
00000020: 9fff b0bb edf7 ba3d 11ea 19bd 959f 063d
00000030: 4b61 dcbc 4249 abbb b64f d23d 7002 19bd
00000040: c253 dabc a7b8 833d 5f9e 263d d895 70bb
00000050: 5f31 c03d fbc2 0dbd 1bf8 4c3d fff6 653d
00000060: 5366 a03d 8009 e93d 3d1d af3b 8151 933c
00000070: d7ef 7f3d 02d2 8b3d 8e3a 023e 2420 b43d
00000080: 9883 9fbd 9f9d 49bd 19e0 10bd a74e 883c
00000090: b271 a63d 976d 35bd ba50 15bd fa08 37bd
000000a0: d620 62bd 3e91 903d 9474 033d 0f9c b9bd
000000b0: f0a6 a9bd 544e 3ebc e752 513d 9e2b 763d
000000c0: 317b a33d 4b31 333d 4004 90bd db28 b2bd
000000d0: eecd fe3b 3390 a63d db9f d2bc d4b9 c23d
000000e0: 6be9 9cbd f965 d5bc b519 bc3b 8f73 013e
000000f0: ea69 903c 3d0b a93d d5cc a23d 01b9 04bd
00000100: c154 d33d 1e1a 393d 44e9 99bd f60e babd
00000110: 3ba5 c63d 1c80 e6bb 45ee 30bd e524 c53d
00000120: 8a1d 563d 2d66 bb3b 9a3b 993d db37 383c
00000130: 2943 63bd 79e2 823d 66f2 9dbd 8013 fc3c
00000140: e036 e1bc 3610 523c 670b 983d eb67 883c
00000150: f8c5 79bd 209c dabc 1e51 8a3d 6884 403d
00000160: f7a6 013e 46b1 263d b835 c33d fc9b 1d3d
00000170: 5598 5dbd 0758 57bd 6f9d 343d 6eb0 c13c
00000180: 501c ae3d 7a6b 113c 939e 8f3d 473e d83b
00000190: 49f7 c43d d410 86bd 3c7a 803d 0c42 20bb
000001a0: 74b7 363b 759d 64bc 5abd 013d c0df de3b
000001b0: a269 92bd acbf 843d 747e 8b3c a713 36bd
000001c0: f29d ab3d 880c 3c3d bedf 55bd 960d 873c
000001d0: 88ac ddbc ca06 bbbd 928e ec3d 7481 103e
000001e0: c4b0 46bd a907 9e3d ec3b 5c3d 6ef9 fd3d
000001f0: f48e 1e3c 6100 573d 50cf 8a3d c9cb 873d
00000200: e717 b8bb 5e2b d0bb c5ce 3c3d 050d ad3d
00000210: 070e a23d 98cf 653d f978 f8bd 6cb5 843d
00000220: 40c4 a13d 1466 d2bd 2d85 5ebc cf3d f73c
00000230: d24b 13bc ae5a 8c3c bb01 32bd 26dc f1bd
00000240: 8d77 5d3d ab5a a2bc 1d51 3c3d 872b 953b
00000250: 810a 2ebd febf c2bd 45a2 82bd a592 873c
00000260: 4fd8 59bd 402e 383d 090c a83b 1dbf 8abc
00000270: 8d95 933d 117d b5bd 22e1 233e 8690 e3bc
00000280: 1a0a b6bb 743d 643d 0126 89bd 437b c33b
00000290: e3dd a4bc 57d5 be3c 8e81 6a3d c988 203c
000002a0: be85 d4bc 1b33 583d 3caf a93d a159 4c3e
000002b0: ee66 973d e44e 84bc f5b2 af3d 8048 923d
000002c0: 61d6 243d f2d8 82bc 35e2 8b3d ffba 933d
000002d0: 596b f8bd c4b3 76bd f8f0 903d 2a36 56bb
000002e0: ff1e 68bd 1393 50bd 4c4d 8dbd 1ad0 92bd
000002f0: 95fb d9bd 2fe2 efbc a350 65bd 9a5d 203e
00000300: 5ff4 f73d 87c9 5abd c6e6 1bbd 4574 60bc
00000310: 7acc 223d 0094 1bbd 854b b23b a243 a0bd
00000320: a4c4 6ebd ea5a 123d 6652 783d cd7c 9a3d
00000330: c72d 3d39 b520 82bd 550a 06bd 19bb d63d
00000340: 2921 41bd 56d7 b5ba 5ebc d9bd 41c4 013d
00000350: 8e7a 0dbd d641 f23d 7b31 a63d 1420 8c3b
00000360: f91f 22bd a303 ed3a 8308 63bd 16a1 23bc
00000370: 9849 82bd 1296 c13d 323f 013d beaa 90bc
00000380: ffb6 1e3d c20e b3bc 5f57 f4bc 1d8e 32bd
00000390: 6c68 d83d 4796 16bd 0126 1bbd c63b 25bd
000003a0: af65 56bd 8cf5 1abc 84eb e93d d423 88bd
000003b0: ada0 34bb 997e 7dbc 2cc5 903d 919d 3f3c
000003c0: 9350 80bd 35c8 983d 3917 9d3d 0e4c c13c
000003d0: 7a55 0a3e 4fc4 6bbd a789 abbc 2f9b 29be
000003e0: c4a7 a63c 8581 abbd d025 acbd ceb8 edbd
000003f0: 97a4 a0bd 8c31 b83d 2eb6 16be a50f 033b
-0.032249987 -0.030371113 0.06490817 0.010136313 0.056721002 -0.061687898 -0.024210786 0.026831279
-0.005401566 0.09129319 -0.03757674 0.032867033 -0.026901862 -0.005227239 0.1026911 -0.03735584
-0.026651267 0.06431704 0.04067838 -0.0036710408 0.09384417 -0.034609776 0.0500413 0.056143757
0.07832017 0.11378765 0.0053440616 0.0179832 0.06248459 0.06827165 0.1271765 0.08795193
-0.077887714 -0.049222585 -0.035369966 0.016639067 0.081271544 -0.044293966 -0.03645394 -0.044686295
-0.055207096 0.07058953 0.0320936 -0.09062969 -0.08283794 -0.011615355 0.051104452 0.06010019
0.07982481 0.04374818 -0.070320606 -0.08699199 0.0077760136 0.081329726 -0.02571099 0.095081
-0.076617084 -0.0260496 0.005740369 0.12641738 0.017628629 0.08254097 0.07949225 -0.032402996
0.103189 0.045190923 -0.07515195 -0.09084885 0.09699484 -0.007034315 -0.04319598 0.09626178
0.052274264 0.0057189674 0.07482071 0.011243786 -0.05548397 0.063908525 -0.077122495 0.030771017
-0.027491987 0.012821248 0.0742405 0.016651114 -0.060979813 -0.026685774 0.06753753 0.047001272
0.12661348 0.040696405 0.095317304 0.038478836 -0.054100353 -0.052574184 0.044095453 0.023643699
0.08501494 0.008875722 0.070126675 0.006599221 0.096174784 -0.065461785 0.06273314 -0.002445343
0.0027880343 -0.013953556 0.03167472 0.0068015754 -0.07149054 0.06481871 0.017028071 -0.044452336
0.08379735 0.04591039 -0.05221533 0.01648597 -0.027059808 -0.09132154 0.11550631 0.14111882
-0.04850842 0.07716305 0.053768083 0.124010906 0.009677637 0.052490596 0.06777823 0.06630666
-0.0056180838 -0.006352826 0.04609563 0.08449749 0.07912832 0.05610618 -0.12132449 0.06479916
0.0789876 -0.10273376 -0.013581556 0.03018084 -0.008990245 0.017133083 -0.04345868 -0.11809568
0.05406909 -0.019818624 0.045975793 0.004552308 -0.042490486 -0.09509276 -0.06378607 0.016549418
-0.053184804 0.044965982 0.005128388 -0.016936833 0.07206259 -0.08861745 0.1600385 -0.027778875
-0.0055554034 0.05572267 -0.06696702 0.0059656217 -0.020125335 0.023295088 0.05725246 0.009798237
-0.02594268 0.052783113 0.082853764 0.19956066 0.07392679 -0.0161509 0.08579055 0.071427345
0.04024351 -0.015972588 0.06830255 0.07213401 -0.1212985 -0.06023003 0.07077211 -0.0032686093
-0.056670185 -0.05092151 -0.06899509 -0.071685985 -0.106436886 -0.029282657 -0.055985104 0.15660706
0.12107157 -0.053414848 -0.03806188 -0.013699596 0.039745785 -0.03798294 0.0054411315 -0.078254
-0.058293 0.035731234 0.060625456 0.07543335 0.00018041498 -0.063538946 -0.032724697 0.10484905
-0.047150765 -0.0013873379 -0.10631631 0.031681303 -0.034540705 0.118289635 0.081149064 0.004276285
-0.039581273 0.0018082749 -0.05542804 -0.009987136 -0.06361693 0.09452452 0.03155441 -0.017659541
0.038748737 -0.021857623 -0.029826818 -0.04359256 0.10566792 -0.03676441 -0.03787804 -0.040340208
-0.052343067 -0.009457957 0.11421874 -0.06647459 -0.002756159 -0.015472078 0.070688576 0.011695282
-0.06265368 0.074600615 0.07670445 0.023595836 0.13509169 -0.05756026 -0.020939661 -0.16563104
0.020343669 -0.08374313 -0.0840565 -0.11607514 -0.07843893 0.08993825 -0.14717934 0.0019998339

VAE_Decoder.layers.0.linear1.bias f4 [4]
00000000: 9a04 04bd 2565 4ebd 90ff 8ebd a153 be3c
-0.03223095 -0.050389428 -0.069823384 0.023233237

VAE_Decoder.layers.0.norm1.weight f4 [4]
00000000: 4e1b 833f 744c 913f 8caa 813f 4670 863f
1.0242708 1.1351457 1.0130172 1.0503013

VAE_Decoder.layers.0.norm1.bias f4 [4]
00000000: e687 58bd acb2 653d d1c1 b6bc 0584 883b
-0.052863978 0.056078598 -0.022309216 0.0041661286

VAE_Decoder.layers.1.attention.W_q.weight f4 [4, 4]
00000000: b0f7 19be ad4c 213e 0894 85be 046e 3fbe
00000010: 6f61 32be acc3 2b3e b16a ebbe abb8 efbe
00000020: ac92 8a3e eaa3 7bbe b4ce c23e a4ee b43e
00000030: 2c45 43bc 6bee 033d e282 7ebe 3a2a c63e
-0.15035892 0.15751906 -0.260895 -0.18694311 -0.1741998 0.16773862 -0.45979837 -0.46820578
0.27065027 -0.24574247 0.38048327 0.35338318 -0.011918347 0.032209795 -0.24854615 0.3870409

VAE_Decoder.layers.1.attention.W_q.bias f4 [4]
00000000: 3af4 ac3b a77a 963d dd3d 2fba d3b2 e2bc
0.0052781375 0.07347613 -0.00066849386 -0.02767316

VAE_Decoder.layers.1.attention.W_k.weight f4 [4, 4]
00000000: 21d2 b33e dbdc dd3d 5476 c4be 13f1 8c3e
00000010: 745a ae3e c9d5 343d cd95 e43e 2e48 c4be
00000020: 6827 78be 9c65 cd3e 396c dc3e 41a6 4dbe
00000030: 1cf8 5e3e cb92 9bbe 2fc1 c0be 07de b23e
0.35121253 0.108331405 -0.38371527 0.27527675 0.34053385 0.044149194 0.4464554 -0.3833632
-0.24233782 0.40116584 0.43051317 -0.20082952 0.21774334 -0.30385432 -0.37647387 0.34935018

VAE_Decoder.layers.1.attention.W_k.bias f4 [4]
00000000: 4733 8ab8 a360 8f38 d1c7 9338 5d79 d6b4
-6.589904e-05 6.836771e-05 7.046725e-05 -3.994891e-07

VAE_Decoder.layers.1.attention.W_v.weight f4 [4, 4]
00000000: 00e8 eb3e dd66 9d3e 53a2 ffbc 73ae ebbe
00000010: 91ff 4cbe bac4 07be acf5 eabe 9860 b8be
00000020: d509 4b3e f2cd 7a3e 23be 6c3e 61cf c83e
00000030: ab45 ac3e 8265 a7be 7b83 e0bd 3bd3 933e
0.4607544 0.3074254 -0.031205332 -0.46031532 -0.20019366 -0.13258639 -0.45890558 -0.36011195
0.1982797 0.24492624 0.23119406 0.39220718 0.33646902 -0.32694632 -0.10962578 0.28872094

VAE_Decoder.layers.1.attention.W_v.bias f4 [4]
00000000: 919c 153d aa69 8b3c 302a 8abc 2c2b b43b
0.036526266 0.017018158 -0.01686582 0.0054983106

VAE_Decoder.layers.1.linear0.weight f4 [128, 4]
00000000: b8a0 a8be 1ceb e2be 4a43 bd3e 88c5 0f3e
00000010: d8a7 3d3e d9da 7d3e 314b 69bd 5af2 303e
00000020: 83dc 66be 5cf3 11be a64b 06bf 6e41 b4be
00000030: 9424 8d3d 6c5c ef3e 38fc a23c cd03 aebe
00000040: b400 c23e 53c3 d1be 3453 fe3d 776b 973e
00000050: 90fe 16be 0cee c53e 2117 d0be e0de 803e
00000060: 452e 8fbe a66b ae3e 0ee6 f03e a81d df3e
00000070: 2e78 a33e 69d3 c73e c769 00bf 34fa a53e
00000080: fb1f cfbe 486f 0dbe 6d54 31bf 4f21 da3e
00000090: 4120 f7bd a1de bdbe a9c7 6d3e 2aaf 043f
000000a0: db0b 9cbd 03ef 043f 32bc ac3e 41ef 42bd
000000b0: 264e 983e 2b1a cabd b4dc 32be 11b2 cd3d
000000c0: 4abe e83e 53e5 23be e048 94bd 12f8 7f3e
000000d0: d469 e53d 9a81 ca3e 7a80 f0bd c113 663e
000000e0: 4a90 ad3e 9840 74bc 52b2 a2be 8afa 3fbd
000000f0: 70d4 b3be 885f d53e 6849 dabe a745 863e
00000100: 9998 c0be 0ba9 cebe e1ad cf3e bfe6 2c3e
00000110: aa69 ad3e a673 a63e f1be 4cbe 235b c23e
00000120: 4053 9f3e 8ad5 0ebd 4bab 493d 68bc bf3e
00000130: a0ed f63e 3299 05be 2264 b2bd 9867 1e3e
00000140: bb0b 19be 4575 d93e 7804 43be 315b 01be
00000150: 58a5 4bbe 3cc1 febd 545d d5bd 8ac4 853e
00000160: 49cf ad3e 8917 b73c 4888 e23e f1d1 3c3e
00000170: 0cde df3e 7c94 983b 2f20 a43e 8cb6 5abe
00000180: 95cc 60be d174 16bf c1a5 5e3d 36dc ae3e
00000190: 8152 eb3e d842 a73e cce0 163d 821b b0bc
000001a0: 36cc 36be b5be e4be 4b02 00bf f710 6b3d
000001b0: 6e00 72bd 0da3 14be 5e94 d0be ae75 38be
000001c0: 8ce9 993e 5e45 9a3e bae4 8a3e 9c6d ab3e
000001d0: 9184 1c3d 866e db3e 50be 0c3d c6ac 5fbe
000001e0: f43a acbe 13a1 d1be 5c37 56be 562d 013f
000001f0: 92e4 1dbe e416 7dbe 8a39 a6be 8811 503e
00000200: 7d59 50bc 83d6 a63e f8b3 1cbe f479 293d
00000210: 9438 993d 2189 fd3e 3d8d 453e 6011 bfbd
00000220: 38e5 a2ba 4b7d 853e 9105 23be 7058 a93e
00000230: b861 623d 6868 f6be 7057 35bc a16a fe3e
00000240: 86f8 e33e 293e a53e cf57 debe fb15 8b3e
00000250: e40c 9d3e d0c7 073e e483 be3e 384e e4be
00000260: 0747 023f b6d9 c63e ce06 953e 583d 89be
00000270: 7738 8bbe 334c b13d 9182 5dbe ec5b 8c3e
00000280: ddcb cd3e 0b6a e4be 6297 b23e 3386 f93c
00000290: f9ef 5cbe b29e 34be 4444 3a3c 1737 aebd
000002a0: 5093 adbd 4a26 adbc e0da 373e b7a0 523d
000002b0: 3158 a43e 316a a23d ee33 afbe 1ba1 c8be
000002c0: c458 93be cf8a 05be 6941 fcbe ff15 20bf
000002d0: 8da4 c3be 0760 dabe b327 a33e 7a8e ab3e
000002e0: a357 dfbe f51d e3bc dbc2 6d3e 8b5c e93d
000002f0: 9b3f 47be d763 f13e 7cbf 4bbe 60dc 893e
00000300: 8fc2 933d 1ad0 aa3e 00fb e7bd a07c 39be
00000310: b0ec b6be d4e7 6f3e 915a e6be e159 76be
00000320: 84ca f6bd f00e edbe 0db7 3bbe be18 f83e
00000330: dd59 4cbd 2cef 1b3e 58b7 c13e e71a 1fbd
00000340: 14da 05be 425b debe 5db2 2cbe 20a6 80be
00000350: a594 213e dc17 06bd fd81 b13e cd85 6c3e
00000360: f4f1 66bd 4c89 cabe 02bf 01be 3e67 bc3e
00000370: ce99 d7bd 9032 99be 51e8 12bf 1f6a d53d
00000380: 56c6 643c c7c2 a1bd efc7 073e 4618 a6be
00000390: 0656 c7be dce1 a5be 5692 903e ec89 89be
000003a0: 1d1a c8be ba61 ed3e b833 9b3e 87e0 04bf
000003b0: 1a3c 8bbe 4be0 903e 57e7 a3be ae36 dcbe
000003c0: 7191 88be 6064 933e e245 d53e 7072 5a3e
000003d0: 971e 83be 2042 f3be dc9a c73c 3a87 ba3d
000003e0: 8541 1fbe a5cf e6be f686 9f3d e897 0f3f
000003f0: 0d95 053f a1f9 a8be 88a3 c03e f500 c93c
-0.3293512 -0.4432 0.369654 0.14040196 0.18521059 0.24790515 -0.056956474 0.1727995
-0.22545056 -0.1425299 -0.5245918 -0.3520617 0.06891742 0.467502 0.019895658 -0.33987275
0.3789116 -0.40969333 0.124182135 0.29574177 -0.14745545 0.38658178 -0.40642646 0.2517004
-0.27964988 0.34066504 0.47050518 0.43577313 0.31927627 0.3902848 -0.50161403 0.32417452
-0.40454087 -0.13811982 -0.6926945 0.42603537 -0.12066699 -0.37083915 0.23220696 0.5182978
-0.07619449 0.519272 0.33737332 -0.04759145 0.29747123 -0.098682724 -0.17467004 0.10043729
0.4545768 -0.16005449 -0.07240462 0.24996975 0.11201826 0.39552003 -0.11743255 0.22468473
0.33899146 -0.0149079785 -0.31776673 -0.046869792 -0.35123014 0.41674447 -0.4263413 0.26225016
-0.37616423 -0.40363345 0.40562347 0.16884898 0.33869678 0.32510108 -0.19994713 0.37960157
0.31118202 -0.034871615 0.049235623 0.3744843 0.48228168 -0.1304672 -0.08710505 0.15469205
-0.14945881 0.42472282 -0.19044673 -0.12632443 -0.19887292 -0.124392 -0.104181916 0.2612651
0.3394721 0.02235009 0.442446 0.18439461 0.43724096 0.0046563726 0.32055804 -0.21358699
-0.21953042 -0.58772 0.054357294 0.34152383 0.45961383 0.32668185 0.036835477 -0.021497492
-0.17851338 -0.44676748 -0.500035 0.057389226 -0.05908244 -0.14515324 -0.40738195 -0.18013641
0.30060995 0.30131048 0.2712763 0.33482063 0.038212363 0.4285776 0.034361184 -0.21843252
-0.33638728 -0.40943202 -0.20919555 0.504598 -0.15419224 -0.24715763 -0.32465774 0.20319188
-0.012716648 0.32585534 -0.15303028 0.04137607 0.074814945 0.49518684 0.1929216 -0.09329486
-0.0012427932 0.26072153 -0.15920092 0.33075285 0.055268973 -0.4812653 -0.01106821 0.49690726
0.44525546 0.32273987 -0.43426368 0.27165207 0.30673897 0.13259816 0.3721 -0.44590926
0.5088963 0.38837975 0.29106754 -0.26804614 -0.27191517 0.08657112 -0.21631838 0.2741388
0.40194598 -0.44612154 0.3488112 0.030459499 -0.21575917 -0.17638662 0.011368815 -0.08506601
-0.08475363 -0.021136422 0.17954588 0.0514228 0.32098535 0.07930411 -0.34219307 -0.39185414
-0.2877866 -0.13041233 -0.49268654 -0.62533563 -0.3821148 -0.42651388 0.31866226 0.33507138
-0.4362155 -0.027724246 0.23218863 0.11394604 -0.19457857 0.47146484 -0.19897264 0.26925945
0.072148435 0.33361894 -0.11327171 -0.18113947 -0.35727453 0.23428279 -0.44990972 -0.24057724
-0.120503455 -0.4630046 -0.18331547 0.48456377 -0.049890388 0.15227956 0.37835193 -0.038844015
-0.13071471 -0.43429 -0.16864915 -0.25126743 0.1577936 -0.032737598 0.34669486 0.23097916
-0.05638309 -0.39557874 -0.1267052 0.36797518 -0.10527383 -0.2992139 -0.57385737 0.104206316
0.013963303 -0.07898479 0.13259862 -0.32440394 -0.38932818 -0.3239888 0.28236645 -0.2686304
-0.39082423 0.46363622 0.30312896 -0.519051 -0.2719429 0.28296122 -0.32012436 -0.43010467
-0.26673463 0.28787518 0.4165488 0.21332717 -0.25609276 -0.47511387 0.024365835 0.09107824
-0.15552337 -0.45080295 0.07789414 0.56091166 0.5218056 -0.33002952 0.37624764 0.02453659

VAE_Decoder.layers.1.linear0.bias f4 [128]
00000000: a938 013f efcd 03bf 22eb 43bd 12d7 363e
00000010: f76f c1be ac54 0abe 7b23 5d3b d17c 83be
00000020: f015 e9be 88ed abbe 83c0 f0be 409d c53e
00000030: 0a55 da3d 6bf4 c63e d217 f03d 25ee 24be
00000040: 801c 163e bd6b b43d cec9 a83e 47bc fd3e
00000050: 0f11 683e ae10 0cbe 152a 693e c013 d3be
00000060: c14b bebe 1fe1 ab3e 22e4 c23e e853 ca3c
00000070: 8836 edbe aaaf f43e 8a55 e5be 845f 593e
00000080: 03f1 503e 579b 81bd 2360 de3e 4e6f c33e
00000090: 1128 1f3e 1005 ffbe 708c eb3e 11a1 363e
000000a0: 828a c4be 6cc8 bcbe e498 25be e9dd c73e
000000b0: d20a 36be 3112 1dbe 352e a83e b1c2 c83d
000000c0: f426 12be 93ec a83e 9120 4cbe 6c59 bb3d
000000d0: ae27 6b3e bc4b 89be 3c9d 21be 900a 7c3e
000000e0: ca0c 9fbe 226c bb3d 7aee 6cbe cbb8 e4bd
000000f0: eb3c ba3e 4779 c0be 41b5 26be f614 5dbd
00000100: e802 f23c 2548 a4be 2362 d6be 1da1 d73a
00000110: 61ba 003f f6e5 743e 0a25 b03d ae76 c03c
00000120: 0617 77bd 7a4c 063f 3b6f c83d 2236 443e
00000130: 76a9 993e 6e64 8a3d c133 283d 71ad 7e3e
00000140: 46bc 263e 60dd d53c 0ab0 fd3e 506a 283e
00000150: 0006 a83e 56ad 163e 942a 883d 7dac 8dbd
00000160: 9aea 9f3e e05d 55be 6701 6ebe 715a f13e
00000170: c6dc af3e 67bc fc3e b9f0 973e 877f 923e
00000180: a914 18be 4669 a23e ed75 bdbe 8c0f 4fbe
00000190: d011 5c3e fef9 8d3e 36d7 ea3e f2e0 2dbe
000001a0: 9164 453e 71a1 033f 2c6b 55bd 97ca 173e
000001b0: d5bd d4be 0886 9c3e 7b5c 513e 5a64 3dbe
000001c0: c2f3 44be 6b12 b4be 6ffa c43e ced2 813d
000001d0: 0a88 81be 31b4 03bf 3920 c9be e244 f13e
000001e0: 7378 0bbf 55c3 b2be 642a 44be b717 9abe
000001f0: 51ba 24be e677 de3e 40a3 9e3e d310 853d
0.5047708 -0.51486105 -0.047831662 0.1785548 -0.37780735 -0.13508862 0.0033743072 -0.25681165
-0.4552455 -0.3357966 -0.47021875 0.38596535 0.10660751 0.3885835 0.11723293 -0.1610647
0.1465931 0.08809612 0.32966465 0.49557707 0.22662757 -0.13678238 0.2276996 -0.41226006
-0.3716717 0.3357019 0.38064677 0.024698213 -0.46330667 0.4779027 -0.44791824 0.21227843
0.20404439 -0.06328457 0.43432721 0.38170856 0.15542628 -0.4980855 0.46005583 0.1783488
-0.38386923 -0.3687166 -0.16171604 0.39036492 -0.17777565 -0.1533897 0.32847753 0.098027594
-0.14272672 0.32992992 -0.19934298 0.09147915 0.22964355 -0.26815593 -0.15782636 0.24613404
-0.31064445 0.09151484 -0.23137847 -0.11168059 0.36374602 -0.37592527 -0.1628008 -0.053975068
0.029542401 -0.32086292 -0.41871747 0.0016451214 0.5028439 0.23915848 0.08600815 0.02349409
-0.06032469 0.52460444 0.097868405 0.19161275 0.300121 0.06757437 0.04106498 0.2487085
0.16282758 0.026106536 0.4954837 0.16446805 0.32817078 0.1471456 0.06648746 -0.06917665
0.31233674 -0.20836592 -0.23242722 0.47139314 0.34348124 0.4936249 0.29675844 0.2861292
-0.14851631 0.31720942 -0.37004033 -0.20220774 0.2149117 0.2772979 0.45867318 -0.16980341
0.19276644 0.51418215 -0.05210416 0.14823376 -0.4155108 0.30571008 0.20445435 -0.18495312
-0.19233611 -0.35170302 0.38472316 0.06339036 -0.25299102 -0.51446825 -0.39282396 0.47122866
-0.54480666 -0.34914652 -0.19156796 -0.30096218 -0.16086699 0.4345085 0.30983925 0.064973496

VAE_Decoder.layers.1.linear1.weight f4 [4, 128]
00000000: 4906 cc3c 9604 3abc 985c 123e a6c3 fd3d
00000010: 9b18 1abd 6bb5 bb3d 8fce 0b3d a494 673d
00000020: 1962 a4bd 3810 863d 8161 a73f 8e91 233d
00000030: 218c 8e3d 1315 ec3d fb0a cb3b ed28 5cbd
00000040: 9619 d9bc 2b29 d53a 0b3b cabb a584 973d
00000050: 5e08 8d3d 23e1 843c 98b8 0f3d d022 3ebd
00000060: 54ae 77bd a51a d63d 8cb5 2c3c beab f23d
00000070: ffec 453d debe 0a3d d17a a0bd 48c4 32bd
00000080: 235b f33d 4d77 953b a12b b13d fc49 71bd
00000090: 4cc9 b23d f64d 3c3d 4039 56bc a2fa 9e3d
000000a0: a0d1 74bc 7d21 16bd 196a a23c b008 3c3d
000000b0: 015b 723e 33f0 5b3d bdb8 21bd 843e 153d
000000c0: 6515 f33d b6f3 283d c154 0a3c 9b9e 4cba
000000d0: 9a0f 8f3d 4a6a 07bd 9494 72bd 0b20 103d
000000e0: 5bbe 923d e2b2 3bbc a5e6 bb3c 2814 e43d
000000f0: 96cd fabc 186a 8e3d da2d b4bd 6d37 da39
00000100: de7f 77bd 315c 36bd 7dd9 cdbd d9ac 8c3d
00000110: 1e21 863d f7a5 24bb 80ce 0f3c 47cc c2b9
00000120: e3ab 0b3d e21a f73d 3ce6 a43d 954b a0bd
00000130: 1e4c aebc 13be 5a3c 5181 c6bb 5dd8 be3d
00000140: 46df 163e ead9 bfbd ef78 723d 626a 093e
00000150: b1ed 45bd 0434 923c a2c4 e9bd c944 42bd
00000160: 71c7 d7bc d2d1 413d b5e8 83bd 3e95 a8bd
00000170: cb61 de3c 1516 983d 4e9c e03b 92e4 04bd
00000180: 9133 fdbd 76e8 c93c bb77 03bd 3f64 b5bd
00000190: b3f1 e13d 269d 0fbd 0c43 0d3e 43d8 c0bb
000001a0: 12b0 d13d 67d3 f43d 80bd 2b3d 8056 9e3c
000001b0: 86a4 1a3d 65fd 06bd 66e6 2cba a504 0e3d
000001c0: 068c ad3a ef7c 993d 1b0d 943d 56a5 e2bb
000001d0: b83f 88bd d41d f83c 6955 b2bd 9ad9 ee3c
000001e0: 4234 f1bc 1eef 093d c051 203d 7dfa 7a3d
000001f0: 5af0 1f3d 95ca 963d 25b0 1d3d fc67 2d3a
00000200: 3a96 e43d 6cac d53c 1577 99bd 600f f8bd
00000210: 66c8 9abb 00f6 8e3d 114f 363d c71d 5fbd
00000220: 84ee 113e 1a54 2b3e 0653 24bf 2643 933c
00000230: 08e7 58bc 226e b2bd cd91 85bd 83f2 90bd
00000240: 966f 0cbd 6e71 78bd 50e7 963d 17f2 b3bc
00000250: 8d55 3b3c f7ae b23d 9e24 a43d 9e92 95bc
00000260: 9177 1f3e 8e9c b53b ce39 fe3c 759f 10bd
00000270: 874d 743d 793a 043d d7ea ca3d bf61 c83d
00000280: 4646 1c3d e7df c3bd 8758 a8bc c3a6 0d3e
00000290: cd4b 0ebd 1e17 1ebd 2a47 aa3d 5c08 b23d
000002a0: 6be6 b73c cad6 abbd 8b71 45bd 8961 163d
000002b0: 7061 6fbe dce4 c9bc 89f9 543d b46e 7b3d
000002c0: b5fd 12be 5f78 3cbd 1952 433e 8f23 883d
000002d0: 8f3c 9f3d 4817 eabc 8c90 a33d b8f6 103d
000002e0: d98e 003d ae48 1a3d 5344 81bd 444c 8bbc
000002f0: 2793 a13c 3a3e 023e 3faf 2b3e a88c 813c
00000300: 38a4 c8bd 6c3b 77bd bfc1 9b3e 19e7 9c3d
00000310: a061 a43d 0407 093d 2626 323b faa8 ecbd
00000320: dfa4 d8bb 0194 43bd cf73 0cbb 4494 48bd
00000330: 2834 d4bb 4810 993d 02b9 6b3c e564 29bb
00000340: 92d9 44bd 6efe 773b e677 923d b218 f4bc
00000350: f303 ffbd efed cb3c cd79 f9b9 43c5 16bd
00000360: 3002 20bb 46a3 0c3e c7fe 523d 48d6 bc3d
00000370: ccfc 6bbc c00b ffbc fed0 84bd 4555 283d
00000380: 8e5a b43d 9eec 923d b9cf 26be 7a69 d83d
00000390: bdb6 59bc 7ac9 c63c c7c2 44bc cc71 2dbd
000003a0: 94b7 f5bd c136 cd3c 3b5d e0bd f90c b7bd
000003b0: 5dd7 77bd 3d72 97bd 9e68 bebc b830 57bd
000003c0: 0498 e13d 812e 353d ac81 29bc 1e20 60bd
000003d0: 0773 6fbd 0ac4 86bc e0ba 013d b4de a93c
000003e0: 7bbe 9e3d 26be 1f3c b010 743d 75d6 053d
000003f0: 036d 10be 21f8 84bd faf3 0b3d fe89 02bc
0.02490534 -0.011353632 0.14293134 0.123908326 -0.03762112 0.09165462 0.034132537 0.05653824
-0.08026523 0.06546062 1.3076631 0.039933734 0.06960321 0.11527457 0.0061963773 -0.053749967
-0.026501458 0.0016262879 -0.0061715893 0.07398347 0.068863615 0.016220635 0.03508815 -0.04641992
-0.060468987 0.10454301 0.010541331 0.118491635 0.04832172 0.03387343 -0.07835925 -0.04364422
0.11882617 0.004561341 0.086509 -0.058908448 0.087298006 0.045972787 -0.013075173 0.07762648
-0.014942557 -0.03665303 0.019825982 0.045906723 0.23667528 0.05369587 -0.03948282 0.036436573
0.11869315 0.041248046 0.0084430585 -0.00078056165 0.06985398 -0.03306035 -0.059223726 0.03518681
0.07165214 -0.011456223 0.022937128 0.11136657 -0.03061561 0.069538295 -0.08797808 0.00041621496
-0.060424678 -0.044521514 -0.10051248 0.068689056 0.06549285 -0.0025123337 0.008777261 -0.00037154762
0.03409947 0.12065674 0.08051726 -0.07826916 -0.02127653 0.013350981 -0.006057896 0.09318612
0.1473361 -0.09367736 0.059197363 0.13419488 -0.048322383 0.017847069 -0.11414458 -0.04742888
-0.026340218 0.04731924 -0.0644087 -0.08231591 0.02714624 0.07426087 0.0068545705 -0.032444544
-0.12363351 0.024646979 -0.032096606 -0.08857011 0.110324286 -0.035061978 0.13795108 -0.0058851554
0.10238661 0.11954384 0.04192877 0.019328356 0.037754558 -0.0329565 -0.00065956113 0.034672398
0.0013240583 0.07494532 0.07229062 -0.0069166822 -0.066527784 0.03028766 -0.08707697 0.029156495
-0.029443864 0.033675306 0.039140463 0.06127404 0.039047576 0.07362858 0.038498063 0.0006614921
0.11161466 0.026083194 -0.07493416 -0.121123075 -0.0047235964 0.069805145 0.044508997 -0.054471757
0.14251143 0.16731301 -0.64189184 0.017976355 -0.013238676 -0.087124124 -0.0652195 -0.070775054
-0.034286104 -0.06065505 0.07368338 -0.021966023 0.011433971 0.08724778 0.08014797 -0.01825839
0.15572955 0.0055423444 0.031033423 -0.03530832 0.05964425 0.032282326 0.099080734 0.097842686
0.038152955 -0.0956419 -0.020550026 0.13833146 -0.034740258 -0.038596265 0.08314355 0.08693001
0.022448739 -0.08390577 -0.048203986 0.03671411 -0.23377013 -0.024645261 0.051995788 0.06138487
-0.14354594 -0.046013232 0.19074287 0.06647407 0.077752225 -0.028575554 0.079865545 0.03539154
0.03138623 0.03766697 -0.0631186 -0.01700414 0.019723488 0.1271905 0.1676607 0.01581414
-0.09796947 -0.060359403 0.30421254 0.07661266 0.08026433 0.033453956 0.0027183383 -0.11555667
-0.006611451 -0.04774857 -0.0021431332 -0.048969522 -0.006475944 0.074738085 0.014387371 -0.0025847491
-0.048059054 0.003784086 0.07151775 -0.029796932 -0.12451925 0.024893729 -0.0004758373 -0.036809217
-0.0024415366 0.13734159 0.051512506 0.092205584 -0.014403533 -0.031133533 -0.064851746 0.041096944
0.088063344 0.071740374 -0.16290177 0.10566993 -0.013288197 0.024265993 -0.012009329 -0.042344853
-0.119979054 0.025050523 -0.10955282 -0.08938021 -0.06050812 -0.07394836 -0.023243245 -0.052536696
0.11015323 0.044233803 -0.010345858 -0.05471813 -0.058459308 -0.0164509 0.03167236 0.020736076
0.07751175 0.009749925 0.059586227 0.032675225 -0.14104085 -0.06492639 0.03416822 -0.00796747

VAE_Decoder.layers.1.linear1.bias f4 [4]
00000000: 6551 db3d 1eac 843b 9c7c 90bd ff9f a63c
0.10708884 0.0040488383 -0.07055017 0.020339964

VAE_Decoder.layers.1.norm1.weight f4 [4]
00000000: 0659 7c3f 18c0 903f b1a0 903f 5fbe 983f
0.9857334 1.1308622 1.1299039 1.1933097

VAE_Decoder.layers.1.norm1.bias f4 [4]
00000000: 31d9 38bd 0be4 853c 76e8 c0bd c70e 9a3c
-0.045129005 0.01634409 -0.094193384 0.018805875

VAE_Decoder.layers.1.norm0.weight f4 [4]
00000000: 962c 863f 90e7 883f c52b 803f af08 793f
1.0482357 1.0695667 1.0013357 0.97278875

VAE_Decoder.layers.1.norm0.bias f4 [4]
00000000: d5b4 253c e97c 2cbb 5ce3 8bbc 332b 31bd
0.0101139145 -0.002631957 -0.017076187 -0.04325409

VAE_Decoder.last_normalization.weight f4 [4]
00000000: 0000 803f 0000 803f 0000 803f 0000 803f
1.0 1.0 1.0 1.0

VAE_Decoder.last_normalization.bias f4 [4]
00000000: 0000 0000 0000 0000 0000 0000 0000 0000
0.0 0.0 0.0 0.0

VAE_Decoder.head.weight f4 [4, 4]
00000000: 9c85 f03e 209c ea3c bc94 f13e c005 dc3c
00000010: f491 2ebe c487 aa3e 2eda e8be d0c8 6fbd
00000020: 38c0 18be a869 b73d 98ac a13d d2ae a23e
00000030: ece1 e73e 7014 a73d 800f ccbd 5410 5abe
0.46976936 0.0286389 0.47183788 0.02685821 -0.17047864 0.33306706 -0.45478958 -0.05854112
-0.14917076 0.08955699 0.07894248 0.31774002 0.45289552 0.08158195 -0.09963894 -0.21295291

VAE_Decoder.head.bias f4 [4]
00000000: 880d e7bd 3009 3c3d 0004 193b 022a a13e
-0.11281878 0.0459072 0.0023348331 0.31477362

Detokenizer.weight f4 [2, 4]
00000000: 5bef 2fbe 8bde d2be f640 2cbf e04c 12bf
00000010: 21f7 0fbf 430d ea3e 2569 32be bd40 f03e
-0.1718115 -0.41185412 -0.6728662 -0.5714855 -0.56236464 0.45713243 -0.17422922 0.4692439

Detokenizer.cat_recons.0.weight f4 [2, 4]
00000000: 5c62 1d3f a9ff 233f e184 8bbe 8ade c8bd
00000010: 95f2 3dbf 7ce1 053f 6c4e 2f3f 6afa 9bbe
0.6147821 0.6406198 -0.27249816 -0.09808071 -0.74198276 0.52297187 0.6847904 -0.30464488

Detokenizer.cat_recons.0.bias f4 [2]
00000000: 22cd 3e3d 54a8 2c3e
0.04658235 0.16861087
