restsyn/tabsyn/vae/ckpt/sevenblobs/encoder.pt (torch, 21872 bytes, 33 tensors)

Tokenizer.weight f4 [3, 4]
0	0x3efd0a67	0.49422
1	0x3eaf5a6a	0.34248668
2	0xbde75a42	-0.11296512
3	0x3e05d9b0	0.13071322
4	0x3d477292	0.048693247
5	0x3da0084f	0.07814085
6	0xbd5ae3d3	-0.053439926
7	0xbd23d1c1	-0.03999496
8	0x3e6b2f7d	0.22967334
9	0xbeb5996e	-0.3546862
10	0x3eb85aa4	0.36006653
11	0xbe63f5b2	-0.22261694

Tokenizer.bias f4 [3, 4]
0	0xbe2ef966	-0.17087325
1	0x3e9a4034	0.30127108
2	0xbea375c7	-0.31925794
3	0x3e7210ca	0.23639217
4	0xbdc6a89b	-0.09700128
5	0x3ec99494	0.3937117
6	0x3ec70051	0.3886743
7	0xbf0baf29	-0.5456415
8	0xbd56f020	-0.052475095
9	0xbe6460cf	-0.22302555
10	0xbeb05a1b	-0.34443745
11	0xbe10e656	-0.14150366

Tokenizer.category_embeddings.weight f4 [2, 4]
0	0xbec11793	-0.37713298
1	0xbed6ed44	-0.41977894
2	0xbe1c48b0	-0.15262103
3	0xbd99c920	-0.07509065
4	0x3e4c9afa	0.19980994
5	0x3e304af1	0.17216088
6	0x3eeb17c0	0.45916557
7	0x3e2b28a3	0.1671472

VAE_Encoder.layers.0.attention.W_q.weight f4 [4, 4]
0	0x3f07152b	0.52766675
1	0xbedb2863	-0.4280425
2	0xbe58e1f3	-0.21179943
3	0x3d2d6d23	0.04234041
4	0x3e947e95	0.29002824
5	0xbea6fad6	-0.32613248
6	0xbf073d07	-0.52827495
7	0x3e8ecc7c	0.27890384
8	0x3ec1fe76	0.3788945
9	0xbe51b099	-0.20477523
10	0xbeb58fdb	-0.35461316
11	0x3e11e3b1	0.14247014
12	0x3ec8d9f0	0.39228773
13	0x3bb2bace	0.0054543978
14	0xbe9b1422	-0.30288798
15	0x3e28949f	0.16462944

VAE_Encoder.layers.0.attention.W_q.bias f4 [4]
0	0x3c368b13	0.011141556
1	0xbb45efba	-0.0030202703
2	0xbb0705ca	-0.0020602816
3	0xbc3e0b60	-0.011599392

VAE_Encoder.layers.0.attention.W_k.weight f4 [4, 4]
0	0xbada811b	-0.0016670557
1	0xbef813a2	-0.4845248
2	0xbdb50b68	-0.08840066
3	0x3e0a845c	0.13527054
4	0xbd987642	-0.07444431
5	0x3ed74be2	0.42050081
6	0x3e5aa992	0.21353748
7	0x3d7893ac	0.060687706
8	0x3eac3622	0.3363505
9	0xbe1916e6	-0.14950141
10	0x3ce329b1	0.027729841
11	0xbd8c033d	-0.06836555
12	0x3efbc692	0.49174935
13	0x3ef5779f	0.47942826
14	0xbea100d0	-0.31445932
15	0xbefb8593	-0.49125347

VAE_Encoder.layers.0.attention.W_k.bias f4 [4]
0	0xba0545c6	-0.00050839444
1	0x386b3cf0	5.608512e-05
2	0x37fa1d30	2.9815914e-05
3	0xb7149c4f	-8.857881e-06

VAE_Encoder.layers.0.attention.W_v.weight f4 [4, 4]
0	0x3ee4cb82	0.44686514
1	0x3ec9504d	0.39319077
2	0xbd9b8e2a	-0.07595475
3	0xbec3811d	-0.38184443
4	0x3e2978dc	0.1655001
5	0xbea52e6e	-0.32261986
6	0xbec1a5a8	-0.37821698
7	0x3ea6f1a8	0.32606244
8	0x3e4e2e10	0.20134759
9	0x3db46bc5	0.08809618
10	0xbd321938	-0.04348108
11	0x3ece4524	0.40287125
12	0x3e9a8a1a	0.30183488
13	0xbdcfebba	-0.10152383
14	0xbe4c9c2e	-0.19981453
15	0xbda974ea	-0.08274253

VAE_Encoder.layers.0.attention.W_v.bias f4 [4]
0	0xbd373c16	-0.044735037
1	0xbc121df5	-0.008918275
2	0x3c26659e	0.010156063
3	0x3c28ee57	0.010310731

VAE_Encoder.layers.0.linear0.weight f4 [128, 4]
0	0xbefe0dcf	-0.4961991
1	0x3eb05be2	0.344451
2	0x3eb40d7c	0.35166538
3	0x3ed07b95	0.40719286
4	0x3ecdc3a1	0.40188316
5	0xbe912d46	-0.28354853
6	0x3d1ca50d	0.038243342
7	0xbde4f1ec	-0.111789554
8	0x3eb25df6	0.34837312
9	0xbec678b8	-0.38763976
10	0x3e97d472	0.2965427
11	0xbdd13cd3	-0.102166794
12	0x3d983a80	0.07433033
13	0x3eb90822	0.36139017
14	0x3e2bbbcb	0.16770856
15	0x3e70315e	0.23456332
16	0xbef9f242	-0.4881764
17	0x3dbb7a61	0.09154201
18	0x3dcbe542	0.09955837
19	0x3d61f6de	0.05516707
20	0xbd1d19d6	-0.038354717
21	0x3e81f06b	0.25378737
22	0xbe88e116	-0.26734227
23	0xbe5ecd89	-0.21758093
24	0x3ec979eb	0.3935083
25	0xbddeb4f4	-0.10874358
26	0xbe7e85f1	-0.24855782
27	0xbe09f47a	-0.13472167
28	0x3e118046	0.14209089
29	0xbcf40c4a	-0.029791016
30	0x3e1e84ee	0.15480396
31	0x3e9f8ac7	0.31160566
32	0x3ef0526d	0.46937886
33	0xbeeb9905	-0.46015182
34	0x3eb5131d	0.35366145
35	0xbe328c39	-0.17436303
36	0x3ec4c78c	0.38433492
37	0xbe932e21	-0.2874613
38	0xbed4bdee	-0.41551155
39	0xbf00565d	-0.5013178
40	0x3ec3edbb	0.3826731
41	0x3e9c6d7c	0.3055228
42	0x3ebbd090	0.36682558
43	0x3acd64ee	0.0015670338
44	0xbe988e56	-0.29796094
45	0x3ed0debd	0.40794936
46	0xbd9a046f	-0.07520377
47	0x3d5f01a1	0.054444913
48	0xbede2404	-0.43386853
49	0x3e5c85a0	0.21535349
50	0x3c159b62	0.009131284
51	0xbe2cc816	-0.16873202
52	0xbe7f4b2a	-0.24931017
53	0x3ef93d40	0.48679543
54	0x3e8ec33e	0.27883333
55	0x3ef3bb87	0.4760401
56	0xbe6f69aa	-0.23380151
57	0x3ea4ff3c	0.32225978
58	0xbe5d66ba	-0.21621218
59	0x3ea6bd8c	0.32566488
60	0x3d4f94c6	0.05067899
61	0x3d5e68e5	0.054299254
62	0xbd432523	-0.04764284
63	0xbd85a44b	-0.06525477
64	0xbec59a7a	-0.3859442
65	0x3d20626a	0.039156355
66	0x3e2e9712	0.17049816
67	0xbeda1656	-0.42595166
68	0xbed56f65	-0.4168655
69	0xbea8837b	-0.32912812
70	0x3e995546	0.2994787
71	0x3dfb1502	0.12259866
72	0x3e31271f	0.1730008
73	0xbdac2144	-0.084047824
74	0x3d986d4a	0.0744272
75	0xbea34efe	-0.31896204
76	0x3e37c0f9	0.17944707
77	0x3e9754fb	0.29557022
78	0xbe2ae428	-0.16688597
79	0xbea838d7	-0.32855865
80	0x3db5c4a5	0.088753976
81	0x3dc76004	0.097351104
82	0x3e2a2b6f	0.16618131
83	0xbdff0268	-0.12451631
84	0x3d0322f0	0.03201574
85	0x3e2bf0c4	0.16791064
86	0x3e3940ec	0.18091172
87	0x3ccbdcc0	0.024885535
88	0xbec4386c	-0.38324296
89	0x3e14c56c	0.14528435
90	0xbd86ff2c	-0.06591639
91	0xbd713b9c	-0.05889474
92	0x3e917347	0.28408262
93	0xbe148990	-0.14505601
94	0x3de7cac4	0.11317971
95	0xbd533cb8	-0.051571578
96	0x3e8ab9f2	0.2709499
97	0xbe6d4a4f	-0.23172878
98	0x3e67e670	0.22646499
99	0xbe0eaaaf	-0.13932298
100	0xbe5a110f	-0.2129557
101	0x3d8a44ea	0.067514256
102	0x3eca8ffb	0.39562973
103	0xbeff0a70	-0.4981265
104	0x3e9ac202	0.3022614
105	0xbe3178af	-0.17331193
106	0xbeba2ec9	-0.3636382
107	0x3e541025	0.20709284
108	0xbd3680d8	-0.04455647
109	0xbec584a7	-0.38577768
110	0x3ed2cd56	0.41172284
111	0xbea9ea9a	-0.331868
112	0x3eae04de	0.33988088
113	0x3e50b7b6	0.2038258
114	0x3e79b6bc	0.24386114
115	0xbea9fb1c	-0.33199394
116	0xbeb327b3	-0.34991226
117	0xbec08e59	-0.37608603
118	0x3e79ff4b	0.24413793
119	0x3e5e75ac	0.21724576
120	0x3eae66d6	0.34062833
121	0xbe95805e	-0.291995
122	0xbe8d4715	-0.27593294
123	0x3ed383a1	0.41311362
124	0x3f025c2d	0.509219
125	0x3ed3a224	0.4133464
126	0xbedbb509	-0.42911556
127	0x3e6e5a38	0.23276603
128	0xbe1d3ef1	-0.15356041
129	0x3e56f5c1	0.20992185
130	0x3cee3df9	0.029082285
131	0x3edcd164	0.43128502
132	0x3e0109c9	0.12601389
133	0x3ec8087f	0.39068982
134	0x3eca6beb	0.3953546
135	0xbe80be19	-0.25145033
136	0x3e2b7ffd	0.16748042
137	0x3eeafb0a	0.45894653
138	0xbd7e1322	-0.062029965
139	0x3e673a79	0.225809
140	0x3e278387	0.16358767
141	0xbc060514	-0.008179922
142	0x3dfe2303	0.12409022
143	0x3ea7eb4b	0.32796702
144	0x3ef32778	0.4749105
145	0x3e9b131e	0.30288023
146	0xbe1422dc	-0.14466423
147	0x3e0309b6	0.12796673
148	0x3d82bc4f	0.06383573
149	0x3e814e0d	0.2525486
150	0x3e222b78	0.15836895
151	0x3e43f090	0.19134736
152	0xbebdd0e7	-0.37073442
153	0xbee9dd3d	-0.45676604
154	0xbddc298c	-0.10750112
155	0x3e99de27	0.300523
156	0xbe222705	-0.15835197
157	0xbed7ebf5	-0.42172208
158	0xbf05881e	-0.52160823
159	0x3e1d38ed	0.15353747
160	0x3eb456ae	0.3522238
161	0x3e8fec73	0.28110084
162	0xbe8ffcda	-0.28122598
163	0x3daae02d	0.083435394
164	0x3e97833b	0.29592308
165	0x3ead79ef	0.3388209
166	0x3dcde742	0.100538746
167	0xbe8d4936	-0.27594918
168	0xbe63da1e	-0.22251174
169	0xbe8f3dd0	-0.27976847
170	0x3ec5718b	0.3856319
171	0x3e565024	0.20929009
172	0xbe0bdc8c	-0.1365835
173	0xbd71d040	-0.059036493
174	0x3d5d9e7d	0.054106224
175	0xbe9846fb	-0.29741654
176	0xbeeb09b8	-0.45905852
177	0xbece7c69	-0.40329292
178	0xbde11444	-0.109901935
179	0x3e3fc769	0.18728413
180	0xbde127d4	-0.10993925
181	0x3dc5de89	0.09661586
182	0xbe6a79d5	-0.22898038
183	0x3e9911d4	0.29896414
184	0xbd716ee4	-0.058943644
185	0x3ce9e62b	0.028552135
186	0xbed7e5a9	-0.42167404
187	0x3d3e6d9f	0.04649126
188	0xbe5e84da	-0.21730366
189	0xbe943828	-0.28949094
190	0xbed89b52	-0.42306
191	0x3ee0eddf	0.4393148
192	0x3c3d45da	0.011552298
193	0x3ebb2c3c	0.36557186
194	0xbed86ff0	-0.42272902
195	0x3ed5be9e	0.41746992
196	0xbcef07b6	-0.029178482
197	0xbef83d3c	-0.48484218
198	0xbebb1bcd	-0.36544648
199	0xbe4ddf89	-0.20104803
200	0x3e960837	0.29303142
201	0xbea671d6	-0.32508725
202	0xbeab8d20	-0.33506107
203	0x3e23e006	0.16003427
204	0x3eac0b47	0.33602354
205	0xbe108c82	-0.141161
206	0x3e236ad4	0.1595872
207	0xbd96e0b4	-0.073670775
208	0xbee5a735	-0.4485413
209	0xbeab0a20	-0.33406162
210	0xbea5948e	-0.323399
211	0xbeb580cb	-0.35449824
212	0xbe65d0a1	-0.22442867
213	0xbdc95945	-0.0983148
214	0xbe853444	-0.26016438
215	0x3e3ce3c8	0.18446267
216	0x3ea183bc	0.31545818
217	0xbee8f277	-0.45497486
218	0x3e3c9455	0.18415959
219	0x3da758f7	0.081712656
220	0xbee35fe9	-0.4440911
221	0x3ec554a1	0.3854113
222	0xbe7eff39	-0.24902047
223	0x3e3ba41a	0.18324319
224	0x3e232d9b	0.15935366
225	0xbeb67256	-0.35634106
226	0x3e0ba83f	0.136384
227	0x3eecef71	0.4627643
228	0xbeafe6a7	-0.3435566
229	0x3d4945b5	0.049138743
230	0xbeaaee9b	-0.33385167
231	0xbefbc1c4	-0.4917127
232	0xbda161c2	-0.07879974
233	0xbeb47ed8	-0.35253024
234	0xbe0af835	-0.13571246
235	0x3d36e525	0.044652123
236	0xbe13de18	-0.14440191
237	0xbe17c631	-0.14821698
238	0xbc95f746	-0.018306386
239	0xbef5cd78	-0.48008323
240	0x3eb701b2	0.3574348
241	0x3e384c4c	0.17997855
242	0xbed99e1c	-0.4250344
243	0x3d365fcc	0.044524953
244	0xbea368f4	-0.3191601
245	0xbeee885d	-0.46588412
246	0xbee0b341	-0.4388676
247	0x3eb47fb8	0.35253692
248	0x3e8b2471	0.2717624
249	0x3e5b6132	0.21423796
250	0xbe844970	-0.25837278
251	0x3d99608d	0.07489119
252	0x3ebee017	0.37280342
253	0xbeb20bcd	-0.34774628
254	0xbde41703	-0.11137202
255	0x3eebb251	0.46034482

VAE_Encoder.layers.0.linear0.bias f4 [128]
0	0x3dd5ad03	0.1043339
1	0xbed2c955	-0.4116923
2	0x3d8c6064	0.068543226
3	0x3e032e6b	0.12810676
4	0x3e48dc4d	0.19615288
5	0xbe9b8d33	-0.30381164
6	0xbe56a8a7	-0.20962773
7	0x3e86203b	0.26196465
8	0xbe4949c3	-0.19657044
9	0xbe42ca9f	-0.19022606
10	0x3df8682b	0.121292435
11	0x3c89c9e6	0.016819905
12	0x3efdaaf0	0.49544477
13	0xbec14a7b	-0.37752137
14	0xbede7010	-0.43444872
15	0x3dbb5c8a	0.0914851
16	0x3e23e7aa	0.16006342
17	0x3eb452c1	0.35219386
18	0xbc26a772	-0.010171758
19	0x3d97d0f0	0.074128985
20	0xbebecdb0	-0.37266302
21	0xbe9d0a7c	-0.3067206
22	0x3ed814b5	0.42203298
23	0xbee15e1c	-0.44017112
24	0x3e497e69	0.19677128
25	0x3dfa2a9f	0.122151606
26	0x3eab4c43	0.3345662
27	0xbddb856c	-0.107188076
28	0xbe66dd98	-0.22545469
29	0xbea058ee	-0.31317848
30	0x3e6f7659	0.2338499
31	0xbeee321c	-0.46522605
32	0x3ef08d39	0.46982744
33	0x3dab0ca4	0.083520204
34	0xbeba3655	-0.36369577
35	0x3e9478ce	0.28998417
36	0xbe8329d8	-0.25617862
37	0x3e33f5f7	0.17574297
38	0xbd615d7d	-0.055020798
39	0x3ea71802	0.32635504
40	0xbe74807d	-0.2387714
41	0xbec7b66d	-0.39006367
42	0x3e6f18f2	0.2334936
43	0x3ef8ec8f	0.4861798
44	0x3e6a94e2	0.22908357
45	0x3eb2afa3	0.34899625
46	0x3eef4d3a	0.46738607
47	0xbe916c9c	-0.28403175
48	0x3ecb782d	0.39740124
49	0x3e4e00ce	0.20117494
50	0xbee8d59d	-0.45475474
51	0xbe3fab52	-0.18717697
52	0xbe2c9fbf	-0.16857813
53	0x3ef0d766	0.47039336
54	0xbdcfd0e2	-0.10147263
55	0xbe1d91f0	-0.15387702
56	0xbdffabf9	-0.12483973
57	0x3d53b9fd	0.051691044
58	0x3e7a55ee	0.24446842
59	0x3e7b14c6	0.24519643
60	0x3d9c8e44	0.076443225
61	0xbd13dbcd	-0.03609829
62	0xbe96bbd6	-0.29440182
63	0x3e0990aa	0.13434091
64	0x3e60a39c	0.21937412
65	0x3df43bfa	0.11925502
66	0xbe5ebcfc	-0.2175178
67	0xbebc9493	-0.36832103
68	0xbebe4674	-0.37163126
69	0xbdfadda8	-0.12249309
70	0x3ede51d4	0.43421805
71	0x3ed2fc5c	0.4120816
72	0x3edc4873	0.43024024
73	0xbea7b692	-0.32756478
74	0x3eba7af4	0.3642193
75	0xbe783b5c	-0.24241394
76	0x3e48bcfa	0.19603339
77	0x3e80006e	0.25000328
78	0x3da1b442	0.078957096
79	0x3d80df3a	0.06292577
80	0xbec88b5c	-0.39168823
81	0xbe5aa64a	-0.21352497
82	0x3ea20d57	0.31650802
83	0xbeabbcc1	-0.33542445
84	0xbe2717a1	-0.16317607
85	0x3e86120f	0.26185653
86	0x3e9794e8	0.29605794
87	0x3ceb59e6	0.02872939
88	0xbeaad187	-0.33362982
89	0xbe56f07a	-0.20990172
90	0xbe97ced0	-0.29649973
91	0x3e7d19f3	0.2471693
92	0xbd4fa2db	-0.05069242
93	0x3ec47a4b	0.38374552
94	0xbe59a641	-0.21254827
95	0x3e9c5d2f	0.30539843
96	0xbe43e34b	-0.19129674
97	0xbe9fe048	-0.312258
98	0xbeb61aa4	-0.355672
99	0xbea0a25d	-0.31373873
100	0x3ddc9344	0.10770276
101	0xbec16756	-0.37774152
102	0x3d9289ed	0.071552135
103	0x3ecc1e06	0.39866656
104	0xbe6ea6a1	-0.23305751
105	0x3e94b14e	0.29041523
106	0x3e6b1c46	0.22960004
107	0xbe631189	-0.22174658
108	0xbd194c34	-0.03742619
109	0xbed35e6d	-0.4128298
110	0xbefeb168	-0.49744725
111	0x3e69d5b0	0.22835422
112	0x3eecc567	0.46244356
113	0xbdbe1cc5	-0.09282831
114	0x3eeed9a0	0.4665041
115	0xbe40931e	-0.18806121
116	0xbd6ef25c	-0.0583366
117	0xbe7d9c80	-0.24766731
118	0xbd959f6c	-0.07305798
119	0xbefac005	-0.48974624
120	0x3ee79914	0.45233977
121	0xbed8cb07	-0.42342398
122	0x3e969202	0.2940827
123	0xbecbd809	-0.3981326
124	0xbe1c70f8	-0.15277469
125	0xbea263b7	-0.317167
126	0xbe45603a	-0.19274989
127	0x3e50938a	0.20368782

VAE_Encoder.layers.0.linear1.weight f4 [4, 128]
0	0x3d1f78b0	0.038933456
1	0xbed963bc	-0.42458904
2	0xbde7fd85	-0.11327652
3	0xbcd4a9d5	-0.025959888
4	0xbaf3bfdd	-0.0018596608
5	0xbdd31155	-0.1030604
6	0xbded0c7c	-0.11574647
7	0x3b0a2f09	0.0021085164
8	0xbde0a8f8	-0.10969728
9	0xbd23eaad	-0.040018726
10	0xbd8527e1	-0.06501747
11	0xbd420b18	-0.04737386
12	0xbdb2f77e	-0.08738612
13	0x3ce8b9a5	0.028408835
14	0x3db937f6	0.09043877
15	0x3c91ab41	0.017781856
16	0xbdf5c359	-0.1200015
17	0x3dab3670	0.083599925
18	0x3d14e3de	0.036350124
19	0x3d0a3f16	0.03375157
20	0x3d60f7fe	0.054924004
21	0xbc8da19b	-0.017288974
22	0x3d3c5736	0.04598161
23	0x391f6cf5	0.00015204011
24	0xbd9be6a7	-0.07612353
25	0xbdef8690	-0.11695588
26	0xbcb0a88d	-0.021564746
27	0x3b486bc4	0.0030581811
28	0xbc793cf3	-0.015212285
29	0xbd160235	-0.0366232
30	0x3b8736d2	0.004126408
31	0x3d824173	0.0636014
32	0x3dc7a326	0.09747915
33	0xbdf1a8ca	-0.11799772
34	0xba25462c	-0.0006304707
35	0x3c65cd4f	0.014026
36	0x3da6b22a	0.08139451
37	0x3c767b9d	0.01504412
38	0x3d3cc5da	0.046087123
39	0x3dbb583c	0.09147689
40	0x3ce7dfee	0.02830502
41	0xbcdbc5c0	-0.026827693
42	0xbda348c4	-0.07972863
43	0xbd35a70d	-0.044348765
44	0xbcb71dff	-0.02235317
45	0x3c9ab8b6	0.018886905
46	0x3dcba2a8	0.099431336
47	0x3da65082	0.081208244
48	0xbce1fda4	-0.027586766
49	0xbccc83d8	-0.024965212
50	0xbd4ef49e	-0.050526254
51	0xbe723b24	-0.23655373
52	0xbc22f85e	-0.009946911
53	0xbc4b266a	-0.012399295
54	0x3d26fd9f	0.040769216
55	0x3bbffd81	0.0058590774
56	0x3d2a15e3	0.04152478
57	0xbe14d337	-0.14533697
58	0xbd902def	-0.07040011
59	0x3b9b4d60	0.0047394484
60	0xbd144fae	-0.0362088
61	0x3d64a68f	0.055822905
62	0x3d85b710	0.06529057
63	0xbd971722	-0.07377459
64	0x3b370ce8	0.0027931277
65	0xbd40f288	-0.047106296
66	0xbc1ad7e0	-0.009450883
67	0xbd1371aa	-0.03599707
68	0xbd82b9da	-0.063831046
69	0x3d8a9c93	0.067681454
70	0xbd1768b7	-0.0369651
71	0xbd82c4b6	-0.06385176
72	0xbd96a2a9	-0.07355244
73	0x3d8baf7f	0.068205826
74	0xbda8645c	-0.08222267
75	0xbe1f6a09	-0.15567793
76	0x3d8d7de6	0.06908779
77	0x3dd5e113	0.1044332
78	0x3de241f4	0.11047736
79	0xbd422e1c	-0.047407255
80	0xbb1c9368	-0.0023891572
81	0xbda17763	-0.07884099
82	0x3dd5f21d	0.1044657
83	0x3b99f3e7	0.004698265
84	0xbdd5abc5	-0.10433153
85	0xbd96585b	-0.07341071
86	0x3d3d8ff3	0.04627986
87	0x3d63247c	0.055454716
88	0xbd154170	-0.03643936
89	0x3d60c79b	0.05487786
90	0xbbb38c3d	-0.005479364
91	0xbd9dd750	-0.07707083
92	0xbdcedf8f	-0.10101234
93	0xbd7a0407	-0.061038997
94	0xbd494010	-0.04913336
95	0xbc8f24e0	-0.017473638
96	0xbd35248b	-0.044224303
97	0xbdfbee3e	-0.123013005
98	0x3de1a1c1	0.1101718
99	0xbd9f60df	-0.077821486
100	0xbc9d4ed1	-0.019202622
101	0xbc06f85a	-0.008237923
102	0x3d5e790e	0.054314665
103	0xbce9046e	-0.028444495
104	0xbdd775d5	-0.105205216
105	0xbdc0cb51	-0.094137795
106	0xbd9e5713	-0.07731452
107	0x3c815865	0.01578922
108	0xbdd78d45	-0.10524992
109	0xbdae509a	-0.08511467
110	0xbd64a3a1	-0.05582011
111	0xbcac568b	-0.02103736
112	0xbce95294	-0.02848176
113	0xbd5a1319	-0.05324087
114	0xbda97aaa	-0.082753494
115	0xbd42a4e0	-0.04752052
116	0x3dc8bf1a	0.09802075
117	0xbbb58384	-0.0055393595
118	0xbda37c60	-0.07982707
119	0xbd6ce146	-0.057832025
120	0x3ba41444	0.0050072987
121	0xbc429361	-0.011875958
122	0x3d301858	0.042991966
123	0x3d5cde57	0.053922977
124	0xbcdc4d23	-0.02689225
125	0x3d459ffa	0.04824827
126	0xbc90e638	-0.017687902
127	0x3d2ef43d	0.042713393
128	0x3db3ea2c	0.08784899
129	0x3e63048b	0.22169702
130	0x3b813e27	0.0039441767
131	0xbd697c83	-0.05700351
132	0x3d91a24a	0.07111032
133	0xbd4c7f89	-0.049926315
134	0x3dceb9ea	0.10094054
135	0xbc4503d0	-0.012024835
136	0xbbcecfc6	-0.0063113896
137	0x3d54a852	0.051918335
138	0x3d3dc5c6	0.04633119
139	0xbd746e16	-0.0596753
140	0xbcc9133c	-0.024545304
141	0x3ddae8b6	0.10688917
142	0xbaa26c4a	-0.0012391892
143	0x3d3e1546	0.046407007
144	0x3cba37b1	0.022731634
145	0xbd8c49ab	-0.068499885
146	0x3cad713e	0.021172162
147	0xbdcc355e	-0.099711165
148	0x3c19fdd5	0.009398897
149	0xbda76899	-0.08174247
150	0xbc35c5a1	-0.011094482
151	0x3db7b7ab	0.08970579
152	0x3da76e66	0.08175354
153	0x3c6f11f1	0.01459168
154	0x3b631298	0.0034648534
155	0x3db44593	0.08802333
156	0x3daf12c9	0.08548505
157	0x3d94a483	0.072579406
158	0xbc13b0e1	-0.009014339
159	0xbd23607d	-0.03988694
160	0x3d28d870	0.041222036
161	0x3c76d948	0.015066452
162	0xbe0a7d89	-0.1352445
163	0x3d6ed75b	0.058310848
164	0x3c7c401b	0.015396143
165	0xbd91186c	-0.07084736
166	0xbd2c3754	-0.042044953
167	0xba4439c1	-0.00074854126
168	0xbdf65fe4	-0.120300084
169	0xbc9603ea	-0.018312413
170	0x3b8202df	0.0039676274
171	0x3cb099ce	0.021557715
172	0x3d99d066	0.07510452
173	0xbdb6ccdb	-0.08925792
174	0xbc706bf4	-0.0146741755
175	0x3c945762	0.018108074
176	0x39b06491	0.00033644264
177	0x3d82f19c	0.063937396
178	0xbcc598d3	-0.024120724
179	0x3c96428e	0.018342283
180	0xbd1a4674	-0.037664846
181	0x3c7b7ffd	0.015350339
182	0x3d77ef84	0.060531154
183	0xbdc3022a	-0.09521897
184	0x3c595ddf	0.0132670095
185	0xbdf3c041	-0.11901904
186	0xbd81f9b5	-0.06346456
187	0x3d8efb51	0.069815286
188	0xbc5163a7	-0.012780107
189	0xbb8d5766	-0.004313397
190	0xbda24a4c	-0.07924327
191	0x3dade6b1	0.084912665
192	0xbd109ee3	-0.035307776
193	0xbc409213	-0.011753577
194	0xbdb1e4ea	-0.0868624
195	0xbb37a64c	-0.0028022705
196	0xbd4d0c4b	-0.05006055
197	0xbd59e203	-0.053194057
198	0xbd546ede	-0.051863544
199	0xbc0466bb	-0.0080811335
200	0xbd6ea398	-0.058261484
201	0x3d2e7fa8	0.04260221
202	0x3d96f42f	0.07370793
203	0xbce747a7	-0.028232409
204	0x3cb038a7	0.021511389
205	0x3d23072e	0.03980177
206	0x3dbcdf07	0.092222266
207	0xbd8b6cca	-0.06807859
208	0x3d95ba8c	0.073109716
209	0x3d8da84e	0.06916867
210	0x3c7ae3f3	0.015313136
211	0xbcb5e471	-0.022203656
212	0x3d2027d1	0.039100472
213	0x3ca787b0	0.020450443
214	0xb90e911d	-0.00013596234
215	0x3ccb57d0	0.024822146
216	0x3b7ffa17	0.0039058977
217	0x3d731a85	0.059351463
218	0x3d853a34	0.06505242
219	0x3d19e3dc	0.03757082
220	0xbc152eee	-0.009105427
221	0x3d49631d	0.049166787
222	0xbd40e412	-0.047092505
223	0x3d932af5	0.07185928
224	0xbd22b3db	-0.039722305
225	0x3d1cc866	0.038277052
226	0x3d017534	0.031605914
227	0xbdaf8192	-0.085696355
228	0xbda3be51	-0.07995284
229	0x3ca7e573	0.020495152
230	0xbcbf7a3d	-0.023373717
231	0xbcb39299	-0.02192049
232	0x3c2483b8	0.01004117
233	0x3c3b3e39	0.011428409
234	0x3db25e62	0.08709408
235	0xbc82536a	-0.015908916
236	0x3ccfa2f2	0.025346253
237	0x3e057bf7	0.1303557
238	0x3d0e301e	0.034713857
239	0xbce59d67	-0.028029157
240	0xbdcfeb80	-0.1015234
241	0xbda0f49b	-0.07859155
242	0xbd893bc3	-0.06700852
243	0x3daf0edf	0.08547758
244	0xbd5676a8	-0.052359253
245	0x3c1a747d	0.009427187
246	0x3da863d6	0.08222167
247	0x3d70f1b3	0.058824252
248	0xbd26a976	-0.040688954
249	0x3d4543ba	0.048160292
250	0xbd7e165f	-0.062033053
251	0x3c2ae771	0.0104311565
252	0x3cf266b2	0.029589985
253	0x3c126a2e	0.008936448
254	0x3db85c0f	0.09001934
255	0x3c74d330	0.014942929

VAE_Encoder.layers.0.linear1.bias f4 [4]
0	0x3d9013b2	0.070350066
1	0x3cca6ffb	0.0247116
2	0x3d6949c1	0.056955103
3	0xbd62bf48	-0.0553582

VAE_Encoder.layers.0.norm1.weight f4 [4]
0	0x3f8ce3f7	1.1007069
1	0x3f83a3d6	1.0284374
2	0x3f840697	1.0314511
3	0x3f89bc37	1.0760564

VAE_Encoder.layers.0.norm1.bias f4 [4]
0	0x3cb70641	0.02234185
1	0x3ca8da62	0.020611946
2	0x3d11e85f	0.035621997
3	0xbd643719	-0.055716608

VAE_Encoder.layers.1.attention.W_q.weight f4 [4, 4]
0	0x3ec3e074	0.38257182
1	0xbe6e6433	-0.2328041
2	0x3edc0c5c	0.4297818
3	0x3e383441	0.17988683
4	0x3ec298e2	0.38007265
5	0xbe18dd5e	-0.14928195
6	0xbe8675d4	-0.2626177
7	0x3b9b31d2	0.0047361637
8	0xbe442e36	-0.19158253
9	0xbe9f3484	-0.31094754
10	0xbebadaef	-0.36495158
11	0xbd9afa20	-0.07567239
12	0xbefdd09e	-0.49573225
13	0x3e9e58fa	0.3092726
14	0x3de8652c	0.11347422
15	0x3e9a056b	0.3008226

VAE_Encoder.layers.1.attention.W_q.bias f4 [4]
0	0xbc198695	-0.009370466
1	0xbbb0fe92	-0.005401441
2	0xbc609af5	-0.01370882
3	0xbbc5619f	-0.0060236

VAE_Encoder.layers.1.attention.W_k.weight f4 [4, 4]
0	0xbf0097cb	-0.5023162
1	0xbd5d53e3	-0.05403508
2	0x3ebda214	0.37037718
3	0x3e34f5de	0.17671916
4	0x3eb2fe83	0.34959802
5	0x3e9057eb	0.28192076
6	0xbbc519e0	-0.0060150474
7	0x3ee7bc5d	0.45260897
8	0xbe017d75	-0.12645514
9	0x3e5ca4ba	0.21547213
10	0x3e8d75a9	0.2762883
11	0xbbd349d6	-0.006448011
12	0xbeb9c492	-0.36282784
13	0xbe9c2adf	-0.30501458
14	0x3ea940ca	0.33057243
15	0x3ec91027	0.39270136

VAE_Encoder.layers.1.attention.W_k.bias f4 [4]
0	0xbb4180e9	-0.00295263
1	0x392af7b0	0.00016304734
2	0xb95f7e13	-0.00021313904
3	0x3abc2a43	0.0014355857

VAE_Encoder.layers.1.attention.W_v.weight f4 [4, 4]
0	0x3e07c6ce	0.13259432
1	0xbea59466	-0.32339782
2	0x3ecd639a	0.40115052
3	0xbef162ab	-0.4714559
4	0x3ea54df2	0.3228603
5	0x3eb0ce2e	0.34532303
6	0x3e958bca	0.29208213
7	0x3e89a644	0.26884663
8	0xbec1c985	-0.3784906
9	0xbed3e252	-0.41383606
10	0xbda435f8	-0.08018106
11	0x3e58f386	0.21186647
12	0xbd98a225	-0.074528016
13	0xbec91771	-0.39275697
14	0x3e8921e5	0.26783672
15	0x3dbbda2f	0.091724746

VAE_Encoder.layers.1.attention.W_v.bias f4 [4]
0	0xbbc889b7	-0.0061199325
1	0x3c930a31	0.017949196
2	0xbcd36870	-0.025806636
3	0x3c04acde	0.008097855

VAE_Encoder.layers.1.linear0.weight f4 [128, 4]
0	0xbe6a06af	-0.22854112
1	0x3e482620	0.19545794
2	0x3e4f16d0	0.20223546
3	0x3ed1b56c	0.40958726
4	0x3e92802a	0.28613406
5	0x3d795c64	0.060879126
6	0x3ec72c4f	0.38900992
7	0xbe71d93c	-0.23618025
8	0x3f03d9ac	0.51504016
9	0xbef5a61e	-0.479783
10	0xbef63dfa	-0.4809416
11	0xbdd2437e	-0.10266779
12	0x3ed1c36b	0.40969405
13	0xbecfcaeb	-0.40584502
14	0xbdf927db	-0.12165805
15	0xbddd3c5d	-0.10802529
16	0xbd13f853	-0.036125492
17	0xbed99109	-0.42493466
18	0xbe27d4c0	-0.16389751
19	0x3ed88c08	0.42294335
20	0xbe8a7732	-0.27044064
21	0xbe8322d0	-0.25612497
22	0xbd0b173f	-0.033957716
23	0x3e9d7902	0.30756384
24	0xbe39636b	-0.18104331
25	0xbe10fc91	-0.14158846
26	0x3e8d43fc	0.2759093
27	0xbe865813	-0.2623907
28	0x3ce8e7f6	0.02843092
29	0x3ec77cf8	0.3896253
30	0x3ebb699a	0.36604005
31	0x3f05b4ed	0.52229196
32	0x3d7f8efb	0.062392216
33	0xbf0332e9	-0.5124956
34	0xbe068c8d	-0.13139553
35	0xbe6d4fe2	-0.23175004
36	0xbe49f018	-0.19720495
37	0x3e10e3e7	0.14149438
38	0xbe03fc4a	-0.1288921
39	0xbdaa3b4d	-0.08312092
40	0x3e0f736a	0.1400887
41	0x3ca57789	0.0201986
42	0xbe98ecb9	-0.29868105
43	0xbeb4c511	-0.353066
44	0x3e6076ec	0.21920365
45	0x3e87fe69	0.26561287
46	0xbefbfaf0	-0.49214888
47	0x3ce8b003	0.028404241
48	0xbd74f6d4	-0.059805706
49	0x3ea025fc	0.3127898
50	0xbe876054	-0.2644068
51	0xbef80ddb	-0.4844807
52	0x3ee9b5ca	0.45646507
53	0x3efa61ec	0.48902833
54	0x3d3e5d18	0.0464755
55	0x3e14bcc7	0.14525138
56	0xbeab45e7	-0.3345177
57	0xbf120817	-0.57043594
58	0x3e775893	0.24154882
59	0x3ee765f4	0.45194972
60	0xbdc4c7ab	-0.09608396
61	0xbf04eb6d	-0.5192173
62	0x3e366e8a	0.17815605
63	0x3ef278d8	0.4735782
64	0xbe33a4e3	-0.17543368
65	0xbea4a06a	-0.32153636
66	0xbd10cd9d	-0.035352338
67	0x3e2e8a1e	0.17044875
68	0xbbcc475c	-0.0062340926
69	0xbed7fbba	-0.4218424
70	0xbe0dc101	-0.13843156
71	0xbebe4e85	-0.3716928
72	0xbe8efa6f	-0.2792544
73	0x3d6cf43e	0.057850115
74	0xbda3c498	-0.07996482
75	0xbf056840	-0.521122
76	0x3e64a432	0.2232826
77	0xbe4b24db	-0.19838278
78	0x3e118b56	0.14213309
79	0xbf039937	-0.5140566
80	0xbdf9ce66	-0.121975705
81	0x3efc1cc6	0.49240702
82	0xbea122ce	-0.31471866
83	0xbed27a74	-0.4110905
84	0x3d85914f	0.06521856
85	0xbe2b9c42	-0.16758826
86	0x3e3b1841	0.18270971
87	0xbe9691ca	-0.29408103
88	0xbee6126f	-0.4493594
89	0xbdbf3a4e	-0.093372926
90	0xbdfa4c24	-0.12221554
91	0xbd752b16	-0.059855543
92	0xbec423f6	-0.38308686
93	0x3ee6bcde	0.4506597
94	0x3c103e26	0.00880388
95	0x3deb2cd3	0.11483159
96	0x3c6769bc	0.01412433
97	0x3e7e1c66	0.2481552
98	0x3e7d9cdd	0.2476687
99	0xbeea461d	-0.45756617
100	0xbeb824ba	-0.3596552
101	0x3eb437ca	0.35198814
102	0xbebca91b	-0.36847767
103	0x3e1f326c	0.15546578
104	0xbea0ffc3	-0.3144513
105	0xbef315df	-0.47477624
106	0xbd199b1f	-0.03750145
107	0x3ea40818	0.32037425
108	0x3d522365	0.051303286
109	0x3e9def59	0.3084667
110	0x3df96291	0.12177003
111	0xbe2c1f9e	-0.16808936
112	0x3e821508	0.2540667
113	0x3e06f63f	0.13179873
114	0xbe9683d4	-0.29397452
115	0xbe1f9c50	-0.15586972
116	0xbde0b96a	-0.10972865
117	0x3ede623f	0.4343433
118	0xbe15b0ce	-0.14618227
119	0xbe82bd90	-0.2553525
120	0x3ef5aa2f	0.47981402
121	0x3e29421a	0.16529122
122	0xbe284734	-0.16433412
123	0x3ebd8f43	0.37023363
124	0x3e68e39e	0.22743079
125	0x3ed6fbf4	0.419891
126	0x3ed451ad	0.41468564
127	0x3e22057a	0.15822402
128	0xbf11a1b0	-0.5688734
129	0x3bae41db	0.005317909
130	0xbeb9a63d	-0.36259642
131	0x3f031456	0.51202905
132	0x3b0c94b2	0.0021450934
133	0xbe4f7403	-0.20259099
134	0xbefc3a87	-0.49263403
135	0xbe5646ff	-0.2092552
136	0x3ec0769a	0.37590486
137	0x3e72d554	0.2371419
138	0x3ea3e5be	0.32011217
139	0x3e93890a	0.2881549
140	0xbe2021a8	-0.15637839
141	0x3e63b79e	0.22238013
142	0x3ed3c7b2	0.41363293
143	0xbdf94883	-0.12172034
144	0x3ee5c016	0.44873112
145	0x3eb73f42	0.3579045
146	0xbed132f7	-0.40859196
147	0x3eb4d6c5	0.35320106
148	0xbef34326	-0.47512168
149	0x3f0284e6	0.50984037
150	0x3e9dd38e	0.30825466
151	0x3ed0f197	0.40809318
152	0xbebbbec9	-0.36668995
153	0x3e5f115c	0.21783966
154	0x3e846bf2	0.25863606
155	0x3e326586	0.1742154
156	0x3e42d936	0.19028172
157	0x3e404a1c	0.1877827
158	0x3f03b276	0.51444185
159	0xbe8dfa29	-0.2772992
160	0xbf02d549	-0.511067
161	0x3cb1d8c1	0.021709802
162	0xbe556b89	-0.20841803
163	0x3c59dadb	0.013296808
164	0x3eeb01a9	0.45899704
165	0x3ef71aab	0.48262534
166	0x3ee77881	0.45209125
167	0xbea1c71c	-0.3159722
168	0x3ba60f00	0.005067706
169	0xbe68ab08	-0.22721493
170	0xbe3d84a4	-0.1850763
171	0xbd0c40b0	-0.03424138
172	0x3ef06a29	0.46955994
173	0xbd8d504a	-0.069000795
174	0xbe20c873	-0.15701465
175	0xbe0b4a48	-0.13602555
176	0x3e6c7c94	0.23094398
177	0x3e77831d	0.2417111
178	0xbec5abab	-0.38607535
179	0xbef5852d	-0.47953168
180	0x3d251b1e	0.040309064
181	0x3ddb0e3b	0.106960736
182	0xbea53cfe	-0.32273096
183	0x3e3396db	0.17538016
184	0x3e32f462	0.17476037
185	0xbee30ad7	-0.44344208
186	0x3e7c6e22	0.24651387
187	0x3e43ab1f	0.19108246
188	0x3e49516d	0.19659968
189	0xbe21c429	-0.15797485
190	0xbe301730	-0.17196345
191	0xbe82536d	-0.25454274
192	0x3e248282	0.1606541
193	0xbe68d72d	-0.22738333
194	0xbe2d37ce	-0.16915819
195	0xbee441c1	-0.44581416
196	0x3e278ea6	0.1636301
197	0x3eebea4f	0.460772
198	0xbe93cad0	-0.2886567
199	0x3ee0ef6e	0.4393267
200	0xbe82f7e5	-0.25579754
201	0xbde34c97	-0.11098593
202	0x3ee57cfd	0.4482192
203	0x3a449268	0.0007498623
204	0xbdea9ae8	-0.11455327
205	0xbf0bc682	-0.54599774
206	0xbead4d9e	-0.3384828
207	0x3dd50ddc	0.10403034
208	0x3ead05db	0.3379353
209	0xbd9e69d5	-0.077350296
210	0x3d57f172	0.052720495
211	0xbe404707	-0.18777095
212	0xbd88bfd6	-0.06677215
213	0x3e7803fd	0.24220271
214	0x3e94a3ff	0.2903137
215	0x3dd5856e	0.1042584
216	0x3e04a1c6	0.12952337
217	0xbe880254	-0.26564276
218	0x3eef460c	0.4673313
219	0x3e01a92e	0.12662193
220	0x3e5e9601	0.2173691
221	0x3e867e1b	0.26268086
222	0xbf1e86b2	-0.6192428
223	0x3eceb2b1	0.40370706
224	0xbdd4534f	-0.10367452
225	0x3df763dd	0.12079594
226	0xbecc61c2	-0.39918333
227	0xbc997bdd	-0.01873582
228	0x3d82a8f6	0.06379883
229	0x3e5ee6e6	0.21767768
230	0xbeed8461	-0.4639006
231	0x3e7a53ef	0.2444608
232	0xbd3430e5	-0.043991942
233	0x3e7d5555	0.24739583
234	0xbc34096f	-0.010988577
235	0x3e0a6465	0.1351486
236	0x3ddc7f3d	0.10766456
237	0x3eb1c8a2	0.34723383
238	0x3dcf760d	0.10129938
239	0x3d9924a1	0.074776895
240	0x3edc6a20	0.43049717
241	0xbebcf5d4	-0.36906302
242	0xbd92090d	-0.071306325
243	0x3d94dac8	0.07268292
244	0xbe8ccd5a	-0.2750042
245	0x3ec2e6cf	0.38066718
246	0x3eb18ace	0.34676212
247	0x3e29d474	0.1658495
248	0x3db5679f	0.08857655
249	0xbe25fa1b	-0.16208689
250	0xbe9f216b	-0.31080183
251	0xbecd315c	-0.4007672
252	0xbf139da6	-0.5766243
253	0xbe15e400	-0.14637756
254	0xbeca8c58	-0.395602
255	0x3ec211b9	0.37904146

VAE_Encoder.layers.1.linear0.bias f4 [128]
0	0x3dcbee59	0.099575706
1	0x3ec330c9	0.38123158
2	0x3eed4a08	0.46345544
3	0xbc8b1ab9	-0.016980516
4	0xbeb0b708	-0.34514642
5	0x3eda2a03	0.42610177
6	0x3e9c1315	0.30483308
7	0xbe50a9c7	-0.20377265
8	0x3e6b5363	0.22981028
9	0xbd88d21d	-0.06680701
10	0x3e4c7854	0.19967777
11	0xbedb5412	-0.42837578
12	0x3e1c8d43	0.15288262
13	0xbe4dd7b5	-0.20101817
14	0x3e22adf4	0.1588667
15	0xbd9bb1a4	-0.07602242
16	0x3dbbe92c	0.091753334
17	0x3ef36acd	0.4754242
18	0x3dbc6ecd	0.09200821
19	0x3eb34f86	0.3502161
20	0x3e2cf811	0.16891505
21	0xbe9f1bfc	-0.31076038
22	0x3d63a715	0.055579264
23	0xbf00d721	-0.5032826
24	0xbf00dfab	-0.5034129
25	0xbed2ac9b	-0.41147313
26	0xbe98eba1	-0.2986727
27	0xbec3833a	-0.38186055
28	0x3eb0e7f5	0.3455197
29	0x3ebc6c26	0.3680126
30	0x3df04fcb	0.11733969
31	0xbed81eea	-0.42211086
32	0x3e3dc5ec	0.18532532
33	0x3dff927f	0.12479114
34	0xbed3c8de	-0.41364187
35	0xbec51c83	-0.38498315
36	0x3cd98935	0.026554683
37	0x3cb7a92a	0.02241953
38	0xbe51463c	-0.20436949
39	0xbef53276	-0.4789006
40	0x3dce5928	0.10075599
41	0xbedfea75	-0.43733564
42	0xbefc717a	-0.49305326
43	0x3e564e20	0.2092824
44	0xbe8fde89	-0.28099468
45	0x3e9278cc	0.28607786
46	0x3e973a39	0.29536608
47	0x3ed25911	0.41083577
48	0xbcb4cb1a	-0.022069503
49	0x3edf0d80	0.43564987
50	0xbe8e2e7b	-0.27769837
51	0x3ec02046	0.37524623
52	0x3dc6bf39	0.097044416
53	0x3d2f03d9	0.04272828
54	0xbe63c16b	-0.22241752
55	0xbedf26c9	-0.43584278
56	0xbc86b4fd	-0.016443724
57	0xbe349fce	-0.17639086
58	0x3f0314b9	0.51203495
59	0xbd245daf	-0.040128406
60	0x3eaed477	0.34146473
61	0xbe3c1fa5	-0.18371446
62	0x3eda8c72	0.42685276
63	0xbdc63923	-0.09678867
64	0x3e7f1212	0.24909237
65	0xbdcf9b53	-0.101370476
66	0xbcd9bfee	-0.026580777
67	0xbd5c78e4	-0.053826228
68	0xbde18ee0	-0.11013579
69	0x3ebcba66	0.3686096
70	0x3e8fa081	0.28052142
71	0x3e7343cf	0.23756336
72	0x3e7def3a	0.24798289
73	0x3ee2d418	0.4430244
74	0x3debdb05	0.11516384
75	0xbdc9ad8d	-0.09847555
76	0xbe847c7f	-0.25876233
77	0xbe1bdf5e	-0.15221927
78	0xbe06683e	-0.13125703
79	0xbd407780	-0.046988964
80	0x3e88a24e	0.2668633
81	0x3e377209	0.17914595
82	0x3da97c22	0.082756296
83	0x3e2735af	0.16329072
84	0x3f00c1e8	0.5029588
85	0xbf07c70b	-0.5303809
86	0x3e673114	0.22577316
87	0xbdcb8010	-0.09936535
88	0x3ea3f8c6	0.32025737
89	0x3e50c284	0.20386702
90	0x3ec1c09b	0.3784226
91	0x3ea9ae41	0.33140758
92	0x3e0b5b36	0.13609013
93	0x3e733e70	0.23754287
94	0x3e883a7a	0.26607114
95	0x3db72ab3	0.08943691
96	0xbe2e072d	-0.16994925
97	0x3dff0e3c	0.12453887
98	0xbdd326fd	-0.10310171
99	0xbea3c421	-0.31985572
100	0x3e9429bd	0.28938094
101	0x3eac1313	0.33608302
102	0xbd63d62c	-0.055624172
103	0x3c270cd3	0.010195929
104	0xbe6b1dac	-0.22960538
105	0x3f0523c4	0.520077
106	0xbe3f8b13	-0.18705396
107	0x3e9d458c	0.30717123
108	0xbe925012	-0.28576714
109	0x3e42fc1c	0.19041485
110	0xbd36180e	-0.044456534
111	0x3f02e833	0.5113556
112	0xbe4a04ba	-0.19728366
113	0x3ec96e5b	0.39342007
114	0x3e8185bc	0.25297344
115	0x3ddd2bf6	0.107994005
116	0xbcd85ae9	-0.026410537
117	0x3caad974	0.020855643
118	0xbea80eb2	-0.32823712
119	0xbde720c3	-0.11285546
120	0x3d5a04ad	0.053227115
121	0xbeb5c74f	-0.35503623
122	0xbedcd95c	-0.43134582
123	0x3e948cea	0.2901376
124	0xbe8973f9	-0.26846293
125	0x3dea1cda	0.11431284
126	0xbe0591b1	-0.13043858
127	0xbe82f04e	-0.25573963

VAE_Encoder.layers.1.linear1.weight f4 [4, 128]
0	0xbd51f43d	-0.051258314
1	0x3d83b03b	0.06430098
2	0x3de1a869	0.1101845
3	0x3df40e09	0.119167395
4	0xbd1774d7	-0.03697666
5	0x3dadae5f	0.08480524
6	0xbbe94b16	-0.0071195466
7	0xbd6903af	-0.05688828
8	0x3da97677	0.082745485
9	0x3c8d0f3e	0.017219182
10	0xbd7a4b2d	-0.06110685
11	0xbdd102c4	-0.102056056
12	0xbd9d8bc0	-0.07692671
13	0xbcbcfefa	-0.023070801
14	0xbc9d3891	-0.019192012
15	0x392cba67	0.00016472639
16	0x3df5dce2	0.12005021
17	0xbd8a9310	-0.06766331
18	0xbd9dc932	-0.077043906
19	0x3cfe33cb	0.031030556
20	0x3a976c4f	0.0011552664
21	0xbd30d001	-0.043167118
22	0xbcd66d4e	-0.026175167
23	0xbd54d597	-0.051961508
24	0x3cc09cb6	0.023512226
25	0x3d5e88fb	0.054329854
26	0xbd4c0e79	-0.04981849
27	0xbdadcba7	-0.08486109
28	0xbd25862b	-0.040411156
29	0xbc33e454	-0.010979731
30	0xbcd0a8bf	-0.02547109
31	0xbd818b53	-0.06325402
32	0x3c395b2f	0.011313244
33	0xbcc276b7	-0.023738248
34	0xbbb4dfea	-0.0055198567
35	0xbd6093d2	-0.054828472
36	0x3d1331b3	0.03593607
37	0x3d2689f2	0.0406589
38	0x3d3b5e41	0.045744184
39	0xbcdd5417	-0.027017636
40	0x3c67df13	0.014152306
41	0xbd35a231	-0.04434413
42	0xbd9c2772	-0.07624711
43	0x3d8b5cdb	0.0680482
44	0xbced9670	-0.029002398
45	0xbd998863	-0.07496717
46	0x3d4ecfc6	0.050491117
47	0xbce2ec63	-0.027700609
48	0x3cdbf8fc	0.026852123
49	0xbce24cef	-0.027624575
50	0xbb18f6f4	-0.0023340555
51	0x3cb7bcba	0.022428859
52	0xbd1c8431	-0.038212005
53	0x3d3d1bce	0.046169095
54	0xbc39d311	-0.011341826
55	0xbe654022	-0.22387746
56	0xbc91f623	-0.017817562
57	0xbe7daedc	-0.24773735
58	0xbd57e4d0	-0.052708447
59	0x3d21ba33	0.039484214
60	0x3dcd0184	0.10010055
61	0x3da98c8a	0.08278759
62	0xbca4213c	-0.020035379
63	0xbdc410c4	-0.0957351
64	0xbd258c63	-0.040417086
65	0xbcb10792	-0.021610055
66	0xbd907552	-0.07053627
67	0x3d9390b3	0.072053336
68	0xbd17eec5	-0.037092943
69	0x3cfe2a78	0.03102611
70	0x3d6b4258	0.057436317
71	0xbd5deca0	-0.05418074
72	0xbd6665bf	-0.056249376
73	0x3d2ba351	0.041903798
74	0xbc8ccb20	-0.017186701
75	0x3d28b03d	0.0411837
76	0x3d8836fe	0.06651114
77	0xbb032dd2	-0.0020016325
78	0x3dd07ef2	0.10180463
79	0x3da12ad5	0.07869498
80	0xbdb5654d	-0.08857212
81	0xbbadeb1a	-0.0053075673
82	0x3d099d6d	0.0335974
83	0xbca0d157	-0.019631071
84	0xbda06339	-0.07831425
85	0x3eb225dc	0.3479451
86	0xbd462b39	-0.048381064
87	0xbd9a9c83	-0.075493835
88	0xbc212079	-0.009834402
89	0x3d372a4c	0.04471807
90	0x3d83d42c	0.06436953
91	0x3cd8529d	0.02640658
92	0xbccbebf1	-0.024892779
93	0xbd95c7e2	-0.07313515
94	0x3d32539d	0.04353677
95	0x3d056cf1	0.032574598
96	0x3d150834	0.036384776
97	0xbd1ed56f	-0.038777765
98	0x3d5319a2	0.051538117
99	0xbc7fe435	-0.015618374
100	0x3bb8ce9f	0.0056398655
101	0x3ce4bd1f	0.027922211
102	0xbdc4ae7c	-0.09603593
103	0x3c8a75dd	0.016901905
104	0x3d900dbe	0.07033871
105	0x3daed800	0.085372925
106	0xbe160472	-0.14650133
107	0x3d9829b9	0.07429833
108	0x3db1b0b3	0.08676281
109	0xbca8cdc8	-0.020605937
110	0x3d498e73	0.049208116
111	0x3d93b39c	0.07211992
112	0x3d135f79	0.03597972
113	0xbd2c9e09	-0.0421429
114	0x3d0ff377	0.035144296
115	0xbcdf7aa5	-0.027280161
116	0xbde75cc4	-0.112969905
117	0x3d998808	0.07496649
118	0x3d3a2f58	0.045455307
119	0x3de71fda	0.11285372
120	0xbb4f3aa4	-0.0031620646
121	0xbd1f4772	-0.038886495
122	0x3b6279ed	0.0034557537
123	0xbdbf03c6	-0.093268916
124	0x3b8c36bf	0.004278987
125	0x3d32e139	0.04367182
126	0xbd7956b4	-0.060873702
127	0x3d6b80f7	0.057496037
128	0x3ac7989e	0.0015227979
129	0x3cec07c9	0.028812306
130	0xbcad5a8c	-0.02116134
131	0xbdd0532a	-0.10172112
132	0xb7d117ee	-2.4925885e-05
133	0x3c3db943	0.011579814
134	0x3debff9c	0.11523363
135	0xbdbc25fa	-0.09186931
136	0x3cf7af6a	0.030235011
137	0x3cb83e55	0.02249066
138	0xbbc00948	-0.0058604814
139	0x3da1948b	0.078896604
140	0xbd888bf5	-0.0666732
141	0xbdb77780	-0.0895834
142	0xbda0313a	-0.07821889
143	0x3c0bd86f	0.0085354885
144	0xbd5f746c	-0.054554388
145	0x3d94a69b	0.0725834
146	0x3dc837f3	0.097762965
147	0x3e00fbea	0.12596098
148	0xbd8ef62c	-0.06980547
149	0x3e0a7547	0.135213
150	0xbd9e15de	-0.077190146
151	0xbcf5585f	-0.029949365
152	0x3a13e4cc	0.00056416984
153	0xbd923e14	-0.07140747
154	0xbe30fd04	-0.17284018
155	0xbdf82782	-0.121169105
156	0xbdd2b595	-0.1028854
157	0xbd55e655	-0.052221615
158	0xbdbbc785	-0.09168915
159	0xbd1eea58	-0.038797706
160	0xbdedf16e	-0.11618315
161	0x3b9e0387	0.004822198
162	0x3d9b2f34	0.07577363
163	0x3d202141	0.039094213
164	0x3d18b894	0.037285402
165	0xbc0340cd	-0.008011055
166	0xbd3361f3	-0.043794584
167	0x3c869d5c	0.016432457
168	0xbd958c9d	-0.073022105
169	0x3d8a032b	0.067388855
170	0x3d87f69e	0.06638835
171	0xbd8aed47	-0.06783538
172	0x3d0588f8	0.032601327
173	0xbd17d0f9	-0.037064526
174	0x3d716fb1	0.058944408
175	0x3d7328c5	0.059365053
176	0x3d6ba7fd	0.057533253
177	0xbddc96dd	-0.107709624
178	0x3d8f9483	0.07010748
179	0xbdd9b489	-0.106301375
180	0x3dc38797	0.09547346
181	0xbd4f2192	-0.050569125
182	0x3d9edad2	0.077565804
183	0x3e1ba6ed	0.15200396
184	0xbd52caae	-0.05146282
185	0x3e2b91aa	0.16754785
186	0x3d5d6ca7	0.054058697
187	0xbde96d26	-0.113977715
188	0xbd9b26fb	-0.07575794
189	0xbd8334b7	-0.06406539
190	0xbcdaade4	-0.026694246
191	0xbdde763d	-0.10862396
192	0xba895308	-0.0010477016
193	0xbd014212	-0.03155715
194	0xbd3c1554	-0.045918778
195	0x3d136000	0.035980225
196	0xbc884c8f	-0.016638068
197	0xbd649d01	-0.055813793
198	0xbda5030b	-0.08057221
199	0x3dac2619	0.08405704
200	0xbbe4060e	-0.0069587296
201	0x3cc9fa6d	0.024655545
202	0x39663535	0.0002195433
203	0x3de1a183	0.11017134
204	0x3d6fc531	0.058537666
205	0xbcee64df	-0.029100833
206	0x3b8f7efe	0.0043791523
207	0x3ca9cc75	0.020727376
208	0xbe008756	-0.12551627
209	0xbdca25cf	-0.09870493
210	0x3daedf41	0.08538676
211	0xbd7c224e	-0.061556153
212	0xbdc62c07	-0.09676366
213	0x3ec37fa9	0.38183334
214	0x3d8bc949	0.068255015
215	0x3d2dc3a4	0.042422906
216	0xbc52981e	-0.01285365
217	0x3b5c4820	0.0033612326
218	0xbd0cb20c	-0.034349486
219	0xbdb89b5c	-0.090140074
220	0xbde6b7e7	-0.11265545
221	0x3d7b3370	0.06132835
222	0xbd90b5d0	-0.07065928
223	0xbd14c5a5	-0.0363213
224	0x3d09c658	0.03363642
225	0x3dcf79b5	0.10130636
226	0x3dee1f64	0.11627081
227	0x3ca62c46	0.020284783
228	0x3cab629a	0.02092104
229	0xbd8552cc	-0.06509933
230	0xbd00af47	-0.031417158
231	0x3e08d886	0.13363847
232	0xbd832009	-0.064025946
233	0x3d3ae6cf	0.045630272
234	0x3cb33541	0.02187598
235	0xbdbeff89	-0.09326083
236	0xbe326138	-0.17419899
237	0xbb81caa5	-0.0039609247
238	0x3dc6b8af	0.09703194
239	0x3dca0f12	0.09866156
240	0xbe205df7	-0.15660845
241	0x3cb690c4	0.022285827
242	0x3d250036	0.040283404
243	0xbd66bb16	-0.056330763
244	0xbdc338db	-0.09532329
245	0x3d240c47	0.04005077
246	0x3cf64dc4	0.030066378
247	0xbc8de3ef	-0.017320601
248	0xbe1691a5	-0.14703996
249	0x3c7c9d5c	0.015418377
250	0xbd97e539	-0.074167676
251	0xbd507a4b	-0.050897878
252	0xbd0a2445	-0.033725996
253	0xbe122832	-0.14273146
254	0xbd5a5b98	-0.053310007
255	0xbd3bb1ee	-0.045823984

VAE_Encoder.layers.1.linear1.bias f4 [4]
0	0xbd902277	-0.07037824
1	0xbd20ba7b	-0.03924034
2	0xbde4b829	-0.11167938
3	0xbc5add93	-0.0133584915

VAE_Encoder.layers.1.norm1.weight f4 [4]
0	0x3f8d02f0	1.1016521
1	0x3f969626	1.1764572
2	0x3f900ccf	1.1253909
3	0x3f87e968	1.0618105

VAE_Encoder.layers.1.norm1.bias f4 [4]
0	0xbd53c8e3	-0.051705252
1	0x3b9a9ab3	0.0047181486
2	0xbb9f76f6	-0.004866476
3	0x3cf16d9e	0.029471215

VAE_Encoder.layers.1.norm0.weight f4 [4]
0	0x3f80b321	1.0054666
1	0x3f81189a	1.0085633
2	0x3f88f4b6	1.069968
3	0x3f7d0679	0.98838

VAE_Encoder.layers.1.norm0.bias f4 [4]
0	0x3ca1c4e9	0.019747214
1	0x3ca673b4	0.020318843
2	0x3c161e5f	0.0091625145
3	0xba68f77e	-0.0008886977

VAE_Encoder.last_normalization.weight f4 [4]
0	0x3f800000	1.0
1	0x3f800000	1.0
2	0x3f800000	1.0
3	0x3f800000	1.0

VAE_Encoder.last_normalization.bias f4 [4]
0	0x00000000	0.0
1	0x00000000	0.0
2	0x00000000	0.0
3	0x00000000	0.0

VAE_Encoder.head.weight f4 [4, 4]
0	0xbe27d098	-0.16388166
1	0xbed6e7fc	-0.41973865
2	0xbdfb0490	-0.122567296
3	0x3e8c215e	0.27369207
4	0xbe8bf1be	-0.27332872
5	0x3e6a056c	0.22853631
6	0x3ef7f0fe	0.4842605
7	0xbe6b9538	-0.23006141
8	0x3d86b3a0	0.065772295
9	0x3dba1c70	0.09087455
10	0xbe047eb8	-0.12938964
11	0x3e9bc238	0.30421615
12	0xbd5834f0	-0.05278486
13	0x3d091760	0.033469558
14	0xbd9c8468	-0.07642442
15	0x3e2bc4d4	0.16774303

VAE_Encoder.head.bias f4 [4]
0	0x3ee61146	0.44935054
1	0xbec2b1f4	-0.38026392
2	0x3e7d84ac	0.24757642
3	0x3e9644d0	0.29349375
