restsyn/tabsyn/vae/ckpt/cardio/decoder.pt (torch, 21491 bytes, 33 tensors)

VAE_Decoder.layers.0.attention.W_q.weight f4 [4, 4]
0.3604275 -0.09819765 0.19578001 0.335329 0.017176762 0.25881842 -0.24314538 -0.5460617
-0.25927067 -0.17787793 -0.23728548 0.42172226 -0.38814342 0.36080635 -0.038490295 0.30361784
00000000: f489 b83e d91b c9bd 8e7a 483e 3eb0 ab3e
00000010: 48b6 8c3c d983 843e 1afb 78be b3ca 0bbf
00000020: 20bf 84be a225 36be f7fa 72be fbeb d73e
00000030: bcba c6be 9cbb b83e 00a8 1dbd cc73 9b3e

VAE_Decoder.layers.0.attention.W_q.bias f4 [4]
0.042676598 -0.3599855 0.03884348 0.01168251
00000000: a8cd 2e3d 0550 b8be 571a 1f3d 0068 3f3c

VAE_Decoder.layers.0.attention.W_k.weight f4 [4, 4]
0.08161197 0.05417904 -0.1479191 -0.43084773 -0.11995186 -0.26254773 -0.073603824 -0.17390423
0.2721513 0.014132834 0.20473799 -0.094182715 -0.198445 -0.12655044 -0.1604639 0.07605953
00000000: 2d24 a73d d7ea 5d3d 1b78 17be 1398 dcbe
00000010: 52a9 f5bd a86c 86be 9abd 96bd f313 32be
00000020: 6a57 8b3e 678d 673c d6a6 513e dee2 c0bd
00000030: 2b35 4bbe 7096 01be a650 24be 19c5 9b3d

VAE_Decoder.layers.0.attention.W_k.bias f4 [4]
0.00047179993 -0.0009309134 0.0014876398 -0.0030770553
00000000: ea5b f739 8a08 74ba e9fc c23a 6ca8 49bb

VAE_Decoder.layers.0.attention.W_v.weight f4 [4, 4]
-0.04125466 0.120034404 0.08881679 -0.38240266 0.005889607 0.014397159 0.092822865 -0.19554913
-0.011732388 -0.19038826 0.0765571 -0.033345796 0.045783773 0.058004607 0.12104022 -0.16137038
00000000: a5fa 28bd 99d4 f53d 94e5 b53d 48ca c3be
00000010: 9bfd c03b 10e2 6b3c ea19 be3d 083e 48be
00000020: 3439 40bc 24f5 42be f8c9 9c3d 9a95 08bd
00000030: c487 3b3d 3d96 6d3d efe3 f73d 473e 25be

VAE_Decoder.layers.0.attention.W_v.bias f4 [4]
-0.08782451 0.047170125 -0.23613866 0.1590102
00000000: 56dd b3bd 7635 413d 55ce 71be 92d3 223e

VAE_Decoder.layers.0.linear0.weight f4 [128, 4]
-0.4853001 0.531887 -0.21383151 0.25319812 -0.046418753 -0.35330236 -0.4558084 0.3641491
0.052836265 -0.59957695 0.3580382 -0.33904117 0.21804693 -0.27385217 0.25823498 -0.050706454
0.07584268 0.47339118 -0.57904434 0.10063977 0.14973843 0.1417368 -0.4237799 -0.90637016
0.33396178 0.26932338 -0.43892202 -0.0128480485 0.27096748 -0.28048933 0.222642 -0.6773516
-0.32944602 -0.008949329 0.2988961 -0.022683453 -0.016473906 -0.17642361 0.1373994 -0.17629795
0.46722415 -0.29891244 -0.5108687 -0.19745257 0.009034403 -0.37693182 -0.10250514 -0.16433151
-0.08082414 -0.5264205 0.07760461 -0.6762399 0.16325371 0.026066428 0.008522132 0.50763154
-0.45662355 0.10930541 -0.2750096 0.3102211 -0.21297485 0.36503562 0.19642651 0.26534256
-0.2108827 -0.07662696 0.048656113 -0.08445607 -0.10061189 0.2268845 -0.3634643 -0.4368375
-0.28059825 0.06628571 -0.061158795 -0.54473954 -0.5481381 0.5179604 0.5511243 0.3592592
-0.15756427 -0.15746559 -0.035157856 0.23724024 -0.24224448 0.018859785 -0.53145444 -0.48603383
-0.30245635 0.28378484 -0.14230669 -0.4844636 0.57541955 0.11214182 0.27272412 -0.41215342
0.26936284 0.42713848 0.43106326 -0.3243036 -0.21288535 -0.17476644 -0.009061972 0.5141519
0.014800912 0.2458004 0.5083891 -0.4142143 -0.5373827 0.4469442 -0.0054286327 -0.23514898
0.3389785 -0.12804413 0.5823072 -0.56002116 0.49860162 -0.20596647 0.21270095 -0.12125021
0.50596815 0.28458583 0.24638914 -0.40871844 0.06665329 -0.12933025 -0.17398395 0.5649616
-0.47334057 -0.16020654 -0.38011986 -0.1670652 0.11710019 -0.19055896 -0.05734261 0.545296
0.52689195 -0.26290116 -0.14994135 -0.2340948 0.20739235 -0.38678876 0.18173411 -0.4251708
0.111195825 -0.28248242 0.5509635 -0.5842495 0.38351753 0.009068045 -0.07517926 0.5088113
-0.19155674 0.11604887 -0.59658307 -0.32614636 -0.15461436 0.064237975 0.30267876 -0.2655637
0.59928733 0.22523582 0.41620436 -0.55772704 0.34182486 -0.18034278 -0.39833444 0.5446051
0.21689925 0.558891 -0.2510797 0.087665446 -0.37908092 -0.021532267 -0.6359076 0.10607617
0.33467487 -0.08686751 0.13938396 0.41133678 0.23743884 -0.08303014 0.42892876 0.26864323
0.5068206 0.29933333 0.096428715 -0.08134469 0.5131879 0.24026567 -0.21857285 0.014026201
-0.23624137 0.123316936 -0.048622504 0.51309764 0.24462153 0.22008489 -0.25867304 0.18906026
0.26670116 0.23437665 -0.50449824 -0.4974078 -0.0020191474 0.32128245 0.18972063 -0.42443854
-0.19698137 -0.44841585 -0.44846645 0.5423083 -0.34686583 0.349452 0.39232025 0.47847956
0.13844186 -0.27338603 0.24187775 -0.03837793 -0.019262582 0.5209328 -0.46034476 -0.102217
0.39199284 0.098841876 0.04144217 -0.5129223 0.5082021 -0.06554281 -0.2646094 0.09391058
-0.47047228 0.1313467 0.12611938 -0.45179227 0.0012964627 0.57613945 0.17679827 -0.046349823
0.12862734 -0.015226296 -0.37926605 -0.4817785 0.63066965 0.26971558 -0.25350657 0.19901128
0.011646413 0.19707856 -0.071263455 0.27588698 0.2946024 -0.4544045 0.13560516 0.11222096
00000000: 4179 f8be bf29 083f a6f6 5abe 2fa3 813e
00000010: 9721 3ebd 0ce4 b4be b85f e9be c071 ba3e
00000020: d76a 583d e07d 19bf c850 b73e ce96 adbe
00000030: b247 5f3e 5a36 8cbe 6037 843e 92b1 4fbd
00000040: 6853 9b3d 5460 f23e 403c 14bf 391c ce3d
00000050: 0855 193e 7423 113e aef9 d8be e007 68bf
00000060: 0afd aa3e c1e4 893e 63ba e0be 9f80 52bc
00000070: 40bc 8a3e 4c9c 8fbe 44fc 633e ea66 2dbf
00000080: 26ad a8be 35a0 12bc e908 993e a6d2 b9bc
00000090: 49f4 86bc 64a8 34be 6eb2 0c3e 7387 34be
000000a0: 0138 ef3e 0d0b 99be 4bc8 02bf 0231 4abe
000000b0: 0805 143c 35fd c0be 37ee d1bd 8546 28be
000000c0: 2087 a5bd 7ec3 06bf 2aef 9e3d 0f1e 2dbf
000000d0: fb2b 273e 4389 d53c 6aa0 0b3c 24f4 013f
000000e0: 90ca e9be 84db df3d 0fce 8cbe 4dd5 9e3e
000000f0: 1416 5abe f3e5 ba3e 0824 493e fbda 873e
00000100: a2f1 57be 98ee 9cbd a24b 473d 4ef7 acbd
00000110: 9b0d cebd 6954 683e fe17 babe 2aa9 dfbe
00000120: 93aa 8fbe cdc0 873d a581 7abd 0d74 0bbf
00000130: c752 0cbf 0e99 043f 7b16 0d3f d2f0 b73e
00000140: 8758 21be a93e 21be af01 10bd 1bef 723e
00000150: f00e 78be d67f 9a3c 660d 08bf 6dd9 f8be
00000160: 8fdb 9abe 3f4c 913e d8b8 11be 9d0b f8be
00000170: b24e 133f 9caa e53d 7fa2 8b3e c605 d3be
00000180: ede9 893e e5b1 da3e 53b4 dc3e 1f0b a6be
00000190: 9efe 59be f9f5 32be aa78 14bc 759f 033f
000001a0: 867f 723c 1ab3 7b3e ca25 023f e613 d4be
000001b0: ea91 09bf dfd5 e43e ace2 b1bb e5ca 70be
000001c0: 978e ad3e 001e 03be 1612 153f 8c5d 0fbf
000001d0: b648 ff3e e0e8 52be 47ce 593e 0852 f8bd
000001e0: 2187 013f 3cb5 913e 6f4d 7c3e 8b43 d1be
000001f0: 8581 883d 266f 04be d928 32be 53a1 103f
00000200: b259 f2be 2f0d 24be 129f c2be 2413 2bbe
00000210: 39d2 ef3d e321 43be 16e0 6abd 8598 0b3f
00000220: 64e2 063f fb9a 86be 3a8a 19be 8cb6 6fbe
00000230: a95e 543e 2d09 c6be 8218 3a3e fdaf d9be
00000240: a3ba e33d 89a1 90be f20b 0d3f 6091 15bf
00000250: 695c c43e 2392 143c 95f7 99bd 7541 023f
00000260: 7327 44be 08ab ed3d abb9 18bf a8fc a6be
00000270: 3a53 1ebe 338f 833d b6f8 9a3e f7f7 87be
00000280: e56a 193f 38a4 663e bd18 d53e 33c7 0ebf
00000290: ab03 af3e c7ab 38be 7ef2 cbbe 3d6b 0b3f
000002a0: d61a 5e3e 7b13 0f3f 858d 80be f189 b33d
000002b0: e516 c2be 7064 b0bc d7ca 22bf 773e d93d
000002c0: 815a ab3e 98e7 b1bd abba 0e3e bc9a d23e
000002d0: 2b23 733e b50b aabd 8d9c db3e 9b8b 893e
000002e0: ffbe 013f 3842 993e 6b7c c53d 0b98 a6bd
000002f0: 4860 033f 3408 763e 90d1 5fbe 27ce 653c
00000300: 42e9 71be 978d fc3d 6428 47bd 5e5a 033f
00000310: 117e 7a3e ef5d 613e cb70 84be 0399 413e
00000320: 0e8d 883e 6f00 703e cc26 01bf 3cac febe
00000330: ac53 04bb 227f a43e 2046 423e 0250 d9be
00000340: 7cb5 49be c396 e5be 659d e5be b7d4 0a3f
00000350: 6698 b1be 5feb b23e 33de c83e 46fb f43e
00000360: b4c3 0d3e 41f9 8bbe cdae 773e 2d32 1dbd
00000370: 90cc 9dbc da5b 053f 4fb2 ebbe 2657 d1bd
00000380: 49b3 c83e 9c6d ca3d 44bf 293d e04e 03bf
00000390: 8819 023f 4f3b 86bd e27a 87be 3154 c03d
000003a0: bee1 f0be c07f 063e 7025 013e 5151 e7be
000003b0: 12ee a93a e07d 133f 9b0a 353e 50d9 3dbd
000003c0: e3b6 033e b777 79bc 292f c2be acab f6be
000003d0: 9173 213f 2918 8a3e 9dcb 81be 9dc9 4b3e
000003e0: 99d0 3e3c f6ce 493e 93f2 91bd 0f41 8d3e
000003f0: 20d6 963e b5a7 e8be 14dc 0a3e 1ad4 e53d

VAE_Decoder.layers.0.linear0.bias f4 [128]
-0.15475562 -0.38110167 -0.16169061 -0.28920406 0.35788134 -0.4056587 -0.37256816 -0.15195522
0.3711835 -0.09696205 0.5332605 -0.043247696 -0.34372002 -0.38383487 -0.20252201 -0.42594948
0.3912348 0.3689618 0.41376537 -0.22724082 0.19607596 0.2255431 0.55250025 0.26111403
0.511944 -0.0057620057 0.34783447 -0.31343567 -0.33277583 0.40564102 -0.10612897 -0.29120892
-0.098797485 0.59526163 0.45078126 0.5937262 0.13670675 -0.096475184 -0.063926116 -0.31786168
-0.116231665 -0.26879337 -0.15808561 -0.52992207 -0.40380418 -0.28424597 -0.12744658 -0.09455696
-0.40456206 -0.3796063 0.31080216 -0.11114454 -0.091247916 -0.054218847 -0.09048035 0.2685577
0.030855862 0.3176465 0.2701992 -0.3778565 -0.44765073 -0.020340309 0.46897522 0.016071966
0.5516313 0.50802726 -0.44445476 -0.20445615 -0.38632265 -0.14561921 -0.3138237 -0.22559725
-0.17087384 0.07903222 0.18945226 -0.3757082 -0.4336649 0.24780606 -0.3063833 -0.23976013
-0.37612754 -0.3996074 -0.19435965 -0.31358132 -0.20920734 0.5527559 -0.13469255 0.45765978
0.43382755 -0.3938955 -0.1279515 -0.33114776 0.023269504 -0.24395554 0.5300639 -0.23778313
0.5008173 -0.17112115 -0.39339447 0.17388707 0.1635812 -0.26607734 -0.10983618 0.3511077
-0.34455228 0.008826172 0.55432373 -0.40785396 0.11475957 0.47887906 0.40712437 0.16636251
0.36946133 -0.14489907 -0.13376115 0.017858401 -0.3239465 0.27611607 0.15289322 -0.30177164
0.14192481 0.42678753 -0.14487417 -0.3656554 -0.32641664 0.31000593 -0.25607377 -0.052177925
00000000: 4278 1ebe c21f c3be 3992 25be 8e12 94be
00000010: 393c b73e 7fb2 cfbe 41c1 bebe 269a 1bbe
00000020: c40b be3e 0a94 c6bd c383 083f 7f24 31bd
00000030: 12fc afbe 0186 c4be ee61 4fbe 0d16 dabe
00000040: ed4f c83e 90e8 bc3e 0ed9 d33e d1b1 68be
00000050: 23c8 483e c5f4 663e a870 0d3f bdb0 853e
00000060: c30e 033f 35cf bcbb 5c17 b23e a47a a0be
00000070: 9861 aabe 2eb0 cf3e 255a d9bd 5619 95be
00000080: 5656 cabd 1163 183f cdcc e63e 71fe 173f
00000090: dbfc 0b3e c894 c5bd b2eb 82bd c4be a2be
000000a0: de0a eebd 499f 89be 32e1 21be f9a8 07bf
000000b0: 6cbf cebe b088 91be 5b81 02be 14a7 c1bd
000000c0: c222 cfbe c25b c2be 7621 9f3e c09f e3bd
000000d0: 30e0 babd 9514 5ebd c34d b9bd 6580 893e
000000e0: 6fc5 fc3c 90a2 a23e 8d57 8a3e 6876 c1be
000000f0: 7a32 e5be b8a0 a6bc 851d f03e 5ba9 833c
00000100: b537 0d3f 130e 023f 938f e3be f45c 51be
00000110: 15cc c5be 341d 15be 80ad a0be f702 67be
00000120: 8df9 2ebe a5db a13d c6ff 413e d35c c0be
00000130: 5309 debe dfc0 7d3e 46de 9cbe ae83 75be
00000140: ca93 c0be 5799 ccbe 3706 47be bb8d a0be
00000150: 733a 56be 6981 0d3f d8ec 09be 6252 ea3e
00000160: a51e de3e acac c9be b805 03be 338c a9be
00000170: b09f be3c 7bcf 79be 45b2 073f 6c7d 73be
00000180: 9035 003f 623a 2fbe 006b c9be 740f 323e
00000190: d581 273e 4a3b 88be cbf1 e0bd 63c4 b33e
000001a0: 2869 b0be a69b 103c 29e8 0d3f 3cd2 d0be
000001b0: 1107 eb3d a32f f53e 9b72 d03e ef5a 2a3e
000001c0: 092a bd3e 6c60 14be aff8 08be c84b 923c
000001d0: 51dc a5be 165f 8d3e 0a90 1c3e d081 9abe
000001e0: bd54 113e e583 da3e e559 14be 2f37 bbbe
000001f0: 1520 a7be 19b9 9e3e 1a1c 83be 85b8 55bd

VAE_Decoder.layers.0.linear1.weight f4 [4, 128]
-0.103318654 0.1351617 0.0122166285 -0.038067155 0.18935646 -0.30962613 0.17891867 0.3254776
-0.12568243 -0.11914241 0.1732181 0.10307114 0.17208526 -0.08590286 -0.030061696 -0.14992693
-0.093620144 0.053107753 -0.0049771992 -0.17411658 -0.06461466 0.14803033 -0.029353125 0.19722094
0.07423054 -0.119881995 0.010873252 -0.104872 0.3441871 0.10319137 0.2383607 0.19989783
-0.14147583 -0.024875687 0.20912705 0.12049092 -0.031735126 -0.07934239 0.10568339 -0.05686975
0.2884939 -0.036242858 0.14330986 0.34583274 -0.22524554 0.19146973 0.23601438 0.07776841
-0.09647333 0.09538661 0.1424254 -0.09257311 -0.08064284 -0.035399932 0.0741647 0.13268119
0.27995512 0.14051475 -0.22431056 -0.06617756 0.16396393 0.2026506 -0.1262882 -0.05764561
-0.091136284 0.13787872 -0.041521534 -0.135885 -0.049181174 0.27546215 -0.105752565 0.19071455
0.028614152 -0.0939389 0.038543824 0.06649694 -0.07542217 -0.033439055 0.027737157 -0.048100453
0.22923131 -0.048271675 0.0021961117 0.10899637 0.025481734 -0.066101044 -0.12546514 0.12197316
0.11755554 0.049108967 0.19552079 -0.08412733 0.029883254 0.1694916 -0.068830796 -0.13614275
-0.037564505 -0.02597507 0.03869384 -0.19100812 -0.0745143 0.010247879 0.17733759 0.19923142
0.07522041 0.107289374 0.08237131 0.074054085 -0.12387664 -0.13248113 -0.05472159 0.18128087
0.18332702 0.057075284 0.08897043 -0.019496512 -0.12232948 0.11302921 -0.069757015 -0.09756754
-0.061638545 -0.00314843 0.19588111 0.010695957 -0.05902031 -0.02189119 -0.051379114 0.010763385
0.07992818 0.03670054 0.095208794 -0.06296576 0.0686863 -1.3676552 0.010250943 -0.042565715
0.00066769496 0.14243305 0.016430743 0.053140495 0.12672338 0.23872562 0.11328182 0.058674637
0.0444272 -0.050600603 0.076082915 0.11913648 -0.12769502 -0.026904153 0.10915078 0.09375828
0.09185546 0.056249116 0.06135852 0.22408836 0.13176124 0.04635192 -0.072210155 0.09760985
0.08695809 -0.004001909 0.1147932 0.05766603 0.054634467 0.07898919 -0.049012274 -0.054569878
0.08954836 0.00060204515 -0.12372974 -0.11426528 -0.03341362 -0.024713201 0.12150034 0.1793923
0.01750445 0.14920568 0.06816681 0.053721223 -0.001410366 0.18684065 -0.012038059 0.083169155
0.04086604 0.03252217 -0.040274203 0.040620696 0.019665038 0.10698414 0.14227085 0.14857115
-0.037308086 0.09089325 0.04452093 0.2174315 -0.010628262 0.04104663 -0.03999846 0.19996563
0.065426625 0.14420304 -0.1751315 0.17532818 0.07834096 -0.009701665 -0.011670924 0.0032312828
0.27817446 0.02201159 -0.12063137 0.036701806 -0.15731893 -0.055601235 -0.6890987 0.043728784
0.11020917 0.09178077 0.16543826 0.08969417 -0.02286179 -0.058128767 -0.00678104 0.09751587
0.120486766 -0.034147773 0.016092446 0.04771541 -0.10950288 0.10108492 0.030812152 0.065329835
-0.040358502 -0.19840738 0.15057544 -0.018635957 0.0006994333 0.045163948 0.103112176 0.16292633
0.017822903 -0.0946008 0.30093887 -0.08777838 -0.09465641 0.023992456 -0.16829418 0.041722007
-0.139682 -0.07715894 0.21490297 -0.0452127 0.030561507 0.07277856 0.17609067 0.16142261
00000000: bb98 d3bd d467 0a3e 4128 483c 4eec 1bbd
00000010: a9e6 413e 5187 9ebe 7536 373e 00a5 a63e
00000020: e5b2 00be f000 f4bd 1660 313e f616 d33d
00000030: 1e37 303e d7ed afbd f243 f6bc 7286 19be
00000040: ebbb bfbd 8487 593d c617 a3bb 9e4b 32be
00000050: b154 84bd 4395 173e f775 f0bc 49f4 493e
00000060: 2e06 983d b184 f5bd b925 323c 22c7 d6bd
00000070: 4b39 b03e ff55 d33d d414 743e 04b2 4c3e
00000080: 0adf 10be 19c8 cbbc 6725 563e f2c3 f63d
00000090: b1fc 01bd 437e a2bd 8870 d83d 41f0 68bd
000000a0: 79b5 933e 6473 14bd d2bf 123e fd10 b13e
000000b0: c4a6 66be a410 443e c1ad 713e 0b45 9f3d
000000c0: cf93 c5bd 0e5a c33d f7d7 113e f896 bdbd
000000d0: 1328 a5bd 85ff 10bd aae3 973d 94dd 073e
000000e0: 4756 8f3e 19e3 0f3e abb1 65be 1a88 87bd
000000f0: 29e6 273e a483 4f3e b251 01be ce1d 6cbd
00000100: a9a5 babd 1430 0d3e 7c12 2abd 7025 0bbe
00000110: 3372 49bd 6009 8d3e cd94 d8bd ad4a 433e
00000120: 3a68 ea3c 0a63 c0bd 21e0 1d3d 8c2f 883d
00000130: f076 9abd 64f7 08bd 0939 e33c fb04 45bd
00000140: 9dbb 6a3e 85b8 45bd a4ec 0f3b 7d39 df3d
00000150: 12bf d03c fc5f 87bd ef79 00be 10cd f93d
00000160: f5c0 f03d 7c26 493d 9a36 483e f34a acbd
00000170: bacd f43c 358f 2d3e 29f7 8cbd 0169 0bbe
00000180: 3ddd 19bd acc9 d4bc 6f7d 1e3d a297 43be
00000190: f49a 98bd b8e6 273c fc97 353e 5203 4c3e
000001a0: 290d 9a3d 88ba db3d 4ab2 a83d aba9 973d
000001b0: 09b3 fdbd 22a9 07be bf23 60bd b1a1 393e
000001c0: 14ba 3b3e c6c7 693d 2136 b63d 26b7 9fbc
000001d0: e187 fabd dc7b e73d c4dc 8ebd 7ed1 c7bd
000001e0: b378 7cbd e455 4ebb 0f95 483e 183e 2f3c
000001f0: 48bf 71bd 2755 b3bc e872 52bd e958 303c
00000200: 63b1 a33d 4e53 163d d4fc c23d 31f4 80bd
00000210: 67ab 8c3d 530f afbf 92f3 273c 6359 2ebd
00000220: 4008 2f3a f8d9 113e c499 863c d9a9 593d
00000230: c6c3 013e 7d74 743e 4d00 e83d d154 703d
00000240: 4cf9 353d 9442 4fbd 5cd1 9b3d d4fd f33d
00000250: 7cc2 02be 1966 dcbc 728a df3d 5704 c03d
00000260: b71e bc3d 7965 663d 1253 7b3d 6b77 653e
00000270: 6bec 063e 83db 3d3d ebe2 93bd ace7 c73d
00000280: 1517 b23d 7222 83bb b218 eb3d 3733 6c3d
00000290: 64c8 5f3d 16c5 a13d 18c1 48bd aa84 5fbd
000002a0: 2165 b73d 91d2 1d3a 0566 fdbd ea03 eabd
000002b0: b8dc 08bd 5773 cabc 2cd5 f83d 9db2 373e
000002c0: 7e65 8f3c 60c9 183e 0a9b 8b3d c90a 5c3d
000002d0: 08dc b8ba 2853 3f3e 473b 45bc 9754 aa3d
000002e0: 2663 273d f835 053d 90f6 24bd e361 263d
000002f0: 9318 a13c 801a db3d 73af 113e 0923 183e
00000300: 5dd0 18bd 3e26 ba3d 945b 363d 5da6 5e3e
00000310: 2922 2ebc 8320 283d 6dd5 23bd cac3 4c3e
00000320: 65fe 853d f6a9 133e ac55 33be 3b89 333e
00000330: 3a71 a03d bbf3 1ebc 6737 3fbc eec3 533b
00000340: e26c 8e3e a651 b43c 940d f7bd a254 163d
00000350: 3718 21be 1fbe 63bd c668 30bf f41c 333d
00000360: 58b5 e13d 8ef7 bb3d a668 293e 94b1 b73d
00000370: a648 bbbc 6e18 6ebd 7d33 debb 67b6 c73d
00000380: c4c1 f63d 89de 0bbd 4ed4 833c 3c71 433d
00000390: 0c43 e0bd 9c05 cf3d c469 fc3c a6cb 853d
000003a0: f54e 25bd 4e2b 4bbe 7330 1a3e 6faa 98bc
000003b0: 2d5a 373a d5fd 383d 7a2c d33d 29d6 263e
000003c0: 5601 923c 10be c1bd a914 9a3e 27c5 b3bd
000003d0: 38db c1bd d48b c43c 4f55 2cbe b2e4 2a3d
000003e0: cc08 0fbe 8205 9ebd 860f 5c3e f430 39bd
000003f0: 205c fa3c ed0c 953d 1d51 343e f84b 253e

VAE_Decoder.layers.0.linear1.bias f4 [4]
-0.06557095 0.13111122 -0.15750688 0.11212179
00000000: 104a 86bd 0542 063e 7c49 21be 1ca0 e53d

VAE_Decoder.layers.0.norm1.weight f4 [4]
1.1528515 1.103029 1.1823593 1.1233085
00000000: a390 933f 0e30 8d3f 8d57 973f 93c8 8f3f

VAE_Decoder.layers.0.norm1.bias f4 [4]
-2.0185778e-05 -0.016965479 -0.13104953 0.085326724
00000000: a154 a9b7 30fb 8abc d931 06be c7bf ae3d

VAE_Decoder.layers.1.attention.W_q.weight f4 [4, 4]
-0.15108041 -0.25084898 -0.11904239 -0.20783599 -0.25214466 -0.19569516 -0.51616335 0.22009833
0.10094127 -0.18512756 0.69354653 -0.19861482 0.03065617 0.04598202 0.123408884 -0.27681395
00000000: d3b4 1abe 476f 80be 7fcc f3bd f5d2 54be
00000010: 1b19 81be 5064 48be 4823 04bf 7561 613e
00000020: 4cba ce3d 1492 3dbe 448c 313f af61 4bbe
00000030: a622 fb3c a557 3c3d ccbd fc3d 8fba 8dbe

VAE_Decoder.layers.1.attention.W_q.bias f4 [4]
0.29764807 0.11192353 -0.16195336 -0.20133184
00000000: 5465 983e 2a38 e53d 1ad7 25be ef29 4ebe

VAE_Decoder.layers.1.attention.W_k.weight f4 [4, 4]
-0.12312417 -0.3055685 0.58777875 -0.2843997 -0.4125742 -0.28834936 0.41657215 0.4992155
-0.42399302 0.4803423 -0.005783445 0.09465221 0.47700432 0.37747616 -0.4643503 0.35781047
00000000: 8628 fcbd 7973 9cbe ab78 163f d69c 91be
00000010: ed3c d3be 87a2 93be f248 d53e 2d99 ff3e
00000020: 9d15 d9be 6def f53e 0e83 bdbb 05d9 c13d
00000030: e939 f43e 8e44 c13e 53bf edbe ef32 b73e

VAE_Decoder.layers.1.attention.W_k.bias f4 [4]
7.554137e-05 -0.000114336035 -8.5188816e-07 -3.1005288e-06
00000000: f76b 9e38 b1c7 efb8 4fad 64b5 ae12 50b6

VAE_Decoder.layers.1.attention.W_v.weight f4 [4, 4]
0.007491491 0.02974684 -0.0065528303 0.031004531 0.25561115 0.13402402 0.22432497 0.31823477
0.29248214 0.14737579 0.36062908 0.31965962 0.16235082 -0.12564515 0.23899196 0.28639764
00000000: 2e7b f53b a5af f33c 20b9 d6bb 37fd fd3c
00000010: 77df 823e 983d 093e 72b5 653e abef a23e
00000020: 38c0 953e aee9 163e 60a4 b83e 6daa a33e
00000030: 4b3f 263e 1fa9 00be 4fba 743e b6a2 923e

VAE_Decoder.layers.1.attention.W_v.bias f4 [4]
-0.040536817 0.041211963 -0.07060138 0.028441552
00000000: ef09 26bd e0cd 283d 7597 90bd 42fe e83c

VAE_Decoder.layers.1.linear0.weight f4 [128, 4]
0.47682652 -0.14058423 -0.26934248 -0.5335506 0.6207436 0.012603196 -0.409004 0.38605443
0.19667831 0.33834976 -0.3523712 -0.32231277 0.36304355 -0.30177465 -0.22046338 -0.31546772
0.13684331 -0.3592124 -0.14668027 -0.07162894 -0.1401621 0.07692451 0.1516055 -0.28120342
0.5259881 0.095943525 0.43739927 -0.5864538 0.08132115 -0.24232788 -0.04990593 0.18884252
-0.5619508 -0.11035267 -0.39226446 -0.095879905 0.18360354 -0.26567447 -0.25668034 0.11613158
-0.3266637 0.4101423 0.43064472 -0.09123359 -0.21508613 0.32241786 0.42056867 -0.42169145
-0.30497804 -0.20163201 -0.20846856 0.06400856 0.50139695 0.15800898 0.027545646 0.20309946
0.41028142 0.29679993 -0.35272208 -0.545288 -0.41515723 0.14684036 -0.52940696 0.09058161
-0.28842568 -0.08800591 0.20558031 0.5014453 0.13247205 -0.07250306 0.29113543 0.53883356
0.17029808 -0.14008307 0.2263728 0.24871704 0.12745476 0.0027737892 -0.016789561 0.33605754
0.11274024 0.4015062 -0.3080351 -0.49353626 0.59623563 -0.3681614 -0.013374681 0.10694999
0.20054004 -0.11032284 -0.44713333 -0.43973428 -0.04289123 0.4486834 0.024716783 0.4343253
-0.29910058 -0.07208306 0.4652921 0.38821802 -2.6807e-05 -0.49488235 -0.2520309 -0.26209247
0.5936421 -0.235814 -0.3735076 -0.20258947 0.0987448 -0.31690648 -0.29043853 -0.4129035
-0.48234543 -0.11129011 0.12093456 0.24739358 0.10136848 -0.3183416 -0.2472082 0.26820225
-0.36630118 0.11882744 -0.31222782 0.22017708 0.35052758 -0.25182387 0.00862353 -0.5606709
-0.43162864 0.2495957 0.5288351 -0.2408065 0.035026662 0.20450535 -0.25502208 -0.52336997
0.47387573 -0.005481823 -0.40398103 -0.5732204 0.09663003 -0.33154988 0.6262287 -0.025479168
-0.11894366 -0.21848734 -0.40408242 -0.0005870615 -0.16788697 0.26518947 -0.37507796 0.34906253
0.20870405 -0.31018472 -0.10615334 -0.6070649 0.12981805 -0.2643842 0.031845298 -0.6679714
0.28660434 0.05261099 -0.11434337 -0.46942848 -0.7126827 -0.24490112 0.36279622 -0.18087475
0.2870568 0.3968114 -0.11403118 0.11900329 0.011223955 -0.23270133 0.03947535 0.43049294
-0.3240778 -0.0491133 -0.23852406 0.2580154 -0.29967034 -0.06944377 0.59954315 0.031334285
0.48767456 0.1397789 0.4285059 0.4886199 -0.44374606 0.068786405 0.10100632 0.087585784
0.28115973 0.17834854 -0.45128348 0.00031848898 -0.4193364 0.552472 -0.2691363 0.4375968
-0.279785 0.054891575 0.50837225 0.13204157 0.6324983 -0.4846169 -0.089003086 -0.25846076
-0.38493782 0.22418411 -0.19847925 0.22408846 0.36664465 0.18453111 0.2811996 -0.12901469
-0.49895766 0.41663682 0.078484125 0.105435 -0.3041386 -0.19757928 0.25986212 0.3236573
0.50314236 0.45997947 -0.23917618 -0.51270854 -0.62884825 0.29544988 0.08405036 0.18838696
-0.28560302 0.18636586 -0.5286248 0.47383365 -0.20899256 -0.16201316 -0.20232889 0.13212883
-0.3310442 0.27433708 0.29445016 0.3981733 -0.45091823 0.17793243 -0.2518727 -0.00089092384
0.2435294 -0.31561342 -0.13841306 0.25548637 -0.5143037 0.4518652 -0.15129839 0.42195705
00000000: 9b22 f43e 50f5 0fbe 42e7 89be c696 08bf
00000010: 0de9 1e3f a37d 4e3c f968 d1be eda8 c53e
00000020: 0a66 493e 2e3c ad3e ff69 b4be 2e06 a5be
00000030: d8e0 b93e 3582 9abe 27c1 61be fc84 a1be
00000040: a720 0c3e b0ea b7be 5a33 16be 32b2 92bd
00000050: a786 0fbe 998a 9d3d 793e 1b3e e5f9 8fbe
00000060: 28a7 063f 0a7e c43d ccf2 df3e d621 16bf
00000070: b48b a63d cd24 78be 296a 4cbd ef5f 413e
00000080: 02dc 0fbf 9500 e2bd e3d6 c8be af5c c4bd
00000090: 9102 3c3e 7c06 88be 9b6b 83be 65d6 ed3d
000000a0: 7740 a7be 2cfe d13e 777d dc3e add8 babd
000000b0: 8a3f 5cbe f413 a53e c754 d73e f1e7 d7be
000000c0: 1526 9cbe 9f78 4ebe c878 55be eb16 833d
000000d0: 8d5b 003f 1bcd 213e 68a7 e13c 4ef9 4f3e
000000e0: 6810 d23e 29f6 973e fd97 b4be ff97 0bbf
000000f0: 7d8f d4be 525d 163e 3787 07bf da82 b93d
00000100: 88ac 93be 713c b4bd a583 523e b85e 003f
00000110: c1a6 073e 7c7c 94bd b40f 953e fff0 093f
00000120: 9f62 2e3e f071 0fbe 45ce 673e aeaf 7e3e
00000130: 8083 023e 76c8 353b 438a 89bc bc0f ac3e
00000140: 5be4 e63d 3892 cd3e c7b6 9dbe c9b0 fcbe
00000150: e6a2 183f a77f bcbe 7a21 5bbc 9908 db3d
00000160: 5e5a 4d3e f1f0 e1bd a9ee e4be da24 e1be
00000170: b7ae 2fbd d5b9 e53e da7a ca3c e35f de3e
00000180: b623 99be 49a0 93bd c43a ee3e 83c4 c63e
00000190: 98df e0b7 3861 fdbe 320a 81be fc30 86be
000001a0: eef8 173f 3a79 71be 633c bfbe 9d73 4fbe
000001b0: b73a ca3d 9141 a2be 5cb4 94be 1668 d3be
000001c0: fbf5 f6be 12ec e3bd 8aac f73d be54 7d3e
000001d0: 479a cf3d acfd a2be 2524 7dbe ce51 893e
000001e0: d48b bbbe cd5b f33d 53dc 9fbe 1a76 613e
000001f0: 5a78 b33e 0fef 80be b549 0d3c 2188 0fbf
00000200: 6efe dcbe 0496 7f3e bd61 073f fb95 76be
00000210: 1e78 0f3d da69 513e 4192 82be 93fb 05bf
00000220: d79f f23e dda0 b3bb 9ad6 cebe 92be 12bf
00000230: f7e5 c53d e8c0 a9be 8650 203f b0b9 d0bc
00000240: bc98 f3bd 25bb 5fbe e4e3 cebe 08e5 19ba
00000250: 90ea 2bbe eac6 873e 380a c0be 53b8 b23e
00000260: 84b6 553e 88d0 9ebe ec66 d9bd 9b68 1bbf
00000270: 06ef 043e 5e5d 87be 3770 023d 2c00 2bbf
00000280: cebd 923e 9f7e 573d db2c eabd ee58 f0be
00000290: 6072 36bf 5cc7 7abe 6dc0 b93e 3b37 39be
000002a0: 1cf9 923e dd2a cb3e 2e89 e9bd ffb7 f33d
000002b0: aee4 373c 4249 6ebe e8b0 213d 9269 dc3e
000002c0: 87ed a5be 072b 49bd a73f 74be 981a 843e
000002d0: 646e 99be 8938 8ebd a97b 193f 6158 003d
000002e0: 7bb0 f93e 3322 0f3e 2065 db3e 632c fa3e
000002f0: af32 e3be e3df 8c3d 67dc ce3d 2d60 b33d
00000300: 2bf4 8f3e 00a1 363e a10e e7be defa a639
00000310: 43b3 d6be ce6e 0d3f 3ccc 89be b00c e03e
00000320: fb3f 8fbe fdd5 603d af24 023f e835 073e
00000330: 69eb 213f b51f f8be 4047 b6bd f854 84be
00000340: 9216 c5be 8590 653e 253e 4bbe 7277 653e
00000350: d9b8 bb3e b9f5 3c3e 65f9 8f3e 6d1c 04be
00000360: 6177 ffbe 6c51 d53e 49bc a03d 4eee d73d
00000370: 0eb8 9bbe 3952 4abe a60c 853e 69b6 a53e
00000380: f0cd 003f 6e82 eb3e 9aea 74be de40 03bf
00000390: 33fc 20bf 3545 973e 9822 ac3d 83e8 403e
000003a0: 8f3a 92be b1d6 3e3e f453 07bf 539a f23e
000003b0: 2502 56be c7e6 25be 4e2f 4fbe c84c 073e
000003c0: a07e a9be e975 8c3e 2cc2 963e 5fdd cb3e
000003d0: c1de e6be eb33 363e 75f5 80be e38c 69ba
000003e0: c55f 793e 1598 a1be 27bc 0dbe 1ccf 823e
000003f0: 68a9 03bf e05a e73e f7ed 1abe c10a d83e

VAE_Decoder.layers.1.linear0.bias f4 [128]
0.05037065 0.044304963 0.18890528 -0.13931279 0.43872494 -0.18149115 -0.3525793 0.2239216
-0.02457627 -0.1034418 0.39845034 -0.5440457 0.14343165 -0.30231693 0.08107039 -0.33152422
0.23878817 -0.113758944 -0.3077688 0.23367345 0.32783672 0.10671418 -0.22540645 0.5195871
0.002646205 0.562413 0.32567206 0.2216865 -0.3062207 -0.47279528 -0.030720469 0.15393016
0.61036474 0.4354621 -0.35328168 -0.022064278 0.088350624 -0.513707 0.12877998 -0.22193322
0.52666694 -0.03150816 0.31096002 0.323432 0.06785165 -0.24939172 -0.16299348 0.6014622
-0.026504502 0.3036197 0.088388905 0.49029028 -0.42290226 0.555443 0.14184524 -0.08403776
-0.019925062 0.062124193 0.6002697 0.03056102 -0.059394367 -0.1444952 -0.02013998 -0.27985677
0.21836752 -0.27363813 0.39064243 0.12592752 0.10768782 -0.38847733 -0.41945788 0.08637065
-0.16339114 -0.20019929 0.55488604 -0.011072926 0.15888153 0.5202472 0.08818806 0.37477085
0.18253466 -0.15166818 -0.26108742 0.490349 0.27519605 -0.08800928 0.0043737967 -0.0073706377
0.51991785 -0.26275894 0.28114575 -0.37426078 0.21724582 0.109318785 0.5011243 -0.0026256552
0.6481418 0.5052902 -0.018879687 0.503235 0.10060338 0.17734389 -0.17848514 0.5342087
0.16584979 0.21426111 -0.23176326 -0.17879018 -0.32698244 0.05738382 -0.098067544 0.0074537694
0.2883178 0.33457977 0.05629399 0.43145975 0.3506357 -0.3415261 0.3383029 -0.012454939
0.20815177 -0.27365306 -0.29816958 -0.0009800907 0.27937868 -0.03352142 0.093517944 0.19168295
00000000: 7451 4e3d 1f79 353d 6370 413e 03a8 0ebe
00000010: 8ea0 e03e d1d8 39be 4685 b4be b44b 653e
00000020: 2c54 c9bc 4bd9 d3bd af01 cc3e 9446 0bbf
00000030: bfdf 123e 49c9 9abe 3c08 a63d 8bbd a9be
00000040: e384 743e 73fa e8bd df93 9dbe 1848 6f3e
00000050: 37da a73e f78c da3d f3d0 66be a903 053f
00000060: f46b 2d3b 4cfa 0f3f 7dbe a63e c901 633e
00000070: f6c8 9cbe 3912 f2be 7ea9 fbbc de9f 1d3e
00000080: dd40 1c3f e3f4 de3e 56e1 b4be 25c0 b4bc
00000090: 2cf1 b43d 4d82 03bf e6de 033e 7642 63be
000000a0: a5d3 063f b30e 01bd 2736 9f3e e198 a53e
000000b0: cef5 8a3d 8b60 7fbe c3e7 26be 6df9 193f
000000c0: f81f d9bc 0b74 9b3e 3e05 b53d 5407 fb3e
000000d0: a586 d8be 8331 0e3f e13f 113e fd1b acbd
000000e0: e239 a3bc f075 7e3d 46ab 193f 1b5b fa3c
000000f0: 8247 73bd 8df6 13be 99fc a4bc 6349 8fbe
00000100: bc9b 5f3e 4c1a 8cbe 4902 c83e 25f3 003e
00000110: 6f8b dc3d 80e6 c6be 2fc3 d6be 18e3 b03d
00000120: 0250 27be 0b01 4dbe 030d 0e3f 386b 35bc
00000130: d7b1 223e ec2e 053f f19b b43d f7e1 bf3e
00000140: 5eea 3a3e e74e 1bbe 40ad 85be 060f fb3e
00000150: 7fe6 8c3e 363e b4bd 1152 8f3b 6485 f1bb
00000160: 5619 053f 5788 86be 56f2 8f3e 1c9f bfbe
00000170: b075 5e3e 87e2 df3d af49 003f 2f13 2cbb
00000180: 9fec 253f b35a 013f 93a9 9abc 02d4 003f
00000190: 2509 ce3d a399 353e cfc4 36be e7c1 083f
000001a0: 87d4 293e 4467 5b3e 5953 6dbe c614 37be
000001b0: 3e6a a7be 4c0b 6b3d a3d7 c8bd c03e f43b
000001c0: 649e 933e 0a4e ab3e 8794 663d 4be8 dc3e
000001d0: 8686 b33e 82dc aebe 0a36 ad3e cd0f 4cbc
000001e0: bd25 553e 411c 8cbe afa9 98be 6376 80ba
000001f0: b90a 8f3e c24d 09bd 5686 bf3d 8948 443e

VAE_Decoder.layers.1.linear1.weight f4 [4, 128]
0.136452 0.12665845 0.06328378 0.11071934 0.063478805 0.04184827 0.4446269 -0.12464075
-0.09648451 -0.09492384 -0.08783662 0.21104103 0.009004178 -0.43079937 0.170628 0.04956399
-0.142388 -0.023664344 -0.017913254 -0.034229413 0.17345838 0.024174761 0.17697065 -0.062416665
-0.055429388 0.08937309 0.19971773 0.06709624 -0.16891386 0.0051283417 -0.117515005 0.10974672
-0.16015175 0.21727973 0.14617188 0.087163344 0.041633923 0.04953906 0.24671756 0.25877443
0.15656294 -0.15334292 0.16239093 0.011204009 -0.13701603 -0.079467535 -0.044071205 -0.13039927
0.20991181 -0.081656806 -0.09146173 0.043648876 -0.0005594333 0.13367492 -0.1541346 -0.023900174
0.13322495 -0.15082954 -0.097668044 -0.1328697 -0.15949395 -0.14412038 -0.12964918 -0.047855485
-0.04367547 0.27893132 -0.13663447 0.14384948 -0.0588029 -0.18778065 -0.060685776 0.030917583
-0.0429924 -0.087129846 -0.05727865 0.22956546 -0.02077474 -0.16811869 -0.02215934 -0.16723922
0.14011888 -0.046992075 0.08527386 -0.16393715 0.1873896 0.17996933 0.012155131 -0.06559837
-0.13419276 -0.008973802 0.12711994 0.17881857 0.13999909 0.20708646 0.00770696 -0.10499737
0.045521777 -0.08569705 0.14468257 0.005747706 0.3109637 0.32452363 0.22807676 0.055878036
-0.06780628 0.04284849 -0.18971464 -0.0021852383 -0.11914306 -0.153128 -0.073662475 -0.020074546
-0.1445723 -0.09512414 -0.14253291 -0.1434976 -0.0790153 0.11467799 0.0034323176 0.20107028
0.23274703 -0.033557333 -0.022771997 0.059440844 -0.19478634 -0.008112188 -0.07275746 0.18902737
0.12178579 0.02929571 0.028932074 0.19113512 0.14744748 -0.09295825 0.084004484 -0.007406637
0.09167393 -0.029351141 -0.038691174 -0.015507302 -0.041422375 0.014740949 0.03800806 -0.012346645
-0.033844303 0.03448265 0.0073345527 -0.037800036 0.112691686 0.063532434 0.14913432 -0.04825676
-0.21050811 0.14390334 0.06592791 0.13763443 -0.1578038 0.054182485 0.0417276 0.004632445
-0.019564196 0.050142284 0.15278344 0.05642208 -0.057488907 0.024939459 0.098001204 0.039338633
0.0047253296 -0.038645636 0.07402643 -0.082686506 0.041462302 -0.34131518 0.012314945 -0.026339363
-0.042019878 0.054147217 -0.15982932 0.08588566 0.16165622 0.16472663 0.034994815 -0.17314258
0.055119038 0.09566663 0.10458685 0.024322592 0.08527038 0.15516306 0.057693202 0.111079276
-0.087037124 -0.07933089 0.045529075 0.121413514 0.032216705 0.13373718 0.1626058 0.0036247475
0.12793748 -0.013624635 0.050190534 0.09588446 0.062505595 0.0045226063 0.08187158 0.064268336
0.08032132 0.045142632 0.1847083 0.04106827 -0.03151709 0.081837244 -0.08897976 0.029503642
0.0407887 -0.29012546 0.08683194 -0.02879113 0.038193014 0.04547902 0.063481666 0.14353469
0.06962217 0.03300379 -0.058202144 -0.010744037 0.04459808 -0.026362242 0.07417779 0.16573216
-0.2272079 0.11965001 0.1512758 0.0252049 0.112273015 0.034117155 -0.1602013 -0.0057123727
0.019885316 -0.42794806 -0.039437313 0.07370698 0.018008094 0.10998392 0.10064289 0.023558294
0.018848976 -0.20948504 0.049379904 -0.0025776178 0.02499506 -0.12149133 -0.16848382 0.024457572
00000000: 13ba 0b3e c1b2 013e ed9a 813d d2c0 e23d
00000010: 2d01 823d 1769 2b3d 23a6 e33e a643 ffbd
00000020: ac99 c5bd 6e67 c2bd b0e3 b3bd 241b 583e
00000030: 4386 133c bc91 dcbe 1bb9 2e3e 9c03 4b3d
00000040: 29ce 11be badb c1bc d1be 92bc 2434 0cbd
00000050: 139f 313e 260a c63c cb37 353e 9ea8 7fbd
00000060: ed09 63bd 3d09 b73d ce82 4c3e c169 893d
00000070: c1f7 2cbe a60b a83b b5ab f0bd e3c2 e03d
00000080: d2fe 23be 947e 5e3e 15ae 153e b282 b23d
00000090: 5588 2a3d 78e9 4a3d 87a3 7c3e 157e 843e
000000a0: 0952 203e ed05 1dbe cf49 263e 0591 373c
000000b0: ee4d 0cbe e0bf a2bd 0284 34bd 6387 05be
000000c0: 1ff3 563e af3b a7bd 4a50 bbbd 2ac9 323d
000000d0: efa6 12ba 14e2 083e 76d5 1dbe 4cca c3bc
000000e0: 1f6c 083e 0f73 1abe 2f06 c8bd ff0e 08be
000000f0: 6252 23be 4b94 13be c1c2 04be 1d04 44bd
00000100: 0de5 32bd 16d0 8e3e e8e9 0bbe 474d 133e
00000110: 4fdb 70bd 9249 40be a691 78bd df46 fd3c
00000120: cc18 30bd 2271 b2bd 059d 6abd 3513 6b3e
00000130: ca2f aabc 4e27 2cbe 8187 b5bc c240 2bbe
00000140: 537b 0f3e c37a 40bd 10a4 ae3d 24df 27be
00000150: 0fe3 3f3e e149 383e 5126 473c 7058 86bd
00000160: d469 09be db06 13bc bb2b 023e 371c 373e
00000170: ec5b 0f3e 790e 543e ab8a fc3b dc08 d7bd
00000180: 0b75 3a3d ef81 afbd ab27 143e 4157 bc3b
00000190: a236 9f3e f627 a63e f48c 693e 5ee0 643d
000001a0: 05de 8abd e681 2f3d 8e44 42be 3736 0fbb
000001b0: 4701 f4bd 96cd 1cbe 5adc 96bd 6073 a4bc
000001c0: c30a 14be 72d0 c2bd 26f4 11be 09f1 12be
000001d0: c6d2 a1bd 4bdc ea3d bcf0 603b 5ee5 4d3e
000001e0: 3d55 6e3e 6a73 09bd 578c babc 3e78 733d
000001f0: 1276 47be fce8 04bc dd01 95bd 6490 413e
00000200: d46a f93d 8ffd ef3c f502 ed3c edb8 433e
00000210: 79fc 163e e560 bebd 8b0a ac3d 60b3 f2bb
00000220: 8bbf bb3d ce71 f0bc a37a 1ebd 5712 7ebc
00000230: 82aa 29bd 0584 713c 57ae 1b3d 9549 4abc
00000240: 53a0 0abd ae3d 0d3d b056 f03b 36d4 1abd
00000250: e6ca e63d 4b1d 823d abb6 183e e1a8 45bd
00000260: 708f 57be 665b 133e 3605 873d 0af0 0c3e
00000270: 5297 21be 74ee 5d3d 8fea 2a3d c4cb 973b
00000280: 1845 a0bc ff61 4d3d 4373 1c3e d71a 673d
00000290: 7d79 6bbd d64d cc3c dbb4 c83d 8c21 213d
000002a0: f0d6 9a3b e34a 1ebd 2b9b 973d 8b57 a9bd
000002b0: 60d4 293d ddc0 aebe a0c4 493c a6c5 d7bc
000002c0: 091d 2cbd 79c9 5d3d 4caa 23be d2e4 af3d
000002d0: 3589 253e 19ae 283e b956 0f3d 4a4c 31be
000002e0: 80c4 613d deec c33d a131 d63d 2c40 c73c
000002f0: 3da2 ae3d 11e3 1e3e b54f 6c3d 887d e33d
00000300: 8540 b2bd 3c78 a2bd b27c 3a3d a6a7 f83d
00000310: aaf5 033d 66f2 083e 2382 263e 2c8d 6d3b
00000320: 0b02 033e dc39 5fbc 9794 4d3d 125f c43d
00000330: ef02 803d 5f32 943b 49ac a73d 1e9f 833d
00000340: 817f a43d 7be7 383d 2c24 3d3e 3437 283d
00000350: 1018 01bd 499a a73d 053b b6bd 9fb1 f13c
00000360: 0d12 273d 538b 94be f2d4 b13d 60db ebbc
00000370: 4770 1c3d 3548 3a3d ad02 823d c2fa 123e
00000380: 1196 8e3d fb2e 073d 5f65 6ebd c207 30bc
00000390: 7aac 363d a1f5 d7bc 86ea 973d b1b5 293e
000003a0: 30a9 68be 100b f53d 0be8 1a3e 827a ce3c
000003b0: 65ef e53d 6ebe 0b3d cf0b 24be db2e bbbb
000003c0: 88e6 a23c 021c dbbe 0589 21bd aff3 963d
000003d0: b685 933c 403f e13d dc1d ce3d 53fd c03c
000003e0: 2b69 9a3c 3f83 56be 9542 4a3d 40ed 28bb
000003f0: 71c2 cc3c 72d0 f8bd 0687 2cbe 3f5b c83c

VAE_Decoder.layers.1.linear1.bias f4 [4]
-0.007854763 0.09159354 -0.10411452 0.001203413
00000000: 44b1 00bc 6595 bb3d fe39 d5bd d7bb 9d3a

VAE_Decoder.layers.1.norm1.weight f4 [4]
1.1904802 1.1656717 1.1092051 1.165054
00000000: a861 983f bb34 953f 6ffa 8d3f 7d20 953f

VAE_Decoder.layers.1.norm1.bias f4 [4]
-0.007805936 0.083939895 0.039042257 -0.022597881
00000000: f0c8 ffbb aee8 ab3d c6ea 1f3d 311f b9bc

VAE_Decoder.layers.1.norm0.weight f4 [4]
0.7866252 0.78880787 0.95405424 0.85207415
00000000: 4560 493f 50ef 493f e63c 743f 8821 5a3f

VAE_Decoder.layers.1.norm0.bias f4 [4]
0.0013975183 -0.040106475 -0.06141808 0.03956403
00000000: ef2c b73a b046 24bd 8691 7bbd e40d 223d

VAE_Decoder.last_normalization.weight f4 [4]
1.0 1.0 1.0 1.0
00000000: 0000 803f 0000 803f 0000 803f 0000 803f

VAE_Decoder.last_normalization.bias f4 [4]
0.0 0.0 0.0 0.0
00000000: 0000 0000 0000 0000 0000 0000 0000 0000

VAE_Decoder.head.weight f4 [4, 4]
0.24611449 0.20757532 -0.452846 -0.1432693 0.027720809 0.05482787 0.0036307573 -0.28558344
-0.47174835 -0.01412195 0.13640273 -0.2835086 0.034992933 0.32979083 -0.35570115 0.13590038
00000000: 7005 7c3e a08e 543e 6edb e7be 30b5 12be
00000010: c016 e33c 3093 603d 00f2 6d3b fe37 92be
00000020: 0089 f1be c05f 67bc 28ad 0b3e 0a28 91be
00000030: c054 0f3d 58da a83e 761e b6be 7829 0b3e

VAE_Decoder.head.bias f4 [4]
0.47717118 -0.38031536 -0.11232704 -0.24109906
00000000: c84f f43e b2b8 c2be b80b e6bd ace2 76be

Detokenizer.weight f4 [11, 4]
-0.042206116 0.024585323 -0.05034821 0.58298385 0.059090327 -0.4605923 -0.14761008 0.2731547
0.3915523 -0.05262124 -0.22912356 -0.041599404 0.25133166 -0.22992013 0.11445281 -0.2949624
0.27344722 0.23074721 0.17243324 -0.02965181 0.18974146 -0.21445923 0.22421405 -0.289483
0.21318169 -0.09807682 0.25671476 -0.35056433 -0.11935119 -0.14260726 0.36784518 -0.2709931
0.099572994 -0.22253492 0.15060169 -0.34889525 0.122199066 0.4340083 0.43331072 -0.23580346
-0.5890682 0.29273033 0.20429365 -0.26398408
00000000: 52e0 2cbd 2967 c93c ed39 4ebd 6e3e 153f
00000010: b308 723d c1d2 ebbe 1927 17be efda 8b3e
00000020: 8b79 c83e 5f89 57bd 5e9f 6abe 2364 2abd
00000030: 8bae 803e 2f70 6bbe 3c66 ea3d 5005 97be
00000040: 4601 8c3e ff48 6c3e 5792 303e 5ae8 f2bc
00000050: 964b 423e 339b 5bbe 5e98 653e 1e37 94be
00000060: 4d4c 5a3e 80dc c8bd 1e70 833e 2b7d b3be
00000070: 666e f4bd a307 12be 3456 bc3e 9cbf 8abe
00000080: edec cb3d 32e0 63be 5437 1a3e 66a2 b2be
00000090: 8143 fa3d 5636 de3e e7da dd3e 7676 71be
000000a0: 2ccd 16bf c0e0 953e 5b32 513e ec28 87be

Detokenizer.cat_recons.0.weight f4 [2, 4]
-0.25262734 0.3191484 0.8705239 -0.3179167 -0.94748986 0.24523029 -0.50090665 0.6524014
00000000: 5f58 81be 6b67 a33e a8da 5e3f fac5 a2be
00000010: b28e 72bf a61d 7b3e 6b3b 00bf c703 273f

Detokenizer.cat_recons.0.bias f4 [2]
-0.20463942 -0.3947881
00000000: ff8c 51be aa21 cabe
