restsyn/tabsyn/vae/ckpt/cardio/model.pt (torch, 62313 bytes, 96 tensors)

VAE.Tokenizer.weight f4 [12, 4]
000000 16 95 11 bd 69 1b 0f 3c 66 87 b9 3d 19 85 b2 bb
       -0.03554257 0.008734562 0.09059028 -0.0054479954
000010 10 f1 d2 bd df 7b 46 be 11 92 2a 3d f5 ac d5 3e
       -0.10299885 -0.1938319 0.041643206 0.41733518
000020 c6 0a 4e be 7d db 65 3e e6 c5 b8 bd f3 22 b8 3e
       -0.20121297 0.2244701 -0.09022121 0.35964164
000030 93 30 2c be 42 21 b8 bd 6a ba c8 be 07 fb 72 be
       -0.16815405 -0.089907184 -0.39204723 -0.23728572
000040 75 66 66 be 8d 01 8a 3e 63 da a2 be 80 06 20 be
       -0.22500022 0.26954308 -0.3180724 -0.1562748
000050 77 4d 71 3e 30 df 97 bc 5e f3 bf bd dd 2a fa 3d
       0.23564707 -0.018539041 -0.093725905 0.12215207
000060 eb e2 76 bd 16 06 74 3e 21 a6 55 be c6 2f 9a be
       -0.060275 0.23830447 -0.20864154 -0.30114573
000070 c7 c4 68 3e 44 49 4b bd 08 62 8f bd 8b 99 a5 be
       0.22731315 -0.04963042 -0.0700112 -0.32343706
000080 eb 28 c0 3d 51 e5 2c 3e 6c 97 2d 3e c1 d4 e4 be
       0.093828045 0.16884352 0.16952294 -0.44693568
000090 57 1f 78 be 2e bc e5 3d 93 a9 ab be d1 db dc be
       -0.24230705 0.11217533 -0.33527812 -0.43136457
0000a0 9d 15 83 bc 0c 9a 8a 3e 98 1a 4f be 2c b4 26 3e
       -0.016001517 0.27070653 -0.20224988 0.16279668
0000b0 ad d1 b3 bd 53 6a 2c 3e b5 1f 75 3e cd 77 9a 3e
       -0.08780227 0.16837434 0.23937877 0.30169526

VAE.Tokenizer.bias f4 [12, 4]
000000 fc 39 05 3f da 39 33 bf 68 a3 29 be 7f a7 bd be
       0.520416 -0.7001015 -0.16566241 -0.37041852
000010 2a 6a fb 3d 9d 14 39 3e ad f4 d5 3e 15 32 b2 be
       0.122761086 0.1807427 0.41788235 -0.34803835
000020 f5 23 7a be 8e 82 ac 3e 30 1d 95 3e b8 68 8a be
       -0.24427779 0.33693355 0.2912383 -0.2703302
000030 73 70 06 be b1 fb 57 bd 59 0f 3a be 91 07 03 3f
       -0.13128833 -0.052730266 -0.18169917 0.5118342
000040 28 d8 e8 be c1 12 a7 3d 34 33 98 3e 70 c6 23 3f
       -0.45477414 0.08157874 0.29726565 0.63974667
000050 96 51 ee 3e 15 00 c6 be 17 a8 cc bc cf c4 26 bf
       0.4654662 -0.38671938 -0.024982495 -0.65144056
000060 c0 77 78 3e 6d 0c 60 bc 18 cb 16 3e 3b 26 0b be
       0.24264431 -0.013674838 0.14725912 -0.13588803
000070 f2 3b ea bd 26 3d b5 3e a1 21 c3 3d ab 46 ca be
       -0.11437215 0.35398215 0.095278986 -0.3950704
000080 4c c5 8d be d5 c1 aa 3e 10 b8 20 3e 42 08 e3 3d
       -0.27689588 0.33351007 0.15695214 0.110855594
000090 f3 7f 9d be 9d d3 57 be f7 4e 4e 3d 40 65 04 bc
       -0.3076168 -0.21076818 0.050368275 -0.0080807805
0000a0 5a c9 e2 bd 7c 31 31 3e 94 8d a3 3e 16 33 85 3d
       -0.11073561 0.17304033 0.31943953 0.065038845
0000b0 34 f8 57 3e 25 a8 92 3e 18 6a af be b5 16 e9 be
       0.21090776 0.2864391 -0.3426063 -0.45525137

VAE.Tokenizer.category_embeddings.weight f4 [2, 4]
000000 3b 22 24 be 95 f1 a0 be 39 e9 b9 be b6 4f 46 be
       -0.16028683 -0.31434312 -0.36310747 -0.19366345
000010 99 de e5 be ed 32 72 be 02 43 13 3f b8 8f 3d 3e
       -0.4489639 -0.23652239 0.5752412 0.18511856

VAE.encoder_mu.layers.0.attention.W_q.weight f4 [4, 4]
000000 35 e3 bf bd 8f b7 b7 3d 7c b0 bd be 9e c9 03 be
       -0.09369508 0.08970558 -0.3704871 -0.1286988
000010 0e 7e 1a bf 05 73 b7 be e8 94 9c be 9c fb ba be
       -0.60348594 -0.3582994 -0.30582356 -0.36520088
000020 df 1d 94 3e ed 48 83 bd 88 23 8e 3e b1 db 8c 3e
       0.2892904 -0.06410394 0.27761483 0.2751136
000030 6e c2 78 be 26 6c 29 be 67 ee 4e be 35 fa 28 bd
       -0.24292919 -0.16545162 -0.20208131 -0.04125424

VAE.encoder_mu.layers.0.attention.W_q.bias f4 [4]
000000 04 46 5c be 38 1c f7 bd 21 01 1e bd 14 2a 03 be
       -0.21511084 -0.12065929 -0.038575295 -0.1280902

VAE.encoder_mu.layers.0.attention.W_k.weight f4 [4, 4]
000000 99 5c 21 be a0 b3 1f be 85 e8 e5 3e 4d 15 61 be
       -0.1575798 -0.15595865 0.4490396 -0.21980782
000010 25 9a 12 bf ad 1e 89 3e d5 10 38 bc 2f 77 da be
       -0.57266456 0.26781216 -0.011234482 -0.42669055
000020 25 72 29 3e 74 63 82 be 1a 17 9d 3d c1 92 14 be
       0.16547449 -0.25466502 0.07670422 -0.14509107
000030 d2 d2 6a bd 71 61 a5 be f4 2c be 3d 06 54 b1 be
       -0.05732996 -0.32300904 0.09285918 -0.34634417

VAE.encoder_mu.layers.0.attention.W_k.bias f4 [4]
000000 75 c3 6f 3a 3c 10 43 b8 07 8d 39 3a 5e 7d 31 3a
       0.0009146252 -4.6506742e-05 0.00070782047 0.00067706953

VAE.encoder_mu.layers.0.attention.W_v.weight f4 [4, 4]
000000 5d 6b 68 bb c9 f1 07 be 61 ae af bd 9e 2f 81 3c
       -0.0035464384 -0.13275827 -0.08578182 0.015769776
000010 84 6e 55 3e 9e f7 6e bd 05 9d 5a be c1 eb 0b 3e
       0.2084294 -0.058341615 -0.2134896 0.13664152
000020 1d 08 5e 3c ec 00 f7 bd 56 91 ca bd e5 d7 cc 3c
       0.013551739 -0.12060723 -0.09891002 0.02500529
000030 e4 d2 89 3c 89 af ff bd c1 50 ca bd d8 5d fc 3c
       0.016824193 -0.124846525 -0.09878684 0.030806467

VAE.encoder_mu.layers.0.attention.W_v.bias f4 [4]
000000 7c fb a8 bd 3b 40 07 3b b9 7d 02 3e 63 c2 f8 bc
       -0.08251092 0.002063765 0.12743272 -0.030366128

VAE.encoder_mu.layers.0.linear0.weight f4 [128, 4]
000000 ee 92 d1 be 21 7a 44 3e e9 6a b0 3e d7 75 84 be
       -0.4093241 0.19187213 0.34456566 -0.25871155
000010 48 46 62 be 8c 02 13 3e af ce d1 be 83 84 74 3d
       -0.22097123 0.1435644 -0.40978 0.059696686
000020 1a f2 87 be 4c b9 e2 3e 8b 9b bd 3d eb 87 2e be
       -0.26551896 0.44281995 0.09258183 -0.17044036
000030 d7 81 95 be c2 e5 aa 3e 66 73 85 3e 6f 74 07 3f
       -0.29200622 0.33378416 0.26064605 0.5291204
000040 90 f7 ac 3e b8 5d 81 bd 8a 2d af 3e d9 c2 f7 3e
       0.33782625 -0.063167036 0.3421443 0.48390844
000050 67 7b 0a 3e 8c 68 bc bd 76 09 12 3d bb 64 dd 3e
       0.13523637 -0.09199628 0.035653554 0.43240914
000060 bd 7d af bd 6c 04 fa be d6 ef 32 3e 4a 98 13 3e
       -0.085689045 -0.488315 0.17474303 0.14413562
000070 f7 5d 0e 3e db 87 93 be f9 04 db 3c 51 2b 96 3c
       0.13903032 -0.28814587 0.02673577 0.018331202
000080 a2 10 9e be 81 d2 44 be d4 83 a3 3e 9f ea ca be
       -0.30872065 -0.19220926 0.31936514 -0.39632127
000090 49 dc 6a bd 2e 39 d8 be 35 47 b6 be dc ae f4 3d
       -0.057338987 -0.42231125 -0.35601202 0.11947414
0000a0 b6 c0 d1 3e d8 a5 9b 3e fa 3e 88 be 76 be c3 3e
       0.4096734 0.30399966 -0.26610547 0.38231248
0000b0 9e c0 a2 3e fd ad c5 3d 6a 54 a3 3e 0f 60 b9 bd
       0.3178758 0.09652326 0.3190034 -0.09051525
0000c0 ad 42 b9 be f1 b8 92 3e 12 97 a0 be 32 fa a3 3e
       -0.36183682 0.28656724 -0.31365258 0.3202682
0000d0 cd b3 1a 3e bf cd 94 be 2f ed 03 be 25 7e 05 bf
       0.15107651 -0.29063222 -0.12883447 -0.52145606
0000e0 b4 3f 01 3f f9 25 6d bd 04 4f 53 be 10 bc 92 be
       0.5048783 -0.05789754 -0.20635611 -0.28659105
0000f0 7a 58 59 be ce 45 eb be 5d 5c 15 bf 7c 2e 6f 3e
       -0.21225157 -0.45951694 -0.5834406 0.23357576
000100 94 73 3e 3e a9 c3 1e be 56 c1 2f be b9 55 19 3e
       0.18598777 -0.15504326 -0.17163596 0.14974107
000110 ba c9 00 3e f6 3d e4 3d 10 59 b1 be 1a 8f eb 3e
       0.12576953 0.111446306 -0.34638262 0.46007615
000120 85 fd c2 be cd 4a be be 38 de f1 3e ac ca b3 be
       -0.38084045 -0.37166443 0.47239852 -0.35115564
000130 ee 09 18 3a 52 f2 88 be 5c b5 00 bf 8f ea 2c bd
       0.00057998195 -0.26747376 -0.5027673 -0.04221588
000140 a1 fe 98 bc 9a 77 c1 3d d6 65 07 3f 31 06 00 3f
       -0.018676104 0.0944664 0.52889764 0.5000945
000150 1b 8d b6 bd 5b 93 26 bd 68 f1 ee bd 1f 12 f9 be
       -0.089136325 -0.040667873 -0.11667138 -0.48646638
000160 9b 93 66 be cf ab 62 3c ca 1b 75 be 2a 6f ca 3e
       -0.22517245 0.013834908 -0.23936382 0.39537936
000170 1b 7d 8e 3e 1e aa 31 3b 3c 49 0c 3f 0f f9 d4 3e
       0.27829823 0.0027109454 0.54799247 0.41596267
000180 42 c7 81 3e 94 8d 82 3e 0b 0c d9 bd 6f b8 ad be
       0.25347334 0.2549864 -0.10598 -0.33929774
000190 85 0c 2d 3f 18 63 fb be aa 8e 96 3e 09 9c a7 be
       0.6759723 -0.4909904 0.2940572 -0.32736233
0001a0 39 39 9f 3d a6 14 8e be 37 8e 1b be a5 0a 06 3e
       0.07774586 -0.27750129 -0.1519097 0.13089998
0001b0 e5 bf a1 3e fe 9a 8e 3e 09 9e dd 3e e9 08 bb 3e
       0.31591716 0.27852625 0.43284634 0.36530235
0001c0 af 58 2d 3c 30 8a d8 3e 3e 1b b0 be da 1c 9c 3e
       0.010580226 0.4229293 -0.34395784 0.30490762
0001d0 69 ec eb 3c 9c b4 e1 3d 21 8e 28 be db 46 49 3e
       0.028799253 0.11020777 -0.16460468 0.19655935
0001e0 cd 27 82 be 24 74 6c be ef e1 d1 bd cd 30 7e 3e
       -0.2542099 -0.23091179 -0.102481715 0.24823304
0001f0 7e 75 80 bd 8e 48 a3 be 47 a6 03 be d4 fc fd bd
       -0.0627241 -0.31891292 -0.12856399 -0.12401739
000200 3b 33 c0 be 93 b2 87 3e 1d ba 03 bf a3 cb ea 3d
       -0.37539086 0.2650343 -0.5145586 0.11464622
000210 79 02 0c be ef 45 db bd bb 64 94 bc 46 1d b1 be
       -0.13672818 -0.10706698 -0.018114438 -0.34592646
000220 36 11 77 3e 66 b3 ee 3d d7 92 11 be 5a 0b f4 3e
       0.24127659 0.11655311 -0.14216171 0.4766491
000230 10 a9 55 3e f0 bb 84 3e 38 4a c1 3e 65 3c 47 be
       0.20865273 0.25924635 0.37751937 -0.19456632
000240 9c 0e 04 bf 11 01 9b 3e cf 81 eb 3b 7e 56 3d 3e
       -0.5158479 0.3027425 0.0071871052 0.18490025
000250 a4 3e bb 3e 47 38 3d 3c 6d 0a 4d 3e 98 5b cd 3e
       0.36571229 0.011549062 0.20023508 0.40108943
000260 2d 02 cc be 83 89 5d bd b8 10 39 3e 53 51 e2 3e
       -0.3984541 -0.05408622 0.18072784 0.4420267
000270 21 30 41 3e c0 c9 28 be 67 a4 da 3e 86 bf 40 bc
       0.18866016 -0.16483212 0.42703554 -0.011764413
000280 84 b3 fe be 0c 81 5a 3d ca b2 42 be 4a 05 f7 be
       -0.49746335 0.053345725 -0.19013515 -0.48246223
000290 d7 f9 e2 be ae 72 7c 3e 99 e5 cf be 0c dc fd bd
       -0.44331238 0.24653122 -0.40604857 -0.12395486
0002a0 08 30 c9 bd 6c e5 c3 3e 7b fd c8 be 4c 22 50 3d
       -0.09823614 0.38260972 -0.3925589 0.050813958
0002b0 a7 02 f8 be 2d 8f 98 3e b4 12 a0 3d 88 03 e0 bd
       -0.48439524 0.29796734 0.07816067 -0.109381735
0002c0 8b a2 ac 3d d4 84 b6 3e f2 05 5b 3e f0 b7 06 3f
       0.0842944 0.35648215 0.21388987 0.52624416
0002d0 0b e7 30 3c b4 88 99 be a0 b2 85 bd be f1 3b be
       0.010797272 -0.2998711 -0.06528211 -0.18353936
0002e0 b7 b3 ed bd 66 3a 33 be 7e 72 5a 3e b4 30 09 bf
       -0.116065435 -0.17502746 0.21332738 -0.5358994
0002f0 b0 9d ab be 39 a7 1f be fe 17 98 bd 8e c0 9c 3e
       -0.33518744 -0.15591134 -0.07426451 0.30615658
000300 79 95 66 3e f1 7c 94 be be c7 10 bf 78 0e 72 be
       0.22517957 -0.29001573 -0.5655478 -0.23638332
000310 0c fc ce 3e 98 14 88 3e 4e 74 cf be 2e eb 91 bc
       0.40426672 0.26578212 -0.4051842 -0.017812338
000320 71 cc 47 be c4 16 48 3d 51 81 6a be 07 38 d1 be
       -0.19511582 0.048849836 -0.22900893 -0.40863058
000330 6a 2a 9d 3d b7 23 84 3d b8 e4 9e be 1f 4e 81 be
       0.076741055 0.064521246 -0.31033874 -0.25254914
000340 d3 9e 0d 3e d4 6f de be 09 e7 5f 3e f9 af 9f 3d
       0.13830118 -0.43444693 0.21865477 0.07797236
000350 2b c1 37 bd 36 1c f3 3b aa b5 23 3f c2 b2 39 3d
       -0.044861954 0.0074191345 0.6394907 0.045336492
000360 20 c8 25 3f 6a 7d ac 3d ac cb 01 bf ff 24 9f 3e
       0.6475849 0.08422358 -0.50701404 0.31082913
000370 0a 46 e8 3d f1 f0 9c 3d 55 fb 8c 3e e2 6c db be
       0.11341484 0.076631434 0.275355 -0.42856508
000380 d0 b8 68 bd 17 56 a4 be 06 f9 b6 be d2 db 01 3f
       -0.056816876 -0.3209693 -0.35736865 0.50726044
000390 7f 1c 7f be bc a8 e9 3d 86 c7 56 be b7 b3 c1 be
       -0.24913214 0.11409137 -0.2097455 -0.37832424
0003a0 ca 0f 9e be 6c 51 bf 3e b1 f2 8a be a0 c5 07 be
       -0.3087142 0.37366807 -0.27138284 -0.13258982
0003b0 d4 45 c6 3b 48 e0 06 3f 2c b9 df bd c3 21 01 bb
       0.0060508046 0.52685976 -0.109239906 -0.0019703961
0003c0 39 32 90 3c 4b ac 69 3e 48 b5 19 bf 24 f6 80 3e
       0.017602073 0.22819631 -0.6004224 0.2518779
0003d0 ab 36 ed bd d5 45 c5 be b1 3e 8c 3e 84 c7 f7 be
       -0.11582693 -0.3852984 0.2739158 -0.48394406
0003e0 47 77 76 be 7b 5a ce 3e 28 0f b8 be 56 3f 8e be
       -0.24068938 0.40303406 -0.35949063 -0.27782696
0003f0 7f 5a b5 be 4c f6 a6 be 85 42 6d be 60 95 ee 3e
       -0.35420606 -0.32609785 -0.23169906 0.4659834

VAE.encoder_mu.layers.0.linear0.bias f4 [128]
000000 0d 72 1c be a5 a3 bf be 85 4b 91 bd 50 29 38 3e
       -0.15277882 -0.37429538 -0.07094482 0.1798451
000010 d5 9a de be 26 03 4e 3e e3 be cd be fa ec 68 3e
       -0.43477502 0.20118389 -0.40184698 0.2274665
000020 aa 27 66 bd ce 26 9e bb c9 d3 82 be cf 95 31 be
       -0.05619017 -0.004826403 -0.25552204 -0.17342304
000030 bd d8 ee 3e c4 c9 ae 3e ad f3 73 be a3 8f 02 be
       0.46649733 0.3413831 -0.23823424 -0.12750106
000040 c1 96 e7 3d 85 45 d0 3e 8e dc 81 be cc 77 94 bb
       0.11308051 0.4067804 -0.25363582 -0.0045308825
000050 a6 e3 a0 bd b3 54 a6 3e 0d 8d 0c bf 74 d9 a9 3e
       -0.078559205 0.32486495 -0.54902726 0.33173716
000060 f6 ef 46 3e 50 d5 0c 3e 43 21 90 be c6 09 61 3e
       0.19427475 0.13753247 -0.28150377 0.21976385
000070 4d da fc 3d 9e 51 e3 be e3 99 08 3e 55 b0 31 3d
       0.12346325 -0.44398206 0.13339953 0.043381054
000080 d1 6b c2 be 5b 65 f0 3d 53 51 73 be fc b9 61 3d
       -0.37972882 0.11738082 -0.23761491 0.05510901
000090 1a 58 94 3e 4c 08 ea be a4 a0 c5 3e 15 42 15 3f
       0.28973466 -0.45709455 0.38599122 0.5830396
0000a0 24 f5 8f be 02 db 46 3e 45 ef 71 bc 45 b0 bd bd
       -0.28116715 0.19419482 -0.014766519 -0.09262136
0000b0 bd 73 3a 3d f5 6a f1 be e3 83 ee bc 66 6a 00 3f
       0.045520533 -0.47151914 -0.029115623 0.5016235
0000c0 2f 82 27 bf 37 d6 0c bd 31 6d 10 3f 16 7c 0b bf
       -0.6543302 -0.03438398 0.5641661 -0.54486215
0000d0 f6 f8 bb be dd 0f b3 3e 7d e3 9d be 8f a0 c8 3e
       -0.3671338 0.3497304 -0.30837622 0.39184996
0000e0 4d 50 6c bd 7a c1 30 bc 31 d6 e7 3e b2 8c c2 3e
       -0.05769377 -0.010788316 0.45280603 0.37997967
0000f0 e7 24 f8 3c 86 78 40 3e 5e 3b df 3e d1 6a 95 3e
       0.030291034 0.18795976 0.4359998 0.29183057
000100 8f bd c4 3e d4 07 8b 3e c1 ac 8c be a7 5a 48 3e
       0.38425872 0.2715441 -0.2747555 0.19565831
000110 10 77 a5 be b8 69 e0 3e eb c0 9a 3e 86 b6 8d 3e
       -0.323174 0.43830657 0.3022531 0.27678317
000120 42 71 9e 3e 48 85 b0 3e 82 df a6 be b3 74 17 3e
       0.30945784 0.34476686 -0.32592398 0.14790611
000130 5a 66 35 be bb 25 0c 3f 63 cc df 3e 1c 52 7b 3e
       -0.17714825 0.5474507 0.43710622 0.24543041
000140 03 d8 b3 be d5 12 99 3e d1 f8 7e be 87 03 30 3e
       -0.3512574 0.2989718 -0.24899603 0.17188846
000150 92 5e 9b 3d bd 9f bd 3e 45 c3 69 be 83 e5 c3 3e
       0.07586397 0.37035933 -0.22828396 0.3826104
000160 4c 0f 2d 3e a3 bd e0 3e 31 3a a5 3c 3b ee 19 bd
       0.16900367 0.4389468 0.02016935 -0.03758071
000170 78 73 c4 3d 2c 3c 09 bf 5f f3 be bd 2e bd 52 be
       0.095923364 -0.5360744 -0.09323763 -0.20579979
000180 74 25 79 3e 20 2a 1d 3d 08 7f c5 3d 2d 0d a2 be
       0.24330693 0.03837025 0.0964337 -0.31650677
000190 31 a6 ce be cd f2 01 be f3 39 af 3e 7c 61 b9 3e
       -0.4036117 -0.12690277 0.342239 0.36207187
0001a0 16 97 db 3e 26 fc 81 be eb aa 76 be fc 3d 49 be
       0.42888707 -0.25387686 -0.24088638 -0.19652551
0001b0 fa 5c 86 3e 45 02 52 3e d5 23 95 be 92 5e ad bc
       0.2624281 0.20508678 -0.291289 -0.021163259
0001c0 77 84 6a 3c 3d 66 da 3e ec f6 b1 be 5f 64 b3 bc
       0.014313809 0.42656127 -0.347587 -0.021898447
0001d0 95 2a 4d bd bf c9 41 3e 90 da fa bd 3d 7e 7e bd
       -0.050089438 0.18924616 -0.12248719 -0.06213211
0001e0 ec cb e6 be 33 cf eb 3e 77 4d a9 be 14 e4 4a 3e
       -0.45077455 0.46056518 -0.33066913 0.19813567
0001f0 91 de 04 3f 78 e1 b5 be ee 1a be 3d 1b ac c6 3e
       0.5190211 -0.35523582 0.0928248 0.3880318

VAE.encoder_mu.layers.0.linear1.weight f4 [4, 128]
000000 9e 78 3e 3d b4 ff 0a bd b0 40 b6 3d 4d dd e6 bc
       0.04650175 -0.033935264 0.08899057 -0.028181696
000010 44 f9 9c 3b 3a 80 c2 3d 97 50 80 bd 9d 20 03 bd
       0.004790457 0.094971135 -0.06265371 -0.032013524
000020 03 75 3b bd 7b 19 42 3d 9a c4 c9 3c 72 0d d2 3d
       -0.045765888 0.04738758 0.02462988 0.10256471
000030 71 0e 13 3e 8c f4 89 bd 18 41 45 bd 44 33 06 3e
       0.14360978 -0.06736097 -0.04815778 0.13105494
000040 9c 2d 99 3d d5 a3 9a bc e8 6d 5c 3c 21 4a b7 3d
       0.074794024 -0.01887695 0.013453938 0.08949686
000050 af 95 b7 bd 70 5e 8a 3d f0 17 b3 3d 29 e2 0e bd
       -0.08964097 0.06756294 0.087448 -0.034883652
000060 bc 0b 90 bd 24 92 54 be 72 af b6 bd f7 99 35 3d
       -0.07033488 -0.20758873 -0.08920182 0.044336285
000070 14 75 9d bc 8e 0a 57 bd 9d 1f 4b 3d 61 0f 85 bd
       -0.019220866 -0.0525003 0.049590696 -0.06497074
000080 b8 ac a7 3d 1d 09 00 3e 26 cc f2 3d 75 61 34 3e
       0.0818724 0.12503476 0.118553445 0.17615302
000090 12 6e f6 bc 53 e2 a7 3d 26 20 28 bd e3 7d e3 bc
       -0.030081782 0.08197465 -0.041046284 -0.027769988
0000a0 5a 75 d9 3d 70 f6 f3 bc af 4e de 3d b2 60 55 bd
       0.10618086 -0.029780596 0.108548515 -0.05209417
0000b0 22 9c 32 39 a7 b5 22 3d 16 41 6c 3d 29 58 98 3d
       0.00017033567 0.03972402 0.05767926 0.0743869
0000c0 b8 87 ff be 4d 4d 3d 3d e7 db f6 3d 76 9c 32 bd
       -0.49908233 0.046216298 0.12053662 -0.043606244
0000d0 94 9a f3 3d ed c1 c5 bb e6 02 88 be da 1a 9f 3d
       0.11894718 -0.0060350806 -0.2656471 0.077687934
0000e0 50 43 c2 bb cb 13 c0 3d c0 31 cd 3c a1 b6 ff 3d
       -0.0059284344 0.09378775 0.025048137 0.124860056
0000f0 03 ec 9b 3c 01 6c 93 bd f0 d9 6f 3d ee 78 05 3c
       0.019033438 -0.071983345 0.05855745 0.008146508
000100 63 1a c8 3c aa b4 b4 bd e2 99 0c 3d b0 01 d0 bc
       0.024426645 -0.088235214 0.03432644 -0.02539143
000110 d5 9b bd bd b8 74 93 bb 8f b7 93 3d 9c 2f 9c bd
       -0.09258238 -0.004499998 0.072127454 -0.07626268
000120 77 97 eb 3d b2 d2 5d 3d 61 ea 01 3e c7 01 ef 3d
       0.11503499 0.054156013 0.12687065 0.11670261
000130 ab 73 30 bc 75 b1 d0 3d 50 53 ad bc 68 8c ca 3c
       -0.010769765 0.10190097 -0.02115789 0.024725154
000140 eb 52 b1 3c c9 e9 c3 bc 2c 67 57 3d bc 0a 9b 3d
       0.021645984 -0.023915188 0.052588627 0.07570407
000150 dc d1 36 3c a3 f1 9a 3d 87 1e ea 3c 55 c1 33 3d
       0.011158433 0.0756562 0.02857901 0.043885548
000160 8a 5e 4f 3c 30 42 23 3d b6 9c e7 bc 6a 08 cb 3b
       0.012656817 0.039858043 -0.028272968 0.0061960714
000170 17 3b ce 3d 48 26 37 be 33 da e7 3d 74 ab c8 bd
       0.10069864 -0.17885697 0.11320915 -0.09798327
000180 00 b6 68 bc 0b 87 1c 3e 49 d2 43 bd e6 9c 51 bd
       -0.014203548 0.1528589 -0.047807965 -0.05117502
000190 9e 9c 51 bc 22 ac fc 3d ba 88 27 3d 20 57 a4 3d
       -0.012793688 0.12337519 0.040901877 0.0802443
0001a0 36 c7 4d bd df ec e4 3c af 1f 06 be 89 2e 8a 3d
       -0.05023881 0.02794498 -0.13098024 0.06747157
0001b0 89 c4 e1 3d a7 a8 da 3d fc 17 21 3d a1 74 db bd
       0.11023814 0.10676699 0.039329514 -0.107156046
0001c0 fc 05 04 bd 89 5b 2b bd 42 fa b1 bd 5e 23 2a 3e
       -0.03223227 -0.04183534 -0.08690311 0.16615054
0001d0 da 8e af 3d 7b 94 37 bd b2 cc c6 3c 3d ce ec 3d
       0.08572169 -0.044819336 0.024267528 0.11562774
0001e0 8f 84 5c 3d 9b e5 0a 3c fc 77 a1 bb 82 09 9f bd
       0.053837355 0.008477594 -0.0049276333 -0.07765485
0001f0 37 18 00 3e 0a 27 a8 bd a8 cb 8d 3d bf b8 b5 3d
       0.12509237 -0.08210571 0.0692361 0.08873128
000200 bf fe 27 bc d0 d4 d4 bd e3 75 fc 3c b2 d0 e7 3c
       -0.010253607 -0.10392153 0.030817932 0.028297756
000210 bb 85 71 3d 21 69 d9 bc de 68 36 3c 31 fe b7 bc
       0.058965426 -0.026539387 0.011133401 -0.022460075
000220 17 17 b9 bd ec 18 b3 b9 cc 39 83 3d 2f d6 c9 3d
       -0.09037607 -0.0003416011 0.06407508 0.098553054
000230 f9 52 be 3c 4a 4c 85 bd 3e 07 16 bc 57 8d 42 bd
       0.023232924 -0.065086916 -0.009157 -0.047498073
000240 80 01 a5 bd b3 99 04 3b 11 e1 8f bd be 88 d4 3c
       -0.08056927 0.0020233213 -0.0702535 0.02594411
000250 05 7c f6 3d c9 68 88 3d c3 d7 77 bd 52 35 8c 3c
       0.120353736 0.06660611 -0.0605085 0.017115269
000260 0a 6b 2a 3d 07 dc 76 3c 83 ce 03 3e 73 ab 85 3d
       0.041605987 0.015067107 0.12871747 0.06526842
000270 78 87 3f bd 0d fd ed bd 5b 52 39 3d 42 36 b0 3c
       -0.046760052 -0.11620531 0.045244556 0.021510247
000280 f0 56 0d be 8a 97 e0 bd 94 0a 63 be c5 f4 39 be
       -0.13802695 -0.10966404 -0.22172004 -0.18159778
000290 24 80 9d bd 96 55 3d 3e 39 a0 39 3d d0 18 80 bc
       -0.076904565 0.1848968 0.045318816 -0.015636832
0002a0 83 4b 50 be 6d 82 9e bb bc 2e 4b 3c 07 5e 79 3d
       -0.20341305 -0.0048373253 0.012401279 0.060880687
0002b0 cf 01 dc 3d 13 59 45 bd 42 e3 b9 bd 41 15 c5 3d
       0.107425325 -0.04818065 -0.09076549 0.096231945
0002c0 13 99 1a bf a6 a1 d3 3c 9b 1d 15 bc c6 ca 23 3d
       -0.6038982 0.025833916 -0.009101297 0.0399883
0002d0 34 13 2c bd a7 71 77 3d 8b 66 bd 3d c2 32 4d bd
       -0.0420105 0.06041112 0.09248074 -0.050097235
0002e0 3d b6 93 3c 23 47 2b bd 9d 6b 0a be 4e de 78 bd
       0.018031234 -0.041815888 -0.13517614 -0.06075888
0002f0 cc 4f ab bd 5d 77 91 bd f3 a9 f0 bd 76 0a 9d 3d
       -0.083648294 -0.07102845 -0.11751165 0.07668011
000300 fe e0 36 bd 68 ef dc 3d 12 ff 95 bc 1b 08 67 3d
       -0.044648163 0.107878506 -0.018310104 0.056404214
000310 39 18 9b bd 06 d0 8e bc 1d 72 9d 3d 1d 89 85 3d
       -0.075729795 -0.017433178 0.07687781 0.06520293
000320 57 a9 d7 bd ca e1 af 3d f8 ce e8 bd 0c e8 bd bc
       -0.10530346 0.08587988 -0.11367601 -0.023181938
000330 0d e9 7c 3d 96 58 38 bd 10 fd ba 3d cf 19 83 3c
       0.061745692 -0.045006357 0.09130299 0.016003517
000340 8e 8c a8 bd 54 ee 89 bb 45 cd b8 bd af b7 e1 3d
       -0.08229934 -0.004209319 -0.09023527 0.11021363
000350 09 3f 14 be 62 db 84 3d 43 75 13 3d 6c e9 78 3d
       -0.14477171 0.064871565 0.0360005 0.060769483
000360 28 5e f7 3c c8 c6 29 bc 86 64 8c 3d 01 b8 7b bd
       0.030196264 -0.010362335 0.06855111 -0.061454777
000370 ca 03 06 3c 77 8c 25 be 9a dd 74 bd ae 56 ad 3d
       0.008179614 -0.16166864 -0.05978165 0.084637985
000380 f1 a0 eb 3c 57 a8 9a bd 92 18 44 3d 81 b2 16 3d
       0.028763266 -0.075516395 0.047874995 0.03679133
000390 89 b4 00 be 5e f0 a6 bd 9e 04 03 3e 73 4f 07 3c
       -0.12568869 -0.08151315 0.1279473 0.008258688
0003a0 eb d5 f5 bc 8a aa 51 3c 4d 37 0b 3e a8 b2 1c 3e
       -0.03000923 0.012797007 0.13595314 0.15302527
0003b0 d2 99 17 be 0f 2e 6f bc c0 b1 b5 bd 06 72 e7 3c
       -0.14804772 -0.014598384 -0.08871794 0.028252613
0003c0 f0 d5 97 3c 31 c6 91 bd d2 d0 ef 3d c4 1c e3 3c
       0.01853463 -0.0711788 0.11709751 0.027723677
0003d0 44 d2 02 be 93 4b 7c bd 72 45 8e 3d 38 da c2 3d
       -0.12775522 -0.06159551 0.069468394 0.09514278
0003e0 65 55 94 bd 97 c2 d1 bc fb 13 00 3d 40 ea 55 3d
       -0.0724285 -0.025605483 0.031269055 0.05222535
0003f0 45 5a 4f 3b 7e 20 fb bd 5c 12 3c bc e3 06 57 3d
       0.0031639498 -0.12262057 -0.011478987 0.052496802

VAE.encoder_mu.layers.0.linear1.bias f4 [4]
000000 65 1c f8 3c d9 8c a0 3d 92 e4 f8 3b 57 9a b1 3b
       0.030286977 0.078393646 0.007595607 0.00542001

VAE.encoder_mu.layers.0.norm1.weight f4 [4]
000000 aa a5 8f 3f 7a a5 80 3f ae 30 8a 3f fc 75 8a 3f
       1.1222432 1.00505 1.0796106 1.0817256

VAE.encoder_mu.layers.0.norm1.bias f4 [4]
000000 04 42 4c 3d bc f7 ca 3d 1f bd c2 bd 43 d2 81 3b
       0.049867645 0.09910533 -0.09508728 0.0039618327

VAE.encoder_mu.layers.1.attention.W_q.weight f4 [4, 4]
000000 2c 42 41 3d 26 e1 8c 3e e4 6b c6 bc 09 17 50 3e
       0.047182247 0.27515525 -0.024221368 0.20321287
000010 0b af 12 be df f9 4d 3d ed 09 37 3d 1d a8 93 be
       -0.14324586 0.050287124 0.0446872 -0.28839198
000020 1d a0 b4 be c2 6a 01 be 98 01 b6 be a0 3c c0 be
       -0.35278407 -0.12638381 -0.3554809 -0.37546253
000030 2f 68 ba be b9 33 86 3e 51 6d ef be aa ac 99 3e
       -0.3640761 0.26211336 -0.4676309 0.30014545

VAE.encoder_mu.layers.1.attention.W_q.bias f4 [4]
000000 59 b7 d5 bd f2 c3 7b bd 44 a6 e7 bd d9 aa 8c bd
       -0.104353614 -0.061466165 -0.113110095 -0.06868524

VAE.encoder_mu.layers.1.attention.W_k.weight f4 [4, 4]
000000 ac d8 da be 8a ae d0 be 15 d3 51 be 05 ae 95 be
       -0.42743433 -0.40758163 -0.20490678 -0.2923433
000010 9c 86 a3 be a9 6c a2 3e 49 dc f0 bd 0c 42 d5 3e
       -0.31938636 0.31723526 -0.11760766 0.41651952
000020 e9 40 52 bb b8 d6 c1 be b3 24 c7 be ef ff d8 bd
       -0.0032082146 -0.3785913 -0.38895187 -0.105956905
000030 6c 19 b0 be 39 b3 88 be 70 2a 04 3a 5b 33 91 bd
       -0.34394395 -0.26699236 0.0005041724 -0.070898734

VAE.encoder_mu.layers.1.attention.W_k.bias f4 [4]
000000 74 cf 48 38 c2 07 51 b8 f6 48 f4 37 c9 13 1d 39
       4.787692e-05 -4.9836708e-05 2.9121042e-05 0.00014980057

VAE.encoder_mu.layers.1.attention.W_v.weight f4 [4, 4]
000000 78 bf e8 be 22 ec 1a bf 4b 55 81 be 45 02 38 be
       -0.4545858 -0.6051656 -0.25260386 -0.17969616
000010 2b 9d a2 bd e5 46 fc bd 14 6a e1 3d 6e c0 0c 3e
       -0.07940134 -0.123182096 0.11006561 0.13745281
000020 83 3a b0 bd 17 13 0a be bd 01 ca 3d 5f cf 12 3e
       -0.0860491 -0.13483845 0.09863613 0.14336918
000030 83 df 5e bc 62 60 ff 3b dc 1d 00 3e ba 85 0d 3e
       -0.013603094 0.007793472 0.1251139 0.13820544

VAE.encoder_mu.layers.1.attention.W_v.bias f4 [4]
000000 6e 43 1a 3d 07 c3 44 bd 7c 3e 7f bd 27 4b 7f 3d
       0.037661962 -0.048037555 -0.06231545 0.06232753

VAE.encoder_mu.layers.1.linear0.weight f4 [128, 4]
000000 c7 28 01 3f eb 9a 56 be 08 f6 61 be 59 80 09 be
       0.50452846 -0.20957534 -0.2206651 -0.13427867
000010 35 b1 04 3f 2a e8 82 3e fa 49 93 3e 11 dd 89 3d
       0.51832896 0.25567752 0.28767377 0.06731618
000020 54 27 1d be 1a 67 e2 be 6e 9c 74 bc a8 8c 44 be
       -0.15347034 -0.44219285 -0.014929874 -0.19194281
000030 c8 c6 25 be dd cc f8 be 1b f8 21 3e 63 0d 9c bb
       -0.1618911 -0.48593798 0.15817301 -0.004762338
000040 37 1c f4 bd dd 66 1d 3e e3 f7 42 3f 8d a7 4c bf
       -0.11919444 0.1537127 0.76159495 -0.7994316
000050 32 3b fc bd c6 66 8c be b2 09 a1 bd 6c ee f1 be
       -0.12315978 -0.2742216 -0.07863177 -0.47252214
000060 69 89 b4 3e bf fc b6 3c b0 b2 06 bf 26 b7 50 3e
       0.35261086 0.022337316 -0.52616405 0.20382366
000070 b3 96 37 3e 9e 35 a9 be 5f ee e6 be bf f9 da 3d
       0.17928581 -0.3304872 -0.45103738 0.106921665
000080 3e 27 f6 be 4a 79 34 bd 3f ec ce 3d 76 75 f0 be
       -0.48076814 -0.044060983 0.10103654 -0.46964616
000090 c7 c8 b1 3e de 15 b0 be b9 63 0d bd 22 0e a3 bd
       0.34723493 -0.34391683 -0.03451893 -0.0796168
0000a0 d0 14 85 3c 1e eb a6 3e 80 60 03 3f 7c e1 e7 be
       0.016245276 0.32601255 0.5131912 -0.45289218
0000b0 a4 5a 82 3e 9d ea d9 3e 5e b8 97 be 4e 61 40 3e
       0.25459778 0.42561808 -0.29632849 0.18787119
0000c0 5e da b9 3e 3a 83 41 3e 14 90 d9 be 07 52 f6 3e
       0.36299413 0.18897715 -0.42492735 0.48109457
0000d0 a8 57 c5 bd b8 36 2f be cc bc 5f be 90 66 bf bd
       -0.0963586 -0.17110717 -0.21849364 -0.09345734
0000e0 9e b6 88 bd 66 56 80 3e e0 5f 22 be e0 54 49 3d
       -0.066754565 0.25065917 -0.15856886 0.04915321
0000f0 92 01 c8 3e de 8a c4 be 5f 25 28 3e a9 52 41 be
       0.39063698 -0.38387197 0.16420506 -0.18879189
000100 9b 28 e8 3e 94 11 b1 3e d6 8c ee be c1 3b 80 3d
       0.4534348 0.34583724 -0.46591824 0.06261397
000110 4b bc 61 be b8 f3 ce bd e0 e7 bb 3d 04 fa 17 3e
       -0.22044484 -0.101050794 0.09175086 0.14841467
000120 eb a6 27 be e2 27 97 be ad 11 2c 3d 68 a1 fd 3e
       -0.16372268 -0.29522616 0.042009044 0.49537206
000130 91 51 a8 be 6d 13 85 3e 50 3d 01 3e f6 1e 06 bf
       -0.3287473 0.25991383 0.12621045 -0.5239099
000140 7d 95 95 3e a3 e8 07 be f2 84 59 3e ab 82 38 bd
       0.29215613 -0.13272338 0.21242121 -0.04504649
000150 97 12 c2 be f0 e9 65 be 51 cf 87 bb 6a 42 08 bf
       -0.37904808 -0.22452521 -0.004144587 -0.5322634
000160 d3 4e cd 3e 40 ca 0f 3f 07 a8 70 bd fa c0 92 3e
       0.400992 0.56167984 -0.058753993 0.28662854
000170 c8 84 8b bd f2 1c cb bd 21 a6 00 3f 52 32 a6 be
       -0.068124354 -0.0991763 0.5025349 -0.32460266
000180 1c 46 8c be 72 24 7b 3e 4b 70 c4 3e 96 6b 82 3e
       -0.2739724 0.24525622 0.38366923 0.25472707
000190 e1 94 b5 3e 21 bc 90 be 6f 7a 61 be ed c0 77 3e
       0.35465148 -0.2826853 -0.22019361 0.24194689
0001a0 42 9d ad 3e c6 4b 47 3e 53 b3 39 be 53 c9 71 3e
       0.3390904 0.19462499 -0.18134813 0.23611955
0001b0 c2 f9 be 3e b8 c5 9e be 7b 3e a2 3d d1 96 a9 3e
       0.37299925 -0.31010222 0.079220735 0.33122876
0001c0 c5 b1 90 bd 67 7b ac be 59 02 9c bd 8a 0e e2 be
       -0.07065157 -0.336879 -0.07617635 -0.44151717
0001d0 63 64 5f 3e 51 99 fc be b6 d6 fe 3e 9a 83 8b be
       0.21815638 -0.4933572 0.49773186 -0.27248842
0001e0 2a 9a cc be 4e f5 40 3e 0f bb d0 be f0 6b a9 3e
       -0.39961368 0.18843576 -0.40767714 0.33090162
0001f0 12 8e ae 3e 28 96 e5 3a d6 f5 c9 3e 18 93 4d 3e
       0.34092766 0.0017516064 0.3944537 0.20075643
000200 4d f9 ac be c7 f2 a8 3e b1 cb d6 3e 6c 0f d2 be
       -0.3378395 0.32997724 0.4195228 -0.4102739
000210 82 67 54 be 7a f7 3e 3e 27 42 e9 3e b6 8e 4e 3e
       -0.2074261 0.18649092 0.45558283 0.20171627
000220 94 ef 8e be 4b 35 06 3e 16 14 8f be 94 e3 88 3e
       -0.2791716 0.13106267 -0.27945012 0.26736128
000230 5c 26 c3 3a 4d 0a 85 bd 5c 40 fe 3b eb dd 1d be
       0.0014888751 -0.06496105 0.007759137 -0.15416686
000240 5a bb 1a bc 8c 43 be 3e e9 0d 20 be 26 5a 88 3d
       -0.009444082 0.3716091 -0.15630306 0.066578194
000250 9a e0 52 be 42 af ba 3e e3 40 8c 3e 8a 93 e7 3d
       -0.20593491 0.36461836 0.27393255 0.11307438
000260 e2 34 b6 be b8 68 bc bd 52 ef b0 3d 4c 3d b1 3e
       -0.3558722 -0.09199661 0.08639397 0.34617078
000270 5d 3f a7 3c e9 18 4d be cb ab 82 3e 7f 3d dd bd
       0.020415956 -0.20029034 0.25521693 -0.10802745
000280 20 32 e2 3e ad 42 a8 bd 3a 4b 60 3e bc 4a d9 be
       0.44178867 -0.082158424 0.21903697 -0.4243983
000290 47 a4 8c be dd 6d 9b 3e 44 d0 e4 3e fd eb 2c 3e
       -0.27469084 0.30357257 0.44690144 0.16886897
0002a0 0b f0 d4 be 14 cd 07 be 52 3a ab be b7 06 0a 3e
       -0.41589388 -0.13261825 -0.33442932 0.13479124
0002b0 78 12 bd 3c 48 5e 7e 3e 8d 51 d2 3d b5 27 45 be
       0.023080096 0.24840653 0.10269461 -0.19253428
0002c0 54 de 83 3e b5 a6 bf be e3 cc 06 3e 74 fa 01 3f
       0.2575556 -0.37431875 0.13164096 0.50772786
0002d0 c7 a1 7d 3e 7c cd bf 3e 2d bc 02 bf 10 ac b3 3a
       0.24768744 0.3746146 -0.51068383 0.0013707895
0002e0 4e 57 f3 be e7 d6 8b 3d 3e ec 9d be 84 77 55 3e
       -0.47527546 0.06828099 -0.308443 0.20846373
0002f0 82 a1 9b 3e d3 87 f7 3d c5 a7 1a be e1 03 8d 3e
       0.30396658 0.12086453 -0.15103061 0.27542022
000300 7b 4e 00 be 19 d0 d0 3e 81 7a ae 3e 9d b2 ad 3e
       -0.12529938 0.40783766 0.34077838 0.33925334
000310 d5 b3 c7 be cf 2d e3 be 69 bd 1b be cf 7e 30 3e
       -0.39004388 -0.44370887 -0.15208973 0.17235874
000320 a3 df b1 be bb f9 26 3d a6 f4 a3 3d 1e 28 c3 3e
       -0.34740934 0.040765505 0.08005647 0.38116544
000330 31 07 d3 3c f3 53 9f be 97 4b 06 bf ea d1 10 be
       0.025760265 -0.31118736 -0.5245909 -0.14142576
000340 78 f3 76 3d 5b c0 94 be 0a 18 cd bd 59 8d 04 3f
       0.060290784 -0.29053006 -0.10014351 0.5177818
000350 31 81 f2 bc 6b 80 39 be df b3 4a 3e c4 90 0d bf
       -0.029602619 -0.18115394 0.19795178 -0.5529902
000360 bd 8d 80 bd 0c 98 dd be bd 3f 80 3e 08 be 9f be
       -0.062770344 -0.43280065 0.25048628 -0.3119967
000370 93 ac 8c be 12 7c eb 3e 84 45 f7 3e a5 92 85 be
       -0.27475414 0.45993096 0.48295224 -0.26088443
000380 42 b4 7d be 24 a5 9b bb 7b 51 a2 be 3f 77 fd 3e
       -0.24775794 -0.004749911 -0.3170279 0.4950504
000390 ef 6e 0e 3d 21 a1 59 3e 23 6a 75 3e 29 c8 8d 3e
       0.034773763 0.21252872 0.23966269 0.27691773
0003a0 3c d4 a0 3e ab c9 ae 3e 68 0e c8 be 31 0a 23 3e
       0.31411922 0.34138235 -0.3907349 0.15921856
0003b0 2a 3f 1b bd 3f ef 52 be c2 25 e0 be 07 3c 24 3e
       -0.037902035 -0.20599078 -0.43778807 0.16038524
0003c0 f2 59 85 be 97 47 28 3e 29 82 61 3e 83 9a 2f be
       -0.26045185 0.1643356 0.22022308 -0.17148785
0003d0 28 ab ef 3e a7 94 c7 bb 1c 84 a0 3e 6b 08 da 3e
       0.4681027 -0.006090719 0.3135079 0.42584547
0003e0 6f f7 ad bd 11 8e 8a 3e e7 2c 07 3f 4d 11 b6 be
       -0.0849446 0.27061513 0.5280289 -0.35560074
0003f0 b1 da e6 3e a3 66 83 3e c4 f4 71 be b6 00 13 3e
       0.45088723 0.25664243 -0.23628527 0.1435574

VAE.encoder_mu.layers.1.linear0.bias f4 [128]
000000 1d 2d 3e 3e b7 f6 a6 be 5c 69 9e 3d 0d 56 b8 be
       0.18571897 -0.32610103 0.077349395 -0.36003152
000010 b2 ad f3 be 0e b0 15 3e 2d db 96 be 1c e8 ae bc
       -0.47593457 0.14617941 -0.29464093 -0.021350913
000020 b2 8d 0c 3e 76 d1 c1 3d 2d 6c 1f 3e a4 ef a7 3e
       0.13725927 0.0946378 0.1556861 0.3280002
000030 57 f6 68 be 88 43 b6 be 8a 48 0a 3d 8e 3f b8 3e
       -0.22750221 -0.35598397 0.033760585 0.35985988
000040 fe e4 d5 3e 1e ae bc 3c fd cd 6e be 3e 4b 59 3e
       0.4177627 0.023032244 -0.23320766 0.21220109
000050 04 39 ea 3c 28 ee 03 3f 5e ad f7 3c 52 e5 16 3f
       0.02859164 0.5153527 0.030234035 0.58943665
000060 2c 1e c6 3e 0c e1 b5 be 74 c4 7e 3e e3 73 e0 3d
       0.38694894 -0.3552326 0.24879628 0.10959604
000070 ec 7f 04 bf 5f 1b 4d 3c 01 55 35 3e 36 5d 56 3e
       -0.51757693 0.012518733 0.17708208 0.20933995
000080 fb 51 98 be 8e e4 6a be d0 b0 77 3e 1e 94 3f be
       -0.29750046 -0.22938749 0.24188542 -0.18708846
000090 b9 98 18 be 02 ac ae be 9f b0 5b 3e 3e 91 54 3c
       -0.14902009 -0.34115607 0.21454094 0.012974082
0000a0 77 a0 84 be 9f b8 5c be bd cb 8f be 85 28 a7 3e
       -0.25903675 -0.21554802 -0.28085127 0.326481
0000b0 bf a3 ed 3e de 04 d9 3d 53 9e a4 3d 60 86 16 be
       0.4641399 0.105966315 0.080380104 -0.14699697
0000c0 95 b0 07 bf 29 a2 e3 be 4d b9 5e bd 08 7b 07 be
       -0.5300382 -0.44459656 -0.054375935 -0.13230526
0000d0 af 75 be be 7a 20 89 bb 20 ea 9c bd 65 b3 d9 be
       -0.3719916 -0.0041847797 -0.07661843 -0.4251968
0000e0 47 ad b2 3d d9 74 c0 3e bb e5 0c bf 4a 8c 92 3d
       0.08724456 0.37589148 -0.5503804 0.07155664
0000f0 10 ca eb bb c3 1d f8 3e 32 38 db 3d 54 fe a6 be
       -0.0071957186 0.48460206 0.10704078 -0.32615912
000100 69 7d 34 be dc 6d 82 3e 70 02 5b be e6 28 b9 be
       -0.17625965 0.2547444 -0.21387649 -0.36164016
000110 bc 93 44 be 47 76 88 3e cd 39 50 be 6f bc 77 bd
       -0.19196981 0.26652738 -0.20334549 -0.06048244
000120 ff 88 cc 3e 57 a6 f7 3e e4 fc 90 be ab dc f8 be
       0.3994827 0.48369095 -0.2831794 -0.48605856
000130 b3 2b 48 be 9b 1d 9d 3e b5 34 9e be ed be b3 be
       -0.1954792 0.3068665 -0.30899587 -0.35106602
000140 ea 3e ec 3e 4c ca 94 be f3 e2 99 3e 34 c2 e2 be
       0.4614175 -0.2906059 0.3005596 -0.4428879
000150 6d 1d ff 3d 46 d2 ee 3d f9 6a d9 3e 21 9a 9b bd
       0.124567844 0.116612 0.42464426 -0.07597757
000160 41 ce be be c3 06 ed 3d 1f c6 5f 3e 8f 2f c2 3d
       -0.37266734 0.11573555 0.21852921 0.09481727
000170 52 8c 9f be a7 b8 e0 3e 22 ec 1b 3f 73 ba 70 be
       -0.31161743 0.4389088 0.60907185 -0.23508625
000180 7b 97 ad 3e 40 ab 6a 3e 38 42 3c bd fb 2b ce be
       0.33904633 0.22916889 -0.04596159 -0.4026793
000190 6f 70 71 be fa b5 cd 3e ac f2 e0 3e eb bd 95 3e
       -0.23578046 0.401779 0.43935144 0.29246458
0001a0 bf 54 cb 3e 3e d9 47 be 1c 2e 69 3e 63 f1 88 3c
       0.39713094 -0.19516465 0.22771496 0.016716665
0001b0 3d 17 af 3d d8 71 c3 3d e3 77 d5 3e 24 de 8d 3e
       0.08549354 0.09543198 0.4169303 0.27708542
0001c0 b1 a2 2e be d8 3b b1 3e c3 2d a5 be d0 d5 c3 be
       -0.1705425 0.3461597 -0.32261476 -0.38249063
0001d0 0e f2 a2 3a 4c 12 d4 be 34 fa 34 be 90 f8 90 bc
       0.0012431757 -0.4142021 -0.1767357 -0.017696649
0001e0 16 bb 9d be b8 2f 2b bd 49 b6 66 3e ba 85 c7 3e
       -0.30806798 -0.041793555 0.22530474 0.38969213
0001f0 f1 77 a8 bd d9 0f cd bd 90 a0 96 be a5 02 5a 3e
       -0.08226002 -0.10012788 -0.29419374 0.21290071

VAE.encoder_mu.layers.1.linear1.weight f4 [4, 128]
000000 6b 73 45 3d b1 d9 1e bd eb 0a bc bd f7 8b d0 bc
       0.048205774 -0.038781825 -0.0918177 -0.025457365
000010 7e 98 8a bf df bc 6c bd 94 11 17 be 61 d2 16 bc
       -1.0827787 -0.05779731 -0.147528 -0.009205432
000020 c7 86 35 be 5c 71 ab 3c 7d 52 8d bd 2f 69 e0 3d
       -0.17727195 0.020928077 -0.06900499 0.10957562
000030 3d 1f da 3d 4b fe 80 bd 16 56 87 3d 96 b0 c3 3d
       0.106504895 -0.062985025 0.066082165 0.095551655
000040 f9 97 1f 3d d6 e8 07 bc bf c4 07 be b4 cc 23 3d
       0.03896329 -0.0082952585 -0.13258646 0.039990142
000050 4e 50 21 3c 57 78 0b bd 99 c6 d7 bc 96 41 24 be
       0.009845806 -0.034050312 -0.026339816 -0.16040644
000060 3b 38 86 bd 73 ec 08 3c df d3 d8 3d e3 99 6b 3d
       -0.06553694 0.008357155 0.10587286 0.057519805
000070 e4 71 1a bd 70 aa c8 bd 42 5e 1d 3d c2 fd 07 be
       -0.03770627 -0.097981334 0.03841997 -0.13280395
000080 59 2f 33 bd 9f b8 a0 bd 66 00 ef 3c 89 fa 46 3e
       -0.043746326 -0.07847714 0.029174995 0.19431509
000090 32 b9 bb 3d 63 0f 83 bd 06 21 a0 bd b7 70 b2 bd
       0.091661826 -0.06399419 -0.07818799 -0.08712905
0000a0 19 4f 86 3d 97 98 73 3c eb ef 30 3b b9 a8 d2 bd
       0.065580554 0.014867923 0.002699847 -0.102860875
0000b0 ea cf d2 bd 0b 47 f6 ba c8 53 d3 bb 06 41 8b 3d
       -0.10293563 -0.0018789483 -0.0064491965 0.067995116
0000c0 c0 a2 a2 bb ca c8 46 be d4 b0 3a 3c 97 14 68 bd
       -0.004963249 -0.19412532 0.011394698 -0.05666026
0000d0 dc 07 59 3d a0 d8 eb bd f4 41 65 bd f9 1f 88 bd
       0.05298601 -0.11515927 -0.0559711 -0.06646723
0000e0 8c 3d dc bd 2b 98 04 be 3e 2c c5 3b 6f 39 6c bd
       -0.10753927 -0.12948672 0.006017237 -0.05767196
0000f0 a6 94 c7 bd 29 dc 46 bd 57 ab 61 be 82 af 5f bc
       -0.09745149 -0.048549805 -0.22038017 -0.013652684
000100 51 a2 ca 3c 51 9e 4e 3b ca 0b 80 bd 47 fe bf 3d
       0.024735602 0.003152747 -0.062522486 0.093746714
000110 b4 61 2e be e0 f8 d1 3d a4 f4 3d bd 47 2d 24 be
       -0.17029458 0.10252547 -0.046375886 -0.16032897
000120 7d a7 15 bd 2d 1d c7 3c af 2d f1 bd 79 1b a1 bc
       -0.036536682 0.024305904 -0.117762916 -0.01966642
000130 f4 b8 ba 3d fc 27 7e bd 4f d6 78 bd 74 aa d4 bb
       0.09117308 -0.06204985 -0.060751256 -0.006490046
000140 49 06 6a bd e0 4c 86 3d ac 1f 9d bd 24 16 ce be
       -0.0571349 0.065576315 -0.076720566 -0.40251267
000150 de 93 97 bc fa da 4a be 5d c1 e9 bd a6 d4 c0 bd
       -0.018503126 -0.19810095 -0.11413834 -0.094155595
000160 c8 e8 c8 3d c1 1a 85 bd e1 8f 4d be 80 91 47 be
       0.098100245 -0.064992435 -0.20074417 -0.19489098
000170 5e 40 53 bd fb 27 6f 3d 75 35 b7 bd d0 65 b8 3d
       -0.051575057 0.058387738 -0.08945743 0.09003794
000180 7a 7e 6b bd 66 82 87 3d e6 f3 13 3d 1b 0e 58 be
       -0.057493664 0.066166684 0.03612127 -0.21099131
000190 bc f1 64 be 32 7a 93 3c 63 16 13 be c3 86 1c be
       -0.2235784 0.018002603 -0.14364009 -0.15285783
0001a0 bb f7 13 be 14 2b 68 3d 8e a2 a4 3d e3 9a c2 3d
       -0.1444997 0.056681708 0.08038817 0.095021985
0001b0 d2 81 a3 3c 3c 23 0b be 4c 8c 52 bd 3b b6 80 bd
       0.019959364 -0.1358766 -0.05140333 -0.06284758
0001c0 8a 16 8c 3d ca 2e d7 bc b0 5f 68 3d 3c 05 a9 3c
       0.068402365 -0.026267428 0.05673188 0.020632379
0001d0 91 46 d6 3c f9 d7 05 3d d2 ce db bd da f9 0a be
       0.026156696 0.03267667 -0.10732807 -0.13571873
0001e0 b4 3f 2d 3c e3 a3 1c bc 57 89 74 3c a8 bd 2e bd
       0.01057427 -0.009560558 0.0149253225 -0.04266134
0001f0 ad 2b 9b bd 96 b4 6d 3d 22 9b 58 bd b9 fc de bd
       -0.0757669 0.05803355 -0.05288232 -0.10888047
000200 00 a3 b5 3d a1 19 89 bd 3f 78 cf bc 1f c6 b5 3c
       0.088689804 -0.066943415 -0.025325892 0.022189198
000210 6e b4 b7 bd 0e b6 15 3d 99 bf 14 bd 7e 66 b1 3d
       -0.08969961 0.036550574 -0.036315534 0.08662127
000220 a7 b9 27 3d 37 37 39 bc 33 74 7d 3d 40 97 be 3b
       0.040948536 -0.011304668 0.061878394 0.0058163702
000230 04 ff f1 bc e4 a2 96 3d 99 39 6f 3d d3 54 35 3c
       -0.029540546 0.07355288 0.05840454 0.011067587
000240 df 7b 0c bc 0d 86 13 be ff 90 0b bc 1d 44 43 3d
       -0.008574455 -0.14406605 -0.0085184565 0.04767238
000250 4a 46 02 3e 98 1f 25 bd 47 99 37 be a2 ca af bd
       0.12722126 -0.040313333 -0.17929564 -0.08583571
000260 e8 60 40 3c 57 58 6b 3e b2 2d 2e bd 82 94 36 3d
       0.011741854 0.22982918 -0.042524047 0.04457522
000270 c0 1c ae bb 97 4e 6f 3c 34 67 69 bd f6 2d 38 bd
       -0.005313486 0.01460614 -0.056983188 -0.044965707
000280 08 34 0a bd 5d 17 83 bd f7 6c 85 3d 84 ad 31 3d
       -0.033741027 -0.064009406 0.06514924 0.043378368
000290 b0 ad a7 bb 0d 10 00 3d 1e 44 65 bd 5d b6 ef 3c
       -0.0051171407 0.031265307 -0.055973165 0.029261762
0002a0 62 50 0a 3d 54 55 b5 bc a8 80 6e bd 16 59 1a be
       0.033768065 -0.022135414 -0.058228165 -0.15073046
0002b0 ba 44 a6 3d a7 af fe bd ab 3a e2 3c b3 42 d4 3c
       0.08118577 -0.12435847 0.027615866 0.02591071
0002c0 8a 39 85 3d d5 52 bf bd 27 b0 aa bc 9e 04 35 3c
       0.06505115 -0.09341971 -0.02083595 0.011048464
0002d0 a9 37 d0 3c bb d5 0e 3d 0b 98 2d bd 67 cc 40 3d
       0.025417166 0.034871798 -0.042381328 0.047069933
0002e0 a7 38 c4 3c 03 dc 81 bd d7 b8 af bd 34 e2 ef 3d
       0.023952795 -0.06340792 -0.08580177 0.11713067
0002f0 f6 e1 8f bd c0 c8 09 3e 0e 39 15 3d e0 be 0c be
       -0.070255205 0.13455486 0.036431365 -0.13744688
000300 93 e2 ac bc b0 e9 a3 3d cd 4c e2 3d b2 26 aa bc
       -0.021104133 0.08003557 0.11049805 -0.020770404
000310 03 7c 85 bd a9 86 c5 3d fe 96 8f be 5e da a1 3c
       -0.06517794 0.09644825 -0.28044885 0.019757446
000320 1e ea d7 3d e5 71 45 3d 3d 09 16 3e fe 3b e5 3b
       0.10542701 0.04820432 0.14651962 0.006995677
000330 57 47 dd bd 08 24 8f bc 16 35 8f 3d e7 19 8f 3d
       -0.108046226 -0.017473236 0.06992547 0.06987362
000340 e7 59 00 3c 22 bf 27 3d ca 97 55 bc be 6f 8a bd
       0.007833934 0.040953763 -0.013036678 -0.067595944
000350 7b 69 b3 bd 12 e9 69 bc 3d 1e d6 3d b8 27 15 bd
       -0.08760353 -0.01427676 0.10454986 -0.036414832
000360 2d a8 03 be de f8 e3 bd 20 57 74 bd ce e7 9f bd
       -0.12857123 -0.11131452 -0.0596534 -0.07807885
000370 c7 9b b5 3c 3e cb 7f 3d 82 65 79 3a a0 fb 9f bd
       0.022169007 0.062449686 0.0009513722 -0.078116655
000380 da 94 27 3d bf 09 89 3d 16 6e d4 bc 2c 3e d6 bc
       0.04091344 0.06691312 -0.0259314 -0.026152693
000390 84 f5 29 be 75 6b d2 bb 2f 09 8e bd 8f 11 93 3d
       -0.16597563 -0.0064215013 -0.069353454 0.071810834
0003a0 c4 eb 24 bd ec 69 ad bb af 23 87 bd c8 4d 8d bd
       -0.040263906 -0.005292168 -0.06598603 -0.06899601
0003b0 c7 13 53 bc b1 cd 3f bc 5f 4f 8b 3d cd 4b ee bd
       -0.012883133 -0.0117067555 0.06802248 -0.116355516
0003c0 9a e9 b9 3d 62 60 2b 3d aa 40 bb bc 6d fa 9d bd
       0.09077759 0.041839965 -0.022857983 -0.077137806
0003d0 02 90 23 be 63 90 1b 3e 03 7c de 3b 2b d8 f7 bd
       -0.15972903 0.15191798 0.0067896857 -0.12101778
0003e0 87 8a 8a 3c 70 20 b7 3d 46 54 09 bd 20 0e 1b bd
       0.016911758 0.08941734 -0.033527635 -0.037855268
0003f0 4d bb fd bd a8 fd 18 3d b7 70 24 3e a9 fb 26 bd
       -0.123892404 0.03735128 0.16058622 -0.040767346

VAE.encoder_mu.layers.1.linear1.bias f4 [4]
000000 f9 c1 75 3c 49 50 88 bd 5c d8 9b 3d b1 d5 8e 3d
       0.01499986 -0.06655938 0.07609627 0.06974352

VAE.encoder_mu.layers.1.norm1.weight f4 [4]
000000 83 fc 82 3f d3 3d 81 3f f2 67 89 3f 21 8a 89 3f
       1.023331 1.0096992 1.0734847 1.0745279

VAE.encoder_mu.layers.1.norm1.bias f4 [4]
000000 ea 4e ae bc 72 64 6c bd 04 88 04 3e 7f e9 0b bd
       -0.021277864 -0.05771298 0.12942511 -0.034158226

VAE.encoder_mu.layers.1.norm0.weight f4 [4]
000000 22 9b 82 3f 9a 2d 81 3f c8 bc 5d 3f d2 7a 65 3f
       1.0203593 1.0092041 0.8661618 0.89640534

VAE.encoder_mu.layers.1.norm0.bias f4 [4]
000000 b4 a6 05 3d a4 17 95 3d 60 76 22 3d 58 22 c7 bd
       0.032629684 0.072799 0.039663672 -0.097233474

VAE.encoder_mu.last_normalization.weight f4 [4]
000000 00 00 80 3f 00 00 80 3f 00 00 80 3f 00 00 80 3f
       1.0 1.0 1.0 1.0

VAE.encoder_mu.last_normalization.bias f4 [4]
000000 00 00 00 00 00 00 00 00 00 00 00 00 00 00 00 00
       0.0 0.0 0.0 0.0

VAE.encoder_mu.head.weight f4 [4, 4]
000000 c0 3f ef 3e 8c b0 53 be 40 bf 1a 3d 14 23 b3 be
       0.46728325 -0.20672816 0.037780046 -0.349877
000010 60 cb 93 3c 3a 94 81 3e 98 5a e6 bd 58 9a 9c 3d
       0.018041313 0.253084 -0.11247748 0.07646626
000020 e2 c0 b5 3e e0 a3 4d 3d 16 f4 a6 be 38 b6 c1 3e
       0.3549872 0.05020511 -0.32608098 0.37834334
000030 c8 c6 68 be f8 3a d5 3d f0 96 43 bd 14 d9 11 be
       -0.22732079 0.10411638 -0.047751367 -0.14242965

VAE.encoder_mu.head.bias f4 [4]
000000 7c d8 32 be 36 79 83 be 9c a0 d3 be 74 fc eb 3e
       -0.17465395 -0.25678414 -0.41333473 0.46091044

VAE.encoder_logvar.layers.0.attention.W_q.weight f4 [4, 4]
000000 c5 69 12 be b1 7b 1f 3f ad 5c 65 be c1 78 57 3f
       -0.1429816 0.62298113 -0.22398634 0.8416863
000010 1b e9 f1 be 20 fd ff be 8d 60 b8 be a6 d1 82 3e
       -0.47248158 -0.49997807 -0.36011162 0.25550574
000020 4f 14 af be 3a cf d2 3e ae e6 b0 bd 73 08 d4 3e
       -0.34195182 0.41173726 -0.08637749 0.41412696
000030 4d a5 f5 3e 5b d8 e0 3d 85 ab 05 3f c7 1e a5 3e
       0.47977677 0.109787665 0.52214843 0.32250044

VAE.encoder_logvar.layers.0.attention.W_q.bias f4 [4]
000000 ca ec 93 3e 01 de eb bd cd 7f 88 3e 98 65 b6 3d
       0.28891593 -0.11516953 0.26660004 0.08906096

VAE.encoder_logvar.layers.0.attention.W_k.weight f4 [4, 4]
000000 be 54 94 be fa 09 54 be 48 cd 0d 3f 1c 7d 0b be
       -0.28970903 -0.20706931 0.5539136 -0.13621944
000010 86 60 52 3c 59 57 a7 3c 4d df 9e be 9f 67 ee ba
       0.012840396 0.020427393 -0.3102974 -0.001818884
000020 10 0c a0 be a5 21 d1 3b ce f6 14 3f 29 25 4a 3e
       -0.31259203 0.0063821846 0.58189094 0.19740738
000030 d0 d9 88 3d c3 3d de 3d ef c1 12 3f 0b 55 a1 be
       0.066821694 0.10851624 0.5732717 -0.31510195

VAE.encoder_logvar.layers.0.attention.W_k.bias f4 [4]
000000 6e d6 a2 b8 a7 b4 e1 38 fe de 4f b8 0a b7 0a 39
       -7.7647026e-05 0.00010762485 -4.9560324e-05 0.00013228893

VAE.encoder_logvar.layers.0.attention.W_v.weight f4 [4, 4]
000000 0b 97 10 3e cb 7b cf bd f0 98 98 be 90 71 80 3d
       0.14120118 -0.101310335 -0.29804182 0.0627166
000010 3e 1a e7 3d 61 ec c6 bd 59 b9 99 be c8 fc 71 3d
       0.11284302 -0.097130544 -0.30024222 0.05907896
000020 17 65 0d 3e bd 3f fc bd 42 c9 9d be 39 ad 97 3d
       0.13808094 -0.123168446 -0.3081761 0.074060865
000030 a4 f4 e3 3d c7 91 31 be 53 e6 8c be b4 a1 84 3d
       0.11130646 -0.17340766 -0.27519473 0.06476155

VAE.encoder_logvar.layers.0.attention.W_v.bias f4 [4]
000000 28 5a 9f 3e 56 26 3b be c6 73 05 3c 90 9a 66 bd
       0.3112347 -0.18276343 0.008145278 -0.056299746
