restsyn/tabsyn/vae/ckpt/blobs/decoder.pt (torch, 21363 bytes, 33 tensors)

VAE_Decoder.layers.0.attention.W_q.weight f4 [4, 4]
000000 63 5b 4f 3e 7b 3c 94 3e 79 64 72 be e8 e2 ab 3a
       0.20249705 0.28952393 -0.2367114 0.0013113888
000010 6e 64 7c 3e be 98 1b bf e3 51 e2 3d 26 a5 3b 3d
       0.24647686 -0.6077994 0.11050775 0.045811795
000020 c7 d6 55 3e ea b9 7f bd a0 d5 99 3e b8 8d ac 3e
       0.20882712 -0.06243316 0.30045795 0.33701873
000030 9c e8 a9 bb de e8 e2 3e b0 d7 18 be d6 b6 ac 3e
       -0.0051852 0.4431829 -0.14926028 0.33733243

VAE_Decoder.layers.0.attention.W_q.bias f4 [4]
000000 d6 34 3f 3e 2a 6f 91 bc 03 70 8b bd 1e 36 0f 3e
       0.18672499 -0.017753202 -0.06808474 0.13985488

VAE_Decoder.layers.0.attention.W_k.weight f4 [4, 4]
000000 61 90 3f 3e 30 e8 df be 0d a0 c0 3e 42 a1 87 be
       0.1870742 -0.43731833 0.3762211 -0.26490217
000010 0b 06 58 3e 87 bc bd 3e 31 1a 08 3f e5 27 81 3e
       0.21096055 0.37057897 0.53164965 0.2522575
000020 cd 04 b7 be cd 1a dc 3c 41 85 e4 3d 35 e3 0a bf
       -0.3574585 0.026868248 0.11158229 -0.5425294
000030 39 75 28 bc 1f d0 09 bf a9 38 3e be c0 d1 24 be
       -0.010281854 -0.5383319 -0.18576302 -0.16095638

VAE_Decoder.layers.0.attention.W_k.bias f4 [4]
000000 45 a7 82 39 57 05 c7 b8 33 bc 93 b8 f2 bd 8b 39
       0.00024920158 -9.490054e-05 -7.044561e-05 0.00026653666

VAE_Decoder.layers.0.attention.W_v.weight f4 [4, 4]
000000 1a 1a 25 bd f1 d1 b4 be a7 f3 a3 3e 2d 3f 84 be
       -0.040308096 -0.35316423 0.3202183 -0.2582945
000010 3f 00 bd bd 5d c0 90 be 3b e0 86 3e 59 f8 a7 be
       -0.092285626 -0.28271762 0.2634295 -0.32806662
000020 2f 21 dd be f7 6c e2 3e 99 fb 07 bf 21 2f 95 be
       -0.4318938 0.4422376 -0.5311828 -0.2913752
000030 ce b8 5c be 4b 6c b0 3e 49 1a 51 be 6b bd af be
       -0.21554872 0.3445762 -0.20420183 -0.34324202

VAE_Decoder.layers.0.attention.W_v.bias f4 [4]
000000 9c bf 96 3d a6 c8 7b bc 01 49 28 3e 82 bd a6 bd
       0.07360765 -0.0153676625 0.16434099 -0.081416145

VAE_Decoder.layers.0.linear0.weight f4 [128, 4]
000000 f4 84 c9 be 6a b7 15 be 20 a4 ee 3e ea 2a 99 be
       -0.39359248 -0.14620748 0.46609592 -0.29915553
000010 bf 85 01 3f 8c a6 c8 3d 4b 2e b1 bd cb c7 ae 3a
       0.50594705 0.09797391 -0.08651408 0.001333469
000020 20 61 ae be f1 6b 25 be c4 51 b0 be e1 df ec 3e
       -0.34058475 -0.16154458 -0.34437382 0.46264556
000030 b9 d7 d7 3e 9d 95 ac be 71 bd a3 3e 45 03 15 3e
       0.4215677 -0.33707896 0.3198047 0.14552028
000040 33 c7 a1 3e f0 88 5e 3e 2f 50 82 3e 26 ea 09 bf
       0.3159729 0.21731925 0.254518 -0.5387291
000050 51 ec a5 3e 5e 38 eb bd 5c 0b ef be 4e 3c cf bd
       0.32406858 -0.114853606 -0.46688354 -0.10118924
000060 16 b6 e1 be 70 37 b8 bd f8 02 97 3e 00 23 96 be
       -0.44084233 -0.08994949 0.29494452 -0.29323578
000070 ef 7b 00 3f ec 07 f7 be 9c 4f 0d be 99 fd 61 be
       0.5018911 -0.4824823 -0.137999 -0.22069396
000080 59 c2 7b be 8e 9a 77 3e d8 87 e6 3e 8d 78 2f be
       -0.24585856 0.24180052 0.45025516 -0.1713583
000090 bd a7 d6 be 1e a8 d2 3e 89 1a 8d bd bd 3a e3 3e
       -0.4192485 0.41143888 -0.06889827 0.4438075
0000a0 af 80 72 be 20 c5 05 bd 8d 16 02 3d 14 26 c9 be
       -0.23681901 -0.032658696 0.031759787 -0.39286864
0000b0 e0 5b 82 3e da 8b 10 3e 21 53 00 bf ef 63 c8 be
       0.2546072 0.14115849 -0.50126845 -0.39138743
0000c0 a3 99 96 3e e9 2c de 3d 1e c8 1b be 55 82 00 bf
       0.2941409 0.1084841 -0.15213057 -0.5019887
0000d0 01 97 8d be 67 7c d1 3e 55 56 fd 3e 71 81 8e 3e
       -0.2765427 0.40915224 0.4947993 0.2783313
0000e0 4d dc 40 bd 33 36 91 3d a9 08 bd be dc f6 a9 be
       -0.047085095 0.07090416 -0.3692067 -0.3319615
0000f0 25 2f 06 bf 33 8c a6 3e 07 34 ad 3e 2b 3e 2d 3e
       -0.52415687 0.3252884 0.33828756 0.16918246
000100 1a 1b 76 3e 69 ff 8e 3e 38 57 c2 3e 49 3d af 3e
       0.24033776 0.27929237 0.37957168 0.34226444
000110 1b 5f df bc f7 b0 a6 bd d9 26 9c bd 52 38 80 3e
       -0.02726703 -0.08139222 -0.07624597 0.2504297
000120 62 92 1b 3e 07 09 c6 bd 35 06 c5 3e 18 95 aa 3e
       0.1519256 -0.096696906 0.38481298 0.33316875
000130 44 4b 33 be c5 d0 f6 be 48 27 f8 be 62 7f b5 be
       -0.1750918 -0.48206154 -0.4846747 -0.35448748
000140 65 f9 0c 3e 56 d4 a5 be 43 8f 85 3e 28 cf fa be
       0.13767011 -0.32388562 0.26085863 -0.48986173
000150 7a 80 9c 3e c9 0c a3 bd 07 08 2c 3d 44 c1 e3 3e
       0.3056677 -0.07961423 0.041999843 0.44483387
000160 e9 79 03 bf 38 a5 6d 3e d1 94 d0 be f1 1a 7d 3e
       -0.51357895 0.23207557 -0.40738538 0.24717309
000170 20 01 38 be 63 c9 37 3e c3 8d c7 3d 17 36 cf 3e
       -0.17969179 0.17947917 0.09743836 0.40470955
000180 98 cf 87 be e5 8c c2 3d 14 6b bd be 81 7d e9 3e
       -0.2652557 0.0949953 -0.36995757 0.45603564
000190 33 70 d4 3e 4c 9a 8d be 8b dc 07 bf 1e 31 e9 3e
       0.4149185 -0.27656782 -0.53070897 0.45545286
0001a0 3e 73 86 bd c3 a0 18 3e b2 e4 74 be 45 48 9d 3e
       -0.065649495 0.14905076 -0.23915365 0.307192
0001b0 85 29 83 3b 82 1f be bb 45 05 8d 3e ca 18 76 3d
       0.0040027522 -0.005802096 0.27543083 0.060082234
0001c0 43 d9 c6 be 11 2e 1a 3f d7 1b fd be d0 dd e4 be
       -0.38837633 0.6022654 -0.49435303 -0.4470048
0001d0 53 12 79 bd 3c 05 a7 3e b4 a2 57 bc dc 19 aa 3e
       -0.06080849 0.3262118 -0.01316135 0.33222854
0001e0 f4 0d bd 3e dc 1b 87 be 73 45 a8 3e 82 48 f2 3e
       0.36924708 -0.26388443 0.32865486 0.47320944
0001f0 7c f8 e6 3e ed 24 94 bd d3 8c 24 bf be fe 97 be
       0.45111454 -0.072336055 -0.6427738 -0.2968654
000200 5f a7 3e bf 22 07 27 bd 0c 5f 0e be 75 bb 39 3f
       -0.7447414 -0.040778287 -0.13903445 0.7255166
000210 10 84 b3 be fe 31 05 3f 48 a6 83 3e 74 43 6a 3e
       -0.35061693 0.5202941 0.257128 0.22877294
000220 22 60 ed be 72 d1 19 3d c0 c2 83 be cc 4d c1 3e
       -0.46362406 0.03755326 -0.2573452 0.37754667
000230 2c 32 00 3f 45 97 87 3e 49 6a b6 be b1 78 02 bf
       0.50076556 0.26482597 -0.35627964 -0.5096541
000240 d6 c3 cd bd ed eb 0c 3f 2b a3 b7 be c8 40 55 3e
       -0.10047118 0.55047494 -0.35866675 0.20825493
000250 44 0e 05 3f 70 37 c4 3d ff 83 e9 3e d8 28 5a be
       0.5197489 0.09580886 0.45608518 -0.21304643
000260 04 44 9e 3e c0 b7 30 be 9e 45 8b 3e a7 c7 30 be
       0.30911267 -0.17257595 0.2720155 -0.17263661
000270 e5 61 cc be 92 b2 b3 be 52 38 6f 3e 44 53 b5 bd
       -0.39918438 -0.35097176 0.23361328 -0.08853772
000280 b2 4e 01 3f ed d9 ae be 43 b7 75 bd 90 85 24 bd
       0.50510705 -0.3415064 -0.059989225 -0.040166438
000290 af 4e e7 3e 57 ad 84 3d 34 2d 52 be f6 88 78 3e
       0.45177218 0.064783745 -0.20525056 0.24270996
0002a0 12 cb ba be 56 1a 0a 3f 47 99 4d bf 6f 3e b0 bd
       -0.36483055 0.53946435 -0.8031201 -0.08605658
0002b0 18 25 7f bd d6 8a 15 3e d8 b4 4b 3e d1 3d 13 3e
       -0.062291235 0.14603743 0.19893205 0.1437905
0002c0 fe 9f b8 be 72 6a ae be 7a 75 b9 be 9c 10 94 be
       -0.36059564 -0.34065586 -0.3622244 -0.28918922
0002d0 92 6f 88 3d 6c f2 e2 be 39 e1 b3 be db 4a 98 be
       0.06661905 -0.44325578 -0.3513277 -0.2974461
0002e0 84 da d9 bd e0 c4 48 3f 5d 25 98 3e e2 3f 34 3d
       -0.10637382 0.7842541 0.29716006 0.044006236
0002f0 5b d2 3a be 4f e0 53 3e c7 e9 07 bf ff 45 b7 be
       -0.18244307 0.20691036 -0.5309109 -0.3579559
000300 f2 c7 a6 be 15 f9 2c 3f d3 a6 fc 3d 8d 48 21 be
       -0.3257442 0.6756757 0.12336507 -0.15750332
000310 62 26 ae 3e 06 e6 a2 bd 4c d2 15 3f 49 e1 84 3e
       0.3401366 -0.0795403 0.5852401 0.2595313
000320 d0 97 19 3d 1c 07 02 3e a1 3e 41 3e 82 8b 44 be
       0.037498295 0.12698025 0.18871547 -0.19193843
000330 db ad cb 3e f0 1a 94 be 3a d3 ee 3e 52 4d 50 3e
       0.3978108 -0.28926802 0.46645528 0.20341995
000340 1a 7e 98 be e9 28 f6 be 44 af 81 be ba ac 1d be
       -0.29783708 -0.48078087 -0.2532903 -0.15397921
000350 cd fc 32 be 57 6e a2 3e 98 df 64 3c a3 6e 54 be
       -0.17479248 0.31724808 0.0139693245 -0.2074533
000360 7a 0a 3d 3e 9c 0d 24 3d 9a 05 bb be 04 60 11 be
       0.18461028 0.04005204 -0.3652771 -0.14196783
000370 57 cc 97 3c b3 af c5 3e 76 4a 03 bf 0b 73 31 be
       0.018530054 0.3861061 -0.51285493 -0.17329042
000380 0f cf e5 be 5c d9 f4 3e 0a 3a 95 3e 01 d1 9d be
       -0.44884536 0.47822082 0.29145843 -0.3082352
000390 17 ad 57 3e 7b 2f b1 bd 70 55 8d be 67 41 8c 3e
       0.21062122 -0.08651634 -0.27604246 0.27393648
0003a0 b4 61 05 be 7c e7 61 3d de a5 e8 bd 55 ba 96 3e
       -0.13025552 0.0551524 -0.11359762 0.29439035
0003b0 e9 2c 57 3e 6b 54 fa be 80 a3 bd bc 58 a5 ab be
       0.21013226 -0.4889253 -0.023149252 -0.33524585
0003c0 91 3b e5 bd 4a 33 35 3f e1 fb 12 3d 84 a6 79 be
       -0.11193002 0.70781386 0.03588474 -0.24379927
0003d0 a7 a2 0d 3e 06 69 b8 3e 02 c5 93 3c 7c 1e 21 be
       0.13831578 0.36017627 0.018038277 -0.15734285
0003e0 96 53 ba 3d 86 1a 2f 3f 02 a1 6b 3e b5 be f6 be
       0.09097974 0.68399847 0.23010638 -0.48192373
0003f0 0e 95 85 be 2d 54 23 3f 8d 10 ad be 45 e6 f2 be
       -0.26090282 0.6380032 -0.3380169 -0.47441307

VAE_Decoder.layers.0.linear0.bias f4 [128]
000000 77 5c ab be a6 8f cb be 03 f7 5d 3e 2f 82 22 be
       -0.33468983 -0.39758033 0.21676259 -0.15869974
000010 54 08 b2 be 77 f8 e9 3d 83 41 c5 3e 64 ba d3 3e
       -0.3477198 0.11424344 0.38526544 0.41353142
000020 29 76 e6 3e 96 65 99 be cb c3 12 3f 08 09 ee 3e
       0.45012024 -0.29960316 0.57330006 0.46491265
000030 91 89 a2 3e 07 87 fc 3e b4 75 c4 3e 7f 63 8a be
       0.3174558 0.49321768 0.3837105 -0.27029034
000040 5f 50 9d 3e f5 a4 ca 3c 66 f3 22 3c eb 5c 9d be
       0.3072538 0.02473686 0.009945726 -0.30734953
000050 18 5d 94 3e 9b cd a8 bd 24 0f 8e 3e 16 d6 50 3d
       0.28977275 -0.08242341 0.27745926 0.05098542
000060 c4 1a fe be 64 49 62 be 70 fc db be 8b 3f f1 3e
       -0.49629796 -0.22098309 -0.42966032 0.47118792
000070 2c 0e 77 be 0e 6b 7d 3e 71 81 7b 3e 31 1d 15 3e
       -0.241265 0.2474787 0.24561097 0.14561917
000080 b0 26 99 be dd ec f1 3e f7 00 e6 be 83 4b 5d 3e
       -0.2991233 0.47251025 -0.4492261 0.21610837
000090 eb ea 05 be 8e 7a 1c 3e 2d b2 92 3e a1 22 50 3e
       -0.13077895 0.15281126 0.28651562 0.2032571
0000a0 90 67 fe 3e d6 a9 5d 3e 25 f3 96 be 55 7b bb be
       0.49688387 0.21646819 -0.2948238 -0.36617532
0000b0 d8 76 ae be 3d f2 ab 3e 6e 1c 19 bd 4e 41 4c be
       -0.34075046 0.3358325 -0.03738063 -0.19946787
0000c0 31 3d 96 3e 2a ef c3 bd 62 c2 c6 3e d9 78 ec be
       0.2934356 -0.09567101 0.38820177 -0.4618595
0000d0 cf 19 48 bd 5e e2 04 bd 45 00 13 bd fb e8 61 be
       -0.048852738 -0.032442443 -0.03588893 -0.22061531
0000e0 fa 1f a1 be f2 07 12 bd e0 fe 3b 3e 92 74 bc be
       -0.3146971 -0.03565211 0.18358946 -0.36807686
0000f0 0c 5d 07 3e 71 49 7a be fa ce 50 be f5 b8 93 be
       0.13219088 -0.24442078 -0.20391455 -0.2885205
000100 bd dd e6 3e 48 e3 73 3d 74 63 6f be 7e 83 3c bd
       0.45091048 0.059542924 -0.23377782 -0.04602384
000110 8a 2a c0 3e 85 ef 9a be 58 f9 ea 3c 64 6b 5d bb
       0.37532455 -0.30260864 0.02868335 -0.0033785934
000120 cc 4d 10 be a8 eb 28 3e 8a 39 b7 bd 62 73 05 be
       -0.14092177 0.16496146 -0.089465216 -0.13032296
000130 34 1d e5 be 14 de 6c 3e 44 1a e7 3e b8 28 d3 be
       -0.44748843 0.23131591 0.45137227 -0.41242003
000140 e5 aa 05 3f 14 fd db bd 1c 40 8a 3e b7 eb 8a 3e
       0.5221389 -0.1074163 0.27002037 0.2713296
000150 85 6e 87 bc ad df d1 3e 2a 4f a8 be 50 3b d8 be
       -0.016532192 0.40990964 -0.32872897 -0.42232752
000160 89 0c 46 3e e9 38 34 3e 0f ec ee bd 29 a2 9a 3e
       0.1934072 0.17599835 -0.11666118 0.30201843
000170 f3 16 ab 3e ee 34 99 3e 14 ef a2 3d b4 cb b2 be
       0.33415946 0.29923195 0.07955757 -0.34921038
000180 8f ff 58 be b1 da ee be 63 30 9b bd da a0 4a 3e
       -0.21191238 -0.46651223 -0.075775884 0.19787923
000190 8c e3 84 3e 7c ec 60 be 51 8a 23 3e 62 9c 8f 3e
       0.25954854 -0.21965212 0.15970732 0.28048998
0001a0 ee 46 ca 3e 4f 0d 1e be 44 48 ec be 86 99 40 3e
       0.3950724 -0.15434764 -0.46148884 0.18808565
0001b0 21 1f e4 be 26 b5 ff bd da a6 e1 3e 2e 90 c5 be
       -0.44555 -0.12485723 0.4407261 -0.38586563
0001c0 e8 aa bf 3e fb 9d 85 be 83 2b 55 be 36 c8 7c be
       0.3743508 -0.26097092 -0.2081738 -0.2468575
0001d0 0c 2a 61 be 50 b1 a9 3e 35 c7 11 be a3 8e 4b be
       -0.21988696 0.3314309 -0.14236148 -0.1987863
0001e0 3c 85 83 bd a1 d6 0c 3f f4 d9 3e bd b2 cb 60 bd
       -0.06421897 0.55015 -0.046594575 -0.05488176
0001f0 55 0a 6d 3e 6f 77 0d 3d 28 44 14 bd 46 0f fe 3e
       0.23148473 0.03453773 -0.03619781 0.49621028

VAE_Decoder.layers.0.linear1.weight f4 [4, 128]
000000 7b 0b 25 bb 14 8a 45 be 48 01 f2 bd 6b e3 33 bd
       -0.0025183845 -0.19290954 -0.11816651 -0.043918055
000010 26 06 8f bc 46 ca c5 bc 74 7f 52 3d 8e 95 a7 bd
       -0.017458986 -0.024144303 0.05139108 -0.08182822
000020 31 cf 09 3e a8 20 08 be 08 4e 9c 3d ea 20 dd 3d
       0.13457943 -0.13293707 0.07632071 0.107972935
000030 a5 10 d4 3d 3e b0 93 3d 48 51 0d 3d 1b 0e 1f be
       0.10354737 0.0721135 0.034501344 -0.15532725
000040 e5 62 32 bd b3 06 ad bb 40 de 07 3e 49 97 a3 bd
       -0.043551344 -0.0052803396 0.13268375 -0.0798784
000050 56 67 00 bd 96 5c 72 3d d7 3c cf 3d 37 c2 cc bd
       -0.03134855 0.059170328 0.10119026 -0.09997981
000060 9f 79 4d be 81 b6 50 bd 66 c1 ca bd 20 a4 9b 3d
       -0.20065926 -0.0509553 -0.09900169 0.07599664
000070 8c 17 10 3f 9c fd e4 3d 2e 26 cf bc 74 b8 9c 3d
       0.5628593 0.11181185 -0.02528676 0.07652369
000080 e6 2d 98 be 9f 30 98 3d 18 62 bc be d3 9a 79 3d
       -0.29722518 0.07431149 -0.3679359 0.060938668
000090 6d 64 83 3e d2 ab 83 bd 90 6f 72 bc 39 0b a5 bb
       0.25662556 -0.064292565 -0.014797106 -0.0050367382
0000a0 5d b8 d6 bd dc 40 f3 bc d7 73 93 3e bb 64 b7 3d
       -0.10484383 -0.029694013 0.28799316 0.0895476
0000b0 35 14 1e 3d ec a5 a9 3c 45 b7 3d 3e 2e 75 06 3e
       0.03859349 0.020709 0.18526943 0.13130638
0000c0 1c df 8d 3e 90 2e 89 3d 12 0d 16 bc cf 9a da 3b
       0.2770928 0.06698334 -0.00915839 0.0066712867
0000d0 c2 f0 66 3d 89 51 41 3e 1f 49 2c bd 8b 1c 72 3e
       0.05638195 0.1887876 -0.04206192 0.23643701
0000e0 b4 ec 22 3e 02 32 76 bd ed b2 2f bd ef 20 25 be
       0.15910608 -0.060106285 -0.042895246 -0.16125844
0000f0 9b 84 78 3e df 14 08 3e 51 6a 9f 3d f8 aa 2a 3e
       0.24269335 0.13289212 0.0778395 0.16666782
000100 8a cf a4 3d fa 77 48 bd cb 4a d0 3c e3 e2 eb 3d
       0.080473974 -0.048942544 0.025426289 0.115178846
000110 ee b6 f7 3c 84 b3 3c 3e 05 f0 d3 3d ea 13 86 3e
       0.030238595 0.18427855 0.103485145 0.26187068
000120 bc c4 7b bd 26 49 2c bd f2 00 9d 3d da 01 5c 3e
       -0.061466917 -0.042061947 0.07666196 0.21485081
000130 46 4c ed bc 56 7d f3 bd 12 4b eb 3d 09 46 46 3d
       -0.028967034 -0.1188914 0.11488928 0.048406634
000140 bf de f3 3c 7c 7a 15 be 33 68 e3 3d c1 6b b2 3d
       0.0297693 -0.14597505 0.11103859 0.08711959
000150 91 1b a1 bc 14 93 05 3e 95 e9 61 3d b5 4c 64 bd
       -0.019666465 0.13044387 0.0551544 -0.055737216
000160 11 93 16 3e 2d c1 de bd ef d8 28 ba 46 34 a3 bc
       0.14704539 -0.10876689 -0.0006441017 -0.019922387
000170 15 16 44 ba 6c cf 05 bd d6 f5 a2 ba b6 2b ad bd
       -0.0007480097 -0.032668516 -0.0012432884 -0.08455603
000180 58 bb 29 be 39 0a 9d bd c7 8c 8b 3e b8 e1 3e bd
       -0.16575372 -0.076679654 0.27255842 -0.04660198
000190 0f 9d 26 3e 94 48 81 bd 7b 38 86 3e 4f db 22 3e
       0.1627085 -0.06312671 0.26214966 0.15903972
0001a0 39 2e 5a bd a1 8f a4 3c 51 28 71 bd 71 46 5d bc
       -0.053266738 0.020088019 -0.05887634 -0.013505564
0001b0 73 f1 0f 3c e7 79 a3 3d 94 33 f4 3d 92 d9 04 3c
       0.008785593 0.079822354 0.119239 0.008108513
0001c0 62 eb 97 3d 2e 6c 1b bd 4f 5d 8b 3d 43 dd 2a 3c
       0.074179426 -0.037944965 0.068049066 0.0104287295
0001d0 b3 b9 3f bd 86 9e 36 bd 0d d6 c5 3d 5b e8 28 3e
       -0.046807956 -0.044584773 0.096599676 0.16494887
0001e0 5b d2 19 be a6 cc 04 3d 77 20 bf 3d d7 c8 ae bd
       -0.1502165 0.03242173 0.09332364 -0.08534401
0001f0 31 4c 11 bb 92 e4 21 3d 45 6c cd 3d 1f cb 3b 3e
       -0.0022170658 0.039524622 0.100304164 0.18339203
000200 fa 92 ff bd 9d 31 d9 3c 8d 34 96 3d e7 d3 50 3d
       -0.124792054 0.026512915 0.07334242 0.050983336
000210 29 df d9 3d 62 01 8f bd 5f 74 ee 3c e9 f4 18 3c
       0.106382675 -0.069826856 0.029108224 0.009335735
000220 6f 47 70 3d 46 38 3e 3d a6 85 d2 3d 93 df 25 3d
       0.058661874 0.046440385 0.10279398 0.04049642
000230 3f 21 ba bb 9d d8 88 3c 59 3b ae 3c 74 e9 3c 3d
       -0.005680233 0.016704852 0.021268534 0.046121076
000240 92 c0 b6 3d 1e 35 1e bd e6 b8 32 bd 7e 51 9e be
       0.089234486 -0.038624875 -0.043633364 -0.3092155
000250 62 67 ee 3c fb 0d 47 3d 42 fb 8e 3c 10 28 7c 3d
       0.029102031 0.048597317 0.017453793 0.061561644
000260 00 75 d8 bb 88 62 9a bd 05 4b 3e bc 3b 65 1e 3d
       -0.0066057444 -0.075383246 -0.011614566 0.03867076
000270 d4 f1 a5 3d cf 7f 19 bd c8 77 c6 bc 9d 42 55 bd
       0.08102766 -0.037475403 -0.024227038 -0.05206548
000280 6c f8 de 3d 46 94 bc 3d 09 82 96 3d 26 9a a6 bd
       0.108872265 0.092079684 0.07349021 -0.0813487
000290 b6 af bf 3d d0 e5 3a bd 47 45 79 3c 4f 5f 21 3d
       0.09359686 -0.045629323 0.015214271 0.039397534
0002a0 6e 3c b8 bd 3b 88 bb bd 61 e9 25 3d 8e 8d 1e bc
       -0.08995901 -0.09156843 0.04050577 -0.009677304
0002b0 59 3f b6 bc 2e 5c f9 3c 1f 05 fc 3c 12 8c d1 bc
       -0.022247003 0.030439463 0.03076416 -0.025579486
0002c0 e5 bb e7 3c dc 8f 08 bd e7 1d dd ba 78 f2 40 bd
       0.028287837 -0.03334032 -0.0016869874 -0.047106236
0002d0 fe 89 a6 3d 90 86 22 3e ef 4d b5 bd 88 2d 9a 3d
       0.08131789 0.15871644 -0.08852755 0.07528216
0002e0 cc 8f 2e 3e 72 5a 4d 3d 1a 35 4e bc 97 51 e5 bd
       0.17047042 0.050135083 -0.012585903 -0.11197203
0002f0 d5 d9 09 3e 21 db 97 3d e7 80 07 3d 06 b7 ac 3d
       0.13462003 0.074148424 0.033081915 0.084333465
000300 8e 05 a4 3d 85 ca c8 3c 20 dc 06 bd 71 2e 76 3d
       0.08008872 0.024510631 -0.03292477 0.060102884
000310 2f 24 03 bd db 84 ad bb 6c cd d1 bd 18 b3 a0 3d
       -0.03201693 -0.0052953786 -0.10244259 0.078466594
000320 41 a0 4e 3c 8f 0d a7 bd dc 71 23 bc 3f 92 a3 3d
       0.01261145 -0.08156883 -0.009975877 0.079868786
000330 78 5a 90 bd ad 21 32 bc 91 c2 d8 3d 10 ee 3d bd
       -0.070485055 -0.010872287 0.105839856 -0.046369612
000340 c2 42 18 3d 98 90 d1 3d 8e 4e e5 3d e5 55 42 3d
       0.03717304 0.10232657 0.11196624 0.047445197
000350 53 d6 c3 bd 3e c3 00 3e a9 b1 9d bc 9d 58 86 3c
       -0.095623635 0.12574479 -0.019249754 0.016399676
000360 de f8 b9 3d 93 ec 49 3d 1f 99 39 3e 28 9d 89 3c
       0.09080671 0.04929788 0.18124817 0.01679857
000370 44 46 ab 3d 1a 73 37 bc 1c 48 6a 3d 25 56 13 3c
       0.083630115 -0.011196876 0.057197675 0.008992706
000380 1c e8 98 bc 33 63 26 be 9d ae 1e 3e 01 0d 93 bd
       -0.018665366 -0.16248779 0.15496297 -0.07180215
000390 05 cd ba 3d e3 78 3d 3d 77 c4 12 3e 59 d3 c4 bc
       0.091211356 0.046257865 0.14332758 -0.02402656
0003a0 75 56 83 3d 2e 09 c0 bb 27 10 99 bd d4 bc 7f bd
       0.06412975 -0.0058604693 -0.07473784 -0.06243594
0003b0 e1 9c 00 3d cf 99 a7 bd c4 e6 ae bc 50 88 72 bd
       0.03139961 -0.081836335 -0.021350272 -0.05921203
0003c0 fd 7d 50 3d e3 42 30 bd eb c0 1d bc ad 4f 01 be
       0.0509014 -0.04303254 -0.009628515 -0.1262805
0003d0 8f b3 ce bc 8b 06 a3 bd d0 73 8a bd 7b a0 80 3d
       -0.025232105 -0.07960232 -0.06760371 0.06280609
0003e0 35 b7 71 bd 13 1b c4 3c 6b 6c 65 3d b3 2e 65 bd
       -0.05901261 0.023938691 0.0560116 -0.05595274
0003f0 9f 8c bb 3d 17 c9 df 3d 59 5a 58 bd 3c 7a d5 3d
       0.09157681 0.10927027 -0.052820537 0.10423705

VAE_Decoder.layers.0.linear1.bias f4 [4]
000000 8e 69 98 bc 93 16 6b bd f2 62 bd 3d e1 54 80 bd
       -0.01860502 -0.057394575 0.09247388 -0.06266189

VAE_Decoder.layers.0.norm1.weight f4 [4]
000000 64 31 88 3f b6 b2 a0 3f 61 ad 8a 3f e1 84 a0 3f
       1.0640073 1.2554538 1.0834161 1.2540551

VAE_Decoder.layers.0.norm1.bias f4 [4]
000000 22 f3 60 3d 51 69 0a 3e 08 d4 f1 3d 47 84 75 be
       0.05491937 0.13516738 0.1180802 -0.23976241

VAE_Decoder.layers.1.attention.W_q.weight f4 [4, 4]
000000 72 c7 70 be 0b e7 df 3d c1 86 95 be f7 ee 07 3f
       -0.23513582 0.1093274 -0.29204372 0.53099006
000010 2c 12 8f bd b6 ec 8a 3e 1d 80 a2 bd 09 15 d5 be
       -0.06985888 0.2713372 -0.07934592 -0.4161761
000020 9c 3a d9 3e 3d a7 a4 be d0 6b cd be 51 d6 2b 3d
       0.42427528 -0.32158843 -0.40121317 0.041952435
000030 d7 09 0d 3d ae fd 94 3e 74 d5 8a be 07 53 99 3e
       0.034433212 0.29099792 -0.27115977 0.29946157

VAE_Decoder.layers.1.attention.W_q.bias f4 [4]
000000 b1 54 5e 3c 71 08 74 3d dd 1d 29 bd d1 4b cd 3b
       0.013569997 0.059578363 -0.041288245 0.0062651415

VAE_Decoder.layers.1.attention.W_k.weight f4 [4, 4]
000000 8e e6 ff bd ad cc 68 3d 8b d7 87 be 54 38 0a 3f
       -0.12495147 0.05683582 -0.26531634 0.539922
000010 85 cc 28 be c7 30 b3 be d9 dc a7 be 63 bb 10 3e
       -0.16484268 -0.34998152 -0.3278568 0.14133982
000020 55 95 3d be af 89 6c 3e 0b 08 c5 3d 2e 1e 7f be
       -0.18513997 0.23099397 0.09620675 -0.24913856
000030 bb e9 a5 be 1e 9d 9f be 61 12 66 bf 6f 34 ca 3e
       -0.32404885 -0.31174558 -0.89871794 0.3949313

VAE_Decoder.layers.1.attention.W_k.bias f4 [4]
000000 fb 74 11 38 77 92 b4 b8 9a d5 db b8 8c 9e 1e b8
       3.467964e-05 -8.61035e-05 -0.0001048252 -3.7817794e-05

VAE_Decoder.layers.1.attention.W_v.weight f4 [4, 4]
000000 f3 c4 7e be 5f b4 82 3b 00 45 94 3e cb 0b a0 3d
       -0.24879818 0.003988787 0.28958893 0.07814749
000010 0a 29 8e 3e bc ef e3 be 87 be 34 bd 96 0f b1 be
       0.27765685 -0.4451884 -0.044127014 -0.34582204
000020 40 08 e2 3e e2 2b ec bd 2f 0e eb bc 6c ec d7 3e
       0.4414692 -0.115318075 -0.028693287 0.42172563
000030 00 47 d5 3c e0 e3 52 3e 88 df 04 be 90 c0 07 3f
       0.026034832 0.2059474 -0.12975895 0.530282

VAE_Decoder.layers.1.attention.W_v.bias f4 [4]
000000 33 ac 52 bc 66 7e bc 3a 05 7e cc 3c b9 76 27 bd
       -0.012858438 0.0014380931 0.024962435 -0.040884707

VAE_Decoder.layers.1.linear0.weight f4 [128, 4]
000000 9b 28 c4 3e 21 d0 1e 3e e6 6c 90 bc 35 c6 01 3e
       0.3831223 0.15509082 -0.017630052 0.12673266
000010 3c 48 cc 3e d0 b0 e9 3e 81 13 19 be d7 d9 de 3c
       0.3989886 0.4564271 -0.14948846 0.027203484
000020 31 f6 a1 be 28 c4 0c 3e 29 f1 f6 3e 32 a5 6b be
       -0.31633142 0.13746703 0.48230866 -0.23012236
000030 c8 bb 0d 3e c0 1b 11 3e 8b 82 d0 bd 60 4e c6 3e
       0.13841164 0.14170742 -0.10181149 0.3873167
000040 29 50 a0 3d fb 96 b6 be e4 6f 70 3e d1 b1 fc 3b
       0.07827789 -0.35662064 0.23480183 0.007711627
000050 e1 d5 6f 3e 25 9a ea 3e 09 ad fa bd 5f a7 b0 38
       0.23421432 0.45820728 -0.12240035 8.423509e-05
000060 0f 7e 54 3e 9d 1b 9c bd 77 c9 fa bd f5 1e b7 be
       0.20751213 -0.07622454 -0.122454576 -0.35765806
000070 ec e3 3e 3e c7 e7 f3 be f0 c6 86 3e 6e 2c a0 be
       0.18641633 -0.4763777 0.26323652 -0.31283897
000080 86 ad e9 3e c7 e3 ee 3d e8 89 9c 3e 4b 85 aa 3e
       0.456402 0.11664539 0.30573964 0.3330482
000090 54 4c c9 3e 50 8e b1 be 9d f6 c6 be 6d 83 c3 3c
       0.39316046 -0.34678888 -0.38860026 0.02386638
0000a0 e3 9c fc 3c 5d c8 86 be ba 35 6a 3e 9e 49 01 3f
       0.030836528 -0.2632474 0.22872058 0.50502956
0000b0 4a 35 d4 be a5 7a 18 3f 24 ec 5c be 2f bd 39 be
       -0.41446906 0.5956214 -0.21574455 -0.18138574
0000c0 43 97 1a be 53 8e 01 3f 52 24 97 3e 3a a1 73 bd
       -0.15096764 0.50607795 0.29519898 -0.05947993
0000d0 74 37 e6 be 03 72 4d bd 11 76 42 3d ce 15 80 be
       -0.44964182 -0.05015756 0.04747588 -0.25016636
0000e0 75 9a 70 be 44 5a 8b 3e 55 60 51 be 53 13 a8 3e
       -0.2349642 0.27217305 -0.20446904 0.32827243
0000f0 3b b4 b5 3e ed 8c d3 be 5a aa 71 be 07 b3 08 3e
       0.35489067 -0.41318455 -0.2360014 0.13349544
000100 f1 69 81 be 7d c6 d2 bd 10 a9 c6 bd 96 62 9b 3d
       -0.2527614 -0.10291765 -0.09700215 0.07587163
000110 ea c3 93 be 91 c3 b0 be b8 b4 fd be 95 ac 8f 3e
       -0.28860408 -0.34524205 -0.4955194 0.28061357
000120 84 1d ae be aa 9c b1 be 4f 41 ab 3e 1b ff fa be
       -0.34006894 -0.34689838 0.33448264 -0.49022755
000130 ea e6 ab 3e 43 ad ee bd f0 fd 99 be 28 0b 71 3e
       0.3357461 -0.11654141 -0.3007655 0.23539412
000140 97 2d 5c bd d7 70 ec 3e 60 ef a9 3d 71 eb 09 3f
       -0.053754415 0.4617984 0.0829761 0.5387488
000150 44 85 f6 be 75 1a 91 3b 3a cb 0b 3d e9 94 7d bd
       -0.4814855 0.0044282028 0.03412936 -0.06190959
000160 05 e4 b8 bd eb 65 01 3e 88 2c ca 3e fb 28 c2 3e
       -0.09027866 0.12636535 0.394871 0.3792189
000170 e7 ec d7 3e 78 8d 6a 3e 3b e9 a3 3e 97 af 3d be
       0.4217293 0.22905529 0.32013878 -0.18524013
000180 b5 4b bf 3e 9b e9 fb bd 90 71 93 3e a4 18 51 3c
       0.37362447 -0.12300416 0.2879758 0.012762222
000190 a1 40 bd 3e 05 fe 38 3e 60 9a 1c bd 73 48 8c be
       0.3696337 0.18065651 -0.03823316 -0.27399024
0001a0 0a 7e 8b be e3 19 b6 3e 93 43 b2 be b1 f0 83 be
       -0.27244598 0.35566625 -0.3481718 -0.2576957
0001b0 b5 e5 f1 be bf 29 86 3e cb 64 be be 38 07 d8 be
       -0.47245565 0.26203725 -0.37186274 -0.42193007
0001c0 60 82 c7 3e 7a a4 81 3e b0 65 dc be 21 f5 f0 be
       0.38966656 0.25320798 -0.4304633 -0.4706202
0001d0 34 7b fa be 1e fb 2a be 62 f2 e8 3d 50 18 14 bd
       -0.48922122 -0.16697356 0.11374356 -0.036156
0001e0 ed 95 de be d5 75 8f be a3 0f d2 be 59 e9 c5 3e
       -0.4347376 -0.28019586 -0.41027555 0.38654593
0001f0 2a 80 27 3f e7 97 ad be 96 34 c1 3d 09 d2 07 bf
       0.6542994 -0.33904955 0.09433858 -0.53054863
000200 0e 2a fb be dc 77 06 bd 76 cb ae 3d 55 3a c7 be
       -0.49055523 -0.03282915 0.08534901 -0.3891169
000210 d2 1c b8 3e c5 0a c5 be 4f 9d dd bd 1f 47 08 3f
       0.35959488 -0.3848478 -0.1082102 0.5323352
000220 91 f9 4e 3d 34 31 43 3e c4 24 d1 bc 44 2b 96 be
       0.050530974 0.19061738 -0.025530227 -0.29329884
000230 67 66 2a 3f a2 e5 12 3e d6 02 23 3e cf 9f 6c be
       0.66562504 0.1434541 0.1591905 -0.23107837
000240 66 69 01 3f 54 df e9 3c b4 9f 70 3d bc e1 c8 be
       0.5055145 0.028548874 0.058746055 -0.39234722
000250 61 d7 c2 be 61 d0 a3 be 76 19 98 3e 97 af 1d be
       -0.38054946 -0.31994918 0.29706925 -0.15399013
000260 3d 73 76 3e 5c 52 d9 bd 7f 48 8b bc 09 41 3c bd
       0.24067397 -0.10611412 -0.017002342 -0.04596046
000270 fb 76 08 bf d5 8f 88 bd dd 85 41 3e 6f 2e be be
       -0.5330655 -0.06668059 0.18898721 -0.371448
000280 7b 80 eb be 78 32 09 3e ca 69 cb 3e c5 1a d9 be
       -0.4599646 0.13398159 0.39729148 -0.42403236
000290 b8 f3 12 bf 07 9c a7 be db 39 32 3e 99 3d 64 be
       -0.57403135 -0.32736227 0.17404883 -0.22289123
0002a0 fb 4f dd be fa cc a2 3e ef 86 8a be 91 8e 23 3f
       -0.43225083 0.3179701 -0.2705607 0.63889414
0002b0 fb 9e d1 bc b7 ca 89 be ef 8c db 3e ae 1d 01 3f
       -0.025588503 -0.26912472 0.4288096 0.5043591
0002c0 ab 3c e5 3e 8c 1b 04 3e 62 1e bc 3d 8c 73 cd bd
       0.44772848 0.12901133 0.091854826 -0.100318044
0002d0 95 8d f2 3c 26 42 cb be 1f bb bf 3e 79 51 a6 3d
       0.029608527 -0.39698905 0.3744745 0.081210084
0002e0 02 0e 94 3e 2c 75 95 3e a4 bd 27 3e a0 30 c5 3e
       0.28916937 0.29190958 0.16380936 0.3851366
0002f0 cf f8 28 be 8f 2b f9 3e 1c 87 b0 3d 06 ef e4 be
       -0.16501163 0.48666045 0.0861952 -0.4471361
000300 8d 0d a5 3c 7f 8d b5 be 58 46 7b 3e 86 c2 05 3f
       0.020148063 -0.35459515 0.24538553 0.52249944
000310 cd 45 9b 3e bb 73 be bc a4 3b 78 bd c9 54 aa be
       0.3032669 -0.023248544 -0.060603753 -0.3326781
000320 3f 7f 95 3e 6d bc ec be e4 39 c7 be b2 d8 fc 3d
       0.29198644 -0.46237507 -0.38911355 0.12346019
000330 66 66 76 be 73 b0 87 3e 80 6f 5a 3e c6 83 71 bc
       -0.240625 0.26501808 0.21331596 -0.01474089
000340 9b ed de bc 25 0e 3e be 8c 58 e8 3e a3 af 09 3f
       -0.027212908 -0.18560083 0.45380056 0.53783625
000350 4f 04 c6 be 32 1a 25 bc 6c 73 72 bf 44 f8 93 3f
       -0.38675162 -0.010077046 -0.9470737 1.156014
000360 7e c9 b4 be ae 58 40 3e 64 25 56 bd d9 3b 72 bd
       -0.35309976 0.18783829 -0.052281752 -0.059139106
000370 76 68 df 3e b8 ac bc 3e 6d e6 40 be 6a 01 02 3e
       0.43634385 0.36850524 -0.188379 0.12695852
000380 42 e6 35 be 47 da 05 bf 16 ce c5 be 1c 9d 23 be
       -0.17763618 -0.5228619 -0.38633794 -0.15977901
000390 05 33 bb bc 46 e2 5d 3e 94 e5 95 3e e0 6d b6 be
       -0.022851476 0.21668348 0.29276717 -0.35630703
0003a0 56 fe 59 3e c0 8e ec 3e de 14 b9 3e 49 75 46 be
       0.21288428 0.4620266 0.36148733 -0.19380678
0003b0 d6 a1 d0 3d f7 1f e9 bc 97 3a a3 3e f2 f9 d4 3e
       0.10187118 -0.028457625 0.31880638 0.41596943
0003c0 90 d8 eb be f7 02 fd 3e 83 63 a5 3d 90 25 cb be
       -0.46063662 0.49416324 0.08075621 -0.39677095
0003d0 41 20 0f 3e ef 29 aa be e0 7b 4d 3d af cd e9 be
       0.13977148 -0.33235118 0.050166965 -0.45664737
0003e0 7d a0 b0 be d6 de a9 3e e8 77 5c 3d ae ad 2b 3e
       -0.34497443 0.33177823 0.05382529 0.16765472
0003f0 52 36 db bc cc 1e e9 3d 9e 04 fe be da 6f cb 3e
       -0.0267593 0.11382827 -0.49612898 0.39733773

VAE_Decoder.layers.1.linear0.bias f4 [128]
000000 36 ef a8 be dc 7f 6b 3d cd 0f 5d be 37 64 ea bd
       -0.32995003 0.057494983 -0.21588059 -0.11444896
000010 c3 00 3d 3e ce 04 aa 3e 52 da 6f bd ce da b0 3e
       0.18457322 0.3320679 -0.058557816 0.34541935
000020 46 29 87 3e bd 15 98 be 19 c0 5f 3c df b3 a2 be
       0.26398677 -0.29704085 0.0136566395 -0.31777856
000030 6d 83 e3 bd 82 5d 3f 3e f0 73 df 3e cc b5 9b 3d
       -0.11109052 0.18688014 0.4364314 0.076030344
000040 3d 4b 03 bf 80 48 dd bd 19 b1 a8 be e2 d1 9b be
       -0.5128668 -0.10804844 -0.32947615 -0.30433565
000050 9e c9 fb 3e 1b 7e ab be 2d d4 76 3e bb ba 54 3e
       0.4917726 -0.33494648 0.24104376 0.20774357
000060 1e 52 a4 be f0 39 f7 3e a0 22 f1 3e 49 55 26 3e
       -0.320939 0.4828639 0.4709673 0.16243471
000070 a5 61 5f 3e 41 3a bf be 85 b9 f3 3d 5d 09 de 3e
       0.21814592 -0.37349132 0.119006194 0.4336652
000080 00 e8 9b 3e 98 b0 90 3e 61 58 03 3e f8 5b df be
       0.3045044 0.2825973 0.12826683 -0.43624854
000090 ad 7a 8c be fd 0e e1 3e e0 8a a8 3c d5 1e d8 bd
       -0.27437344 0.43956748 0.020574033 -0.10552756
0000a0 a6 b5 88 3d a7 35 a3 be ce 71 0f 3b 6e 2d 1b be
       0.06675272 -0.3187687 0.0021887901 -0.15154049
0000b0 09 c3 c0 bd 4d 61 85 3e f4 46 ec be a3 e0 6e bd
       -0.094122 0.26050797 -0.46147883 -0.0583197
0000c0 24 2a 02 3e 8f b9 cb 3e 65 ec 85 3e 97 bf fc 3d
       0.12711388 0.39790007 0.26156917 0.1234123
0000d0 33 4a 0a 3e 48 f3 31 3e 28 87 da 3c f7 cc 9a bd
       0.13504867 0.1737796 0.026675776 -0.07558625
0000e0 b5 1c d2 3d 39 7f b0 bc 69 34 0c 3f 04 0f a4 bd
       0.10259382 -0.02154504 0.5476747 -0.080106765
0000f0 cc 54 3b be 4f 8a c9 3e e0 d6 00 bf 30 31 9d 3e
       -0.18294066 0.39363334 -0.50327873 0.3070159
000100 91 03 b0 3e c1 db 04 3e 6d 9b b7 be ce 29 76 3c
       0.3437772 0.12974454 -0.35860768 0.015024615
000110 ad 7e 48 bc 65 9f cf be 71 c2 5f be ee 70 b2 bd
       -0.012237233 -0.40551296 -0.21851517 -0.08712946
000120 ec 55 2a 3e 02 9f dd 3d 57 bc aa be d4 26 66 3e
       0.16634339 0.10821344 -0.33346817 0.22475749
000130 74 81 6d bd 72 57 83 bc 91 ba 86 3e 65 19 b9 3e
       -0.057984784 -0.016032908 0.26314214 0.36152187
000140 3a 25 b3 be 87 fe c6 3d b7 66 18 be 00 d7 0d 3e
       -0.3498934 0.09716516 -0.14882933 0.13851547
000150 f9 68 37 3e 62 78 3a 3e 21 f6 a2 3e b4 b2 c9 be
       0.17911138 0.18209985 0.31828406 -0.39394152
000160 ee f5 38 be fe e7 47 3e 74 0d 22 3e 0c b7 a7 be
       -0.18062565 0.19522092 0.15825444 -0.3275684
000170 f2 17 97 3d 60 9b 19 be ab c7 cd be f4 fd 85 3c
       0.07377614 -0.15000677 -0.40191397 0.016356446
000180 47 c9 4c be 8d b2 2f be 10 44 ce 3e d5 a2 af be
       -0.19998656 -0.17157955 0.40286303 -0.34303918
000190 a7 4c 97 3e 3b 0c 33 3e 4b 23 04 3f 45 68 f4 3e
       0.2955067 0.17485134 0.5161635 0.477358
0001a0 fe 49 5c 3e b6 d9 88 be 62 99 cd 3d 6e 97 37 3e
       0.21512601 -0.267286 0.10039021 0.1792886
0001b0 a0 33 78 bd 6d 57 b5 3d cd 4a aa be b2 4d 3f 3e
       -0.06059611 0.08854566 -0.33260193 0.18681982
0001c0 38 28 96 be 2b ce 41 3e 77 79 e4 be 5d 87 06 3e
       -0.2932756 0.18926303 -0.4462392 0.13137574
0001d0 ad 36 c5 3e 8f 2d 9b 3e e8 dd 33 be c6 11 bd bd
       0.38518277 0.30308196 -0.1756512 -0.09231906
0001e0 4e 46 b8 3e 0a f9 41 3e c1 ce 52 bd fb 87 80 3e
       0.35991138 0.18942657 -0.051466707 0.25103745
0001f0 cd ac 26 bd 9e de b0 3e c3 a1 78 be 4b 0f f9 3e
       -0.04069214 0.34544843 -0.24280457 0.4864448

VAE_Decoder.layers.1.linear1.weight f4 [4, 128]
000000 ef 32 b8 3c 29 a8 d1 3b f7 a7 a0 3d c7 2d 85 be
       0.022485225 0.00639822 0.07844537 -0.26011488
000010 d6 f5 ed 3b 18 c0 74 bd 30 63 35 3c 40 48 b1 bb
       0.007261972 -0.059753507 0.011071011 -0.005410224
000020 a5 2e e0 3c 41 c4 a8 bd 33 27 a9 bd 4f 1b ed 3d
       0.027365992 -0.082405575 -0.0825943 0.11577474
000030 c4 87 89 3d e5 cf cf 3c 44 86 e6 bd d4 71 09 be
       0.06715348 0.025367687 -0.11256078 -0.13422328
000040 51 c4 46 bd 98 ba f9 be 43 0d 36 3b e7 24 ba 3c
       -0.048527066 -0.48775172 0.00277789 0.022722675
000050 f0 fb fc bd bc e8 59 3c d1 06 c2 bd 7f a2 d5 bb
       -0.12352741 0.013300117 -0.094739564 -0.006519615
000060 fc 0e 9f bd d2 de 21 bd 80 04 cb 3d 89 cc 0c bd
       -0.0776653 -0.03951914 0.09912968 -0.034374747
000070 10 a6 d3 bc af ce ca 3e 57 31 23 be 44 97 98 bb
       -0.02583602 0.39610812 -0.1593679 -0.004656704
000080 76 a3 91 3d 19 26 c3 bc 25 67 7e bb 75 b5 04 3d
       0.07111256 -0.023821877 -0.0038818803 0.032399613
000090 cb e5 84 3d 2d 42 61 ba d1 68 cf 3a 8f 2e e1 3c
       0.06489142 -0.000859293 0.0015824084 0.027488021
0000a0 0d ee 60 3d fd c3 38 3e 32 c3 8e be 4c 19 31 3d
       0.054914523 0.18043514 -0.27883297 0.043237016
0000b0 81 d8 4f bc f6 8d 5a 3d db 73 4e 3d 71 f8 0d 3d
       -0.012685896 0.05335804 0.050403457 0.03466076
0000c0 e0 b4 9d bd ec aa 9e bc 45 48 cf bd 89 90 55 bd
       -0.07700515 -0.019368611 -0.10121206 -0.052139793
0000d0 07 9d 08 bd 05 4f 67 bf 40 b0 59 bd 5a 15 8c b8
       -0.033352878 -0.9035495 -0.0531466 -6.679697e-05
0000e0 c6 37 04 be b0 34 c2 bc 0d 3e 3e 3d f4 10 1e 3d
       -0.12911901 -0.023706764 0.046445895 0.038590387
0000f0 46 ee 19 3d 19 00 12 3d f0 5c 88 bd e4 97 ab bd
       0.03758075 0.035644624 -0.066583514 -0.0837858
000100 b8 47 c6 bb f5 23 3b be 89 41 4c bd 93 96 97 3c
       -0.00605103 -0.18275435 -0.049867187 0.018504417
000110 db 51 a4 3d 5e 85 2c be 9e 94 7e 3d 46 af 8d 3d
       0.08023425 -0.1684775 0.06215345 0.069181964
000120 cb 98 4b 3c 7b 5c 1c be fe 72 90 3d 01 90 87 be
       0.012426565 -0.15269653 0.07053183 -0.26477054
000130 e1 b6 b9 bc 94 9a db bd cf 81 01 be f2 98 a2 bc
       -0.022670211 -0.10722843 -0.12647174 -0.01984832
000140 c7 41 01 be 44 21 ed 3c 50 dd a1 bc ed b3 c8 bd
       -0.12622748 0.028946526 -0.01975885 -0.09799943
000150 c2 74 af 3c 5b 25 8e bd 8b 61 64 bd 32 56 cd bc
       0.02141798 -0.06940719 -0.055757087 -0.025065515
000160 7f 40 92 3d b6 30 26 bd cc 6e b9 bc 86 ca dc 3d
       0.07141208 -0.040573798 -0.02263584 0.10780816
000170 d3 b9 93 bd 82 3b 5f bd 5c 77 3c bd ba cb 1c bc
       -0.072131775 -0.05450011 -0.046012267 -0.009570057
000180 f6 0b 1c bd 43 93 93 bd 87 51 c5 bb e7 fa a3 be
       -0.038097344 -0.07205822 -0.0060216817 -0.3202736
000190 1c 9a 49 3c 7d 18 bf 3d 67 bf 9c bd 8a c5 c4 bc
       0.012304809 0.09330843 -0.076536946 -0.024019975
0001a0 67 d1 08 be 05 ad 84 bd f6 f8 23 bd ee aa 99 bd
       -0.1336113 -0.06478313 -0.04003235 -0.075033054
0001b0 44 42 89 bf 39 17 3d bd 36 0c 5b 3d 88 08 fe bd
       -1.0723348 -0.046164725 0.053478442 -0.12403971
0001c0 41 1c 8c be 21 2c 88 bd c2 05 ca 3c 18 d4 f8 3d
       -0.27365306 -0.06649042 0.024660949 0.12149829
0001d0 73 e7 b2 3d 3a 84 c0 bd 42 c1 ed bd df a2 30 bc
       0.08735552 -0.0940022 -0.116091266 -0.010781019
0001e0 2d 7a 4c bd 52 a8 94 bd 42 3c d6 3e 6d 68 5f bd
       -0.049921203 -0.07258667 0.41842848 -0.054542948
0001f0 ae 4b 6a 3d 63 82 32 bd f1 ec 3b bf e4 bf 5c 3d
       0.05720108 -0.043581378 -0.7340842 0.05389394
000200 49 b9 fd be 9c 49 98 3d 80 5b 99 3d 42 55 e6 3c
       -0.49555424 0.07435915 0.07488155 0.028116826
000210 b3 d1 bd 3a cc 4f cd 3d 6e 7b 7e bd 69 3c 8a bd
       0.0014482051 0.10024986 -0.06212943 -0.067498036
000220 bc d7 20 bd a7 7e 07 bd c7 82 86 3d b8 5d 2e 3e
       -0.03926824 -0.03307977 0.065679125 0.17027938
000230 c8 54 b8 3d db 3b 93 3d de 8e 32 3d 1d 57 bf bd
       0.09000546 0.07189151 0.04359328 -0.093427874
000240 48 d0 ba bd ac f4 db bd c5 db 9d 3d 8b e7 89 3d
       -0.09121758 -0.10740027 0.07707933 0.067336164
000250 e0 e9 a1 3d 05 34 32 bc 76 a8 a5 bd b8 13 c2 bc
       0.07905936 -0.01087666 -0.08088772 -0.023691043
000260 5f 7e 91 bd 01 25 19 3d 37 41 50 bc 2f 3d f1 3d
       -0.071041815 0.037388805 -0.012710861 0.11779248
000270 87 f3 14 3d c6 af d4 3d ae 98 79 bd d8 a9 00 3d
       0.03636506 0.103850886 -0.060936622 0.031411976
000280 28 e3 21 3d 2e b2 cf bd 8e 89 ed 3c d6 f8 dc bd
       0.039523274 -0.10141407 0.028996255 -0.10789649
000290 b0 12 e6 bd 7a cb b8 3c a9 9f c3 bd 32 95 1d 3e
       -0.11234033 0.022557963 -0.09551937 0.15388945
0002a0 62 35 dc 3d 3b 8c 6d 3d 6c 1a b8 3b e6 63 1a bc
       0.107523695 0.057995062 0.005618384 -0.009423232
0002b0 3d f5 ef bc c7 66 2d bd a8 b5 3c 3d 60 15 98 3c
       -0.029291743 -0.042334344 0.04607168 0.01856488
0002c0 45 ae 8b 3d fe 11 c8 bc 96 a8 8a bd 3e f6 b2 3d
       0.06820349 -0.024422642 -0.067704365 0.08738373
0002d0 05 84 74 3d c7 1b 0a bf d1 83 89 bc 06 14 31 bd
       0.059696216 -0.53948635 -0.016786488 -0.043231986
0002e0 8c bf e0 bd 79 25 e1 bc e3 d7 09 bd 14 cc 3b 3d
       -0.10974035 -0.027483689 -0.03365315 0.04584892
0002f0 03 f5 20 3e 0c 0a 67 bb 5c 27 bb 3d 1f ae 5f bc
       0.15718465 -0.003525379 0.091383666 -0.013652354
000300 e8 a8 ac bc da 00 01 be 9b 2a 8f 3d f6 c9 fb 3c
       -0.021076635 -0.12597981 0.06990548 0.03073595
000310 3d 7d aa bd a7 e7 a2 3c 6c 24 68 3c af 43 e3 3d
       -0.083246686 0.019885851 0.01416884 0.11096894
000320 9c ff d9 39 87 57 9a bd d8 8d 2e 3d 9d 3f eb bd
       0.0004157991 -0.07536226 0.04261574 -0.11486743
000330 96 62 2c 3d 94 4c 69 3c 6c eb 93 bd 73 ca 45 bd
       0.042086206 0.014239449 -0.072226375 -0.048288774
000340 c8 81 1f bd 1b 89 0f 3e 4e 12 23 3e 77 a9 7c bd
       -0.03894213 0.14017145 0.15924951 -0.06168505
000350 e5 d0 87 bc 48 01 7b bd 2b dd 18 bd 71 44 eb 3c
       -0.0165791 -0.06128052 -0.037320297 0.028719159
000360 ae 9b 6d 3d 08 c2 4b 3c 17 c3 32 bc 20 a5 35 bd
       0.058009796 0.012436397 -0.010910771 -0.04434693
000370 a7 f4 ce 3d 88 68 2f bc c9 f6 bc bd 48 c8 bb 3d
       0.101052575 -0.010706075 -0.09226758 0.0916906
000380 3d 1c 4b 3d af 1f ef bb de 86 5d bc d7 fe a6 bd
       0.049587477 -0.007297478 -0.013520924 -0.081540756
000390 4a 2f 79 3d cf 24 21 3d e8 53 6f bd a6 2b c4 bc
       0.060836114 0.039341744 -0.05842963 -0.023946594
0003a0 2c c9 2d bc 89 a5 9d 3d cb 28 fe 3c 33 1d 5a 3c
       -0.010607045 0.07697589 0.031025311 0.013312626
0003b0 c9 0a 1c bf 0b 30 d7 3b 37 06 84 bd cd e3 9c bc
       -0.60953957 0.0065670065 -0.06446498 -0.019151593
0003c0 93 dc 06 bc fa 02 96 bd ff 5e 12 be 56 91 90 3d
       -0.0082313 -0.073247865 -0.1429405 0.07058971
0003d0 8a a4 08 bd 66 eb af bd db 17 4e 3d 16 4a c6 ba
       -0.03336004 -0.085898206 0.05031572 -0.001512828
0003e0 9b d6 dd 3d 36 a8 e7 bd 4b 60 88 3e 8a 0d 38 bc
       0.10831948 -0.113113806 0.26635966 -0.011233697
0003f0 12 ab 81 bd 22 5f 2f 3d df 8e 07 be 92 64 40 bc
       -0.06331457 0.042815335 -0.13238095 -0.011742728

VAE_Decoder.layers.1.linear1.bias f4 [4]
000000 ec f8 ce bc 3c a2 68 bd e6 4d 96 bd 68 5a bf bd
       -0.02526518 -0.056795344 -0.07339077 -0.093434155

VAE_Decoder.layers.1.norm1.weight f4 [4]
000000 47 58 90 3f 69 2a 97 3f 47 92 8a 3f 1f 91 97 3f
       1.127694 1.1809818 1.082589 1.1841162

VAE_Decoder.layers.1.norm1.bias f4 [4]
000000 a9 30 f1 bc 5c 2c 82 3d ce b8 2f 3d 37 ef eb bd
       -0.029442148 0.06356117 0.042900853 -0.11520236

VAE_Decoder.layers.1.norm0.weight f4 [4]
000000 38 e5 76 3f 55 a6 9a 3f 11 11 8c 3f b8 de 78 3f
       0.9644351 1.208201 1.0942708 0.9721484

VAE_Decoder.layers.1.norm0.bias f4 [4]
000000 4b 87 84 3d 91 3a 7d bc b6 b7 bc 3c cf 26 8c bc
       0.064711176 -0.015455858 0.023036819 -0.01710835

VAE_Decoder.last_normalization.weight f4 [4]
000000 00 00 80 3f 00 00 80 3f 00 00 80 3f 00 00 80 3f
       1.0 1.0 1.0 1.0

VAE_Decoder.last_normalization.bias f4 [4]
000000 00 00 00 00 00 00 00 00 00 00 00 00 00 00 00 00
       0.0 0.0 0.0 0.0

VAE_Decoder.head.weight f4 [4, 4]
000000 40 a7 b8 bc a0 86 bb bd ec 91 5e 3e ca 6d 9e 3e
       -0.022540689 -0.09156537 0.21735352 0.30943137
000010 d8 39 d7 bd b6 fa c9 be a8 b1 c9 3d f4 99 41 3e
       -0.1050908 -0.3944909 0.09848338 0.18906385
000020 a0 22 af be b8 03 81 3e e0 dc 94 3c a0 99 85 be
       -0.34206104 0.2519815 0.018171728 -0.2609377
000030 2e a2 c6 3e 60 6f db be 60 4e a8 be c4 35 79 be
       0.38795608 -0.4285841 -0.32872295 -0.24336916

VAE_Decoder.head.bias f4 [4]
000000 0c 0a 05 3e 74 af 6c 3e d0 a9 6c 3e e4 05 ac be
       0.12992114 0.23113805 0.23111653 -0.33598244

Detokenizer.weight f4 [2, 4]
000000 62 db 3d bb 5f 3c c6 be 35 1b d9 3e 1f 26 25 bd
       -0.0028969874 -0.38717934 0.4240357 -0.04031956
000010 f0 61 6f be ad ec 90 be c7 8a 00 3e ac 85 01 3e
       -0.23377204 -0.2830557 0.1255294 0.12648648

Detokenizer.cat_recons.0.weight f4 [2, 4]
000000 21 8f 19 3f c6 bb 1c be fd 50 a6 be 0e 0d b7 bc
       0.5998402 -0.15306005 -0.32483664 -0.022345092
000010 50 dd 30 3e e5 b6 05 bf b7 da 14 be a7 ed 26 3f
       0.17271924 -0.522322 -0.14536558 0.6520638

Detokenizer.cat_recons.0.bias f4 [2]
000000 0b c8 bb be 68 0f 20 3e
       -0.36676058 0.15630877
