restsyn/tabsyn/vae/ckpt/blobs/encoder.pt (torch, 21872 bytes, 33 tensors)

Tokenizer.weight f4 [3, 4]
000000 88 29 a5 be f7 2b 4c 3e 6d 2e 7d be c8 d7 c6 be
       -0.32258248 0.19938646 -0.24724741 -0.38836503
000010 5d cc 82 3e 95 b5 13 be a7 70 a6 be 07 d2 b7 be
       0.25546542 -0.14424737 -0.32507822 -0.35902426
000020 e0 3e 3f 3d 23 38 a1 be cc a3 0b be c6 fc d4 3e
       0.04669082 -0.3148814 -0.13636702 0.415991

Tokenizer.bias f4 [3, 4]
000000 a5 0b 02 3e 39 af 01 bf 6e 24 ce 3e 3f f3 52 be
       0.12699755 -0.50657994 0.4026217 -0.20600604
000010 c0 5d c0 3e 1a 49 e6 be 9a 59 ec be c1 5a da be
       0.37571526 -0.44977647 -0.4616211 -0.42647365
000020 62 c2 a7 3e c4 4d 9d 3e 1e 58 dd 3e f6 7e 08 3e
       0.3276549 0.30723393 0.4323129 0.13329682

Tokenizer.category_embeddings.weight f4 [2, 4]
000000 41 b1 9d be a3 28 4d 3d 84 22 e3 3e 5b d4 44 3e
       -0.30799296 0.050087582 0.4436227 0.19221632
000010 65 8e 53 be f8 c8 bb be cb 1f db bd 9a d3 d1 3e
       -0.20659788 -0.36676764 -0.106994234 0.40981752

VAE_Encoder.layers.0.attention.W_q.weight f4 [4, 4]
000000 34 8c e8 be 44 9a d5 3e 3a d7 cc 3e 3c 82 bc be
       -0.45419466 0.41719258 0.40007955 -0.3681811
000010 68 b5 72 bd b3 14 ed be 23 88 81 3e 49 bb 0a 3f
       -0.059255034 -0.46304855 0.25299177 0.54192024
000020 f0 9e fa bd a6 cb 06 bf 36 6d 49 be a0 52 20 3f
       -0.12237346 -0.5265449 -0.19670567 0.62626076
000030 4f 16 0b 3e e6 6c d5 3e 90 fc 97 3e 58 ea 13 3f
       0.13582729 0.41684645 0.29684877 0.57779455

VAE_Encoder.layers.0.attention.W_q.bias f4 [4]
000000 0e db c2 bc 24 b6 82 39 50 24 df 3d d4 91 d9 bc
       -0.023786094 0.00024931238 0.10895598 -0.026558794

VAE_Encoder.layers.0.attention.W_k.weight f4 [4, 4]
000000 57 55 54 3e 40 5c 0f 3e 85 f7 fb be b9 17 54 be
       0.2073568 0.14000034 -0.4921228 -0.20712174
000010 c5 90 ac be 3d 55 74 3c 14 5d 95 be 37 9a 10 3e
       -0.337042 0.0149129005 -0.29172575 0.14121328
000020 c7 68 ee be 3d aa 92 be 4b e7 1d be 3d 3c 95 3e
       -0.46564314 -0.28645507 -0.15420263 0.2914752
000030 46 d0 c1 3e 7b 39 c4 be 0e 79 0f bf 52 b2 05 bd
       0.37854213 -0.38325104 -0.5604409 -0.032640763

VAE_Encoder.layers.0.attention.W_k.bias f4 [4]
000000 54 39 f4 38 44 15 c6 39 00 b1 7d b9 27 6e aa 39
       0.00011645505 0.00037781347 -0.00024193898 0.00032506997

VAE_Encoder.layers.0.attention.W_v.weight f4 [4, 4]
000000 02 5e 64 bd 07 22 4e 3e 4e f6 c3 3e 69 84 6c bd
       -0.055753715 0.20130168 0.38273853 -0.057743464
000010 7c 91 fd be f6 2a d8 3e 18 e0 aa bd c4 c0 90 be
       -0.49525058 0.42220277 -0.08343524 -0.28272069
000020 29 d7 0e bf c2 79 ac 3c 9f 5a 12 3e d2 be 57 3b
       -0.5579706 0.021054152 0.14292382 0.0032920134
000030 5d 12 c8 bd 7f dd 9d bd d7 ae 85 be 28 83 85 bd
       -0.097691275 -0.07708263 -0.26109955 -0.06519157

VAE_Encoder.layers.0.attention.W_v.bias f4 [4]
000000 2f 66 2b 3d 6b ec e0 bc 1b af 51 3b 60 94 c0 bc
       0.041845497 -0.027456483 0.003199524 -0.02350825

VAE_Encoder.layers.0.linear0.weight f4 [128, 4]
000000 be 30 4d 3e 87 c7 aa 3e 67 39 e3 be dc 1b 95 3e
       0.20038125 0.33355352 -0.44379732 0.29122818
000010 2d df 28 3e ec d2 18 be b8 fa dc be 26 2e ac 3d
       0.16491385 -0.1492421 -0.43160033 0.084072396
000020 21 06 f8 3e ad 76 06 3f e0 97 33 3e e7 7f 57 bd
       0.48442176 0.52524835 0.17538404 -0.05261221
000030 a4 67 86 be 66 d6 97 be af f6 88 be 70 5b 24 3e
       -0.26250947 -0.2965576 -0.26750705 0.16050506
000040 3f b2 56 3e 82 f0 ff bd 86 b2 88 3e 38 f1 d2 3e
       0.20966433 -0.12497045 0.26698703 0.4119966
000050 a0 d9 3a 3e 30 3f cc 3e c4 4a a8 3d 12 82 88 be
       0.1824708 0.39891958 0.082173854 -0.26661736
000060 45 96 d8 bd d9 ba dd be 1c b5 e6 3e 7a fb b1 be
       -0.10575537 -0.43306616 0.4506005 -0.34762174
000070 25 89 f6 be ef 9e 67 bd d5 16 a9 3e 39 59 37 3e
       -0.48151508 -0.056548055 0.33025232 0.1790513
000080 6d b6 fc be e3 d1 6a be 72 4a bf 3d 4f f9 8d 3e
       -0.4935793 -0.22931628 0.09340371 0.2772927
000090 5d ef f4 3e 4b ff 84 be 06 f6 e5 be de 0d 31 be
       0.4783887 -0.25976023 -0.44914263 -0.17290446
0000a0 8b f5 e6 be f2 29 04 bf 0b d7 e5 be 11 3a 77 3c
       -0.4510921 -0.51626503 -0.44890627 0.015089528
0000b0 5c fb 19 3d 8d a0 ce be 7d 55 2e be 06 76 b1 be
       0.03759323 -0.40356866 -0.17024799 -0.34660357
0000c0 07 80 9b be 40 1a e0 3e 5a e1 d7 3e 25 7d 34 3e
       -0.30371115 0.43770027 0.42164117 0.17625864
0000d0 b0 fc 00 bf 6f 18 4d 3e fc 95 38 bf f4 84 b6 3c
       -0.5038557 0.20028852 -0.7210386 0.022280194
0000e0 f1 5d 29 bf 13 84 10 3e 95 41 42 bf d8 a0 aa be
       -0.6615897 0.14112882 -0.7588132 -0.3332584
0000f0 fa da 93 bc d1 dd 02 3c bc 6c a5 be da 89 bf 3e
       -0.018048752 0.007987455 -0.3230952 0.3740986
000100 c1 12 00 bc b5 4f e6 3e c0 d8 9a be 6f ce f1 3d
       -0.007816971 0.44982687 -0.30243492 0.11806952
000110 71 bf 24 bd e8 14 be be 88 cb ab 3e ab a1 eb b9
       -0.040221635 -0.37125325 0.3355372 -0.00044943145
000120 e8 87 09 be 61 cc d2 bd 47 4e e8 3c 91 ae e9 3b
       -0.1343075 -0.102928884 0.028357638 0.0071314056
000130 17 83 62 be 13 a5 bd 3e 1d f8 9e 3e e4 dc 99 be
       -0.2212032 0.37040004 0.3104867 -0.3005134
000140 70 89 58 3e 86 06 c9 be f4 4b 00 3f bd 64 a7 3e
       0.21146178 -0.3926279 0.50115895 0.32694045
000150 7a a7 ee be f4 c9 2c be 60 e6 6c be a5 f6 8d 3e
       -0.4661215 -0.16873914 -0.23134756 0.27727237
000160 9b 49 2c 3d 36 1e a5 be ec 67 fc be 9c 26 cf 3e
       0.042062383 -0.32249612 -0.49298036 0.40459144
000170 e2 9d 50 3e 51 9c 54 3e da d8 eb be 32 e5 7d 3d
       0.20372728 0.20762755 -0.46063882 0.061986156
000180 e2 a7 ee 3e 84 2a 4a 3e 9f af be 3e 33 73 b4 be
       0.4661246 0.19742781 0.37243363 -0.3524414
000190 d5 0c e8 3e 45 0a 79 bc bb 7f aa 3e 21 a3 08 be
       0.4532229 -0.015200202 0.33300576 -0.13343479
0001a0 0b 44 65 3e 8f 16 c4 be 2c 1c 03 be 3f d8 9c be
       0.22389238 -0.3829846 -0.12803715 -0.30633733
0001b0 f0 1b 57 be b8 62 48 3e 9f 44 e6 3e aa e2 9b be
       -0.21006751 0.19568908 0.4497423 -0.30446368
0001c0 b9 1d 2a be 32 47 27 3e 02 0c bd 3e 80 69 0f be
       -0.16612901 0.16335753 0.36923224 -0.14005089
0001d0 f3 6c df 3e bd 96 cd be c5 b0 fd 3c 42 d1 2e 3d
       0.4363781 -0.40154067 0.03096808 0.042680033
0001e0 b5 17 91 be a9 31 fa 3e 0e fb 85 be ee ae b6 be
       -0.283384 0.48866013 -0.26168102 -0.35680336
0001f0 45 d2 87 bd b1 98 ac bd a9 17 df be c4 0b d6 3d
       -0.066319026 -0.08427561 -0.4357274 0.10451463
000200 64 c3 ff 3e 75 da 8d 3e 1d 44 71 3e 24 87 9b be
       0.4995376 0.27705732 0.2356114 -0.30376542
000210 ac e0 45 bf b6 eb 4b 3e 4f cc 2b bf ef da 48 3f
       -0.7729595 0.19914135 -0.67108625 0.78459066
000220 65 e3 51 bd 30 a7 f9 be 03 a7 9a 3e 08 e2 26 3d
       -0.05124225 -0.48760366 0.30205545 0.040742904
000230 a4 a4 c8 be 5f db e8 3e fe e3 ab 3d 1d 50 67 be
       -0.3918811 0.45479867 0.083930954 -0.22589155
000240 16 eb 84 be 86 e0 c0 3e f7 a5 c9 be a3 90 92 be
       -0.25960606 0.37671298 -0.39384434 -0.28625974
000250 47 49 aa be e2 5f de be f9 3b 7f be 92 3d 20 bb
       -0.3325903 -0.43432528 -0.24925222 -0.0024450761
000260 1d 72 7f 3e a7 34 f5 bc 20 56 0e 3e c0 97 41 3d
       0.24945875 -0.029932333 0.13900042 0.04726386
000270 5d aa 8c 3e 51 ac 77 3e ec 86 dd be f9 14 6a be
       0.27473727 0.24186827 -0.43267 -0.22859563
000280 82 e5 d1 3e ff 0d 7f be cf 23 87 3e 65 e9 c2 3e
       0.40995413 -0.24907683 0.26394507 0.3806869
000290 38 05 13 bf 02 1d ea 3c c8 14 fd bd bb 5a 5a 3e
       -0.5742984 0.028578285 -0.12357479 0.21323673
0002a0 44 51 78 3d d6 2b 27 3e e7 b6 d8 be 1a ab 7a 3e
       0.060624376 0.16325316 -0.42327043 0.24479333
0002b0 ff 5a cd 3e 1b cd ca 3d f0 c2 a5 3e 2d 98 71 3d
       0.40108487 0.09902402 0.32375288 0.058983017
0002c0 98 7e f0 be 47 54 fe 3e 9c 6e 80 3e 0d d7 aa bd
       -0.46971583 0.49673674 0.25084388 -0.08341799
0002d0 34 7d 70 3e 9e d4 99 be ef 04 04 3e 23 b4 fc 3e
       0.23485261 -0.30045027 0.12892507 0.49356183
0002e0 ec 3f f4 3e 25 27 8d bd 3b 28 0a 3c 52 11 9c be
       0.4770502 -0.06892232 0.008432443 -0.30481964
0002f0 c0 ec b9 3b c6 c2 f8 be bc b6 fc be 15 23 76 be
       0.0056739748 -0.485861 -0.49358165 -0.2403682
000300 ff 6d 90 3e 21 3f 4b 3e 03 6f 03 bf 2a 0d 0e 3d
       0.2820892 0.198483 -0.51341265 0.034680523
000310 eb 46 e2 be 8c 26 e7 bd 21 93 18 3e 07 8d 3b 3e
       -0.4419473 -0.11286649 0.14899875 0.18315516
000320 67 61 09 bf b4 05 cf 3e b2 30 d8 bd 5c 57 a5 3e
       -0.5366425 0.4043404 -0.10556163 0.32293212
000330 b5 8c 27 3e af 27 4c be e9 84 93 be d2 26 be be
       0.16362269 -0.19937013 -0.2881234 -0.37138993
000340 df 35 d3 3c 79 72 0a 3e b4 02 ba be e6 b3 e2 be
       0.025782524 0.1352023 -0.36330187 -0.44277877
000350 b3 c3 ef be b1 1f e6 3e c6 7c c1 3d 00 ed 8f 3e
       -0.46828994 0.44946054 0.09447627 0.28110504
000360 83 39 5f be 86 bb 09 3f c6 92 05 be 03 d5 f2 3e
       -0.21799283 0.53801763 -0.13044271 0.4742814
000370 93 d1 ed 3e c2 d2 77 be 3d 36 bd be 23 8e 81 be
       0.46448955 -0.24201491 -0.36955443 -0.25303754
000380 bd 3f 5b 3d d1 6c 87 3e 00 26 85 3c 40 9f 19 be
       0.053527582 0.26450208 0.016253471 -0.15002155
000390 5a 01 09 3e 89 29 f7 be 3b c8 7a 3b 96 84 aa 3e
       0.13379422 -0.48273876 0.003826632 0.3330428
0003a0 fe bc 8d 3e 70 0e c5 3e 0c eb 54 3e 6b b8 27 bc
       0.27683252 0.38487577 0.20792788 -0.01023684
0003b0 31 30 73 3e 70 c9 8d 3e c1 11 bc 3e 3a 7b b6 3d
       0.23748852 0.27692747 0.36732295 0.08910222
0003c0 67 84 f6 3e 42 02 c9 be 71 65 d2 3d 2b 73 ce bd
       0.4814789 -0.39259535 0.10273255 -0.1008056
0003d0 c5 34 88 3e de 5c 04 be 29 e4 3a 3e b4 e2 c0 3c
       0.2660276 -0.12926051 0.18251099 0.0235456
0003e0 dc 4a 59 bd 20 2e d4 3e 0f af 8c be a0 0f 76 3e
       -0.053049907 0.4144144 -0.2747731 0.24029398
0003f0 60 5c f3 be a5 ef 0d 3e bd 83 0b 3e 2c 8a d0 3e
       -0.47531414 0.13860948 0.13624473 0.40730417

VAE_Encoder.layers.0.linear0.bias f4 [128]
000000 c8 13 27 bd ce f0 a1 be 57 d6 dc 3c 8c 24 a9 3e
       -0.04079035 -0.31629032 0.026957674 0.33035696
000010 2e c7 ee be a9 75 20 be 8e fb bb bd e5 36 50 3e
       -0.46636337 -0.15669884 -0.091788396 0.2033344
000020 13 8c ac 3d 7c 2f 81 3e a9 60 bb be 2b 8d 31 3e
       0.084251545 0.2523154 -0.36597183 0.17339008
000030 3a 84 e5 be 01 1f ac be e5 5b a9 be e4 d3 88 3e
       -0.44827443 -0.33617404 -0.33077922 0.2672416
000040 e5 b0 1d bc 20 9b c1 bd b5 97 9a bd 71 3a 5f be
       -0.0096246945 -0.09453416 -0.07548467 -0.21799637
000050 83 78 fe bd a3 d1 fd 3d 6c f5 92 3c 4b 02 84 3d
       -0.124253295 0.12393501 0.017939292 0.0644575
000060 e6 c1 75 3e f7 3d 5c 3d 5f db eb 3e 43 fe 71 be
       0.23999748 0.05377003 0.46065804 -0.2363215
000070 b0 f5 c1 be b0 32 8d 3e fa fa 30 3e 96 e6 e0 3e
       -0.37882757 0.27577734 0.1728324 0.43925923
000080 29 ac ef be 1a ae ae be 32 2e bb 3e 0c d8 ee 3e
       -0.46811035 -0.34117204 0.36558682 0.46649206
000090 72 df 94 3e 59 2c 8d 3e 67 cd fd 3e 0c 9d b3 3c
       0.29076725 0.27572897 0.49570772 0.021925472
0000a0 29 a6 9c be 25 bd 92 be 39 4f 43 be 45 5c 5c be
       -0.3059552 -0.2865993 -0.1907319 -0.21519573
0000b0 af 42 1d 3d 08 bf ca be 49 d4 b8 3e 66 1d ac 3e
       0.038393673 -0.3959887 0.3609946 0.3361618
0000c0 6a 51 a6 bd 77 f9 82 3e 37 28 99 be 36 c1 9c be
       -0.08120997 0.25580952 -0.29913494 -0.30616158
0000d0 f2 b0 15 bd 31 02 e2 3e 7d 35 be 3e d3 06 8e be
       -0.0365457 0.44142297 0.37150183 -0.2773958
0000e0 9a 64 61 be 30 ee 31 3e 69 a2 90 be 99 92 f8 3c
       -0.22011033 0.17376018 -0.2824891 0.03034334
0000f0 fd 25 39 be 73 b4 c1 bc 57 8d ea 3e f5 63 3f 3e
       -0.18080898 -0.023645615 0.4581096 0.18690474
000100 27 71 b8 bd b2 e0 ea be 1c fc be be ab 94 61 3e
       -0.09005957 -0.45874554 -0.3730172 0.22029369
000110 c0 66 f3 be 26 af b4 be 1d d7 b6 3e 08 b6 02 be
       -0.4753933 -0.35289878 0.35710993 -0.12764752
000120 35 e4 b4 bc b3 ce a5 be 38 68 b0 be 50 69 da 3c
       -0.022081474 -0.3238426 -0.34454513 0.026661545
000130 21 6b 19 bd 7e 3f a3 3d c5 28 10 3e dd 82 cf be
       -0.03745568 0.079710945 0.14078052 -0.40529528
000140 3a b4 bd be 35 46 c6 bc 08 57 b1 3e 90 0e 0e 3e
       -0.37051564 -0.0242034 0.34636712 0.13872743
000150 bc 6b 1c 3e 63 d4 3a 3e eb 12 be be d6 83 95 be
       0.15275472 0.18245082 -0.37123808 -0.29202145
000160 6e e1 79 3e 4a 45 b2 3e 1c 9c 69 be 2a 87 8f 3e
       0.24402401 0.34818488 -0.22813457 0.2803281
000170 d7 c4 a7 be b6 d8 30 3e 8a 0d d4 bd 1a 83 d1 bc
       -0.32767364 0.17270169 -0.10354145 -0.02557521
000180 dd 88 ad 3e 32 99 b5 3e a4 4f 32 be 70 2d 8e 3e
       0.3389348 0.3546844 -0.17413193 0.2776904
000190 4a 39 36 be 08 21 ab be 97 c3 ae be 9f 17 13 3d
       -0.17795292 -0.33423638 -0.34133598 0.0359112
0001a0 7f 1e e1 be d6 f6 ad 3e cd f0 e0 be b1 66 9e be
       -0.4396858 0.33977383 -0.43933716 -0.30937722
0001b0 49 4e 05 3e e4 75 a3 be 54 1d de be 44 29 ed be
       0.13018145 -0.3192588 -0.4338175 -0.46320546
0001c0 18 d8 ba 3e 4a 4e f9 be 6e fc 94 be fb 18 e3 3e
       0.3649299 -0.48692542 -0.2909884 0.44354996
0001d0 11 89 c1 3e 01 d0 db 3e 42 fd b5 be 36 a5 c7 bd
       0.37799886 0.42932132 -0.35544783 -0.09748308
0001e0 63 19 a7 3e cb ce a8 be b7 0f 00 be ac 71 fa 3d
       0.32636556 -0.3297027 -0.12505995 0.122287124
0001f0 cc ae 9f bd 62 f5 eb 3e 14 98 86 3e 26 2a 35 be
       -0.07797012 0.4608565 0.262879 -0.1769186

VAE_Encoder.layers.0.linear1.weight f4 [4, 128]
000000 35 52 d1 bd db 41 bb bb 68 10 4e 3c 46 1d e5 3a
       -0.10220758 -0.0057146377 0.012577154 0.0017480038
000010 93 99 ce bc 02 2b 03 3e 02 78 11 bd e2 2e 8f 3d
       -0.025219714 0.12809375 -0.03551484 0.06991364
000020 f1 fd 85 bc f3 7d e3 3c 7d 46 dc 3d 43 50 18 bd
       -0.01635644 0.027770018 0.10755632 -0.03718592
000030 f3 98 8e 3d ce 9d a8 3e 31 e1 25 3e 25 f3 24 3a
       0.069627665 0.32932895 0.16199185 0.0006292335
000040 d5 ae a4 3e ed b6 04 bd 2f 6a 06 3d 16 80 46 3d
       0.32164636 -0.032401014 0.03281611 0.048461996
000050 8d f5 c0 bd e1 32 7f 3d 68 6d bd 3d 13 53 9c bc
       -0.09421835 0.06230438 0.09249383 -0.019082582
000060 2d c0 04 3d d9 04 5e 3d b3 e6 db bc 9d f1 ac bc
       0.032409836 0.05420384 -0.026843404 -0.021111304
000070 46 ba 7c 3d ba f4 07 bd dd ff 45 bc dc c5 fd bc
       0.06170108 -0.033192374 -0.012084928 -0.030978136
000080 14 d4 30 3d 53 8a 63 bf ca 6f 03 bd d9 0a 09 bd
       0.043171003 -0.8888294 -0.032089032 -0.03345761
000090 10 04 f2 bc 1b 8e 75 bc 3e 03 fc 3b a4 47 c0 bc
       -0.029542953 -0.014987494 0.007690816 -0.02347166
0000a0 f6 ef 7f bd 47 1a 47 be 71 a3 c9 bd 29 3d 5e 3d
       -0.062484704 -0.19443618 -0.09845627 0.054257546
0000b0 cd 4e 9b bd 14 54 91 bc af c5 ac 3c f7 d8 ec 3c
       -0.075833894 -0.017740287 0.021090357 0.02891205
0000c0 94 69 d4 3c 9f a9 3c bd 74 be 2e be c6 79 c9 3c
       0.02592925 -0.0460602 -0.1706484 0.024594199
0000d0 2d f4 da 3d 97 b8 94 bc c3 ca 95 bc cf 19 bb 3c
       0.10691104 -0.018154426 -0.01828516 0.022839455
0000e0 60 12 0b bd d0 72 10 3d ef 59 71 bd 39 97 92 3d
       -0.03395307 0.035265744 -0.058923658 0.0715775
0000f0 ee e6 ca bc 39 7b 53 bd 39 3a 9d bd 25 f8 1d bd
       -0.024768319 -0.051631186 -0.07677121 -0.038566727
000100 05 fc 33 bc 41 55 2f bd b7 a7 f1 bc a2 cb 56 bd
       -0.010985379 -0.042805914 -0.029498918 -0.052440293
000110 33 37 44 bd 0f 96 e0 3d ce 24 78 3d cc 1e 40 3d
       -0.047904205 0.109661214 0.060581975 0.04690437
000120 f7 e8 98 bd a0 10 03 bd 98 e8 ae 3b 4c 1f 4f 3d
       -0.074663095 -0.031998277 0.005337786 0.050566956
000130 ff 1d 55 3d a6 6e 3f 3d 6e e1 8c bc 4e f0 22 be
       0.05203056 0.046736382 -0.017197337 -0.15911981
000140 46 df 66 3c de 0e 84 3d fd 63 9d 3d fa 63 9d bd
       0.0140913185 0.06448148 0.07685087 -0.07685085
000150 83 9a d1 bd 17 da c6 bd 9d a3 82 3c 99 24 0f 3e
       -0.10234549 -0.09709566 0.015947158 0.13978805
000160 2f a0 d2 bc 01 07 13 bd ec f0 50 3d 90 55 b8 3c
       -0.025711147 -0.03589535 0.05101101 0.022501737
000170 f6 41 a7 3d 3c 15 a2 bd 6a 74 fa 3b 84 bd 5d 3d
       0.08166878 -0.079142064 0.007643272 0.054135814
000180 eb 8c e0 bc a4 74 1b bd 82 96 26 be 4f e7 1a bd
       -0.027410945 -0.037953034 -0.16268352 -0.03781825
000190 99 4f d5 3c 14 1a f1 3d e4 b0 20 be 06 c3 b7 3d
       0.026038932 0.11772552 -0.15692478 0.08972745
0001a0 d4 ff 95 3c 87 15 23 3d 39 e5 a3 bd c6 58 cb bd
       0.018310465 0.039815452 -0.08002705 -0.099290416
0001b0 e7 59 5f bd f8 ff 3f bd 20 f6 0c bd 32 b3 a4 3a
       -0.054529097 -0.04687497 -0.03441441 0.0012565611
0001c0 20 02 b2 3c 1a 5c 2d 3d 13 a2 f5 bc 68 f9 64 3d
       0.021729529 0.042324163 -0.02998451 0.055901915
0001d0 2d d2 13 3d 96 dc ad bc 4b 89 65 3d 8c 5e 05 bc
       0.03608911 -0.021223348 0.056039136 -0.0081402175
0001e0 b8 02 52 bd 25 92 bb 3d 04 69 e8 3d 61 73 0b 3c
       -0.051272124 0.09158734 0.11348155 0.008511395
0001f0 e7 3f 34 3d ed f9 18 bd 23 e8 45 bc 39 89 b2 bd
       0.044006255 -0.037347723 -0.0120792715 -0.087175794
000200 ec fc 90 3d 44 17 1c bc 6f e0 00 3d b0 a8 9d bd
       0.07079491 -0.009527031 0.031464037 -0.0769819
000210 9a ec 57 bd 69 10 0e bd 34 f7 8a 3d 47 52 b6 3d
       -0.052715875 -0.03468362 0.067854315 0.08902412
000220 bf 5b d8 3d 03 88 2a bd b4 87 24 be 44 20 65 3d
       0.10564374 -0.041633617 -0.16067392 0.055938974
000230 ae cc 6c 3d f0 6b 17 3f 81 a5 7a be 4e 64 a2 bb
       0.057812385 0.59149075 -0.24477197 -0.004955805
000240 51 e6 a3 be 94 e1 60 3d e7 3a 1a bd 71 29 66 3d
       -0.32011655 0.054902628 -0.03765383 0.056191865
000250 24 e3 7b 3c 15 30 0f 3d 39 f2 a2 bd f5 bc ec bc
       0.015373979 0.034957964 -0.079563566 -0.028898695
000260 13 8c d3 bb 63 fc c9 3d bc e9 aa bd b9 1a 74 3d
       -0.006455907 0.09862592 -0.083453625 0.059595797
000270 b2 b0 48 bd bb 57 dc bd 59 c4 18 3d bf a4 a9 bd
       -0.048996635 -0.10758921 0.037296627 -0.08283376
000280 05 49 89 bd 99 53 91 3f a2 8e 67 bd 81 47 c6 bc
       -0.067033805 1.1353637 -0.05653251 -0.024204018
000290 f6 bf eb 3c ae 68 15 3d bb 12 41 bc 43 ad 60 bd
       0.028778058 0.036476783 -0.011784251 -0.054852735
0002a0 8b 4d 7f bd d4 ac f2 3d 52 91 8e bd 34 00 95 bd
       -0.06232981 0.118493706 -0.069613114 -0.07275429
0002b0 a8 c9 ca 3d 42 26 7e bd f1 71 4e 3d ae 26 5f bd
       0.09901744 -0.062048204 0.05040163 -0.054480247
0002c0 7c 18 52 bd 01 da bf bc d6 d2 65 3e 1f f5 40 bd
       -0.05129288 -0.023419382 0.22443709 -0.047108766
0002d0 7f ff a5 bd 6d c7 52 3d 36 8f 83 3d 33 9d 96 bc
       -0.08105373 0.05145972 0.064238 -0.018385505
0002e0 29 e8 c1 bc ce 6b 6a bd 25 e6 ce 3d f1 4c 14 3d
       -0.023670273 -0.057231717 0.1010249 0.03620619
0002f0 34 b9 30 bc 03 67 eb bc 11 e1 c1 3d 02 97 31 3d
       -0.010786343 -0.028735643 0.09466756 0.043356903
000300 a9 f9 07 bd 76 10 b8 bc 63 3e 0f 3e 15 3b a8 3d
       -0.03319708 -0.022468787 0.13988642 0.08214394
000310 f5 a9 db bc 93 e7 85 be ea 5d 17 3d 42 73 8e bd
       -0.02681444 -0.2615324 0.036954798 -0.069555774
000320 80 e3 8d 3d 6d 04 a6 3d ef 79 f0 bd 20 c6 d1 bd
       0.06928158 0.08106313 -0.11742007 -0.102428675
000330 da 09 fe bd c2 9f e5 bd aa 20 9f 3d 17 08 81 3d
       -0.12404223 -0.11212112 0.07769902 0.06300371
000340 7e 73 dd bd 7a fd 6e bd 03 9e cd 3d 1c 07 de 3c
       -0.10813044 -0.058347203 0.10039904 0.027103
000350 64 3a 2d 3d 75 79 af 3d 88 7f 39 3d e5 e5 8b bd
       0.042292014 0.08568088 0.04528764 -0.06830958
000360 f4 de bc 3d a6 e0 d5 3c ae ff a2 3d 47 97 7e bd
       0.092222124 0.026108097 0.07958923 -0.062155988
000370 28 d7 8d bd 83 ff 24 3d 78 48 7c bd 8d 9b c9 3c
       -0.069258034 0.040282737 -0.06159255 0.024610305
000380 0e aa 04 3d a0 b0 07 bb 6e 48 5f 3e b4 d7 fe 3b
       0.03238874 -0.0020704642 0.21804973 0.0077771787
000390 5a 0d 09 be 77 05 51 be 33 ec 56 be 9c e5 98 3c
       -0.13384 -0.20412241 -0.2098854 0.018664174
0003a0 12 51 4b 3d 5d 4b 8d 3b 2d ef 73 3d b6 4a de bd
       0.04963786 0.0043119625 0.059554268 -0.10854094
0003b0 ce 11 fc bc 93 24 8d 3d 07 4a 50 3d 04 44 1c be
       -0.030770209 0.068917416 0.050851848 -0.15260321
0003c0 71 81 d9 3c e3 5d eb bc 22 63 21 3b 03 e2 e1 3d
       0.02655098 -0.028731292 0.0024625738 0.110294364
0003d0 14 f9 ad 3d cc 0a 73 bd f3 30 6d bc 14 95 10 bc
       0.084947735 -0.05933647 -0.014477002 -0.0088246055
0003e0 e5 ae 90 bb 7d 09 33 3d b0 dc 68 bd 65 a2 bb bb
       -0.0044153803 0.04371022 -0.05685109 -0.005726146
0003f0 db 79 ed bc 99 ac 5e bd 96 0d bc 3d 08 be 92 bd
       -0.02898877 -0.05436382 0.09182279 -0.07165152

VAE_Encoder.layers.0.linear1.bias f4 [4]
000000 bd b4 bf bb 51 23 52 3d e5 65 c4 3d a2 0f 1a 3b
       -0.005850403 0.05130321 0.09589747 0.0023507853

VAE_Encoder.layers.0.norm1.weight f4 [4]
000000 84 9c 89 3f 4a a1 84 3f d7 23 89 3f 2a 8d 78 3f
       1.075089 1.0361722 1.0714062 0.970904

VAE_Encoder.layers.0.norm1.bias f4 [4]
000000 f2 cd ec 3c f5 57 09 bd 87 02 e7 3c 93 09 1d ba
       0.028906796 -0.033531148 0.028199447 -0.00059905014

VAE_Encoder.layers.1.attention.W_q.weight f4 [4, 4]
000000 5e d8 c4 3e e3 e0 dc bd 8f 34 bd bc 70 21 bd 3d
       0.38446325 -0.10785081 -0.023096351 0.09234893
000010 90 95 73 3e 7d e0 a3 3e e1 ec d6 be 40 91 92 be
       0.23787522 0.32007208 -0.419776 -0.28626442
000020 13 d3 b3 3b 88 d4 86 be 59 80 a6 3c a5 d5 a2 3d
       0.0054878085 -0.26334023 0.020324873 0.07950906
000030 4b 1e 09 bf 99 76 2c 3f cd 4c 94 3d 8e f2 8c 3e
       -0.5356185 0.67368466 0.07241211 0.27528805

VAE_Encoder.layers.1.attention.W_q.bias f4 [4]
000000 67 98 25 bc 19 aa 8b bd 94 d7 3e bd 9d b3 83 bd
       -0.010107136 -0.06819553 -0.04659231 -0.06430743

VAE_Encoder.layers.1.attention.W_k.weight f4 [4, 4]
000000 e9 79 17 3e 4d ef 46 3d 51 fd 39 be 8f 35 c0 be
       0.14792599 0.04856806 -0.18163039 -0.37540862
000010 33 48 6f be 9a 44 98 3e 22 cb a2 be ec cc 0b 3e
       -0.23367386 0.2973984 -0.31795603 0.1365239
000020 4b 15 1b be e0 f6 d4 3e c1 fa 71 3d 6f b4 95 3e
       -0.15144841 0.415946 0.05907703 0.29239222
000030 c2 ab 62 bd e1 1b 26 3d 2f 6a ed be fe bf c6 be
       -0.055339582 0.04055393 -0.46370074 -0.38818353

VAE_Encoder.layers.1.attention.W_k.bias f4 [4]
000000 2d 0b 3a 3a 9b 78 63 b9 86 a6 a9 37 18 e9 bb 39
       0.0007097002 -0.00021693336 2.0223913e-05 0.00035841088

VAE_Encoder.layers.1.attention.W_v.weight f4 [4, 4]
000000 3d 94 21 3e 3c 17 fa 3e 67 8e d1 3e a8 3e dd 3e
       0.15779205 0.4884585 0.40928957 0.43211865
000010 2a 65 2c be 73 51 34 bd 97 e1 f5 be ed 80 2e be
       -0.16835466 -0.04402299 -0.48023674 -0.17041369
000020 6a 10 79 be c6 60 73 3c be 8c 0b 3e 11 f2 8b 3d
       -0.24322668 0.014854616 0.13627908 0.0683328
000030 76 dc 75 be 51 59 a4 bc bd 16 4c bd 23 eb ad 3e
       -0.2400988 -0.02006212 -0.049826372 0.33968458

VAE_Encoder.layers.1.attention.W_v.bias f4 [4]
000000 cb 2a 9a 3b fc 7d 54 bc 72 74 bd 3b b3 2b 75 bc
       0.0047048084 -0.01296949 0.0057817036 -0.014964032

VAE_Encoder.layers.1.linear0.weight f4 [128, 4]
000000 fe 0d d0 bc 67 24 cc be 55 c7 7e be 6c 44 0e 3f
       -0.025397297 -0.39871523 -0.24880727 0.55573153
000010 82 e0 c0 bd 69 10 0b 3e 88 b7 17 bf 78 f1 8a be
       -0.094178215 0.13580479 -0.5926442 -0.2713735
000020 ae 3f 11 3f be ae 9f be 18 36 56 be 7b 90 71 3e
       0.5673779 -0.31188005 -0.20919073 0.23590271
000030 0c 75 09 3d 9d 8e bd 3e fc bd dd 3e 73 c3 cf 3e
       0.03355889 0.37022868 0.4330901 0.40578803
000040 f2 1a 5e bd 96 4b 81 3e bc 8c be 3e 85 b1 df bd
       -0.054224916 0.2525298 0.37216747 -0.10922531
000050 a3 79 e1 3d fc 85 e9 3e 72 5f 05 3f 0d 69 cc be
       0.110095285 0.45610034 0.52098763 -0.39923897
000060 36 a5 c9 be 88 36 d7 3e 65 bb 0b 3e 54 00 ba 3e
       -0.39383858 0.42033792 0.13645704 0.36328375
000070 c6 70 d7 3e 6b 6f 96 be e6 9c c7 be cd 22 07 3f
       0.42078227 -0.2938188 -0.38986892 0.52787477
000080 2c 97 44 3e 39 52 fa 3e 18 0f f1 be d7 d2 a5 be
       0.19198292 0.48890856 -0.47081828 -0.3238742
000090 d0 b7 1d 3e 50 0f ac be 17 45 d8 3d 2d 4f 14 3e
       0.1540215 -0.33605433 0.10560053 0.14483328
0000a0 d2 af 8d 3e f5 0b c3 3e 3e cb b3 3e 78 31 1b be
       0.27673203 0.3809506 0.35116 -0.1515559
0000b0 5f e9 ee bd d5 99 a0 3e cd 5e 07 3f 63 e4 e5 be
       -0.11665606 0.31367365 0.5287903 -0.44900808
0000c0 3c 74 88 be 88 eb b2 bd e3 e2 cb 3e a3 e0 a8 3e
       -0.2665118 -0.0873633 0.39821538 0.32983884
0000d0 b8 fd b4 be 6e 03 11 3e 98 52 19 be ad 19 23 be
       -0.35349822 0.14161465 -0.14972913 -0.15927763
0000e0 4a bf 4d 3e 0a 65 15 3e 47 e9 50 3e bc 7a dd bd
       0.20092502 0.14589325 0.20401488 -0.10814425
0000f0 8e c0 ee be fe 95 01 bd ae 10 b4 be 52 26 30 bd
       -0.46631283 -0.031637184 -0.35168976 -0.043005295
000100 b2 c4 c1 3e 98 53 a3 3e b7 ae 3a be 1f 19 60 be
       0.3784538 0.31899714 -0.18230711 -0.21884583
000110 fa 5a b3 be 9b 81 e9 be f2 41 81 3e c9 23 14 3e
       -0.35030347 -0.45606694 0.25245625 0.14466776
000120 bb 3f ad 3e 02 e0 be 3e fb 0f a7 3e c8 2f d6 be
       0.33837685 0.3728028 0.3262938 -0.4183333
000130 dd 7f 3f be 1c 28 70 3e 11 ad ed be db 1e 45 bd
       -0.1870112 0.234528 -0.46421102 -0.04812513
000140 cd f4 d8 3c 4c 74 09 bd 98 60 5e be 7c b8 be 3e
       0.026483918 -0.033558175 -0.21716535 0.37250125
000150 84 69 91 3e 70 8b bf be 48 aa e8 3e 26 05 48 bd
       0.28400815 -0.3741107 0.45442414 -0.048833035
000160 8c c5 c1 3e cf 04 17 3e 6b 86 eb 3c ec a6 a7 3e
       0.3784603 0.14747928 0.028750619 0.3274454
000170 3d fe 52 be b7 e8 c5 bc bf 14 52 bd 68 42 d7 be
       -0.20604797 -0.024158819 -0.051289316 -0.4204285
000180 99 69 75 3e a7 1c 34 be d7 3b 85 be e0 2f 5d be
       0.23966064 -0.17589055 -0.26022217 -0.21600294
000190 ca 0e c3 3e 43 72 3c be 60 44 b4 be 9d 08 e8 3d
       0.3809722 -0.18402962 -0.35208416 0.11329768
0001a0 93 73 12 3f 51 f4 9d 3d bc 61 aa be 83 ad 1d 3f
       0.572076 0.07712615 -0.3327769 0.6159288
0001b0 c2 e2 6a be 82 57 87 be 20 21 ae 3e fa d3 ba be
       -0.22938064 -0.2643395 0.34009647 -0.3648985
0001c0 82 10 50 be 8f da c1 3e 02 a6 38 be 86 26 36 be
       -0.20318797 0.3786206 -0.18032077 -0.17788133
0001d0 93 c5 d6 3e b9 81 40 3d 95 9c db be ea 20 0b 3f
       0.41947612 0.046998713 -0.428929 0.543471
0001e0 52 4f 08 be 2f 3d ae be 7b fa 9d 3e 62 4c 3a be
       -0.13311508 -0.34031054 0.30855164 -0.181932
0001f0 54 61 c8 be 27 c5 e4 be 3f 73 c2 3e 9c 11 a1 bd
       -0.39136755 -0.44681665 0.3797855 -0.07864687
000200 29 11 03 be f3 04 62 be 71 24 d2 be 7f b6 0d bf
       -0.12799515 -0.220722 -0.41043428 -0.5535659
000210 8c 21 d3 3e ca 41 d8 be 9d bd ce 3e 1a 2a be 3e
       0.41236532 -0.42237693 0.40379038 0.37141496
000220 c5 d2 6f bd d5 6a bc be da da a9 3e 1a c8 0b 3e
       -0.058550615 -0.36800256 0.33174783 0.13650551
000230 23 a7 b7 be cc 19 98 3e 7f 28 20 3e b1 fc 95 3e
       -0.35869703 0.2970718 0.15640448 0.2929435
000240 24 ca 33 3e d1 8f 9d 3e c5 93 cb bd 81 09 0b 3f
       0.1755758 0.30773786 -0.09940294 0.54311377
000250 f1 f4 4d be 0f 21 5f 3e f9 4d fc bd a3 aa 90 3e
       -0.20112969 0.21789955 -0.123195596 0.28255185
000260 1a 25 a1 be e2 b6 11 3e b5 a6 02 3f 6e 3f b3 be
       -0.3147362 0.1422992 0.51035625 -0.3500933
000270 30 5b a1 be 37 bb f7 3e 82 07 75 be 34 61 07 be
       -0.31514883 0.4838502 -0.23928645 -0.13220674
000280 ec d8 e6 3d 58 05 a6 3e 4e aa 18 bd de 5c 45 3e
       0.11271843 0.32425952 -0.03727179 0.19273707
000290 06 5e 30 bd c5 80 c6 3d 1b 70 e5 3d ef 5c 26 3e
       -0.043058418 0.096925296 0.11203023 0.16246389
0002a0 8b e4 1e 3f 03 ed f5 be 0e f3 00 bf e4 18 e7 be
       0.6206748 -0.48032388 -0.5037087 -0.45136178
0002b0 c6 34 d8 be bd 63 94 3e e2 3c d7 be 0d 08 77 3e
       -0.42227763 0.28982344 -0.42038637 0.24124165
0002c0 70 07 26 3e 0f ee 12 3e 4d 2d 8e 3d a1 c7 7d bd
       0.16213775 0.14348625 0.06942234 -0.06195796
0002d0 26 8d 68 be 18 56 04 3f 40 0c b3 3e 45 7e a3 3e
       -0.22710094 0.5169387 0.34970284 0.31932274
0002e0 75 c3 ca 3d 9b 28 23 3f 60 15 fe 3c 1b dc 96 3e
       0.09900562 0.63733834 0.031016052 0.29464802
0002f0 90 58 35 be b4 0d d8 be d7 5d 11 bf 3f 93 05 3e
       -0.17709565 -0.42197955 -0.56783813 0.13044451
000300 8a c0 f8 be 3e e6 9e be e5 74 00 3e e2 8c 33 3e
       -0.48584396 -0.31035036 0.12544592 0.17534211
000310 24 5d f1 be bb 24 2a be 76 1c c3 3e 33 42 9e be
       -0.47141373 -0.16615574 0.3810765 -0.3090988
000320 ad 1d de 3e 65 fc bf be 74 68 b1 be 92 6d 9b be
       0.43382016 -0.3749725 -0.34650004 -0.30357033
000330 36 e8 14 be f7 59 f8 be 25 10 99 3e 68 b5 eb 3d
       -0.14541706 -0.48506138 0.2989513 0.1150921
000340 c1 17 d7 be 7b 84 d8 3e d5 ee 06 bf 5c ca 11 be
       -0.4201031 0.42288575 -0.5270818 -0.1423735
000350 52 8a ca 3e b5 17 a2 3e 14 2a 8b bc b1 84 42 be
       0.39558655 0.31658712 -0.016987838 -0.1899593
000360 87 e0 e9 be 3e a2 55 3e 0e fc d2 3d 73 8e a2 be
       -0.45679113 0.20862672 0.10301982 -0.31749305
000370 63 22 f1 be 30 fb 87 be 01 33 18 3d 64 8e 2c 3d
       -0.47096547 -0.26558828 0.037158016 0.04212798
000380 6c 26 c6 3e c0 52 af be c2 77 27 bf ba 2b 5f 3d
       0.3870119 -0.3424282 -0.6541711 0.05448506
000390 fb 09 09 3e 65 94 01 bf 2b 4f af bd 7a 2f c5 be
       0.13382713 -0.5061706 -0.08560022 -0.38512784
0003a0 fa cd 34 be a2 c2 8d 3e c1 f1 dc 3a f7 7f 4d 3f
       -0.17656699 0.27687556 0.0016856716 0.80273384
0003b0 45 6a fe 3e 87 bf 6a be e3 fb 2c be 57 25 bb 3d
       0.49690452 -0.22924624 -0.16892962 0.091379814
0003c0 0a 33 e1 3e 5d 31 37 be a8 46 ba 3d 89 bb e6 3e
       0.43984252 -0.17889924 0.09095508 0.45064953
0003d0 a0 da 19 be 99 e8 f0 be ae 02 01 be af c8 93 be
       -0.15024805 -0.47052458 -0.12598678 -0.28864047
0003e0 fc 78 84 be f0 55 05 be d8 e9 81 be 7a b1 c7 be
       -0.25873554 -0.13021064 -0.2537372 -0.3900259
0003f0 ae 7c 25 be 74 41 d1 be 7e 8a ac be 2e 8b 8f 3e
       -0.16160843 -0.4087025 -0.3369941 0.28035873

VAE_Encoder.layers.1.linear0.bias f4 [128]
000000 17 65 cf 3c ff a5 37 be 0d 3f 0d 3e ed b0 c0 3d
       0.025316758 -0.17934416 0.13793583 0.09408746
000010 6e 9c fb 3e bb 2b 51 be 11 45 25 be 18 c2 cd 3e
       0.49142784 -0.20426838 -0.16139628 0.40187144
000020 b1 bb 28 be e6 f1 18 be af 54 e8 be 16 86 04 be
       -0.16477849 -0.14936027 -0.45377108 -0.12941775
000030 89 e3 c4 be a0 b3 01 3d 00 c8 cb 3e 80 0b c3 bd
       -0.38454846 0.031665444 0.39801025 -0.09523678
000040 fb 27 a1 3e 56 ea fe 3d 65 f9 99 bd 13 b6 08 3e
       0.31475815 0.1244704 -0.07518271 0.13350706
000050 1f 7c b1 bd 0f 0e 01 be 7e fb 52 3e f3 81 46 3d
       -0.08666252 -0.12603019 0.20603749 0.048463773
000060 9e 11 ca bd e3 0b be 3e 39 5e af be 92 37 8d bb
       -0.098666415 0.37118444 -0.34251574 -0.004309603
000070 61 c7 c6 3e fd 16 46 3e fe 50 c1 3e ba 70 b8 be
       0.3882399 0.19344707 0.37757105 -0.36023504
000080 9a dd c6 3e 76 0b f3 3e f0 c7 10 be b2 ff 87 be
       0.38840944 0.47469682 -0.1413877 -0.26562268
000090 35 41 dd be 60 4f b6 3e e4 93 00 3f ae c7 07 3e
       -0.43213812 0.35607433 0.50225663 0.13259766
0000a0 e7 8f f8 be 4d dc 1c be 76 01 67 be 25 2b 79 bd
       -0.4854729 -0.15318413 -0.22559151 -0.06083216
0000b0 71 0f 5d bd e4 42 eb bd d4 3a 0d be d1 83 3a be
       -0.053969804 -0.11487368 -0.13791972 -0.18214346
0000c0 19 e2 dd 3e e0 27 c4 be 0f c0 f0 be fb 15 8d be
       0.4333656 -0.38311672 -0.4702153 -0.27555832
0000d0 78 65 3e be f6 58 80 3e 88 42 db be d9 3e eb 3e
       -0.18593395 0.25067872 -0.42824197 0.45946386
0000e0 e5 c2 d9 3e 37 26 81 be 8d 7d 65 be 74 e4 33 bc
       0.42531505 -0.25224468 -0.22411175 -0.01097976
0000f0 e3 d7 ed 3e 6b bc a6 3d fc a5 eb be 5c 96 de 3e
       0.4645377 0.081414066 -0.46025074 0.4347409
000100 0f fa 3e 3e 90 54 f9 be cc ef a2 be 05 76 b4 3e
       0.18650077 -0.4869733 -0.31823575 0.35246292
000110 d3 de c8 3e 16 25 74 3e 02 d4 03 3e fc 51 71 be
       0.392325 0.23842272 0.12873843 -0.23566431
000120 a3 2b 6d 3d f0 79 e9 3e bb a1 77 be 69 71 90 be
       0.057902943 0.45600843 -0.24182789 -0.28211525
000130 03 5e c1 3e 43 86 ea 3e 7d 24 87 be a1 c1 d7 3e
       0.37767038 0.4580556 -0.26395026 0.42139915
000140 a5 9f 9b be 56 69 21 be 72 6f d8 3e ff 3f 3f bc
       -0.30395237 -0.15762839 0.42272526 -0.011672973
000150 55 d8 2b 3e c7 94 8b bd 66 15 c5 3e bf b8 ae 3e
       0.16781743 -0.068154864 0.38492888 0.34125325
000160 00 4e bc 3e 0f 57 04 3f 10 6d 7c be 2f ed d2 be
       0.3677826 0.5169534 -0.24650979 -0.41196582
000170 65 74 cd 3e 61 72 a2 be 3f a8 aa bd 6d 1d 1b be
       0.40127864 -0.3172789 -0.08332872 -0.15147944
000180 6f c2 86 be 32 26 89 be ac db 8c be 65 f2 34 3e
       -0.26320216 -0.26786953 -0.27511346 0.17670591
000190 96 b4 c1 3d 3c d5 cc be a2 ea bd be ea 5b 75 be
       0.09458272 -0.40006435 -0.37093073 -0.23960844
0001a0 dd 98 47 be ff f0 87 bd 7a 5c d6 bc 6a 37 05 3f
       -0.19491906 -0.06637763 -0.026167143 0.5203768
0001b0 56 24 8d bd b4 c6 56 3d 1e e8 9f be 4d 93 42 3e
       -0.06891696 0.05243559 -0.3123178 0.19001503
0001c0 58 1e e2 3e fb 2c 89 be 0d 5f c0 bd fe d4 bb 3e
       0.44163775 -0.2679213 -0.093931295 0.36685938
0001d0 ca d0 ae be 6e 30 bd be 78 f3 92 be 64 c1 4b be
       -0.34143668 -0.3695101 -0.28701377 -0.19897991
0001e0 fb 8d f1 be 5c 1b 5a be 64 36 ac be e2 6f 8f be
       -0.47178635 -0.212995 -0.33635247 -0.28015047
0001f0 85 7a d7 3d 12 b5 aa 3e 4c e2 04 bf c5 20 7f be
       0.105214156 0.3334127 -0.519078 -0.24914844

VAE_Encoder.layers.1.linear1.weight f4 [4, 128]
000000 2f ed ae bd 52 8d 18 3f c2 cf 63 3d 84 58 b1 3d
       -0.08541333 0.5959064 0.055618055 0.08659461
000010 b0 36 07 3d 41 08 3e 3c 26 0f 9b bd 92 d9 a4 bc
       0.03301114 0.011598648 -0.07571249 -0.020123277
000020 09 0d da bd 17 2d ff bc 8c c3 0d be ea 24 2c 3d
       -0.106470175 -0.03114943 -0.13844126 0.04202739
000030 9c c6 c0 3c c1 32 26 be 6a 34 ff 3c 7b 05 e2 bd
       0.023532204 -0.16230299 0.031152923 -0.110362016
000040 bd 39 92 3c cc 06 ca bc 13 be 89 3d 9a 46 99 bc
       0.017849797 -0.024661444 0.06725707 -0.018710423
000050 8e 53 0e 3c 5e c1 28 bc 42 9f 19 bd 45 a7 a2 3d
       0.008686913 -0.010300009 -0.037505396 0.079420604
000060 60 f0 48 3e e3 b0 9b 3c 1f a8 02 bd 82 8c 98 3d
       0.19622946 0.019005245 -0.031898614 0.07448675
000070 84 7f b2 bd 62 93 8a bd d1 81 75 3d 4b dc 87 3d
       -0.08715728 -0.06766392 0.059938256 0.066338144
000080 fd 1a 0f 3d 6b 18 28 3d 29 c4 85 bd be d7 2c 3c
       0.034937847 0.04103891 -0.06531555 0.010549484
000090 ad 50 02 3e 9f 11 6b bc ab 85 20 3d c7 77 01 be
       0.12726088 -0.014347463 0.039189976 -0.12643348
0000a0 8f 2c 74 3d b7 2a 83 3b c5 ce e8 3d ed d6 87 bd
       0.059612807 0.0040028947 0.11367563 -0.06632791
0000b0 34 53 0e 3c d4 20 5f bd 2b 0a 6c bd 4d 7f 66 bd
       0.008686829 -0.054474667 -0.057626884 -0.056273747
0000c0 ca a3 f1 bb 85 b1 c6 bd 75 9d 09 3e b2 71 d5 bc
       -0.0073742615 -0.09701828 0.13438971 -0.02605519
0000d0 8e ff 05 be 64 9b bc 3d 1c b1 01 be de 24 37 bc
       -0.13085768 0.09209326 -0.12665218 -0.011178223
0000e0 b5 ab 4c bd 90 9b 62 3d a1 08 09 be f7 14 b6 3d
       -0.04996844 0.055324137 -0.13382198 0.088907175
0000f0 a8 7c ac 3c 57 bb c4 3d e0 de 97 3c f2 dd 8f bd
       0.021055534 0.09606045 0.018538892 -0.070247546
000100 71 31 01 3e 97 67 8b bd cb 7b 32 3c 48 ce 2f bd
       0.12616517 -0.068068676 0.010893772 -0.042921335
000110 5e a2 1c bd e9 bd 59 bd 5f 4b 5c bd 47 e0 ef bc
       -0.038240783 -0.053159628 -0.053782817 -0.029281748
000120 ea 2c 0a be 7b 0d 83 bd 5c 78 49 3e 8c 37 99 3e
       -0.13493696 -0.063990556 0.1967482 0.2992519
000130 46 c4 ad 3c c7 c5 9f 3d 75 cd f7 3c c3 c7 51 3d
       0.021211755 0.07801395 0.030249337 0.0512159
000140 6f c0 a2 3d 99 3c 97 3d a5 fc 46 bd 35 a3 97 bd
       0.0794686 0.07384605 -0.048580784 -0.07404176
000150 9e a6 7b bd 0a f1 00 be e7 90 16 bd 8d 6a 25 3d
       -0.061438195 -0.12591949 -0.036759283 0.040384818
000160 00 85 e5 bc 28 7f 27 3b 30 c6 e3 3d a9 35 8b 3d
       -0.02801752 0.0025557969 0.11121786 0.06797344
000170 d5 1f af bc 0c a8 88 bd 41 8c 03 bc fe ff fd bc
       -0.021377483 -0.066726774 -0.008029045 -0.031005856
000180 7f 4e 74 3d 72 dd a3 bd 77 a6 ec 3c 5d b9 dc 3b
       0.059645172 -0.08001222 0.02888797 0.006735964
000190 56 19 59 bd b8 6b 3a bd 4f b3 c5 3d 86 3d 8d bd
       -0.053002678 -0.045512885 0.09653341 -0.068965
0001a0 a8 8a 3e 3d c1 04 68 be e2 c7 32 3e 41 98 74 bd
       0.04651895 -0.22658063 0.17459062 -0.059715513
0001b0 53 3b 16 bd b0 1d d0 3d 8b a3 c5 3d 1b d3 07 be
       -0.03667767 0.101619124 0.09650334 -0.13264124
0001c0 57 0b 8b bd 65 f1 16 3d d6 41 50 bd b3 e3 b3 bc
       -0.06789272 0.036851306 -0.050844036 -0.021959161
0001d0 84 a5 83 bd 79 1d 7b bd e5 71 19 bd 0e 49 ba bb
       -0.06428054 -0.061307404 -0.037462134 -0.0056849783
0001e0 a6 9b f7 3c bc 7e ea bc e5 19 92 bd 37 5c 4d bd
       0.030225586 -0.028624885 -0.07133845 -0.05013677
0001f0 71 a6 71 bc c7 07 63 bd d9 f5 88 bd 7e 0b a8 bd
       -0.014749155 -0.05542734 -0.06687517 -0.08205317
000200 ec 21 17 be 34 15 e3 be 1a 35 ad bd 50 de 24 bd
       -0.14759034 -0.44352114 -0.08457394 -0.040251076
000210 80 fd 05 3c 6d e2 30 3b 04 f3 72 3b cd ab d1 bd
       0.008178115 0.002699043 0.0037071118 -0.102378465
000220 af 3c 27 3e 16 72 9a bd 06 a7 8e 3d 31 78 36 3d
       0.16331743 -0.075412914 0.06965451 0.044548217
000230 8c 23 74 bc 0f 6d 0c bc b4 7d ad bd 56 6f 84 3e
       -0.014901053 -0.0085709235 -0.084712416 0.25866193
000240 46 f3 15 bc 0e c8 84 3d 8f 0a 70 3b aa 6e 80 bd
       -0.009152239 0.0648347 0.0036627387 -0.062711075
000250 06 03 78 bd c4 07 2f 3d 19 0f 25 be 33 ab cf 3c
       -0.06054976 0.042732015 -0.1611904 0.025350189
000260 3b 24 62 be c2 fb 33 3c cd 78 63 be 35 a3 40 3d
       -0.22084133 0.010985317 -0.2221405 0.047030646
000270 59 03 b0 3d 09 8e b1 bd 22 a8 97 bc 47 78 44 3c
       0.085943885 -0.08669669 -0.01851279 0.011991567
000280 bb 26 21 bd 8b d8 67 bd 7a ff c4 3d 3c 43 c2 3d
       -0.039343577 -0.056602996 0.09619041 0.0948548
000290 a3 56 ad bd fd f5 13 bc ba e9 c0 3d 30 f4 9f 3d
       -0.0846379 -0.009030816 0.0941958 0.07810247
0002a0 7b 87 f1 bd 9e 99 f0 3c 01 8e 0e bc fd e7 30 3e
       -0.11793419 0.029370125 -0.008700849 0.17275997
0002b0 06 ab b7 3c d2 25 5b bd 9b 07 29 be 54 f1 23 be
       0.022420418 -0.053502865 -0.16506808 -0.16010028
0002c0 d5 94 a9 3d fa e8 f3 3c 3f 8c ad bd 5e 22 13 3e
       0.082803406 0.029774178 -0.084740154 0.14368579
0002d0 6c 0b f2 bd 7f 6a 28 3d 00 6f c8 3d 16 6d f9 3d
       -0.11818585 0.041117188 0.097867966 0.121790096
0002e0 cd 0d 69 bd 1f 38 e6 bd 99 6b 2f 3e 25 7d 6e bd
       -0.056897927 -0.11241173 0.17130889 -0.058224816
0002f0 79 b0 0d 3d e5 22 0b 3d b3 96 93 bd 45 a9 f5 3a
       0.034592126 0.033968825 -0.07206478 0.0018742463
000300 af 76 f3 bd 59 2c f1 bd 9e 51 49 be 0c 48 01 bd
       -0.118878715 -0.11776037 -0.1966004 -0.03156285
000310 94 f3 8c bc 8f e7 17 3c fb 93 d0 3d 98 51 18 3e
       -0.01720599 0.009271516 0.10184475 0.14874876
000320 99 fb 5c bd c9 5e 15 3d de d3 6c be 9b 4d 55 be
       -0.05395088 0.036467347 -0.23127696 -0.20830385
000330 55 eb fc bb 4c cc 29 3d 45 83 2b 3d c8 0b b9 3c
       -0.0077184835 0.0414546 0.041873235 0.022588626
000340 e9 5f b0 3d 7d 47 cc bc 19 b8 1d bd 48 0a 30 3c
       0.086120434 -0.024936432 -0.038505647 0.010744639
000350 e9 68 2a bd 6e d6 1e be 38 33 15 bd aa 02 ae bd
       -0.041603956 -0.15511486 -0.0364258 -0.08496602
000360 5b aa e0 3c 57 fc e4 bc 32 cc b4 bc f7 21 e7 bd
       0.027424982 -0.027952356 -0.022070024 -0.11285775
000370 1e 40 9d bd be b0 37 3d 86 61 7c 3d 97 ab 13 3e
       -0.07678245 0.04484629 0.061616443 0.14420925
000380 db fe 98 bd 01 76 df bd 8d ea dc bd 97 32 c0 3b
       -0.07470485 -0.10911179 -0.107869245 0.005865406
000390 98 c8 db bc 52 23 95 bd 58 3c d8 bd 33 cd 4b 3e
       -0.026829049 -0.072821274 -0.10558385 0.19902496
0003a0 dd a8 bd 3d 08 6c 1e be 29 7c f0 b9 dd 32 d1 3d
       0.09260724 -0.15470898 -0.00045868874 0.102147795
0003b0 03 e6 ae bd d4 b8 b1 bd ee d5 95 bd d4 65 08 be
       -0.08539965 -0.08677831 -0.073161945 -0.13320094
0003c0 16 52 bd bd 32 e2 25 bd bf 8e 2c be 58 1a 82 3d
       -0.09244172 -0.04049892 -0.16851328 0.06352681
0003d0 42 a4 07 3e a3 d8 90 3c 54 53 a3 3d f5 35 0c 3a
       0.13246253 0.017681425 0.07974878 0.00053486164
0003e0 6b 5b 6e bd 49 de e8 3c 5f 96 46 bd e0 58 22 bd
       -0.05819265 0.028426306 -0.04848325 -0.03963554
0003f0 e1 9a 81 bd 49 4a ff 3d 52 5c 2d 3e e3 64 bf bd
       -0.06328369 0.12465341 0.16929749 -0.093454145

VAE_Encoder.layers.1.linear1.bias f4 [4]
000000 c3 e8 94 bd 1d 59 9d bc 90 12 a0 bd a6 bb 45 bd
       -0.07270958 -0.019207532 -0.078160405 -0.04827466

VAE_Encoder.layers.1.norm1.weight f4 [4]
000000 cf de 8a 3f df 34 8b 3f d7 ce 91 3f db 0e 8c 3f
       1.0849246 1.087551 1.1391248 1.0942034

VAE_Encoder.layers.1.norm1.bias f4 [4]
000000 27 60 e1 3c ef 01 96 bd c9 45 6c ba 5a 9a 7a bc
       0.02751167 -0.073245876 -0.00090130843 -0.015295589

VAE_Encoder.layers.1.norm0.weight f4 [4]
000000 59 b6 7d 3f 6d d1 7d 3f db 7b 81 3f f4 2d 6f 3f
       0.99106365 0.99147683 1.0115923 0.93429494

VAE_Encoder.layers.1.norm0.bias f4 [4]
000000 9d 6d 55 3c 08 73 b0 3b 52 b4 12 3c 83 c1 be bc
       0.013026622 0.0053848065 0.0089541245 -0.023285633

VAE_Encoder.last_normalization.weight f4 [4]
000000 00 00 80 3f 00 00 80 3f 00 00 80 3f 00 00 80 3f
       1.0 1.0 1.0 1.0

VAE_Encoder.last_normalization.bias f4 [4]
000000 00 00 00 00 00 00 00 00 00 00 00 00 00 00 00 00
       0.0 0.0 0.0 0.0

VAE_Encoder.head.weight f4 [4, 4]
000000 64 22 27 be 08 a6 d8 be da e4 f0 be 64 03 cb 3e
       -0.16321713 -0.42314172 -0.470496 0.39651024
000010 7c 89 7a be a2 c2 91 be 00 10 cf be a2 7b ef be
       -0.24466509 -0.28468806 -0.40441895 -0.46774012
000020 dc b1 08 3e a8 b9 ec 3e 6c 90 9d be 28 dc 5c be
       0.13349098 0.46235394 -0.30774248 -0.21568358
000030 ec 9f c0 be e8 b5 a0 be d2 90 91 be 42 99 d2 3e
       -0.3762201 -0.31388783 -0.28430802 0.4113255

VAE_Encoder.head.bias f4 [4]
000000 7c 8c 30 3e 88 29 17 3e 2c b7 01 be 60 80 73 3e
       0.1724109 0.14761937 -0.12667531 0.2377944
